new_checkpoints/11800004.ckpt (torch, 47169 bytes, 12 tensors)

weight f4 [256, 4]
0.23341215 0.038353924 0.4117558 0.03181559 0.16635412 0.4656905 0.34872365 -0.087082714
0.30475593 -0.751171 -0.49178565 0.07420973 0.03152281 0.5230614 -0.2299285 -0.06351315
-0.0032234788 -0.17307545 0.25091535 -0.03971222 0.1364168 0.28311566 -0.36368155 -0.11567081
0.2520352 -0.2547592 0.112185836 0.035396393 0.3663997 -0.43713656 -0.21049482 0.13007185
-0.17209917 -0.29651248 0.3678351 0.0896247 0.28944188 -0.780386 -0.28640944 0.09576853
0.31307757 -0.051917087 0.18817133 0.037204448 -0.31631124 0.029562231 0.31179345 0.0014593578
-0.2890929 -0.35455254 0.058276474 0.067377314 -0.25240034 -0.15227349 -0.41621292 0.0884602
-0.23304075 -0.26092458 0.15947133 -0.06962289 0.41256082 -0.08535507 -0.123932004 -0.011513236
-0.22232026 -0.65041685 -0.2211408 0.086329855 0.18719977 -0.12010329 0.07333839 0.029193
0.45022136 -0.021802587 0.1004796 -0.045300227 0.10152072 -0.38036022 -0.2516625 0.037143376
-0.10635269 -0.06167251 0.48304594 -0.0291773 0.4374978 -0.14543237 0.38852453 -0.04203757
0.24282211 0.042282812 -0.4452716 0.06424726 0.44329143 -0.043674096 -0.0642249 0.086377025
0.20828664 0.03375657 0.31482202 -0.011886161 0.43499053 -0.08395681 0.42141157 0.012725404
0.4403581 -0.021175414 -0.14575863 -0.0008869281 -0.31630093 -0.7004266 -0.42645097 0.16934521
0.44074142 -0.010975302 0.027487338 0.08681185 0.2500804 -0.18446413 -0.45614612 -0.02080449
-0.482118 0.024338463 -0.31665063 -0.005121199 0.27964747 -0.11472303 -0.08664209 -0.0271625
0.37762856 -0.154366 -0.20596594 0.11979958 0.49249643 0.28351533 -0.31424356 -0.088193454
-0.36541784 0.17569135 -0.32342768 0.01730403 0.2928831 -0.25927293 -0.4492311 0.024194479
-0.4068507 0.28135082 -0.4582895 -0.06386529 -0.017718017 -0.06262402 -0.02411586 -0.04640996
-0.12740624 0.40437177 0.18842286 -0.11308876 0.013543904 0.0835015 0.16379601 -0.06810708
-0.14117485 0.5949714 -0.006215155 -0.14820522 0.25472057 0.59959006 0.12700409 -0.0880047
0.35531646 0.16584322 -0.0685274 -0.113995984 -0.21750033 0.30228755 -0.4967959 -0.04690846
-0.1308577 -0.67900234 0.4602362 0.17168674 -0.49170065 -0.13381413 -0.17668992 0.06556175
-0.0019184351 -0.06568837 -0.11726099 -0.04567984 -0.07295084 -0.5408636 0.20742935 0.12599958
0.339248 0.40617353 0.008363366 -0.104482144 -0.2914406 0.45443854 0.29359382 -0.06479778
0.15072113 -0.35132164 -0.092941046 -0.015954554 -0.39364523 0.130578 0.35617852 -0.11119145
-0.14677888 0.5879585 0.20126355 -0.16406696 -0.34832478 0.5478242 0.49049783 -0.06739969
-0.42099762 0.36221194 0.30918682 -0.13101177 0.28005618 0.23701437 -0.0102161765 0.0472508
0.00037151575 0.063249834 -0.2347365 -0.064776875 0.37485856 0.8543728 0.08751601 -0.09865508
-0.26627475 0.05013533 -0.16212374 0.06352296 0.17181206 0.5706914 -0.41203034 -0.11750136
-0.24508268 -0.35701826 0.31590402 0.047033504 0.40172493 0.6524084 0.11658889 -0.05895189
0.27008063 -0.5078148 0.4410386 0.021274133 -0.26737005 -0.14590153 0.4226092 0.090723135
00000000: 9803 6f3e 0119 1d3d a8d1 d23e 1051 023d
00000010: bc58 2a3e fc6e ee3e e88b b23e 6c58 b2bd
00000020: f808 9c3e be4c 40bf 54cb fbbe 45fb 973d
00000030: 101e 013d 5ae7 053f 6072 6bbe 2f13 82bd
00000040: 0041 53bb b13a 31be fa77 803e 48a9 22bd
00000050: d8b0 0b3e 89f4 903e 7834 babe d1e4 ecbd
00000060: c20a 813e cc6f 82be b0c1 e53d cffb 103d
00000070: be98 bb3e 5dd0 dfbe f48b 57be 8e31 053e
00000080: c43a 30be 7cd0 97be e254 bc3e 288d b73d
00000090: ba31 943e 60c7 47bf 42a4 92be 4b22 c43d
000000a0: b44b a03e 03a7 54bd fcaf 403e b163 183d
000000b0: 8cf3 a1be 7e2c f23c 64a3 9f3e ec47 bf3a
000000c0: fc03 94be e987 b5be 50b3 6e3d 1efd 893d
000000d0: 9e3a 81be 95ed 1bbe dc19 d5be 9f2a b53d
000000e0: 3ca2 6ebe e897 85be 744c 233e 7296 8ebd
000000f0: 2c3b d33e a4ce aebd 10d0 fdbd 03a2 3cbc
00000100: eca7 63be b881 26bf bc72 62be b5cd b03d
00000110: 4cb1 3f3e b7f8 f5bd 7032 963d 2926 ef3c
00000120: 6a83 e63e 579b b2bc 40c8 cd3d bb8c 39bd
00000130: 18ea cf3d 93be c2be e8d9 80be a723 183d
00000140: 70cf d9bd 509c 7cbd cc51 f73e 3c05 efbc
00000150: b6ff df3e 39ec 14be b0ec c63e 962f 2cbd
00000160: 5ca6 783e be30 2d3d a4fa e3be 1194 833d
00000170: 18f7 e23e 9ce3 32bd 5888 83bd 70e6 b03d
00000180: 1849 553e 5444 0a3d 5a30 a13e 2cbe 42bc
00000190: 14b7 de3e 8cf1 abbd 42c3 d73e 377e 503c
000001a0: 9e76 e13e 1078 adbc c041 15be bd80 68ba
000001b0: 32f2 a1be 284f 33bf c857 dabe d568 2d3e
000001c0: dca8 e13e c1d1 33bc 202d e13c 69ca b13d
000001d0: 8a0a 803e 2ae4 3cbe fc8b e9be 2e6e aabc
000001e0: 2cd8 f6be 7561 c73c 0820 a2be bbcf a7bb
000001f0: f42d 8f3e e8f3 eabd 6871 b1bd e483 debc
00000200: 8858 c13e 1f12 1ebe bce8 52be 7b59 f53d
00000210: 7e28 fc3e ec28 913e 88e4 a0be c59e b4bd
00000220: 0c18 bbbe 6fe8 333e 5098 a5be 2ec1 8d3c
00000230: c6f4 953e 6cbf 84be 9e01 e6be 8033 c63c
00000240: bc4e d0be 370d 903e eca4 eabe cecb 82bd
00000250: 6025 91bc 0641 80bd a08e c5bc 5f18 3ebd
00000260: c876 02be d109 cf3e ecf1 403e 149b e7bd
00000270: 40e7 5d3c d602 ab3d 24ba 273e ba7b 8bbd
00000280: 2490 10be 0c50 183f 80a8 cbbb 1cc3 17be
00000290: bc6a 823e bc7e 193f 5c0d 023e cf3b b4bd
000002a0: 0aec b53e ced2 293e 1858 8cbd ba76 e9bd
000002b0: 68b8 5ebe 6fc5 9a3e 085c febe 1623 40bd
000002c0: 90ff 05be 19d3 2dbf 14a4 eb3e a6ce 2f3e
000002d0: 30c0 fbbe 9206 09be 34ee 34be 3d45 863d
000002e0: 0074 fbba a087 86bd 8826 f0bd c91a 3bbd
000002f0: 4067 95bd 0976 0abf 5c68 543e 0906 013e
00000300: eab1 ad3e faf5 cf3e 8006 093c bcfa d5bd
00000310: b437 95be 2bac e83e ee51 963e b3b4 84bd
00000320: a456 1a3e 6ee0 b3be e057 bebd 20b3 82bc
00000330: de8b c9be 3db6 053e 085d b63e 58b8 e3bd
00000340: 344d 16be 7384 163f 0818 4e3e 2b01 28be
00000350: a057 b2be 353e 0c3f 8822 fb3e d908 8abd
00000360: 008d d7be d873 b93e bc4d 9e3e f327 06be
00000370: 8663 8f3e e5b3 723e c061 27bc 0e8a 413d
00000380: 00c8 c239 2189 813d c45e 70be bda9 84bd
00000390: 76ed bf3e 2db8 5a3f 983b b33d ad0b cabd
000003a0: 2a55 88be b45a 4d3d c403 26be 5318 823d
000003b0: 80ef 2f3e d518 123f a4f5 d2be 8ea4 f0bd
000003c0: f4f6 7abe 19cb b6be 2cbe a13e 34a6 403d
000003d0: e4ae cd3e 3d04 273f 28c6 ee3d 8977 71bd
000003e0: 0248 8a3e 2700 02bf d0cf e13e 1747 ae3c
000003f0: bae4 88be 3667 15be 3c60 d83e 0dcd b93d

bias f4 [256]
-0.22989963 0.16464797 0.12450163 -0.023039436 0.38729635 0.49432647 -0.013040933 -0.46517497
-0.31709158 0.026501399 -0.19248332 -0.034782894 -0.13852988 -0.44658154 0.639628 0.14426337
-0.019447854 -0.0829121 0.3033616 0.0740388 0.23483081 0.38037524 -0.4310845 -0.5005681
0.05068486 -0.022123536 0.022950225 -0.50077367 -0.53391886 0.27124882 0.018050227 0.2592593
-0.6224829 0.32689866 -0.2536237 0.042333577 0.16851099 0.3395652 0.38171205 0.35885626
0.44963574 0.07236512 0.5793166 0.06418859 -0.5192626 -0.3038199 0.33675775 -0.3556249
0.33669764 0.04098566 0.38146988 0.5850098 0.5471392 -0.007021823 0.5383196 -0.48735914
0.3502959 -0.07094319 -0.43280447 0.27995345 -0.016734397 -0.15709743 0.26909122 -0.45011425
0.64061904 0.34127212 -0.0016606817 -0.10658265 -0.11952768 -0.16498813 0.11997821 -0.19278729
-0.3273941 0.07764197 0.18971266 -0.1399031 0.64060324 -0.26862872 -0.33145934 0.18288738
-0.5720925 0.54691744 -0.2487533 0.3132504 0.3601236 -0.29355273 -0.115555994 0.53802145
-0.03762095 0.5567037 0.39752796 -0.046963155 0.40876356 0.35664716 0.44742623 -0.57605356
0.50288707 -0.19336617 0.4772025 -0.23570856 -0.34783822 0.25919038 0.096609645 -0.111151464
0.6702706 0.30680636 0.36388773 -0.011482701 -0.36612928 -0.56997484 -0.48195705 0.32200873
0.49570486 0.06775228 0.17603983 0.40946996 -0.26783082 -0.32228902 -0.18922308 0.5438198
0.45025143 -0.0014820929 0.038643353 0.02719269 0.073884375 0.38295332 -0.21131065 -0.050457984
0.2952665 0.12229838 -0.4567331 0.2589174 -0.09486603 -0.2628246 -0.19923785 0.12618199
-0.019479334 0.40825322 0.28967908 0.570537 0.31984463 0.06516325 -0.39830828 0.18985452
0.1269942 -0.54103965 0.20761631 0.00016704893 0.5003969 -0.52786773 0.17323256 -0.5469756
0.32113194 0.208576 0.2563376 0.21775502 0.20161407 -0.15167712 -0.13280106 -0.2533904
0.032185253 0.074592434 0.14493215 0.15520404 0.03749471 -0.091506116 0.078279205 -0.27307233
-0.014544012 -0.082964435 0.35145125 0.01356666 0.36920753 -0.15876333 0.34714076 0.20107533
0.18673092 -0.012334399 0.41003639 -0.07132586 -0.0562587 -0.41104048 -0.14704376 -0.06581825
0.6059691 -0.05108067 -0.012344649 0.4229514 -0.21573097 0.15040901 0.4253805 0.54161024
0.07370748 -0.021433137 0.10988869 0.16347478 0.076636516 -0.5245847 0.62294793 -0.113134064
0.59050524 -0.10394575 0.005755449 -0.34561428 -0.022188542 0.44040424 -0.43599164 0.4785942
0.1257725 0.43097976 -0.15797772 0.3332721 -0.08168019 -0.06676052 0.15464033 -0.09873939
-0.17186074 0.23446436 -0.05209437 -0.11249444 -0.56987375 -0.38750002 0.021776194 0.4701026
0.064074434 -0.43162942 0.4403833 -0.32725936 0.09404292 0.53237844 0.07263972 -0.14841624
-0.30799028 -0.6483615 0.17409486 -0.45864424 0.23501915 -0.08789066 -0.46714726 -0.0061317263
-0.51691365 -0.46709594 0.34609503 0.08270162 0.19894655 -0.46629488 -0.45586556 0.43663517
-0.3034418 -0.49433294 0.3734488 -0.44774988 0.6816957 -0.27193666 -0.69373214 0.22381313
00000000: cf6a 6bbe 7a99 283e b6fa fe3d 33bd bcbc
00000010: b54b c63e 5c18 fd3e a3a9 55bc 6a2b eebe
00000020: d459 a2be 7619 d93c 591a 45be 8278 0ebd
00000030: c7da 0dbe 56a6 e4be a9be 233f c7b9 133e
00000040: 1b51 9fbc d2cd a9bd 3652 9b3e a8a1 973d
00000050: 7d77 703e 8bc0 c23e 1cb7 dcbe 3b25 00bf
00000060: ee9a 4f3d 6b3c b5bc 1c02 bc3c b432 00bf
00000070: e8ae 08bf 20e1 8a3e 12de 933c a3bd 843e
00000080: 0a5b 1fbf 435f a73e f7da 81be f965 2d3d
00000090: 258e 2c3e 7ddb ad3e c36f c33e 02bc b73e
000000a0: a836 e63e 2a34 943d 184e 143f 4f75 833d
000000b0: 65ee 04bf 488e 9bbe 836b ac3e 7814 b6be
000000c0: a263 ac3e 94e0 273d 0550 c33e 34c3 153f
000000d0: 5111 0c3f 5217 e6bb 50cf 093f 2387 f9be
000000e0: fc59 b33e aa4a 91bd 8c98 ddbe 0f56 8f3e
000000f0: 9316 89bc 26de 20be 53c6 893e 6075 e6be
00000100: 9cff 233f 38bb ae3e 3bab d9ba 0148 dabd
00000110: eeca f4bd a6f2 28be 23b7 f53d 086a 45be
00000120: 33a0 a7be c102 9f3d 0944 423e c242 0fbe
00000130: 93fe 233f b489 89be 0ab5 a9be d446 3b3e
00000140: a774 12bf c802 0c3f 2fb9 7ebe 5b62 a03e
00000150: 1f62 b83e 8b4c 96be 9fa8 ecbd c6bb 093f
00000160: 6d18 1abd 2284 0e3f c988 cb3e 705c 40bd
00000170: 7549 d13e 759a b63e 0d15 e53e 3f78 13bf
00000180: 35bd 003f c801 46be e353 f43e 965d 71be
00000190: da17 b2be 9ab4 843e 47db c53d 61a3 e3bd
000001a0: db96 2b3f b915 9d3e 7e4f ba3e f021 3cbc
000001b0: 4c75 bbbe dfe9 11bf 13c3 f6be 54de a43e
000001c0: 07cd fd3e b5c1 8a3d c943 343e 0ca6 d13e
000001d0: 1f21 89be 1103 a5be b2c3 41be c637 0b3f
000001e0: 5b87 e63e c942 c2ba 7e48 1e3d 34c3 de3c
000001f0: b150 973d 7512 c43e d261 58be 08ad 4ebd
00000200: 2c2d 973e 9377 fa3d ecd8 e9be d290 843e
00000210: 1f49 c2bd f290 86be 0205 4cbe da35 013e
00000220: 2093 9fbc 9106 d13e d150 943e b60e 123f
00000230: adc2 a33e 4f74 853d 10ef cbbe 3969 423e
00000240: c40a 023e 9381 0abf 5f99 543e db29 2f39
00000250: 031a 003f 5722 07bf e063 313e 9806 0cbf
00000260: 686b a43e f294 553e af3e 833e 2cfb 5e3e
00000270: eb73 4e3e 3f51 1bbe 00fd 07be 63bc 81be
00000280: afd4 033d ebc3 983d 1869 143e cfed 1e3e
00000290: 0e94 193d 8f67 bbbd d950 a03d 23d0 8bbe
000002a0: 024a 6ebc 42e9 a9bd 6bf1 b33e b246 5e3c
000002b0: c508 bd3e db92 22be 6fbc b13e b1e6 4d3e
000002c0: 6436 3f3e 3816 4abc 4af0 d13e 4b13 92bd
000002d0: 866f 66bd e673 d2be a492 16be b8cb 86bd
000002e0: ca20 1b3f f739 51bd 3641 4abc 168d d83e
000002f0: 94e8 5cbe d204 1a3e 79cb d93e f8a6 0a3f
00000300: f3f3 963d 8c94 afbc 520d e13d ef65 273e
00000310: 9bf3 9c3d 2f4b 06bf 8479 1f3f d5b2 e7bd
00000320: 5a2b 173f 82e1 d4bd 3598 bc3b 5bf4 b0be
00000330: bfc4 b5bc aa7c e13e 4c3a dfbe 4d0a f53e
00000340: 82ca 003e 61a9 dc3e e9c4 21be a4a2 aa3e
00000350: f247 a7bd bdb9 88bd 095a 1e3e e137 cabd
00000360: 43fc 2fbe 6d17 703e e860 55bd 7c63 e6bd
00000370: 3fe3 11bf 6766 c6be fd63 b23c 4ab1 f03e
00000380: 7539 833d 88fe dcbe eb79 e13e 8a8e a7be
00000390: 9399 c03d f449 083f 22c4 943d 6dfa 17be
000003a0: e7b0 9dbe 05fb 25bf ec45 323e 6bd3 eabe
000003b0: dca8 703e 0500 b4bd ed2d efbe a6ec c8bb
000003c0: 7454 04bf 3327 efbe 5e33 b13e 785f a93d
000003d0: a5b8 4b3e 34be eebe 3667 e9be a58e df3e
000003e0: b95c 9bbe 3519 fdbe ae34 bf3e 793f e5be
000003f0: 9c83 2e3f 483b 8bbe 6e98 31bf 452f 653e

weight f4 [9, 256]
-0.0031197967 -0.00021945126 0.009692699 -0.0003432409 0.0047704168 0.006414572 -0.016332587 0.0030941044
-0.01073645 -0.0042904476 0.008681705 0.0001642596 -0.0028892143 0.015094607 0.0031234005 0.0015205807
-0.0065914723 0.006393917 -0.0030828523 0.0007881165 -0.0079187425 0.012933517 -0.0031464794 -0.004063864
-0.008354184 0.014058707 -0.012396346 0.010690431 -0.0006241313 0.014257677 -0.0020462407 0.0057902387
0.0011935239 -0.0054032067 0.0023661351 0.009033966 0.008550791 0.0018811797 -0.0065009836 0.0009141772
-0.008199211 0.00054569345 -0.0047581214 -0.0058101853 -0.00913388 0.0017431921 0.0052967905 0.00062350166
-0.019760553 0.0033614542 -0.0011879695 0.015573712 0.015794372 -0.0055739996 -0.0018619711 0.004231307
-0.002004932 0.012229258 -0.003960537 -0.005103545 0.017758565 0.0042382134 0.00832524 0.003925779
-0.017853756 0.0060444307 0.0013660617 -0.013377574 0.016995816 0.011042556 -0.0037869501 0.0010931811
-0.0007538912 0.011254157 0.031629268 0.004330647 0.001407301 -0.01200933 -0.015697151 -0.0043641096
-0.010926681 -0.004553637 0.011112242 0.0031408714 -0.012690549 -0.0021189398 0.0122012375 -0.014950583
0.008067571 -0.0030281295 0.013396948 -0.008629908 -0.005483411 0.012983675 -0.0064686825 0.014571978
-0.001274454 0.0038992139 0.003384028 -0.01504477 -0.008403875 0.019312128 0.008232888 0.0120683145
0.010457424 -0.002005194 0.008254767 0.014065341 0.00053849275 0.0038630138 -0.0047739143 -0.0008435353
-0.0015374465 -0.0034767422 0.006459897 -0.00251708 0.0029841047 0.0041442025 0.0049988288 -6.3657e-05
-0.005520127 -0.0007938097 0.019759974 -0.0057435455 -0.011852792 0.013782075 -0.002161188 -0.028982203
-0.006486809 -0.0015152132 0.007440855 0.0032923718 -0.0008931383 -0.0023307472 -2.9490948e-05 -0.010086404
-0.010559521 0.001060508 0.005513286 0.0064382395 -0.0044957898 0.006497333 -0.004510736 0.0007922988
-0.014475751 -0.019621849 -0.0009811019 -0.011161613 -0.0015682593 -0.0025081965 0.19979064 0.002376157
-0.0057502305 -0.017907461 -0.017932171 -0.008113123 -0.023268206 0.006945818 -0.0044888295 -0.00036209685
0.003762759 -0.013342996 0.00295354 0.0036047138 -0.005908304 0.00021468196 -0.0069608283 -0.005281473
-0.019292403 -0.004002564 0.012593372 0.0003098442 -0.007574961 0.0022688962 0.22287343 0.0018089202
0.007145267 0.004178799 0.0039626835 0.008546962 -0.013388994 0.0002808674 0.00015955667 -0.0038947018
-0.003910203 -0.012146457 0.0069541717 -0.00836231 -0.0047656344 0.0028002586 0.009623866 -0.0011384768
0.009952355 -0.011762597 -0.0072692805 -0.0006063574 0.021902403 -0.015161256 0.008281353 -0.0012132331
0.00016771445 -0.0106396265 -0.0063822684 0.0043192883 -0.0053385957 -0.00626756 -0.009468985 -0.0074616037
0.0019599814 -0.0013940622 -0.0039732014 0.011050814 -0.0077682175 -0.022867529 -0.0029419814 -0.002675468
-0.0037193904 0.009566006 -0.0026405267 0.014264472 0.0008221275 4.8154507e-05 -0.00242733 -0.0022873385
-0.008069422 0.008577954 0.00086521683 -0.008567493 -0.0033428622 -0.002759139 0.008539107 0.0036659886
-0.00084568496 -0.007741905 -0.0073251575 -0.006570313 -0.003677473 0.00750929 0.0068027233 -0.0132587645
-0.013832031 0.004260244 0.010551124 0.004314501 0.015694683 -0.009626798 0.0050420994 -0.006200832
-0.003623735 0.004220092 0.001406753 -0.008469981 0.021368368 -0.0069162156 -0.007187864 0.01255412
00000000: 8175 4cbb 801c 66b9 20ce 1e3c 04f5 b3b9
00000010: 2851 9c3b 5431 d23b ebcb 85bc 75c6 4a3b
00000020: efe7 2fbc e296 8cbb b63d 0e3c 1a3d 2c39
00000030: f958 3dbb 5f4f 773c f7b1 4c3b 394e c73a
00000040: 47fd d7bb 1084 d13b ae09 4abb 9a99 4e3a
00000050: 9dbd 01bc 1ae7 533c 2a35 4ebb 292a 85bb
00000060: fddf 08bc 7e56 663c 0b1a 4bbc eb26 2f3c
00000070: be9c 23ba 0899 693c 391a 06bb 0bbc bd3b
00000080: 0470 9c3a 620d b1bb 2911 1b3b 3303 143c
00000090: 9e18 0c3c eb91 f63a 3406 d5bb 65a5 6f3a
000000a0: fc55 06bc de0c 0f3a 04ea 9bbb 5e63 bebb
000000b0: 45a6 15bc d27b e43a b390 ad3b 7d72 233a
000000c0: e2e0 a1bc d84b 5c3b a4b5 9bba e228 7f3c
000000d0: 3363 813c 19a6 b6bb 620d f4ba c7a6 8a3b
000000e0: 2d65 03bb 3a5d 483c 64c7 81bb a33b a7bb
000000f0: 697a 913c b6e0 8a3b 9666 083c d2a3 803b
00000100: 0a42 92bc 5c10 c63b 6d0d b33a 9d2d 5bbc
00000110: cf3a 8b3c d6eb 343c 7b2e 78bb 1249 8f3a
00000120: c8a0 45ba 5b63 383c b18d 013d 1ae8 8d3b
00000130: 3075 b83a c8c2 44bc 5097 80bc ce00 8fbb
00000140: d205 33bc ad36 95bb 1f10 363c 14d7 4d3b
00000150: 05ec 4fbc e9dd 0abb b3e7 473c 4af3 74bc
00000160: d82d 043c 9573 46bb df7e 5b3c 7564 0dbc
00000170: 2fae b3bb 7bb9 543c 3ef7 d3bb 4ebf 6e3c
00000180: 950b a7ba f489 7f3b 92c6 5d3b 577e 76bc
00000190: 68b0 09bc 7834 9e3c 3ce3 063c 2eba 453c
000001a0: 9e55 2b3c 9369 03bb 013f 073c 5172 663c
000001b0: a329 0d3a 9e2a 7d3b 7f6e 9cbb b220 5dba
000001c0: 2584 c9ba 0eda 63bb 8bad d33b 98f5 24bb
000001d0: f890 433b 17cc 873b 37cd a33b 977f 85b8
000001e0: 2ee2 b4bb ab17 50ba abdf a13c 5a34 bcbb
000001f0: 3732 42bc 36ce 613c b8a2 0dbb 166c edbc
00000200: 4c8f d4bb 1e9a c6ba 6ad2 f33b d5c4 573b
00000210: 7f21 6aba 73bf 18bb 5463 f7b7 7241 25bc
00000220: d701 2dbc be00 8b3a cca8 b43b def7 d23b
00000230: 6b51 93bb 94e7 d43b ccce 93bb 46b2 4f3a
00000240: b32b 6dbc 00be a0bc 5198 80ba 33df 36bc
00000250: 0d8e cdba 8e60 24bb eb95 4c3e 4db9 1b3b
00000260: 6e6c bcbb abb2 92bc 7de6 92bc e7ec 04bc
00000270: f79c bebc bf99 e33b 0817 93bb d1d7 bdb9
00000280: 9f98 763b 959c 5abc 2e90 413b 103d 6c3b
00000290: 729a c1bb 401c 6139 a917 e4bb 3510 adbb
000002a0: 1a0b 9ebc f127 83bb 6e54 4e3c 9672 a239
000002b0: 6137 f8bb c3b1 143b ef38 643e 4a19 ed3a
000002c0: d822 ea3b 4fee 883b 66d9 813b 8f08 0c3c
000002d0: 835d 5bbc 6241 9339 ab4e 2739 413e 7fbb
000002e0: 2921 80bb ef01 47bc d2df e33b 1202 09bc
000002f0: 0a29 9cbb 8b84 373b 6bad 1d3c f138 95ba
00000300: 340f 233c e8b7 40bc 2533 eebb f5f3 1eba
00000310: ab6c b33c eb66 78bc 83ae 073c 5905 9fba
00000320: 81dc 2f39 d451 2ebc 5922 d1bb d188 8d3b
00000330: 63ef aebb 1b60 cdbb cd23 1bbc 7880 f4bb
00000340: 0873 003b f7b8 b6ba a131 82bb 790e 353c
00000350: 888c febb af54 bbbc 42ce 40bb e856 2fbb
00000360: 04c1 73bb bdba 1c3c b00c 2dbb 88b5 693c
00000370: 0b84 573a 82f9 4938 d713 1fbb 2ce7 15bb
00000380: 9c35 04bc 8c8a 0c3c b8cf 623a ac5e 0cbc
00000390: ec13 5bbb acd2 34bb 9ce7 0b3c 1541 703b
000003a0: f5b0 5dba ceaf fdbb e007 f0bb c84b d7bb
000003b0: c201 71bb 7d10 f63b 61e9 de3b 4a3b 59bc
000003c0: be9f 62bc 8499 8b3b 9fde 2c3c a860 8d3b
000003d0: 2392 803c b8b9 1dbc 3238 a53b 5930 cbbb
000003e0: 2f7c 6dbb b348 8a3b cc62 b83a adc5 0abc
000003f0: b70c af3c 6ca1 e2bb 2c88 ebbb ccaf 4d3c

bias f4 [9]
0.20504397 0.31370565 -0.18702906 0.23234151 0.10065546 0.85324323 0.14894204 -0.1578641
0.20336507
00000000: 0cf7 513e 079e a03e 8c84 3fbe efea 6d3e
00000010: 7324 ce3d 266e 5a3f 4384 183e 20a7 21be
00000020: ef3e 503e

exp_avg f4 [256, 4]
0.0 -1.5954756e-05 0.0 -0.00012444702 0.0 4.6464324e-06 0.0 3.6242152e-05
0.0 5.5601166e-05 0.0 0.00043368893 0.0 -2.0799962e-06 0.0 -1.6224047e-05
0.0 -1.1943217e-05 0.0 -9.31571e-05 0.0 4.9213936e-06 0.0 3.838689e-05
0.0 5.303908e-05 0.0 0.00041370484 0.0 1.039807e-05 0.0 8.110495e-05
0.0 3.2541415e-05 0.0 0.00025382283 0.0 9.845244e-06 0.0 7.679289e-05
0.0 -3.1237647e-05 0.0 -0.00024365365 0.0 1.989563e-05 0.0 0.00015518595
0.0 1.4887992e-05 0.0 0.00011612629 0.0 5.6078472e-05 0.0 0.00043741218
0.0 6.4395017e-06 0.0 5.0228133e-05 0.0 -1.960851e-05 0.0 -0.0001529464
0.0 8.215263e-05 0.0 0.0006407904 0.0 -1.7189064e-05 0.0 -0.00013407474
0.0 -6.0269726e-06 0.0 -4.7010362e-05 0.0 -2.55469e-05 0.0 -0.00019926573
0.0 -2.6294558e-06 0.0 -2.0509795e-05 0.0 -5.6299832e-05 0.0 -0.00043913868
0.0 -8.479996e-06 0.0 -6.614392e-05 0.0 2.5674286e-05 0.0 0.00020025944
0.0 1.0082669e-05 0.0 7.864481e-05 0.0 -2.1325483e-05 0.0 -0.00016633881
0.0 7.1568356e-05 0.0 0.000558233 0.0 -2.845444e-05 0.0 -0.00022194468
0.0 -1.031729e-06 0.0 -8.047486e-06 0.0 -1.0271868e-05 0.0 -8.0120735e-05
0.0 1.0852753e-05 0.0 8.465145e-05 0.0 2.3961355e-05 0.0 0.00018689857
0.0 -2.2772556e-06 0.0 -1.7762592e-05 0.0 2.0992076e-05 0.0 0.00016373815
0.0 1.0743255e-05 0.0 8.37974e-05 0.0 8.080593e-05 0.0 0.0006302862
0.0 1.923279e-05 0.0 0.0001500157 0.0 -1.1329659e-05 0.0 -8.8371344e-05
0.0 2.373804e-05 0.0 0.0001851568 0.0 -4.0575205e-06 0.0 -3.1648655e-05
0.0 2.9917243e-05 0.0 0.00023335461 0.0 -2.9363448e-05 0.0 -0.00022903492
0.0 -6.4307196e-06 0.0 -5.0159462e-05 0.0 -7.536254e-05 0.0 -0.0005878279
0.0 -4.539217e-05 0.0 -0.00035405922 0.0 1.8976709e-05 0.0 0.00014801836
0.0 -7.963275e-06 0.0 -6.21136e-05 0.0 1.9250709e-05 0.0 0.00015015548
0.0 5.3731997e-05 0.0 0.00041910977 0.0 -2.1233158e-05 0.0 -0.00016561858
0.0 -2.4972906e-06 0.0 -1.9478815e-05 0.0 -1.4223158e-05 0.0 -0.00011094069
0.0 1.4283367e-05 0.0 0.00011141035 0.0 -3.0830837e-05 0.0 -0.00024048059
0.0 -7.719865e-05 0.0 -0.0006021496 0.0 -1.7891281e-05 0.0 -0.00013955202
0.0 1.7888671e-05 0.0 0.00013953164 0.0 -1.9867526e-05 0.0 -0.00015496668
0.0 1.4457959e-05 0.0 0.00011277208 0.0 -5.713342e-06 0.0 -4.456407e-05
0.0 1.2019755e-06 0.0 9.37545e-06 0.0 -6.8155714e-06 0.0 -5.316147e-05
0.0 -2.386211e-05 0.0 -0.00018612453 0.0 -2.1860964e-05 0.0 -0.00017051556
00000000: 0000 0000 94d6 85b7 0000 0000 fe7d 02b9
00000010: 0000 0000 8de8 9b36 0000 0000 b702 1838
00000020: 0000 0000 4c35 6938 0000 0000 be60 e339
00000030: 0000 0000 1096 0bb6 0000 0000 e018 88b7
00000040: 0000 0000 ba5f 48b7 0000 0000 565d c3b8
00000050: 0000 0000 7322 a536 0000 0000 9c01 2138
00000060: 0000 0000 4776 5e38 0000 0000 86e6 d839
00000070: 0000 0000 5f73 2e37 0000 0000 e316 aa38
00000080: 0000 0000 147d 0838 0000 0000 8613 8539
00000090: 0000 0000 002d 2537 0000 0000 de0b a138
000000a0: 0000 0000 2b05 03b8 0000 0000 477d 7fb9
000000b0: 0000 0000 8ae5 a637 0000 0000 69b9 2239
000000c0: 0000 0000 70c7 7937 0000 0000 d488 f338
000000d0: 0000 0000 cd35 6b38 0000 0000 7854 e539
000000e0: 0000 0000 e612 d836 0000 0000 0cac 5238
000000f0: 0000 0000 f47c a4b7 0000 0000 3d60 20b9
00000100: 0000 0000 5b49 ac38 0000 0000 b7fa 273a
00000110: 0000 0000 3c31 90b7 0000 0000 6a96 0cb9
00000120: 0000 0000 4d3b cab6 0000 0000 fe2c 45b8
00000130: 0000 0000 8d4d d6b7 0000 0000 fdf1 50b9
00000140: 0000 0000 b575 30b6 0000 0000 730c acb7
00000150: 0000 0000 7c23 6cb8 0000 0000 323c e6b9
00000160: 0000 0000 4e45 0eb7 0000 0000 bfb6 8ab8
00000170: 0000 0000 1c5f d737 0000 0000 bcfc 5139
00000180: 0000 0000 bc28 2937 0000 0000 1cee a438
00000190: 0000 0000 20e4 b2b7 0000 0000 3c6b 2eb9
000001a0: 0000 0000 f816 9638 0000 0000 6256 123a
000001b0: 0000 0000 72b1 eeb7 0000 0000 d2b9 68b9
000001c0: 0000 0000 f079 8ab5 0000 0000 b003 07b7
000001d0: 0000 0000 5655 2cb7 0000 0000 7e06 a8b8
000001e0: 0000 0000 3814 3637 0000 0000 e786 b138
000001f0: 0000 0000 9e00 c937 0000 0000 34fa 4339
00000200: 0000 0000 f4d2 18b6 0000 0000 e000 95b7
00000210: 0000 0000 2418 b037 0000 0000 20b1 2b39
00000220: 0000 0000 ee3d 3437 0000 0000 63bc af38
00000230: 0000 0000 5a76 a938 0000 0000 ca39 253a
00000240: 0000 0000 1a56 a137 0000 0000 884d 1d39
00000250: 0000 0000 8414 3eb7 0000 0000 0154 b9b8
00000260: 0000 0000 0e21 c737 0000 0000 a626 4239
00000270: 0000 0000 d625 88b6 0000 0000 7cbe 04b8
00000280: 0000 0000 caf6 fa37 0000 0000 a7b0 7439
00000290: 0000 0000 8651 f6b7 0000 0000 1829 70b9
000002a0: 0000 0000 76c7 d7b6 0000 0000 5062 52b8
000002b0: 0000 0000 f50b 9eb8 0000 0000 7618 1aba
000002c0: 0000 0000 7963 3eb8 0000 0000 06a1 b9b9
000002d0: 0000 0000 2c30 9f37 0000 0000 6035 1b39
000002e0: 0000 0000 019a 05b7 0000 0000 fc42 82b8
000002f0: 0000 0000 957c a137 0000 0000 0e73 1d39
00000300: 0000 0000 4b5e 6138 0000 0000 f6bb db39
00000310: 0000 0000 dc1d b2b7 0000 0000 e6a9 2db9
00000320: 0000 0000 2097 27b6 0000 0000 7066 a3b7
00000330: 0000 0000 00a0 6eb7 0000 0000 d4a8 e8b8
00000340: 0000 0000 98a2 6f37 0000 0000 faa4 e938
00000350: 0000 0000 5c50 01b8 0000 0000 8429 7cb9
00000360: 0000 0000 b6e5 a1b8 0000 0000 93d9 1dba
00000370: 0000 0000 3c15 96b7 0000 0000 b654 12b9
00000380: 0000 0000 a10f 9637 0000 0000 3d4f 1239
00000390: 0000 0000 30a9 a6b7 0000 0000 8d7e 22b9
000003a0: 0000 0000 7690 7237 0000 0000 0d80 ec38
000003b0: 0000 0000 3cb5 bfb6 0000 0000 4eea 3ab8
000003c0: 0000 0000 9053 a135 0000 0000 404b 1d37
000003d0: 0000 0000 50b1 e4b6 0000 0000 b2f9 5eb8
000003e0: 0000 0000 7e2b c8b7 0000 0000 6c2a 43b9
000003f0: 0000 0000 1062 b7b7 0000 0000 6ccc 32b9

exp_avg_sq f4 [256, 4]
0.0 6.198642e-08 0.0 3.7712493e-06 0.0 5.5151766e-08 0.0 3.3554343e-06
0.0 1.4521223e-07 0.0 8.834717e-06 0.0 8.888516e-08 0.0 5.4077746e-06
0.0 9.4425744e-08 0.0 5.744866e-06 0.0 3.9182115e-08 0.0 2.3838302e-06
0.0 8.350393e-08 0.0 5.080384e-06 0.0 7.0320375e-08 0.0 4.278289e-06
0.0 6.911483e-08 0.0 4.204946e-06 0.0 5.3282072e-08 0.0 3.2416847e-06
0.0 8.5450694e-08 0.0 5.198831e-06 0.0 4.4165233e-08 0.0 2.6870187e-06
0.0 7.791338e-08 0.0 4.7402427e-06 0.0 1.563056e-07 0.0 9.5096375e-06
0.0 4.2321968e-08 0.0 2.5748648e-06 0.0 8.166157e-08 0.0 4.968294e-06
0.0 1.1300407e-07 0.0 6.875168e-06 0.0 5.2130382e-08 0.0 3.1716115e-06
0.0 8.058502e-08 0.0 4.9027917e-06 0.0 6.887825e-08 0.0 4.1905505e-06
0.0 6.2631855e-08 0.0 3.8105238e-06 0.0 1.1941611e-07 0.0 7.2652847e-06
0.0 7.285617e-08 0.0 4.432571e-06 0.0 8.9497284e-08 0.0 5.445017e-06
0.0 6.77043e-08 0.0 4.1191424e-06 0.0 8.82877e-08 0.0 5.371429e-06
0.0 9.4646545e-08 0.0 5.7582934e-06 0.0 6.3991195e-08 0.0 3.8932226e-06
0.0 6.056925e-08 0.0 3.6850342e-06 0.0 6.847112e-08 0.0 4.165787e-06
0.0 9.931528e-08 0.0 6.0423367e-06 0.0 6.36813e-08 0.0 3.874379e-06
0.0 8.238466e-08 0.0 5.0122853e-06 0.0 6.007023e-08 0.0 3.6546783e-06
0.0 5.0958807e-08 0.0 3.100329e-06 0.0 1.4564714e-07 0.0 8.861182e-06
0.0 7.2129176e-08 0.0 4.3883383e-06 0.0 7.375692e-08 0.0 4.487379e-06
0.0 4.692803e-08 0.0 2.8551024e-06 0.0 6.211872e-08 0.0 3.779298e-06
0.0 9.380478e-08 0.0 5.707076e-06 0.0 9.056323e-08 0.0 5.5098644e-06
0.0 6.514625e-08 0.0 3.963504e-06 0.0 1.6244816e-07 0.0 9.883357e-06
0.0 1.03236275e-07 0.0 6.280898e-06 0.0 5.578692e-08 0.0 3.394077e-06
0.0 6.906283e-08 0.0 4.201772e-06 0.0 6.4922624e-08 0.0 3.9498964e-06
0.0 7.122123e-08 0.0 4.333102e-06 0.0 6.401334e-08 0.0 3.894574e-06
0.0 7.7766764e-08 0.0 4.7313306e-06 0.0 8.744675e-08 0.0 5.320264e-06
0.0 6.707352e-08 0.0 4.0807495e-06 0.0 1.3365e-07 0.0 8.131285e-06
0.0 1.4461986e-07 0.0 8.798678e-06 0.0 7.19571e-08 0.0 4.3778787e-06
0.0 9.5237034e-08 0.0 5.7942166e-06 0.0 6.453363e-08 0.0 3.926229e-06
0.0 4.735516e-08 0.0 2.8810866e-06 0.0 6.477447e-08 0.0 3.9408674e-06
0.0 8.3236586e-08 0.0 5.0641183e-06 0.0 7.802127e-08 0.0 4.7468093e-06
0.0 7.120395e-08 0.0 4.3320492e-06 0.0 5.337909e-08 0.0 3.247586e-06
00000000: 0000 0000 651d 8533 0000 0000 9215 7d36
00000010: 0000 0000 02e0 6c33 0000 0000 ec2d 6136
00000020: 0000 0000 a2eb 1b34 0000 0000 d238 1437
00000030: 0000 0000 22e1 be33 0000 0000 6e74 b536
00000040: 0000 0000 1ac7 ca33 0000 0000 06c4 c036
00000050: 0000 0000 3149 2833 0000 0000 e4f9 1f36
00000060: 0000 0000 c552 b333 0000 0000 2b78 aa36
00000070: 0000 0000 0903 9733 0000 0000 398e 8f36
00000080: 0000 0000 486c 9433 0000 0000 3618 8d36
00000090: 0000 0000 42d8 6433 0000 0000 b88b 5936
000000a0: 0000 0000 0481 b733 0000 0000 9e71 ae36
000000b0: 0000 0000 30b0 3d33 0000 0000 a152 3436
000000c0: 0000 0000 5551 a733 0000 0000 600e 9f36
000000d0: 0000 0000 f5d4 2734 0000 0000 958b 1f37
000000e0: 0000 0000 7fc5 3533 0000 0000 d7cb 2c36
000000f0: 0000 0000 ec5d af33 0000 0000 52b5 a636
00000100: 0000 0000 a5ac f233 0000 0000 3eb1 e636
00000110: 0000 0000 f6e5 5f33 0000 0000 dfd7 5436
00000120: 0000 0000 150e ad33 0000 0000 a982 a436
00000130: 0000 0000 38ea 9333 0000 0000 8e9c 8c36
00000140: 0000 0000 3a80 8633 0000 0000 4db8 7f36
00000150: 0000 0000 da38 0034 0000 0000 52c8 f336
00000160: 0000 0000 1a75 9c33 0000 0000 7fbb 9436
00000170: 0000 0000 a731 c033 0000 0000 57b4 b636
00000180: 0000 0000 d564 9133 0000 0000 2a37 8a36
00000190: 0000 0000 ad98 bd33 0000 0000 393c b436
000001a0: 0000 0000 7d40 cb33 0000 0000 5d37 c136
000001b0: 0000 0000 886b 8933 0000 0000 87a2 8236
000001c0: 0000 0000 4c12 8233 0000 0000 684c 7736
000001d0: 0000 0000 650a 9333 0000 0000 d6c7 8b36
000001e0: 0000 0000 2747 d533 0000 0000 47bf ca36
000001f0: 0000 0000 2ac1 8833 0000 0000 aa00 8236
00000200: 0000 0000 72eb b033 0000 0000 342f a836
00000210: 0000 0000 f5ff 8033 0000 0000 e542 7536
00000220: 0000 0000 cddd 5a33 0000 0000 3f0f 5036
00000230: 0000 0000 2e63 1c34 0000 0000 7daa 1437
00000240: 0000 0000 6fe5 9a33 0000 0000 8a3f 9336
00000250: 0000 0000 4c64 9e33 0000 0000 4b92 9636
00000260: 0000 0000 ea8d 4933 0000 0000 499a 3f36
00000270: 0000 0000 2166 8533 0000 0000 d89f 7d36
00000280: 0000 0000 b971 c933 0000 0000 697f bf36
00000290: 0000 0000 aa7b c233 0000 0000 60e1 b836
000002a0: 0000 0000 88e6 8b33 0000 0000 3dfe 8436
000002b0: 0000 0000 696d 2e34 0000 0000 b2d0 2537
000002c0: 0000 0000 beb2 dd33 0000 0000 81c0 d236
000002d0: 0000 0000 5e9a 6f33 0000 0000 cdc5 6336
000002e0: 0000 0000 b14f 9433 0000 0000 f2fc 8c36
000002f0: 0000 0000 976b 8b33 0000 0000 5a89 8436
00000300: 0000 0000 49f2 9833 0000 0000 1065 9136
00000310: 0000 0000 b577 8933 0000 0000 23ae 8236
00000320: 0000 0000 bb00 a733 0000 0000 d2c1 9e36
00000330: 0000 0000 5cca bb33 0000 0000 b884 b236
00000340: 0000 0000 0f0a 9033 0000 0000 5fed 8836
00000350: 0000 0000 6f81 0f34 0000 0000 9a6b 0837
00000360: 0000 0000 ce48 1b34 0000 0000 099e 1337
00000370: 0000 0000 d686 9a33 0000 0000 b1e5 9236
00000380: 0000 0000 1d85 cc33 0000 0000 f16b c236
00000390: 0000 0000 bd95 8a33 0000 0000 0dbe 8336
000003a0: 0000 0000 8d63 4b33 0000 0000 b158 4136
000003b0: 0000 0000 241a 8b33 0000 0000 cb3b 8436
000003c0: 0000 0000 ccbf b233 0000 0000 72ec a936
000003d0: 0000 0000 a68c a733 0000 0000 c846 9f36
000003e0: 0000 0000 c9e8 9833 0000 0000 055c 9136
000003f0: 0000 0000 ee42 6533 0000 0000 1af1 5936

exp_avg f4 [256]
-1.9943442e-05 5.808034e-06 6.950142e-05 -2.6000025e-06 -1.4929023e-05 6.151748e-06 6.629885e-05 1.2997588e-05
4.0676747e-05 1.2306551e-05 -3.9047063e-05 2.4869543e-05 1.8609982e-05 7.009808e-05 8.049379e-06 -2.4510638e-05
0.00010269077 -2.1486318e-05 -7.5337e-06 -3.193363e-05 -3.2868259e-06 -7.037478e-05 -1.0599991e-05 3.2092863e-05
1.2603332e-05 -2.665686e-05 8.946043e-05 -3.5568053e-05 -1.2896571e-06 -1.2839852e-05 1.3565949e-05 2.9951694e-05
-2.846573e-06 2.6240097e-05 1.3429077e-05 0.00010100742 2.4040992e-05 -1.4162069e-05 2.967256e-05 -5.0719013e-06
3.7396578e-05 -3.6704296e-05 -8.038388e-06 -9.4203184e-05 -5.6740224e-05 2.3720879e-05 -9.954105e-06 2.4063389e-05
6.716502e-05 -2.6541446e-05 -3.121615e-06 -1.7778955e-05 1.7854243e-05 -3.8538554e-05 -9.649834e-05 -2.2364093e-05
2.2360833e-05 -2.4834404e-05 1.8072446e-05 -7.1416734e-06 1.5024743e-06 -8.519464e-06 -2.9827661e-05 -2.7326212e-05
1.7803657e-05 -3.1041545e-05 2.2714576e-05 -4.922936e-05 4.0336326e-06 4.6901307e-05 2.9162602e-06 -1.0473746e-05
-2.6857784e-05 -1.0698253e-06 3.7209425e-05 -2.7945562e-05 -2.1216554e-06 1.3566004e-05 -7.308522e-06 2.230854e-05
3.2056814e-05 2.570717e-05 -5.2155912e-05 1.40687325e-05 9.0143876e-05 -2.808297e-05 -4.9237628e-05 5.937288e-05
-5.3223157e-06 -6.7365963e-06 -4.7128815e-05 5.797173e-06 7.671506e-06 -2.0402846e-05 -1.5563337e-05 -4.8956e-05
3.7062628e-06 8.924466e-05 5.3745744e-06 7.34811e-06 5.4301127e-05 -2.797769e-05 -1.0479031e-05 2.1422391e-05
2.7339865e-06 7.505715e-05 6.8182635e-06 1.965525e-05 -2.105923e-05 1.32793075e-05 -1.1556183e-05 0.00010222659
2.6924268e-05 -1.5264886e-05 -2.794938e-05 -1.1298201e-05 2.1293909e-07 3.2068383e-05 4.8650203e-05 -5.54057e-06
3.9235045e-05 3.8115832e-06 -3.077353e-05 7.004385e-06 2.5013453e-05 -3.676647e-05 2.483754e-05 1.348984e-05
-1.6451295e-06 4.3253713e-06 8.872091e-06 -6.5965787e-06 2.6602087e-05 -1.45504055e-05 -1.9497782e-05 2.5065408e-05
6.330265e-08 2.398051e-05 0.000100852 -1.0076581e-05 2.0679108e-05 3.9346105e-06 -2.1945561e-05 -1.147798e-05
5.9964677e-05 5.038631e-05 3.6907273e-05 9.557905e-06 3.6474048e-05 7.974899e-05 0.015688973 2.8505387e-05
-2.754687e-05 6.911306e-05 3.9723964e-05 6.6268294e-05 5.7514957e-05 -3.5550962e-05 -2.3946695e-05 -1.6390319e-05
-1.8065148e-05 1.1786783e-05 -4.5180423e-07 -5.9821887e-05 5.5451383e-05 1.9333349e-05 -1.009088e-05 -1.3398435e-05
2.5727046e-05 -3.5100253e-05 -2.506105e-05 1.9432502e-05 1.8071165e-05 -1.9926541e-05 0.020828322 8.993444e-06
3.7800817e-06 -2.1450502e-05 -1.089422e-05 1.1407245e-05 -1.314111e-05 3.1920936e-06 2.462777e-05 1.735955e-05
-4.0943487e-05 -6.297962e-05 -5.682934e-05 3.0206727e-05 1.7393551e-05 -2.1544438e-05 1.3698991e-06 -7.2885778e-06
-4.737564e-05 3.5356403e-05 2.820401e-05 -1.1993931e-05 -5.288053e-05 4.9641647e-05 -9.822612e-06 -3.2472544e-06
-2.1743304e-05 3.585703e-05 8.722913e-05 -7.751432e-06 9.383641e-06 1.3259805e-05 -5.0179966e-05 -2.3495453e-05
4.131311e-05 -1.4845873e-05 1.943679e-05 -5.1420044e-05 6.155292e-06 6.7220964e-05 1.950199e-05 -2.3500857e-05
1.3892286e-05 3.6032907e-05 8.767086e-06 1.4276466e-05 2.6154585e-06 -1.4281031e-05 -8.8411025e-06 2.0747093e-05
-1.2549731e-07 -1.9823665e-05 -1.8841318e-05 5.2976702e-05 3.284362e-05 -8.086574e-06 -3.7896705e-05 -2.461883e-05
-3.1241143e-07 2.6359721e-05 -1.0320673e-05 -5.8353784e-05 1.38258265e-05 -3.4963625e-05 -3.1627715e-05 5.720849e-05
4.2034706e-05 -2.3389073e-05 -7.255869e-06 -3.100099e-05 -5.332267e-05 5.0277005e-05 -4.1632014e-05 1.6567932e-05
2.9911429e-05 -2.7694501e-05 -5.1389874e-05 -1.7824132e-06 -2.6414415e-05 2.3150027e-05 2.6913867e-06 -5.4379714e-05
00000000: 374c a7b7 a2e2 c236 4ac1 9138 b47b 2eb6
00000010: aa77 7ab7 1d6b ce36 ed09 8b38 3710 5a37
00000020: 539c 2a38 3c78 4e37 77c6 23b8 f09e d037
00000030: a21c 9c37 9f01 9338 d20b 0737 329c cdb7
00000040: b05b d738 843d b4b7 fec9 fcb6 79f0 05b8
00000050: 3d93 5cb6 2c96 93b8 9dd6 31b7 739b 0638
00000060: e672 5337 2c9d dfb7 b49c bb38 e82e 15b8
00000070: 4818 adb5 bf6a 57b7 4f99 6337 c640 fb37
00000080: c007 3fb6 2e1e dc37 724d 6137 f2d3 d338
00000090: a3ab c937 a099 6db7 56e9 f837 4d2f aab6
000000a0: 45da 1c38 f0f2 19b8 9ddc 06b7 f38e c5b8
000000b0: 5afc 6db8 33fc c637 8e00 27b7 bcdb c937
000000c0: f2da 8c38 52a5 deb7 f07c 51b6 0424 95b7
000000d0: b2c5 9537 75a4 21b8 275f cab8 869a bbb7
000000e0: 8693 bb37 7a53 d0b7 489a 9737 82a2 efb6
000000f0: a0a8 c935 d2ee 0eb7 6a36 fab7 983a e5b7
00000100: 1059 9537 9b32 02b8 2e8b be37 9f7b 4eb8
00000110: a458 8736 e5b7 4438 f8b4 4336 66b8 2fb7
00000120: a74c e1b7 eb96 8fb5 5111 1c38 a36c eab7
00000130: c361 0eb6 8b99 6337 ba3b f5b6 3a23 bb37
00000140: be74 0638 baa5 d737 fcc1 5ab8 bf08 6c37
00000150: a00b bd38 b893 ebb7 8084 4eb8 2507 7938
00000160: 5896 b2b6 ec0a e2b6 2eac 45b8 5685 c236
00000170: deb4 0037 c726 abb7 038e 82b7 1b56 4db8
00000180: 1cb9 7836 dd28 bb38 3e57 b436 c98f f636
00000190: 64c1 6338 a2b1 eab7 18cf 2fb7 3cb4 b337
000001a0: 8879 3736 0068 9d38 70c8 e436 54e1 a437
000001b0: 5aa8 b0b7 31ca 5e37 6ee1 41b7 7c62 d638
000001c0: 6ddb e137 180d 80b7 d674 eab7 678d 3db7
000001d0: 40a4 6434 2a81 0638 c20d 4c38 22e9 b9b6
000001e0: 4f90 2438 80ca 7f36 d412 01b8 3607 eb36
000001f0: fbd3 d137 b235 1ab8 365a d037 6c52 6237
00000200: 38ce dcb5 a822 9136 57d9 1437 2e58 ddb6
00000210: 8c27 df37 841d 74b7 2b8f a3b7 8e43 d237
00000220: 00f1 8733 c129 c937 8180 d338 960e 29b7
00000230: 0c78 ad37 0c06 8436 bc17 b8b7 8c91 40b7
00000240: 9582 7b38 e355 5338 e2cc 1a38 e45a 2037
00000250: b6fb 1838 ea3e a738 2986 803c da1e ef37
00000260: 7414 e7b7 cbf0 9038 489d 2638 85f9 8a38
00000270: 373c 7138 8e1c 15b8 23e1 c8b7 f17d 89b7
00000280: 9c8a 97b7 d9bf 4537 808f f2b4 43e9 7ab8
00000290: 7894 6838 0d2e a237 004c 29b7 d7c9 60b7
000002a0: 69d0 d737 9c38 13b8 323a d2b7 fb02 a337
000002b0: 8897 9737 ec27 a7b7 28a0 aa3c 8ce2 1637
000002c0: 4fad 7d36 9af0 b3b7 52c6 36b7 bf61 3f37
000002d0: a378 5cb7 c037 5636 bc97 ce37 5a9f 9137
000002e0: bcba 2bb8 ed13 84b8 0a5c 6eb8 7464 fd37
000002f0: 5ee8 9137 54ba b4b7 60dd b735 6890 f4b6
00000300: 35b5 46b8 a64b 1438 a697 ec37 8b39 49b7
00000310: 09cc 5db8 5036 5038 cccb 24b7 68eb 59b6
00000320: 6465 b6b7 3165 1638 c8ee b638 260c 02b7
00000330: 6e6e 1d37 6e76 5e37 5478 52b8 1a18 c5b7
00000340: 9d47 2d38 8a12 79b7 300c a337 daab 57b8
00000350: 8e89 ce36 fbf8 8c38 3498 a337 b523 c5b7
00000360: ea12 6937 0a22 1738 5916 1337 f484 6f37
00000370: 3c85 2f36 9098 6fb7 3f54 14b7 0b0a ae37
00000380: 70c0 06b4 ff4a a6b7 6c0d 9eb7 4d33 5e38
00000390: 92c1 0938 92ab 07b7 47f3 1eb8 8984 ceb7
000003a0: 80b9 a7b4 121f dd37 f426 2db7 e6c0 74b8
000003b0: 79f5 6737 e8a5 12b8 00a8 04b8 26f3 6f38
000003c0: 6c4e 3038 a733 c4b7 7177 f3b6 0f07 02b8
000003d0: c8a6 5fb8 86e0 5238 099e 2eb8 5dfb 8a37
000003e0: 4eea fa37 7d51 e8b7 758b 57b8 403b efb5
000003f0: 8694 ddb7 4e32 c237 ac9d 3436 c615 64b8

exp_avg_sq f4 [256]
9.6853974e-08 8.617462e-08 2.2689392e-07 1.3888274e-07 1.4754032e-07 6.122189e-08 1.3047467e-07 1.0987557e-07
1.07992086e-07 8.325328e-08 1.3351695e-07 6.900829e-08 1.2173962e-07 2.442273e-07 6.612805e-08 1.2759632e-07
1.7656863e-07 8.145365e-08 1.259142e-07 1.0762211e-07 9.786264e-08 1.8658768e-07 1.13837686e-07 1.3983973e-07
1.0578804e-07 1.379497e-07 1.4788533e-07 9.9986224e-08 9.463948e-08 1.0698605e-07 1.5518006e-07 9.9502195e-08
1.2872604e-07 9.386e-08 7.9623085e-08 2.2757384e-07 1.1270194e-07 1.1524536e-07 7.332502e-08 9.706064e-08
1.4656997e-07 1.4150488e-07 1.01791095e-07 2.5382562e-07 1.6130682e-07 8.716695e-08 1.07910516e-07 1.0144157e-07
1.11283306e-07 1.00020955e-07 1.2151025e-07 1.366354e-07 1.0480242e-07 2.0882865e-07 2.259686e-07 1.1243294e-07
1.4880789e-07 1.0083379e-07 7.399221e-08 1.01210134e-07 1.3005743e-07 1.2190809e-07 1.11256185e-07 8.340484e-08
1.0997621e-07 1.294013e-07 1.0404884e-07 1.648654e-07 1.7241042e-07 9.66426e-08 1.4495505e-07 1.8035763e-07
9.356046e-08 1.8737978e-07 3.1730397e-07 8.314787e-08 1.2515693e-07 1.18015045e-07 1.5308817e-07 6.775267e-08
1.4118999e-07 9.4959155e-08 1.0754258e-07 1.08381265e-07 1.8005602e-07 6.758252e-08 1.7374845e-07 1.6530491e-07
1.5660645e-07 1.3563387e-07 9.2430575e-08 1.2604158e-07 9.912405e-08 8.872847e-08 9.266831e-08 1.007517e-07
1.0697712e-07 2.0020869e-07 1.073846e-07 8.555338e-08 1.3578152e-07 1.2972177e-07 1.2340918e-07 1.3546465e-07
1.2662514e-07 1.7226486e-07 1.0064912e-07 1.2568128e-07 1.6308498e-07 9.642864e-08 2.1601635e-07 2.9203488e-07
8.881379e-08 1.3035233e-07 1.197374e-07 9.413885e-08 9.329038e-08 1.07758254e-07 1.7506856e-07 1.2636866e-07
1.6217831e-07 1.3781363e-07 1.17866904e-07 1.2966618e-07 1.0632677e-07 1.0747639e-07 1.1974723e-07 1.4590094e-07
6.7100046e-08 7.654266e-08 1.5014442e-07 1.1884756e-07 1.3944539e-07 7.21858e-08 6.083291e-08 8.435461e-08
1.2294333e-07 7.348842e-08 2.5283381e-07 1.1957201e-07 1.4376535e-07 8.9179466e-08 7.8973585e-08 9.124742e-08
1.3118236e-07 1.9825626e-07 1.6294642e-07 7.8583454e-08 1.683292e-07 8.774263e-08 0.007681822 4.667232e-08
9.517823e-08 1.12283935e-07 9.8424344e-08 1.7320082e-07 1.8602687e-07 2.1057969e-07 8.9433804e-08 1.5742437e-07
1.3171649e-07 9.046405e-08 1.0845608e-07 1.3398389e-07 1.442851e-07 1.4726805e-07 1.0962154e-07 1.01082904e-07
2.1713545e-07 1.6119697e-07 1.1359628e-07 1.1803215e-07 1.5122625e-07 1.14230005e-07 0.013649027 1.19164945e-07
1.2066178e-07 1.01157845e-07 1.13863685e-07 1.1250504e-07 1.4385347e-07 1.3897817e-07 7.717305e-08 1.1911617e-07
1.6652592e-07 1.7020893e-07 9.227986e-08 1.4818893e-07 9.961649e-08 7.51942e-08 1.3100231e-07 1.08301826e-07
1.0732621e-07 9.8179704e-08 8.33342e-08 8.930649e-08 1.6076883e-07 9.258888e-08 9.942938e-08 7.999121e-08
1.13258594e-07 1.1075203e-07 1.3166853e-07 8.3221664e-08 1.02868654e-07 7.610428e-08 1.5980673e-07 1.0321886e-07
9.061002e-08 7.371219e-08 9.697727e-08 1.0466232e-07 1.3257898e-07 1.4243474e-07 1.0021157e-07 8.2078124e-08
7.3253304e-08 1.6108325e-07 9.819812e-08 1.6329128e-07 1.4002953e-07 1.3856088e-07 1.2511602e-07 1.7155455e-07
1.06175776e-07 1.2622472e-07 1.1021593e-07 1.2557781e-07 8.205758e-08 1.1134266e-07 1.5324797e-07 1.0520799e-07
1.0188364e-07 9.643827e-08 8.862477e-08 2.1934699e-07 8.9109236e-08 9.815897e-08 9.209974e-08 1.771819e-07
1.04376106e-07 1.5543377e-07 9.283776e-08 1.159872e-07 1.3457992e-07 8.99406e-08 1.0375808e-07 1.2312674e-07
7.209287e-08 1.0237954e-07 1.3506975e-07 1.331301e-07 1.2717528e-07 8.7047674e-08 1.652444e-07 1.1497824e-07
00000000: 09fe cf33 000f b933 20a0 7334 cc1f 1534
00000010: 936b 1e34 1779 8333 9b18 0c34 bcf4 eb33
00000020: 47e9 e733 fac8 b233 dc5c 0f34 b531 9433
00000030: 88b7 0234 581e 8334 4802 8e33 6901 0934
00000040: d196 3d34 9eeb ae33 0833 0734 e11d e733
00000050: 8e28 d233 d558 4834 ee76 f433 da26 1634
00000060: 972d e333 531f 1434 69ca 1e34 02b8 d633
00000070: 9b3c cb33 34c0 e533 929f 2634 e9ad d533
00000080: f237 0a34 1590 c933 41fd aa33 055b 7434
00000090: 8c06 f233 cf7c f733 db76 9d33 a76f d033
000000a0: d960 1d34 91f0 1734 3f98 da33 8745 8834
000000b0: ae33 2d34 8a30 bb33 6fbc e733 18d8 d933
000000c0: a5fa ee33 1acb d633 7c78 0234 0eb6 1234
000000d0: bd0f e133 623a 6034 c7a1 7234 aa72 f133
000000e0: 00c8 1f34 f689 d833 a6e5 9e33 dc58 d933
000000f0: eaa5 0b34 d7e5 0234 bceb ee33 4c1c b333
00000100: 102c ec33 8ff1 0a34 7471 df33 db05 3134
00000110: d11f 3934 d589 cf33 f1a4 1b34 54a8 4134
00000120: 68eb c833 9032 4934 ed59 aa34 068f b233
00000130: e062 0634 756f fd33 8e60 2434 6d7f 9133
00000140: 029a 1734 59ec cb33 29f2 e633 3bbf e833
00000150: 6c55 4134 e221 9133 9c8f 3a34 ab7e 3134
00000160: a727 2834 c1a2 1134 3f7e c633 0c56 0734
00000170: 06de d433 fe8a be33 f100 c733 d55c d833
00000180: 4bbb e533 f2f8 5634 4f9b e633 78b9 b733
00000190: 57cb 1134 a649 0b34 7582 0434 3d74 1134
000001a0: 74f6 0734 cef7 3834 7024 d833 02f3 0634
000001b0: 751c 2f34 3514 cf33 1ff2 6734 f8c8 9c34
000001c0: e6b9 be33 faf6 0b34 2a91 0034 6129 ca33
000001d0: ee56 c833 ba68 e733 7bfa 3b34 f4af 0734
000001e0: 3c23 2e34 ecf9 1334 041e fd33 5e3a 0b34
000001f0: c355 e433 c5cd e633 de93 0034 f2a8 1c34
00000200: a418 9033 c65f a433 6237 2134 2339 ff33
00000210: 75ba 1534 9004 9b33 3fa3 8233 7026 b533
00000220: 6802 0434 b0d0 9d33 37bd 8734 b463 0034
00000230: eb5d 1a34 ee82 bf33 3098 a933 cdf3 c333
00000240: 22db 0c34 44e0 5434 5ff6 2e34 b6c1 a833
00000250: fabd 3434 056d bc33 cbb7 fb3b c274 4833
00000260: c964 cc33 bf20 f133 5b5d d333 14f9 3934
00000270: adbe 4734 b41b 6234 c10e c033 7b08 2934
00000280: f46d 0d34 2345 c233 5ce8 e833 36dd 0f34
00000290: c9ec 1a34 bc20 1e34 1469 eb33 ea12 d933
000002a0: bd25 6934 7c15 2d34 37f2 f333 dc78 fd33
000002b0: c160 2234 9c4e f533 2ba0 5f3c 9fe7 ff33
000002c0: 428f 0134 1d3c d933 3985 f433 4d9a f133
000002d0: 2476 1a34 073a 1534 55ba a533 cfcc ff33
000002e0: 4cce 3234 adc2 3634 642b c633 dd1d 1f34
000002f0: bfec d533 737a a133 a4a9 0c34 8f93 e833
00000300: 357b e633 ddd6 d233 76f5 b233 c3c8 bf33
00000310: cd9f 2c34 46d5 c633 e185 d533 a2c7 ab33
00000320: 9238 f333 93d6 ed33 c560 0d34 98b7 b233
00000330: a4e8 dc33 c56e a333 5797 2b34 2ba9 dd33
00000340: 6395 c233 b44b 9e33 d141 d033 b8c2 e033
00000350: 085b 0e34 2af0 1834 e533 d733 ed42 b033
00000360: 6e4f 9d33 3af6 2c34 fde0 d233 2a55 2f34
00000370: 065b 1634 53c7 1434 a157 0634 8e34 3834
00000380: c002 e433 6388 0734 d9af ec33 91d6 0634
00000390: a237 b033 461b ef33 7b8c 2434 b4ee e133
000003a0: 20cb da33 8019 cf33 fc51 be33 a485 6b34
000003b0: 525c bf33 77cb d233 5ec8 c533 643f 3e34
000003c0: 5f25 e033 4fe5 2634 195e c733 a314 f933
000003d0: 0c81 1034 5e25 c133 9cd1 de33 d234 0434
000003e0: 79d1 9a33 bfdb db33 b107 1134 86f2 0e34
000003f0: ad8d 0834 f7ee ba33 096e 3134 f5e9 f633
