new_checkpoints/20550004.ckpt (torch, 47169 bytes, 12 tensors)

weight f4 [256, 4]
00000000: 9803 6f3e 3b6d 203d a8d1 d23e 73a6 053d
00000010: bc58 2a3e 6d69 ee3e e88b b23e 4765 b2bd
00000020: f808 9c3e 6a27 40bf 54cb fbbe e41e 993d
00000030: 101e 013d 87d1 053f 6072 6bbe 78c3 82bd
00000040: 0041 53bb 9346 30be fa77 803e e1d1 1ebd
00000050: d8b0 0b3e b92d 903e 7834 babe fd01 f0bd
00000060: c20a 813e 9010 82be b0c1 e53d 46e8 133d
00000070: be98 bb3e 1490 dfbe f48b 57be 31b5 053e
00000080: c43a 30be 857d 98be e254 bc3e ffcf b43d
00000090: ba31 943e 8920 48bf 42a4 92be d34a c13d
000000a0: b44b a03e 078d 51bd fcaf 403e b57e 1b3d
000000b0: 8cf3 a1be 3826 f03c 64a3 9f3e d2b5 9e3a
000000c0: fc03 94be a4c7 b5be 50b3 6e3d e305 893d
000000d0: 9e3a 81be 945d 1abe dc19 d5be e44b b83d
000000e0: 3ca2 6ebe edeb 85be 744c 233e 9be7 8fbd
000000f0: 2c3b d33e cfb0 adbd 10d0 fdbd 0daf 33bc
00000100: eca7 63be f398 26bf bc72 62be f826 b03d
00000110: 4cb1 3f3e b8fc f4bd 7032 963d fe0f f33c
00000120: 6a83 e63e b026 c2bc 40c8 cd3d c152 41bd
00000130: 18ea cf3d 189b c3be e8d9 80be 6146 113d
00000140: 70cf d9bd 664c 7dbd cc51 f73e 0e62 f0bc
00000150: b6ff df3e b7a8 15be b0ec c63e 511d 2fbd
00000160: 5ca6 783e 7368 253d a4fa e3be ba5d 7f3d
00000170: 18f7 e23e b840 35bd 5888 83bd 28b7 af3d
00000180: 1849 553e 9d69 0b3d 5a30 a13e dd24 3ebc
00000190: 14b7 de3e c2a9 abbd 42c3 d73e d6d7 523c
000001a0: 9e76 e13e 815e a9bc c041 15be 2342 cbb9
000001b0: 32f2 a1be eecb 32bf c857 dabe b27d 2f3e
000001c0: dca8 e13e 344a 27bc 202d e13c 6a59 b33d
000001d0: 8a0a 803e e22c 3cbe fc8b e9be c198 a4bc
000001e0: 2cd8 f6be 94c1 b83c 0820 a2be a636 e2bb
000001f0: f42d 8f3e a5ec ebbd 6871 b1bd e561 e2bc
00000200: 8858 c13e 4070 1dbe bce8 52be ba9f f63d
00000210: 7e28 fc3e 13bc 913e 88e4 a0be da52 b2bd
00000220: 0c18 bbbe 9063 353e 5098 a5be 8b9a 993c
00000230: c6f4 953e 0f30 83be 9e01 e6be fd18 df3c
00000240: bc4e d0be 6008 903e eca4 eabe c7d6 82bd
00000250: 6025 91bc 4f02 78bd a08e c5bc d79a 35bd
00000260: c876 02be 18a8 ce3e ecf1 403e 5e1c e9bd
00000270: 40e7 5d3c 4933 ad3d 24ba 273e c149 89bd
00000280: 2490 10be b696 183f 80a8 cbbb 659b 16be
00000290: bc6a 823e 0e3f 193f 5c0d 023e b736 b6bd
000002a0: 0aec b53e 5839 2a3e 1858 8cbd a1aa e8bd
000002b0: 68b8 5ebe 6db5 9a3e 085c febe 04ae 40bd
000002c0: 90ff 05be 3681 2dbf 14a4 eb3e de1b 313e
000002d0: 30c0 fbbe 53c1 09be 34ee 34be 3cd0 843d
000002e0: 0074 fbba 07ce 82bd 8826 f0bd 62a5 33bd
000002f0: 4067 95bd 15f0 09bf 5c68 543e 2e17 033e
00000300: eab1 ad3e 2cd9 cf3e 8006 093c b76a d6bd
00000310: b437 95be 5335 e83e ee51 963e ce8e 86bd
00000320: a456 1a3e 6788 b4be e057 bebd 5509 8dbc
00000330: de8b c9be d524 053e 085d b63e cedd e4bd
00000340: 344d 16be 7329 163f 0818 4e3e f564 29be
00000350: a057 b2be 693d 0c3f 8822 fb3e 310c 8abd
00000360: 008d d7be d112 b83e bc4d 9e3e 28e5 08be
00000370: 8663 8f3e c7a6 733e c061 27bc 8254 453d
00000380: 00c8 c239 1166 813d c45e 70be a1ce 84bd
00000390: 76ed bf3e 9a08 5b3f 983b b33d 4a88 c7bd
000003a0: 2a55 88be 1d6f 493d c403 26be ec21 803d
000003b0: 80ef 2f3e 95e6 113f a4f5 d2be f431 f2bd
000003c0: f4f6 7abe d8f4 b6be 2cbe a13e d143 3f3d
000003d0: e4ae cd3e b8b4 263f 28c6 ee3d db77 76bd
000003e0: 0248 8a3e fc4a 02bf d0cf e13e 69d2 a43c
000003f0: bae4 88be 9994 14be 3c60 d83e 2772 bb3d
0.23341215 0.03916667 0.4117558 0.03262944 0.16635412 0.46564808 0.34872365 -0.08710723
0.30475593 -0.7506014 -0.49178565 0.07476595 0.03152281 0.5227284 -0.2299285 -0.06384939
-0.0032234788 -0.17214422 0.25091535 -0.038774375 0.1364168 0.28159884 -0.36368155 -0.11719129
0.2520352 -0.2540326 0.112185836 0.036110185 0.3663997 -0.4366461 -0.21049482 0.130574
-0.17209917 -0.29783264 0.3678351 0.088287346 0.28944188 -0.78174645 -0.28640944 0.094381
0.31307757 -0.051159885 0.18817133 0.037962634 -0.31631124 0.0293151 0.31179345 0.001210863
-0.2890929 -0.35503876 0.058276474 0.06690576 -0.25240034 -0.1507476 -0.41621292 0.0899885
-0.23304075 -0.2615656 0.15947133 -0.07026597 0.41256082 -0.08480989 -0.123932004 -0.010967028
-0.22232026 -0.6507713 -0.2211408 0.08601183 0.18719977 -0.11962265 0.07333839 0.029670712
0.45022136 -0.023700088 0.1004796 -0.04719806 0.10152072 -0.38204265 -0.2516625 0.03546751
-0.10635269 -0.061840437 0.48304594 -0.029343631 0.4374978 -0.14615141 0.38852453 -0.042752568
0.24282211 0.040382814 -0.4452716 0.062345244 0.44329143 -0.044251174 -0.0642249 0.08579856
0.20828664 0.034036268 0.31482202 -0.011605469 0.43499053 -0.08381988 0.42141157 0.012868842
0.4403581 -0.020674946 -0.14575863 -0.00038768453 -0.31630093 -0.6984242 -0.42645097 0.17137793
0.44074142 -0.0102105625 0.027487338 0.08757289 0.2500804 -0.18376496 -0.45614612 -0.02009237
-0.482118 0.022553243 -0.31665063 -0.0069034873 0.27964747 -0.11519746 -0.08664209 -0.02763457
0.37762856 -0.15374851 -0.20596594 0.12042184 0.49249643 0.28463802 -0.31424356 -0.08707209
-0.36541784 0.17713761 -0.32342768 0.01875045 0.2928831 -0.25622603 -0.4492311 0.027233595
-0.4068507 0.2813139 -0.4582895 -0.06388622 -0.017718017 -0.060549077 -0.02411586 -0.04433712
-0.12740624 0.4036262 0.18842286 -0.11382364 0.013543904 0.084570475 0.16379601 -0.067035206
-0.14117485 0.59604967 -0.006215155 -0.14707716 0.25472057 0.5986184 0.12700409 -0.08897155
0.35531646 0.16623437 -0.0685274 -0.1136067 -0.21750033 0.30216542 -0.4967959 -0.047040954
-0.1308577 -0.67775285 0.4602362 0.17295787 -0.49170065 -0.13452654 -0.17668992 0.0648503
-0.0019184351 -0.06386953 -0.11726099 -0.043858893 -0.07295084 -0.5388196 0.20742935 0.12801811
0.339248 0.40595376 0.008363366 -0.10469573 -0.2914406 0.45353183 0.29359382 -0.065702066
0.15072113 -0.35260317 -0.092941046 -0.017216364 -0.39364523 0.13002332 0.35617852 -0.111751184
-0.14677888 0.58656996 0.20126355 -0.16542418 -0.34832478 0.54781204 0.49049783 -0.067406066
-0.42099762 0.35951856 0.30918682 -0.13368666 0.28005618 0.2379409 -0.0102161765 0.048176296
0.00037151575 0.06318296 -0.2347365 -0.06484724 0.37485856 0.8556 0.08751601 -0.09742792
-0.26627475 0.04917823 -0.16212374 0.0625647 0.17181206 0.56992465 -0.41203034 -0.11825934
-0.24508268 -0.35733676 0.31590402 0.046695534 0.40172493 0.65119505 0.11658889 -0.060172897
0.27008063 -0.5089567 0.4410386 0.020119863 -0.26737005 -0.1450981 0.4226092 0.09152632

bias f4 [256]
00000000: 7997 6abe 3c94 283e 2d0e 003e 4c7b bfbc
00000010: cec6 c63e fe51 fc3e 5ff8 49bc bfea edbe
00000020: ca06 a3be 63bc cd3c eb52 44be a37d 0fbd
00000030: a255 0ebe 3fdd e3be 8395 233f 3a49 143e
00000040: f3f1 a1bc cdd1 a8bd a059 9a3e 7131 943d
00000050: 6e4d 703e 8a61 c23e adb2 ddbe 3449 00bf
00000060: 92c0 503d 7b15 b4bc 321b c03c a55f ffbe
00000070: 887f 08bf 723b 8b3e 193f 853c b87c 843e
00000080: f232 1fbf ecf1 a73e e01c 81be 2bd6 393d
00000090: ab8a 2c3e d3e7 ae3e 750d c33e a246 b83e
000000a0: e3c8 e63e 4138 923d f769 143f 7230 833d
000000b0: f09b 04bf 1dea 9bbe 8757 ad3e 380d b5be
000000c0: ba46 ac3e d02c 243d 97a7 c23e c59d 153f
000000d0: fdb5 0b3f e342 e6bb 7320 093f 9a0c f9be
000000e0: 3151 b33e bfc8 8ebd 1716 debe f4f4 8e3e
000000f0: e3d5 8bbc 201e 22be ff2e 893e 330c e6be
00000100: ee75 233f 1805 af3e 7ff5 97ba e2b1 ddbd
00000110: df3f f5bd 8ead 28be 5e0c f73d 5aa0 45be
00000120: eb1b a8be 0a77 a33d eeff 453e b31b 0dbe
00000130: 6c3b 243f 05a8 8abe 6acd aabe 32c3 3b3e
00000140: 6f68 12bf 392c 0c3f b1ec 7dbe 35fd a03e
00000150: 71c5 b73e 65a7 96be 64ed e9bd d4a1 093f
00000160: d140 17bd ac31 0e3f 4548 cc3e 126a 3dbd
00000170: 108a d03e 5a5e b73e 8ba8 e43e 0099 13bf
00000180: e35c 013f 7419 46be 11e5 f43e af09 71be
00000190: ea96 b2be d059 853e c750 c53d 960f e3bd
000001a0: 1781 2b3f b4ad 9c3e 581b bb3e efcd 24bc
000001b0: d975 bbbe f417 12bf f30a f7be 7fbc a53e
000001c0: a017 fd3e 40da 8b3d 6e98 323e 4a3c d03e
000001d0: adc5 88be 545b a5be f86a 3fbe 9a72 0b3f
000001e0: 94cc e73e c069 f9ba aea5 253d c1dc d33c
000001f0: 5029 983d 651f c53e de1a 59be 6119 4ebd
00000200: 646e 963e 877f f73d b1e5 e9be 7918 853e
00000210: 00a3 bebd 74e6 85be eed4 4cbe 4436 003e
00000220: 233a 9ebc bd89 d13e 59ac 953e da5b 123f
00000230: ff7e a33e 5e52 873d b296 ccbe 7e60 433e
00000240: e8e8 003e dbb8 0abf 4a87 563e 9ab5 9c3a
00000250: 01f2 ff3e e15e 07bf 881b 6ebd d93c 0cbf
00000260: 4bcd a43e 094a 543e 437c 823e 4bf3 5e3e
00000270: 0656 4c3e 5889 1cbe 0832 09be fbb4 81be
00000280: 9e2c fb3c 9178 973d d501 153e b9b7 1d3e
00000290: 2cea 1f3d 8f35 b6bd fd1d 9b3d 7f0e 8bbe
000002a0: b730 78bc 455d abbd 23fe b33e b420 503c
000002b0: 3114 bd3e fab2 21be 1b41 c53e 226c 4e3e
000002c0: 2e17 3e3e dc4b 50bc 3c39 d23e 6a23 94bd
000002d0: f628 63bd 03e5 d1be 7f03 17be ef5e 8abd
000002e0: 091a 1b3f d9be 53bd 50a7 31bc 73ef d73e
000002f0: 8b80 5ebe 0d89 193e 347d da3e 0ba5 0a3f
00000300: f853 993d 0dd0 b0bc 38e3 de3d 759c 283e
00000310: 94a5 a13d 6f20 06bf c44a 1f3f 603f eabd
00000320: 57e7 163f 7dc7 d6bd a9e8 873b 6ac1 afbe
00000330: a98b c7bc f5fa e03e 6a9f dfbe dccc f43e
00000340: a8bb 003e ae75 dd3e 5cc7 23be a89c aa3e
00000350: 6216 a9bd 7f41 89bd e209 1d3e 6de8 cebd
00000360: f28f 2dbe 6c8d 723e 4a35 54bd 8ddc e7bd
00000370: fc4d 12bf 506e c7be bfa2 aa3c cf48 f03e
00000380: 4160 813d c573 dcbe b4fe e03e a9cc a7be
00000390: 7077 c33d 4689 083f e852 953d 8e0a 17be
000003a0: 669d 9cbe 65a0 25bf f15c 313e d155 ebbe
000003b0: 2401 703e 88ec afbd ae4c efbe 513d d4bb
000003c0: d9cf 04bf 5ff9 efbe e2ed b03e 80b2 ad3d
000003d0: 837d 4c3e 4a3a eebe e6c9 e8be a6c6 df3e
000003e0: 70e3 9bbe fd62 fdbe 6aea be3e eda3 e6be
000003f0: 09dc 2e3f 2b15 8bbe 1b84 31bf edce 653e
-0.22909345 0.16462797 0.12505408 -0.023374222 0.3882355 0.49281305 -0.012327283 -0.4646816
-0.31841117 0.025114244 -0.19172256 -0.035031926 -0.13899854 -0.44504735 0.6390001 0.14481059
-0.01976869 -0.08243141 0.30146503 0.07235993 0.23467037 0.3796504 -0.4330038 -0.501117
0.0509649 -0.021982899 0.023450468 -0.49877658 -0.533196 0.2719379 0.016265439 0.25876403
-0.6218711 0.3280176 -0.25217342 0.045370262 0.16849773 0.34161243 0.38096204 0.3599139
0.4507514 0.07139636 0.5797419 0.064057246 -0.5180044 -0.30452052 0.3385584 -0.35361648
0.3364771 0.0400818 0.38018486 0.5844386 0.5457457 -0.0070270165 0.5356514 -0.48642427
0.35022882 -0.06971883 -0.43376228 0.2792126 -0.017069763 -0.15831804 0.26793668 -0.44931182
0.6385182 0.34183574 -0.0011593549 -0.10824944 -0.11975073 -0.16472456 0.12062906 -0.1929945
-0.328338 0.07981689 0.1933591 -0.13780098 0.6415317 -0.27081314 -0.33359843 0.1833618
-0.57190603 0.5475498 -0.24797322 0.31443182 0.35892823 -0.29424587 -0.11422232 0.53762555
-0.036927048 0.55544543 0.39898887 -0.046243735 0.40730333 0.35814172 0.44659838 -0.57655334
0.5053236 -0.19345647 0.47831014 -0.2353885 -0.34880763 0.26045084 0.09634548 -0.11086957
0.6699385 0.30601275 0.365443 -0.010058864 -0.36613348 -0.570678 -0.4825054 0.32370374
0.49432087 0.06828737 0.1744096 0.40670997 -0.26713315 -0.3229624 -0.18693149 0.54471743
0.45273268 -0.0019028708 0.040441208 0.0258621 0.07429755 0.38500515 -0.21201655 -0.050317172
0.29381096 0.12084871 -0.45683053 0.25995234 -0.093084335 -0.26152384 -0.20003101 0.125207
-0.019314831 0.40925398 0.29233053 0.57171404 0.31932828 0.06607507 -0.3995872 0.19079778
0.12588847 -0.5418832 0.20950046 0.0011955977 0.49989322 -0.5287915 -0.058131725 -0.54780346
0.32187876 0.20731367 0.2548543 0.21772496 0.1995469 -0.15286767 -0.13397992 -0.2533339
0.030660924 0.07396043 0.1455148 0.15402116 0.039041683 -0.08896934 0.07574079 -0.27159497
-0.015148333 -0.08367399 0.35154828 0.0127031095 0.36929467 -0.1579093 0.38526234 0.20158437
0.1856353 -0.012713399 0.4105929 -0.07233317 -0.055458985 -0.40995035 -0.14747427 -0.067563884
0.605866 -0.05169568 -0.010843113 0.42174873 -0.21728723 0.14993687 0.42673647 0.54158086
0.07486719 -0.021583581 0.10883182 0.16465934 0.0789291 -0.5239324 0.6222346 -0.11437869
0.58946747 -0.10487268 0.0041476083 -0.3432725 -0.024358587 0.43941465 -0.4367631 0.47812545
0.12571585 0.43253845 -0.15994018 0.33322644 -0.08256222 -0.067019455 0.15335801 -0.101029254
-0.16949442 0.2368676 -0.051808633 -0.113213636 -0.57150245 -0.3895135 0.020829557 0.4693055
0.06317187 -0.43057075 0.43944323 -0.3277333 0.09544265 0.5333446 0.07291204 -0.1475012
-0.30588835 -0.6469787 0.1732061 -0.4596391 0.23437935 -0.08590037 -0.4673819 -0.006477036
-0.5187965 -0.46869943 0.3455649 0.08481312 0.19969754 -0.46528846 -0.45466536 0.43706244
-0.3044696 -0.49489585 0.3728822 -0.4504694 0.68304497 -0.27164587 -0.693422 0.22442217

weight f4 [9, 256]
00000000: 491c 053d 5415 2bbd 04fb bbbc aca9 b7bc
00000010: 64f7 d23b bfed ddbb 995f 4d3c 1f08 e13c
00000020: b079 abbc b873 3dbd 143f 383c 5d65 943c
00000030: b657 833a 9061 eebc 2d7c fabc 6e4f 783c
00000040: 9686 92bc 9826 353c 50aa 1cbd 42a7 00bc
00000050: 80a6 893b 8cdd 503c 2222 bcba 0759 64bc
00000060: b9b9 59bc e228 e6bc 329b b93c 41b5 403c
00000070: 7c0d aa3c ed81 063d 47c6 a6bc ba81 babc
00000080: 5aff 07bd 1684 153d 88cd 383c 75c4 dd3c
00000090: 90b5 d33c d34f 0abc b90c a5bc 52e1 fc3b
000000a0: c686 a23c 6a1a 84bb a10b 2a3c 5264 a43b
000000b0: 50ba 85bc 42cf e73c 9ad9 35bc 0b78 2dbc
000000c0: 43f0 e03c ec92 a43b 3bda bebc 26d8 3dbd
000000d0: 168a 4fbd b73f a03c 9da8 84bc 717c 253c
000000e0: 6b1e 213d 8b87 a1bb 404c 83bc bcf1 b1bc
000000f0: 98ef d4bc d1c9 d63c 4600 d3bc cc1f 963c
00000100: 94cd 69bc 9645 763b c95b 7b3c cba4 acbc
00000110: 25bb e7bc 511b b6bc e8fa c3bc f656 ca3c
00000120: aa31 17bc e573 253d e75f 1c3d a0b2 13bc
00000130: 58f2 7c3c ee36 0bbd 4102 b6bc 29d9 693c
00000140: 79d2 4bbb 00a7 f53c 0dbb 913c 5968 8a3c
00000150: 87b5 be3b 82ba 913c b10b a23c 3978 673c
00000160: 0f57 7c3c 5af8 14bd ab94 de3c 1adf 1a3c
00000170: d06b cfbc 942b e33c f149 60bc b7ce 93bc
00000180: 5689 50bc c759 efbb 02a6 073d b7ad 383d
00000190: d1d3 d0bc e2f2 1fb9 99c3 a73c 3e18 43bc
000001a0: 24c5 b8bc 9478 31bd b817 f43c 431d 3ebc
000001b0: 33f1 3c3c e265 0cbd 93b6 fc3c f53a 09bd
000001c0: e5fd 303c 1ced 1b3d 5e46 393b 088d 843c
000001d0: ac84 a43c e2b0 cdbc e64f 713c c61c 643c
000001e0: 4474 c4bc 2f06 e0bc ab41 c93c 4126 24bd
000001f0: a9e5 26bc a0ab 103d 1915 5fbc 2746 d4bb
00000200: 7d78 a4bc 7d3e 603c 3044 86bc 8412 4a3c
00000210: a019 cabb 0430 3dbc 01ea 34bc 7c43 773b
00000220: 3ffe 123d c33a a8ba 09f3 b13c 5415 933c
00000230: c5c5 a4bc 2d1a 103d 4934 62bc d7b0 093d
00000240: 841c bcbc 9445 a33c 3e0f 313c 45f5 243d
00000250: fdb9 4ebc 06aa febc 54c9 f33c 463a 173d
00000260: 8dce c53c c5ea a83c 1af6 42bc bf90 223d
00000270: 022c 23bc db90 75ba a755 e03c 0a0c 1f3c
00000280: 92a8 17bd b29a 2dbd a3f7 a33c ccb5 bfbc
00000290: f064 463d 5564 87bb b371 093b cd3b 68bc
000002a0: 06bb cd3b 502a 8fbc 5f76 8cbc 38de 88bc
000002b0: d8f9 083c 80cf dc3c 14a9 ab3e d307 893c
000002c0: 048f 27bd 0fb1 b4bc b762 a93c 2980 e0bc
000002d0: bfd8 fb3c 23f9 4c3c a275 d6bc 34d4 10bd
000002e0: 98af 4f3c 1d68 1b3d d509 a33c ccb1 03bd
000002f0: 63f2 abbb 27eb 5bbc 928e 0e3d 21ad c4bc
00000300: 84f9 f03c e12c 3d3d 8326 65bc 2c53 9e3c
00000310: 56af 0a3c f94d 1e3d 76f2 71bc a43a 00bd
00000320: 1bc9 55bc 322a 373c bea7 2a3b 3930 063d
00000330: 9235 08bb 5299 f73c ed83 393d 38a4 1f39
00000340: c372 31ba a477 463c 3af2 38bd bb40 86bc
00000350: 55a6 42bc 71e3 9a3b 62d1 16bd dfea 293c
00000360: e3fd 40bc e918 0a3c 14c3 943c 1312 8d3b
00000370: c2ab 853c ab38 87ba fc72 1b3c 135f 01bd
00000380: d9f3 25bd 45d9 083d e917 3ebc 2c4a b4bc
00000390: 7b78 073d f37b c5bc b54f 6cbc a046 99bc
000003a0: 3b36 58bb d04a 9a3a 13ff bb3c cae5 9f3c
000003b0: 4cd1 d5bc 42da 453d 500c c8bc 1387 2fbd
000003c0: 416e 0dbd 7dab 00bd d098 e4bc 5e3e 9dba
000003d0: 83ff 2a3a 47ff b8bc 2904 e53b 656d 053c
000003e0: b0df febc f638 f5bc 42da c9bc ce5c 093c
000003f0: a0e6 88bc e08d 1e3c d7b2 f13c 1947 e93c
0.032497678 -0.041768387 -0.022946842 -0.022419773 0.0064381827 -0.0067727263 0.012534999 0.027469693
-0.020932049 -0.046252936 0.011245508 0.01811474 0.0010020647 -0.029099256 -0.03057679 0.015155656
-0.017886441 0.011056565 -0.03824836 -0.007852377 0.0042007565 0.012748133 -0.0014353434 -0.013937241
-0.013288909 -0.028095666 0.02265701 0.011761964 0.020758383 0.03283875 -0.020358218 -0.022766937
-0.033202507 0.03650292 0.011279471 0.027071217 0.025843412 -0.008441883 -0.020147668 0.00771729
0.019839656 -0.004031469 0.010378749 0.005016842 -0.016324192 0.02829707 -0.011099244 -0.0105877025
0.027458316 0.0050223973 -0.02329742 -0.046348713 -0.0506688 0.019561632 -0.016193682 0.01010047
0.03933565 -0.004929488 -0.01602757 -0.021721713 -0.025993153 0.02621928 -0.025756966 0.018325709
-0.014270205 0.0037578098 0.0153417075 -0.021074673 -0.02828748 -0.022229822 -0.023923352 0.02469967
-0.009228149 0.04039373 0.038177397 -0.0090147555 0.015438639 -0.033987932 -0.022217872 0.014272966
-0.0031100793 0.029986858 0.017789388 0.01689546 0.0058199796 0.01778913 0.019780966 0.014127784
0.015401616 -0.03636966 0.0271705 0.009452606 -0.025319964 0.02773074 -0.013689504 -0.018042905
-0.012728056 -0.0073044035 0.0331173 0.045087542 -0.025491627 -0.00015253903 0.02047901 -0.011907635
-0.022554941 -0.043327883 0.029796466 -0.011603656 0.011532116 -0.03427685 0.030848777 -0.03350349
0.010802721 0.038067922 0.0028270702 0.01618053 0.020082794 -0.025108758 0.014728522 0.013922876
-0.023981221 -0.027346699 0.024567446 -0.040075544 -0.010186591 0.035319924 -0.01361587 -0.0064780894
-0.020076985 0.013686773 -0.016389936 0.012333516 -0.0061676055 -0.011547092 -0.011042119 0.0037729433
0.035887 -0.0012834895 0.021722334 0.017954506 -0.020113835 0.035181213 -0.013806411 0.033615913
-0.022962816 0.019930638 0.010806857 0.04027297 -0.012617585 -0.031086933 0.029759087 0.03692081
0.024146343 0.02061976 -0.0118994955 0.039688822 -0.009959223 -0.00093675934 0.027384592 0.00970746
-0.037025996 -0.042383857 0.020015543 -0.023402117 0.048436105 -0.0041318336 0.002097231 -0.014174414
0.0062783984 -0.01747623 -0.017146287 -0.016707525 0.008360349 0.026954412 0.33527434 0.016727364
-0.040907875 -0.022057084 0.020676954 -0.027404862 0.030743001 0.012510571 -0.026179139 -0.035358623
0.012676142 0.037941087 0.01990215 -0.032151982 -0.0052474006 -0.013422764 0.034803934 -0.024008336
0.029415853 0.046185378 -0.013986233 0.019326769 0.008464655 0.03864858 -0.01476728 -0.031305924
-0.013048436 0.011179494 0.0026039924 0.032760832 -0.0020783884 0.030224476 0.04529183 0.00015224598
-0.0006769115 0.0121134855 -0.04515288 -0.016388288 -0.011880477 0.00472682 -0.036820777 0.010370939
-0.011779281 0.008428791 0.018159427 0.004305133 0.016317252 -0.0010316571 0.009487864 -0.03158481
-0.040515754 0.03341033 -0.01160238 -0.022008024 0.033073884 -0.024106955 -0.0144233005 -0.018710434
-0.0032991308 0.0011771563 0.022948777 0.019518752 -0.026100777 0.04830385 -0.024419934 -0.042853426
-0.034528974 -0.031413544 -0.027904898 -0.0011996736 0.00065230596 -0.022582663 0.0069890213 0.0081437575
-0.031112522 -0.029934388 -0.024640206 0.008383943 -0.016711533 0.00967738 0.029504223 0.028476285

bias f4 [9]
00000000: 932e a53e 3f5a db3e 851e aabe 7fe9 b93e
00000010: 7a2c fc3d 2622 943f 6ba4 2f3e 562a 82be
00000020: 11a1 853e
0.32262096 0.4284229 -0.3322641 0.36310956 0.12313171 1.1572921 0.17152564 -0.25422925
0.26099446

exp_avg f4 [256, 4]
00000000: 0000 0000 2cf3 beb7 0000 0000 182d 3ab9
00000010: 0000 0000 4847 25b8 0000 0000 7a25 a1b9
00000020: 0000 0000 a80c 2438 0000 0000 b6f2 9f39
00000030: 0000 0000 28c2 aeb7 0000 0000 b063 2ab9
00000040: 0000 0000 6e50 6ab8 0000 0000 cd74 e4b9
00000050: 0000 0000 e43f 8938 0000 0000 81d1 053a
00000060: 0000 0000 2e85 b0b8 0000 0000 761b 2cba
00000070: 0000 0000 a8d4 83b8 0000 0000 f488 00ba
00000080: 0000 0000 6eda 8538 0000 0000 c081 023a
00000090: 0000 0000 803a 57b5 0000 0000 00d4 d1b6
000000a0: 0000 0000 a638 86b8 0000 0000 a1dd 02ba
000000b0: 0000 0000 d15e 4d38 0000 0000 753c c839
000000c0: 0000 0000 50b2 2436 0000 0000 3f94 a037
000000d0: 0000 0000 eafc 3938 0000 0000 9a56 b539
000000e0: 0000 0000 80e7 6635 0000 0000 8022 e136
000000f0: 0000 0000 073f 35b8 0000 0000 0bb7 b0b9
00000100: 0000 0000 14fc 5938 0000 0000 fd88 d439
00000110: 0000 0000 7703 70b8 0000 0000 6503 eab9
00000120: 0000 0000 1abe 4338 0000 0000 68d9 be39
00000130: 0000 0000 ef86 9838 0000 0000 c7b6 143a
00000140: 0000 0000 e6d3 cab7 0000 0000 cfc1 45b9
00000150: 0000 0000 1aac b537 0000 0000 6421 3139
00000160: 0000 0000 0cf2 9838 0000 0000 311f 153a
00000170: 0000 0000 3692 6438 0000 0000 5adb de39
00000180: 0000 0000 e458 8736 0000 0000 8cf6 0338
00000190: 0000 0000 b007 6637 0000 0000 7847 e038
000001a0: 0000 0000 c665 38b8 0000 0000 a5c9 b3b9
000001b0: 0000 0000 39cf 40b8 0000 0000 3bfd bbb9
000001c0: 0000 0000 e161 48b8 0000 0000 6c5f c3b9
000001d0: 0000 0000 9c34 b137 0000 0000 88c6 2c39
000001e0: 0000 0000 cc9b 5338 0000 0000 7c51 ce39
000001f0: 0000 0000 51ad 4c38 0000 0000 5f8f c739
00000200: 0000 0000 2e87 72b8 0000 0000 0a77 ecb9
00000210: 0000 0000 0c1c 0eb8 0000 0000 868e 8ab9
00000220: 0000 0000 6544 32b8 0000 0000 78cf adb9
00000230: 0000 0000 3ac3 00b8 0000 0000 5416 7bb9
00000240: 0000 0000 3daf e837 0000 0000 13de 6239
00000250: 0000 0000 61d9 10b8 0000 0000 4e3a 8db9
00000260: 0000 0000 1b99 1238 0000 0000 e1ee 8e39
00000270: 0000 0000 306c 1fb6 0000 0000 0070 9bb7
00000280: 0000 0000 f78a 3ab8 0000 0000 1ae1 b5b9
00000290: 0000 0000 16c5 2e38 0000 0000 9066 aa39
000002a0: 0000 0000 d653 27b8 0000 0000 ec24 a3b9
000002b0: 0000 0000 014e a3b8 0000 0000 db38 1fba
000002c0: 0000 0000 c47a c5b8 0000 0000 e18a 40ba
000002d0: 0000 0000 9881 7538 0000 0000 5c5e ef39
000002e0: 0000 0000 5670 52b8 0000 0000 842d cdb9
000002f0: 0000 0000 77de 8eb8 0000 0000 1e4c 0bba
00000300: 0000 0000 682e 2db8 0000 0000 0cda a8b9
00000310: 0000 0000 afc2 6e36 0000 0000 c6ca e837
00000320: 0000 0000 80f6 b136 0000 0000 9083 2d38
00000330: 0000 0000 789e ec37 0000 0000 14b4 6639
00000340: 0000 0000 e02b b837 0000 0000 5091 3339
00000350: 0000 0000 b0c1 9eb6 0000 0000 90c9 1ab8
00000360: 0000 0000 6e61 3038 0000 0000 9af8 ab39
00000370: 0000 0000 f4f2 35b8 0000 0000 7d66 b1b9
00000380: 0000 0000 aeea 7a38 0000 0000 d7a4 f439
00000390: 0000 0000 2e7a 01b8 0000 0000 087b 7cb9
000003a0: 0000 0000 1576 c8b7 0000 0000 1073 43b9
000003b0: 0000 0000 fd44 4338 0000 0000 4763 be39
000003c0: 0000 0000 7827 bb37 0000 0000 a479 3639
000003d0: 0000 0000 9236 a238 0000 0000 6a28 1e3a
000003e0: 0000 0000 4083 7437 0000 0000 3866 ee38
000003f0: 0000 0000 c243 96b7 0000 0000 1482 12b9
0.0 -2.2763e-05 0.0 -0.00017755141 0.0 -3.940545e-05 0.0 -0.00030736235
0.0 3.9112434e-05 0.0 0.00030507677 0.0 -2.0832827e-05 0.0 -0.000162496
0.0 -5.5864853e-05 0.0 -0.00043574572 0.0 6.5445696e-05 0.0 0.0005104766
0.0 -8.4171406e-05 0.0 -0.00065653713 0.0 -6.286177e-05 0.0 -0.000490322
0.0 6.38262e-05 0.0 0.00049784407 0.0 -8.017887e-07 0.0 -6.2533654e-06
0.0 -6.4001695e-05 0.0 -0.0004992132 0.0 4.8964113e-05 0.0 0.00038192017
0.0 2.4541696e-06 0.0 1.9142519e-05 0.0 4.434298e-05 0.0 0.00034587533
0.0 8.6018554e-07 0.0 6.709539e-06 0.0 -4.321246e-05 0.0 -0.00033705714
0.0 5.1971598e-05 0.0 0.00040537855 0.0 -5.7223686e-05 0.0 -0.00044634487
0.0 4.666867e-05 0.0 0.00036401604 0.0 7.273058e-05 0.0 0.0005672988
0.0 -2.417895e-05 0.0 -0.00018859583 0.0 2.1657022e-05 0.0 0.00016892474
0.0 7.2930095e-05 0.0 0.0005688547 0.0 5.4495606e-05 0.0 0.0004250657
0.0 4.0336618e-06 0.0 3.146245e-05 0.0 1.3710858e-05 0.0 0.000106944644
0.0 -4.3963802e-05 0.0 -0.00034291777 0.0 -4.596936e-05 0.0 -0.0003585609
0.0 -4.7774873e-05 0.0 -0.00037264393 0.0 2.1124542e-05 0.0 0.00016477157
0.0 5.0451417e-05 0.0 0.00039352092 0.0 4.8798804e-05 0.0 0.00038063058
0.0 -5.7823192e-05 0.0 -0.0004510212 0.0 -3.388156e-05 0.0 -0.000264276
0.0 -4.2502204e-05 0.0 -0.00033151708 0.0 -3.0699397e-05 0.0 -0.00023945543
0.0 2.7738157e-05 0.0 0.00021635769 0.0 -3.4534725e-05 0.0 -0.00026937056
0.0 3.4951703e-05 0.0 0.0002726233 0.0 -2.375582e-06 0.0 -1.8529594e-05
0.0 -4.4475277e-05 0.0 -0.00034690724 0.0 4.1668383e-05 0.0 0.00032501342
0.0 -3.989398e-05 0.0 -0.00031117292 0.0 -7.786975e-05 0.0 -0.0006073841
0.0 -9.416559e-05 0.0 -0.00073449133 0.0 5.8533245e-05 0.0 0.00045655936
0.0 -5.0172523e-05 0.0 -0.0003913456 0.0 -6.812525e-05 0.0 -0.00053137715
0.0 -4.1289633e-05 0.0 -0.00032205915 0.0 3.5578084e-06 0.0 2.7750979e-05
0.0 5.3037074e-06 0.0 4.136894e-05 0.0 2.8207185e-05 0.0 0.00022001594
0.0 2.195494e-05 0.0 0.00017124903 0.0 -4.731315e-06 0.0 -3.690418e-05
0.0 4.205241e-05 0.0 0.00032800884 0.0 -4.338003e-05 0.0 -0.0003383643
0.0 5.9823207e-05 0.0 0.00046662122 0.0 -3.0869785e-05 0.0 -0.00024078425
0.0 -2.3896844e-05 0.0 -0.00018639513 0.0 4.6555873e-05 0.0 0.0003631359
0.0 2.2310516e-05 0.0 0.00017402187 0.0 7.7349265e-05 0.0 0.0006033244
0.0 1.4574092e-05 0.0 0.00011367764 0.0 -1.7912946e-05 0.0 -0.00013972103

exp_avg_sq f4 [256, 4]
00000000: 0000 0000 49bc e533 0000 0000 7364 da36
00000010: 0000 0000 2140 1b34 0000 0000 bf95 1337
00000020: 0000 0000 61fc 0e34 0000 0000 17ed 0737
00000030: 0000 0000 2e24 ea33 0000 0000 9894 de36
00000040: 0000 0000 197a 1634 0000 0000 290c 0f37
00000050: 0000 0000 ff26 0334 0000 0000 885a f936
00000060: 0000 0000 26a1 0734 0000 0000 bdee 0037
00000070: 0000 0000 26fd 3b34 0000 0000 eab4 3237
00000080: 0000 0000 74a2 3a34 0000 0000 556b 3137
00000090: 0000 0000 3634 7634 0000 0000 310c 6a37
000000a0: 0000 0000 72d2 8534 0000 0000 d86d 7e37
000000b0: 0000 0000 2e26 d233 0000 0000 dbc5 c736
000000c0: 0000 0000 9996 8e33 0000 0000 4b8c 8736
000000d0: 0000 0000 e55d 1334 0000 0000 2b17 0c37
000000e0: 0000 0000 74d8 0234 0000 0000 22c5 f836
000000f0: 0000 0000 dce0 d933 0000 0000 dc1e cf36
00000100: 0000 0000 2377 8534 0000 0000 44c0 7d37
00000110: 0000 0000 04eb 3134 0000 0000 3b22 2937
00000120: 0000 0000 27ed 6634 0000 0000 4286 5b37
00000130: 0000 0000 8f3f 0334 0000 0000 1089 f936
00000140: 0000 0000 4426 b233 0000 0000 575a a936
00000150: 0000 0000 5244 9633 0000 0000 edd8 8e36
00000160: 0000 0000 5caf 0734 0000 0000 3ffc 0037
00000170: 0000 0000 8ec7 2d34 0000 0000 f032 2537
00000180: 0000 0000 d70f bd33 0000 0000 1eba b336
00000190: 0000 0000 dd68 f233 0000 0000 c870 e636
000001a0: 0000 0000 f990 5234 0000 0000 622b 4837
000001b0: 0000 0000 abf4 d233 0000 0000 338a c836
000001c0: 0000 0000 0cbf 5a34 0000 0000 0ff2 4f37
000001d0: 0000 0000 0a6b ed33 0000 0000 27b2 e136
000001e0: 0000 0000 66ae 3134 0000 0000 94e8 2837
000001f0: 0000 0000 17f0 3d34 0000 0000 588f 3437
00000200: 0000 0000 257c ef33 0000 0000 02a9 e336
00000210: 0000 0000 e3a4 0234 0000 0000 1363 f836
00000220: 0000 0000 829f fc33 0000 0000 6926 f036
00000230: 0000 0000 8c28 8f34 0000 0000 0517 8837
00000240: 0000 0000 e49d c733 0000 0000 cfc2 bd36
00000250: 0000 0000 4717 bb33 0000 0000 75da b136
00000260: 0000 0000 57ab d833 0000 0000 adf8 cd36
00000270: 0000 0000 0ba4 de33 0000 0000 e2a5 d336
00000280: 0000 0000 4966 2634 0000 0000 f72e 1e37
00000290: 0000 0000 2f5e e933 0000 0000 60d8 dd36
000002a0: 0000 0000 696d 2934 0000 0000 b00f 2137
000002b0: 0000 0000 b44f fc33 0000 0000 87da ef36
000002c0: 0000 0000 7f68 0934 0000 0000 ab9f 0237
000002d0: 0000 0000 5354 de33 0000 0000 345a d336
000002e0: 0000 0000 6c3f a733 0000 0000 65fd 9e36
000002f0: 0000 0000 9b2e ec33 0000 0000 5d85 e036
00000300: 0000 0000 e8f2 4034 0000 0000 f56b 3737
00000310: 0000 0000 d64c 9733 0000 0000 56d4 8f36
00000320: 0000 0000 d9b5 0134 0000 0000 779c f636
00000330: 0000 0000 69a0 1934 0000 0000 980a 1237
00000340: 0000 0000 1005 8834 0000 0000 cd4d 8137
00000350: 0000 0000 fd18 e133 0000 0000 c9fb d536
00000360: 0000 0000 1ee8 f433 0000 0000 71d0 e836
00000370: 0000 0000 15df 6e34 0000 0000 c013 6337
00000380: 0000 0000 656d 0c34 0000 0000 6a7e 0537
00000390: 0000 0000 6500 9933 0000 0000 6772 9136
000003a0: 0000 0000 01d3 b833 0000 0000 ceb2 af36
000003b0: 0000 0000 6279 f933 0000 0000 0928 ed36
000003c0: 0000 0000 a870 6434 0000 0000 1a29 5937
000003d0: 0000 0000 4bad f333 0000 0000 28a5 e736
000003e0: 0000 0000 6410 1234 0000 0000 0bda 0a37
000003f0: 0000 0000 7174 d133 0000 0000 ea1c c736
0.0 1.0697892e-07 0.0 6.5086e-06 0.0 1.445883e-07 0.0 8.796748e-06
0.0 1.3316595e-07 0.0 8.101829e-06 0.0 1.0903055e-07 0.0 6.633414e-06
0.0 1.4014257e-07 0.0 8.5262955e-06 0.0 1.2214512e-07 0.0 7.4313175e-06
0.0 1.263148e-07 0.0 7.68498e-06 0.0 1.7507827e-07 0.0 1.0651749e-05
0.0 1.73817e-07 0.0 1.0575012e-05 0.0 2.292953e-07 0.0 1.3950325e-05
0.0 2.49263e-07 0.0 1.5165155e-05 0.0 9.785832e-08 0.0 5.9536956e-06
0.0 6.639784e-08 0.0 4.039646e-06 0.0 1.37246e-07 0.0 8.3500445e-06
0.0 1.2185939e-07 0.0 7.4139252e-06 0.0 1.01457516e-07 0.0 6.1726732e-06
0.0 2.4859864e-07 0.0 1.51247405e-05 0.0 1.6569908e-07 0.0 1.0081155e-05
0.0 2.1506695e-07 0.0 1.30846765e-05 0.0 1.2223448e-07 0.0 7.4367344e-06
0.0 8.2957314e-08 0.0 5.0471094e-06 0.0 6.997347e-08 0.0 4.2571833e-06
0.0 1.263665e-07 0.0 7.688125e-06 0.0 1.6184478e-07 0.0 9.846626e-06
0.0 8.8038796e-08 0.0 5.3562826e-06 0.0 1.1288078e-07 0.0 6.8676636e-06
0.0 1.9610515e-07 0.0 1.193103e-05 0.0 9.823392e-08 0.0 5.976553e-06
0.0 2.0372335e-07 0.0 1.239452e-05 0.0 1.1055643e-07 0.0 6.726262e-06
0.0 1.6547855e-07 0.0 1.0067732e-05 0.0 1.7689341e-07 0.0 1.0762211e-05
0.0 1.11518865e-07 0.0 6.7848023e-06 0.0 1.2167179e-07 0.0 7.4025097e-06
0.0 1.1763679e-07 0.0 7.157029e-06 0.0 2.6665327e-07 0.0 1.6223183e-05
0.0 9.29538e-08 0.0 5.6553176e-06 0.0 8.7121e-08 0.0 5.300443e-06
0.0 1.008945e-07 0.0 6.1384258e-06 0.0 1.036752e-07 0.0 6.3076013e-06
0.0 1.5497166e-07 0.0 9.428469e-06 0.0 1.086704e-07 0.0 6.6115026e-06
0.0 1.5779155e-07 0.0 9.6e-06 0.0 1.1749162e-07 0.0 7.148195e-06
0.0 1.2797135e-07 0.0 7.785779e-06 0.0 1.0353019e-07 0.0 6.298791e-06
0.0 7.78808e-08 0.0 4.738266e-06 0.0 1.0998084e-07 0.0 6.6912457e-06
0.0 1.7969762e-07 0.0 1.0932786e-05 0.0 7.045462e-08 0.0 4.2864513e-06
0.0 1.2080217e-07 0.0 7.349586e-06 0.0 1.4307592e-07 0.0 8.704745e-06
0.0 2.5335657e-07 0.0 1.5414227e-05 0.0 1.0481924e-07 0.0 6.3772063e-06
0.0 1.1404357e-07 0.0 6.9384046e-06 0.0 2.2246634e-07 0.0 1.3534853e-05
0.0 1.3078314e-07 0.0 7.956851e-06 0.0 7.1246895e-08 0.0 4.334655e-06
0.0 8.606549e-08 0.0 5.236222e-06 0.0 1.16170455e-07 0.0 7.067811e-06
0.0 2.1275139e-07 0.0 1.2943778e-05 0.0 1.1347091e-07 0.0 6.903563e-06
0.0 1.3603272e-07 0.0 8.276208e-06 0.0 9.7535015e-08 0.0 5.934028e-06

exp_avg f4 [256]
00000000: f4af eeb7 1c99 4eb8 c80f 4d38 b272 dab7
00000010: 4472 92b8 dd8f ab38 78a6 dcb8 d6c9 a4b8
00000020: 0551 a738 8083 86b5 ccc6 a7b8 445b 8038
00000030: d8de 4d36 247c 6838 4053 9035 c78e 62b8
00000040: 8e3d 8838 2d02 96b8 a4ad 7438 a8a8 be38
00000050: de88 fdb7 1f17 e337 902e bf38 60db 8e38
00000060: 0c2f a936 c8c4 8f37 3c7f 66b8 0403 71b8
00000070: 567a 7ab8 d481 dd37 6041 8438 aad8 7f38
00000080: 8194 97b8 08a3 31b8 7fd5 5eb8 0ef4 20b8
00000090: 896d 1138 b20f 35b8 603f 3738 a047 47b6
000000a0: bc2d 69b8 5c76 5a38 c328 51b8 8321 ccb8
000000b0: 73d9 f6b8 fc70 9938 3686 83b8 1896 b2b8
000000c0: 007a 58b8 bf39 9536 1074 de36 0ce3 1338
000000d0: f036 e637 5072 c6b6 ce79 5c38 ae6f 63b8
000000e0: aed2 9c38 b6d8 21b8 8a93 fab7 3f16 7438
000000f0: 44f1 e937 33c4 ca38 04d2 9837 b0d4 bbb7
00000100: 8a07 aa38 164e 4cb8 05e5 1638 e1ea 9138
00000110: a851 5c37 56b6 c1b7 faff 2ab8 1ee0 40b8
00000120: 6382 7b38 80fb b7b7 50dd 45b8 5e2e e7b8
00000130: 6456 b7b8 e07d 4436 e0a5 a837 3387 53b8
00000140: 000d 58b8 7245 5cb8 219a 29b8 5118 62b8
00000150: 6f77 d637 3515 b037 ec8f 1fb8 9a99 73b8
00000160: 4296 a0b8 8007 3d35 a012 30b6 0c92 5db8
00000170: dcba 5338 786d dfb7 ec19 9a38 2833 6b37
00000180: f638 8eb8 337b 0238 1ccd 9bb7 f034 e3b7
00000190: 3a91 2b38 507e 0d38 e052 a536 bb68 a138
000001a0: 6694 0c38 4015 2cb7 d812 feb7 5231 67b8
000001b0: 24af adb8 48cc 0db7 b2fa 7ab8 2357 86b8
000001c0: ca18 4238 a0f6 40b7 2de0 cb38 6d67 1239
000001d0: e804 22b7 0014 9135 3042 95b8 22ce 0ab8
000001e0: 5f6c 82b8 e62e 3738 1407 e6b7 806b a937
000001f0: 91e9 0cb8 9842 48b8 2ccb a038 dc9b b5b8
00000200: cebf 6c38 f4b8 bb38 eeb4 9f38 c0c6 75b8
00000210: 29cf 3fb8 0c70 dfb7 4250 2db8 3402 5b38
00000220: 088f f4b7 4b8b 6eb8 884a 47b7 6caf 30b8
00000230: a6be 4038 1c65 9fb7 fa54 9e37 1c5e 40b8
00000240: 1ea7 5038 53ff 25b8 003f 8ab8 c480 0cb8
00000250: 3836 9638 1e6a 0b38 dc52 d2b7 a024 8838
00000260: 0454 69b8 7388 4738 7b43 6f38 ecd2 9538
00000270: aaa9 a938 a713 feb7 8294 8f38 0d59 8cb8
00000280: 20cb 4d38 8197 82b8 f245 8cb8 740d 8137
00000290: d079 c6b7 07fa dbb8 3008 0139 eedb e0b8
000002a0: 0793 36b8 7c63 4ab8 b332 5638 72e5 a9b7
000002b0: e62b 83b8 e4b9 e1b7 ef56 a0bc 8eec a1b8
000002c0: a8df ac37 14e5 7d38 c82c 79b8 98a7 8837
000002d0: f013 a6b7 94e9 95b8 a0ea 5e37 30c2 2237
000002e0: 418d 7cb8 f695 06b8 401b 9735 36db 3f38
000002f0: 621e 8d38 7251 b338 9234 49b8 40e5 9cb6
00000300: f24b 96b8 c020 5d36 3ef2 8438 d48c e3b7
00000310: d3a5 c9b8 2c48 34b8 5829 4638 44f6 f437
00000320: 319f 2238 76fc 5b38 7e96 c638 ccfc ccb7
00000330: 3b9d 7138 c2b9 8838 9202 7638 56f5 adb7
00000340: 1b87 64b7 bcc5 b5b7 a05f 2a37 6c6b 9538
00000350: 4d50 2d38 6067 dbb5 ba2d 7338 0926 d338
00000360: c3d8 0cb9 4690 84b8 20ab ddb6 baa2 a038
00000370: 2832 9f38 e73b c538 0aee 2d38 c022 9837
00000380: b025 f936 ce3a 3ab8 da7a 7738 f88c ae38
00000390: cc4e ffb7 d166 adb8 c013 a338 8cb5 4eb7
000003a0: 598b b9b8 41e1 b0b8 03a3 5238 4c2b c4b7
000003b0: 2495 d2b7 7805 b637 9c57 b338 a83a 09b8
000003c0: d00d 6238 e84f 5337 0cce ad37 efbd e4b8
000003d0: 1aa3 0ab8 47d3 c4b8 ee13 23b8 c9e6 49b8
000003e0: c242 3838 e84c 0a38 bc3f 1038 f54e e138
000003f0: 0060 d832 0402 bc37 0869 2838 8473 a9b8
-2.8453745e-05 -4.925682e-05 4.8890506e-05 -2.6041034e-05 -6.983106e-05 8.180712e-05 -0.00010521425 -7.857724e-05
7.9782716e-05 -1.002205e-06 -8.000209e-05 6.120515e-05 3.0677093e-06 5.5428725e-05 1.0753065e-06 -5.401557e-05
6.496451e-05 -7.152963e-05 5.833585e-05 9.091321e-05 -3.0223684e-05 2.7071275e-05 9.116263e-05 6.8119494e-05
5.0420695e-06 1.7138562e-05 -5.495477e-05 -5.7461686e-05 -5.971858e-05 2.6405709e-05 6.3064275e-05 6.099852e-05
-7.227902e-05 -4.2351923e-05 -5.312776e-05 -3.8374266e-05 3.4672707e-05 -4.316838e-05 4.3689623e-05 -2.9695002e-06
-5.5594122e-05 5.208548e-05 -4.9867445e-05 -9.73372e-05 -0.00011770697 7.3166535e-05 -6.2715655e-05 -8.5156586e-05
-5.1612034e-05 4.4472686e-06 6.629627e-06 3.5258985e-05 2.7443719e-05 -5.9141676e-06 5.2565527e-05 -5.4225027e-05
7.477902e-05 -3.858722e-05 -2.9871026e-05 5.819485e-05 2.7888113e-05 9.6686555e-05 1.8217608e-05 -2.2391177e-05
8.107636e-05 -4.8710113e-05 3.5976078e-05 6.9578884e-05 1.3132034e-05 -2.30923e-05 -4.0769555e-05 -4.5985093e-05
5.9964495e-05 -2.1932414e-05 -4.7174573e-05 -0.00011023575 -8.7422115e-05 2.9279545e-06 2.0104402e-05 -5.0432234e-05
-5.151052e-05 -5.2516763e-05 -4.0436284e-05 -5.3905245e-05 2.5566404e-05 2.099071e-05 -3.804259e-05 -5.8078767e-05
-7.657382e-05 7.04189e-07 -2.6236885e-06 -5.2826523e-05 5.0480347e-05 -2.6634647e-05 7.3481206e-05 1.4019002e-05
-6.7816974e-05 3.1109153e-05 -1.8572951e-05 -2.708516e-05 4.090483e-05 3.3734657e-05 4.927031e-06 7.696586e-05
3.3516808e-05 -1.0256947e-05 -3.0287934e-05 -5.5120625e-05 -8.281905e-05 -8.451818e-06 -5.9838123e-05 -6.4058484e-05
4.627629e-05 -1.1501514e-05 9.72155e-05 0.00013962174 -9.657095e-06 1.0809163e-06 -7.117202e-05 -3.309374e-05
-6.219069e-05 4.3674278e-05 -2.7421433e-05 2.0196429e-05 -3.3596127e-05 -4.7745736e-05 7.667238e-05 -8.6597836e-05
5.6445417e-05 8.951305e-05 7.6154116e-05 -5.8597652e-05 -4.573088e-05 -2.6635847e-05 -4.132116e-05 5.221572e-05
-2.915367e-05 -5.687335e-05 -1.18786775e-05 -4.2125044e-05 4.5953922e-05 -1.900136e-05 1.8874638e-05 -4.5864013e-05
4.9746704e-05 -3.9576855e-05 -6.5920874e-05 -3.3498523e-05 7.1626564e-05 3.3239012e-05 -2.5072535e-05 6.491807e-05
-5.5629775e-05 4.7572375e-05 5.7044886e-05 7.144161e-05 8.0901504e-05 -3.028831e-05 6.846433e-05 -6.692307e-05
4.9064984e-05 -6.227103e-05 -6.6887485e-05 1.5384263e-05 -2.3660163e-05 -0.00010489305 0.00012305449 -0.000107221174
-4.352911e-05 -4.8253205e-05 5.1068793e-05 -2.0253214e-05 -6.2547435e-05 -2.6908652e-05 -0.019572703 -7.72114e-05
2.0608146e-05 6.0533246e-05 -5.9407932e-05 1.6290505e-05 -1.9798026e-05 -7.148381e-05 1.3286859e-05 9.701165e-06
-6.0213035e-05 -3.208775e-05 1.1258307e-06 4.5742105e-05 6.729063e-05 8.5505555e-05 -4.7971094e-05 -4.6758505e-06
-7.166703e-05 3.295063e-06 6.3393716e-05 -2.7126087e-05 -9.615314e-05 -4.298256e-05 4.7245383e-05 2.9201743e-05
3.877207e-05 5.244879e-05 9.469407e-05 -2.4436413e-05 5.760531e-05 6.5195854e-05 5.8653364e-05 -2.073745e-05
-1.3621316e-05 -2.1668959e-05 1.0155054e-05 7.1248825e-05 4.13212e-05 -1.6346858e-06 5.79783e-05 0.00010068349
-0.0001343219 -6.3211235e-05 -6.606235e-06 7.659705e-05 7.591053e-05 9.40485e-05 4.1468105e-05 1.8135994e-05
7.4251657e-06 -4.4400622e-05 5.9003803e-05 8.323224e-05 -3.0435061e-05 -8.268434e-05 7.7761244e-05 -1.23208265e-05
-8.847443e-05 -8.434291e-05 5.0219718e-05 -2.3385182e-05 -2.51034e-05 2.1698637e-05 8.551704e-05 -3.2717973e-05
5.3895463e-05 1.2595185e-05 2.0719155e-05 -0.00010907265 -3.3053664e-05 -9.385362e-05 -3.888079e-05 -4.813707e-05
4.393119e-05 3.297339e-05 3.4391633e-05 0.00010743543 2.5189365e-08 2.2412285e-05 4.015214e-05 -8.0800644e-05

exp_avg_sq f4 [256]
00000000: 227b 3334 2794 7234 526a 5f34 4bec 3634
00000010: ed1e 6b34 e8ec 4c34 afeb 5334 bfdd 9234
00000020: ddce 9134 be58 c034 d518 d134 cd2d 2434
00000030: 63cb de33 bf42 6634 2272 4c34 9f37 2a34
00000040: 3c8a d034 acff 8a34 5369 b434 3d13 4d34
00000050: d82d 0b34 b0ca ea33 0002 5434 e6c3 8734
00000060: 64b4 1334 f661 3d34 4481 a434 27cf 2434
00000070: 4ae5 aa34 ac7b 3934 44d0 8a34 9e63 9434
00000080: ff18 3b34 9721 4c34 835c 4534 59af df34
00000090: 69f3 1b34 332a 1234 da45 2934 30f0 2d34
000000a0: e2ff 8134 9051 3634 7a5d 8434 431e 4534
000000b0: 3db3 5634 e7b1 2d34 87a9 0234 7684 3834
000000c0: b9bd 9634 fe67 ec33 24ac 4a34 9e0a 7034
000000d0: fe87 d434 80db 2f34 4955 3f34 549e ba34
000000e0: f86a 5b34 af10 ef33 da64 1034 d3e6 4234
000000f0: f277 b234 575f 3e34 9239 6434 eca2 2334
00000100: 5a32 cb34 870d 1634 a016 3234 041d 6a34
00000110: 7c4c c334 e247 3334 90d1 4534 b1f5 aa34
00000120: fb1d a634 7645 6c34 ffe1 d734 9893 4534
00000130: aa11 8034 b68b 9034 0696 9434 65bf 1b34
00000140: ae32 0234 70e9 c134 86ed 3a34 d5fd 7b34
00000150: 671f 0634 0ee9 2434 a469 ad34 a1de 8034
00000160: c055 9034 ab49 3f34 affe 2734 d3d5 1f34
00000170: f7ca 6f34 ffb5 8a34 6444 8b34 7128 8034
00000180: 7fae 3934 8292 f933 bda4 6734 1633 9e34
00000190: 81ca 9034 86a9 0b34 2415 2634 6a81 8b34
000001a0: d4c9 e134 bebf 8434 97c1 a234 704e 0334
000001b0: da24 c434 f04d 3d34 5a72 8734 df94 4634
000001c0: 7d5a 0334 28b4 7734 694a 3434 dc5f 5c34
000001d0: 8361 2334 ff6f 7f34 8cc8 7134 1733 c334
000001e0: 4b36 2c34 9cab d734 75b9 e134 2d34 8234
000001f0: 5f54 0734 67a7 a234 4ef3 9834 df40 4134
00000200: a1e9 bd34 7e1e 3d34 bc73 9034 4eb7 4734
00000210: 7868 0c34 70e0 0434 42cf 2134 72b4 1434
00000220: 006a 9434 9956 1334 4634 e234 e874 5734
00000230: 4697 8634 d0b8 8634 a8b8 1534 b039 d734
00000240: defb c434 2bce 8f34 3684 7134 19fe c234
00000250: 551a 3934 ff6e b534 0c29 bd34 87da 5034
00000260: 41d9 5b34 d148 1734 ac11 7534 beb4 6034
00000270: 87b0 7034 7ca5 0934 3c4a 2934 073f a034
00000280: ffce ad34 5775 5834 fd81 9234 b6e2 db34
00000290: 9e33 c034 8e26 3b34 7719 4c34 8fc2 4f34
000002a0: f371 1e34 ad9e 2c34 ef21 9334 3e4c 4f34
000002b0: 40e2 a334 3e9e da34 944f 773c dc3f 9834
000002c0: 7fa6 ab34 ab23 c234 6b7e b834 b55e f234
000002d0: 16dd e534 3283 aa34 9438 3b34 d298 6534
000002e0: 32e3 9c34 a96a 9734 8fbd 3334 57cf 5d34
000002f0: 4321 5334 dda2 b234 9644 af34 8efd 2434
00000300: 35b0 9234 678c 8434 6b83 7f34 1988 8e34
00000310: 384b 4434 df89 da34 faa3 8834 4b3b ad34
00000320: 81bc 8934 e52e 2534 4343 5534 530e 8934
00000330: 801d 2a34 dffc 3234 403e 8334 247a e033
00000340: f597 f433 887e a834 daf1 d534 72e0 cb34
00000350: df9f 0334 87b0 0834 361b 9134 da54 3434
00000360: f70b 5b34 f396 3834 b09b 3a34 e6f8 2834
00000370: a19f 1c34 69be 4a34 36ac 0e34 8952 bd34
00000380: b886 5d34 796c ac34 dab1 8e34 448c b034
00000390: c68d c834 d63c 2c34 016c 8a34 ffad 0934
000003a0: 8de1 4734 dba4 3534 9c86 1a34 a4ea ef34
000003b0: 4d63 2234 3f74 7234 133f af34 d77a 7734
000003c0: c9f3 8734 a01a bd34 8c9e f134 3ee6 4e34
000003d0: 1b74 ee33 9012 4a34 9956 0634 544b 3b34
000003e0: 5012 8434 1aab bf34 13c8 de34 ab19 5334
000003f0: fdea 0534 6845 1b34 e00e 3034 beec ac34
1.671547e-07 2.2591904e-07 2.0807173e-07 1.7036034e-07 2.1897331e-07 1.9085167e-07 1.9736648e-07 2.735596e-07
2.7158868e-07 3.5827355e-07 3.894735e-07 1.5290352e-07 1.03746764e-07 2.1444701e-07 1.9040502e-07 1.5852719e-07
3.8843598e-07 2.589053e-07 3.3604246e-07 1.9099112e-07 1.2962062e-07 1.0933343e-07 1.9744766e-07 2.5288244e-07
1.3756068e-07 1.7637635e-07 3.0641434e-07 1.5349052e-07 3.1831797e-07 1.7274459e-07 2.5856036e-07 2.763963e-07
1.7424826e-07 1.90112e-07 1.838071e-07 4.166457e-07 1.4524052e-07 1.3612662e-07 1.5764763e-07 1.619926e-07
2.4214302e-07 1.6979743e-07 2.465493e-07 1.8358064e-07 1.999551e-07 1.6176601e-07 1.2168867e-07 1.7184524e-07
2.807772e-07 1.10085224e-07 1.887534e-07 2.2355604e-07 3.9587025e-07 1.6377999e-07 1.7819288e-07 3.47604e-07
2.043488e-07 1.11323395e-07 1.3447735e-07 1.8151631e-07 3.3242355e-07 1.7729813e-07 2.1255099e-07 1.5239829e-07
3.7848332e-07 1.397476e-07 1.6585773e-07 2.1803504e-07 3.637723e-07 1.6696825e-07 1.8423293e-07 3.1843732e-07
3.0941723e-07 2.2004483e-07 4.0211305e-07 1.8400749e-07 2.385471e-07 2.6923743e-07 2.7676305e-07 1.4505129e-07
1.212563e-07 3.61189e-07 1.740901e-07 2.346854e-07 1.2491147e-07 1.5358475e-07 3.2300625e-07 2.4003842e-07
2.6884481e-07 1.7815061e-07 1.564574e-07 1.4885818e-07 2.2332448e-07 2.5836923e-07 2.5940528e-07 2.3871283e-07
1.7292949e-07 1.1621616e-07 2.1573483e-07 2.9466963e-07 2.696943e-07 1.3007056e-07 1.5467646e-07 2.598493e-07
4.2056365e-07 2.4726427e-07 3.0315707e-07 1.2228861e-07 3.6534658e-07 1.763035e-07 2.522891e-07 1.8494346e-07
1.2233245e-07 2.3069208e-07 1.6790877e-07 2.052397e-07 1.5216033e-07 2.378947e-07 2.2517833e-07 3.6358753e-07
1.60385e-07 4.0171733e-07 4.2044454e-07 2.425235e-07 1.2603549e-07 3.0296653e-07 2.8489234e-07 1.7998126e-07
3.537398e-07 1.761309e-07 2.6906298e-07 1.8600005e-07 1.3076522e-07 1.2375108e-07 1.5069693e-07 1.384922e-07
2.7644273e-07 1.3721946e-07 4.2133814e-07 2.0065966e-07 2.506951e-07 2.5093914e-07 1.3943884e-07 4.0088844e-07
3.6691102e-07 2.6785833e-07 2.2492972e-07 3.6320196e-07 1.7239047e-07 3.3794637e-07 3.523386e-07 1.945101e-07
2.0475001e-07 1.4089461e-07 2.2823832e-07 2.092738e-07 2.2415962e-07 1.2819322e-07 1.5766358e-07 2.984818e-07
3.237437e-07 2.0159256e-07 2.7289198e-07 4.0956883e-07 3.5800343e-07 1.7429758e-07 1.9008245e-07 1.9349157e-07
1.4756351e-07 1.6076474e-07 2.7405574e-07 1.9306114e-07 3.0525734e-07 4.07208e-07 0.0150946565 2.835867e-07
3.1972374e-07 3.6161268e-07 3.4364652e-07 4.514492e-07 4.2815435e-07 3.1760425e-07 1.7436315e-07 2.1382883e-07
2.922257e-07 2.8203547e-07 1.6739635e-07 2.0657659e-07 1.9663007e-07 3.3273582e-07 3.2646193e-07 1.5365933e-07
2.7322827e-07 2.4689072e-07 2.3796535e-07 2.6548585e-07 1.8281287e-07 4.070598e-07 2.5451283e-07 3.2266902e-07
2.5655393e-07 1.5383883e-07 1.986164e-07 2.552866e-07 1.5843216e-07 1.6669536e-07 2.4445944e-07 1.045303e-07
1.1389776e-07 3.1384502e-07 3.9850312e-07 3.7975002e-07 1.2258486e-07 1.2730207e-07 2.7028153e-07 1.6794675e-07
2.0400317e-07 1.719125e-07 1.7379239e-07 1.5736768e-07 1.4586705e-07 1.8881987e-07 1.328743e-07 3.5264046e-07
2.063124e-07 3.211642e-07 2.6578965e-07 3.288461e-07 3.7356057e-07 1.604088e-07 2.5783086e-07 1.2822419e-07
1.8615374e-07 1.6916913e-07 1.4391338e-07 4.4687943e-07 1.5123551e-07 2.2580296e-07 3.2642183e-07 2.3048356e-07
2.5323087e-07 3.5223366e-07 4.5005106e-07 1.9269007e-07 1.1103858e-07 1.8819469e-07 1.2511227e-07 1.7443136e-07
2.460024e-07 3.5701015e-07 4.1496295e-07 1.9660244e-07 1.2472078e-07 1.446075e-07 1.6396689e-07 3.220975e-07
