new_checkpoints6/11050004.ckpt (torch, 90177 bytes, 12 tensors)

weight f4 [256, 18]
0	0xbe51a6c4	-0.20473772
1	0x3def5c43	0.116875194
2	0x3dd394fb	0.1033115
3	0x3e9fa0c3	0.3117734
4	0x3caa8308	0.020814434
5	0xbe0ecf1a	-0.1394619
6	0xbe1120e1	-0.14172699
7	0x3e68d076	0.22735772
8	0x3ce48e30	0.027899832
9	0x3e2fe3a9	0.17176689
10	0xbdf9daf7	-0.12199967
11	0xbdaf79ed	-0.08568177
12	0xbd9cd509	-0.07657821
13	0x3e380cef	0.17973684
14	0x3e65adab	0.2242953
15	0x3d2b99ac	0.0418946
16	0x3e1be826	0.15225276
17	0x3dd6a7bb	0.10481211
18	0x3d70e4bc	0.058811888
19	0xbda99607	-0.082805686
20	0xbdbfed65	-0.09371451
21	0xbe8cc2ef	-0.27492473
22	0x3e3b0641	0.18264104
23	0x3daeb322	0.085302606
24	0x3e30454f	0.17213939
25	0x3e054a68	0.13016665
26	0xbe33a72c	-0.1754424
27	0x3d61e23c	0.055147395
28	0x3e8c4d31	0.27402642
29	0x3d8c7b71	0.06859482
30	0xbdbe6ea9	-0.092984505
31	0xbccf4b30	-0.025304407
32	0xbe169d94	-0.14708549
33	0x3e45e12b	0.19324176
34	0xbe12d796	-0.14340052
35	0xbd082854	-0.033241585
36	0x3e49b6bd	0.19698615
37	0x3dd7ad3a	0.10531087
38	0xbd799666	-0.060934447
39	0x3daceada	0.08443232
40	0x3e00d713	0.12582044
41	0xbc433430	-0.011914298
42	0x3e426043	0.18982033
43	0xbe20bfbf	-0.15698145
44	0xbe1fc445	-0.15602215
45	0xbe3405f0	-0.1758039
46	0x3d3d6734	0.046241
47	0xbc001cfc	-0.00781941
48	0x3d431aa0	0.047632813
49	0x3e271e45	0.1632014
50	0xbe1e5395	-0.15461572
51	0x3e548699	0.2075447
52	0x3c96b6de	0.018397745
53	0xbe68d8e3	-0.22738986
54	0x3c553c70	0.013014898
55	0x3e5ebaae	0.217509
56	0xbdd6c9ce	-0.1048771
57	0x3e767476	0.24067864
58	0xbdf68cf5	-0.12038604
59	0x3af26500	0.0018493235
60	0x3d3b92ac	0.045794174
61	0xbdcdb45d	-0.10044167
62	0x3be47ee7	0.0069731358
63	0x3cc1ff68	0.023681358
64	0x3cb06cbc	0.021536224
65	0xbe2613bd	-0.16218467
66	0xbdfa4bd5	-0.12221495
67	0x3c1a1540	0.00940448
68	0xbe062c76	-0.13102898
69	0x3e427525	0.1899
70	0x3ba15800	0.0049238205
71	0x3e771f5c	0.24133056
72	0xbdeadc4a	-0.11467798
73	0xbd5cbcb8	-0.053890914
74	0x3d803c52	0.06261505
75	0x3e596369	0.21229328
76	0xbdaeb51c	-0.085306376
77	0xbd19275c	-0.03739105
78	0x3e08c1a5	0.1335512
79	0xbe1f3bd4	-0.15550166
80	0xbdecf30d	-0.11569796
81	0xbe325ebb	-0.1741895
82	0xbcccfe0b	-0.02502348
83	0x3d34e5b2	0.044164367
84	0x3e542da1	0.20720531
85	0xbc2cffe0	-0.010559052
86	0x3debf4a6	0.11521272
87	0x3e08a85d	0.13345475
88	0xbe257e94	-0.16161567
89	0xbca8bc93	-0.020597732
90	0xbd8ee256	-0.06976764
91	0x3dbe9017	0.09304827
92	0x3e2ff8ec	0.171848
93	0xbe5bf9ff	-0.21482085
94	0xbe3d536b	-0.18488853
95	0xbe05fd1c	-0.13084835
96	0xbdaeab22	-0.08528735
97	0x3d9c8dbc	0.07644221
98	0xbe6f12b1	-0.23346974
99	0x3dd96816	0.10615556
100	0xbdb79b1d	-0.089651324
101	0x3e3c0244	0.1836024
102	0x3e50b8d9	0.20383014
103	0xbe465261	-0.19367363
104	0x3dfc548e	0.12320815
105	0xbe0a21d4	-0.13489467
106	0x3dfc9080	0.12332249
107	0xbe5919d5	-0.2120126
108	0xbdba25fa	-0.09089275
109	0xbc1bf4f1	-0.009518848
110	0x3db125a9	0.08649761
111	0x3ead5611	0.33854726
112	0xbe04b38e	-0.1295912
113	0xbd0d0be0	-0.034435153
114	0x3e1a5677	0.15072046
115	0x3e9f3a04	0.3109895
116	0x3e7cfe42	0.24706367
117	0xbe535628	-0.20638335
118	0x3d1843d3	0.037174057
119	0xbd87dc0f	-0.0663377
120	0x3d61014b	0.054932874
121	0xbd4893f0	-0.04896921
122	0xbd9525ca	-0.07282598
123	0xbe2e395f	-0.17014073
124	0x3def631a	0.11688824
125	0x3da282e1	0.079351194
126	0xbe2a7716	-0.1664699
127	0x3e3c3e2c	0.18383092
128	0xbe34643e	-0.17616364
129	0x3d486d26	0.048932217
130	0xbdcce73a	-0.100050405
131	0xbc746f10	-0.0149190575
132	0xbd1b0240	-0.037843943
133	0x3e241321	0.16022922
134	0x3dfc4e1b	0.12319585
135	0x3d8ca6b6	0.06867735
136	0xbe4a1934	-0.19736177
137	0xbe65ffd2	-0.22460869
138	0xbe027398	-0.12739408
139	0xbdc7e1ba	-0.09759851
140	0xbe609435	-0.21931536
141	0xbdaa3c5c	-0.08312294
142	0xbe662191	-0.22473742
143	0xbe4e59c2	-0.20151427
144	0xbe276016	-0.16345248
145	0x3e613e5e	0.21996447
146	0xbdb19e2f	-0.08672749
147	0x3d8ece01	0.06972886
148	0xbe6b7e35	-0.22997363
149	0xbe58216b	-0.21106498
150	0x3d0b8004	0.034057632
151	0xbe4e151a	-0.20125237
152	0x3d9661f3	0.07342901
153	0x3e6c67b5	0.23086436
154	0xbe271270	-0.16315627
155	0xbe186843	-0.14883523
156	0x3de4ee97	0.1117832
157	0x3e0851dd	0.13312478
158	0x3e58a56d	0.21156855
159	0x3e3cd839	0.18441857
160	0xbcd4808b	-0.0259402
161	0x3d0d826c	0.034548208
162	0xbe0ca8c8	-0.1373626
163	0x3dde34e0	0.10849929
164	0x3df10d62	0.11770131
165	0xbc6aa5d3	-0.014321762
166	0x3daddf0a	0.08489807
167	0x3c8ab0c8	0.016929999
168	0x3dc58122	0.09643771
169	0x3d8dda17	0.06926363
170	0xbe0ded41	-0.13860036
171	0x3e1b14e5	0.1514469
172	0xbbfe2c48	-0.0077567436
173	0x3dfffd37	0.12499469
174	0x3dae4d32	0.085108176
175	0xbabf9a80	-0.0014618188
176	0x3e40eaef	0.1883962
177	0xbd9be8c2	-0.076127544
178	0xbda1ad37	-0.07894366
179	0x3e16127d	0.1465549
180	0xbe02244a	-0.12709156
181	0x3c8352bc	0.016030662
182	0x3dcf43c8	0.1012035
183	0xbe4b96e7	-0.19881783
184	0x3e1e6e65	0.154718
185	0xbdfda1b3	-0.12384357
186	0xbc3ea9d0	-0.011637166
187	0x3dfd8c7e	0.123803124
188	0x3d2fddff	0.04293632
189	0x3e7088d5	0.23489697
190	0xbde94f00	-0.11392021
191	0x3ce1260e	0.027483966
192	0x3e024fdf	0.12725781
193	0x3e558cbf	0.20854472
194	0x3e1c085d	0.15237565
195	0x3e70ba1b	0.23508494
196	0x3d40a01a	0.047027685
197	0x3de00252	0.109379426
198	0xbe0f3960	-0.1398673
199	0x3d40d5f8	0.047079057
200	0x3d6a701b	0.05723582
201	0xbe1c3866	-0.1525589
202	0x3e379b9d	0.17930456
203	0x3e44d1d3	0.19220667
204	0xbe42c7f4	-0.19021589
205	0xbdce83df	-0.10083746
206	0x3e740342	0.23829368
207	0xbe63ef27	-0.22259198
208	0x3e410bc2	0.18852141
209	0xbd282dff	-0.04105949
210	0x3ddc1119	0.107454486
211	0x3dbf166a	0.09330447
212	0xbe43ed13	-0.19133405
213	0x3d7441d4	0.05963309
214	0x3df0cb61	0.117575414
215	0x3e79e3ce	0.24403307
216	0xbcaf8708	-0.021426693
217	0xbe683c87	-0.2267934
218	0x3dbf9a1d	0.09355567
219	0x3d9ea508	0.07746321
220	0x3e510bdf	0.20414685
221	0xbe40fa2e	-0.18845436
222	0xbd54ddf4	-0.051969483
223	0x3e4184c0	0.18898296
224	0xbb19ec6a	-0.002348686
225	0xbe2d603f	-0.16931246
226	0xbde50f32	-0.11184539
227	0x3d35c024	0.044372693
228	0x3e26c79f	0.16287087
229	0xbdc8b5aa	-0.09800275
230	0xbd4f831c	-0.050662145
231	0x3d0b6104	0.03402807
232	0xbe696080	-0.22790718
233	0x3e18be13	0.14916258
234	0xbc04a250	-0.008095339
235	0x3dc8e1e7	0.098087125
236	0xbd0b424c	-0.033998773
237	0x3deda68d	0.11604033
238	0xbd76fa7c	-0.060297474
239	0xbd2b5a50	-0.041834176
240	0x3e285e4d	0.16442223
241	0xbe458d0e	-0.1929209
242	0x3e024fa1	0.12725689
243	0xbe115416	-0.14192232
244	0x3e2d59fb	0.16928856
245	0x3cac03f5	0.02099798
246	0xbd891ef1	-0.06695355
247	0xbe1f0679	-0.15529813
248	0xbe474632	-0.19460371
249	0xbe1a0d14	-0.15044051
250	0xbe88a06f	-0.266849
251	0xbcdf3632	-0.027247522
252	0xbe3048fe	-0.17215344
253	0x3eb15db8	0.34641814
254	0xbc769ec8	-0.015052505
255	0x3e6373ec	0.2221219

bias f4 [256]
0	0x3e8be61a	0.2732399
1	0xbdafaacb	-0.08577498
2	0xbdbafe2e	-0.09130512
3	0xbe1cca53	-0.15311556
4	0x3cc43403	0.023950582
5	0x3d9502a6	0.07275896
6	0xbc964f04	-0.018348224
7	0x3e21500d	0.15753193
8	0xbe50d471	-0.2039354
9	0xbe5c64d2	-0.21522835
10	0x3e3cf442	0.18452552
11	0x3e8c455c	0.27396667
12	0x3da4bb3a	0.08043523
13	0xbe43f8ec	-0.19137925
14	0xbcea0ca6	-0.028570484
15	0xbc0dd188	-0.008655913
16	0xbd27c537	-0.040959563
17	0x3d392933	0.045205306
18	0xbe0493ec	-0.12947053
19	0xbd49c028	-0.04925552
20	0x3e8ca0ee	0.2746653
21	0x3dd45a66	0.10368805
22	0x3e400818	0.18753088
23	0xbdd94136	-0.10608141
24	0x3da9cef4	0.08291426
25	0xbd105ca3	-0.035244595
26	0x3cf3f6d9	0.029780792
27	0xbd1857a4	-0.037192956
28	0x3e8ff0a3	0.2811328
29	0x3d97253c	0.07380149
30	0xbe54ed75	-0.20793708
31	0xbe1e8195	-0.15479119
32	0xbe1206c8	-0.142604
33	0x3e1b4fd9	0.15167178
34	0xbdd7876e	-0.10523878
35	0xbe35835a	-0.17725888
36	0xbe29b3e2	-0.16572526
37	0x3e81cbf5	0.2535092
38	0x3d5bd022	0.053665288
39	0xbd7ed710	-0.06221682
40	0xbe75c8b8	-0.2400235
41	0x3e3e6344	0.18592554
42	0xbd8fbd0a	-0.07018478
43	0x3cfbabe9	0.030721622
44	0x3cff1806	0.031139385
45	0xbe3c1c61	-0.183702
46	0xbdf56495	-0.11982075
47	0x3dc872c0	0.09787512
48	0xbdccf18c	-0.10007009
49	0xbe6bddb9	-0.23033799
50	0x3e34c277	0.17652307
51	0xbdfb8ee6	-0.12283115
52	0x3e155e95	0.14586861
53	0x3e4cbbe4	0.1999355
54	0x3e077a7a	0.13230315
55	0xbdd46222	-0.1037028
56	0x3d9b4704	0.075819045
57	0x3e2b0242	0.1670008
58	0x3e410d3c	0.18852705
59	0x3da1c94e	0.07899724
60	0xbe6d7304	-0.23188406
61	0x3e1abc60	0.15110922
62	0xbe40ebbf	-0.1883993
63	0x3d9cb9b0	0.076526046
64	0x3e003cc3	0.12523179
65	0xbdb58c6b	-0.08864673
66	0x3e6f051e	0.23341796
67	0xbe2252d4	-0.15851909
68	0xbcfe1fdb	-0.03102105
69	0xbe88aa64	-0.26692498
70	0xbdab51ca	-0.083652094
71	0x3dcddbdf	0.10051703
72	0x3dc74b13	0.09731116
73	0x3e38bba8	0.18040335
74	0xbe61004a	-0.21972767
75	0x3c9a8941	0.018864276
76	0xbe4d16dc	-0.20028251
77	0x3e6d7f6c	0.23193139
78	0x3d5f8f69	0.054580126
79	0x3e04f326	0.12983379
80	0xbac8f4af	-0.001533171
81	0xbe301325	-0.17194803
82	0x3e30adf4	0.17253858
83	0x3ca5b008	0.02022554
84	0x3e4e137b	0.20124619
85	0xbe03ca31	-0.12870099
86	0x3d5a6a96	0.053324305
87	0xbe90d4a2	-0.28287226
88	0x3db499b4	0.08818379
89	0x3e5c7a51	0.21531035
90	0x3bb6fe1f	0.005584493
91	0x3ccfb85e	0.025356468
92	0x3e334981	0.17508508
93	0x3e18d34e	0.14924356
94	0x3e94ae32	0.2903915
95	0x3e580b04	0.21097952
96	0x3e2c4192	0.16821888
97	0x38cefd99	9.870082e-05
98	0x3d2edb90	0.04268986
99	0xbd9f0f6e	-0.07766615
100	0x3e217429	0.15766968
101	0xbd3e9e7e	-0.04653787
102	0x3e2eeef4	0.17083341
103	0x3e8cbb79	0.2748678
104	0x3b4d59da	0.0031334073
105	0x3e02a2e9	0.12757458
106	0xbc79f5fd	-0.015256402
107	0xbc180154	-0.00927766
108	0x3d4ccbab	0.04999892
109	0xbe01e167	-0.1268364
110	0xbcb17c33	-0.021665668
111	0x3e9947e0	0.2993765
112	0x3e3d2cd2	0.18474129
113	0xbd067d69	-0.032834444
114	0xbe578a7b	-0.2104892
115	0x3e07573b	0.1321687
116	0xbd8f3e8f	-0.06994354
117	0x3de60d01	0.11232949
118	0xbd42af85	-0.04753067
119	0x3e2edfdd	0.17077585
120	0xbd92fd6c	-0.07177243
121	0xbe4b08b9	-0.19827546
122	0xbc927e7e	-0.017882582
123	0x3d576c6a	0.052593626
124	0xbe71f368	-0.23628008
125	0xbcd50bca	-0.026006598
126	0xbd56de72	-0.052458234
127	0xbdc63c4c	-0.096794695
128	0x3d35a8c4	0.0443504
129	0x3e63ec98	0.22258222
130	0xbdc64cd1	-0.0968262
131	0xbde488a4	-0.11158875
132	0x3e331315	0.17487748
133	0xbe32a8a1	-0.1744714
134	0x3c54122f	0.012943788
135	0x3c230cd2	0.009951787
136	0x3d24ac4c	0.040203378
137	0x3e415e64	0.18883663
138	0xbe4d39fe	-0.20041654
139	0xbc2e0446	-0.010621136
140	0x3ddd846c	0.10816273
141	0xbe509e03	-0.20372777
142	0x3bb038b9	0.0053778556
143	0x3de9a05b	0.114075385
144	0xbd924d07	-0.07143598
145	0xbe1da1fd	-0.15393825
146	0x3bde52b2	0.0067847604
147	0x3d203789	0.039115462
148	0xbdf28f47	-0.11843734
149	0xbe19d6cd	-0.15023346
150	0xbdf25ccf	-0.11834108
151	0x3c46fc0f	0.012145056
152	0x3e0a914f	0.13531993
153	0xbd5a60a2	-0.053314812
154	0x3eabbd40	0.33542824
155	0x3d0f2a2a	0.03495232
156	0xbd95e9a4	-0.07319954
157	0xbe24a1f3	-0.16077404
158	0x3bf5cc49	0.0075011593
159	0x3e05723d	0.1303186
160	0x3e31be68	0.1735779
161	0x3d1ab062	0.037765868
162	0xbb32fa12	-0.0027309698
163	0x3c5cb727	0.013471401
164	0xbce9cf7c	-0.02854132
165	0xbde31b55	-0.110891975
166	0x3dbf4eaa	0.09341176
167	0xbe5c42f4	-0.21509916
168	0x3e6d7913	0.23190717
169	0xbdc7c628	-0.09754592
170	0xbe6b0b37	-0.22953497
171	0x3db58ced	0.0886477
172	0xbcbadf6e	-0.022811618
173	0x3e513473	0.20430164
174	0xbe26e51e	-0.16298339
175	0x3d63b032	0.055587955
176	0x3d9ea448	0.07746178
177	0xbe8cb793	-0.27483806
178	0xbd4a491c	-0.04938613
179	0xbe30ba4a	-0.17258564
180	0xbc3b8cca	-0.011447141
181	0xbc1eb435	-0.009686519
182	0xbe2fe4dd	-0.17177148
183	0xbdca7755	-0.09886042
184	0x3ce674bc	0.028131835
185	0xbd5c1dcf	-0.053739365
186	0xbe245eb4	-0.16051751
187	0xbdacf026	-0.08444242
188	0xbe0ed345	-0.1394778
189	0x3e191b53	0.1495183
190	0xbe6b77fb	-0.22994988
191	0x3da8c434	0.08240548
192	0xbe597abc	-0.21238226
193	0x3e0030ff	0.1251869
194	0x3e3512d0	0.17682958
195	0xbdd9f29c	-0.10641977
196	0xbdf5f013	-0.12008681
197	0xbdfe6096	-0.12420766
198	0x3d528a18	0.051401228
199	0x3e15645c	0.14589065
200	0x3d6a8702	0.05725766
201	0x3c29fba5	0.010374938
202	0xbce72e47	-0.028220309
203	0xbd8546fe	-0.06507681
204	0xbdcd6ca1	-0.10030485
205	0xbd624478	-0.05524108
206	0x3dcfd362	0.1014774
207	0xbe128bbd	-0.14311118
208	0x3d7a4a02	0.061105736
209	0xbdff3eb1	-0.12463129
210	0x3de6f58d	0.11277304
211	0x3daa274e	0.08308278
212	0xbe1b70a4	-0.15179688
213	0x3e0bc82f	0.13650583
214	0xbe482474	-0.19545156
215	0xbdea04a7	-0.114266686
216	0xbd630a0d	-0.055429507
217	0xbe3824c7	-0.1798278
218	0xbd3071e7	-0.043077376
219	0xbdda038e	-0.10645209
220	0x3d9369bd	0.07197902
221	0x3bb2394d	0.0054389597
222	0x3db22e99	0.08700294
223	0x3dcf15e3	0.101115964
224	0xbd6363b7	-0.055515017
225	0xbb6e788b	-0.0036387767
226	0x3dbf0a33	0.09328117
227	0xbe451b67	-0.19248734
228	0x3e401bf6	0.18760666
229	0x3d959bcc	0.073051065
230	0x3d145549	0.036214147
231	0x3e6fba5b	0.23410933
232	0xbe5e7556	-0.21724448
233	0xbddf7758	-0.10911435
234	0x3e9df573	0.30851325
235	0xbe13a674	-0.14418966
236	0xbe8adde1	-0.27122405
237	0x3c180b0b	0.009279977
238	0x3e6c4206	0.23072061
239	0x3e1bd1d1	0.15216757
240	0x3c5c2f06	0.013438946
241	0x3e66879c	0.22512668
242	0xbe226d77	-0.1586207
243	0xbd12081f	-0.035652276
244	0x3d9b9fc3	0.075988315
245	0xbbe950a9	-0.007120211
246	0x3c997d0f	0.01873639
247	0x3e51c648	0.20485795
248	0x3e182d11	0.14860941
249	0x3d3eafdc	0.04655443
250	0xbdf015f4	-0.11722937
251	0x3e9e1519	0.3087547
252	0x3e5db76f	0.21652006
253	0x3c007db8	0.007842474
254	0xbe1c6194	-0.15271598
255	0xbce8c225	-0.028412888

weight f4 [9, 256]
0	0x3b723100	0.0036955476
1	0xbba08076	-0.0048981262
2	0xbc2071fa	-0.009792799
3	0xbc002c98	-0.007823132
4	0x3ac47423	0.0014988225
5	0x3b7fbeb6	0.0039023585
6	0xbbd6e9ae	-0.0065586185
7	0xbb8429fa	-0.0040333243
8	0xbbc382ac	-0.005966505
9	0x3c3cd6cd	0.011525822
10	0xbc16420e	-0.009171022
11	0x3c7245c0	0.0147871375
12	0xbc9b297c	-0.01894068
13	0x3bc56bbb	0.0060248054
14	0xbb9efca9	-0.004851897
15	0x3c8e3c79	0.01736282
16	0xbc160bac	-0.009158056
17	0xbc597f4d	-0.01327498
18	0xbb608e62	-0.0034264554
19	0x3bd5608e	0.0065117544
20	0x3ca1a41d	0.019731576
21	0x3c188da1	0.009311111
22	0x3c1793dd	0.009251562
23	0xbba168b8	-0.0049258135
24	0x3c6e0c93	0.014529365
25	0xbb360da7	-0.0027779134
26	0x3b37faa4	0.0028072977
27	0x3c87ed80	0.016592741
28	0x3c8bbb08	0.017056957
29	0xbac17253	-0.0014758803
30	0x3bb4d390	0.0055183843
31	0xbb856411	-0.0040707667
32	0x3c1f76b9	0.0097328955
33	0xbc179a58	-0.009253107
34	0x3bd8cc5f	0.00661616
35	0x3c61bd1e	0.013777999
36	0x3c99faf0	0.018796414
37	0xb8d9ba26	-0.00010382039
38	0xbc8d652d	-0.017260158
39	0x3bf35268	0.007425595
40	0xbbcb7783	-0.0062093153
41	0x3c1400f0	0.009033427
42	0xbbaa0b72	-0.0051893527
43	0xbc4f6825	-0.012659107
44	0xbc5da530	-0.013528153
45	0xbc93fcf6	-0.018064957
46	0xbc4161c7	-0.011803097
47	0x3ca28f8a	0.019843835
48	0xbc72b149	-0.014812776
49	0x3aa42e67	0.0012526036
50	0x3c323a18	0.010878108
51	0xbb987924	-0.004653113
52	0x3c11a0f9	0.0088884765
53	0xbc0cc008	-0.008590706
54	0xbc74894a	-0.01492531
55	0x3bc127fa	0.005894658
56	0x3b80001a	0.003906262
57	0x37252558	9.843461e-06
58	0xbc5cd178	-0.013477676
59	0x3c57577a	0.013143415
60	0xbc1b4552	-0.0094769765
61	0x3b6243e1	0.0034525322
62	0x3c1f985f	0.009740918
63	0xba8d1222	-0.001076285
64	0x3badfc2f	0.0053096036
65	0xb6c2a640	-5.8010046e-06
66	0x3c9c4471	0.019075604
67	0x3c55aa97	0.01304116
68	0xbbb65412	-0.005564221
69	0xb93656af	-0.00017389165
70	0x3c3804eb	0.011231641
71	0xbc6a84f8	-0.014313929
72	0x3a97d7cd	0.0011584699
73	0x3c2a3b64	0.010390136
74	0xbc84f589	-0.016230362
75	0x3c6dd472	0.014515983
76	0x3c2f2b92	0.01069154
77	0xb7c898e5	-2.3913055e-05
78	0x3c4b86b6	0.012422254
79	0x3c904eb3	0.017615652
80	0xbbd1231b	-0.0063823587
81	0x3bbf4f85	0.005838337
82	0xbbb81651	-0.0056178947
83	0xbc10116f	-0.008793219
84	0xbc7bf9b1	-0.015379355
85	0xbc118d6b	-0.008883814
86	0xbca92dd3	-0.020651734
87	0xbbb1e7f0	-0.0054292604
88	0xbbdba429	-0.006702919
89	0xbcb878a4	-0.022518463
90	0x3c1ba60b	0.009500037
91	0x3c390e70	0.011294946
92	0x3bcd9fe3	0.0062751635
93	0xbc871238	-0.01648818
94	0x3c5b989c	0.013403084
95	0x3c403d5e	0.011733381
96	0xbc305285	-0.010761862
97	0x3b8649e5	0.0040981644
98	0x3c841ba8	0.016126469
99	0xbbaf2370	-0.0053448007
100	0x3c9a5f6f	0.018844334
101	0xbbaafafb	-0.0052179075
102	0xbbf17823	-0.0073690577
103	0x3ba82dd9	0.0051324186
104	0xbc8f4bba	-0.017492164
105	0x3c2a4139	0.010391527
106	0xbaa9d615	-0.0012957478
107	0xbbceb527	-0.006308216
108	0x3b2202a2	0.0024720808
109	0x3b69e3d2	0.003568877
110	0xbb19f2ec	-0.002349074
111	0x3c278522	0.010224612
112	0xbc1dc760	-0.009630054
113	0x3c86b8cb	0.016445538
114	0xbbf40261	-0.0074465727
115	0xbc8ab079	-0.016929852
116	0xbc40fa24	-0.011778388
117	0xbc444080	-0.011978269
118	0xbc167dcc	-0.009185266
119	0xbb77c705	-0.0037807834
120	0x3b979660	0.0046260804
121	0x3c8372ec	0.01604601
122	0xbc2c5a7f	-0.010519623
123	0x3bd13227	0.0063841525
124	0x3ac1a81b	0.0014774831
125	0xbc1e45fd	-0.009660241
126	0x3c0be646	0.008538788
127	0xbbfeb606	-0.0077731637
128	0x3b913bd1	0.0044321795
129	0xbc0d3299	-0.00861802
130	0x38c04982	9.168965e-05
131	0xbc1b63e1	-0.009484262
132	0x3b968c7c	0.0045943838
133	0xba8d5a46	-0.001078435
134	0xbbdd6b70	-0.0067571923
135	0x3c2aa058	0.0104142055
136	0x3c32c761	0.010911793
137	0xbc8e85a9	-0.017397719
138	0xba8acbf5	-0.0010589348
139	0x3be7aa75	0.0070698806
140	0xbbbc3528	-0.0057436414
141	0xbc08312c	-0.008312505
142	0xbca9f7c5	-0.020748029
143	0x3b25f3ad	0.0025322244
144	0x3c3c6445	0.0114985155
145	0x3c9b0204	0.01892186
146	0x3c0d1dc3	0.008613053
147	0xbc7f4c25	-0.015582119
148	0x3be31a97	0.00693066
149	0x3c600139	0.0136721665
150	0x3c56a349	0.013100454
151	0xbb02fa03	-0.0019985444
152	0x3bc98810	0.006150253
153	0x3c1dc4e6	0.009629464
154	0xbca57e2a	-0.020201761
155	0x3a95bbbe	0.0011423749
156	0xbb77b799	-0.0037798642
157	0x3c17a3a5	0.0092553245
158	0x3c687035	0.0141869085
159	0x3c87c738	0.016574487
160	0x3bb2e798	0.005459737
161	0xbc1bdec0	-0.009513557
162	0xbbdc2163	-0.006717847
163	0x3c861c42	0.016370896
164	0xbc2ec026	-0.010665929
165	0xbc6815ca	-0.014165351
166	0xbc0efb92	-0.008726971
167	0x3c2ce956	0.0105536785
168	0xba1f59f4	-0.0006078773
169	0x3c952c5a	0.018209625
170	0xbbe8c032	-0.0071029896
171	0x3b599db4	0.003320557
172	0x3c4532f7	0.012036077
173	0x3c10c864	0.008836839
174	0x3c9a594e	0.018841412
175	0x3c244cf5	0.010028114
176	0x3a6d38e7	0.00090493116
177	0x3c83a97f	0.016072033
178	0x3c82f4eb	0.015985927
179	0xbba9a136	-0.0051766885
180	0xbc402e02	-0.011729719
181	0xbbbb05b6	-0.005707468
182	0xbc043db6	-0.008071354
183	0x3c0dcbc3	0.008654538
184	0xbc9b6d37	-0.018972976
185	0x3c3d3bfe	0.011549948
186	0xbb01d128	-0.0019808505
187	0x3c998066	0.018737983
188	0x3c1ac832	0.009447144
189	0xbc91924d	-0.017769957
190	0x3c24486d	0.010027033
191	0xbc216712	-0.009851234
192	0xbaed9ed1	-0.0018128996
193	0xbc6f9013	-0.014621752
194	0x3acae7f6	0.0015480507
195	0xbb4825cc	-0.0030540107
196	0xbbd595ce	-0.0065181023
197	0xb8724040	-5.7757134e-05
198	0xbb8eb9be	-0.0043556383
199	0xbc03a2a7	-0.008034385
200	0xbc887cab	-0.016661009
201	0x3c065100	0.008198023
202	0x3c0cff43	0.008605781
203	0x3afcee09	0.0019297014
204	0x3b98d0a3	0.0046635433
205	0xbbde6e28	-0.006788034
206	0x3bd99fa5	0.0066413456
207	0x3c3e8a0e	0.0116295945
208	0x3bc90c17	0.0061354744
209	0x3baba433	0.00523808
210	0xba924557	-0.0011159581
211	0x3bc0c70b	0.005883103
212	0x3ba7ee5c	0.00512485
213	0x3c5aca09	0.013353833
214	0xbc46f0c5	-0.012142365
215	0x3c42ef2b	0.011897842
216	0x3c16e8ba	0.00921076
217	0x3a26f502	0.00063689065
218	0xbbbef8fb	-0.0058280206
219	0xbc96785d	-0.01836794
220	0x3c99b1c2	0.01876152
221	0xbc1f3b2e	-0.009718699
222	0x3c002bf3	0.007822978
223	0x3c238b46	0.009981936
224	0x3c3633f5	0.011120786
225	0x3a13e2de	0.0005641411
226	0xbbcd7d5f	-0.006271049
227	0x3c190355	0.009339173
228	0x3b7dd8dd	0.0038733997
229	0xbc5760fd	-0.013145682
230	0xbc893294	-0.01674775
231	0x3c2d25c3	0.010568085
232	0x3c93463d	0.017977828
233	0x3af66283	0.0018797669
234	0xbc92a21d	-0.017899567
235	0x3b8d1f78	0.00430673
236	0xbbc02194	-0.005863378
237	0x3bd5b94b	0.006522333
238	0x3b2ce4fb	0.00263816
239	0xbbff392d	-0.0077887983
240	0x3c34c044	0.011032168
241	0xbb562ab4	-0.0032679262
242	0x3c3ed161	0.0116465995
243	0xbc734b0e	-0.014849437
244	0xbb8cd235	-0.0042975196
245	0x3c9a7609	0.018855112
246	0xbc5846e7	-0.013200498
247	0xbc93e6db	-0.018054416
248	0x3af4f36e	0.001868827
249	0xbc31120e	-0.010807527
250	0xbc55d11d	-0.013050345
251	0xbc9ce64d	-0.019152785
252	0xbc7592e6	-0.014988637
253	0x3c3e157f	0.011601805
254	0x3c030baa	0.007998386
255	0xbc38204d	-0.01123817

bias f4 [9]
0	0x3d1196e0	0.035544276
1	0x3e98a7db	0.29815564
2	0xbe335ae2	-0.17515138
3	0xbed8ec2e	-0.4236769
4	0xbd79a330	-0.060946643
5	0xbe6c9aba	-0.23105898
6	0xbde21671	-0.110394366
7	0x3e0a0e02	0.13481906
8	0xbe2cd932	-0.16879728

exp_avg f4 [256, 18]
0	0x00000000	0.0
1	0xb865e008	-5.48065e-05
2	0x39ac6805	0.00032883897
3	0xb865e008	-5.48065e-05
4	0x00000000	0.0
5	0x00000000	0.0
6	0x00000000	0.0
7	0xb809ecd3	-3.2883905e-05
8	0xb865e008	-5.48065e-05
9	0x00000000	0.0
10	0x3865e008	5.48065e-05
11	0xb9ac6805	-0.00032883897
12	0xb865e008	-5.48065e-05
13	0x00000000	0.0
14	0x00000000	0.0
15	0x00000000	0.0
16	0xb809ecd3	-3.2883905e-05
17	0xb865e008	-5.48065e-05
18	0x00000000	0.0
19	0x38208967	3.827494e-05
20	0xb970ce1f	-0.0002296497
21	0x38208967	3.827494e-05
22	0x00000000	0.0
23	0x00000000	0.0
24	0x00000000	0.0
25	0x37c0a4e1	2.2964961e-05
26	0x38208967	3.827494e-05
27	0x00000000	0.0
28	0xb8208967	-3.827494e-05
29	0x3970ce1f	0.0002296497
30	0x38208967	3.827494e-05
31	0x00000000	0.0
32	0x00000000	0.0
33	0x00000000	0.0
34	0x37c0a4e1	2.2964961e-05
35	0x38208967	3.827494e-05
36	0x00000000	0.0
37	0x37f993ac	2.9751878e-05
38	0xb93b2ec7	-0.00017851136
39	0x37f993ac	2.9751878e-05
40	0x00000000	0.0
41	0x00000000	0.0
42	0x00000000	0.0
43	0x3795bf09	1.7851142e-05
44	0x37f993ac	2.9751878e-05
45	0x00000000	0.0
46	0xb7f993ac	-2.9751878e-05
47	0x393b2ec7	0.00017851136
48	0x37f993ac	2.9751878e-05
49	0x00000000	0.0
50	0x00000000	0.0
51	0x00000000	0.0
52	0x3795bf09	1.7851142e-05
53	0x37f993ac	2.9751878e-05
54	0x00000000	0.0
55	0x389937d0	7.3060044e-05
56	0xb9e5d3b7	-0.00043836024
57	0x389937d0	7.3060044e-05
58	0x00000000	0.0
59	0x00000000	0.0
60	0x00000000	0.0
61	0x3837dc91	4.383602e-05
62	0x389937d0	7.3060044e-05
63	0x00000000	0.0
64	0xb89937d0	-7.3060044e-05
65	0x39e5d3b7	0.00043836024
66	0x389937d0	7.3060044e-05
67	0x00000000	0.0
68	0x00000000	0.0
69	0x00000000	0.0
70	0x3837dc91	4.383602e-05
71	0x389937d0	7.3060044e-05
72	0x00000000	0.0
73	0x3864bf45	5.453757e-05
74	0xb9ab8f73	-0.0003272254
75	0x3864bf45	5.453757e-05
76	0x00000000	0.0
77	0x00000000	0.0
78	0x00000000	0.0
79	0x38093f92	3.272255e-05
80	0x3864bf45	5.453757e-05
81	0x00000000	0.0
82	0xb864bf45	-5.453757e-05
83	0x39ab8f73	0.0003272254
84	0x3864bf45	5.453757e-05
85	0x00000000	0.0
86	0x00000000	0.0
87	0x00000000	0.0
88	0x38093f92	3.272255e-05
89	0x3864bf45	5.453757e-05
90	0x00000000	0.0
91	0x3851651e	4.9923656e-05
92	0xb99d0bdc	-0.0002995421
93	0x3851651e	4.9923656e-05
94	0x00000000	0.0
95	0x00000000	0.0
96	0x00000000	0.0
97	0x37fb4629	2.9954203e-05
98	0x3851651e	4.9923656e-05
99	0x00000000	0.0
100	0xb851651e	-4.9923656e-05
101	0x399d0bdc	0.0002995421
102	0x3851651e	4.9923656e-05
103	0x00000000	0.0
104	0x00000000	0.0
105	0x00000000	0.0
106	0x37fb4629	2.9954203e-05
107	0x3851651e	4.9923656e-05
108	0x00000000	0.0
109	0xb88957df	-6.549036e-05
110	0x39ce03cc	0.0003929421
111	0xb88957df	-6.549036e-05
112	0x00000000	0.0
113	0x00000000	0.0
114	0x00000000	0.0
115	0xb824cfd9	-3.929422e-05
116	0xb88957df	-6.549036e-05
117	0x00000000	0.0
118	0x388957df	6.549036e-05
119	0xb9ce03cc	-0.0003929421
120	0xb88957df	-6.549036e-05
121	0x00000000	0.0
122	0x00000000	0.0
123	0x00000000	0.0
124	0xb824cfd9	-3.929422e-05
125	0xb88957df	-6.549036e-05
126	0x00000000	0.0
127	0x37c9510e	2.3998811e-05
128	0xb916fcc8	-0.00014399283
129	0x37c9510e	2.3998811e-05
130	0x00000000	0.0
131	0x00000000	0.0
132	0x00000000	0.0
133	0x37719475	1.4399285e-05
134	0x37c9510e	2.3998811e-05
135	0x00000000	0.0
136	0xb7c9510e	-2.3998811e-05
137	0x3916fcc8	0.00014399283
138	0x37c9510e	2.3998811e-05
139	0x00000000	0.0
140	0x00000000	0.0
141	0x00000000	0.0
142	0x37719475	1.4399285e-05
143	0x37c9510e	2.3998811e-05
144	0x00000000	0.0
145	0x3820c2ae	3.8328282e-05
146	0xb971240e	-0.00022996982
147	0x3820c2ae	3.8328282e-05
148	0x00000000	0.0
149	0x00000000	0.0
150	0x00000000	0.0
151	0x37c0e99f	2.2996972e-05
152	0x3820c2ae	3.8328282e-05
153	0x00000000	0.0
154	0xb820c2ae	-3.8328282e-05
155	0x3971240e	0.00022996982
156	0x3820c2ae	3.8328282e-05
157	0x00000000	0.0
158	0x00000000	0.0
159	0x00000000	0.0
160	0x37c0e99f	2.2996972e-05
161	0x3820c2ae	3.8328282e-05
162	0x00000000	0.0
163	0xb7ded0e6	-2.6561738e-05
164	0x39271ca9	0.00015937038
165	0xb7ded0e6	-2.6561738e-05
166	0x00000000	0.0
167	0x00000000	0.0
168	0x00000000	0.0
169	0xb785b08b	-1.5937045e-05
170	0xb7ded0e6	-2.6561738e-05
171	0x00000000	0.0
172	0x37ded0e6	2.6561738e-05
173	0xb9271ca9	-0.00015937038
174	0xb7ded0e6	-2.6561738e-05
175	0x00000000	0.0
176	0x00000000	0.0
177	0x00000000	0.0
178	0xb785b08b	-1.5937045e-05
179	0xb7ded0e6	-2.6561738e-05
180	0x00000000	0.0
181	0x3779d11e	1.4890245e-05
182	0xb8bb5cd5	-8.934146e-05
183	0x3779d11e	1.4890245e-05
184	0x00000000	0.0
185	0x00000000	0.0
186	0x00000000	0.0
187	0x3715e3db	8.934144e-06
188	0x3779d11e	1.4890245e-05
189	0x00000000	0.0
190	0xb779d11e	-1.4890245e-05
191	0x38bb5cd5	8.934146e-05
192	0x3779d11e	1.4890245e-05
193	0x00000000	0.0
194	0x00000000	0.0
195	0x00000000	0.0
196	0x3715e3db	8.934144e-06
197	0x3779d11e	1.4890245e-05
198	0x00000000	0.0
199	0xb7186bd1	-9.085009e-06
200	0x3864a1b8	5.451005e-05
201	0xb7186bd1	-9.085009e-06
202	0x00000000	0.0
203	0x00000000	0.0
204	0x00000000	0.0
205	0xb6b6e7c5	-5.451004e-06
206	0xb7186bd1	-9.085009e-06
207	0x00000000	0.0
208	0x37186bd1	9.085009e-06
209	0xb864a1b8	-5.451005e-05
210	0xb7186bd1	-9.085009e-06
211	0x00000000	0.0
212	0x00000000	0.0
213	0x00000000	0.0
214	0xb6b6e7c5	-5.451004e-06
215	0xb7186bd1	-9.085009e-06
216	0x00000000	0.0
217	0xb78d2c3c	-1.6829108e-05
218	0x38d3c25a	0.00010097465
219	0xb78d2c3c	-1.6829108e-05
220	0x00000000	0.0
221	0x00000000	0.0
222	0x00000000	0.0
223	0xb7296849	-1.0097466e-05
224	0xb78d2c3c	-1.6829108e-05
225	0x00000000	0.0
226	0x378d2c3c	1.6829108e-05
227	0xb8d3c25a	-0.00010097465
228	0xb78d2c3c	-1.6829108e-05
229	0x00000000	0.0
230	0x00000000	0.0
231	0x00000000	0.0
232	0xb7296849	-1.0097466e-05
233	0xb78d2c3c	-1.6829108e-05
234	0x00000000	0.0
235	0xb51942c0	-5.7094076e-07
236	0x3665e4a0	3.4256736e-06
237	0xb51942c0	-5.7094076e-07
238	0x00000000	0.0
239	0x00000000	0.0
240	0x00000000	0.0
241	0xb4b7e9a0	-3.425639e-07
242	0xb51942c0	-5.7094076e-07
243	0x00000000	0.0
244	0x351942c0	5.7094076e-07
245	0xb665e4a0	-3.4256736e-06
246	0xb51942c0	-5.7094076e-07
247	0x00000000	0.0
248	0x00000000	0.0
249	0x00000000	0.0
250	0xb4b7e9a0	-3.425639e-07
251	0xb51942c0	-5.7094076e-07
252	0x00000000	0.0
253	0x3805c76e	3.1895404e-05
254	0xb948ab29	-0.00019137248
255	0x3805c76e	3.1895404e-05

exp_avg_sq f4 [256, 18]
0	0x00000000	0.0
1	0x33042302	3.0765484e-08
2	0x3594a768	1.1075581e-06
3	0x33042302	3.0765484e-08
4	0x00000000	0.0
5	0x00000000	0.0
6	0x00000000	0.0
7	0x323e46e3	1.1075573e-08
8	0x33042302	3.0765484e-08
9	0x00000000	0.0
10	0x33042302	3.0765484e-08
11	0x3594a768	1.1075581e-06
12	0x33042302	3.0765484e-08
13	0x00000000	0.0
14	0x00000000	0.0
15	0x00000000	0.0
16	0x323e46e3	1.1075573e-08
17	0x33042302	3.0765484e-08
18	0x00000000	0.0
19	0x32e5cd3e	2.6752442e-08
20	0x35814366	9.630864e-07
21	0x32e5cd3e	2.6752442e-08
22	0x00000000	0.0
23	0x00000000	0.0
24	0x00000000	0.0
25	0x322574ff	9.630866e-09
26	0x32e5cd3e	2.6752442e-08
27	0x00000000	0.0
28	0x32e5cd3e	2.6752442e-08
29	0x35814366	9.630864e-07
30	0x32e5cd3e	2.6752442e-08
31	0x00000000	0.0
32	0x00000000	0.0
33	0x00000000	0.0
34	0x322574ff	9.630866e-09
35	0x32e5cd3e	2.6752442e-08
36	0x00000000	0.0
37	0x329dc8aa	1.8368457e-08
38	0x353181ab	6.612633e-07
39	0x329dc8aa	1.8368457e-08
40	0x00000000	0.0
41	0x00000000	0.0
42	0x00000000	0.0
43	0x31e33560	6.6126375e-09
44	0x329dc8aa	1.8368457e-08
45	0x00000000	0.0
46	0x329dc8aa	1.8368457e-08
47	0x353181ab	6.612633e-07
48	0x329dc8aa	1.8368457e-08
49	0x00000000	0.0
50	0x00000000	0.0
51	0x00000000	0.0
52	0x31e33560	6.6126375e-09
53	0x329dc8aa	1.8368457e-08
54	0x00000000	0.0
55	0x330fe9f9	3.350758e-08
56	0x35a1e73a	1.206273e-06
57	0x330fe9f9	3.350758e-08
58	0x00000000	0.0
59	0x00000000	0.0
60	0x00000000	0.0
61	0x324f3c6b	1.2062723e-08
62	0x330fe9f9	3.350758e-08
63	0x00000000	0.0
64	0x330fe9f9	3.350758e-08
65	0x35a1e73a	1.206273e-06
66	0x330fe9f9	3.350758e-08
67	0x00000000	0.0
68	0x00000000	0.0
69	0x00000000	0.0
70	0x324f3c6b	1.2062723e-08
71	0x330fe9f9	3.350758e-08
72	0x00000000	0.0
73	0x330e818a	3.3179766e-08
74	0x35a051af	1.1944702e-06
75	0x330e818a	3.3179766e-08
76	0x00000000	0.0
77	0x00000000	0.0
78	0x00000000	0.0
79	0x324d3567	1.1944713e-08
80	0x330e818a	3.3179766e-08
81	0x00000000	0.0
82	0x330e818a	3.3179766e-08
83	0x35a051af	1.1944702e-06
84	0x330e818a	3.3179766e-08
85	0x00000000	0.0
86	0x00000000	0.0
87	0x00000000	0.0
88	0x324d3567	1.1944713e-08
89	0x330e818a	3.3179766e-08
90	0x00000000	0.0
91	0x32f5852a	2.858231e-08
92	0x358a1ae9	1.0289633e-06
93	0x32f5852a	2.858231e-08
94	0x00000000	0.0
95	0x00000000	0.0
96	0x00000000	0.0
97	0x3230c642	1.0289627e-08
98	0x32f5852a	2.858231e-08
99	0x00000000	0.0
100	0x32f5852a	2.858231e-08
101	0x358a1ae9	1.0289633e-06
102	0x32f5852a	2.858231e-08
103	0x00000000	0.0
104	0x00000000	0.0
105	0x00000000	0.0
106	0x3230c642	1.0289627e-08
107	0x32f5852a	2.858231e-08
108	0x00000000	0.0
109	0x331568c4	3.478705e-08
110	0x35a815e4	1.2523346e-06
111	0x331568c4	3.478705e-08
112	0x00000000	0.0
113	0x00000000	0.0
114	0x00000000	0.0
115	0x32572633	1.2523333e-08
116	0x331568c4	3.478705e-08
117	0x00000000	0.0
118	0x331568c4	3.478705e-08
119	0x35a815e4	1.2523346e-06
120	0x331568c4	3.478705e-08
121	0x00000000	0.0
122	0x00000000	0.0
123	0x00000000	0.0
124	0x32572633	1.2523333e-08
125	0x331568c4	3.478705e-08
126	0x00000000	0.0
127	0x32f08484	2.7999938e-08
128	0x35874a84	1.0079971e-06
129	0x32f08484	2.7999938e-08
130	0x00000000	0.0
131	0x00000000	0.0
132	0x00000000	0.0
133	0x322d2c3d	1.0079984e-08
134	0x32f08484	2.7999938e-08
135	0x00000000	0.0
136	0x32f08484	2.7999938e-08
137	0x35874a84	1.0079971e-06
138	0x32f08484	2.7999938e-08
139	0x00000000	0.0
140	0x00000000	0.0
141	0x00000000	0.0
142	0x322d2c3d	1.0079984e-08
143	0x32f08484	2.7999938e-08
144	0x00000000	0.0
145	0x32dd563e	2.5767005e-08
146	0x35790102	9.2761195e-07
147	0x32dd563e	2.5767005e-08
148	0x00000000	0.0
149	0x00000000	0.0
150	0x00000000	0.0
151	0x321f5cd3	9.276124e-09
152	0x32dd563e	2.5767005e-08
153	0x00000000	0.0
154	0x32dd563e	2.5767005e-08
155	0x35790102	9.2761195e-07
156	0x32dd563e	2.5767005e-08
157	0x00000000	0.0
158	0x00000000	0.0
159	0x00000000	0.0
160	0x321f5cd3	9.276124e-09
161	0x32dd563e	2.5767005e-08
162	0x00000000	0.0
163	0x32c1cda2	2.2561668e-08
164	0x355a074e	8.122196e-07
165	0x32c1cda2	2.2561668e-08
166	0x00000000	0.0
167	0x00000000	0.0
168	0x00000000	0.0
169	0x320b89d6	8.122205e-09
170	0x32c1cda2	2.2561668e-08
171	0x00000000	0.0
172	0x32c1cda2	2.2561668e-08
173	0x355a074e	8.122196e-07
174	0x32c1cda2	2.2561668e-08
175	0x00000000	0.0
176	0x00000000	0.0
177	0x00000000	0.0
178	0x320b89d6	8.122205e-09
179	0x32c1cda2	2.2561668e-08
180	0x00000000	0.0
181	0x32d40de9	2.4686374e-08
182	0x356e8fa5	8.887094e-07
183	0x32d40de9	2.4686374e-08
184	0x00000000	0.0
185	0x00000000	0.0
186	0x00000000	0.0
187	0x3218add4	8.887088e-09
188	0x32d40de9	2.4686374e-08
189	0x00000000	0.0
190	0x32d40de9	2.4686374e-08
191	0x356e8fa5	8.887094e-07
192	0x32d40de9	2.4686374e-08
193	0x00000000	0.0
194	0x00000000	0.0
195	0x00000000	0.0
196	0x3218add4	8.887088e-09
197	0x32d40de9	2.4686374e-08
198	0x00000000	0.0
199	0x328eb480	1.6613058e-08
200	0x35208b03	5.9806933e-07
201	0x328eb480	1.6613058e-08
202	0x00000000	0.0
203	0x00000000	0.0
204	0x00000000	0.0
205	0x31cd7eb2	5.980689e-09
206	0x328eb480	1.6613058e-08
207	0x00000000	0.0
208	0x328eb480	1.6613058e-08
209	0x35208b03	5.9806933e-07
210	0x328eb480	1.6613058e-08
211	0x00000000	0.0
212	0x00000000	0.0
213	0x00000000	0.0
214	0x31cd7eb2	5.980689e-09
215	0x328eb480	1.6613058e-08
216	0x00000000	0.0
217	0x32876f49	1.5766675e-08
218	0x35185d43	5.6760126e-07
219	0x32876f49	1.5766675e-08
220	0x00000000	0.0
221	0x00000000	0.0
222	0x00000000	0.0
223	0x31c306c8	5.676018e-09
224	0x32876f49	1.5766675e-08
225	0x00000000	0.0
226	0x32876f49	1.5766675e-08
227	0x35185d43	5.6760126e-07
228	0x32876f49	1.5766675e-08
229	0x00000000	0.0
230	0x00000000	0.0
231	0x00000000	0.0
232	0x31c306c8	5.676018e-09
233	0x32876f49	1.5766675e-08
234	0x00000000	0.0
235	0x32993e9b	1.7840014e-08
236	0x352c6683	6.422417e-07
237	0x32993e9b	1.7840014e-08
238	0x00000000	0.0
239	0x00000000	0.0
240	0x00000000	0.0
241	0x31dcac28	6.4224146e-09
242	0x32993e9b	1.7840014e-08
243	0x00000000	0.0
244	0x32993e9b	1.7840014e-08
245	0x352c6683	6.422417e-07
246	0x32993e9b	1.7840014e-08
247	0x00000000	0.0
248	0x00000000	0.0
249	0x00000000	0.0
250	0x31dcac28	6.4224146e-09
251	0x32993e9b	1.7840014e-08
252	0x00000000	0.0
253	0x32b59279	2.1137781e-08
254	0x354c44bf	7.609596e-07
255	0x32b59279	2.1137781e-08

exp_avg f4 [256]
0	0xb865e009	-5.4806504e-05
1	0x38208967	3.827494e-05
2	0x37f993b2	2.9751889e-05
3	0x389937d0	7.3060044e-05
4	0x3864bf48	5.453758e-05
5	0x38516523	4.9923674e-05
6	0xb88957e0	-6.549037e-05
7	0x37c9510e	2.3998811e-05
8	0x3820c2ae	3.8328282e-05
9	0xb7ded0e5	-2.6561736e-05
10	0x3779d122	1.4890249e-05
11	0xb7186bd1	-9.085009e-06
12	0xb78d2c39	-1.6829103e-05
13	0xb5194320	-5.709462e-07
14	0x3805c76e	3.1895404e-05
15	0xb4029540	-1.216149e-07
16	0x37f992e0	2.9751507e-05
17	0x3784e644	1.5842852e-05
18	0x3815f629	3.5753623e-05
19	0xb6a6a7f4	-4.966738e-06
20	0xb81eb263	-3.783627e-05
21	0x3841e9e3	4.623261e-05
22	0x385dcae2	5.2879455e-05
23	0x38948dca	7.0836e-05
24	0xb6f1085c	-7.183333e-06
25	0x37f89d2a	2.9637089e-05
26	0xb83abe72	-4.452322e-05
27	0x37af0d3b	2.0867787e-05
28	0xb825a412	-3.9491868e-05
29	0x38291a1a	4.031705e-05
30	0xb86f768d	-5.709245e-05
31	0xb8516a62	-4.992856e-05
32	0x37cd9bee	2.4510515e-05
33	0x38465910	4.7289825e-05
34	0xb7cb13ae	-2.420865e-05
35	0xb812794f	-3.492209e-05
36	0xb6f0a394	-7.1716004e-06
37	0x37f53614	2.9231458e-05
38	0xb80b728d	-3.3246866e-05
39	0x38684972	5.538151e-05
40	0xb7fa4942	-2.9836436e-05
41	0x384df180	4.9100723e-05
42	0xb794c59d	-1.7734996e-05
43	0xb7e67a88	-2.7475195e-05
44	0x37804fc3	1.5295931e-05
45	0xb85410c6	-5.056036e-05
46	0xb7b95b4c	-2.2096232e-05
47	0x37a91847	2.0157675e-05
48	0x365bdfe4	3.2763865e-06
49	0xb827fb07	-4.004969e-05
50	0x380453b8	3.154922e-05
51	0x381d452b	3.7496135e-05
52	0xb7b5bfb2	-2.1666146e-05
53	0xb840236f	-4.5809367e-05
54	0xb711d921	-8.693228e-06
55	0xb7ff03be	-3.0400111e-05
56	0xb8301442	-4.1980536e-05
57	0x386f9c6c	5.712772e-05
58	0xb7a6f5e1	-1.9903238e-05
59	0x3741b428	1.1545642e-05
60	0xb8398959	-4.4235352e-05
61	0xb722aae5	-9.695742e-06
62	0xb745058a	-1.1743405e-05
63	0x382f94e6	4.1861924e-05
64	0x388ff241	6.863895e-05
65	0x37d28c23	2.5099207e-05
66	0xb8476b86	-4.7545436e-05
67	0xb77d6506	-1.51034965e-05
68	0xb84a9789	-4.830168e-05
69	0x3892d546	7.001548e-05
70	0xb87089ac	-5.7348676e-05
71	0xb818200e	-3.6269477e-05
72	0x38113a25	3.4624845e-05
73	0xb718e1ea	-9.112506e-06
74	0xb80637ee	-3.2000178e-05
75	0x37cd1c32	2.4451034e-05
76	0xb7b70b94	-2.1820691e-05
77	0x38813213	6.1605264e-05
78	0x37959922	1.7833492e-05
79	0xb6ae7144	-5.19879e-06
80	0xb86820f6	-5.5343808e-05
81	0xb822ad19	-3.878502e-05
82	0xb8394675	-4.4173055e-05
83	0x38097028	3.27678e-05
84	0xb80201a4	-3.0995943e-05
85	0x37e08021	2.6762546e-05
86	0x37bb8a3b	2.2356506e-05
87	0x37c6bcce	2.3691358e-05
88	0x38301a99	4.198644e-05
89	0x387474f6	5.828306e-05
90	0x37b853a5	2.197346e-05
91	0xb632bc68	-2.6633734e-06
92	0x37a409ee	1.9554947e-05
93	0x388a1ade	6.585357e-05
94	0xb83116e6	-4.2221414e-05
95	0xb80d3af8	-3.367194e-05
96	0x3747f08e	1.1917333e-05
97	0xb88d7fe8	-6.747228e-05
98	0x37e4cfb4	2.7276437e-05
99	0xb876e90e	-5.886802e-05
100	0x38126703	3.490505e-05
101	0xb5025180	-4.854737e-07
102	0x3803551d	3.13121e-05
103	0xb7a20820	-1.9315688e-05
104	0xb78c7b2c	-1.6746657e-05
105	0xb8a552a6	-7.8832076e-05
106	0xb82fc9a1	-4.1911033e-05
107	0x379f8ec0	1.902075e-05
108	0x38356132	4.3244283e-05
109	0xb81c49c4	-3.7261998e-05
110	0x37d60ed6	2.5517696e-05
111	0x38425db9	4.634049e-05
112	0x3778b0b0	1.482309e-05
113	0x380422d2	3.150368e-05
114	0x364d8870	3.0626798e-06
115	0xb8763ddb	-5.8708578e-05
116	0xb8200c84	-3.815863e-05
117	0x3826648e	3.9671133e-05
118	0x37fd6388	3.0206298e-05
119	0x37c03621	2.291339e-05
120	0xb7801bbe	-1.5271708e-05
121	0xb87c5b0c	-6.0166276e-05
122	0x382c50d8	4.1083287e-05
123	0xb7fd35f0	-3.0185067e-05
124	0xb7e18307	-2.6883105e-05
125	0x38249b38	3.9245206e-05
126	0xb812319b	-3.485531e-05
127	0xb71acd8d	-9.226974e-06
128	0x3894feb4	7.104632e-05
129	0x385637aa	5.1073417e-05
130	0xb80d95b3	-3.3756438e-05
131	0x378b5bbf	1.6612814e-05
132	0x38288e09	4.0186602e-05
133	0x381854be	3.6318546e-05
134	0xb88a55a6	-6.596306e-05
135	0x37bf129d	2.2777642e-05
136	0xb7e35496	-2.7099897e-05
137	0xb7549f9b	-1.2673346e-05
138	0x384fff7f	4.9590595e-05
139	0xb81f4204	-3.7970036e-05
140	0x38366519	4.3486336e-05
141	0xb8886fe9	-6.50583e-05
142	0x386d4ce6	5.657682e-05
143	0xb7f9a91c	-2.976186e-05
144	0xb7ba325d	-2.219638e-05
145	0x38569232	5.115773e-05
146	0xb7b29d39	-2.1292466e-05
147	0xb7d97362	-2.5922145e-05
148	0xb75fb946	-1.3334973e-05
149	0x37f37e78	2.9026749e-05
150	0xb7a1472a	-1.9225834e-05
151	0xb8549531	-5.0683684e-05
152	0x384ea67f	4.926929e-05
153	0xb89ce86a	-7.48195e-05
154	0xb76240a4	-1.34857e-05
155	0xb78632f0	-1.5997764e-05
156	0x3827f4b1	4.004379e-05
157	0xb5a35958	-1.2170449e-06
158	0xb714ffa2	-8.881007e-06
159	0x381def3e	3.765453e-05
160	0xb885e835	-6.385186e-05
161	0x37f24df1	2.8884942e-05
162	0x3838ee89	4.409117e-05
163	0xb7b33f30	-2.1367887e-05
164	0xb87dc654	-6.0504608e-05
165	0xb62570fb	-2.465268e-06
166	0x388d0796	6.724817e-05
167	0x381738f1	3.6054236e-05
168	0x3836fb0e	4.3625994e-05
169	0x378282af	1.5558062e-05
170	0xb7f06186	-2.8655642e-05
171	0x388c0756	6.677087e-05
172	0xb828510d	-4.0129806e-05
173	0xb88eec60	-6.815116e-05
174	0xb7c8e1b7	-2.3946965e-05
175	0x38a9349f	8.0683494e-05
176	0x387894e2	5.9266466e-05
177	0x359c3cc8	1.1640595e-06
178	0x37eeca9b	2.8466156e-05
179	0xb7a5577f	-1.9710276e-05
180	0x35d2ea10	1.571434e-06
181	0xb89ad6e7	-7.383321e-05
182	0xb6d0cecc	-6.2229574e-06
183	0x389cd80f	7.478904e-05
184	0xb7ae2446	-2.0759308e-05
185	0x34afaf40	3.27238e-07
186	0x3895861a	7.129852e-05
187	0x385f3fe5	5.322685e-05
188	0xb8372e20	-4.3673557e-05
189	0x36cc9d74	6.0980037e-06
190	0xb756259c	-1.2764151e-05
191	0xb7cbb438	-2.4283407e-05
192	0x389c6232	7.45695e-05
193	0x379ae67a	1.8465555e-05
194	0x373194ce	1.0584668e-05
195	0xb8974304	-7.212724e-05
196	0xb805bf8c	-3.1888063e-05
197	0xb806f95c	-3.2180324e-05
198	0x389bf7dc	7.437143e-05
199	0xb7079668	-8.081646e-06
200	0xb74098b6	-1.1479648e-05
201	0xb844e32c	-4.694161e-05
202	0xb8409944	-4.5919107e-05
203	0x37abdbc6	2.0487128e-05
204	0x380c44d4	3.3442702e-05
205	0x3882793a	6.221463e-05
206	0x385519db	5.0807237e-05
207	0x381a2880	3.675418e-05
208	0xb7d231c9	-2.5057134e-05
209	0xb6a393c2	-4.87498e-06
210	0xb7208626	-9.567977e-06
211	0x38811eca	6.156934e-05
212	0xb7e6e12d	-2.7522992e-05
213	0x385048da	4.9658913e-05
214	0xb8291f9f	-4.032219e-05
215	0xb7d1d87c	-2.501555e-05
216	0xb68fbc00	-4.283618e-06
217	0xb6cbd11c	-6.074215e-06
218	0xb80ba0ca	-3.328993e-05
219	0xb77cca9e	-1.5067546e-05
220	0xb894f508	-7.1028306e-05
221	0xb7598392	-1.29648415e-05
222	0xb7ab5e18	-2.0428604e-05
223	0x3833b0b4	4.2841493e-05
224	0x37d5f9b7	2.5507861e-05
225	0x376ea5de	1.4224524e-05
226	0x380f5833	3.4176e-05
227	0xb78a43d2	-1.6482463e-05
228	0x3805764e	3.181985e-05
229	0x383d3feb	4.512064e-05
230	0xb7e8f657	-2.7771266e-05
231	0x37fecc08	3.0374169e-05
232	0x3606ecc4	2.0105372e-06
233	0x3839fc9f	4.434271e-05
234	0xb7c67bd4	-2.3661101e-05
235	0xb7831c86	-1.56297e-05
236	0xb81f05b7	-3.7913876e-05
237	0x381a2dfa	3.675928e-05
238	0xb5a53d62	-1.2311323e-06
239	0x3794c6e0	1.7735583e-05
240	0x38002c61	3.055891e-05
241	0xb8451cf2	-4.6995418e-05
242	0xb78346c9	-1.5649379e-05
243	0xb6853f04	-3.971045e-06
244	0x3819c9a4	3.6665835e-05
245	0x377fd0ba	1.5247782e-05
246	0x37d6e8bb	2.5619162e-05
247	0xb7dfc88f	-2.6677064e-05
248	0x37ed589d	2.8293865e-05
249	0x38059290	3.1846168e-05
250	0xb7b5bad1	-2.1663875e-05
251	0xb740788d	-1.147216e-05
252	0xb86a65c3	-5.588472e-05
253	0xb70dde9a	-8.456083e-06
254	0x37574185	1.2830254e-05
255	0x37bc1fa2	2.2426077e-05

exp_avg_sq f4 [256]
0	0x33042302	3.0765484e-08
1	0x32e5cd3a	2.6752435e-08
2	0x329dc8a9	1.8368455e-08
3	0x330fe9fa	3.3507582e-08
4	0x330e818a	3.3179766e-08
5	0x32f58529	2.8582308e-08
6	0x331568c6	3.4787057e-08
7	0x32f08483	2.7999937e-08
8	0x32dd563b	2.5767e-08
9	0x32c1cda2	2.2561668e-08
10	0x32d40de9	2.4686374e-08
11	0x328eb47d	1.6613052e-08
12	0x32876f4b	1.5766679e-08
13	0x32993e9b	1.7840014e-08
14	0x32b59279	2.1137781e-08
15	0x328c1177	1.6306087e-08
16	0x32a26a06	1.8907496e-08
17	0x32dc2c1e	2.5631433e-08
18	0x32ae1def	2.0269878e-08
19	0x32948a96	1.729249e-08
20	0x32ca66e1	2.3562679e-08
21	0x32d6d255	2.5008527e-08
22	0x33024971	3.033478e-08
23	0x3317b078	3.5317925e-08
24	0x328ab29e	1.614654e-08
25	0x331c2e45	3.6363662e-08
26	0x32d2f95f	2.4560618e-08
27	0x329c2c41	1.8180915e-08
28	0x32fe327e	2.9592453e-08
29	0x32b4bbcf	2.1040163e-08
30	0x32eecd00	2.780007e-08
31	0x32d15cf3	2.437307e-08
32	0x32c82b19	2.3302663e-08
33	0x3303f000	3.0719093e-08
34	0x32905cfb	1.6806089e-08
35	0x32d7b138	2.5109884e-08
36	0x32cde1b0	2.3967772e-08
37	0x329d2c03	1.829722e-08
38	0x32a364ce	1.9021538e-08
39	0x330ed87e	3.325885e-08
40	0x32b6c006	2.127491e-08
41	0x3312e48c	3.4201136e-08
42	0x32f1cd2a	2.814939e-08
43	0x3280fcd0	1.5016127e-08
44	0x3292168d	1.7006892e-08
45	0x32e68ac2	2.6838624e-08
46	0x32e9c12f	2.721262e-08
47	0x32a1fe16	1.8858412e-08
48	0x3275c0c8	1.430471e-08
49	0x32b6ca99	2.127972e-08
50	0x32b88909	2.1482736e-08
51	0x32d43961	2.4706141e-08
52	0x329323c4	1.7129317e-08
53	0x32c909e5	2.340398e-08
54	0x32862c4e	1.56198e-08
55	0x329ee9bc	1.8499911e-08
56	0x32bfc492	2.2324716e-08
57	0x32f46919	2.8453131e-08
58	0x3287f472	1.582723e-08
59	0x328a9821	1.6134495e-08
60	0x32eb35bd	2.7382038e-08
61	0x33027a30	3.0379113e-08
62	0x32894cc1	1.5983803e-08
63	0x32c458d8	2.2857805e-08
64	0x3311a53b	3.391072e-08
65	0x32a7e23d	1.954424e-08
66	0x32fa6084	2.914772e-08
67	0x329aadbf	1.800697e-08
68	0x32e413f6	2.655177e-08
69	0x330d4af1	3.289728e-08
70	0x32f5a7a5	2.859799e-08
71	0x32b84a56	2.1454223e-08
72	0x32c6705c	2.3101329e-08
73	0x32bb5129	2.1806573e-08
74	0x32beb530	2.2201306e-08
75	0x32a7a4a6	1.9516232e-08
76	0x32e3fcf4	2.6541308e-08
77	0x330d275d	3.286492e-08
78	0x3289ca7c	1.6040978e-08
79	0x32aec559	2.034601e-08
80	0x32e27f35	2.636771e-08
81	0x33020642	3.0273675e-08
82	0x331ec6a4	3.6967904e-08
83	0x32d56739	2.4843404e-08
84	0x3285bcf0	1.5569157e-08
85	0x329d62b0	1.8322083e-08
86	0x32d5244f	2.4812975e-08
87	0x32def7ac	2.595683e-08
88	0x32cbb8e2	2.3716385e-08
89	0x330fcec1	3.3482824e-08
90	0x32b08d1e	2.055327e-08
91	0x32f639bc	2.8664424e-08
92	0x32f1ad9d	2.8135043e-08
93	0x3300924d	2.9935382e-08
94	0x3312f7aa	3.4218523e-08
95	0x32cc59d6	2.3789578e-08
96	0x328d23f2	1.6430906e-08
97	0x330b8f6f	3.249391e-08
98	0x328e5dec	1.6573686e-08
99	0x3304be3b	3.090666e-08
100	0x32b0178a	2.0499801e-08
101	0x32e4e6eb	2.6647703e-08
102	0x329cddb6	1.8261613e-08
103	0x3294a8cc	1.7306228e-08
104	0x3295246f	1.7362451e-08
105	0x331c85f8	3.6443424e-08
106	0x3284b82d	1.5450576e-08
107	0x32a197fe	1.8811985e-08
108	0x32d9af1e	2.5341759e-08
109	0x32b40400	2.0956577e-08
110	0x32cbc3aa	2.3721288e-08
111	0x32fd346f	2.947692e-08
112	0x338fda73	6.698692e-08
113	0x32b2a2d4	2.0795973e-08
114	0x32dc5cd6	2.5653588e-08
115	0x33201091	3.726797e-08
116	0x32cf8236	2.4157185e-08
117	0x32d6f55d	2.5024457e-08
118	0x32c1cbdf	2.2560867e-08
119	0x328aa6b7	1.6141128e-08
120	0x32b18938	2.0667912e-08
121	0x32ecee65	2.7582425e-08
122	0x32a807d0	1.9561327e-08
123	0x32eb4ae7	2.7391662e-08
124	0x329e2213	1.8409116e-08
125	0x32a80418	1.9559636e-08
126	0x32beb39a	2.2200584e-08
127	0x32c02801	2.2369933e-08
128	0x3304efdf	3.0951806e-08
129	0x32ef832e	2.7882916e-08
130	0x32b31b2a	2.0850695e-08
131	0x32c573a6	2.298641e-08
132	0x3307ef11	3.1649567e-08
133	0x32b54c6a	2.1105922e-08
134	0x330db203	3.299102e-08
135	0x327e5992	1.4805112e-08
136	0x32a7da33	1.9540584e-08
137	0x3260e9d7	1.3091685e-08
138	0x32f113db	2.8065122e-08
139	0x32ac6129	2.0067619e-08
140	0x32c72daa	2.3187415e-08
141	0x33027c56	3.0381067e-08
142	0x33129a8e	3.413384e-08
143	0x329da5b7	1.8352564e-08
144	0x32946103	1.7273583e-08
145	0x3300873c	2.9925317e-08
146	0x3297090c	1.7582828e-08
147	0x329c9d3c	1.8232292e-08
148	0x329e2e75	1.8414747e-08
149	0x32b95548	2.1575616e-08
150	0x32ba29eb	2.1672312e-08
151	0x3317d5be	3.5351825e-08
152	0x32886e98	1.5882776e-08
153	0x331506ae	3.469784e-08
154	0x32944555	1.7260996e-08
155	0x32f4e23d	2.850822e-08
156	0x330e8a16	3.318754e-08
157	0x3290b776	1.6847235e-08
158	0x32ce2431	2.3998014e-08
159	0x32cd440a	2.3896082e-08
160	0x3305fbc8	3.119547e-08
161	0x3296a6b0	1.7538099e-08
162	0x32d42cfd	2.4700507e-08
163	0x329ed9ea	1.8492717e-08
164	0x331ca96e	3.6475676e-08
165	0x3285fe54	1.5598893e-08
166	0x3308b3bb	3.182843e-08
167	0x32a2875f	1.8920842e-08
168	0x32d97ceb	2.5318931e-08
169	0x32a24517	1.88907e-08
170	0x32a9e86a	1.9779879e-08
171	0x330ad23d	3.232184e-08
172	0x32c5ffd5	2.3050157e-08
173	0x3308a70e	3.1816903e-08
174	0x32c3c2cc	2.2789571e-08
175	0x32b8bb89	2.15057e-08
176	0x33095c85	3.1981944e-08
177	0x3295d19f	1.7441208e-08
178	0x329edb1b	1.8493258e-08
179	0x32a9ac6b	1.9752596e-08
180	0x32bea260	2.219275e-08
181	0x3318c6ee	3.5571183e-08
182	0x32fd67b5	2.9500237e-08
183	0x33234936	3.801798e-08
184	0x3272a52b	1.4123809e-08
185	0x32a50fa5	1.9215642e-08
186	0x330e6e13	3.3162063e-08
187	0x3309e367	3.210462e-08
188	0x32c28a12	2.264736e-08
189	0x32aae9e6	1.989697e-08
190	0x328a7c8e	1.6121955e-08
191	0x3286f831	1.5712518e-08
192	0x3314df1e	3.466186e-08
193	0x32a230d5	1.8881488e-08
194	0x32d616ec	2.4923303e-08
195	0x330ee0e5	3.3266492e-08
196	0x32bd23a1	2.2018698e-08
197	0x32c90764	2.340284e-08
198	0x331902bb	3.5625572e-08
199	0x32e8d35f	2.7104475e-08
200	0x32cb83cd	2.3692246e-08
201	0x32dfa78e	2.6036812e-08
202	0x3317dd41	3.5358656e-08
203	0x32b89622	2.1488692e-08
204	0x32b98160	2.1595667e-08
205	0x33027adf	3.0379734e-08
206	0x32ecf77c	2.7586559e-08
207	0x3282d018	1.5228622e-08
208	0x32a6c9d0	1.9416717e-08
209	0x328254c5	1.517254e-08
210	0x330bc110	3.253905e-08
211	0x330882cd	3.178393e-08
212	0x32906557	1.680989e-08
213	0x32f09a84	2.8009943e-08
214	0x32cad5bc	2.361309e-08
215	0x32c6fa3a	2.3164024e-08
216	0x32b171cd	2.0657263e-08
217	0x32b0295b	2.0507903e-08
218	0x32a89f30	1.9630164e-08
219	0x328abbb7	1.6150677e-08
220	0x33135d52	3.431098e-08
221	0x32f83354	2.8894341e-08
222	0x3288a1d8	1.5906082e-08
223	0x3308fd51	3.1895357e-08
224	0x32a75ca9	1.9483496e-08
225	0x3304cc01	3.0919185e-08
226	0x329ee450	1.8497445e-08
227	0x32acda08	2.0122584e-08
228	0x32a8de66	1.965891e-08
229	0x32e14458	2.6224527e-08
230	0x329112f5	1.6888842e-08
231	0x32b40717	2.0957982e-08
232	0x328c72b8	1.6350313e-08
233	0x32e4735a	2.659515e-08
234	0x32913181	1.6902733e-08
235	0x328dc25e	1.6502948e-08
236	0x33058212	3.1084774e-08
237	0x33036426	3.05919e-08
238	0x3273a670	1.4182305e-08
239	0x32c0d39f	2.2447976e-08
240	0x32c0e0a1	2.2453891e-08
241	0x32cd521f	2.3902485e-08
242	0x32e72147	2.6907072e-08
243	0x32d71f95	2.5043656e-08
244	0x32aea4b0	2.0331157e-08
245	0x329b4959	1.807773e-08
246	0x32939f8e	1.718561e-08
247	0x32aa8b52	1.985396e-08
248	0x32f37544	2.834225e-08
249	0x329c13e0	1.8169828e-08
250	0x32970552	1.7581133e-08
251	0x32b312a5	2.0846821e-08
252	0x331f3e1f	3.707657e-08
253	0x32888b96	1.589596e-08
254	0x32d0f49c	2.4325622e-08
255	0x32947915	1.728453e-08
