new_checkpoints6/30300004.ckpt (torch, 90177 bytes, 12 tensors)

weight f4 [256, 18]
-0.20473772 0.11913124 0.10104934 0.31402743 0.020814434 -0.1394619 -0.14172699 0.22963275
0.030160675 0.17176689 -0.124252595 -0.08341961 -0.07432222 0.17973684 0.2242953 0.0418946
0.1545278 0.10706809 0.058811888 -0.08373307 -0.09278288 -0.27587092 0.18264104 0.085302606
0.17213939 0.12924106 -0.1763647 0.055147395 0.27497262 0.0676632 -0.093911886 -0.025304407
-0.14708549 0.19324176 -0.1443261 -0.034170184 0.19698615 0.10766324 -0.06328732 0.08678468
0.12582044 -0.011914298 0.18982033 -0.1546381 -0.1536774 -0.1758039 0.043885946 -0.005466151
0.049987867 0.1632014 -0.15461572 0.2075447 0.020751417 -0.22504511 0.013014898 0.21533467
-0.10270233 0.23850428 -0.12038604 0.0018493235 0.045794174 -0.10260669 0.0048079374 0.023681358
0.023699982 -0.16436513 -0.12438373 0.00940448 -0.13102898 0.1899 0.0027601784 0.23915623
-0.11467798 -0.05443598 0.06315957 0.21174668 -0.085306376 -0.03739105 0.1335512 -0.1560502
-0.116238005 -0.1741895 -0.024474867 0.04361737 0.2066587 -0.010559052 0.11521272 0.13345475
-0.16216421 -0.021146439 -0.06976764 0.09328073 0.17161807 -0.21459867 -0.18488853 -0.13084835
-0.08528735 0.07667923 -0.23324756 0.10615556 -0.08988379 0.18383232 0.20405231 -0.19367363
0.12320815 -0.13489467 0.12355427 -0.21179043 -0.09089275 -0.010954592 0.08793029 0.33709416
-0.1295912 -0.034435153 0.15072046 0.30956218 0.24562651 -0.20638335 0.03860781 -0.06777014
0.053499218 -0.04896921 -0.07282598 -0.17014073 0.11544518 0.07791932 -0.1664699 0.18368085
-0.1759909 0.048770502 -0.100050405 -0.0149190575 -0.037843943 0.16006874 0.12303253 0.06867735
-0.1972117 -0.22478144 -0.12754454 -0.09759851 -0.21931536 -0.08312294 -0.2248979 -0.20166434
-0.16345248 0.22045861 -0.087230444 0.07022756 -0.22997363 -0.21106498 0.034057632 -0.20074366
0.073927715 0.23086436 -0.16365041 -0.14833498 0.11228192 0.13312478 0.21156855 0.18441857
-0.025441695 0.035048544 -0.1373626 0.107831255 0.11836969 -0.014988143 0.08489807 0.016929999
0.09643771 0.06859013 -0.13927631 0.1514469 -0.0070903385 0.12432415 0.08444014 -0.0014618188
0.1883962 -0.076127544 -0.079617135 0.14587896 -0.12709156 0.011888811 0.10534603 -0.20295987
0.154718 -0.12384357 -0.011637166 0.119663775 0.038796302 0.23489697 -0.10978405 0.023343226
0.12312054 0.20854472 0.15237565 0.23508494 0.042883012 0.105243266 -0.1398673 0.047142796
0.057175756 -0.15249154 0.17930456 0.19220667 -0.19021589 -0.1007713 0.23836103 -0.22259198
0.18845406 -0.040999353 0.10751814 0.09330447 -0.19133405 0.05963309 0.117641546 0.24410051
-0.021426693 -0.22971216 0.09648329 0.074541405 0.20414685 -0.18845436 -0.051969483 0.18605097
-0.0052758064 -0.16931246 -0.108923584 0.04144348 0.1599521 -0.09800275 -0.050662145 0.03402807
-0.23083918 0.14624381 -0.008095339 0.09958681 -0.035504345 0.117539994 -0.060297474 -0.041834176
0.16442223 -0.1914278 0.1287723 -0.14192232 0.16777329 0.02250489 -0.06545396 -0.15529813
-0.19460371 -0.15044051 -0.26531547 -0.025741337 -0.17215344 0.35238177 -0.021016458 0.22808444
00000000: c4a6 51be 14fb f33d f5f2 ce3d 34c8 a03e
00000010: 0883 aa3c 1acf 0ebe e120 11be d924 6b3e
00000020: 8513 f73c a9e3 2f3e 2578 febd e7d7 aabd
00000030: 4036 98bd ef0c 383e abad 653e ac99 2b3d
00000040: 893c 1e3e 8446 db3d bce4 703d 3e7c abbd
00000050: f304 bebd f43e 8dbe 4106 3b3e 22b3 ae3d
00000060: 4f45 303e c557 043e f398 34be 3ce2 613d
00000070: 36c9 8c3e 0193 8a3d e054 c0bd 304b cfbc
00000080: 949d 16be 2be1 453e 39ca 13be 09f6 0bbd
00000090: bdb6 493e 8b7e dc3d c89c 81bd 2bbc b13d
000000a0: 13d7 003e 3034 43bc 4360 423e 7359 1ebe
000000b0: 9c5d 1dbe f005 34be c0c1 333d 661d b3bb
000000c0: 14c0 4c3d 451e 273e 9553 1ebe 9986 543e
000000d0: e0fe a93c 3a72 66be 703c 553c b180 5c3e
000000e0: 9955 d2bd 773a 743e f58c f6bd 0065 f23a
000000f0: ac92 3b3d 7523 d2bd e78b 9d3b 68ff c13c
00000100: 7726 c23c 554f 28be e6bc febd 4015 1a3c
00000110: 762c 06be 2575 423e 1ce4 343b 5fe5 743e
00000120: 4adc eabd 43f8 5ebd ce59 813d 1fd4 583e
00000130: 1cb5 aebd 5c27 19bd a5c1 083e a0cb 1fbe
00000140: 310e eebd bb5e 32be 847f c8bc 21a8 323d
00000150: 579e 533e e0ff 2cbc a6f4 eb3d 5da8 083e
00000160: 600e 26be 4c3b adbc 56e2 8ebd f809 bf3d
00000170: a6bc 2f3e c1bf 5bbe 6b53 3dbe 1cfd 05be
00000180: 22ab aebd 000a 9d3d 73d8 6ebe 1668 d93d
00000190: fe14 b8bd 8a3e 3c3e 17f3 503e 6152 46be
000001a0: 8e54 fc3d d421 0abe 050a fd3d 97df 58be
000001b0: fa25 babd e47a 33bc cc14 b43d 9b97 ac3e
000001c0: 8eb3 04be e00b 0dbd 7756 1a3e ef7e 9e3e
000001d0: 8485 7b3e 2856 53be 3923 1e3d 12cb 8abd
000001e0: ff21 5b3d f093 48bd ca25 95bd 5f39 2ebe
000001f0: 866e ec3d 2a94 9f3d 1677 2abe d516 3c3e
00000200: f536 34be 94c3 473d 3ae7 ccbd 106f 74bc
00000210: 4002 1bbd 0fe9 233e 7bf8 fb3d b6a6 8c3d
00000220: ddf1 49be 1b2d 66be 099b 02be bae1 c7bd
00000230: 3594 60be 5c3c aabd a34b 66be 1981 4ebe
00000240: 1660 27be e7bf 613e e0a5 b2bd 78d3 8f3d
00000250: 357e 6bbe 6b21 58be 0480 0b3d bf8f 4dbe
00000260: 6a67 973d b567 6c3e f993 27be 20e5 17be
00000270: 10f4 e53d dd51 083e 6da5 583e 39d8 3c3e
00000280: 1a6b d0bc 108f 0f3d c8a8 0cbe a2d6 dc3d
00000290: cf6b f23d d490 75bc 0adf ad3d c8b0 8a3c
000002a0: 2281 c53d fb78 8c3d 739e 0ebe e514 1b3e
000002b0: 1256 e8bb a99d fe3d f4ee ac3d 809a bfba
000002c0: efea 403e c2e8 9bbd 4f0e a3bd 4b61 153e
000002d0: 4a24 02be 4ac9 423c a9bf d73d b6d4 4fbe
000002e0: 656e 1e3e b3a1 fdbd d0a9 3ebc 4812 f53d
000002f0: dfe8 1e3d d588 703e 76d6 e0bd 4b3a bf3c
00000300: 9f26 fc3d bf8c 553e 5d08 1c3e 1bba 703e
00000310: 19a6 2f3d c889 d73d 6039 0fbe ce18 413d
00000320: 2031 6a3d be26 1cbe 9d9b 373e d3d1 443e
00000330: f4c7 42be 2f61 cebd ea14 743e 27ef 63be
00000340: 1afa 403e f0ee 27bd 7832 dc3d 6a16 bf3d
00000350: 13ed 43be d441 743d 0dee f03d 7cf5 793e
00000360: 0887 afbc aa39 6bbe 0899 c53d 2aa9 983d
00000370: df0b 513e 2efa 40be f4dd 54bd 2584 3e3e
00000380: ace0 acbb 3f60 2dbe 5413 dfbd a3c0 293d
00000390: 7cca 233e aab5 c8bd 1c83 4fbd 0461 0b3d
000003a0: 1b61 6cbe f0c0 153e 50a2 04bc 2bf4 cb3d
000003b0: 016d 11bd cfb8 f03d 7cfa 76bd 505a 2bbd
000003c0: 4d5e 283e a605 44be e3dc 033e 1654 11be
000003d0: c3cc 2b3e 2d5c b83c ba0c 86bd 7906 1fbe
000003e0: 3246 47be 140d 1abe 6ed7 87be 7fdf d2bc
000003f0: fe48 30be 626b b43e b52a acbc f88e 693e

bias f4 [256]
0.2754948 -0.08670277 -0.08895317 -0.15529022 0.02340197 0.07299133 -0.019783845 0.1573821
-0.20344123 -0.21590422 0.1803822 0.2740757 0.07751378 -0.18986458 -0.02260755 -0.005603402
-0.043079037 0.040821895 -0.1262551 -0.047943298 0.27693838 0.105502404 0.18622066 -0.1053988
0.07957798 -0.030249214 0.026347255 -0.034135297 0.28246778 0.07419173 -0.20895708 -0.1525265
-0.14476213 0.14843306 -0.104159 -0.17525896 -0.16296089 0.25130486 0.051036213 -0.061923064
-0.23898679 0.18203418 -0.070257306 0.028674046 0.029830126 -0.18444103 -0.122979015 0.098664165
-0.10013874 -0.2322903 0.18038273 -0.120956205 0.14053436 0.20140177 0.13034394 -0.10571449
0.0779908 0.1719842 0.1841891 0.077437565 -0.23632139 0.1566288 -0.18559957 0.07180419
0.124066845 -0.087589465 0.23862714 -0.16141818 -0.033884905 -0.2656379 -0.08485118 0.1037021
0.09816259 0.18340471 -0.22369774 0.023119958 -0.19801286 0.23572987 0.055440985 0.13511193
-0.0023794123 -0.17227915 0.17069097 0.022044567 0.19955906 -0.12727016 0.049667507 -0.27630094
0.09595297 0.20949374 0.0057726568 0.031368736 0.1752128 0.15067613 0.29316604 0.21357985
0.17149183 0.0016347994 0.041668016 -0.081822604 0.15659027 -0.04262093 0.1697677 0.278092
0.0021297412 0.12633227 -0.019794615 -0.007227526 0.054867126 -0.1309185 -0.018998234 0.30096602
0.18439706 -0.0303885 -0.20541634 0.12983757 -0.06886907 0.11326677 -0.047773708 0.17261644
-0.0735284 -0.19596994 -0.016262693 0.05304162 -0.2371937 -0.02413156 -0.051573247 -0.09569762
0.04092007 0.22789763 -0.10057288 -0.11158422 0.17623132 -0.1762265 0.009168543 0.015626105
0.04024591 0.18933815 -0.20458347 -0.009303822 0.11323041 -0.20053022 0.0022228928 0.10900383
-0.07356629 -0.1517575 0.007467461 0.039696995 -0.12080701 -0.15117936 -0.115437046 0.01329104
0.13822158 -0.050511997 0.3351884 0.03377967 -0.07271834 -0.15698554 0.009484326 0.13084403
0.16607182 0.037218127 -0.00029610755 0.0110272765 -0.025707085 -0.10917183 0.093045436 -0.21351686
0.2274539 -0.09496219 -0.23122579 0.08430457 -0.019324798 0.20288426 -0.16154939 0.057788957
0.07889287 -0.27475113 -0.043981362 -0.17552093 -0.016078625 -0.0132417865 -0.17529534 -0.09523217
0.023892194 -0.05299826 -0.15815262 -0.08501971 -0.1394666 0.1472798 -0.23189595 0.07810894
-0.2097267 0.12426592 0.18035133 -0.10520833 -0.12017694 -0.12026143 0.050977323 0.14220859
0.049985886 0.01208339 -0.027794205 -0.06112635 -0.097282365 -0.056096278 0.10181797 -0.14179975
0.05889884 -0.12731479 0.11158189 0.08135371 -0.15248759 0.13732715 -0.19863702 -0.113125406
-0.059022076 -0.18219283 -0.04481725 -0.113308504 0.072781906 0.0008740652 0.0829952 0.097004935
-0.050248582 -0.0036478948 0.09588519 -0.19663224 0.19055764 0.0745697 0.032366216 0.23950197
-0.21356006 -0.110819764 0.30685875 -0.14009008 -0.26887307 0.011134525 0.22798568 0.14748533
0.014516937 0.22256763 -0.15145156 -0.040519085 0.07812986 -0.0067396644 0.018043237 0.2018614
0.14430831 0.045967523 -0.11588048 0.3091152 0.21724668 0.014362178 -0.1539222 -0.026935797
00000000: a80d 8d3e 3991 b1bd 142d b6bd 6604 1fbe
00000010: 7db5 bf3c 7a7c 953d bb11 a2bc c628 213e
00000020: e652 50be ff15 5dbe 1db6 383e a653 8c3e
00000030: 8bbf 9e3d dc6b 42be 7833 b9bc be9c b7bb
00000040: a573 30bd dc34 273d 0449 01be 3160 44bd
00000050: deca 8d3e a511 d83d a1b0 3e3e 53db d7bd
00000060: c8f9 a23d 33cd f7bc 33d6 d73c 74d1 0bbd
00000070: 9e9f 903e d5f1 973d d8f8 55be e82f 1cbe
00000080: 863c 14be d6fe 173e 5051 d5bd 1677 33be
00000090: 38df 26be 08ab 803e 590b 513d 0aa3 7dbd
000000a0: f4b8 74be 2b67 3a3e 10e3 8fbd d5e5 ea3c
000000b0: 4f5e f43c 1cde 3cbe 6cdc fbbd 7010 ca3d
000000c0: 8a15 cdbd 82dd 6dbe 40b6 383e e3b7 f7bd
000000d0: 3de8 0f3e 443c 4e3e e278 053e d780 d8bd
000000e0: a4b9 9f3d a01c 303e 119c 3c3e 9697 9e3d
000000f0: 3cfe 71be 4d63 203e d00d 3ebe 130e 933d
00000100: c216 fe3d 1b62 b3bd ac5a 743e cf4a 25be
00000110: e6ca 0abd b101 88be 75c6 adbd c461 d43d
00000120: 7809 c93d 72ce 3b3e 0511 65be 1166 bd3c
00000130: e2c3 4abe 2c63 713e 1616 633d c85a 0a3e
00000140: eaef 1bbb f269 30be 9dc9 2e3e cf96 b43c
00000150: 3659 4c3e 1c53 02be 2870 4b3d 5177 8dbe
00000160: fe82 c43d 8785 563e 8e28 bd3b 817c 003d
00000170: fc6a 333e d84a 1a3e dc19 963e adb4 5a3e
00000180: 8e9b 2f3e c446 d63a 15ac 2a3d 9c92 a7bd
00000190: 3359 203e 4993 2ebd 95d7 2d3e 1362 8e3e
000001a0: 2193 0b3b 3f5d 013e 5128 a2bc e2d4 ecbb
000001b0: 5abc 603d 800f 06be 2fa2 9bbc 3818 9a3e
000001c0: 95d2 3c3e 4ef1 f8bc a958 52be 24f4 043e
000001d0: 3a0b 8dbd 69f8 e73d 5dae 43bd 5dc2 303e
000001e0: 0f96 96bd 58ac 48be 5739 85bc 2b42 593d
000001f0: e8e2 72be 8daf c5bc 783e 53bd 1dfd c3bd
00000200: ce9b 273d ff5d 693e 27f9 cdbd 4486 e4bd
00000210: fc75 343e b874 34be a837 163c 5102 803c
00000220: e5d8 243d dce1 413e 547e 51be 0f6f 18bc
00000230: 58e5 e73d cb57 4dbe f4ad 113b 663d df3d
00000240: eca9 96bd 5166 1bbe 9ab1 f43b 5199 223d
00000250: aa69 f7bd c3ce 1abe 426a ecbd aac2 593c
00000260: f589 0d3e abe5 4ebd d09d ab3e 8d5c 0a3d
00000270: 5aed 94bd d1c0 20be 2564 1b3c fafb 053e
00000280: bb0e 2a3e 0972 183d e23e 9bb9 c0ab 343c
00000290: aa97 d2bc 7b95 dfbd 9b8e be3d 2aa4 5abe
000002a0: ade9 683e 897b c2bd 74c6 6cbe e0a7 ac3d
000002b0: 0a4f 9ebc e4c0 4f3e 346d 25be 1db4 6c3d
000002c0: 9692 a13d 2eac 8cbe cd25 34bd c2bb 33be
000002d0: 52b7 83bc 14f4 58bc 9f80 33be 1509 c3bd
000002e0: 90b9 c33c b414 59bd c3f2 21be d01e aebd
000002f0: 55d0 0ebe 84d0 163e 2276 6dbe 94f7 9f3d
00000300: 99c2 56be 217f fe3d 05ae 383e 7777 d7bd
00000310: 541f f6bd a04b f6bd 99cd 503d 219f 113e
00000320: 00be 4c3d 69f9 453c acb0 e3bc a05f 7abd
00000330: fa3b c7bd 36c5 65bd f185 d03d f433 11be
00000340: e93f 713d cf5e 02be 0c85 e43d c69c a63d
00000350: b525 1cbe 7d9f 0c3e 8167 4bbe 4bae e7bd
00000360: 22c1 71bd c290 3abe 4b92 37bd 4a0e e8bd
00000370: ae0e 953d 8621 653a 63f9 a93d 86aa c63d
00000380: 75d1 4dbd 8511 6fbb 745f c43d f659 49be
00000390: 8b21 433e 00b8 983d 7092 043d 0140 753e
000003a0: 7daf 5abe 79f5 e2bd 971c 9d3e c673 0fbe
000003b0: bba9 89be 956d 363c 1475 693e 6506 173e
000003c0: 72d8 6d3c c5e8 633e 1e16 1bbe 57f7 25bd
000003d0: 8c02 a03d 67d8 dcbb 69cf 933c c1b4 4e3e
000003e0: 8fc5 133e 7148 3c3d bf52 edbd 5944 9e3e
000003f0: ea75 5e3e 574f 6b3c c89d 1dbe 76a8 dcbc

weight f4 [9, 256]
0.0003797569 0.01723581 0.010426571 0.006996591 0.0016743481 0.014532693 0.0045835883 -0.0120591
0.013434696 -0.0032625257 -0.0038988558 0.018869517 0.004216609 0.0022659597 -0.008830694 0.006673086
0.0019016187 0.00995095 -0.0009448864 -0.0057633827 -0.002142111 0.004163444 0.008155633 0.0047466448
0.0046241847 -0.006283254 0.006003919 -0.011238944 -0.0039429287 0.012385703 0.0005313731 -0.009917872
0.004678546 0.0035774622 -0.0030108583 0.005538838 -0.002329073 0.017030034 -0.001499243 0.0028532413
-0.01703582 0.019436901 -0.0018250933 0.008365205 0.003097759 -0.00064675044 -0.0006433492 0.008646568
0.0003989213 -0.0016419069 -0.017084336 -0.005595904 0.0153903905 -0.0065430077 -0.0050078994 0.010192666
-0.0026122131 -0.014629486 0.010692294 0.010473851 0.0061975843 -0.0031177152 -0.015337023 0.002885047
0.0048830365 0.004680389 -0.0027335715 0.020809157 0.01806528 0.00073598407 -0.0014740273 -0.008625568
0.0011077676 0.0036345923 0.0064254752 -0.0021065709 0.009656105 0.0051522655 0.0014905637 -0.007919828
-0.003608883 0.0055902433 0.013283315 0.00826172 -0.0034626166 0.013811718 -0.00031236792 -0.0011007704
-0.014966439 0.011439208 0.008088558 -0.0075128507 -0.0018371696 -0.0043493593 0.000494389 -0.0073125637
-0.017336233 -0.0061798277 0.014991257 0.0035651824 0.011877025 -0.004503902 0.009834463 -0.00508796
0.001604821 0.0058294814 0.0025626752 0.0010143529 -0.01757317 0.0075963726 0.003127484 0.0010621625
0.004514185 -0.000796672 0.0015794857 0.0036161907 -0.009049527 0.0006186119 -0.0050858874 0.0060414677
-0.0065801 -0.008470724 0.00055281015 0.0021946854 -0.0018049416 -0.005977694 0.0023976935 0.0022714322
0.0059296135 -0.0017264744 0.016893335 -0.007877096 -0.0037342827 0.008289025 0.015563693 -0.0044070664
0.0010395944 -0.0037093314 0.01638793 -0.0017058614 -0.0012116575 0.0004362507 -0.0006008893 0.0075785373
0.0021026782 -0.0030039758 -0.0034135368 0.003224857 0.0017507275 0.0038999452 -0.0029911506 0.001159299
0.015804898 -0.0012908021 0.0018146923 0.007213288 -0.008338134 -0.0055119395 0.0016046182 0.014105519
0.013292779 0.005088324 -0.002344974 0.005814504 -0.0031127564 -0.013847697 0.0012683914 0.0004914728
0.009434463 0.016111512 0.0033067185 0.0047112154 -0.014640287 0.0036775756 0.00068083394 0.0069403774
-0.0038849495 0.004607638 -0.005580184 0.012852464 0.010177375 -0.00020759835 0.0028257295 -0.008666735
0.002483887 0.0068006674 -0.010145418 0.007834815 -0.0019971377 -0.002814006 0.00016803818 0.0055379383
-0.008342056 -0.012727659 0.012505485 0.008586223 0.01599601 -0.012885083 0.010112078 0.008576466
0.013353161 -0.005748447 0.0021082112 -0.0033809252 -0.00046799352 0.0031691245 -0.00024025353 0.0040903683
0.0010365512 0.0047117104 -0.0017287597 0.0026706664 0.00040343447 -0.007964517 0.0051261913 0.008572235
0.0028354393 -0.006504168 -0.0028746603 0.009556459 -0.006010412 0.010273053 0.0029817745 0.0014186092
-0.009151585 2.6649388e-05 -0.0074347802 0.006076607 -0.00067578175 -0.0060121086 -0.008440325 -0.014926039
-0.007960269 0.00364918 0.0039593973 -0.00960309 0.001875554 -0.0046568685 0.009466861 0.004506105
-0.0010712012 0.0055669392 -0.0055512725 0.006529495 0.00013116954 -0.014627617 0.0027665086 0.017032985
0.0037594652 0.009409345 -0.008134106 -0.006731751 -0.006954364 -0.008219074 0.00021547699 0.0042162174
00000000: 1c1a c739 1d32 8d3c 35d4 2a3c a943 e53b
00000010: cd75 db3a 881a 6e3c ed31 963b 8893 45bc
00000020: 331d 5c3c 19d0 55bb f283 7fbb 3f94 9a3c
00000030: 7b2b 8a3b 7f80 143b 9dae 10bc e7a9 da3b
00000040: bc3f f93a 4f09 233c 41b2 77ba c2da bcbb
00000050: a962 0cbb 806d 883b 349f 053c be89 9b3b
00000060: 7986 973b c1e3 cdbb 86bc c43b 8c23 38bc
00000070: af33 81bb 67ed 4a3c d84b 0b3a 927e 22bc
00000080: 7d4e 993b db73 6a3b d251 45bb 247f b53b
00000090: 5ca3 18bb 9282 8b3c 3f82 c4ba 72fd 3a3b
000000a0: b48e 8bbc 233a 9f3c f837 efba 360e 093c
000000b0: c603 4b3b b08a 29ba 6fa6 28ba 56aa 0d3c
000000c0: 4f26 d139 4135 d7ba 73f4 8bbc d85d b7bb
000000d0: fa27 7c3c ba66 d6bb 4e19 a4bb 24ff 263c
000000e0: aa31 2bbb 83b0 6fbc bb2e 2f3c 849a 2b3c
000000f0: 1b15 cb3b 9552 4cbb 2348 7bbc 0f13 3d3b
00000100: e101 a03b f35d 993b b825 33bb f777 aa3c
00000110: a3fd 933c 0eef 403a 2634 c1ba 4152 0dbc
00000120: 8332 913a 5732 6e3b cb8c d23b 650e 0abb
00000130: a434 1e3c 56d4 a83b 055f c33a 2bc2 01bc
00000140: 0283 6cbb 5c2e b73b 43a2 593c 2a5c 073c
00000150: 11ed 62bb 8b4a 623c 50c5 a3b9 ba47 90ba
00000160: cc35 75bc 846b 3b3c df85 043c 5c2e f6bb
00000170: 2fcd f0ba 1285 8ebb e299 013a 3b9e efbb
00000180: b704 8ebc 2780 cabb e49d 753c d6a5 693b
00000190: da97 423c 7895 93bb ba20 213c e7b8 a6bb
000001a0: db58 d23a 3c05 bf3b 8ef2 273b 09f4 843a
000001b0: 9cf5 8fbc feea f83b 79f6 4c3b 4238 8b3a
000001c0: baeb 933b c1d7 50ba bf06 cf3a 9dfd 6c3b
000001d0: 7844 14bc 582a 223a 84a7 a6bb 81f7 c53b
000001e0: e19d d7bb cbc8 0abc 76ea 103a b6d4 0f3b
000001f0: ca93 ecba 88e0 c3bb 9f22 1d3b 4fdc 143b
00000200: 344d c23b de4a e2ba e463 8a3c ef0e 01bc
00000210: deba 74bb b1ce 073c dcfe 7e3c 2769 90bb
00000220: 0043 883a 4118 73bb fb3f 863c 3697 dfba
00000230: 7bd0 9eba 94b8 e439 0085 1dba 6155 f83b
00000240: 16cd 093b 5ade 44bb a5b5 5fbb 1f58 533b
00000250: ab78 e53a 3996 7f3b 2e07 44bb 9ff3 973a
00000260: 4679 813c 2230 a9ba f8da ed3a 725d ec3b
00000270: ab9c 08bc 809d b4bb 0d52 d23a d61a 673c
00000280: f5c9 593c f5bb a63b 23ae 19bb 9887 be3b
00000290: 63ff 4bbb 73e1 62bc 2740 a63a 2ed6 003a
000002a0: 0293 1a3c 4afc 833c 88b5 583b 8a60 9a3b
000002b0: d0dd 6fbc 7b03 713b fe79 323a 1b6c e33b
000002c0: a39a 7ebb abfb 963b fad9 b6bb 2493 523c
000002d0: 01bf 263c c2ae 59b9 e02f 393b ecfe 0dbc
000002e0: b5c8 223b 22d8 de3b f838 26bc 995d 003c
000002f0: 69e2 02bb 306b 38bb 6833 3039 9877 b53b
00000300: 1ead 08bc ac87 50bc cee3 4c3c 3bad 0c3c
00000310: 100a 833c f51b 53bc 21ad 253c 4e84 0c3c
00000320: 37c7 5a3c 785d bcbb ea29 0a3b 8392 5dbb
00000330: 075d f5b9 16b1 4f3b 91ec 7bb9 7f08 863b
00000340: e3dc 873a b164 9a3b 8d97 e2ba 5906 2f3b
00000350: 0f84 d339 9b7d 02bc 9cf9 a73b 8f72 0c3c
00000360: c7d2 393b ea20 d5bb cc64 3cbb b292 1c3c
00000370: fdf2 c4bb 4f50 283c e069 433b a0f0 b93a
00000380: 88f0 15bc 208d df37 759f f3bb 461e c73b
00000390: f226 31ba 3901 c5bb 4a49 0abc 588c 74bc
000003a0: ca6b 02bc 1527 6f3b d5bd 813b 4756 1dbc
000003b0: 26d5 f53a a598 98bb e51a 1b3c f3a7 933b
000003c0: 8c67 8cba df6a b63b 73e7 b5bb 60f5 d53b
000003d0: 8e8a 0939 aca8 6fbc 504e 353b c288 8b3c
000003e0: 5c61 763b a729 1a3c ea44 05bc 0596 dcbb
000003f0: 6fe1 e3bb 4ca9 06bc aaf1 6139 3228 8a3b

bias f4 [9]
0.03886662 0.28699973 -0.1273592 -0.41922113 -0.059886903 -0.259677 -0.09105297 0.10162501
-0.15642703
00000000: 9b32 1f3d a1f1 923e 736a 02be 27a4 d6be
00000010: f84b 75bd 62f4 84be fb79 babd c620 d03d
00000020: 682e 20be

exp_avg f4 [256, 18]
0.0 4.3942542e-05 -0.0002636553 4.3942542e-05 0.0 0.0 0.0 2.6365527e-05
4.3942542e-05 0.0 -4.3942542e-05 0.0002636553 4.3942542e-05 0.0 0.0 0.0
2.6365527e-05 4.3942542e-05 0.0 -1.0725705e-05 6.435429e-05 -1.0725705e-05 0.0 0.0
0.0 -6.4354153e-06 -1.0725705e-05 0.0 1.0725705e-05 -6.435429e-05 -1.0725705e-05 0.0
0.0 0.0 -6.4354153e-06 -1.0725705e-05 0.0 5.8507485e-06 -3.5104506e-05 5.8507485e-06
0.0 0.0 0.0 3.5104504e-06 5.8507485e-06 0.0 -5.8507485e-06 3.5104506e-05
5.8507485e-06 0.0 0.0 0.0 3.5104504e-06 5.8507485e-06 0.0 -5.2634972e-05
0.00031580974 -5.2634972e-05 0.0 0.0 0.0 -3.1580978e-05 -5.2634972e-05 0.0
5.2634972e-05 -0.00031580974 -5.2634972e-05 0.0 0.0 0.0 -3.1580978e-05 -5.2634972e-05
0.0 1.176452e-06 -7.058644e-06 1.176452e-06 0.0 0.0 0.0 7.058643e-07
1.176452e-06 0.0 -1.176452e-06 7.058644e-06 1.176452e-06 0.0 0.0 0.0
7.058643e-07 1.176452e-06 0.0 2.8610352e-06 -1.7166216e-05 2.8610352e-06 0.0 0.0
0.0 1.7166226e-06 2.8610352e-06 0.0 -2.8610352e-06 1.7166216e-05 2.8610352e-06 0.0
0.0 0.0 1.7166226e-06 2.8610352e-06 0.0 -4.5361936e-05 0.0002721716 -4.5361936e-05
0.0 0.0 0.0 -2.721717e-05 -4.5361936e-05 0.0 4.5361936e-05 -0.0002721716
-4.5361936e-05 0.0 0.0 0.0 -2.721717e-05 -4.5361936e-05 0.0 -1.7363138e-05
0.00010417878 -1.7363138e-05 0.0 0.0 0.0 -1.0417882e-05 -1.7363138e-05 0.0
1.7363138e-05 -0.00010417878 -1.7363138e-05 0.0 0.0 0.0 -1.0417882e-05 -1.7363138e-05
0.0 2.5273992e-05 -0.00015164391 2.5273992e-05 0.0 0.0 0.0 1.51644035e-05
2.5273992e-05 0.0 -2.5273992e-05 0.00015164391 2.5273992e-05 0.0 0.0 0.0
1.51644035e-05 2.5273992e-05 0.0 -3.06222e-05 0.00018373328 -3.06222e-05 0.0 0.0
0.0 -1.8373323e-05 -3.06222e-05 0.0 3.06222e-05 -0.00018373328 -3.06222e-05 0.0
0.0 0.0 -1.8373323e-05 -3.06222e-05 0.0 -3.888608e-05 0.00023331656 -3.888608e-05
0.0 0.0 0.0 -2.3331657e-05 -3.888608e-05 0.0 3.888608e-05 -0.00023331656
-3.888608e-05 0.0 0.0 0.0 -2.3331657e-05 -3.888608e-05 0.0 2.783921e-05
-0.0001670353 2.783921e-05 0.0 0.0 0.0 1.6703527e-05 2.783921e-05 0.0
-2.783921e-05 0.0001670353 2.783921e-05 0.0 0.0 0.0 1.6703527e-05 2.783921e-05
0.0 2.0120136e-05 -0.000120720855 2.0120136e-05 0.0 0.0 0.0 1.2072083e-05
2.0120136e-05 0.0 -2.0120136e-05 0.000120720855 2.0120136e-05 0.0 0.0 0.0
1.2072083e-05 2.0120136e-05 0.0 -2.7126242e-05 0.00016275741 -2.7126242e-05 0.0 0.0
0.0 -1.627574e-05 -2.7126242e-05 0.0 2.7126242e-05 -0.00016275741 -2.7126242e-05 0.0
0.0 0.0 -1.627574e-05 -2.7126242e-05 0.0 4.720596e-05 -0.00028323577 4.720596e-05
00000000: 0000 0000 f24e 3838 373b 8ab9 f24e 3838
00000010: 0000 0000 0000 0000 0000 0000 8a2b dd37
00000020: f24e 3838 0000 0000 f24e 38b8 373b 8a39
00000030: f24e 3838 0000 0000 0000 0000 0000 0000
00000040: 8a2b dd37 f24e 3838 0000 0000 8df2 33b7
00000050: f2f5 8638 8df2 33b7 0000 0000 0000 0000
00000060: 0000 0000 ccef d7b6 8df2 33b7 0000 0000
00000070: 8df2 3337 f2f5 86b8 8df2 33b7 0000 0000
00000080: 0000 0000 0000 0000 ccef d7b6 8df2 33b7
00000090: 0000 0000 8c51 c436 2d3d 13b8 8c51 c436
000000a0: 0000 0000 0000 0000 0000 0000 1495 6b36
000000b0: 8c51 c436 0000 0000 8c51 c4b6 2d3d 1338
000000c0: 8c51 c436 0000 0000 0000 0000 0000 0000
000000d0: 1495 6b36 8c51 c436 0000 0000 5fc4 5cb8
000000e0: 4493 a539 5fc4 5cb8 0000 0000 0000 0000
000000f0: 0000 0000 d175 04b8 5fc4 5cb8 0000 0000
00000100: 5fc4 5c38 4493 a5b9 5fc4 5cb8 0000 0000
00000110: 0000 0000 0000 0000 d175 04b8 5fc4 5cb8
00000120: 0000 0000 95e6 9d35 4ad9 ecb6 95e6 9d35
00000130: 0000 0000 0000 0000 0000 0000 a07a 3d35
00000140: 95e6 9d35 0000 0000 95e6 9db5 4ad9 ec36
00000150: 95e6 9d35 0000 0000 0000 0000 0000 0000
00000160: a07a 3d35 95e6 9d35 0000 0000 3600 4036
00000170: 2b00 90b7 3600 4036 0000 0000 0000 0000
00000180: 0000 0000 b466 e635 3600 4036 0000 0000
00000190: 3600 40b6 2b00 9037 3600 4036 0000 0000
000001a0: 0000 0000 0000 0000 b466 e635 3600 4036
000001b0: 0000 0000 0243 3eb8 41b2 8e39 0243 3eb8
000001c0: 0000 0000 0000 0000 0000 0000 6d50 e4b7
000001d0: 0243 3eb8 0000 0000 0243 3e38 41b2 8eb9
000001e0: 0243 3eb8 0000 0000 0000 0000 0000 0000
000001f0: 6d50 e4b7 0243 3eb8 0000 0000 0ea7 91b7
00000200: 8e7a da38 0ea7 91b7 0000 0000 0000 0000
00000210: 0000 0000 76c8 2eb7 0ea7 91b7 0000 0000
00000220: 0ea7 9137 8e7a dab8 0ea7 91b7 0000 0000
00000230: 0000 0000 0000 0000 76c8 2eb7 0ea7 91b7
00000240: 0000 0000 7c03 d437 9a02 1fb9 7c03 d437
00000250: 0000 0000 0000 0000 0000 0000 9e6a 7e37
00000260: 7c03 d437 0000 0000 7c03 d4b7 9a02 1f39
00000270: 7c03 d437 0000 0000 0000 0000 0000 0000
00000280: 9e6a 7e37 7c03 d437 0000 0000 5670 00b8
00000290: 87a8 4039 5670 00b8 0000 0000 0000 0000
000002a0: 0000 0000 6920 9ab7 5670 00b8 0000 0000
000002b0: 5670 0038 87a8 40b9 5670 00b8 0000 0000
000002c0: 0000 0000 0000 0000 6920 9ab7 5670 00b8
000002d0: 0000 0000 9c19 23b8 70a6 7439 9c19 23b8
000002e0: 0000 0000 0000 0000 0000 0000 5ab8 c3b7
000002f0: 9c19 23b8 0000 0000 9c19 2338 70a6 74b9
00000300: 9c19 23b8 0000 0000 0000 0000 0000 0000
00000310: 5ab8 c3b7 9c19 23b8 0000 0000 4088 e937
00000320: 3226 2fb9 4088 e937 0000 0000 0000 0000
00000330: 0000 0000 8d1e 8c37 4088 e937 0000 0000
00000340: 4088 e9b7 3226 2f39 4088 e937 0000 0000
00000350: 0000 0000 0000 0000 8d1e 8c37 4088 e937
00000360: 0000 0000 aac7 a837 842b fdb8 aac7 a837
00000370: 0000 0000 0000 0000 0000 0000 3489 4a37
00000380: aac7 a837 0000 0000 aac7 a8b7 842b fd38
00000390: aac7 a837 0000 0000 0000 0000 0000 0000
000003a0: 3489 4a37 aac7 a837 0000 0000 298d e3b7
000003b0: dca9 2a39 298d e3b7 0000 0000 0000 0000
000003c0: 0000 0000 e387 88b7 298d e3b7 0000 0000
000003d0: 298d e337 dca9 2ab9 298d e3b7 0000 0000
000003e0: 0000 0000 0000 0000 e387 88b7 298d e3b7
000003f0: 0000 0000 03ff 4538 437f 94b9 03ff 4538

exp_avg_sq f4 [256, 18]
0.0 2.3080217e-08 8.308873e-07 2.3080217e-08 0.0 0.0 0.0 8.308868e-09
2.3080217e-08 0.0 2.3080217e-08 8.308873e-07 2.3080217e-08 0.0 0.0 0.0
8.308868e-09 2.3080217e-08 0.0 2.152998e-08 7.75079e-07 2.152998e-08 0.0 0.0
0.0 7.750802e-09 2.152998e-08 0.0 2.152998e-08 7.75079e-07 2.152998e-08 0.0
0.0 0.0 7.750802e-09 2.152998e-08 0.0 2.2816382e-08 8.213892e-07 2.2816382e-08
0.0 0.0 0.0 8.213901e-09 2.2816382e-08 0.0 2.2816382e-08 8.213892e-07
2.2816382e-08 0.0 0.0 0.0 8.213901e-09 2.2816382e-08 0.0 2.4491703e-08
8.81703e-07 2.4491703e-08 0.0 0.0 0.0 8.81704e-09 2.4491703e-08 0.0
2.4491703e-08 8.81703e-07 2.4491703e-08 0.0 0.0 0.0 8.81704e-09 2.4491703e-08
0.0 1.3907423e-08 5.006669e-07 1.3907423e-08 0.0 0.0 0.0 5.006671e-09
1.3907423e-08 0.0 1.3907423e-08 5.006669e-07 1.3907423e-08 0.0 0.0 0.0
5.006671e-09 1.3907423e-08 0.0 2.3752355e-08 8.5508333e-07 2.3752355e-08 0.0 0.0
0.0 8.550855e-09 2.3752355e-08 0.0 2.3752355e-08 8.5508333e-07 2.3752355e-08 0.0
0.0 0.0 8.550855e-09 2.3752355e-08 0.0 2.0615715e-08 7.421662e-07 2.0615715e-08
0.0 0.0 0.0 7.421658e-09 2.0615715e-08 0.0 2.0615715e-08 7.421662e-07
2.0615715e-08 0.0 0.0 0.0 7.421658e-09 2.0615715e-08 0.0 2.1540139e-08
7.754457e-07 2.1540139e-08 0.0 0.0 0.0 7.75446e-09 2.1540139e-08 0.0
2.1540139e-08 7.754457e-07 2.1540139e-08 0.0 0.0 0.0 7.75446e-09 2.1540139e-08
0.0 2.0957794e-08 7.544794e-07 2.0957794e-08 0.0 0.0 0.0 7.54479e-09
2.0957794e-08 0.0 2.0957794e-08 7.544794e-07 2.0957794e-08 0.0 0.0 0.0
7.54479e-09 2.0957794e-08 0.0 2.4504033e-08 8.8214534e-07 2.4504033e-08 0.0 0.0
0.0 8.821451e-09 2.4504033e-08 0.0 2.4504033e-08 8.8214534e-07 2.4504033e-08 0.0
0.0 0.0 8.821451e-09 2.4504033e-08 0.0 1.2494694e-08 4.4980897e-07 1.2494694e-08
0.0 0.0 0.0 4.498096e-09 1.2494694e-08 0.0 1.2494694e-08 4.4980897e-07
1.2494694e-08 0.0 0.0 0.0 4.498096e-09 1.2494694e-08 0.0 2.8840434e-08
1.0382543e-06 2.8840434e-08 0.0 0.0 0.0 1.0382578e-08 2.8840434e-08 0.0
2.8840434e-08 1.0382543e-06 2.8840434e-08 0.0 0.0 0.0 1.0382578e-08 2.8840434e-08
0.0 2.0612893e-08 7.4206446e-07 2.0612893e-08 0.0 0.0 0.0 7.420647e-09
2.0612893e-08 0.0 2.0612893e-08 7.4206446e-07 2.0612893e-08 0.0 0.0 0.0
7.420647e-09 2.0612893e-08 0.0 1.2412408e-08 4.4684612e-07 1.2412408e-08 0.0 0.0
0.0 4.4684683e-09 1.2412408e-08 0.0 1.2412408e-08 4.4684612e-07 1.2412408e-08 0.0
0.0 0.0 4.4684683e-09 1.2412408e-08 0.0 1.90281e-08 6.850107e-07 1.90281e-08
00000000: 0000 0000 ef41 c632 240a 5f35 ef41 c632
00000010: 0000 0000 0000 0000 0000 0000 cabe 0e32
00000020: ef41 c632 0000 0000 ef41 c632 240a 5f35
00000030: ef41 c632 0000 0000 0000 0000 0000 0000
00000040: cabe 0e32 ef41 c632 0000 0000 edf0 b832
00000050: 060f 5035 edf0 b832 0000 0000 0000 0000
00000060: 0000 0000 6328 0532 edf0 b832 0000 0000
00000070: edf0 b832 060f 5035 edf0 b832 0000 0000
00000080: 0000 0000 0000 0000 6328 0532 edf0 b832
00000090: 0000 0000 c1fd c332 707d 5c35 c1fd c332
000000a0: 0000 0000 0000 0000 0000 0000 1e1d 0d32
000000b0: c1fd c332 0000 0000 c1fd c332 707d 5c35
000000c0: c1fd c332 0000 0000 0000 0000 0000 0000
000000d0: 1e1d 0d32 c1fd c332 0000 0000 d361 d232
000000e0: 2bae 6c35 d361 d232 0000 0000 0000 0000
000000f0: 0000 0000 c179 1732 d361 d232 0000 0000
00000100: d361 d232 2bae 6c35 d361 d232 0000 0000
00000110: 0000 0000 0000 0000 c179 1732 d361 d232
00000120: 0000 0000 7eed 6e32 9165 0635 7eed 6e32
00000130: 0000 0000 0000 0000 0000 0000 2507 ac31
00000140: 7eed 6e32 0000 0000 7eed 6e32 9165 0635
00000150: 7eed 6e32 0000 0000 0000 0000 0000 0000
00000160: 2507 ac31 7eed 6e32 0000 0000 fb07 cc32
00000170: e188 6535 fb07 cc32 0000 0000 0000 0000
00000180: 0000 0000 0fe7 1232 fb07 cc32 0000 0000
00000190: fb07 cc32 e188 6535 fb07 cc32 0000 0000
000001a0: 0000 0000 0000 0000 0fe7 1232 fb07 cc32
000001b0: 0000 0000 7016 b132 4639 4735 7016 b132
000001c0: 0000 0000 0000 0000 0000 0000 9801 ff31
000001d0: 7016 b132 0000 0000 7016 b132 4639 4735
000001e0: 7016 b132 0000 0000 0000 0000 0000 0000
000001f0: 9801 ff31 7016 b132 0000 0000 4407 b932
00000200: 3928 5035 4407 b932 0000 0000 0000 0000
00000210: 0000 0000 7a38 0532 4407 b932 0000 0000
00000220: 4407 b932 3928 5035 4407 b932 0000 0000
00000230: 0000 0000 0000 0000 7a38 0532 4407 b932
00000240: 0000 0000 ad06 b432 6e87 4a35 ad06 b432
00000250: 0000 0000 0000 0000 0000 0000 569e 0132
00000260: ad06 b432 0000 0000 ad06 b432 6e87 4a35
00000270: ad06 b432 0000 0000 0000 0000 0000 0000
00000280: 569e 0132 ad06 b432 0000 0000 f07c d232
00000290: 91cc 6c35 f07c d232 0000 0000 0000 0000
000002a0: 0000 0000 278d 1732 f07c d232 0000 0000
000002b0: f07c d232 91cc 6c35 f07c d232 0000 0000
000002c0: 0000 0000 0000 0000 278d 1732 f07c d232
000002d0: 0000 0000 3fa8 5632 467d f134 3fa8 5632
000002e0: 0000 0000 0000 0000 0000 0000 ac8d 9a31
000002f0: 3fa8 5632 0000 0000 3fa8 5632 467d f134
00000300: 3fa8 5632 0000 0000 0000 0000 0000 0000
00000310: ac8d 9a31 3fa8 5632 0000 0000 c9bc f732
00000320: 255a 8b35 c9bc f732 0000 0000 0000 0000
00000330: 0000 0000 105f 3232 c9bc f732 0000 0000
00000340: c9bc f732 255a 8b35 c9bc f732 0000 0000
00000350: 0000 0000 0000 0000 105f 3232 c9bc f732
00000360: 0000 0000 3b10 b132 4832 4735 3b10 b132
00000370: 0000 0000 0000 0000 0000 0000 b4f8 fe31
00000380: 3b10 b132 0000 0000 3b10 b132 4832 4735
00000390: 3b10 b132 0000 0000 0000 0000 0000 0000
000003a0: b4f8 fe31 3b10 b132 0000 0000 593e 5532
000003b0: 10e6 ef34 593e 5532 0000 0000 0000 0000
000003c0: 0000 0000 1089 9931 593e 5532 0000 0000
000003d0: 593e 5532 10e6 ef34 593e 5532 0000 0000
000003e0: 0000 0000 0000 0000 1089 9931 593e 5532
000003f0: 0000 0000 3c73 a332 94e1 3735 3c73 a332

exp_avg f4 [256]
4.3942546e-05 -1.0725708e-05 5.85075e-06 -5.263497e-05 1.1764481e-06 2.8610348e-06 -4.5361954e-05 -1.7363129e-05
2.5273997e-05 -3.06222e-05 -3.888609e-05 2.7839218e-05 2.0120138e-05 -2.7126238e-05 4.7205984e-05 4.7332298e-05
-7.2560642e-06 1.0096109e-05 2.7958637e-05 -3.626558e-05 5.00727e-05 -9.063446e-06 2.0753685e-05 4.3403244e-05
-3.479134e-05 8.0214995e-06 4.0229148e-05 -3.1192594e-05 -2.094162e-05 -7.760325e-06 -4.0711806e-05 2.9865652e-05
-1.6671034e-05 2.3399843e-07 7.2756575e-07 3.4031855e-06 3.3403638e-05 -1.0546761e-05 -6.0784355e-06 -1.7368997e-05
-3.2014686e-06 1.4550595e-05 1.4247186e-05 2.885356e-05 3.2156666e-05 -2.2897138e-05 -2.1400536e-05 -1.183798e-05
1.7603834e-05 -4.633077e-06 1.9404624e-05 3.6601305e-05 -4.1018706e-05 -7.2137937e-07 -1.5214657e-05 9.463751e-06
5.691089e-05 4.1073754e-06 3.9570905e-06 1.6054655e-05 -2.0006682e-05 3.4790974e-05 -1.2380968e-05 -8.781252e-06
-4.7555415e-05 2.3026285e-05 2.6883687e-05 3.011929e-05 -3.9561644e-05 2.7447517e-05 -3.6677207e-05 3.9154824e-05
-7.5994494e-06 3.086091e-06 2.003747e-05 2.7317175e-05 5.724457e-06 4.7638965e-05 5.409374e-05 -1.8133254e-05
5.0755443e-07 1.0670716e-05 3.7672256e-05 1.0265439e-05 -1.4215148e-05 2.8020604e-05 -9.946916e-06 1.556206e-05
2.5420373e-05 -1.8365392e-05 -4.4663975e-05 5.7205572e-05 4.370941e-05 4.3830787e-06 3.427278e-05 -2.0198038e-05
1.4024939e-05 -2.6849379e-05 5.0390036e-06 -1.809391e-05 -2.72178e-05 2.651136e-07 6.8079994e-06 3.21813e-05
3.7898164e-05 1.2625581e-05 -2.6230751e-05 3.379307e-05 -6.698162e-06 -4.5833012e-06 -7.3999527e-06 -1.1924882e-05
-2.406052e-05 3.843292e-05 5.1672512e-05 -6.990668e-06 2.3180062e-05 -4.182002e-06 -4.0709283e-06 6.462805e-06
1.1963111e-06 -1.9489613e-05 -1.5530739e-05 -1.0645463e-05 3.0108513e-05 -9.652727e-06 3.391247e-05 -4.72626e-05
-1.0344027e-05 1.2267916e-05 1.3579799e-05 -1.0678365e-05 2.666778e-05 -5.2265994e-05 2.8747227e-06 1.431439e-05
-2.5744089e-06 4.8769973e-05 -9.797821e-06 2.0012672e-05 9.177275e-06 2.311184e-05 -5.3242115e-05 1.8871772e-06
2.8756462e-05 1.1961113e-05 -8.504286e-06 2.0268126e-05 -4.9049573e-05 -2.7776154e-05 -1.3876135e-05 -8.773582e-06
3.5815483e-05 -3.5065905e-06 3.7450754e-05 -3.0375639e-05 6.200581e-05 5.067208e-06 3.7010475e-05 3.5459652e-05
-4.678996e-05 -1.6464735e-05 1.247535e-05 3.0429585e-05 -6.234495e-07 -1.24320995e-05 4.223517e-06 -5.636055e-06
-4.5904002e-05 4.26648e-06 1.8885872e-05 -6.259633e-05 -2.2830165e-05 -2.2260869e-05 4.3087775e-06 2.1235177e-05
2.61823e-05 -3.0060068e-05 1.211925e-05 -1.2767616e-05 2.656065e-05 -1.9769746e-05 1.372717e-05 2.5054185e-05
-6.7267474e-06 -7.962358e-06 -1.20986315e-05 3.2269378e-05 3.4288023e-06 -2.1503298e-05 -1.903808e-05 -1.5010282e-05
5.1601422e-05 -9.938658e-06 3.5202534e-05 -5.118445e-07 -7.856416e-06 -6.0913826e-06 3.0605937e-05 2.7631624e-05
-1.7815222e-05 4.3190103e-05 1.9853755e-05 1.6370363e-05 -6.4465867e-06 -1.7463572e-07 4.5173798e-05 -5.168021e-05
1.3426679e-05 -3.297427e-05 1.44773585e-05 -5.677549e-06 -2.758675e-05 -2.1834567e-05 1.6445689e-05 3.3326556e-05
-1.983818e-05 -1.5712663e-05 -1.6584809e-05 -2.6446643e-05 6.7804413e-06 2.5813257e-05 2.7613964e-06 -3.8053036e-05
3.525568e-05 -1.0607254e-05 1.5162065e-05 -5.5868986e-07 5.304464e-06 -3.1246258e-05 1.01098985e-05 -7.2315206e-06
6.6843004e-06 -9.416545e-06 3.29344e-05 2.1273336e-05 -3.869318e-07 6.858184e-06 -8.158844e-06 -6.2780215e-05
5.821177e-05 -2.9267956e-05 2.0642652e-05 2.4371884e-06 2.8230017e-05 -3.147172e-05 1.9647592e-05 2.4830217e-05
-2.2697124e-05 -9.033861e-06 7.0512135e-07 -1.9055486e-05 2.4786365e-05 5.9112892e-05 2.0338477e-05 1.3140309e-05
00000000: f34e 3838 91f2 33b7 8f51 c436 5ec4 5cb8
00000010: 73e6 9d35 3400 4036 0743 3eb8 09a7 91b7
00000020: 7f03 d437 5670 00b8 9f19 23b8 4488 e937
00000030: abc7 a837 278d e3b7 0aff 4538 ab86 4638
00000040: 1e79 f3b6 7562 2937 b788 ea37 df1b 18b8
00000050: 2705 5238 340f 18b7 3318 ae37 e10b 3638
00000060: ebec 11b8 1494 0637 b8bb 2838 cbd4 02b8
00000070: c9ab afb7 5832 02b7 f8c1 2ab8 0088 fa37
00000080: c6d8 8bb7 0041 7b34 f04d 4335 4862 6436
00000090: e21a 0c38 fef1 30b7 5df5 cbb6 a3b3 91b7
000000a0: d0d8 56b6 541e 7437 3307 6f37 8c0a f237
000000b0: f5df 0638 3b13 c0b7 4d85 b3b7 bd9b 46b7
000000c0: f2ab 9337 d475 9bb6 1dc7 a237 5a84 1938
000000d0: 800b 2cb8 d0a4 41b5 7442 7fb7 80c6 1e37
000000e0: 9ab3 6e38 16d2 8936 26c7 8436 1cad 8637
000000f0: 06d4 a7b7 86ec 1138 dab7 4fb7 3153 13b7
00000100: 3d76 47b8 9228 c137 4784 e137 afa8 fc37
00000110: feee 25b8 183f e637 dad5 19b8 2c3a 2438
00000120: c6fe feb6 a41a 4f36 2416 a837 3027 e537
00000130: b614 c036 f3cf 4738 b6e2 6238 de1c 98b7
00000140: e03e 0835 6006 3337 4702 1e38 ba39 2c37
00000150: 997d 6eb7 ca0d eb37 aee1 26b7 458b 8237
00000160: d63d d537 610f 9ab7 9455 3bb8 04f0 6f38
00000170: 9f54 3738 5c12 9336 1ec0 0f38 f56e a9b7
00000180: a84c 6b37 9a3a e1b7 b614 a936 60c8 97b7
00000190: c851 e4b7 f054 8e34 4570 e436 68fa 0638
000001a0: d8f4 1e38 75d2 5337 1c0a dcb7 08bd 0d38
000001b0: c6c0 e0b6 42ca 99b6 1c4d f8b6 fa10 48b7
000001c0: 93d5 c9b7 0933 2138 f0ba 5838 6291 eab6
000001d0: ce72 c237 2053 8cb6 0299 88b6 12db d836
000001e0: f090 a035 a07d a3b7 0248 82b7 ea99 32b7
000001f0: 8a91 fc37 26f2 21b7 3d3d 0e38 d53b 46b8
00000200: 428b 2db7 4cd2 4d37 cbd4 6337 3a27 33b7
00000210: 9fb4 df37 2f38 5bb8 5ceb 4036 d627 7037
00000220: 02c4 2cb6 5c8e 4c38 5261 24b7 e3e0 a737
00000230: 19f8 1937 4ce0 c137 4950 5fb8 ea4a fd35
00000240: 083a f137 97ac 4837 a1ad 0eb7 7805 aa37
00000250: 94ba 4db8 d600 e9b7 8ccd 68b7 3f32 13b7
00000260: 9538 1638 c452 6bb6 7114 1d38 30cf feb7
00000270: 1e09 8238 fc06 aa36 b23b 1b38 83ba 1438
00000280: 5640 44b8 c01d 8ab7 384d 5137 0943 ff37
00000290: 205b 27b5 7693 50b7 bcb7 8d36 581d bdb6
000002a0: 0c89 40b8 c928 8f36 1a6d 9e37 2646 83b8
000002b0: 6883 bfb7 dabc bab7 1e94 9036 3222 b237
000002c0: 10a2 db37 8129 fcb7 c853 4b37 7e34 56b7
000002d0: 90ce de37 35d7 a5b7 bf4d 6637 742b d237
000002e0: 52b6 e1b6 1196 05b7 3afb 4ab7 fb58 0738
000002f0: 601a 6636 fb61 b4b7 f7b3 9fb7 acd4 7bb7
00000300: 9b6e 5838 36be 26b7 6fa6 1338 b065 09b5
00000310: 0dcf 03b7 9464 ccb6 e05e 0038 76ca e737
00000320: e671 95b7 0527 3538 9d8b a637 1653 8937
00000330: c24f d8b6 8083 3bb4 ff78 3d38 34c3 58b8
00000340: 2643 6137 da4d 0ab8 c8e3 7237 c681 beb6
00000350: 186a e7b7 6029 b7b7 d9f4 8937 1ec8 0b38
00000360: 2b6a a6b7 b0ce 83b7 9b1f 8bb7 bcd9 ddb7
00000370: 8c83 e336 8c89 d837 6e50 3936 239b 1fb8
00000380: 80df 1338 cff5 31b7 9360 7e37 e0f8 15b5
00000390: 00fd b136 6a0e 03b8 af9d 2937 4aa6 f2b6
000003a0: b449 e036 c1fb 1db7 0b23 0a38 2474 b237
000003b0: 80bb cfb4 5a1f e636 f8e1 08b7 dfa8 83b8
000003c0: 6928 7438 7584 f5b7 c229 ad37 948e 2336
000003d0: 80cf ec37 8100 04b8 e2d0 a437 7c4a d037
000003e0: b465 beb7 2390 17b7 9247 3d35 58d9 9fb7
000003f0: 50ec cf37 fcef 7738 8c9c aa37 3375 5c37

exp_avg_sq f4 [256]
2.3080217e-08 2.152998e-08 2.2816382e-08 2.449171e-08 1.3907423e-08 2.3752355e-08 2.0615717e-08 2.1540135e-08
2.0957788e-08 2.4504033e-08 1.24946915e-08 2.8840434e-08 2.061289e-08 1.2412409e-08 1.9028098e-08 2.5811518e-08
1.606972e-08 1.7654823e-08 2.0734646e-08 1.5964195e-08 2.4547257e-08 1.8685373e-08 2.2579547e-08 3.216751e-08
1.7584975e-08 2.0229402e-08 2.7574249e-08 1.5677735e-08 2.0085688e-08 2.267358e-08 1.431344e-08 1.7787317e-08
1.8550015e-08 2.0021306e-08 1.8156847e-08 1.47564725e-08 1.9120412e-08 2.1032298e-08 2.2958787e-08 1.9207327e-08
2.360578e-08 2.6403033e-08 1.8640982e-08 1.4407649e-08 2.1869345e-08 1.5698614e-08 2.1659645e-08 2.101295e-08
2.203284e-08 2.3455138e-08 2.231657e-08 1.559517e-08 1.8359767e-08 1.7688276e-08 2.230981e-08 2.4067111e-08
1.4444845e-08 1.7659866e-08 1.939258e-08 2.8536684e-08 1.6852423e-08 2.1012216e-08 2.1382974e-08 1.897603e-08
2.1263308e-08 3.2793324e-08 1.827684e-08 4.1093546e-08 6.973573e-08 1.6700985e-08 2.3496096e-08 1.8331825e-08
2.2088047e-08 2.3761704e-08 2.1804743e-08 1.9400483e-08 2.4310616e-08 1.8524883e-08 2.5267651e-08 2.024037e-08
1.7575545e-08 1.6138054e-08 2.8677269e-08 2.2355014e-08 1.725762e-08 2.3645262e-08 2.0050338e-08 1.745973e-08
1.8916845e-08 1.3569799e-08 2.4465102e-08 1.38007366e-08 1.6400081e-08 2.2711577e-08 1.7982936e-08 2.2500766e-08
2.2507542e-08 2.3699103e-08 2.3032213e-08 1.4114042e-08 2.5906749e-08 1.4761937e-08 1.4134841e-08 1.9858893e-08
2.4501583e-08 2.0707654e-08 3.04376e-08 1.2884926e-08 2.3150605e-08 1.769377e-08 1.7737563e-08 2.238438e-08
1.8711932e-08 2.1657318e-08 2.4522313e-08 2.1037451e-08 1.7111894e-08 2.2404784e-08 2.1206619e-08 2.3135259e-08
1.383607e-08 2.1447754e-08 2.3543778e-08 1.4228671e-08 2.182372e-08 1.2764067e-08 2.2622077e-08 1.431749e-08
1.6291898e-08 1.9165034e-08 2.5098204e-08 1.7422266e-08 1.7577685e-08 1.9251093e-08 2.0496422e-08 1.8158673e-08
1.383025e-08 2.1800275e-08 2.0508718e-08 1.7484995e-08 1.6155555e-08 1.7226343e-08 1.4051917e-08 1.6392622e-08
1.2741092e-08 1.9759822e-08 2.3944473e-08 2.0604359e-08 1.959441e-08 1.8218795e-08 1.2613356e-08 2.4038245e-08
2.8830472e-08 1.2701412e-08 1.3179021e-08 1.8199291e-08 1.6754923e-08 1.5335674e-08 2.2432934e-08 2.7238015e-08
2.0329196e-08 1.719999e-08 1.6734466e-08 2.0267697e-08 2.3764333e-08 2.1286084e-08 2.023728e-08 2.345662e-08
1.7844927e-08 2.4631627e-08 1.9912004e-08 1.46759875e-08 1.7472507e-08 1.7959776e-08 1.5983675e-08 2.017582e-08
1.7387121e-08 2.130535e-08 1.9731942e-08 2.0744489e-08 1.7532615e-08 1.7570741e-08 1.8407421e-08 1.7389462e-08
1.4841782e-08 1.853085e-08 2.1204118e-08 2.1355921e-08 2.5285438e-08 2.3565395e-08 1.8890539e-08 1.8510542e-08
1.9226917e-08 2.2397007e-08 2.5181855e-08 2.3393467e-08 2.4932438e-08 1.9824183e-08 1.4535517e-08 2.1961762e-08
1.877691e-08 1.5891528e-08 1.924952e-08 1.8725762e-08 2.0485684e-08 2.3053758e-08 1.7503273e-08 2.2979853e-08
2.3418954e-08 2.1621956e-08 1.9507963e-08 1.8186327e-08 2.2252658e-08 2.4365947e-08 2.2284242e-08 2.0901426e-08
2.2554469e-08 2.1142524e-08 2.2212662e-08 1.412719e-08 2.0494904e-08 2.8988058e-08 2.0975897e-08 2.3950186e-08
1.4496924e-08 1.5212144e-08 2.280614e-08 1.5660904e-08 1.9751239e-08 2.4784619e-08 2.4066443e-08 2.0395555e-08
2.0588267e-08 1.7163684e-08 2.1626532e-08 1.6053505e-08 1.9308825e-08 2.4555034e-08 1.3859965e-08 1.3106061e-08
1.7597811e-08 1.3752803e-08 1.6718571e-08 1.681325e-08 1.5191844e-08 2.4991808e-08 1.4419422e-08 2.4826667e-08
2.0476158e-08 1.6967066e-08 1.9935671e-08 2.4016147e-08 1.6910759e-08 1.9890825e-08 1.786782e-08 1.1740819e-08
00000000: ef41 c632 edf0 b832 c1fd c332 d761 d232
00000010: 7eed 6e32 fb07 cc32 7116 b132 4207 b932
00000020: aa06 b432 f07c d232 3ca8 5632 c9bc f732
00000030: 3910 b132 5a3e 5532 3b73 a332 21b8 dd32
00000040: b009 8a32 5ea7 9732 f81b b232 a321 8932
00000050: fddb d232 9281 a032 f3f4 c132 8d28 0a33
00000060: c50d 9732 edc4 ad32 6adc ec32 b4ab 8632
00000070: e588 ac32 bbc3 c232 2de7 7532 b9ca 9832
00000080: ea57 9f32 51fb ab32 54f7 9b32 a783 7d32
00000090: 3b3e a432 83aa b432 e836 c532 5cfd a432
000000a0: a9c5 ca32 e2cc e232 f41f a032 8385 7732
000000b0: 33db bb32 9ed9 8632 100e ba32 f77f b432
000000c0: ba42 bd32 657a c932 a8b2 bf32 24f6 8532
000000d0: 8eb5 9d32 eef0 9732 cba3 bf32 23bc ce32
000000e0: 1a29 7832 75b2 9732 bc94 a632 d520 f532
000000f0: dfc2 9032 5a7e b432 a8ad b732 bb00 a332
00000100: 82a6 b632 a4d8 0c33 32ff 9c32 d57e 3033
00000110: 9fc1 9533 db75 8f32 76d4 c932 1c78 9d32
00000120: 21bc bd32 8a1c cc32 234d bb32 1da6 a632
00000130: 9cd3 d032 a620 9f32 270c d932 0bdd ad32
00000140: 08f9 9632 f59f 8a32 fb55 f632 3207 c032
00000150: e83d 9432 7b1c cb32 293b ac32 5afa 9532
00000160: 957e a232 9b20 6932 5427 d232 4818 6d32
00000170: 29e0 8c32 4917 c332 e578 9a32 b547 c132
00000180: 9c56 c132 e192 cb32 5fd8 c532 377a 7232
00000190: 8b89 de32 af9b 7d32 b0d5 7232 2b96 aa32
000001a0: 8d77 d232 9de0 b132 7fba 0233 815c 5d32
000001b0: b8dc c632 03fd 9732 505d 9832 c647 c032
000001c0: f9bb a032 f208 ba32 23a5 d232 d8b5 b432
000001d0: 74fd 9232 a474 c032 d929 b632 f9ba c632
000001e0: aeb3 6d32 1c3c b832 513d ca32 5b72 7432
000001f0: de76 bb32 f648 5b32 7952 c232 fdf8 7532
00000200: 43f2 8b32 5ba0 a432 8997 d732 f8a7 9532
00000210: bdfd 9632 9a5d a532 1c10 b032 58fb 9b32
00000220: 159a 6d32 5043 bb32 262b b032 e931 9632
00000230: 71c6 8a32 21f9 9332 fc68 7132 c2cf 8c32
00000240: eae3 5a32 4fbc a932 74ae cd32 77fd b032
00000250: 9050 a832 8e7f 9c32 20b2 5832 a97c ce32
00000260: e1a6 f732 6735 5a32 f369 6232 aa54 9c32
00000270: 77ec 8f32 81bb 8332 8bb2 c032 07f9 e932
00000280: 60a0 ae32 2ebf 9332 7bbf 8f32 2319 ae32
00000290: 5222 cc32 98d8 b632 40d6 ad32 a77d c932
000002a0: 6949 9932 8595 d332 f60a ab32 ad21 7c32
000002b0: 7316 9632 f745 9a32 794c 8932 194f ad32
000002c0: af5a 9532 f602 b732 007f a932 9d31 b232
000002d0: a19a 9632 78ee 9632 591e 9e32 d55f 9532
000002e0: d9fa 7e32 c52d 9f32 5924 b632 2b72 b732
000002f0: 4433 d932 da6c ca32 bc44 a232 1d01 9f32
00000300: 7028 a532 8a63 c032 7c4f d832 c7f2 c832
00000310: 032b d632 d749 aa32 e1b7 7932 6da6 bc32
00000320: dd4a a132 d781 8832 245a a532 63da a032
00000330: 7ff8 af32 c007 c632 1b5a 9632 3b65 c532
00000340: d32a c932 2fbb b932 7792 a732 2838 9c32
00000350: 1d26 bf32 494d d132 916b bf32 b98a b332
00000360: cdbd c132 e79c b532 29ce be32 0ab4 7232
00000370: c50c b032 6a01 f932 7c2e b432 04bb cd32
00000380: 250e 7932 dcab 8232 3be7 c332 b186 8632
00000390: 6fa9 a932 f4e5 d432 abba ce32 4d32 af32
000003a0: 14da b032 576f 9332 3fc5 b932 08e6 8932
000003b0: 8edc a532 17ed d232 c51c 6e32 1129 6132
000003c0: ff29 9732 7845 6c32 879c 8f32 ba6c 9032
000003d0: 387f 8232 91ad d632 4ab9 7732 6b42 d532
000003e0: 8ce3 af32 f9be 9132 013f ab32 114c ce32
000003f0: 2743 9132 63dc aa32 c07b 9932 abb4 4932
