checkpoints/109802400.ckpt (torch, 122663 bytes, 33 tensors)

weight f4 [256, 18]
0	0x3e10f1db	0.1415476
1	0xbe0035f2	-0.12520579
2	0xbdeba666	-0.11506347
3	0xbdedae76	-0.116055414
4	0x3e8845e7	0.2661583
5	0xbe0e7aaa	-0.1391398
6	0xbe6419e0	-0.22275496
7	0xbe278316	-0.16358599
8	0x3dd7a653	0.10529771
9	0x3cda42b6	0.026643138
10	0x3de0bcee	0.109735355
11	0x3d2bcc92	0.04194314
12	0x3e09a518	0.13441885
13	0xbe275ac4	-0.16343218
14	0x3e5441f2	0.20728281
15	0xbd958850	-0.0730139
16	0x3e4f769f	0.20260094
17	0x3e2d015f	0.16895054
18	0x3bee1814	0.007266054
19	0x3e0d366f	0.13790296
20	0x3e02883d	0.12747283
21	0x3d85598a	0.06511219
22	0x3e1a47c7	0.15066443
23	0xbd648b5a	-0.05579696
24	0xbe274059	-0.1633314
25	0xbe0eb0f9	-0.13934697
26	0x3b79c426	0.0038111298
27	0xbe2e07c8	-0.16995156
28	0xbe3dc06b	-0.18530433
29	0xbc4ca9af	-0.012491628
30	0x3dc2748e	0.09494887
31	0x3d823664	0.063580304
32	0x3db2f4bd	0.087380864
33	0x3d1f2e1e	0.03886234
34	0x3e686be0	0.22697401
35	0xbc839eb7	-0.016066892
36	0xbdc02ac7	-0.09383159
37	0xbdf26e28	-0.11837417
38	0xbd0f2b41	-0.03495336
39	0xbc843b8a	-0.016141672
40	0xbe71d6c9	-0.2361709
41	0x3cee94ec	0.029123746
42	0xbdca1158	-0.09866589
43	0xbea050f9	-0.31311777
44	0xbdcc2820	-0.09968591
45	0xbd6f4810	-0.058418334
46	0x3d0503a7	0.032474186
47	0x3b9dc4ad	0.0048147053
48	0xbc62f56d	-0.013852459
49	0xbdbe0f3b	-0.09280249
50	0x3c93eee3	0.018058246
51	0x3d5bc98a	0.053659
52	0xbe3bb1e4	-0.18329579
53	0x3df745cd	0.1207386
54	0xbddfa348	-0.10919815
55	0x3dc8c44f	0.09803068
56	0x3de6d47f	0.11270999
57	0x3dd3e432	0.10346259
58	0xbc89bcb5	-0.016813615
59	0xbc84f30c	-0.016229175
60	0xbe31bce4	-0.17357212
61	0xbc71df93	-0.014762777
62	0x3bd5873c	0.0065163653
63	0xbe39d484	-0.18147475
64	0xbe763524	-0.24043709
65	0xbe188d26	-0.14897594
66	0x3e1e4166	0.15454635
67	0x3e6883f1	0.22706582
68	0x3dc8aec1	0.09798957
69	0xbe5df099	-0.21673812
70	0xbdeac2b7	-0.1146292
71	0xbd5dff30	-0.054198444
72	0xbe0bef94	-0.1366561
73	0xbe42d3fa	-0.19026175
74	0xbdbe15a3	-0.092814706
75	0x3e3a3d02	0.18187335
76	0xbe2c4e36	-0.1682671
77	0xbe035e1a	-0.12828866
78	0x3d8a404f	0.06750547
79	0xbe6ea190	-0.23303819
80	0x3d02fa77	0.031977143
81	0x3e3beaa7	0.18351232
82	0x3dc236ab	0.09483083
83	0x3b32fda8	0.0027311835
84	0x3d1c7b89	0.03820375
85	0xbe06f706	-0.1318017
86	0x3e1533f0	0.14570594
87	0x3da3ed52	0.0800425
88	0x3da010c5	0.078156985
89	0xbe770a34	-0.24124986
90	0xbb613bb5	-0.0034367864
91	0x3bb7cd5c	0.0056091975
92	0xbb884154	-0.0041581783
93	0x3be1452e	0.006874702
94	0xbc3874b6	-0.011258295
95	0x3eb605b9	0.3555124
96	0xbac341bb	-0.0014896909
97	0xbe15b87d	-0.14621158
98	0xbd9782d5	-0.07398001
99	0xb9b38779	-0.00034242476
100	0x3b647cce	0.0034864428
101	0x3b321d74	0.00271782
102	0x3a9b0f1b	0.0011830063
103	0xbde9612f	-0.113954894
104	0x3d165ef7	0.03671166
105	0xbc33ae52	-0.010966854
106	0xbe015465	-0.1262985
107	0xbdb0b48c	-0.086281866
108	0xbe0753f9	-0.13215627
109	0xbe585204	-0.21125036
110	0xbde70c28	-0.112816155
111	0xbc9f9d49	-0.01948418
112	0xbe53ff35	-0.20702823
113	0xbc2ee513	-0.010674733
114	0x3c9859f8	0.018597588
115	0x3df4ccf9	0.11953158
116	0xbdc0bc5c	-0.09410927
117	0xbe0ce42e	-0.13758919
118	0x3e09cbef	0.134567
119	0xbd1ca959	-0.03824744
120	0x3cc0fbac	0.023557507
121	0x3deb8e61	0.11501766
122	0x3dc1db06	0.094656035
123	0x3df3f9a7	0.11912852
124	0x3e204430	0.15651011
125	0x3ce34be5	0.02774615
126	0xbdf3d23c	-0.119053334
127	0x3d4e55a8	0.050374657
128	0x3d5e2df5	0.054243047
129	0xbd7a070c	-0.061041877
130	0xbe812cfc	-0.25229633
131	0x3d8cf7c2	0.068831936
132	0xbdc2099f	-0.09474491
133	0xbd08f66a	-0.033438124
134	0x3d11baa3	0.03557838
135	0xbdc9be4e	-0.09850751
136	0xbd0079a5	-0.03136601
137	0xbda1b2ab	-0.07895406
138	0xbcb125cf	-0.021624474
139	0x3db27d85	0.08715347
140	0xbd8dfa12	-0.06932463
141	0xbd86d2b9	-0.06583161
142	0xbda25a77	-0.07927411
143	0x3d0ab6aa	0.03386561
144	0xbd6c45ea	-0.057683863
145	0xbe08969f	-0.13338707
146	0xbd55cbaa	-0.052196182
147	0x3d90d2b8	0.070714414
148	0x3cbda38b	0.023149272
149	0x3e3b0ff8	0.1826781
150	0xbdeaab1f	-0.1145842
151	0xbcc842fd	-0.024446005
152	0xbe72d3b5	-0.23713572
153	0x3da4c1fa	0.080448106
154	0xbe1efda1	-0.15526439
155	0x3b1b4b21	0.0023695903
156	0xbd55f50f	-0.05223566
157	0xbcfa4483	-0.030550247
158	0xbb905a6a	-0.0044053094
159	0x3dbf3ab9	0.09337372
160	0xbe74c151	-0.2390187
161	0xbcf70a68	-0.03015633
162	0xbe8f3e0c	-0.27977026
163	0x3dd4e272	0.103947535
164	0x3def69e6	0.116901204
165	0xbd96d91d	-0.0736563
166	0x3bcbfc6c	0.0062251594
167	0xba86be21	-0.0010280052
168	0xbddb4e46	-0.10708289
169	0x3e0a267b	0.13491242
170	0xbd172c4b	-0.036907475
171	0x3dbcb077	0.092133455
172	0x3c4c0da2	0.012454422
173	0xbe057ccc	-0.13035887
174	0xbdd1ae4c	-0.102383226
175	0x3d294a39	0.04133055
176	0x3d66d67b	0.05635689
177	0x3cb146ad	0.021640146
178	0xbca925bf	-0.020647882
179	0xbcdfdab9	-0.027325975
180	0x3eaeeb24	0.34163773
181	0xbcbee5e8	-0.023302987
182	0x3cb99541	0.022654178
183	0x3d8cdbb6	0.06877844
184	0x3e81535d	0.25258914
185	0x3e3901f5	0.18067153
186	0xbdb9aa87	-0.09065729
187	0x3e3f88df	0.18704556
188	0xbe870427	-0.26370355
189	0xbdecbda7	-0.11559611
190	0xbe2cb8f1	-0.16867425
191	0x3d178013	0.036987375
192	0x3dd7bd4d	0.10534153
193	0x3cf884f3	0.030336833
194	0x3dc2b70c	0.0950757
195	0x3caa914d	0.020821238
196	0x3e09c7e3	0.13455157
197	0xbda0e188	-0.07855517
198	0x3dd84957	0.105608635
199	0x3d96add3	0.07357373
200	0x3a774494	0.0009432521
201	0x3a83f00e	0.0010066049
202	0xbd398b9e	-0.045299165
203	0xbe31f29b	-0.17377703
204	0xbe116b10	-0.14200997
205	0x3bef9e94	0.007312605
206	0x3e0571bf	0.13031672
207	0xbe1b11ab	-0.15143459
208	0xbc3c99fb	-0.011511321
209	0xbb402ef0	-0.0029324852
210	0x3ca8192d	0.020519817
211	0x3b5b913e	0.003350332
212	0xbbe4ea61	-0.006985948
213	0xbd77c8e7	-0.06049433
214	0x3d34626e	0.044039182
215	0xbc55298b	-0.013010393
216	0x3d1d42c6	0.03839376
217	0x3dd1ba94	0.10240665
218	0x3cd4b3b2	0.025964592
219	0xbd796f3c	-0.060897097
220	0xbe764bd6	-0.24052367
221	0xbe0ec32e	-0.13941643
222	0xbd8c7f8a	-0.06860264
223	0x3d8006bf	0.06251287
224	0x3d64f266	0.05589523
225	0xbc69eb23	-0.014277252
226	0xbde2136a	-0.11038859
227	0xbc0f2f82	-0.008739354
228	0x3c24a8b9	0.010049992
229	0xbc3370b4	-0.0109521635
230	0x3deb955a	0.11503096
231	0xbcd6d68f	-0.026225356
232	0xbde9ddfc	-0.11419293
233	0x3cdbc5fe	0.026827808
234	0x3e27a6b2	0.16372183
235	0xbde7c499	-0.11316795
236	0x3dd1d478	0.10245603
237	0xbd173cba	-0.036923148
238	0xbd71a249	-0.058992658
239	0xbe3677ac	-0.17819089
240	0x3e1e72df	0.15473507
241	0xbdfdffca	-0.124023035
242	0x3e03dd8d	0.12877484
243	0x3e1e88bb	0.15481846
244	0xbd2ebe62	-0.042662032
245	0x3de6f782	0.11277677
246	0xbdc74933	-0.097307585
247	0x3dda8e41	0.10671664
248	0xbe145648	-0.14486039
249	0xbe40da68	-0.18833315
250	0xbdff5cd1	-0.12468875
251	0xbe37b286	-0.17939195
252	0x3ca5d238	0.020241842
253	0x3af089cd	0.0018351615
254	0xb9d4d4b2	-0.0004059426
255	0x3b3b73d5	0.0028602977

bias f4 [256]
0	0x3e52158c	0.20516032
1	0xbce427a2	-0.02785093
2	0xbd0ec797	-0.034858312
3	0x3d39ad2d	0.04533117
4	0xbe392448	-0.18080246
5	0x3d3bbf15	0.045836527
6	0xbe5e0ae7	-0.21683846
7	0x3dfe5988	0.124194205
8	0x3dddbe4f	0.10827314
9	0x3d2b5cff	0.041836735
10	0x3caacf65	0.020850847
11	0x3e1bd764	0.15218884
12	0xbe899e9b	-0.2687882
13	0xbe59fbf5	-0.2128752
14	0xbce8ee62	-0.028433982
15	0xbdd9ade4	-0.1062887
16	0x3da5e69c	0.08100626
17	0x3e200467	0.1562668
18	0xbd1eb9c8	-0.038751394
19	0x3b42b4bb	0.0029709775
20	0xbcc614b3	-0.024179792
21	0xbbded48b	-0.0068002394
22	0x3dd1eccf	0.10250246
23	0xbc7389ac	-0.0148643665
24	0xbdfa6c89	-0.12227733
25	0xbe9ccacc	-0.30623472
26	0xbcee3b88	-0.029081121
27	0x3ce8e673	0.0284302
28	0xbd39aefb	-0.04533289
29	0x3e07fd5c	0.13280243
30	0x3e1858a1	0.14877559
31	0xbe2af8eb	-0.16696517
32	0xbe1f0ab7	-0.15531431
33	0xbe398293	-0.18116216
34	0xbe8cada5	-0.2747623
35	0xbd8ce93f	-0.06880426
36	0xbe8b0f70	-0.27160215
37	0xbddb1262	-0.106968656
38	0xbe906749	-0.282038
39	0xbe03f7e5	-0.12887533
40	0xbe8e8fb6	-0.27844018
41	0x3dcadd37	0.09905475
42	0xbe07d6da	-0.13265553
43	0xbe5c6142	-0.21521476
44	0x3d493125	0.049119134
45	0x3e2fe0a0	0.17175531
46	0x3e27a71e	0.16372344
47	0xbe8f175f	-0.27947518
48	0x3d778457	0.060428943
49	0xbda6b254	-0.08139482
50	0xbe6e3598	-0.23262632
51	0xbe16f291	-0.14740969
52	0xbe14a8ba	-0.14517489
53	0x3d7ce731	0.06174392
54	0xbda0272b	-0.07819971
55	0x3d017ab0	0.031611145
56	0xbdec3887	-0.11534219
57	0xbd8025e3	-0.06257226
58	0x3cc95b90	0.024579793
59	0xbcc2d5b5	-0.023783544
60	0x3bad4493	0.0052877157
61	0xbe834155	-0.25635782
62	0xbe7ab1d4	-0.24481899
63	0x3d6b4452	0.057438202
64	0x3da300f8	0.07959169
65	0xbda3344a	-0.07968958
66	0xbe30e8a7	-0.1727625
67	0xbc214dab	-0.009845178
68	0xbde1c85c	-0.11024544
69	0x3e025df1	0.12731148
70	0xbe154332	-0.14576414
71	0x3d83e7d3	0.06440701
72	0x3db3a825	0.087723054
73	0xbe56bc51	-0.20970275
74	0x3d4874d8	0.048939556
75	0xbe326c0c	-0.17424029
76	0xbdae0681	-0.08497334
77	0x3b726bdc	0.0036990559
78	0xbbc3fbf6	-0.005980964
79	0x3dee14ad	0.11625037
80	0xbd673cd4	-0.056454495
81	0x3e075873	0.13217334
82	0xbcb34331	-0.021882625
83	0xbdaff5cb	-0.08591803
84	0xbe0ac207	-0.13550578
85	0x3ded152a	0.11576302
86	0x3d3d116c	0.046159193
87	0x3dce253f	0.10065698
88	0x3cb06e90	0.021537095
89	0xbe62749f	-0.221148
90	0xbce95f76	-0.028487902
91	0xbd19d9fc	-0.0375614
92	0xbda397ec	-0.07987961
93	0xbe67384d	-0.22580071
94	0xbe306fdb	-0.1723017
95	0x3e126962	0.14298013
96	0x3e4c1ba3	0.19932418
97	0x3d185dac	0.037198707
98	0x3e4371b2	0.1908634
99	0xbe37c25a	-0.17945233
100	0xbe87ef97	-0.2654998
101	0x3e1287ba	0.14309588
102	0x3d55766a	0.05211488
103	0xbe4a9558	-0.19783533
104	0x3d8f74f5	0.0700473
105	0xbe033f55	-0.12817128
106	0x3e595bb4	0.21226388
107	0x3df6f634	0.12058678
108	0x3ccdca48	0.02512087
109	0xbe11f587	-0.14253817
110	0x3db17a39	0.0866589
111	0xbe873d6b	-0.26414046
112	0xbe230ce2	-0.15922883
113	0x3dae7bea	0.085197285
114	0x3c90900d	0.017646814
115	0xbde666e0	-0.112500906
116	0x3e41c2c4	0.18921953
117	0xbe269c2d	-0.16270514
118	0x3de66231	0.11249197
119	0xbe0f8beb	-0.14018218
120	0xbd146f20	-0.03623879
121	0xbdaac162	-0.08337666
122	0xbde73a2c	-0.11290392
123	0x3d44ded7	0.04806408
124	0xbdea3872	-0.11436547
125	0x3cbf67f9	0.023365008
126	0xbe05a4ba	-0.1305112
127	0xbe0b6205	-0.1361161
128	0x3de59f0b	0.11211976
129	0xbdd571d5	-0.10422102
130	0x3e63d58f	0.22249435
131	0x3d86c6e6	0.065809056
132	0x3ce530cc	0.02797737
133	0xbdc45bba	-0.09587808
134	0xbe69865c	-0.2280516
135	0x3cef552b	0.029215416
136	0xbd8b31d1	-0.06796611
137	0x3c6354d6	0.013875207
138	0xbbdac3c4	-0.006676169
139	0xbd9d3678	-0.07676405
140	0xbe7e9e0a	-0.24864975
141	0x3d97b93b	0.07408377
142	0xbe29f078	-0.16595638
143	0xbdcd7958	-0.1003291
144	0xbe5a9a05	-0.21347816
145	0x3dd45fee	0.1036986
146	0xbe4fd8ee	-0.20297596
147	0xbd707172	-0.05870194
148	0xbc38b0c8	-0.011272617
149	0xbe75c440	-0.24000645
150	0x3d82e2bd	0.06390903
151	0xbdef6062	-0.116883054
152	0xbe0d8f10	-0.13824105
153	0xbea676aa	-0.32512408
154	0xbdb7b4c6	-0.08970027
155	0xbe0a5044	-0.13507181
156	0x3c7831cb	0.01514859
157	0xbdbe223f	-0.09283876
158	0x3e27e84f	0.16397212
159	0xbc3990d6	-0.0113260355
160	0xbcc2d835	-0.023784736
161	0xbe232811	-0.15933253
162	0xbe04c123	-0.12964301
163	0x3e1e8b03	0.15482716
164	0xbda6c62b	-0.08143266
165	0xbd8c786f	-0.068589084
166	0x3d1d1f12	0.03835971
167	0x3df416fd	0.11918447
168	0xbdc4c146	-0.096071765
169	0x3de581a9	0.11206371
170	0xbd8208de	-0.063493475
171	0xbe953c7c	-0.29147708
172	0xbe019bb2	-0.1265705
173	0xbe7832e3	-0.24238162
174	0xbe903361	-0.281642
175	0x3e0ee03e	0.13952729
176	0xbe5241e4	-0.20532948
177	0x3dc028b6	0.09382765
178	0xbe3ac128	-0.18237746
179	0x3ca2a370	0.019853324
180	0x3e2f3d7e	0.17113301
181	0xbeb2a44d	-0.34890977
182	0x3cd02fee	0.02541348
183	0xbe9f2eb9	-0.31090334
184	0x3ddded5f	0.108362906
185	0xbe517f63	-0.2045875
186	0x3e28273b	0.16421215
187	0xbe237343	-0.15961938
188	0x3e245754	0.16048938
189	0xbe7d611f	-0.2474408
190	0xbe7ae745	-0.24502285
191	0x3b2d2e0f	0.0026425158
192	0x3d78bf8a	0.06072954
193	0xbdab0710	-0.083509564
194	0x3df593f4	0.119911104
195	0xbd9dd066	-0.077057645
196	0x3dee6799	0.116408534
197	0xbe4804b1	-0.1953304
198	0x3dd84b8c	0.105612844
199	0xbc3c568e	-0.011495246
200	0xbda7efbf	-0.08200025
201	0xbd0e75c0	-0.034780264
202	0xbdc36c79	-0.09542174
203	0x3bb22fba	0.0054378184
204	0xbd3e398e	-0.046441607
205	0x3d92afe2	0.07162453
206	0xbea25393	-0.31704387
207	0xbd3971ef	-0.04527467
208	0xbe044957	-0.12918602
209	0xbe3d754a	-0.18501773
210	0xbdd64b21	-0.104635485
211	0x3d83f1f7	0.064426355
212	0x3d3b14f2	0.045674272
213	0x3e05d0b5	0.13067897
214	0xbd6bc9f0	-0.05756563
215	0xbe1dac60	-0.15397787
216	0x3d47afe5	0.04875173
217	0x3d2edb65	0.0426897
218	0xbe3cc3c8	-0.1843406
219	0xbe90b84f	-0.28265616
220	0x3e512372	0.20423678
221	0x3dbff35f	0.09372591
222	0x3e0df7f4	0.13864118
223	0xbdc2ea99	-0.09517402
224	0xbdc2e976	-0.095171854
225	0xbe130bbd	-0.14359947
226	0x3d2fe78c	0.04294543
227	0xbd9b5079	-0.07583708
228	0xbd8e3ec2	-0.06945564
229	0x3cef6a19	0.029225396
230	0x3e0493d5	0.12947018
231	0x3d8574a9	0.06516392
232	0xbc74f601	-0.01495123
233	0x3d1f5626	0.038900517
234	0x3e133548	0.14375794
235	0x3da25b78	0.079276025
236	0x3d9cd0b6	0.07656996
237	0x3e4b3b34	0.19846803
238	0x3da57810	0.08079541
239	0xbddbb9dd	-0.1072881
240	0x3cc022f4	0.023454167
241	0xbe6e2d15	-0.23259385
242	0xbe0098b8	-0.12558258
243	0x3d6d224b	0.057894032
244	0x3e190dfe	0.14946744
245	0xbe608058	-0.2192396
246	0x3cd771ec	0.02629944
247	0xbd5e8101	-0.054322246
248	0xbe169ad2	-0.14707497
249	0xbe2a5357	-0.16633354
250	0xbe12e8d3	-0.14346628
251	0xbe7a9291	-0.24469973
252	0xbe5bdab3	-0.21470146
253	0xbd03c6c8	-0.032171994
254	0xbce7ef26	-0.028312277
255	0xbe4e26ae	-0.20131943

weight f4 [1, 256]
0	0xbd2101be	-0.039308302
1	0xbcbc5c33	-0.022993183
2	0x3c147e60	0.009063333
3	0x3d71de3e	0.059049837
4	0x3c42d9c1	0.011892737
5	0x39800228	0.0002441567
6	0xbc93193e	-0.017956372
7	0x3c27b507	0.010236031
8	0xbca81b5d	-0.02052086
9	0x3c6522db	0.013985361
10	0xbda30763	-0.07960393
11	0x3befbf58	0.007316511
12	0x3cc17b56	0.023618381
13	0xbcd0e3d6	-0.025499266
14	0x399fb7bc	0.00030463736
15	0x3b13df8a	0.002256366
16	0xbc6d5ecd	-0.014487934
17	0xbd852ee4	-0.06503084
18	0xbc7c45e3	-0.015397522
19	0xbc643457	-0.013928494
20	0xbba8d8b7	-0.0051527875
21	0xbd08e5d3	-0.033422302
22	0xbbe14657	-0.0068748402
23	0xbc578199	-0.013153457
24	0xbc357493	-0.011075157
25	0x3c559135	0.013035108
26	0x3c8e5c61	0.017378034
27	0x3b6fa987	0.0036569552
28	0x3d7fe4d6	0.062474094
29	0x3d209a29	0.03920952
30	0x3d418873	0.04724927
31	0x3d361d15	0.04446133
32	0x3d0c3e00	0.034238815
33	0xbc9bb20a	-0.019005794
34	0x3b537615	0.0032266427
35	0x3cc5c1bf	0.024140237
36	0xbd068e77	-0.03285071
37	0x3c11682f	0.008874937
38	0x39e91552	0.00044457108
39	0xbcfcd842	-0.030864839
40	0x3c679801	0.014135362
41	0x3d8efb9d	0.06981585
42	0x3b2ed73b	0.002667858
43	0x3cba0edd	0.022712165
44	0xbab38177	-0.00136952
45	0xbc5d0732	-0.013490485
46	0xbd03cb75	-0.032176454
47	0x3d9588b2	0.07301463
48	0xbbe3483b	-0.006936101
49	0xbad434b8	-0.0016190028
50	0x3d60a09a	0.05484066
51	0x3b91d2f8	0.0044501983
52	0xbb55f830	-0.0032649152
53	0x3c95ae5d	0.01827162
54	0x3db96d3d	0.09054039
55	0xbc69d282	-0.01427138
56	0x3c1baa95	0.009501119
57	0x3b6d6aef	0.0036227067
58	0xbc260596	-0.010133168
59	0xbc32f77d	-0.010923264
60	0xbd0edd0e	-0.034878783
61	0xbda90449	-0.082527705
62	0x3d9bd454	0.07608858
63	0xba822dca	-0.0009931859
64	0x3b828d4c	0.003984129
65	0xbaf919f5	-0.0019004928
66	0x3b3ee8bb	0.0029130417
67	0x3c203df9	0.0097804
68	0xbc808c6d	-0.01569196
69	0x3d423cb2	0.047421165
70	0xbc4332b9	-0.011913949
71	0xbc1a28d8	-0.009409152
72	0x3d87cc8e	0.066308126
73	0xbcf3f16a	-0.029778201
74	0x3cad4435	0.021150688
75	0xbce05ac7	-0.027387036
76	0xbd1349d8	-0.035959095
77	0x3b0a5824	0.0021109665
78	0xbd712e65	-0.058882136
79	0x3bc66535	0.0060545453
80	0x3c048df4	0.008090485
81	0xbd501cf5	-0.050808866
82	0x3c949b4f	0.018140463
83	0xbc4d564a	-0.01253278
84	0x3db19d2b	0.086725555
85	0x3d8a40e1	0.06750656
86	0xbd64e144	-0.055878893
87	0xbde5b989	-0.11217029
88	0xbd42a67c	-0.047522053
89	0x3d92630a	0.071477965
90	0x3d1127d0	0.03543836
91	0x3ca26678	0.019824252
92	0xbdc9ae8e	-0.09847747
93	0xbc501235	-0.012699653
94	0x3d6fe7ee	0.058570795
95	0xbc862903	-0.016376978
96	0xba0514b9	-0.0005076635
97	0x3db2ab45	0.08724073
98	0x3c886d93	0.016653812
99	0x3cf74c0f	0.030187635
100	0x3d86156a	0.06547053
101	0xbd40f699	-0.047110174
102	0x3d47b36e	0.0487551
103	0x3b86a720	0.0041092783
104	0x3d29e3c3	0.041476976
105	0xbc6666fe	-0.014062641
106	0xbd0f26c3	-0.034949075
107	0xbcd38a15	-0.025822679
108	0x3a6f70fc	0.00091339624
109	0xbd2deabb	-0.042460185
110	0x3c3e09d0	0.011599019
111	0x3da9b0f0	0.08285701
112	0xbc075a93	-0.008261341
113	0xbb75cd57	-0.0037506425
114	0xbcefa904	-0.029255398
115	0x3cc003bd	0.023439283
116	0x3c51bdbc	0.012801584
117	0xbd2a783d	-0.041618574
118	0xbd9cad0c	-0.076501936
119	0xbbd9562d	-0.0066325874
120	0xbd5ee76b	-0.054419916
121	0x3d1568b8	0.03647682
122	0x3a8f3337	0.0010925297
123	0xbd68b654	-0.056814507
124	0x3d83f330	0.06442869
125	0xbc7782a7	-0.015106834
126	0xbc0de178	-0.008659713
127	0x3dcda92d	0.10042033
128	0xbda5b085	-0.08090309
129	0xb7988230	-1.8180435e-05
130	0xbda6f317	-0.081518345
131	0x3db2eea6	0.08736925
132	0x3cf282cd	0.029603386
133	0xbd08ef72	-0.033431478
134	0xba7ec309	-0.00097183936
135	0x3b093001	0.0020933154
136	0xbb99024d	-0.0046694637
137	0x3d6726cc	0.056433484
138	0x3c9523ad	0.018205488
139	0x3d80795a	0.06273146
140	0x3c24d703	0.010061028
141	0xbd1a15c7	-0.037618425
142	0xbcc7073f	-0.024295447
143	0xba3034b5	-0.0006721721
144	0x3b1d00d1	0.0023956785
145	0x3b3d8484	0.0028918097
146	0x3c6349ea	0.013872603
147	0x3c4036c0	0.011731803
148	0xbd481823	-0.048851144
149	0x3c60a1c7	0.013710446
150	0x3ca04847	0.019565715
151	0x3c8cf636	0.017207246
152	0xbc747707	-0.014920956
153	0x3b8658f6	0.0040999604
154	0xbd0f9d03	-0.035061847
155	0x3cdd7261	0.02703208
156	0x3c9988bf	0.018741963
157	0x3c6ba8b2	0.014383482
158	0xbd068096	-0.032837473
159	0xbd389816	-0.045066915
160	0xbd82b078	-0.06381315
161	0xbd65475c	-0.055976257
162	0x3d38e388	0.045138866
163	0xbb7a828c	-0.0038224785
164	0xbac9cf74	-0.0015396909
165	0xba93f529	-0.0011288273
166	0x3c05481d	0.008134869
167	0x3c873469	0.016504483
168	0x3c30a697	0.010781906
169	0x3ac481cb	0.0014992295
170	0x3c294e17	0.0103335595
171	0xbd2b7735	-0.04186173
172	0xbc828bcd	-0.015935803
173	0xbcedfa0a	-0.029049892
174	0x3dc8ea3c	0.09810302
175	0x3c262823	0.010141405
176	0xbd21f246	-0.03953769
177	0xbb02194a	-0.00198515
178	0x3bd012da	0.0063499035
179	0xbdd63554	-0.1045939
180	0x3cbda79c	0.023151211
181	0x3b70221a	0.003664142
182	0x3dd8f36c	0.10593304
183	0x3d70dd98	0.05880508
184	0x3c0b42fc	0.008499857
185	0xbd4766f3	-0.048682164
186	0x3b1498f4	0.0022674175
187	0xbce6f0ba	-0.02819096
188	0x3c42fc18	0.011900924
189	0xb8862d31	-6.3980355e-05
190	0x3a9d0328	0.001197909
191	0x3be86a97	0.0070927846
192	0x3d27f4ef	0.04100507
193	0xbcc76e50	-0.024344593
194	0x3d54ba54	0.05193551
195	0xba4059ab	-0.00073375803
196	0x3b4fffad	0.0031738088
197	0xbd34cb81	-0.04413939
198	0x3ccca037	0.02497874
199	0xbc8bd916	-0.017071288
200	0x3b96c12d	0.004600665
201	0xbb8357d0	-0.004008271
202	0x3c608bc5	0.013705199
203	0xbc925f9e	-0.01786786
204	0xbd5ac995	-0.0534149
205	0xba615cfb	-0.0008596924
206	0x3d6ab7a4	0.05730404
207	0x3c620efe	0.01379752
208	0x3cb611a8	0.022225216
209	0xbc0e9165	-0.008701657
210	0x3bdf6b0c	0.006818181
211	0x3c46d5d5	0.0121359425
212	0x3d5d9c3e	0.054104082
213	0xbcbc7408	-0.023004547
214	0x3d9ac270	0.07556617
215	0xbce33442	-0.02773488
216	0x3bcc6c4d	0.0062384964
217	0xbd875e82	-0.06609823
218	0xbd0dec11	-0.03464896
219	0x3aeaeddb	0.001792367
220	0xbd705594	-0.058675364
221	0xbd1286e6	-0.03577318
222	0xbd336202	-0.04379464
223	0xbce04ebf	-0.027381299
224	0x3c016624	0.007897887
225	0xbb87d48d	-0.004145211
226	0xbb760a44	-0.003754274
227	0xbc1e980b	-0.009679805
228	0xbc0841e8	-0.0083164945
229	0xbb313598	-0.002704
230	0xbe0ae670	-0.13564467
231	0x3b98a016	0.0046577556
232	0x3d28c6d0	0.041205227
233	0xbc2d4308	-0.0105750635
234	0xbc830339	-0.015992748
235	0x3bb4f59b	0.0055224425
236	0x3bd9dec3	0.0066488697
237	0xbd4565c7	-0.048192766
238	0x3c0b5649	0.008504459
239	0xbdcb9fbe	-0.09942578
240	0x3a92a598	0.0011188267
241	0xbd88fe08	-0.066890776
242	0x3d4e94c6	0.05043485
243	0x3d051ef6	0.03250023
244	0x3b932216	0.0044901473
245	0x3ab8e3ab	0.0014105936
246	0xbc8988a1	-0.016788783
247	0x3dbd838d	0.09253607
248	0xbd5204ec	-0.051274225
249	0xbc78b33f	-0.015179454
250	0x3b86398f	0.004096217
251	0x3cf4fa1a	0.029904414
252	0x3d40e3a1	0.047092084
253	0xbbda6929	-0.006665368
254	0xbc8dbb32	-0.017301176
255	0xbcbbf3b3	-0.022943353

weight f4 [256, 1]
0	0x3f0bc819	0.546022
1	0xbc907492	-0.01763371
2	0x3f0a9f4e	0.5414933
3	0x3f4111da	0.75417864
4	0x3f6131c4	0.8796656
5	0x3c83ae53	0.016074335
6	0x3f2528a0	0.64515114
7	0x3ea09277	0.31361744
8	0xbf768c4a	-0.96307814
9	0xbeda5117	-0.42639992
10	0x3e46e262	0.19422296
11	0xbf6c8db4	-0.9240372
12	0xbd8cdec9	-0.068784304
13	0xbf80b20e	-1.0054338
14	0xbf3415ea	-0.7034594
15	0x3f2553a0	0.64580727
16	0x3eb9f71d	0.36321345
17	0x3dd6e280	0.1049242
18	0xbf3fa32e	-0.7485837
19	0xbe9a6218	-0.30152965
20	0xbf66a364	-0.90093064
21	0xbee77c2c	-0.45211923
22	0x3eef2618	0.4670875
23	0x3ef3413f	0.47510716
24	0x3f2221b1	0.6333266
25	0xbf5c3512	-0.8601848
26	0x3ec6b4b9	0.38809755
27	0xbe33c5aa	-0.17555872
28	0xbf5747ea	-0.8409411
29	0x3f4be211	0.79641825
30	0xbf053d46	-0.5204662
31	0xbe955901	-0.29169467
32	0xbd4525c0	-0.048131704
33	0x3cd10f67	0.02552004
34	0xbe0c7101	-0.13714983
35	0x3ea16d11	0.31528524
36	0xbf126764	-0.5718901
37	0x3f10ea36	0.5660738
38	0x3dba8ce8	0.09108907
39	0xbc6629e9	-0.014048078
40	0x3f435d87	0.76314586
41	0xbf394a4a	-0.7237898
42	0x3e02f27f	0.12787817
43	0x3e70aa9a	0.2350258
44	0xbf4927c4	-0.785763
45	0x3d9abb20	0.075552225
46	0x3e8dfa74	0.27730143
47	0x3ecb1b9a	0.39669496
48	0xbfc63171	-1.5483838
49	0xbf2676ec	-0.6502521
50	0xbe8c505c	-0.2740506
51	0xbf28a02e	-0.65869415
52	0x3f280995	0.6563962
53	0xbede0e68	-0.43370366
54	0xbdf91d60	-0.12163806
55	0x3edcf4a8	0.43155408
56	0x3eb7ae3c	0.35875118
57	0xbefe0490	-0.49612856
58	0x3d89f890	0.06736863
59	0xbf2aa604	-0.6665957
60	0xbd01f9e7	-0.031732466
61	0xbdb6c5c6	-0.08924441
62	0xbe5490d5	-0.20758374
63	0x3f0c80ba	0.5488392
64	0xbeb935d0	-0.36173868
65	0x3e9b037c	0.30276096
66	0x3f1ae5da	0.60506976
67	0x3ea14b34	0.31502688
68	0x3ebce033	0.368898
69	0x3f146144	0.57960916
70	0x3e94d291	0.290669
71	0xbf08848e	-0.5332726
72	0xbf3ff901	-0.74989325
73	0x3e7576a5	0.2397104
74	0x3f1d047f	0.61334985
75	0xbf54b1b0	-0.8308363
76	0xbe53010c	-0.20605868
77	0x3e5524c8	0.20814812
78	0x3d82f801	0.06394959
79	0xbe752186	-0.2393857
80	0xbe0a93dd	-0.13532968
81	0x3c759d00	0.014991045
82	0x3f1dea2b	0.61685437
83	0x3e55fc1b	0.20896952
84	0x3ecbd2d8	0.398093
85	0x3f4bdbfa	0.7963253
86	0x3f51f406	0.82012975
87	0xbf903514	-1.1266198
88	0xbdd2c3ef	-0.102912776
89	0x3f0ab715	0.5418561
90	0x3d230b40	0.03980565
91	0x3f663dd8	0.89938116
92	0xbf2104c1	-0.6289788
93	0x3f735cf4	0.9506371
94	0xbe7d1e69	-0.24718632
95	0xbe658311	-0.22413279
96	0xbee2cd72	-0.44297367
97	0x3ec8b6fd	0.3920211
98	0x3e54d0f1	0.2078283
99	0xbe3d30ad	-0.184756
100	0xbf1ed5aa	-0.62044775
101	0x3f1b8c3a	0.60760844
102	0x3f313fa7	0.6923775
103	0xbf8b26e0	-1.0871239
104	0x3f3c71c5	0.736111
105	0x3e10d4ef	0.14143728
106	0x3e71c52c	0.23610371
107	0xbf5a57c4	-0.8529017
108	0x3ddf949a	0.109170154
109	0x3ea6c73e	0.32573885
110	0x3f2ad2b6	0.6672777
111	0xbfa314c4	-1.2740712
112	0x3eeb7d5c	0.4599408
113	0x3d7040a5	0.0586554
114	0xbf1adc3c	-0.604923
115	0xbf410b36	-0.7540773
116	0xbeeca092	-0.46216255
117	0x3f30ecf7	0.6911158
118	0x3e8c3b3f	0.2738895
119	0x3f062d5b	0.52412957
120	0x3f4eccf9	0.80781513
121	0x3e3074bf	0.17232035
122	0xbc82bb91	-0.01595858
123	0xbf6ed2e1	-0.93290526
124	0xbf5fda00	-0.87442017
125	0x3e13435a	0.14381161
126	0xbeeb406e	-0.45947593
127	0x3efa4e66	0.48887938
128	0x3de2cb76	0.11073963
129	0xbf10fd50	-0.56636524
130	0x3cd80200	0.026368141
131	0x3eba2d10	0.36362505
132	0xbdb5dc4d	-0.0887991
133	0xbe1893b0	-0.14900088
134	0xbd74240c	-0.05960469
135	0xbe38e3c8	-0.18055642
136	0xbf7b690a	-0.9820715
137	0x3f6698df	0.9007701
138	0xbf1117dd	-0.5667704
139	0x3e43ab3b	0.19108288
140	0x3e2647fe	0.162384
141	0x3e9204c2	0.28519255
142	0xbc55aa00	-0.013041019
143	0x3f5f9a32	0.8734466
144	0x3ecac62e	0.39604324
145	0x3e969a46	0.29414576
146	0xbceec4c0	-0.029146552
147	0x3eb0a248	0.3449881
148	0x3e74b88f	0.23898529
149	0x3f44a4ba	0.7681385
150	0x3e3d38c7	0.1847869
151	0x3e9aaa4d	0.30208054
152	0x3f49a504	0.7876742
153	0xbe0c2dd8	-0.13689363
154	0x3e6e1540	0.23250294
155	0xbf701f9a	-0.9379822
156	0x3ebf7291	0.37392095
157	0x3ef51b62	0.47872454
158	0x3f1a0469	0.6016298
159	0x3f634b35	0.8878663
160	0x3ef34f56	0.47521466
161	0xbe6e6a6d	-0.23282786
162	0x3ec4d95a	0.38447076
163	0xbd7be13b	-0.061494093
164	0xbf536198	-0.8257079
165	0xbe56af38	-0.20965278
166	0x3f0fd0ed	0.5617817
167	0x3daa174e	0.08305226
168	0x3f5d41de	0.8642863
169	0xbdf32b10	-0.11873448
170	0x3d819804	0.06327823
171	0x3f2d9f9b	0.67821664
172	0x3de7488e	0.112931356
173	0x3cba331d	0.02272945
174	0x3f39e93d	0.7262152
175	0xbe042458	-0.12904489
176	0x3ecb9bfa	0.39767438
177	0x3c2d3380	0.010571361
178	0x3f6c8bc8	0.9240079
179	0x3f37185f	0.7152156
180	0xbf12b1dc	-0.5730264
181	0xbf260385	-0.6484912
182	0xbe8b9760	-0.27263927
183	0xbe852de6	-0.2601158
184	0xbf53f4aa	-0.827952
185	0xbe760609	-0.2402574
186	0xbf136814	-0.57580686
187	0x3eb9dea4	0.36302674
188	0xbe282d78	-0.16423595
189	0xbc7e5519	-0.015523219
190	0x3ecd3467	0.40079042
191	0x3cb38258	0.021912739
192	0x3ed4e7a6	0.41582984
193	0xbee70184	-0.45118344
194	0x3ecf6bca	0.40511924
195	0x3ed1a31a	0.4094475
196	0xbeb15a84	-0.3463937
197	0xbec2a3e4	-0.38015664
198	0xbf706a3d	-0.93912107
199	0x3e76360c	0.24044055
200	0xbf641d58	-0.89107275
201	0xbf1c9c30	-0.61175823
202	0xbeddcf09	-0.43322018
203	0xbf3b52d2	-0.7317325
204	0xbe676240	-0.22596073
205	0x3efd0a52	0.49421936
206	0x3dbe936a	0.09305461
207	0x3e9a3cab	0.3012441
208	0x3f549bac	0.83050036
209	0x3e4919a9	0.19638695
210	0x3e5eb4e5	0.21748693
211	0xbf2ac246	-0.6670269
212	0x3e99e36f	0.3005633
213	0x3f1f0952	0.62123597
214	0x3f039300	0.5139618
215	0x3f156e3c	0.5837133
216	0xbf789073	-0.9709541
217	0x3f1f5e5d	0.6225336
218	0x3f28789c	0.65809035
219	0x3d2ffb93	0.04296453
220	0xbf58cc12	-0.84686387
221	0xbea8ed64	-0.32993615
222	0x3eabbe65	0.33543697
223	0x3f5a1449	0.851872
224	0x3f6d22bd	0.9263113
225	0x3f00e772	0.5035316
226	0xbf761a24	-0.9613364
227	0xbf81343b	-1.0094064
228	0xbd6a9b20	-0.057276845
229	0xbc38beb5	-0.011275937
230	0x3f0b6ba2	0.5446111
231	0x3d9f51e5	0.07779292
232	0x3dcef247	0.101048045
233	0xbeb43c6c	-0.35202348
234	0x3f73725f	0.9509639
235	0xbeac05f4	-0.33598292
236	0xbebb72b9	-0.36610964
237	0xbf10e792	-0.5660335
238	0x3f503ef8	0.8134608
239	0x3f559bf8	0.83441114
240	0x3c97dc6e	0.018537726
241	0x3f2d785d	0.67761785
242	0x3ecef085	0.40417877
243	0xbe8a6718	-0.2703178
244	0xbe19c5c8	-0.15016854
245	0xbf68fd38	-0.9101138
246	0x3f1935e0	0.5984783
247	0xbf73ab4e	-0.95183265
248	0x3f093c61	0.53607756
249	0xbfa74be3	-1.3070034
250	0xbf56f740	-0.83971024
251	0x3f18ee4a	0.597386
252	0xbf3372f4	-0.7009728
253	0x3f4f8b2c	0.81071734
254	0x3e3a11cd	0.18170853
255	0xbd981870	-0.07426536

bias f4 [256]
0	0xbf868db8	-1.0511999
1	0xba78389e	-0.0009468886
2	0xbed8bc70	-0.42331266
3	0x3c38da2b	0.011282484
4	0x3f092e36	0.5358614
5	0x3e4500d8	0.19238603
6	0x3f01ae5e	0.5065669
7	0x3f0062f2	0.5015098
8	0xbf4c8230	-0.7988615
9	0x3eb3a83d	0.35089293
10	0x3ca835e5	0.020533511
11	0xbec3d8c4	-0.38251317
12	0x3eb980fe	0.36231226
13	0x3ea730aa	0.32654315
14	0xbf0e0960	-0.55483055
15	0x3f54cb76	0.83122957
16	0xbfaeb2d1	-1.364832
17	0xbf776024	-0.96631074
18	0xbf44af82	-0.76830304
19	0xbf0f0f1a	-0.5588242
20	0xbf7e3076	-0.99292696
21	0xbe83dc5c	-0.25754058
22	0x3d01825c	0.03161846
23	0xbed3b487	-0.4134867
24	0xbf5730d9	-0.8405891
25	0x3e1e7ae9	0.15476574
26	0x3e2d7a12	0.16941097
27	0x3f316a4d	0.6930283
28	0x3ed24913	0.41071376
29	0xbf248742	-0.6426889
30	0xbf5b878e	-0.85753715
31	0x3ec5a41f	0.38601777
32	0xbf00de8c	-0.5033958
33	0x3eac2a17	0.33625862
34	0x3f398ff4	0.7248528
35	0x3f41482f	0.7550077
36	0xbf0e50c2	-0.55591977
37	0x3ed4c50e	0.4155659
38	0x3e9e247a	0.30887204
39	0x3eb15352	0.3463388
40	0x3f25c0cb	0.64747304
41	0xbf53132e	-0.8245114
42	0x3dc6e669	0.09711916
43	0x3de89a63	0.11357572
44	0xbaa49d2a	-0.0012559046
45	0xbf77a20c	-0.9673164
46	0xbf869f66	-1.0517395
47	0x3ef4e6d6	0.47832364
48	0x3dd08643	0.101818584
49	0xbf65db80	-0.89788055
50	0x3f810b66	1.0081604
51	0xba97f7b8	-0.0011594212
52	0x3efabc93	0.48971996
53	0xbf4701d8	-0.7773719
54	0xbf0e0350	-0.55473804
55	0xbfcef449	-1.61683
56	0xbf436203	-0.7632143
57	0xbf645412	-0.8919078
58	0xbf1a91a2	-0.6037847
59	0xbf01a750	-0.50645924
60	0x3e30edd6	0.17278227
61	0x3e9dd4b0	0.3082633
62	0x3f4b7aaf	0.79484075
63	0xbe35cc3d	-0.17753692
64	0xbf20cab6	-0.6280931
65	0x3f531d9a	0.82467043
66	0xbf48dc0f	-0.7846078
67	0x3f1a2d61	0.6022549
68	0xbec6106c	-0.38684404
69	0x3f658b39	0.8966556
70	0x3e65e9d4	0.2245248
71	0xbe9eb110	-0.30994463
72	0x3eeb04bc	0.4590205
73	0x3ee9799a	0.45600587
74	0x3e00c5e8	0.12575495
75	0xbf12d1e8	-0.5735154
76	0x3f424242	0.7588235
77	0xbf49b146	-0.7878612
78	0x3ee7cc25	0.45272937
79	0x3e62b101	0.22137834
80	0x3f3b510d	0.7317055
81	0xbe361970	-0.17783141
82	0xbf0c39e2	-0.5477582
83	0x3dff9d98	0.124812305
84	0x3ec2822e	0.37989944
85	0xbf792558	-0.9732261
86	0x3cf2c1f8	0.029633507
87	0x3f00e856	0.50354517
88	0x3eb85ed6	0.36009854
89	0xbfa2653c	-1.2687144
90	0xbf3b24a8	-0.7310281
91	0x3ddfdbe7	0.10930615
92	0x3e9185a3	0.2842227
93	0xbf09051c	-0.5352342
94	0x3f695f9e	0.91161525
95	0x3f53bcb9	0.8270984
96	0x3f26a33a	0.65092814
97	0xbfbfa23b	-1.4971384
98	0x3d2f0676	0.04273077
99	0x3f32ddb9	0.6986957
100	0xbf1de6f0	-0.6168051
101	0xbb0e62dc	-0.0021726405
102	0xbf94f580	-1.1637421
103	0x3ed33f6c	0.41259325
104	0xbf3fa4ac	-0.74860644
105	0x3c490d12	0.012271183
106	0xbfa2df87	-1.2724465
107	0xbf5d0b7e	-0.8634566
108	0x3d94b96f	0.07261931
109	0xbf9a94e6	-1.207669
110	0xbf05a302	-0.52201855
111	0x3f502350	0.8130388
112	0xbea9ffc0	-0.33202934
113	0x3f601c20	0.87542915
114	0xbf3ceb4a	-0.7379652
115	0xbea2a0e8	-0.31763387
116	0xba053ab3	-0.0005082294
117	0xbe2d038c	-0.16895884
118	0x3eae7c30	0.34079123
119	0x3da6526b	0.08121189
120	0xbd534fdb	-0.051589828
121	0x3f04cb2e	0.5187253
122	0x3e6b7ed3	0.22997598
123	0x3f032fc3	0.51244754
124	0xbf05a4c6	-0.5220455
125	0x3f546830	0.8297148
126	0x3e7106cc	0.23537749
127	0x3f66a054	0.9008839
128	0xbf19b71c	-0.6004503
129	0xbf1f3f82	-0.6220628
130	0xbf31180a	-0.69177306
131	0xbfb0823c	-1.3789744
132	0x3f2f04b7	0.6836657
133	0xbeec4410	-0.46145678
134	0x3e8133ac	0.25234735
135	0xbf043fc0	-0.51659775
136	0xbe8e6628	-0.27812314
137	0xbf6cec2e	-0.9254788
138	0x3eb041fd	0.34425345
139	0x3f5e305f	0.8679256
140	0x3ea083e6	0.3135063
141	0x3dad1ca4	0.084527284
142	0xbe4ed210	-0.2019732
143	0xbf64f5af	-0.89437383
144	0xbe0113c9	-0.12605204
145	0x3e0fd105	0.14044578
146	0xbe01b138	-0.1266526
147	0xbf2e241b	-0.6802384
148	0xbf6b25be	-0.91854465
149	0x3de4f47e	0.11179446
150	0xbf359f1a	-0.70945895
151	0xbe54c49b	-0.20778124
152	0xbea09161	-0.31360915
153	0xbe855ac0	-0.260458
154	0x3e5dcda7	0.21660481
155	0xbe7076d8	-0.23482835
156	0xbfb5a5cc	-1.4191222
157	0xbf64c698	-0.8936553
158	0xbe1e13b0	-0.15437198
159	0x3d3aa883	0.04557086
160	0xbfdf84f0	-1.7462444
161	0x3ec03681	0.37541583
162	0xbfb93340	-1.4468765
163	0x3e53ab5f	0.20670842
164	0xbf0fe37c	-0.5620649
165	0xbf3d5974	-0.7396462
166	0xbfae423d	-1.3613964
167	0x3efe045d	0.49612704
168	0xbd963fc0	-0.07336378
169	0xbf09f13e	-0.5388373
170	0x3f13653c	0.57576346
171	0xbec1750e	-0.37784618
172	0x3e2233a0	0.15840006
173	0x3f15bcbe	0.5849112
174	0x3f70be34	0.94040227
175	0x3ef2ccac	0.47421777
176	0xbefccd9e	-0.49375623
177	0xbf2786e4	-0.654402
178	0xbf2c7ff8	-0.67382765
179	0xbf5e1a08	-0.8675847
180	0xbeb64158	-0.35596728
181	0x3f28b6ef	0.65904135
182	0xbea16ff8	-0.31530738
183	0x3f7c2ed3	0.9850895
184	0xbef70938	-0.4824922
185	0xba4e31b3	-0.0007865682
186	0xbec095e8	-0.3761437
187	0xbef13954	-0.4711405
188	0xbf671b5c	-0.9027612
189	0x3eaf9a64	0.34297478
190	0x3f352de6	0.7077316
191	0x3d1a0c6c	0.037609503
192	0x3eeb2ccc	0.45932615
193	0xbf677be2	-0.90423405
194	0x3f683828	0.9071069
195	0xbf64adc3	-0.8932764
196	0xbf667ee8	-0.90037394
197	0xbf349a44	-0.7054789
198	0x3e49b6d3	0.19698648
199	0xbf692001	-0.9106446
200	0xbe747030	-0.23870921
201	0xbd2a6980	-0.04160452
202	0x3e9c8648	0.30571198
203	0xbf3ea402	-0.74469006
204	0xbf178bf0	-0.591979
205	0xbfeb6708	-1.8390818
206	0x3ef352ce	0.47524112
207	0x3e9f84f4	0.31156123
208	0x3d97ed60	0.074183226
209	0xbc19c1b4	-0.009384561
210	0xbf55bd99	-0.8349243
211	0xbf5c46f0	-0.8604574
212	0xbf933f0a	-1.1503613
213	0xbf46008d	-0.7734459
214	0x3da0258f	0.07819664
215	0x3f2e0b8a	0.6798636
216	0x3ec2da46	0.38057154
217	0x3e88bb5c	0.26705444
218	0xbfcd5060	-1.6040154
219	0x3f0cf8fa	0.5506741
220	0xbf7fb9c8	-0.99892855
221	0x3f09b2d6	0.53788507
222	0xbe9723fb	-0.29519638
223	0xbed9e2c4	-0.4255582
224	0x3f45c998	0.7726073
225	0x3f3575b9	0.70882756
226	0xbe7f7f40	-0.24950886
227	0x3cefde6e	0.029280867
228	0xbf1172d6	-0.5681585
229	0x3dfacbd2	0.12245907
230	0x3df04af0	0.11733043
231	0x3e9d53a2	0.3072787
232	0x3eb535a1	0.35392478
233	0xbf118632	-0.5684539
234	0x3f4cd213	0.8000805
235	0xbf638b3e	-0.8888434
236	0xb9eb9caf	-0.0004493943
237	0xbf719a98	-0.94376516
238	0x3f455b1e	0.7709216
239	0xbef31717	-0.47478554
240	0x3c6e80c7	0.01455707
241	0xbf3aa280	-0.72904205
242	0xbd17c796	-0.037055574
243	0xbebdbad8	-0.37056613
244	0xbe980b1c	-0.29695976
245	0xbf283ccc	-0.6571777
246	0xbb80cb8a	-0.0039305137
247	0xbe022428	-0.12709105
248	0x3e1638eb	0.1467015
249	0x3f01dee6	0.5073074
250	0xbd8f9730	-0.070112586
251	0xbf4c5380	-0.7981491
252	0xbf744288	-0.9541402
253	0xbb4643b5	-0.003025276
254	0xbf32ece9	-0.69892746
255	0xbe69c340	-0.22828388

weight f4 [1, 256]
0	0xbd46057a	-0.048345067
1	0xbd202384	-0.03909637
2	0xbd315917	-0.043297853
3	0xbbc950eb	-0.0061436794
4	0xbb6fa455	-0.0036566455
5	0x39c91050	0.0003834986
6	0xbcb6ff8e	-0.022338655
7	0x3c8ac55b	0.01693981
8	0xbc90393c	-0.017605416
9	0x3c20f052	0.009822922
10	0x3d19dbbd	0.037563074
11	0x3d58de33	0.05294628
12	0xbcabdf98	-0.020980641
13	0xbd0d343b	-0.03447364
14	0x3b2d781d	0.0026469298
15	0xbc644f67	-0.013934947
16	0xbcc9d53c	-0.02463781
17	0x3d011282	0.03151179
18	0x3c0c48fd	0.008562324
19	0x3c52b3da	0.012860263
20	0xbcdde3e3	-0.027086204
21	0x3d99987b	0.074997865
22	0xbb17e900	-0.002317965
23	0xbb332280	-0.0027333796
24	0x3b097974	0.0020976933
25	0xbc3ae2c0	-0.0114066005
26	0xbc18109e	-0.009281306
27	0x3db59eec	0.088682026
28	0x3b19fdcf	0.002349723
29	0xbbfb9ad4	-0.007678369
30	0x3bab529d	0.005228354
31	0x3c84fbe1	0.016233386
32	0xbd473bae	-0.0486409
33	0x3cca10c5	0.0246662
34	0xbcadd52e	-0.021219816
35	0xbd0624ca	-0.03274993
36	0x3d5b5f39	0.05355761
37	0x3c78e0fb	0.015190358
38	0xbb0acf85	-0.002118082
39	0x3c8d376e	0.017238345
40	0xbcc81c36	-0.024427515
41	0x3ce06a90	0.027394563
42	0x3c473f8e	0.012161149
43	0xbcd0d9b6	-0.025494438
44	0xbb9af4d7	-0.004728894
45	0xbda4e83e	-0.08052109
46	0x3c851257	0.016244097
47	0x3cddd07a	0.027076948
48	0xbc4ecc40	-0.012621939
49	0x3c5d20c1	0.013496579
50	0xbc89e77e	-0.016834017
51	0xbbdf7969	-0.006819893
52	0xbcdc9377	-0.026925785
53	0xbc8d751d	-0.017267758
54	0xbd56485f	-0.052315112
55	0x3ce9972e	0.02851447
56	0x3ca5e85f	0.020252405
57	0xbc3e504f	-0.011615827
58	0x3b3df386	0.0028984263
59	0x3c9e0f8e	0.019294526
60	0xbc1dd9e3	-0.009634468
61	0xbcc44d94	-0.023962773
62	0x3d0c72fa	0.034289338
63	0xbd96e96a	-0.07368739
64	0x3c44d7e2	0.012014361
65	0xbd104e46	-0.035230897
66	0xbd2f5f50	-0.042815506
67	0xba8be5fd	-0.00106734
68	0xbd0bd544	-0.034138933
69	0xbda56c2f	-0.08077275
70	0xbd917ff9	-0.07104487
71	0x3b96cf60	0.0046023577
72	0xbb90ede0	-0.004422888
73	0x3afd85c2	0.0019342231
74	0xbcca9485	-0.024729023
75	0xbcf4913a	-0.029854406
76	0xbd5ee905	-0.054421443
77	0xbb8249d5	-0.0039760866
78	0xbcc11269	-0.023568349
79	0x3b63673a	0.003469898
80	0xbd14b493	-0.03630502
81	0xbc844782	-0.016147379
82	0x3aeced74	0.0018076138
83	0xbc86037a	-0.01635908
84	0xbc7a36d2	-0.015271859
85	0xbc3c4d6a	-0.011493066
86	0xbd50deac	-0.050993606
87	0xbb263805	-0.002536298
88	0x3d2fa88e	0.042885356
89	0x3b8912d2	0.0041831518
90	0xbd3ebf96	-0.04656943
91	0x3ce67263	0.028130716
92	0x3cebc633	0.028781032
93	0xbd2cf744	-0.042228
94	0xbcb792d1	-0.022408875
95	0xbd056f1d	-0.03257667
96	0x3d27a3d8	0.040927738
97	0x3da0321e	0.07822059
98	0x3d53b426	0.051685475
99	0x3bafa4c2	0.005360217
100	0x3d4321c4	0.047639623
101	0xbca6872b	-0.020328125
102	0x3d54230f	0.051791247
103	0xbb742ecc	-0.0037259338
104	0x3cc64ff4	0.024208046
105	0x3cbe45f6	0.02322672
106	0x3d13c725	0.03607859
107	0xbc033710	-0.008008733
108	0xbbadfbf4	-0.005309576
109	0xbd1c2d62	-0.038129218
110	0xbc79ffee	-0.015258772
111	0x3d244094	0.04010065
112	0xbc8c29f1	-0.017109843
113	0x3c65f8f3	0.014036405
114	0xbc72b46d	-0.014813525
115	0xbd12b268	-0.035814673
116	0xbd015b59	-0.031581257
117	0xbc60683c	-0.013696726
118	0xbb7ddb95	-0.0038735617
119	0xbbbc0ffa	-0.0057392092
120	0xbcde4e33	-0.027136898
121	0x3cfd0f2f	0.03089103
122	0xbc37f9a9	-0.011228957
123	0xbd3a7945	-0.045525808
124	0xbd2fb278	-0.04289481
125	0x3d690fa6	0.05689969
126	0x3c40c306	0.011765247
127	0xbd1a53b7	-0.037677493
128	0x3cb1c3d2	0.02169982
129	0x3aa42d50	0.0012525711
130	0xbd3b45de	-0.045720927
131	0xbb67ce80	-0.0035370886
132	0xbc7b3189	-0.015331634
133	0x3d0e307a	0.0347142
134	0x3c192e0c	0.009349357
135	0xbbde3658	-0.0067813806
136	0xbb1b2d61	-0.002367817
137	0xbcb485e3	-0.022036498
138	0x3cdd2c77	0.026998742
139	0xbb5afeeb	-0.0033416103
140	0xbad35d24	-0.001612578
141	0x3bf1b295	0.007376025
142	0xbc9639a2	-0.018338028
143	0xbd3f89c2	-0.046762235
144	0xbc2afd2b	-0.0104363365
145	0xbd5cf40b	-0.053943675
146	0xbcc80734	-0.024417497
147	0xbd0a8e8f	-0.03382736
148	0x3d573c52	0.05254776
149	0xbc5b2517	-0.013375542
150	0xbc366d41	-0.011134447
151	0x3bd9fa79	0.006652173
152	0x3badfbf0	0.0053095743
153	0x3bb1163b	0.0054042614
154	0xbbbf1fca	-0.005832647
155	0xbd575bd1	-0.052577797
156	0x3ceda0ac	0.029007278
157	0x3a386e82	0.000703551
158	0xbd5101cb	-0.0510271
159	0xbca3d600	-0.019999504
160	0xbda6028f	-0.08105957
161	0x3d17c63a	0.037054278
162	0x3b6a43ef	0.0035746058
163	0x3b1c609a	0.002386129
164	0x3d303523	0.043019425
165	0xbd4978c4	-0.049187437
166	0x3cbfc8d6	0.023411196
167	0xbd1e67f3	-0.038673352
168	0xbd49ae7d	-0.04923867
169	0x3d061672	0.03273625
170	0x3d44bd8d	0.048032332
171	0xbd218c66	-0.039440535
172	0xba741148	-0.00093104364
173	0x3c7eaf0d	0.015544665
174	0xbca591a2	-0.020211045
175	0xbd0bdc80	-0.034145832
176	0x3c34b535	0.011029531
177	0x3b13adc3	0.002253399
178	0x3d603ade	0.05474364
179	0xbd91a0e9	-0.07110769
180	0xbd160ba3	-0.03663219
181	0xbc82b220	-0.015954077
182	0xbbc7f8e8	-0.00610267
183	0x3d531c6b	0.051540773
184	0xbc3726e2	-0.011178704
185	0x3cba3849	0.022731917
186	0x3c0f0c59	0.008730971
187	0x3c9fa1dc	0.01948636
188	0xbd203be7	-0.039119627
189	0xba8a5b7d	-0.001055583
190	0xbb140d0f	-0.0022590791
191	0x3d54b71e	0.051932447
192	0xbd0c1930	-0.03420371
193	0x3d0661bf	0.03280806
194	0xbc5c893f	-0.013460456
195	0xbb8c74c0	-0.0042863786
196	0x3c6219e7	0.013800121
197	0x3cf77a23	0.030209607
198	0xbca564da	-0.020189691
199	0xbc516d55	-0.012782414
200	0xbc34d4b0	-0.011037037
201	0xbb0b1dfa	-0.0021227584
202	0xbc818d29	-0.01581438
203	0x3cb77bfd	0.02239799
204	0x3d75534e	0.0598939
205	0x3ba1cee5	0.004937994
206	0xbd100333	-0.0351593
207	0xbd114ae9	-0.03547183
208	0xbd55433a	-0.052066065
209	0xbd64b211	-0.05583388
210	0x3d6d43f7	0.057926144
211	0xbd102ca2	-0.035198815
212	0x3cb094f4	0.021555401
213	0xbc4296b6	-0.011876753
214	0x3ce9106c	0.028450213
215	0xbcd6a893	-0.02620343
216	0x3d683758	0.056693405
217	0x3d3f212d	0.0466625
218	0xbd6e2df8	-0.058149308
219	0xbc87675e	-0.016528782
220	0xbd3217f6	-0.043479882
221	0xbd777a7b	-0.06041954
222	0x3d482ab6	0.048868857
223	0x3bf0d336	0.007349397
224	0xbbbc78b9	-0.005751696
225	0xbd25678c	-0.040381953
226	0x3c2a35f9	0.010388845
227	0xbc1307ec	-0.008974057
228	0xbcfb11f2	-0.030648205
229	0x3b48f63b	0.0030664343
230	0x3d8b35f8	0.06797403
231	0x3d239de6	0.039945506
232	0xbd1af38e	-0.037829928
233	0x3bcf0318	0.0063175075
234	0xbd267228	-0.04063621
235	0x3d08569f	0.033285733
236	0x3c4a13b3	0.012333798
237	0x3cf34e92	0.029700551
238	0x3d234064	0.03985633
239	0x39fc121b	0.00048078675
240	0xbcf2df98	-0.029647633
241	0xbd37a136	-0.044831477
242	0xbcb002f8	-0.02148579
243	0x3c0a13e3	0.008427593
244	0xbcd97a0d	-0.026547456
245	0xbda2eea0	-0.0795567
246	0x3ac70bfa	0.0015186064
247	0x3bb79368	0.005602289
248	0x3c3e9d74	0.011634219
249	0xbcb91e16	-0.022597354
250	0xbb3c7305	-0.002875508
251	0xbd443e8e	-0.04791122
252	0x3d37232c	0.044711277
253	0xbdbfccc0	-0.09365225
254	0x3cc878f7	0.024471743
255	0x3c9ebd93	0.019377505

weight f4 [256, 1]
0	0xbf526860	-0.82190514
1	0x3f611650	0.8792467
2	0xbec325ca	-0.38114768
3	0xbf7e3ab2	-0.9930831
4	0xbf033573	-0.5125343
5	0x3e059cda	0.13048115
6	0x3f00052f	0.5000791
7	0xbeec3aa8	-0.461385
8	0x3f288219	0.65823513
9	0x3f03268d	0.512307
10	0xbf178d84	-0.5920031
11	0xbf062fc6	-0.52416646
12	0x3e286b99	0.16447295
13	0x3ed8dfab	0.42358145
14	0xbf78996b	-0.971091
15	0xbeefe2ba	-0.46852666
16	0xbe9b1e60	-0.30296612
17	0x3f210a2f	0.62906164
18	0xbfb31750	-1.399149
19	0xbef6bc8d	-0.48190728
20	0x3f23242e	0.6372708
21	0xc0080ec8	-2.1259022
22	0x3e16bd32	0.1472061
23	0xbf2c4f00	-0.67308044
24	0xbf08f80a	-0.5350348
25	0xbda82946	-0.08210997
26	0xbda05f56	-0.07830684
27	0x3d53f980	0.051751614
28	0x3f4488db	0.76771325
29	0xbf69f314	-0.9138653
30	0xbe89dd54	-0.26926672
31	0x3ec048b9	0.37555483
32	0xbeca363f	-0.3949451
33	0x3f1f1e8e	0.62156
34	0x3c76613f	0.015037834
35	0x3f0f8b95	0.5607236
36	0xbf4e2583	-0.8052599
37	0xbe8d2c94	-0.27573073
38	0xbd51fa69	-0.0512642
39	0x3f5bb877	0.85828346
40	0xbd2ceb60	-0.04221666
41	0x3f171a60	0.5902462
42	0xbdf01151	-0.11722053
43	0xbe855f74	-0.26049387
44	0xbd86c330	-0.06580198
45	0x3f576db4	0.8415177
46	0xbed2ad72	-0.41147953
47	0x3e5038cf	0.20334171
48	0x3e8210f5	0.25403562
49	0xbcc0774a	-0.023494381
50	0x3f1d6ac4	0.61491036
51	0xbe42c8c0	-0.19021893
52	0x3f69ce7b	0.9133069
53	0x3f2cd69e	0.6751498
54	0xbed11933	-0.40839538
55	0xbe459814	-0.19296294
56	0xbf2786fc	-0.65440345
57	0x3e7dd97b	0.24789993
58	0xbedbb608	-0.42912316
59	0xbed0b810	-0.4076543
60	0x3f3e8bb7	0.7443194
61	0xbf6fd3cb	-0.93682545
62	0xbe861ea6	-0.26195258
63	0xbf45e440	-0.77301407
64	0xbe793028	-0.24334776
65	0x3f0833dc	0.5320413
66	0x3ede5f27	0.4343197
67	0x3f2268df	0.6344127
68	0xbc82d900	-0.015972614
69	0x3f391a8e	0.72306144
70	0x3f3f29ff	0.74673456
71	0xbf2b94c9	-0.67023903
72	0x3e5b4159	0.21411647
73	0x3e2f5487	0.17122088
74	0xbf332e40	-0.69992447
75	0xbefea1ee	-0.49732918
76	0xbec20cb4	-0.37900317
77	0xbebbf410	-0.36709642
78	0x3ee3d77c	0.4450034
79	0xbecf2c48	-0.4046347
80	0xbf6fae0a	-0.9362494
81	0x3f2f3cac	0.6845195
82	0x3f45b19c	0.77224135
83	0xbaa31997	-0.001244354
84	0x3f36a942	0.71352017
85	0xbeee03c0	-0.46487236
86	0x3f07a0d4	0.5297978
87	0x3f1f2b39	0.6217533
88	0x3f526b46	0.82194936
89	0xbec4f4fd	-0.3846816
90	0xbf85b53f	-1.0445937
91	0x3f444235	0.76663524
92	0xbf663fe2	-0.8994123
93	0x3eaa33dc	0.3324269
94	0xc03b4a06	-2.926393
95	0x3bb5668a	0.0055359052
96	0x3e539136	0.20660862
97	0xbefd2170	-0.49439573
98	0x3d958490	0.07300675
99	0xbf7d6455	-0.9898122
100	0x3e97c420	0.2964182
101	0x3e8ec686	0.27885836
102	0x3e78ab9a	0.24284211
103	0xbef246d4	-0.47319663
104	0x3eccf357	0.40029404
105	0x3f10be9d	0.5654085
106	0xbf3759ef	-0.716216
107	0xbe1d7e10	-0.1538012
108	0xbf3051d4	-0.6887486
109	0xbe170000	-0.14746094
110	0xbf03ec96	-0.51532876
111	0x3f0e5192	0.55593216
112	0xbeaca82c	-0.33722055
113	0x3eca267d	0.3948249
114	0x3ea7d865	0.32782283
115	0xbe7830a9	-0.24237312
116	0xbdf63593	-0.12021937
117	0x3f2e6680	0.6812515
118	0xbf55516e	-0.83327377
119	0xbecbc8a0	-0.39801502
120	0x3f6005b8	0.87508726
121	0xbe57df19	-0.21081199
122	0xbf436b68	-0.76335764
123	0xbe66c1f0	-0.22534919
124	0xbfae5f45	-1.3622824
125	0xbe5dcbac	-0.21659726
126	0x3ed823f8	0.42214942
127	0x3f67db2e	0.90568817
128	0x3e59c37b	0.21265976
129	0xbf1d30a0	-0.6140232
130	0x3e75511f	0.23956726
131	0x3eaba099	0.33520964
132	0xbd864059	-0.06555242
133	0xbcfd6480	-0.030931711
134	0x3f0878ad	0.53309137
135	0x3d06d5e0	0.03291881
136	0xbd1d9060	-0.038467765
137	0xbf4193b6	-0.75616014
138	0x3e769daa	0.24083582
139	0xbf0b6dbb	-0.5446431
140	0x3ec771c5	0.38953987
141	0x3da9923d	0.08279846
142	0x3f5db319	0.86601406
143	0xbe81d8f0	-0.25360823
144	0x3ec15ac8	0.37764573
145	0x3f2ed293	0.6829006
146	0xbf019972	-0.50624764
147	0x3e665bed	0.22496004
148	0x3eec07ed	0.46099797
149	0x3f4dbe07	0.80368084
150	0xc01c5526	-2.442697
151	0x3eadf257	0.33973953
152	0x3f1ec3ff	0.62017816
153	0x3d5e41b6	0.054261886
154	0xbc472d66	-0.01215682
155	0x3f624a06	0.883942
156	0xc0692855	-3.6430867
157	0x3e7f925b	0.24958174
158	0xbe529528	-0.20564711
159	0xbd724ba0	-0.059154153
160	0x3edf9750	0.4367013
161	0xbf67e359	-0.9058128
162	0xbaca6800	-0.0015442371
163	0xbf5de4c0	-0.8667717
164	0xbea16d1d	-0.3152856
165	0x3f3d0150	0.7383013
166	0x3ea5af9c	0.32360542
167	0xbf2be285	-0.67142516
168	0x3e986290	0.29762697
169	0x3e81c950	0.25348902
170	0x3e25767e	0.16158482
171	0x3eed3fe1	0.46337798
172	0xbebe5928	-0.37177396
173	0xbf732f9c	-0.9499452
174	0x3e995588	0.29948068
175	0x3f44cef1	0.7687827
176	0xbef74760	-0.48296642
177	0xbf4b08ec	-0.7931049
178	0x3e2f1471	0.17097642
179	0x3f404db2	0.75118554
180	0xbf07b822	-0.5301534
181	0xbf53e97a	-0.8277813
182	0x3e4301c9	0.1904365
183	0xbed0511a	-0.40686876
184	0xbe5e44c0	-0.21705914
185	0x3e0b991e	0.13632628
186	0x3e9da578	0.30790305
187	0x3eba123b	0.36342034
188	0xbd732b06	-0.059367202
189	0x3e449724	0.1919828
190	0xbf1fe45a	-0.6245781
191	0xbeef7451	-0.4676843
192	0x3ee9106f	0.4552035
193	0x3e214338	0.15748298
194	0x3ef5747d	0.47940436
195	0xbf56133c	-0.836231
196	0x3f05ec21	0.5231343
197	0xbd8dcef0	-0.06924236
198	0x3f27fce5	0.6562026
199	0xbe2d45b8	-0.16921127
200	0x3f0aa761	0.5416165
201	0xbf4fd6fc	-0.81187415
202	0x3f4e9502	0.8069612
203	0xbeffac60	-0.499362
204	0xbe47e968	-0.19522631
205	0x3e56ef15	0.2098964
206	0xbece467c	-0.4028815
207	0xbf2178d4	-0.63074994
208	0xbcdf5fc0	-0.027267337
209	0x3f0661b5	0.5249284
210	0xbf1f341a	-0.62188876
211	0x3f2eb680	0.6824722
212	0x3e35797e	0.17722127
213	0xbeff5066	-0.49866027
214	0x3f54403a	0.829105
215	0xbf19fbae	-0.6014966
216	0xbef29ff4	-0.4738766
217	0xbf01c5e2	-0.5069257
218	0xbedd2ec0	-0.4319973
219	0x3f2afc30	0.6679106
220	0xbf0e9cc4	-0.55707955
221	0xbf3571e2	-0.70876896
222	0xbe03f599	-0.12886657
223	0x3e53dad8	0.20688951
224	0x3c5a6c57	0.013331494
225	0x3e87b7c9	0.26507404
226	0x3e0bdcc3	0.13658433
227	0x3d7e4f76	0.0620875
228	0x3f434109	0.7627111
229	0xbf7269e8	-0.9469285
230	0xbebac64b	-0.3647941
231	0xbf68245e	-0.9068049
232	0xbf088fb6	-0.53344285
233	0x3ea3f6e5	0.32024303
234	0xbf2717f6	-0.65270936
235	0xbf4a875c	-0.7911279
236	0x3e133494	0.14375526
237	0xc03886ad	-2.88322
238	0xbf1aa56e	-0.60408676
239	0xbe045298	-0.12922132
240	0x3f1294c4	0.5725825
241	0xbf1a5ebf	-0.6030082
242	0x3ebfb431	0.37442163
243	0x3ef0b8c5	0.47015968
244	0x3e3fc4a9	0.18727364
245	0xbf405ef3	-0.7514488
246	0x3ad85800	0.0016505718
247	0xbe675472	-0.22590807
248	0x3da79030	0.081817985
249	0x3c187217	0.009304545
250	0xbf308446	-0.68951833
251	0xbee9e406	-0.4568178
252	0x3e733fc0	0.23754787
253	0x3f59e940	0.85121536
254	0x3ea7126e	0.32631248
255	0xbf679d22	-0.9047414
