checkpoints/12050400.ckpt (torch, 122663 bytes, 33 tensors)

weight f4 [256, 18]
0	0xbd3ad836	-0.04561635
1	0x3d964dd2	0.07339062
2	0x3e10c94a	0.14139286
3	0xbdf0d674	-0.11759654
4	0x3dcbb946	0.099474475
5	0x3e33f3f5	0.17573531
6	0xbe377933	-0.17917328
7	0xbce38c6c	-0.02777692
8	0x3e4b212c	0.19836873
9	0x3dcd234e	0.100164995
10	0xbe008d06	-0.12553796
11	0xbe692a03	-0.22769932
12	0xbc6c72d9	-0.014431679
13	0xbe19426b	-0.14966743
14	0xbe4e8006	-0.20166025
15	0xbe10bce1	-0.14134552
16	0xbc90d080	-0.017677546
17	0x3e3fae84	0.18718916
18	0x3dc53322	0.096288934
19	0xbd59a960	-0.053140044
20	0xbd9148b3	-0.070939444
21	0xbe42ffd3	-0.19042902
22	0xbe373b7d	-0.17893787
23	0x3e0ad351	0.13557173
24	0xbe46c366	-0.19410476
25	0x3e33fc1a	0.17576638
26	0x3e6f2193	0.23352651
27	0xbdefe9d1	-0.11714519
28	0x3e5bf8d1	0.21481635
29	0xbd71178b	-0.058860343
30	0xbc48aea8	-0.012248673
31	0x3d8c64cb	0.06855162
32	0xbd0baf15	-0.034102518
33	0xbd6e8da4	-0.058240548
34	0x3c185750	0.009298161
35	0xbcf34cb7	-0.029699666
36	0xbd721d69	-0.05911008
37	0xbc8a2b19	-0.016866254
38	0xbe56fd5b	-0.20995085
39	0xbdbdb283	-0.09262564
40	0xbda4435c	-0.0802066
41	0xbddfac37	-0.10921519
42	0x3dd2ca8f	0.10292541
43	0x3df6157b	0.12015816
44	0xbe11252a	-0.14174333
45	0x3d32c2f0	0.043642938
46	0xbdadbeae	-0.08483635
47	0xbe468b1c	-0.19389004
48	0x3e63d160	0.22247839
49	0xbd0c74f1	-0.03429121
50	0xbdacd586	-0.08439164
51	0x3deac61d	0.11463568
52	0x3e37f1bf	0.17963313
53	0xbdd80cb9	-0.10549302
54	0xbe674a05	-0.2258683
55	0x3d83da90	0.06438172
56	0x3c1f0a16	0.0097069945
57	0x3ded8bfc	0.115989655
58	0x3de2b88f	0.11070358
59	0x3d8a5f39	0.067564435
60	0x3d9f3f64	0.07775763
61	0x3cd0986e	0.02546331
62	0x3dc0064f	0.09376203
63	0xbd8503b0	-0.06494844
64	0xbcb7c0b0	-0.022430748
65	0xbe658f4b	-0.22417943
66	0x3e698583	0.22804837
67	0xbe1485db	-0.14504187
68	0xbe0f009a	-0.13965073
69	0x3d0dbbe3	0.03460301
70	0x3d8e9c28	0.06963378
71	0xbe44ce6d	-0.1921937
72	0x3dcdc423	0.10047176
73	0xbe4cb4ff	-0.1999092
74	0x3c43b5eb	0.011945228
75	0x3e60249e	0.21888968
76	0xbe1910a6	-0.14947757
77	0xbe6f18d6	-0.23349318
78	0x3ded16b6	0.115765974
79	0xbe3d3ac6	-0.18479452
80	0xbda68a92	-0.08131899
81	0xbe23c389	-0.1599256
82	0xbe1c1ff5	-0.15246566
83	0xbe04580b	-0.1292421
84	0x3dcc1a78	0.09965986
85	0xbdc589ab	-0.09645399
86	0x3dedee57	0.11617725
87	0x3dd43015	0.103607334
88	0xbbd80e1a	-0.006593478
89	0x3e00fa40	0.12595463
90	0x3e4879c4	0.195777
91	0xbd86a5de	-0.065746054
92	0x3c8c78c6	0.017147433
93	0xbe07b9b6	-0.13254437
94	0xbe72c0b1	-0.23706318
95	0xbe3131b7	-0.17304121
96	0x3e27d405	0.16389473
97	0x3dde58d7	0.108567886
98	0x3e049034	0.12945634
99	0xbe139433	-0.14412002
100	0xbdc71c78	-0.09722227
101	0xbe0d5c66	-0.13804778
102	0xbd855150	-0.0650965
103	0x3debeeb1	0.11520136
104	0x3dc063e5	0.09394053
105	0xbd12ee25	-0.035871644
106	0xbdb3e61b	-0.087841235
107	0xbd416a95	-0.047220785
108	0x3e4cd8bb	0.20004551
109	0xbe0ea2ac	-0.13929242
110	0xbbc15496	-0.005899976
111	0x3e49b607	0.19698344
112	0x3cea374c	0.02859082
113	0x3e49cdc0	0.19707394
114	0xbe0c8a7a	-0.137247
115	0x3d47972d	0.048728157
116	0xbca833f7	-0.020532591
117	0x3e192bdb	0.14958136
118	0xbd047b1e	-0.032343976
119	0x3d2133e1	0.039356116
120	0x3e3ba898	0.18326032
121	0x3d07649b	0.03305493
122	0xbde8f245	-0.11374334
123	0xbccb4682	-0.024813894
124	0x3d7b7802	0.061393745
125	0x3a111128	0.00055338675
126	0x3e040c65	0.12895353
127	0x3d48b995	0.04900511
128	0x3dc7dae6	0.097585484
129	0x3def3833	0.11680641
130	0xbda26f79	-0.07931418
131	0xbe0c45a3	-0.1369844
132	0x3e30e08f	0.17273162
133	0x3e57fdf0	0.21092963
134	0x3db4b685	0.08823875
135	0x3cf92079	0.030410992
136	0xbe4e119b	-0.20123903
137	0xbe2d9b67	-0.16953813
138	0x3de6a006	0.11260991
139	0xbddf89e2	-0.10914971
140	0x3e1c4227	0.1525961
141	0x3e15582a	0.14584413
142	0xbe71cd1c	-0.236134
143	0xbe63e238	-0.22254264
144	0x3d9d6cd6	0.076867744
145	0x3d0563d3	0.032565903
146	0xbe3d3b2a	-0.184796
147	0x3e08be14	0.13353759
148	0x3da3ba91	0.07994569
149	0x3e2a0988	0.16605198
150	0x3df0272f	0.11726224
151	0x3d41c6d6	0.047308765
152	0xbd71029f	-0.05884039
153	0x3e679a23	0.22617392
154	0xbd85c6f2	-0.065320864
155	0x3e347f47	0.17626677
156	0x3e2f2282	0.17103007
157	0xbd4a2768	-0.049353987
158	0xbd2eccaf	-0.04267567
159	0x3cddda57	0.027081652
160	0xbb3c7392	-0.0028755409
161	0x3df7b3f2	0.12094869
162	0xbdb5d065	-0.08877639
163	0xbe3f32eb	-0.18671767
164	0xbe401891	-0.18759371
165	0x3e3c8897	0.1841148
166	0xbdf101f2	-0.11767949
167	0xbe2ce515	-0.16884263
168	0xbd8a162f	-0.067425124
169	0xbad641b8	-0.001634649
170	0xbc050365	-0.008118485
171	0x3e026704	0.1273461
172	0xbdd37c9c	-0.10326502
173	0xbdda771c	-0.106672496
174	0x3e0df5a3	0.13863234
175	0xbdac7d64	-0.08422354
176	0xbd989f55	-0.07452265
177	0xbe2feeb1	-0.17180897
178	0x3da052da	0.07828303
179	0x3dc87a0d	0.09788904
180	0xbd6be89b	-0.057594877
181	0xbda1e914	-0.07905784
182	0xbe4bebb4	-0.19914132
183	0xbe444d48	-0.19170105
184	0xbe3df0fa	-0.18548957
185	0xbdc9b714	-0.098493725
186	0xbdeb1146	-0.11477904
187	0x3d2dd742	0.042441614
188	0xbdd8d2de	-0.10587095
189	0xbe5dd002	-0.2166138
190	0xbd708c38	-0.058727473
191	0xbe250197	-0.16113888
192	0xbe1e5851	-0.15463378
193	0x3e29882f	0.16555856
194	0x3c97a755	0.018512407
195	0xbe175229	-0.14777435
196	0xbd2f932c	-0.042864963
197	0x3e6fd48c	0.23420924
198	0x3e15edee	0.14641544
199	0x3cc1fa48	0.023678914
200	0x3bfbf99e	0.007689669
201	0x3e2933f6	0.16523728
202	0x3d628c8b	0.055309813
203	0x3de99bfa	0.11406703
204	0x3e74ceb8	0.23906982
205	0x3e057e52	0.13036469
206	0x3e4fe99b	0.20303957
207	0x3e63da33	0.22251205
208	0x3e52e25c	0.20594162
209	0x3dbaad75	0.091151156
210	0xbe329ecc	-0.17443389
211	0x3e011bed	0.12608309
212	0xbdddbe1a	-0.108272746
213	0xbd1d0174	-0.038331464
214	0x3cff3598	0.031153485
215	0x3e0cb4f2	0.137409
216	0x3e132a85	0.14371689
217	0x3cd73b7f	0.026273487
218	0x3dc70948	0.09718567
219	0x3e70db0c	0.2352106
220	0x3e5e16ee	0.21688434
221	0x3daa4312	0.08313574
222	0x3d19609f	0.03744566
223	0xbe27bdc3	-0.16380982
224	0x3e38cf5b	0.1804785
225	0x3de17c70	0.11010063
226	0xbe2ca408	-0.16859448
227	0xbd299272	-0.041399427
228	0xbd62d58b	-0.05537943
229	0xbe0f6196	-0.1400207
230	0xbdbd52d8	-0.09244317
231	0x3e52dd19	0.20592155
232	0x3d31a329	0.043368492
233	0x3e4a2c91	0.19743563
234	0x3d8ee5c9	0.06977422
235	0x3e2211a3	0.1582704
236	0x3d542bc5	0.051799554
237	0x3c136c40	0.008997977
238	0x3c1272c7	0.008938498
239	0x3d8027cb	0.0625759
240	0xbc2139ef	-0.009840473
241	0xbe59157a	-0.21199599
242	0x3e414fc9	0.18878092
243	0xbdc79a9f	-0.097462885
244	0xbe68403a	-0.2268075
245	0xbd55f5df	-0.052236434
246	0x3e1be4af	0.15223955
247	0x3e6a02e3	0.22852664
248	0xbd63f153	-0.055650067
249	0xbe66066a	-0.22463384
250	0x3cf31911	0.029675039
251	0x3e44c837	0.19217001
252	0xbe56abe1	-0.20964004
253	0x3d5245b0	0.05133599
254	0x3dfaf1df	0.122531645
255	0x3d93a839	0.0720982

bias f4 [256]
0	0x3e4a7ebd	0.1977491
1	0x3e6280d9	0.22119464
2	0xbb4e46dc	-0.003147534
3	0xbe26f536	-0.16304478
4	0xbe3c720f	-0.18402885
5	0x3dd59e48	0.104305804
6	0x3dbd7a0b	0.092517935
7	0xbe2e8a33	-0.17044906
8	0xbda7a937	-0.08186572
9	0xbe202515	-0.15639146
10	0x3db35971	0.08757294
11	0xbc00f3c2	-0.007870616
12	0x3e1ebdb8	0.1550206
13	0xbc410bad	-0.011782569
14	0xbe53670d	-0.2064478
15	0x3e4eaf21	0.20183994
16	0xbe150d80	-0.14555931
17	0x3e40afbe	0.1881704
18	0xbe11189b	-0.14169542
19	0x3c9dbb91	0.019254478
20	0x3d498b91	0.049205367
21	0xbd04d1b7	-0.032426562
22	0x3e13ea21	0.14444782
23	0xbe3a24ee	-0.1817815
24	0xbe37fb97	-0.17967068
25	0xbc8384de	-0.016054567
26	0x3e2cfe1e	0.16893813
27	0xbd5b0065	-0.053467173
28	0xbe09b9ef	-0.13449834
29	0xbe14fda7	-0.14549886
30	0x3de68569	0.11255915
31	0xbdaaa795	-0.08332745
32	0xbe0088c7	-0.12552176
33	0x3e0146ba	0.12624636
34	0x3dee300f	0.1163026
35	0x3e3aeada	0.18253651
36	0x3e0c22e0	0.13685179
37	0xbda04cb6	-0.078271315
38	0x3d41e00a	0.0473328
39	0xbda32464	-0.07965925
40	0xbce70649	-0.02820124
41	0xbdc7089f	-0.09718441
42	0xbe1d25ee	-0.153465
43	0x3e4ed715	0.20199235
44	0x3e190626	0.14943752
45	0xbd42fef6	-0.04760643
46	0x3d882fdd	0.06649754
47	0x3d9e3ab2	0.07726039
48	0x3e7354c2	0.23762801
49	0x3e2e22fe	0.17005536
50	0x3da06c5b	0.07833167
51	0xbe29d401	-0.1658478
52	0x3dd46e7c	0.10372636
53	0xbd80d0f8	-0.062898576
54	0xbe584250	-0.21119046
55	0xbe15e661	-0.14638664
56	0xbda0aa47	-0.07844978
57	0xbe0bb7aa	-0.13644281
58	0xbe073465	-0.1320358
59	0xbe3fa226	-0.18714198
60	0xbdd07c13	-0.10179915
61	0x3e1ea960	0.15494299
62	0xbc29f7fe	-0.010374067
63	0x3e1a9d47	0.15099059
64	0xbdba09ed	-0.090839244
65	0x3d4d9eab	0.050200146
66	0xbc4ccb69	-0.012499669
67	0x3e17b8d5	0.14816602
68	0x3e61a8d8	0.22037065
69	0x3d73eabb	0.05955003
70	0x3e3444b9	0.1760434
71	0xbe1292b1	-0.14313771
72	0xbddb992b	-0.10722574
73	0xbb3bf91c	-0.0028682416
74	0x3e44cc53	0.19218569
75	0x3dd90d26	0.10598211
76	0x3e469f99	0.19396819
77	0xbe2364e8	-0.15956461
78	0x3d420d12	0.047375746
79	0xbe044061	-0.12915184
80	0xbcc3e9aa	-0.02391513
81	0x3be7ff4f	0.0070799957
82	0xbe20936e	-0.1568124
83	0x3d7dc167	0.06195202
84	0xbe13cf17	-0.14434467
85	0xbccf4590	-0.025301725
86	0x3d32450f	0.04352289
87	0xbde49f7c	-0.11163232
88	0xbcf34102	-0.029694084
89	0xbd47221c	-0.048616514
90	0x3e85f5c8	0.2616408
91	0x3e6aa44f	0.22914241
92	0x3e49281d	0.19644208
93	0xbd329ca6	-0.043606423
94	0xbdc54e24	-0.09634045
95	0xb9ecc5a6	-0.00045160687
96	0xbdb58624	-0.08863476
97	0xbcbbf903	-0.022945886
98	0xbde26d02	-0.11055948
99	0xbb9a6645	-0.0047118985
100	0x3e7070bb	0.23480503
101	0xbda004ea	-0.07813437
102	0xbdc191fe	-0.09451674
103	0x3cd2686b	0.025684556
104	0xbd814975	-0.06312839
105	0xbd7136bb	-0.058890086
106	0xbc4c2cec	-0.012461882
107	0xbe82f811	-0.25579885
108	0x3d5c2113	0.05374248
109	0x3e50e2b6	0.20398983
110	0xbd5334e2	-0.051564105
111	0x3e3ac0e3	0.18237643
112	0xbce22734	-0.027606584
113	0xbe4a1e33	-0.19738083
114	0x3e22f497	0.15913616
115	0xbd6e4e6c	-0.058180258
116	0xbd7058ab	-0.05867831
117	0xbe5cb2bd	-0.21552558
118	0x3d34719c	0.04405366
119	0xbdc70f7d	-0.09719751
120	0xbe2710da	-0.16315022
121	0xbdc3ca63	-0.095600866
122	0xbe2a4fd3	-0.16632013
123	0xbd6bcde8	-0.057569414
124	0xbdb3932f	-0.087683074
125	0xbd3a9353	-0.045550656
126	0x3e101a5a	0.14072552
127	0xbe2c32ed	-0.16816302
128	0xbe259878	-0.16171443
129	0x3e50c146	0.20386228
130	0xbd3d5f67	-0.04623356
131	0x3d4ae6fa	0.049536683
132	0xbd248ad2	-0.040171452
133	0xbd514541	-0.051091436
134	0xbe0c2129	-0.13684525
135	0xbe33d94a	-0.17563358
136	0xbe5a2632	-0.21303633
137	0xbd898f31	-0.06716765
138	0x3d6d1f36	0.057891093
139	0xbe2144d9	-0.1574892
140	0x3cfa06db	0.030520847
141	0x3e64c1cc	0.22339553
142	0xbe0ca2bd	-0.13733955
143	0xbe77be81	-0.24193765
144	0xbc2adead	-0.010429067
145	0x3e273a08	0.16330731
146	0xbe51091b	-0.2041363
147	0x3e48730b	0.19575135
148	0xbe1acc61	-0.15117027
149	0xbdbbc72b	-0.09168848
150	0x3c335d87	0.010947592
151	0x3d6f3bde	0.058406703
152	0xbe3b8d45	-0.18315609
153	0x3e3406ce	0.17580721
154	0xbe5594bd	-0.2085752
155	0xbd90b347	-0.070654444
156	0xbcaadaa6	-0.020856213
157	0x3c9a8442	0.018861894
158	0xbe37aef2	-0.1793783
159	0x3d5dd233	0.05415554
160	0xbe013c7d	-0.1262073
161	0xbd09158c	-0.033467814
162	0x3ca74765	0.020419786
163	0xbe177680	-0.14791298
164	0xbcd9f214	-0.02660469
165	0xbe0e7f95	-0.13915856
166	0xbde43518	-0.11142939
167	0xbe20651d	-0.15663572
168	0xbd72d8cd	-0.05928879
169	0xbe5ae674	-0.21376973
170	0xbe5116dc	-0.20418876
171	0xbcabb4a7	-0.020960165
172	0x3e4e3a8e	0.20139524
173	0x3e48b589	0.196005
174	0x3e582023	0.21106009
175	0xbe2943ae	-0.16529724
176	0x3e008702	0.12551501
177	0xbe07ed6d	-0.13274164
178	0xbd322a29	-0.04349724
179	0xbe415b39	-0.18882455
180	0xbcbad772	-0.02280781
181	0x3e1cfe9b	0.153315
182	0x3d2be338	0.04196474
183	0x3dc4a6fd	0.09602163
184	0x3d229940	0.03969693
185	0x3e243433	0.16035537
186	0x3dd30d4f	0.10305273
187	0xbe45dd76	-0.19322762
188	0xbdacdd46	-0.08440642
189	0x3dfbc70a	0.12293823
190	0xbe56a7ff	-0.20962523
191	0xbe24a357	-0.16077934
192	0xbe820fd1	-0.25402692
193	0xbe2e5bc1	-0.17027189
194	0x3ca5be5e	0.020232376
195	0x3e3aaba9	0.18229546
196	0x3d9f7213	0.0778543
197	0x3e199f80	0.1500225
198	0x3de93e06	0.11388783
199	0xbe0df2ef	-0.13862203
200	0x3de72b2e	0.11287533
201	0x3d847e9e	0.06469463
202	0x3e4cd027	0.20001279
203	0xbe2e5582	-0.17024806
204	0xbe304be5	-0.17216451
205	0xbddde322	-0.10834338
206	0xbd2f1a6a	-0.0427498
207	0x3e68793e	0.227025
208	0xbdc8e6a1	-0.09809614
209	0x3bd3aedc	0.006460054
210	0x3dd78849	0.10524041
211	0xbe562543	-0.20912652
212	0x3cb4dfea	0.022079427
213	0xbd9fbe2f	-0.077999465
214	0x3de10526	0.1098731
215	0xbc841808	-0.01612474
216	0xbe8497e7	-0.25897142
217	0x3e1a20c5	0.15051563
218	0xbc9a0b0a	-0.018804092
219	0x3d674cfc	0.056469902
220	0x3e2f69a1	0.17130138
221	0xbd8922b8	-0.06696075
222	0x3d912c43	0.070885204
223	0xbe343c5f	-0.17601155
224	0xbda13619	-0.078716464
225	0xbab9edf8	-0.00141853
226	0x3e1ddf1a	0.15417138
227	0x3d13d864	0.036095038
228	0x38d549f8	0.00010170409
229	0xbdc45291	-0.09586061
230	0x3dbb2a57	0.09138935
231	0x3d570435	0.052494247
232	0xbe668227	-0.22510587
233	0x3d419e0c	0.047269866
234	0x3cbde1da	0.023178983
235	0x3e1ac4dc	0.15114158
236	0x3b1155b7	0.0022176334
237	0xbdb39e27	-0.087703995
238	0xbe1d7147	-0.15375243
239	0xbdfd6746	-0.123732135
240	0x3d300e61	0.042982463
241	0x3e1679dc	0.14694923
242	0x3c6d5771	0.01448618
243	0xbb8dd294	-0.0043280814
244	0x3dfb3712	0.12266363
245	0xbdabee42	-0.083950534
246	0x3e511436	0.20417866
247	0xbe0526ff	-0.13003157
248	0xbe283608	-0.16426861
249	0x3e101977	0.14072214
250	0xbe60ed40	-0.21965504
251	0xbdf2f591	-0.11863244
252	0xbe24afbc	-0.16082662
253	0xbda41b5a	-0.080130294
254	0xbcb2c6f9	-0.021823393
255	0xbe5b1813	-0.21395902

weight f4 [1, 256]
0	0xbcd0b93c	-0.025478952
1	0xba364fd3	-0.0006954644
2	0x3d24d031	0.04023761
3	0x3daa2395	0.08307568
4	0x3c194319	0.009354376
5	0xbc6c6f7b	-0.014430876
6	0xbd984b9f	-0.074362986
7	0xbc91331e	-0.01772457
8	0x3d499758	0.0492166
9	0x3c0a1128	0.008426942
10	0xbcc8bcbd	-0.02450406
11	0xbd13f7bf	-0.03612494
12	0x3c52f78f	0.012876405
13	0xbda24257	-0.079228096
14	0x3d2c3e51	0.042051617
15	0xbd9d23da	-0.07672854
16	0xbd7c5834	-0.061607555
17	0xbd9050f9	-0.07046694
18	0xbc34db6d	-0.011038643
19	0xbd0fa5b6	-0.035070144
20	0x3cd8e8ee	0.026478257
21	0x3d86e27f	0.065861695
22	0x3d2adc27	0.04171386
23	0x3c5a64b9	0.013329678
24	0x3db52f05	0.08846859
25	0xbd81e0ed	-0.06341729
26	0x3d856862	0.0651405
27	0xbd6b11d2	-0.05739004
28	0x3abb2981	0.0014279337
29	0xbd7902a1	-0.060793523
30	0x3b06a8dd	0.0020547428
31	0x3caca998	0.021076962
32	0x3d83ad5a	0.064295486
33	0xbd5c9e25	-0.053861756
34	0xbc837f20	-0.016051829
35	0x3cc82bb1	0.024434896
36	0x3c4605d9	0.012086355
37	0x38f46af0	0.00011654745
38	0xbd9d88e2	-0.07692124
39	0x3d80d0ec	0.06289849
40	0x3a88966c	0.0010420806
41	0x3d8d0fff	0.06887817
42	0x3cbaf0d5	0.022819916
43	0xbd528d01	-0.051404003
44	0x3d5944ed	0.05304425
45	0x3d131359	0.035907123
46	0x3c0b1f61	0.008491368
47	0xba88a97e	-0.0010426489
48	0xbd06b79a	-0.03288994
49	0xbd174e90	-0.036940157
50	0xbc993ba4	-0.018705197
51	0xbd4718c6	-0.04860761
52	0xbbb0f9e3	-0.0054008826
53	0xbda91649	-0.08256204
54	0xbbbf40d5	-0.005836586
55	0x3d911d58	0.07085675
56	0xbd261dee	-0.040555887
57	0x3d0cd7e6	0.034385584
58	0xbc5c0557	-0.0134290075
59	0x3c203592	0.009778397
60	0x3cc0a5d5	0.023516575
61	0xbdd75a08	-0.10515219
62	0xbd603e54	-0.05474694
63	0x3c91b4a2	0.017786328
64	0xbd28f245	-0.04124667
65	0xbd561ec2	-0.052275427
66	0xbd1b3976	-0.037896596
67	0x396b0976	0.00022414871
68	0xbda934af	-0.08262002
69	0xbb0d2e4d	-0.002154249
70	0x3d5ff8b4	0.05468054
71	0x3c252e39	0.010081821
72	0x3be63bb6	0.007026161
73	0x3b3d4e4a	0.0028885775
74	0x3db009fd	0.08595655
75	0xbd57f784	-0.052726284
76	0xbc72e956	-0.014826139
77	0xbd29dcb1	-0.041470233
78	0x3c9af65d	0.018916303
79	0xbc8833a7	-0.016626192
80	0xbd24c437	-0.040226188
81	0xbd1267d5	-0.035743553
82	0x3d1c3235	0.03813382
83	0xbdb33c43	-0.087517284
84	0x3c8cc2dc	0.01718276
85	0xbd91df60	-0.071226835
86	0x3c229f02	0.009925606
87	0x3d8e1cda	0.06939097
88	0x3cb6ede8	0.02233024
89	0x3be7ed78	0.007077869
90	0xbd8f40ae	-0.069947585
91	0xbd8d13a4	-0.06888512
92	0xbd9271f3	-0.0715064
93	0x3d5f2fc8	0.054488927
94	0xbd8563d2	-0.0651318
95	0xbd6e8571	-0.05823273
96	0xbd20efda	-0.03929124
97	0xbdd93bb8	-0.106070936
98	0x3c86cb97	0.016454501
99	0xbd4f9e21	-0.050687913
100	0xbcd29931	-0.025707813
101	0x3d4bead1	0.049784485
102	0xbcf6d79d	-0.03013211
103	0xbceefcbe	-0.029173251
104	0x3d018aed	0.03162663
105	0x3c97f1d6	0.018547934
106	0x3c7c4588	0.015397437
107	0x3dd0d64b	0.10197123
108	0x3d4e0956	0.050301872
109	0xbd8c26ae	-0.06843315
110	0x38c86e20	9.5572555e-05
111	0x3b4bc6b6	0.0031093783
112	0x3cfaaf5e	0.0306012
113	0x3c8d8b00	0.017278194
114	0xbcce064c	-0.025149487
115	0x3d79721a	0.06089983
116	0x3cb5ffc5	0.022216687
117	0x3d663a31	0.05620784
118	0xbd190e62	-0.037367232
119	0x3d0b5cbe	0.034023993
120	0x3d037312	0.03209216
121	0x3d3067ee	0.043067865
122	0x3d2a4a12	0.041574545
123	0x3d43e678	0.047827214
124	0x3d5e16dd	0.054221023
125	0xbadbe6a1	-0.0016777107
126	0xbd8fab70	-0.07015121
127	0x3d503027	0.05082717
128	0x3da2098f	0.079119794
129	0x3cecb408	0.02889444
130	0x3d0d6e4f	0.034529027
131	0xbcd36866	-0.025806617
132	0x3c92119c	0.017830662
133	0xbb16f788	-0.0023035724
134	0x3ca55971	0.02018425
135	0x3d71be41	0.05901933
136	0x389114ce	6.918014e-05
137	0x3ba520b6	0.0050393
138	0xbd3a6e21	-0.045515183
139	0x3d980807	0.07423406
140	0x3c14db29	0.009085455
141	0xbd187aac	-0.037226364
142	0x3ddd751d	0.10813353
143	0x3dc14b7a	0.09438224
144	0x3c21038f	0.009827509
145	0x3c04320d	0.008068574
146	0x3d8bc4e4	0.06824663
147	0xbda2fe1b	-0.07958623
148	0xbd35ab1e	-0.044352643
149	0x3d201842	0.039085634
150	0xb898132c	-7.251496e-05
151	0xbd0ec1ec	-0.034852907
152	0xbc028ff6	-0.007968893
153	0x3a9fa072	0.0012178554
154	0x3d301b30	0.042994678
155	0x3d1ca5a5	0.03824391
156	0x3c9db7f0	0.019252747
157	0x3cae7301	0.021295073
158	0x3d29f5e8	0.04149428
159	0x3cd4e5cf	0.025988488
160	0x3ce9e52f	0.028551666
161	0xbcd416fd	-0.025889868
162	0x3cfdf5f2	0.031001065
163	0x3d1d7c7a	0.03844879
164	0x3cb31c0e	0.021863963
165	0x3d8b14ee	0.067911014
166	0x3d9ad886	0.0756083
167	0xbd256a6d	-0.0403847
168	0x3c6cb8d8	0.014448367
169	0x3c9b1bbf	0.018934129
170	0x3c313315	0.010815402
171	0x3d4f4ee5	0.05061235
172	0xbdb4873d	-0.08814857
173	0x3d9d6a90	0.07686341
174	0xbd995e4b	-0.07488688
175	0xbcce2d4a	-0.02516808
176	0x3d5a9caa	0.053372063
177	0x3d22e062	0.03976477
178	0xbd18ac46	-0.037273668
179	0x3d148a0a	0.036264457
180	0x3d2942c9	0.041323457
181	0xbbe8c220	-0.0071032196
182	0x3cabdce6	0.020979356
183	0x3d108e5b	0.03529201
184	0xbdccccf1	-0.10000027
185	0x3c0479ff	0.008085727
186	0xbc1c9f55	-0.009559472
187	0xbcacf396	-0.021112245
188	0x3d548d71	0.0518927
189	0x3c066724	0.008203302
190	0x3c8a54a8	0.01688607
191	0xbc0c3283	-0.008556965
192	0x3dc03d4a	0.0938669
193	0xbd3131f0	-0.043260515
194	0x3cae3298	0.02126436
195	0xbd8a1f81	-0.0674429
196	0x3c68e99e	0.014215855
197	0x3d23ce94	0.03999193
198	0xbc497422	-0.012295755
199	0x3d957f49	0.07299668
200	0xbcaf5660	-0.021403491
201	0xbc84a4a0	-0.01619178
202	0xbc235c5c	-0.009970751
203	0x3c73a96f	0.014871939
204	0xbb092e88	-0.0020932276
205	0xbccb8411	-0.024843248
206	0x3c91e70d	0.017810369
207	0x3d075066	0.03303566
208	0x3da106b0	0.07862604
209	0xbcdd1a53	-0.026990091
210	0x3d81f569	0.063456364
211	0x3d5c3483	0.053761017
212	0xbd1837b7	-0.03716251
213	0xbd1cb686	-0.038260005
214	0x3be3642e	0.0069394326
215	0x3c020449	0.007935592
216	0x3d14463c	0.036199793
217	0xbcc8f635	-0.024531463
218	0x3ce69936	0.028149229
219	0xbbc48c40	-0.0059981644
220	0xbd2a35cb	-0.041555207
221	0x3d88f789	0.066878386
222	0x3b2056a3	0.0024465702
223	0xbd29b861	-0.041435603
224	0xbcf9c966	-0.030491542
225	0xbc1912cd	-0.009342861
226	0xbd9949fa	-0.07484813
227	0x3d1f3787	0.038871314
228	0x3d8fb803	0.07017519
229	0xbcc0b31b	-0.023522904
230	0x3d7a6952	0.061135598
231	0xbd669e6f	-0.056303438
232	0x3c0347c3	0.008012715
233	0x3d7c22fe	0.06155681
234	0x3d84fcd7	0.06493538
235	0xbd56b29b	-0.052416425
236	0x3d73d552	0.05952961
237	0x3d12e696	0.035864435
238	0xbd58d516	-0.05293759
239	0xbc05922b	-0.008152525
240	0xbad9ff56	-0.0016631882
241	0xbc91e9dd	-0.01781171
242	0xbb07d833	-0.002072823
243	0x3ce1f1af	0.027581064
244	0xbd95b330	-0.07309568
245	0x3d0a98bb	0.03383706
246	0x3d110ac6	0.035410665
247	0x3ca5b550	0.020228058
248	0xbd2e461b	-0.042547327
249	0xbd2d1083	-0.042252075
250	0x3da3e9a5	0.080035485
251	0x3dd28a7f	0.10280322
252	0x3cf52f80	0.029929876
253	0xbd280d40	-0.04102826
254	0x3c13ee6a	0.00902901
255	0x3cac84b7	0.021059377

weight f4 [256, 1]
0	0xbf50cc10	-0.81561375
1	0x3e00436f	0.12525724
2	0xbf460e69	-0.7736574
3	0x3ec87235	0.39149633
4	0x3de1bb5f	0.11022066
5	0xbef8d30d	-0.4859852
6	0xbf61eb1e	-0.88249385
7	0x3e0ee22b	0.13953464
8	0x3ea5d6b9	0.32390383
9	0xbf7e0bb6	-0.9923662
10	0x3e36d0fb	0.17853157
11	0x3e645d5f	0.22301243
12	0x3e69a59a	0.22817078
13	0xbf07ea40	-0.5309181
14	0xbec61ed4	-0.38695395
15	0x3ec6f08a	0.38855392
16	0xbe6cbfc0	-0.23120022
17	0xbdd9a864	-0.10627821
18	0xbecd8555	-0.40140787
19	0x3f3ae6d5	0.7300847
20	0xbcd8bd78	-0.026457533
21	0x3f7a7c71	0.9784613
22	0x3f6cb526	0.9246391
23	0xbf14d97c	-0.58144355
24	0xbf176788	-0.5914235
25	0x3f41ecaf	0.75751776
26	0x3f1379f3	0.57607955
27	0x3f5735ad	0.8406628
28	0x3f06096a	0.52358115
29	0xbe6dc44e	-0.23219416
30	0xbf363c3a	-0.7118565
31	0xbf4efce2	-0.8085462
32	0xbd86cab3	-0.065816306
33	0xbf5dfee8	-0.8671708
34	0xbce089c0	-0.027409434
35	0x3f4c3266	0.797644
36	0xbef7ce0d	-0.48399392
37	0xbf2889fc	-0.6583555
38	0xbf8235f2	-1.0172713
39	0x3f1023b2	0.56304467
40	0x3b36467d	0.002781301
41	0x3e0e9b52	0.13926437
42	0x3f518a0c	0.8185127
43	0x3f5b87f1	0.85754305
44	0x3d1043a0	0.035220742
45	0x3f26f77f	0.652214
46	0x3ef14041	0.47119334
47	0x3f300317	0.68754715
48	0xbd0c6035	-0.034271438
49	0xbcfd7b53	-0.030942595
50	0xbd91cf30	-0.07119596
51	0xbeaaedc4	-0.33384526
52	0x3df5dd71	0.12005127
53	0xbf2d8b7a	-0.6779095
54	0x3f36219d	0.7114504
55	0x3ecf7f5d	0.40526858
56	0xbf3f57d7	-0.7474341
57	0x3ec1d24e	0.37855762
58	0xbd803e60	-0.06261897
59	0x3ed635bd	0.41837874
60	0xbf563a80	-0.83683014
61	0x3e893aa1	0.26802543
62	0xbf21a529	-0.6314264
63	0xbe312928	-0.17300856
64	0x3e50d32b	0.20393054
65	0x3f805a90	1.0027637
66	0xbf4dbd3a	-0.8036686
67	0x3e4c826b	0.19971626
68	0x3f809821	1.0046426
69	0xbec5083c	-0.38482845
70	0xbf03b6dd	-0.514509
71	0xbdaa9a00	-0.083301544
72	0x3e6a28c6	0.22867116
73	0xbf41affe	-0.7565917
74	0x3f385b69	0.7201448
75	0x3e7e4b52	0.2483342
76	0x3f1a5dcf	0.6029939
77	0xbe1315e0	-0.14363813
78	0x3ed43e71	0.4145389
79	0xbf865cf7	-1.0497121
80	0x3f4eb8fb	0.8075101
81	0x3ee72067	0.4514191
82	0x3edc0873	0.42975196
83	0x3f2cd9c6	0.67519796
84	0xbd89b2f0	-0.06723583
85	0x3f248fc7	0.64281887
86	0xbe153362	-0.14570382
87	0xbd7dc6a0	-0.061957
88	0x3ebdbadd	0.37056628
89	0xbeff9780	-0.49920273
90	0x3f31fade	0.6952342
91	0x3ef625bd	0.48075667
92	0xbf74b87a	-0.9559399
93	0x3e8fe39c	0.2810334
94	0xbf2bdd60	-0.67134666
95	0x3f3b0002	0.73046887
96	0x3dec48b2	0.11537303
97	0xbf70fd20	-0.9413624
98	0xbf5c6992	-0.8609859
99	0x3f1dcec4	0.61643624
100	0xbeb572fc	-0.3543929
101	0x3f53bcc6	0.8270992
102	0x3e3dc99a	0.18533936
103	0x3edb36e1	0.42815307
104	0xbdc94610	-0.098278165
105	0xbf0c13f4	-0.54717946
106	0x3eb7da0b	0.3590854
107	0x3f14abb3	0.5807449
108	0x3eead977	0.45869038
109	0xbe9e164b	-0.30876383
110	0xbd83ac60	-0.06429362
111	0x3e9e475e	0.30913824
112	0xbea8cf14	-0.32970488
113	0xbf25df74	-0.6479409
114	0x3e81afa3	0.25329313
115	0x3dd79138	0.10525745
116	0xbf1f7458	-0.622869
117	0xbe70f5d0	-0.2353127
118	0x3f6bd4b8	0.9212146
119	0xbed5e1c4	-0.41773808
120	0xbef38610	-0.4756322
121	0x3e3193e1	0.17341568
122	0x3dcce885	0.10005287
123	0xbf101b62	-0.5629178
124	0x3e66668e	0.22500059
125	0x3d6023c0	0.054721594
126	0xbe28e650	-0.16494107
127	0x3f195dd0	0.5990877
128	0xbf2ed863	-0.6829893
129	0xbe055741	-0.13021566
130	0xbe8261d4	-0.25465262
131	0xbf4157ce	-0.75524604
132	0x3ec94237	0.3930833
133	0xbf24ebc3	-0.64422244
134	0x3ef8d963	0.48603353
135	0xbf279ea0	-0.6547642
136	0xbf0a5d85	-0.5404895
137	0x3c0f1880	0.008733869
138	0xbf8cedff	-1.1010131
139	0x3e626d5b	0.22112028
140	0x3e2d2087	0.1690694
141	0x3f2e68c9	0.6812864
142	0x3eb316d4	0.34978354
143	0x3dba5f20	0.09100175
144	0x3c728b88	0.014803775
145	0x3d336560	0.04379785
146	0x3e5411ad	0.20709868
147	0x3f694e2f	0.91134924
148	0x3f242888	0.64124346
149	0xbecc6318	-0.39919353
150	0xbe9d8ba4	-0.307706
151	0xbf6f89d9	-0.93569714
152	0xbeea30f8	-0.45740485
153	0x3ecd1128	0.40052152
154	0x3f5f66b3	0.8726608
155	0x3bc33c68	0.0059581287
156	0xbf7c464e	-0.98544776
157	0x3dfc3e0a	0.123165205
158	0xbf042be0	-0.5162945
159	0xbf4b0dec	-0.7931812
160	0xbe6e6815	-0.23281892
161	0x3eb7321b	0.35780415
162	0xbf72b832	-0.9481231
163	0x3ebdf6fb	0.37102494
164	0xbe8c0384	-0.27346432
165	0x3ed6b230	0.4193282
166	0x3f4bf172	0.7966529
167	0x3f379a4c	0.71719813
168	0x3c840cd0	0.01611939
169	0x3f0cf096	0.55054605
170	0xbf198964	-0.59975266
171	0xbe2101d2	-0.1572335
172	0xbec55af7	-0.38545963
173	0xbebed887	-0.37274572
174	0x3e16b9b4	0.14719278
175	0x3f771bd5	0.96526843
176	0xbf4b9e65	-0.79538566
177	0xbee4c7be	-0.4468364
178	0xbbf0efda	-0.0073528113
179	0xbef30389	-0.47463635
180	0xbecedd44	-0.40403187
181	0xbf00f4c6	-0.50373495
182	0x3f73b99e	0.95205104
183	0xbf4d3b32	-0.8016845
184	0xbf3c6768	-0.73595285
185	0xbf528c2e	-0.8224515
186	0xbf3a15de	-0.72689617
187	0x3f4f38fc	0.80946326
188	0xbf322ff6	-0.6960443
189	0xbd9e2065	-0.077210225
190	0xbe463098	-0.19354475
191	0xbf62b196	-0.88552225
192	0xbf4a8d6e	-0.79122055
193	0x3ee227da	0.4417103
194	0x3f44063f	0.7657203
195	0x3da37b5a	0.07982512
196	0xbef19f7d	-0.47191992
197	0x3f781144	0.96901345
198	0x3f23f217	0.64041275
199	0x3ee35a10	0.4440465
200	0xbf2ad58b	-0.6673209
201	0xbf0e2d7e	-0.55538166
202	0xbf1b8cf2	-0.6076194
203	0x3ea724f9	0.32645395
204	0x3ee1eb5e	0.44124883
205	0xbefb5090	-0.49084902
206	0x3dde9cd1	0.10869754
207	0x3f636569	0.88826615
208	0x3f4a060d	0.7891548
209	0x3f6a7f22	0.9160024
210	0x3f3899f3	0.7210991
211	0xbc351b08	-0.011053808
212	0x3ef30dd8	0.474715
213	0xbe2f7d20	-0.17137575
214	0xbf7a75ee	-0.97836196
215	0x3f6a5929	0.915423
216	0x3e4b27e4	0.19839436
217	0xbdfedf20	-0.124449015
218	0x3eefd88f	0.4684491
219	0x3f72a93a	0.9478947
220	0x3ef3754b	0.47550425
221	0xbf1672b0	-0.5876875
222	0x3f42eba3	0.76140803
223	0xbeb0381e	-0.34417814
224	0x3e6829be	0.22672173
225	0xbf146daa	-0.57979834
226	0x3edf1862	0.4357329
227	0xbe82d528	-0.2555325
228	0x3d11b3a5	0.035571713
229	0xbdf31e25	-0.11870984
230	0x3eeb106b	0.45910963
231	0xbebf8794	-0.37408125
232	0xbee5b4b2	-0.44864422
233	0xbf4afecc	-0.7929504
234	0x3f253d3c	0.6454656
235	0x3f031919	0.5121017
236	0xbec2e00e	-0.38061565
237	0x3f601c8f	0.87543577
238	0x3dd79a02	0.105274215
239	0xbde45210	-0.11148465
240	0xbf63dd87	-0.890099
241	0x3db4fca2	0.088372484
242	0xbdcf6c00	-0.10128021
243	0xbde694c6	-0.11258845
244	0xbf08fe12	-0.5351268
245	0xbf6f51db	-0.93484277
246	0xbda90aa1	-0.082539804
247	0xbef43705	-0.47698227
248	0xbf73ee4b	-0.9528548
249	0xbf57f4b7	-0.8435778
250	0xbf89affa	-1.0756829
251	0x3f6f7934	0.93544316
252	0x3c5e0c6c	0.013552766
253	0xbe47a0f1	-0.19494988
254	0xbf528a67	-0.82242435
255	0x3ec98e7b	0.39366516

bias f4 [256]
0	0x3f38577e	0.720085
1	0x3d37a18d	0.0448318
2	0x3e805657	0.25065872
3	0xbeca326d	-0.39491597
4	0x3f0282e4	0.50980973
5	0x3f83dab1	1.0301114
6	0xbf75b9b0	-0.9598646
7	0x3f0e7514	0.556474
8	0xbea16589	-0.31522778
9	0xbe9e58a4	-0.30927002
10	0x3e05f7ab	0.13082759
11	0x3f1fff25	0.62498695
12	0x3f2cd868	0.6751771
13	0xbf6f05fc	-0.93368506
14	0x3e18c5aa	0.14919153
15	0xbf63d973	-0.89003676
16	0x3f0474b0	0.5174055
17	0x3f72aed9	0.94798046
18	0x3ed7693c	0.42072475
19	0x3f0b6673	0.544532
20	0x3edf56c2	0.43620878
21	0x3e73357b	0.2375087
22	0xbe6f6662	-0.233789
23	0xbea57838	-0.32318282
24	0xbe8bada8	-0.27280927
25	0x3f5162d1	0.81791407
26	0x3f6c1717	0.9222273
27	0xbea67341	-0.32509807
28	0xbe9a7703	-0.30168924
29	0x3f3585ca	0.7090727
30	0xbf360576	-0.7110208
31	0xbe8fe688	-0.2810557
32	0x3e1096f2	0.14120081
33	0xbdd25b60	-0.10271335
34	0xbe8052b8	-0.2506311
35	0x3f6b9ee4	0.9203932
36	0x3ee0585b	0.4381741
37	0x3ee0a738	0.43877578
38	0x3f68f6dc	0.9100168
39	0xbf11e476	-0.5698923
40	0x3e60bf04	0.21947867
41	0x3f61319d	0.8796633
42	0xbf0bb6db	-0.5457589
43	0xbf70384e	-0.93835914
44	0xbe450f28	-0.19244063
45	0xbf0036f0	-0.5008383
46	0x3e8070de	0.2508611
47	0xbf215139	-0.6301456
48	0x3dd23452	0.102638856
49	0x3ef2a3d7	0.47390625
50	0xbef6af10	-0.48180437
51	0xbc6c8080	-0.014434934
52	0xbefdda19	-0.49580458
53	0xbf5974cc	-0.8494384
54	0x3e724cae	0.23662063
55	0xbf6b9b84	-0.92034173
56	0x3f135bd2	0.5756198
57	0x3f35a733	0.7095825
58	0x3eb51d5c	0.35373962
59	0x3f5797a9	0.8421579
60	0x3f40af2d	0.752673
61	0x3a3646e9	0.00069533155
62	0x3e15c206	0.14624795
63	0x3ec16ba4	0.37777436
64	0x3db8c9c0	0.09022856
65	0xbe1d4a61	-0.15360405
66	0xbf4813cc	-0.7815521
67	0x3d90d819	0.07072467
68	0xbf498fc4	-0.78734994
69	0x3e823a91	0.25435308
70	0x3e314737	0.17312323
71	0xbebdf3c4	-0.3710004
72	0xbf03202b	-0.5122096
73	0xbd002bc0	-0.031291723
74	0x3f59b504	0.8504183
75	0xbe1edc1c	-0.15513653
76	0x3f3bd4bf	0.733715
77	0xbf12e256	-0.5737661
78	0x3efed4ca	0.4977172
79	0x3f1fccb7	0.62421745
80	0x3f6a32bc	0.91483665
81	0xbd505954	-0.05086644
82	0x3eb2dfe8	0.34936452
83	0x3f5c24d6	0.8599371
84	0xbd301a40	-0.042993784
85	0x3eaa8442	0.3330403
86	0x3f6d351b	0.9265916
87	0xbeb3120c	-0.34974706
88	0xbe143f2a	-0.1447722
89	0xbe20ba40	-0.15696049
90	0x3d6872c7	0.056750085
91	0x3f5b7fd8	0.8574195
92	0xbf2ef5d8	-0.6834388
93	0xbf219b13	-0.6312725
94	0xbdfba980	-0.12288189
95	0x3f40c804	0.753052
96	0x3eb62613	0.35575923
97	0xbde7f220	-0.113254786
98	0x3f11dd26	0.5697807
99	0x3f16a8f1	0.58851534
100	0xbc9d1500	-0.019175053
101	0xbf305597	-0.688806
102	0x3eb56819	0.35430983
103	0xbf6a760c	-0.91586375
104	0xbf39fd20	-0.72651863
105	0xbef305a0	-0.4746523
106	0x3f321498	0.69562674
107	0xbefe9247	-0.49720976
108	0xbee8cd03	-0.45468912
109	0x3f7b063b	0.9805638
110	0xbf789d72	-0.9711524
111	0xbe828611	-0.2549291
112	0xbf2b64d4	-0.66950727
113	0x3eaeaf1c	0.34117973
114	0x3f34532b	0.70439404
115	0x3ee5f0a5	0.4491016
116	0xbea2a364	-0.31765282
117	0xbeba1018	-0.36340404
118	0x3c8819be	0.016613837
119	0x3f3e064a	0.74228346
120	0xbcc271c0	-0.02373588
121	0xbec59bf0	-0.38595533
122	0x3f0a9b21	0.5414296
123	0xbeeb920c	-0.46009862
124	0x3f1ec010	0.62011814
125	0xbe9a9f54	-0.30199683
126	0xbec158a8	-0.37762952
127	0x3f80afae	1.0053613
128	0x3e0e80ec	0.13916367
129	0x3f6fd0a2	0.93677723
130	0xbe7b1700	-0.24520493
131	0xbf27ea80	-0.65592194
132	0x3e87e3ac	0.26540887
133	0x3f2699e1	0.6507855
134	0x3eafffd4	0.3437487
135	0xbf3b844c	-0.73248744
136	0x3e3a0853	0.18167238
137	0xbed17980	-0.4091301
138	0x3eb5a4b9	0.35477236
139	0x3f17d2f9	0.59306294
140	0x3ca6a007	0.020339979
141	0xbe5293b9	-0.20564164
142	0x3e31db19	0.17368735
143	0xbf5206b8	-0.820415
144	0x3c363104	0.011120085
145	0xbf5a57ee	-0.8529042
146	0xbeecf42c	-0.46280038
147	0xbf668703	-0.9004976
148	0x3f629398	0.8850646
149	0xbf7960d6	-0.97413385
150	0xbec1ac88	-0.37826943
151	0x3ebaec45	0.36508384
152	0xbea57cc8	-0.32321763
153	0xbec4e7b2	-0.3845802
154	0x3f49b890	0.78797245
155	0x3f212ca8	0.62958765
156	0xbe531d20	-0.20616579
157	0x3eb0253c	0.34403408
158	0xbec6f6ec	-0.3886026
159	0xbf5ae4f0	-0.8550558
160	0x3f02adec	0.51046634
161	0xbeb1793c	-0.34662807
162	0xbf0e7210	-0.55642796
163	0x3e4b861a	0.19875374
164	0xbd650000	-0.055908203
165	0xbedcea9d	-0.43147746
166	0x3d5da75f	0.054114696
167	0xbe87eb31	-0.26546624
168	0x3f7a83bb	0.97857255
169	0x3f4517a1	0.7698918
170	0x3e4aa302	0.19788745
171	0x3eaeaa97	0.34114525
172	0x3ee268cb	0.44220576
173	0x3f5662aa	0.837443
174	0x3efee0b7	0.4978082
175	0xbe8b8f6b	-0.27257857
176	0x3e7c353e	0.24629685
177	0x3ed75a5d	0.4206113
178	0x3f2d500d	0.6770027
179	0x3d8bc816	0.06825273
180	0xbe9c3fb0	-0.3051734
181	0xbe7552c0	-0.23957348
182	0xbf609261	-0.87723356
183	0x3f3e3d65	0.7431243
184	0xbe42af98	-0.19012296
185	0xbf248050	-0.6425829
186	0xbd600f20	-0.054701924
187	0xbf60889e	-0.8770846
188	0xbc4b0080	-0.012390256
189	0x3cc4519f	0.023964701
190	0xbf1afc1c	-0.6054094
191	0xbe9e1834	-0.3087784
192	0xbf565fb8	-0.83739805
193	0x3f4da7bc	0.8033407
194	0x3eff92c1	0.49916652
195	0x3f070ff4	0.5275872
196	0x3e97782d	0.29583874
197	0xbf164100	-0.5869293
198	0x3eaa2d52	0.33237702
199	0x3f68a656	0.9087881
200	0x3f061dbe	0.5238913
201	0xbe8b7fd0	-0.2724595
202	0x3f062df5	0.52413875
203	0x3e46cd45	0.19414242
204	0xbd6a601f	-0.057220574
205	0xbe77e8d0	-0.24209905
206	0x3ed0049e	0.40628523
207	0xbf4e08f5	-0.8048242
208	0x3f00ab90	0.50261784
209	0x3f605c56	0.87640893
210	0x3e6655a0	0.22493601
211	0x3ed4a99f	0.4153566
212	0xbdd90c92	-0.10598101
213	0xbe76e110	-0.24109292
214	0xbd33c3e0	-0.043887973
215	0xbf3621b5	-0.7114518
216	0x3f77d06b	0.96802396
217	0xbf6d60e0	-0.92725945
218	0x3de80d45	0.11330656
219	0x3d99fd4a	0.07519014
220	0xbed4405c	-0.41455352
221	0x3e2d604d	0.16931267
222	0xbf248d58	-0.64278173
223	0x3ea47665	0.32121578
224	0x3f214af9	0.63005024
225	0xbe3c1128	-0.1836592
226	0x3d35cff7	0.044387784
227	0xbf6dde14	-0.9291699
228	0x3f0768aa	0.5289408
229	0x3e8286c1	0.25493434
230	0x3f4ab692	0.7918483
231	0x3f520be8	0.8204942
232	0x3d215800	0.039390564
233	0xbf107442	-0.56427395
234	0xbe33895a	-0.17532864
235	0xbf266eb4	-0.6501267
236	0x3ea0686d	0.3132967
237	0x3db1ffec	0.08691391
238	0x3ba2eab7	0.004971828
239	0xbdd5a7a0	-0.104323626
240	0x3f494191	0.7861567
241	0x3f5888d3	0.8458378
242	0xbf5d7b62	-0.8651639
243	0x3e793479	0.24336423
244	0xbf199686	-0.59995306
245	0x3f5eb93e	0.8700141
246	0x3ed14522	0.40873057
247	0x3f6e150a	0.93000853
248	0xbac5e928	-0.0015099393
249	0x3f6edd61	0.9330655
250	0x3f7d4d64	0.98946214
251	0x3e7a6cd6	0.2445558
252	0x3f5c6dc4	0.8610499
253	0x3e3c4b7d	0.18388171
254	0x3f5259a7	0.8216805
255	0x3ee0fe91	0.4394422

weight f4 [1, 256]
0	0x3ce9f870	0.028560847
1	0x3d8a1422	0.06742121
2	0x3cbb775a	0.02288406
3	0x3c0152bc	0.007893261
4	0x3d29e9f4	0.04148288
5	0x3d063bd6	0.032771908
6	0x3d536ab8	0.051615447
7	0xba795b3f	-0.0009512193
8	0xba49c496	-0.0007696835
9	0xbd1d8df2	-0.038465448
10	0xbd167fbc	-0.03674291
11	0xbc0e4007	-0.0086822575
12	0x3d33be03	0.04388238
13	0xbcf4576c	-0.029826842
14	0xbcf2cdb6	-0.029639106
15	0xbb33857b	-0.0027392793
16	0xbd3288d8	-0.043587536
17	0xbc92c819	-0.01791768
18	0x3d3203f0	0.043460786
19	0x3d4fb35e	0.050708167
20	0x3d94d7e9	0.07267744
21	0xbc26592d	-0.010153097
22	0x3b99e9d5	0.0046970644
23	0xbcd2c210	-0.025727302
24	0x3ceb1ccb	0.028700253
25	0x3beac982	0.007165135
26	0xbcbb1496	-0.022836965
27	0x3c796a23	0.015223059
28	0xbc9dda3f	-0.019269107
29	0x3d0e8ce3	0.03480233
30	0x3c87453c	0.016512506
31	0x3c0bf723	0.008542809
32	0xbd25037c	-0.040286526
33	0xbbad560f	-0.0052898
34	0x3bbe2722	0.005803005
35	0x3d5a3bdd	0.053279746
36	0xbd8101a5	-0.06299142
37	0xbbf02a3b	-0.007329253
38	0x3c3fd3ce	0.011708213
39	0xbc227c9b	-0.009917404
40	0x3d4e476b	0.05036108
41	0x3c847d9b	0.016173175
42	0xbd5b06d0	-0.053473294
43	0x3bd3e66b	0.006466677
44	0xbd15f10f	-0.036606845
45	0xbd954e67	-0.07290345
46	0xbd58f517	-0.05296811
47	0xbd58a7d2	-0.05289442
48	0x3b355f99	0.002767539
49	0x3d3c7794	0.046012476
50	0xbb9f65eb	-0.0048644445
51	0x3bd6fa2f	0.006560586
52	0xbcb3a8ad	-0.021931017
53	0xbd500d04	-0.050793663
54	0xbd1009aa	-0.035165466
55	0x3b48e058	0.0030651297
56	0xbcf8916c	-0.03034278
57	0x3d219bef	0.03945535
58	0xbbbd01d8	-0.005768042
59	0xbcf6ccda	-0.030126978
60	0xbd342e75	-0.043989617
61	0x3cd01c59	0.025404142
62	0xbd1ae671	-0.037817422
63	0x3cc13fbe	0.023589965
64	0xbd9020b4	-0.070374876
65	0xbc2e362f	-0.010633036
66	0xbd0380be	-0.0321052
67	0x3d53274e	0.051551156
68	0xbda0d45a	-0.07853003
69	0xbd00d48b	-0.031452697
70	0xbd8a113f	-0.06741571
71	0x3d13e090	0.03610283
72	0x3c99f2f7	0.018792612
73	0xbd3aab32	-0.04557342
74	0x3d6f0736	0.058356486
75	0xbd7ce8c0	-0.061745405
76	0xbd356d60	-0.04429376
77	0xbd3fcca4	-0.04682602
78	0x3d7d36aa	0.06181971
79	0xbd15eb0e	-0.03660112
80	0x3c3cb1c2	0.01151699
81	0xbbfd1e4f	-0.0077245603
82	0x3b3563b5	0.0027677838
83	0xbd542698	-0.05179462
84	0x3d3aff3c	0.045653567
85	0xbc978213	-0.018494641
86	0xbd306eac	-0.043074295
87	0x3c9d2a47	0.019185198
88	0xbd04f1ec	-0.032457277
89	0x3c7ac2de	0.015305249
90	0x3c17c646	0.009263581
91	0x3d981d58	0.07427472
92	0x3cd3faf6	0.025876503
93	0x39fed9d1	0.0004860894
94	0x3ce88896	0.028385442
95	0xbd389348	-0.045062333
96	0x3c0a3fbe	0.008438049
97	0x3d3bed99	0.045880888
98	0xbd025b8e	-0.031825595
99	0x3c82591c	0.015911631
100	0xbbf6c5f3	-0.0075309216
101	0x3d4fcf7a	0.050734974
102	0x3c8012bc	0.015633933
103	0xbcc70606	-0.024294864
104	0x3c267fab	0.010162274
105	0xbd19edcb	-0.037580293
106	0xbd2ff56a	-0.042958654
107	0xbc0b6c41	-0.008509696
108	0x3d08abb9	0.033366892
109	0xbc38c339	-0.011277013
110	0x3d68c7e7	0.056831267
111	0xbb41f4ea	-0.0029595443
112	0xbd64a422	-0.05582059
113	0x3cab7f93	0.020934856
114	0xbc67dafc	-0.014151331
115	0x3d3b1ba6	0.045680664
116	0x3d52800a	0.05139164
117	0x3be6e063	0.007045792
118	0xbc204f07	-0.009784467
119	0x3c9a2cc3	0.018820172
120	0xbd3eb609	-0.04656032
121	0x3cdc2146	0.026871335
122	0x3d48e022	0.049041875
123	0xbb50be5c	-0.0031851744
124	0x3c725e82	0.01479304
125	0x3d8fddf3	0.07024755
126	0xbd3c3657	-0.04595026
127	0x3d929667	0.07157593
128	0x3d4052a4	0.046953812
129	0x3d827fdf	0.06372046
130	0x3d52db8f	0.05147892
131	0x3d89ea58	0.06734151
132	0x3d483ebb	0.04888795
133	0xbc837d65	-0.016051004
134	0x3d6bf9e3	0.057611357
135	0x3cf1a253	0.029496348
136	0xbd7eba65	-0.06218948
137	0xbd16e456	-0.036838852
138	0xbd02244e	-0.031772904
139	0x3cabda59	0.02097814
140	0xbbe406c7	-0.0069588157
141	0x3c09fcca	0.008422086
142	0xbc5e1134	-0.013553906
143	0xbc8b141d	-0.016977364
144	0x3d129405	0.035785694
145	0x3cdcf2e1	0.026971282
146	0x3d6c1901	0.057641033
147	0x3ce31f5d	0.027724916
148	0x3d0d6ec9	0.03452948
149	0xbc8b38fa	-0.016994942
150	0xbd2e6b60	-0.04258287
151	0x3d301d9b	0.042996984
152	0x3d068877	0.032844987
153	0xbd40b2bd	-0.047045458
154	0xbbd53e43	-0.0065076663
155	0x3d456925	0.048195977
156	0xbc9bedc8	-0.019034281
157	0xbd7c490f	-0.06159311
158	0x3c747e78	0.014922731
159	0xbcb9ed82	-0.02269626
160	0x3d1b69c9	0.03794268
161	0xbd85ccea	-0.06533225
162	0xbd317bce	-0.04333096
163	0x3c2131a4	0.009838495
164	0x3cb09c93	0.021559035
165	0x3d10a0d9	0.035309646
166	0x3cd7df99	0.026351737
167	0x3d180f92	0.037124224
168	0x3d0a9992	0.033837862
169	0x3cf8bde1	0.030363979
170	0xbd57f99f	-0.05272829
171	0xbcb59af2	-0.02216861
172	0xbd14a4ef	-0.036290105
173	0x3d7f5236	0.06233426
174	0xbd062ebc	-0.032759413
175	0xbcb4e16b	-0.022080144
176	0x3c8f0a3f	0.01746094
177	0x3c90fede	0.017699655
178	0x3d8119d5	0.06303755
179	0xbcf83f20	-0.030303538
180	0x3d8b760f	0.06809627
181	0x3d063b6f	0.032771524
182	0x3c6e255d	0.014535275
183	0xbd2c64c7	-0.042088296
184	0x3cadb5cf	0.021204857
185	0x3c782f34	0.015147973
186	0x3cf596f3	0.029979205
187	0x3d303821	0.04302228
188	0x3d01cd4b	0.031689923
189	0x3d9406b2	0.072278395
190	0x3c923e28	0.017851904
191	0x3cca076e	0.024661746
192	0x3d37d1e1	0.04487789
193	0xbd942e57	-0.07235401
194	0xbd491291	-0.049089972
195	0x3d8a0d53	0.06740823
196	0xbcc2325a	-0.02370565
197	0x3d2e0aa4	0.042490616
198	0x3cadbbab	0.021207651
199	0xbce0b429	-0.027429657
200	0xbd4e8193	-0.05041654
201	0xbd1b65c9	-0.037938867
202	0xbd8321fa	-0.06402965
203	0xbc833690	-0.016017228
204	0x3d3907c8	0.045173436
205	0xbd4b84a3	-0.04968704
206	0x3cda3a98	0.026639268
207	0x3c1f631b	0.009728218
208	0xbd31ba87	-0.043390777
209	0xbc52f131	-0.012874887
210	0xbd4a9127	-0.049454834
211	0x3d3a0d22	0.04542268
212	0xbb9591f0	-0.0045645162
213	0x3cfe566d	0.03104707
214	0x3bfabdc6	0.0076520173
215	0xbd5adf0b	-0.053435367
216	0xbce979a2	-0.028500382
217	0x3b36d9c1	0.0027900788
218	0x3d2dd736	0.04244157
219	0x3ba55b87	0.0050463113
220	0xbd26f66d	-0.040762354
221	0xbce7cf8e	-0.028297212
222	0x3c38ab73	0.011271345
223	0x3c214f02	0.009845497
224	0x3d44c883	0.048042785
225	0x3d267a89	0.040644202
226	0x3d17094d	0.036874104
227	0xbae0e43d	-0.0017157864
228	0x3cd480d9	0.025940346
229	0xbd47fe9a	-0.04882679
230	0x3d24bdd9	0.040220115
231	0x3c41b59f	0.011823087
232	0x3c17cc01	0.009264947
233	0xbd3aeb33	-0.04563446
234	0x3cce6bf9	0.02519797
235	0xbc5b4f47	-0.0133856
236	0x3c43359d	0.011914638
237	0xbd4c1dc4	-0.049833074
238	0x3ce47540	0.02788794
239	0x3d606afb	0.054789525
240	0xbd70b331	-0.05876464
241	0xbb868d4d	-0.0041062
242	0x3cf4bff4	0.029876687
243	0xbb15b979	-0.0022846146
244	0xbd6568de	-0.056008212
245	0xbd275659	-0.040853832
246	0xbcddef44	-0.02709163
247	0xbb99a15b	-0.0046884245
248	0x3d57b69f	0.052664395
249	0xbb80bdd5	-0.0039288797
250	0xbcc5b7f5	-0.02413557
251	0xbb9898b5	-0.004656876
252	0xbb9fa2b0	-0.004871689
253	0x3d5acc24	0.05341734
254	0xbd996270	-0.074894786
255	0xbcfa7a1f	-0.03057581

weight f4 [256, 1]
0	0x3f53af49	0.8268934
1	0xbc3b4700	-0.011430502
2	0x3d94249e	0.07233547
3	0xbf084ea0	-0.5324497
4	0xbf24221a	-0.64114535
5	0x3f5c1007	0.85961956
6	0x3f4be517	0.7964644
7	0xbe95e41a	-0.2927559
8	0xbf1f410b	-0.6220862
9	0x3eda26e4	0.42607796
10	0xbe381930	-0.17978358
11	0xbecda3e4	-0.401641
12	0x3ed9c39d	0.42532054
13	0xbe886858	-0.26642108
14	0xbf11b001	-0.56909186
15	0xbeced4a4	-0.40396607
16	0xbe8d2030	-0.2756362
17	0x3e0aa014	0.13537627
18	0xbfa43a81	-1.2830354
19	0x3ed7fb0c	0.4218372
20	0xbe479e10	-0.1949389
21	0xbf3d67fe	-0.73986804
22	0xbf7011fa	-0.9377743
23	0xbef99ac8	-0.487509
24	0x3e8e30d2	0.27771622
25	0xbf0e27c5	-0.55529433
26	0x3f55f832	0.8358184
27	0xbdbff0d0	-0.09372103
28	0x3ec521c8	0.38502336
29	0xbf290506	-0.6602329
30	0x3d1e8cd4	0.038708523
31	0xbcfa5e24	-0.030562468
32	0xbec860ec	-0.39136446
33	0x3ef0c5ca	0.470259
34	0xbf5a3f5c	-0.8525293
35	0x3c1f1380	0.009709239
36	0x3eeac62f	0.45854327
37	0x3e382833	0.17984085
38	0x3eabf6c0	0.33586693
39	0x3f3e754f	0.7439775
40	0xbf2a68c8	-0.66566133
41	0x3e4fa466	0.20277557
42	0xbf812820	-1.009037
43	0xbeadbca0	-0.33932972
44	0x3f6cf02f	0.9255399
45	0x3f395766	0.72398984
46	0xbe9bf774	-0.3046223
47	0x3f084028	0.53222895
48	0xbf74263a	-0.9537083
49	0x3e84dd38	0.25950027
50	0xbe907d0c	-0.28220403
51	0x3f239249	0.6389509
52	0xbf423669	-0.75864273
53	0xbc18fa80	-0.009337068
54	0xbf13d826	-0.5775169
55	0x3ec68920	0.38776493
56	0xbf7fdc17	-0.99945205
57	0x3e74c433	0.23902969
58	0xbdb37c14	-0.087639004
59	0x3ee3c4d1	0.44486097
60	0x3dc05a9a	0.09392281
61	0x3f1a991a	0.60389864
62	0xbf7f4940	-0.99721146
63	0xbea4012c	-0.32032144
64	0xbf542ee2	-0.8288404
65	0x3f733249	0.94998604
66	0x3f05ef0d	0.5231789
67	0xbf357d44	-0.70894265
68	0x3f4a80a9	0.7910257
69	0x3e1be015	0.152222
70	0x3f1d0559	0.61336285
71	0xbf1260b2	-0.57178795
72	0x3f0cfc79	0.5507274
73	0xbdf5d6dd	-0.120038725
74	0xbf28bf02	-0.65916455
75	0xbf3ce2f6	-0.73783815
76	0x3f41a0b9	0.7563587
77	0xbf24f92e	-0.6444272
78	0x3f1c630e	0.61088645
79	0x3eb961da	0.36207467
80	0xbd0eac40	-0.03483224
81	0x3ef66836	0.48126382
82	0x3f4fe8de	0.812147
83	0xbf1a6489	-0.60309654
84	0xbf81be77	-1.013625
85	0x3ec92f40	0.3929386
86	0x3f3d1ec7	0.7387509
87	0xbf6169fc	-0.88052344
88	0x3f6f5041	0.9348183
89	0x3c24a537	0.010049156
90	0xbed337f0	-0.41253614
91	0x3f36a4eb	0.71345395
92	0xbf28b1b8	-0.6589618
93	0x3ea5ab3f	0.32357213
94	0xbecd5ab0	-0.40108252
95	0xbf2b1b1a	-0.6683823
96	0xbf5f6e88	-0.8727803
97	0xbf2063f6	-0.6265253
98	0x3f61ccb1	0.8820296
99	0x3f19aadb	0.6002633
100	0xbf25668c	-0.646096
101	0x3f3b4e5f	0.7316646
102	0x3f4dbc9f	0.8036594
103	0x3f240466	0.6406921
104	0x3d015cfe	0.031582825
105	0xbf614732	-0.8799926
106	0xbf5a8e4e	-0.8537339
107	0x3e949af1	0.2902446
108	0xbc333766	-0.010938501
109	0x3e55ed1e	0.20891234
110	0xbf24eba4	-0.6442206
111	0xbeedf924	-0.46479142
112	0x3f18ad8e	0.59639823
113	0x3e2e959c	0.17049259
114	0xbf1f8bea	-0.62322867
115	0xbdcf5141	-0.1012292
116	0x3f23607f	0.63819116
117	0x3f611e06	0.8793644
118	0xbefbebf4	-0.49203455
119	0x3f164f2b	0.5871455
120	0x3e44da6e	0.1922395
121	0xbe9d1cd8	-0.3068607
122	0xbf3c252e	-0.7349423
123	0x3e8bbf37	0.27294323
124	0xbef067b0	-0.46954107
125	0x3ea250f2	0.3170238
126	0xbf3580c6	-0.7089962
127	0x3f8040ea	1.001981
128	0x3f6e974c	0.9319961
129	0xbe5b7160	-0.21429968
130	0xbf2f9d3d	-0.685993
131	0x3c4aaf98	0.012370966
132	0xbf0611ce	-0.5237092
133	0x3f80146f	1.0006236
134	0xbe274658	-0.16335428
135	0x3ed82974	0.42219126
136	0xbe84d242	-0.25941664
137	0xbf687107	-0.90797466
138	0xbf41a19b	-0.75637215
139	0x3f3c8a77	0.7364878
140	0x3e8f8b83	0.28036126
141	0x3f35128a	0.70731413
142	0x3eeb808a	0.45996505
143	0x3e611a12	0.21982601
144	0xbf797cf0	-0.97456264
145	0x3e9908b6	0.29889458
146	0xbf39f832	-0.7264434
147	0xbf5fc040	-0.87402725
148	0xbf3528cc	-0.70765376
149	0xbdace080	-0.084412575
150	0x3f249dc8	0.64303255
151	0x3f2f6eb5	0.685283
152	0xbed63794	-0.41839278
153	0xbf445d68	-0.76705027
154	0x3f320cc4	0.6955073
155	0x3ee8e739	0.4548891
156	0x3f6e9044	0.9318888
157	0x3e932a52	0.28743225
158	0xbf379652	-0.71713746
159	0xbf554de4	-0.83321977
160	0xbf2f4b7c	-0.68474555
161	0x3f24532a	0.641894
162	0xbf824909	-1.0178539
163	0xbe71db67	-0.23618852
164	0x3f0f2e6e	0.5593022
165	0xbe68c590	-0.22731614
166	0xbf6410ac	-0.8908794
167	0x3ef89d90	0.4855771
168	0xbd1dd6e3	-0.03853501
169	0xbf6b5fb2	-0.91942894
170	0xbeb94020	-0.36181736
171	0xbec94fdc	-0.3931874
172	0xbf727584	-0.94710565
173	0x3f81eb61	1.0149957
174	0xbec06654	-0.3757807
175	0x3e08c96d	0.13358088
176	0xbc064828	-0.008195914
177	0xbf067d82	-0.5253526
178	0x3eda82b5	0.42677847
179	0x3dee94d3	0.1164948
180	0xbf0be71b	-0.54649514
181	0x3e67db28	0.22642195
182	0x3d7c111d	0.061539758
183	0xbf4ac69d	-0.7920931
184	0x3eac4d3c	0.33652675
185	0x3eac3f1a	0.33641893
186	0xbe34d044	-0.17657572
187	0xbf33a038	-0.7016635
188	0xbd8b16c0	-0.067914486
189	0x3eb485a2	0.35258204
190	0x3f104b58	0.56364965
191	0xbf297c72	-0.66205513
192	0xbd832164	-0.06402853
193	0x3f6cd2fc	0.92509437
194	0xbc7fde39	-0.015616947
195	0xbe7a3200	-0.24433136
196	0x3f00dc7a	0.5033642
197	0xbdca32a9	-0.09872944
198	0xbf510a46	-0.816563
199	0x3f3f7cfb	0.7480008
200	0xbf5a7e84	-0.853493
201	0xbe99919f	-0.29993913
202	0xbb0ec000	-0.0021781921
203	0xbf0e477a	-0.55577815
204	0x3f3332e4	0.6999953
205	0xbecee3d4	-0.40408194
206	0x3ef89c3b	0.48556694
207	0xbe547b18	-0.20750082
208	0xbf6bb6fd	-0.9207609
209	0x3f3796a1	0.71714216
210	0x3f542c6c	0.8288028
211	0xbe005f70	-0.12536407
212	0xbf576b30	-0.8414793
213	0x3f1f171b	0.6214463
214	0x3e648f75	0.2232035
215	0x3f428fba	0.7600056
216	0x3e335775	0.17513831
217	0x3f43a5cd	0.76424867
218	0xbc87a92a	-0.016560156
219	0xbdc0a590	-0.094065785
220	0x3b9487f2	0.0045328075
221	0xbe2a99f0	-0.16660285
222	0x3f1d71d4	0.6150181
223	0x3e971076	0.29504746
224	0xbf426a50	-0.7594347
225	0xbf1d0462	-0.6133481
226	0xbf613ce0	-0.8798351
227	0x3eaa4286	0.33253878
228	0x3ea76096	0.32690877
229	0xbde68dc5	-0.11257509
230	0x3f7343df	0.9502544
231	0x3f106dc5	0.56417495
232	0x3f7a428d	0.977578
233	0xbe1e5160	-0.1546073
234	0x3e483ffc	0.19555658
235	0x3f61af7f	0.8815841
236	0x39f4991b	0.0004665338
237	0xbf507c2e	-0.81439483
238	0xbed4b0a9	-0.4154103
239	0xbf177649	-0.59164864
240	0x3f30967e	0.6897963
241	0x3f2c145a	0.67218554
242	0x3e4af01c	0.19818157
243	0xbf712b43	-0.9420664
244	0xbf287f44	-0.6581919
245	0x3ef61261	0.48060897
246	0x3e4e0cd7	0.20122086
247	0x3e8ff981	0.28120044
248	0x3ee077c0	0.43841362
249	0x3d30edc0	0.043195486
250	0x3dfa2a98	0.12215155
251	0xbf69e98f	-0.9137201
252	0xbf6fa39e	-0.93609035
253	0x3f13bbe5	0.5770858
254	0x3e8444a7	0.25833628
255	0x3ddcdd52	0.10784401
