checkpoints/131800800.ckpt (torch, 122663 bytes, 33 tensors)

weight f4 [256, 18]
0.1405258 -0.12796114 -0.11116398 -0.10480557 0.26373112 -0.13029046 -0.21910276 -0.17029308
0.09469691 0.022276003 0.112665385 0.041764982 0.12691738 -0.16742076 0.21587916 -0.06656714
0.19563122 0.1640498 0.009146236 0.13705641 0.105654724 0.059817567 0.15015906 -0.06455729
-0.16232263 -0.14354008 0.0040453295 -0.17472498 -0.19617435 -0.02007878 0.083945006 0.08611613
0.083418176 0.0270001 0.22294493 -0.024908036 -0.09524639 -0.11318476 -0.021551378 0.005771348
-0.23452862 0.022763006 -0.08924539 -0.32182118 -0.11132523 -0.061839223 0.038794223 0.009363518
-0.014541617 -0.09538062 0.014907109 0.05049455 -0.19217907 0.12184544 -0.11005847 0.09882925
0.11557651 0.102517545 -0.016230145 -0.016569046 -0.17129993 -0.0108059095 0.012705659 -0.17725179
-0.24612474 -0.13690118 0.15258116 0.23087646 0.103220865 -0.21165349 -0.11031357 -0.054491993
-0.14202183 -0.1877585 -0.08529221 0.1752792 -0.1815049 -0.15622549 0.06260406 -0.24867998
0.01712805 0.16951638 0.09980919 0.007851417 0.029575454 -0.12639455 0.117978305 0.07640995
0.06229094 -0.25205204 -0.0011660325 0.00954493 -0.0014600606 -0.0031587016 0.0044325404 0.34060654
0.00061408576 -0.15500802 -0.03491074 0.000902842 0.0046067666 -0.00014306931 0.005783682 -0.08892217
0.01593001 -0.00033644243 -0.13509105 -0.030394396 -0.13596773 -0.20228872 -0.08403068 -0.0010945038
-0.21048242 -0.03903562 0.016777832 0.09953783 -0.10768717 -0.15664499 0.13273193 -0.01453335
0.00572633 0.14099476 0.06628827 0.095562816 0.1366522 0.016107455 -0.13550831 0.058433257
0.045462865 -0.025397455 -0.26631364 0.05646427 -0.09936176 -0.06862428 0.00221712 -0.11919936
-0.060989715 -0.038836095 -0.0064362013 0.10483468 -0.07701694 -0.053647585 -0.11424847 0.034301557
-0.07070451 -0.121318 -0.03384133 0.042307246 -0.0034712944 0.16691881 -0.10527364 -0.052181862
-0.25091612 0.06287051 -0.14336726 0.0033770178 -0.036704283 -0.06159941 -0.008295526 0.028483057
-0.26710576 -0.031017855 -0.29506713 0.1131637 0.09901706 -0.069519944 -0.015801 -0.0029784383
-0.12054111 0.09621308 -0.056644578 0.072055474 -0.022653833 -0.10027289 -0.083874956 -0.0033635772
0.052925583 -0.0057284883 -0.059087377 -0.040576644 0.33392712 -0.02355454 0.012333549 0.06786318
0.24694696 0.20749193 -0.087363385 0.16770379 -0.26902774 -0.13152486 -0.15407223 0.019626118
0.08475024 -0.0071889064 0.121421315 0.01904482 0.114820205 -0.10902145 0.0683873 0.05310837
0.0009947021 0.0020439904 -0.056339364 -0.14378633 -0.09967129 -0.014867071 0.10183504 -0.1412226
-0.0038004369 -0.0031143834 0.004908785 -0.009929025 0.009518925 -0.009263597 0.02206841 -0.014714473
0.0015924728 0.027361356 0.007896476 -0.016971154 -0.18481342 -0.12103537 -0.032872237 0.05011667
0.045665067 -0.014107248 -0.07421611 -0.007010989 0.0048121163 -0.024984863 0.13568352 -0.0013910966
-0.12631191 0.0219897 0.16468933 -0.11341592 0.08536148 -0.031822756 -0.06181929 -0.19001833
0.15173115 -0.12533532 0.12316851 0.15566295 -0.041579183 0.09452505 -0.09248648 0.103610076
-0.15709825 -0.17599988 -0.12629847 -0.17160776 0.0051239347 0.014853194 -0.0017313217 -0.0025106047
00000000: ffe5 0f3e 3f08 03be f1a9 e3bd 4da4 d6bd
00000010: c407 873e dd6a 05be 795c 60be 4f61 2ebe
00000020: 74f0 c13d 2a7c b63c 1cbd e63d c211 2b3d
00000030: a1f6 013e 5970 2bbe 6d0f 5d3e 5a54 88bd
00000040: 8d53 483e acfc 273e 18da 153c 8458 0c3e
00000050: 8161 d83d 4403 753d 4cc3 193e 9d36 84bd
00000060: e737 26be 2cfc 12be af8e 843b 1beb 32be
00000070: eee1 48be 417c a4bc 5ceb ab3d a75d b03d
00000080: 26d7 aa3d 502f dd3c ad4b 643e f00b ccbc
00000090: 8a10 c3bd 69cd e7bd 848c b0bc 931d bd3b
000000a0: 4528 70be 7c79 ba3c 49c6 b6bd bfc5 a4be
000000b0: 7bfe e3bd 204b 7dbd b1e6 1e3d 7169 193c
000000c0: f63f 6ebc ea56 c3bd f23c 743c 60d3 4e3d
000000d0: 97ca 44be 1a8a f93d 5666 e1bd fd66 ca3d
000000e0: 61b3 ec3d b8f4 d13d 15f5 84bc cfbb 87bc
000000f0: 4069 2fbe 450b 31bc 652b 503c 7e81 35be
00000100: 2008 7cbe d32f 0cbe 3c3e 1c3e e16a 6c3e
00000110: 7665 d33d b1bb 58be 15ec e1bd ff32 5fbd
00000120: 2c6e 11be c443 40be afad aebd 647c 333e
00000130: 6cdc 39be 93f9 1fbe 8f36 803d f7a5 7ebe
00000140: 2050 8c3c b495 2d3e c368 cc3d 3ba3 003c
00000150: 3948 f23c 936d 01be 9c9e f13d d27c 9c3d
00000160: c924 7f3d f70c 81be 8fd5 98ba 5762 1c3c
00000170: 815f bfba 3802 4fbb d83e 913b fb63 ae3e
00000180: 99fa 203a 6cba 1ebe 90fe 0ebd b3ac 6c3a
00000190: 5cf4 963b e004 16b9 0b85 bd3b d41c b6bd
000001a0: a77f 823c 8a64 b0b9 4f55 0abe abfd f8bc
000001b0: 203b 0bbe c624 4fbe 4718 acbd 7475 8fba
000001c0: b488 57be d0e3 1fbd aa71 893c 7dda cb3d
000001d0: 178b dcbd 8b67 20be e1ea 073e 4a1d 6ebc
000001e0: f0a3 bb3b ee60 103e 25c2 873d 70b6 c33d
000001f0: 8eee 0b3e c8f3 833c b1c2 0abe b657 6f3d
00000200: 4537 3a3d 530e d0bc 435a 88be 1447 673d
00000210: 2e7e cbbd e38a 8cbd 1a4d 113b cb1e f4bd
00000220: 5ad0 79bd 9912 1fbd c5e6 d2bb 91b3 d63d
00000230: 0fbb 9dbd 92bd 5bbd 1afb e9bd ca7f 0c3d
00000240: 87cd 90bd 9275 f8bd 359d 0abd 5d4a 2d3d
00000250: a87e 63bb c4ec 2a3e b599 d7bd a6bc 55bd
00000260: 1478 80be 41c2 803d dece 12be f550 5d3b
00000270: 3b57 16bd aa4f 7cbd f5e9 07bc 4d55 e93c
00000280: 16c2 88be 2819 febc 0a13 97be 5fc2 e73d
00000290: 75c9 ca3d 7960 8ebd 1971 81bc e731 43bb
000002a0: 42de f6bd 5d0b c53d 2504 68bd d291 933d
000002b0: 8894 b9bc df5b cdbd a2c6 abbd 766f 5cbb
000002c0: 7fc8 583d 0bb6 bbbb 9b05 72bd b233 26bd
000002d0: 7ff8 aa3e 73f5 c0bc a712 4a3c dafb 8a3d
000002e0: aadf 7c3e c478 543e 93eb b2bd 8bba 2b3e
000002f0: 01be 89be 74ae 06be 1cc5 1dbe f4c6 a03c
00000300: 8991 ad3d eb90 ebbb bdab f83d e203 9c3c
00000310: db26 eb3d a346 dfbd a40e 8c3d 2a88 593d
00000320: aa60 823a 78f4 053b 1bc4 66bd b93c 13be
00000330: 7620 ccbd 0495 73bc e48e d03d a89c 10be
00000340: c010 79bb af1a 4cbb e0d9 a03b 59ad 22bc
00000350: 44f5 1b3c 58c6 17bc cfc8 b43c f914 71bc
00000360: 85ba d03a ec24 e03c 3960 013c 1707 8bbc
00000370: bb3f 3dbe 64e1 f7bd 0aa5 06bd 2347 4d3d
00000380: 4b0b 3b3d 1622 67bc 9efe 97bd 70bc e5bb
00000390: f5ae 9d3b 0ead ccbc 9ff0 0a3e 7555 b6ba
000003a0: e957 01be be23 b43c 52a4 283e 9b46 e8bd
000003b0: 00d2 ae3d 9458 02bd 3936 7dbd 2a94 42be
000003c0: 695f 1b3e e757 00be c63f fc3d 1c66 1f3e
000003d0: ef4e 2abd 5996 c13d 8d69 bdbd 8531 d43d
000003e0: 5dde 20be 5039 34be 6354 01be f2b9 2fbe
000003f0: aee6 a73b d05a 733c 84ed e2ba f588 24bb

bias f4 [256]
0.19845347 -0.032044113 -0.043559853 0.049288094 -0.1964443 0.037040442 -0.23683333 0.08900786
0.08053762 0.0031371117 0.0015089719 0.13000889 -0.28118396 -0.21418706 -0.02084173 -0.14556065
0.07802661 0.15136237 -0.012204581 -0.031024305 -0.015259603 -0.018473936 0.10412761 -0.028186208
-0.118485495 -0.29957682 -0.06039301 0.014985753 -0.05347701 0.13066168 0.14701787 -0.1918896
-0.13873847 -0.18031126 -0.30629402 -0.11175769 -0.27356026 -0.11764061 -0.24875347 -0.16705774
-0.30276066 0.08924109 -0.1402497 -0.20891848 0.067376524 0.15328611 0.1607154 -0.27387044
0.04763591 -0.083434775 -0.2427818 -0.15042247 -0.15084329 0.05342765 -0.08309674 0.027788125
-0.1132332 -0.060928382 0.019250805 -0.022739071 0.003244945 -0.2648592 -0.24900144 0.046781838
0.04211751 -0.13048041 -0.1869205 -0.038043424 -0.128143 0.11619387 -0.15236606 0.035769444
0.07456925 -0.23132692 0.039488398 -0.19147463 -0.08681696 0.002889939 -0.028294489 0.078295216
-0.0719329 0.12294532 -0.060613785 -0.122852325 -0.14735271 0.11207312 0.030874075 0.093850866
0.0013143085 -0.22320785 -0.026472813 -0.041885503 -0.08286732 -0.23194048 -0.17908163 0.13158734
0.190794 0.038147144 0.19227967 -0.18523662 -0.27021453 0.11978539 0.04301574 -0.2018598
0.07301942 -0.12523107 0.2143385 0.10414959 0.038709484 -0.14152136 0.07152167 -0.26829532
-0.15376435 0.025219848 0.028749349 -0.131351 0.18542922 -0.18103163 0.08727201 -0.118882984
-0.051494066 -0.11204982 -0.113727145 0.042349346 -0.10768019 0.016189657 -0.16047175 -0.14956628
0.106373735 -0.111200854 0.21330091 0.06653745 0.016985673 -0.09700819 -0.22018489 0.047406953
-0.06972092 0.002092074 -0.01745177 -0.10052275 -0.23473696 0.05990055 -0.17721416 -0.11146076
-0.20414066 0.07638863 -0.18282618 -0.074042924 -0.014438354 -0.26458895 0.056831267 -0.11894097
-0.1475017 -0.3201642 -0.12447912 -0.1530409 0.010555925 -0.10669563 0.14213304 -0.024707977
-0.028632686 -0.1689315 -0.13028997 0.13855374 -0.10700581 -0.08518787 0.038223773 0.08982826
-0.09431884 0.06740241 -0.08848701 -0.3212729 -0.10851742 -0.27929363 -0.29119337 0.11828204
-0.20434691 0.09437927 -0.1832576 -0.0048562395 0.16243397 -0.36209923 0.010602902 -0.32153246
0.09521123 -0.20356183 0.14116424 -0.15537836 0.15269239 -0.22679009 -0.24530917 -0.036647905
0.045274585 -0.08968126 0.110142075 -0.07995884 0.1271911 -0.19122534 0.09000102 -0.002367201
-0.07706946 -0.02731345 -0.10895922 0.0054518385 -0.05040369 0.0691566 -0.32047057 -0.076782756
-0.1286799 -0.20306705 -0.10963265 0.05421451 0.04402738 0.10759119 -0.049497608 -0.2226404
0.029191198 0.025812415 -0.18381757 -0.28539532 0.20440757 0.08137441 0.11771623 -0.09895477
-0.11169529 -0.17853846 0.03371243 -0.06698229 -0.10387477 0.01899862 0.11559811 0.05588759
-0.04157487 0.004571045 0.13866648 0.078691944 0.03608108 0.19711176 0.06896872 -0.123366654
-0.010882356 -0.24650535 -0.1467145 0.074240774 0.09754404 -0.22288507 0.01498576 -0.05829015
-0.15242147 -0.19744802 -0.1524487 -0.24904606 -0.20099698 -0.05231788 -0.02720891 -0.20781589
00000000: 6337 4b3e b040 03bd d16b 32bd 50e2 493d
00000010: b228 49be b8b7 173d 7084 72be c149 b63d
00000020: e8f0 a43d 0098 4d3b b2c8 c53a 0d21 053e
00000030: 58f7 8fbe da53 5bbe 47bc aabc da0d 15be
00000040: 6acc 9f3d bdfe 1a3e b9f5 47bc af26 febc
00000050: 6a03 7abc a756 97bc db40 d53d c3e6 e6bc
00000060: 86a8 f2bd 2262 99be a95e 77bd ce86 753c
00000070: b60a 5bbd 2dcc 053e da8b 163e b57e 44be
00000080: 7511 0ebe 84a3 38be 92d2 9cbe 37e1 e4bd
00000090: 1710 8cbe 8fed f0bd 3bb9 7ebe 2f11 2bbe
000000a0: 7203 9bbe 08c4 b63d 9e9d 0fbe baee 55be
000000b0: b4fc 893d 09f7 1c3e 9492 243e bf38 8cbe
000000c0: df1d 433d dadf aabd cb9b 78be 5908 1abe
000000d0: aa76 1abe f4d6 5a3d a02e aabd eca3 e33c
000000e0: cfe6 e7bd 0a90 79bd ddb3 9d3c 4a47 babc
000000f0: 25a9 543b a09b 87be 3cfa 7ebe 509e 3f3d
00000100: 6983 2c3d a89c 05be 1668 3fbe 6cd3 1bbd
00000110: eb37 03be 0df7 ed3d d905 1cbe fb82 123d
00000120: c3b7 983d f7e0 6cbe 96be 213d ed11 44be
00000130: 17cd b1bd 2165 3d3b d8c9 e7bc 3e59 a03d
00000140: 8e51 93bd c2ca fb3d 2946 78bd 009a fbbd
00000150: a1e3 16be 9886 e53d a1eb fc3c e234 c03d
00000160: e044 ac3a 9990 64be 83dd d8bc 2290 2bbd
00000170: 57b6 a9bd ce81 6dbe 2d61 37be d5be 063e
00000180: 815f 433e 2e40 1c3d f6e4 443e abae 3dbe
00000190: 8f59 8abe 0b52 f53d 4631 303d 56b4 4ebe
000001a0: 358b 953d 933c 00be 8d7b 5b3e 614c d53d
000001b0: d68d 1e3d faea 10be f479 923d 015e 89be
000001c0: 6774 1dbe db99 ce3c c183 eb3c e080 06be
000001d0: 28e1 3d3e 5b60 39be abbb b23d ec78 f3bd
000001e0: 71eb 52bd 607a e5bd c7e9 e8bd 8276 2d3d
000001f0: 6e87 dcbd 2ca0 843c b552 24be e727 19be
00000200: 79da d93d 46bd e3bd 8e6b 5a3e c944 883d
00000210: 8a25 8b3c 3bac c6bd 2678 61be cb2d 423d
00000220: d7c9 8ebd 2d1b 093b 04f7 8ebc dfde cdbd
00000230: e35e 70be 475a 753d a177 35be 8a45 e4bd
00000240: 400a 51be a471 9c3d c936 3bbe d1a3 97bd
00000250: d98e 6cbc 3478 87be e7c7 683d 5397 f3bd
00000260: b00a 17be 90ec a3be e9ee febd c1b6 1cbe
00000270: c2f2 2c3c 3d83 dabd 538b 113e 6268 cabc
00000280: 188f eabc 61fc 2cbe bc6a 05be 08e1 0d3e
00000290: dd25 dbbd fa76 aebd 8890 1c3d e1f7 b73d
000002a0: 3c2a c1bd 460a 8a3d ad38 b5bd e27d a4be
000002b0: 623e debd 93ff 8ebe 4c17 95be db3d f23d
000002c0: 5140 51be eb49 c13d e1a7 3bbe 1721 9fbb
000002d0: 1755 263e 1265 b9be cbb7 2d3c e79f a4be
000002e0: 1bfe c23d 8372 50be 5c8d 103e 811b 1fbe
000002f0: 655b 1c3e a93b 68be 5432 7bbe 1d1c 16bd
00000300: d871 393d cfaa b7bd 2b92 e13d 76c1 a3bd
00000310: 623e 023e 93d0 43be 7452 b83d 0b23 1bbb
00000320: 98d6 9dbd 75c0 dfbc 0326 dfbd 56a5 b23b
00000330: 1a74 4ebd faa1 8d3d b814 a4be 4740 9dbd
00000340: aac4 03be cff0 4fbe 1587 e0bd 0910 5e3d
00000350: 0e56 343d c558 dc3d 01be 4abd d8fb 63be
00000360: 6122 ef3c 8f74 d33c ac3a 3cbe 561f 92be
00000370: 3850 513e a0a7 a63d 3515 f13d cca8 cabd
00000380: 80c0 e4bd c9d2 36be 0c16 0a3d 032e 89bd
00000390: 4cbc d4bd fea2 9b3c b4be ec3d 63ea 643d
000003a0: 694a 2abd b4c8 953b 96fe 0d3e 3e29 a13d
000003b0: c1c9 133d aad7 493e 793f 8d3d a8a7 fcbd
000003c0: e94b 32bc e66b 7cbe 533c 16be 8c0b 983d
000003d0: 2bc5 c73d fc3b 64be d586 753c a7c1 6ebd
000003e0: 6014 1cbe d02f 4abe 831b 1cbe ee05 7fbe
000003f0: 27d2 4dbe 464b 56bd 38e5 debc b0cd 54be

weight f4 [1, 256]
-0.032201517 -0.023658914 0.0027069666 0.058972344 0.004724843 0.00072279753 -0.015126332 0.011239622
-0.015290966 0.013115764 -0.072888754 -0.00045811897 0.0045494344 -0.022658562 0.00028087772 0.0071190493
-0.016432483 -0.03744212 -0.003132871 -0.010873052 -0.00034642572 -0.038081322 -0.004711401 -0.0065359
-0.009152638 0.002612443 0.01000559 0.0047211326 0.056168083 0.034791257 0.039979313 0.046164468
0.025206342 -0.008345494 0.00535381 0.02510974 -0.013729622 0.0074955905 -0.00011764597 -0.019451348
0.00785307 0.076309055 -0.0023640045 0.022723792 0.002579312 -0.00481833 -0.029837342 0.06077932
0.0014028668 -0.0032677865 0.06396924 0.0029677725 -0.0010209794 0.013084884 0.09094797 -0.019375503
0.00066953234 0.0038322846 -0.0018248782 -0.010886305 -0.022527248 -0.07574138 0.07917481 -0.0063292957
-0.0017187224 -0.002328033 -0.00027870314 0.008226509 -0.008039428 0.050142255 -0.0037203946 -0.005300597
0.061096963 -0.027550515 0.010511937 -0.024129624 -0.038561944 0.006439805 -0.05616881 -0.0010395111
0.009542788 -0.03916103 0.010185439 -0.0053181695 0.08365403 0.0646975 -0.0475333 -0.11711638
-0.0432463 0.06651637 0.031452227 0.019529393 -0.10200208 -0.01557107 0.057032187 -0.016290052
-0.0023401908 0.09418473 0.018120907 0.019679924 0.0645209 -0.048122425 0.046507724 0.0010313087
0.03163991 -0.015391715 -0.03502631 -0.011845073 0.0015833275 -0.047693472 0.005534815 0.08637253
-0.010659282 -0.0034213192 -0.010008094 0.033137325 0.005333642 -0.0387268 -0.06729486 -0.005304243
-0.05388546 0.023760889 0.0014204339 -0.054135166 0.06825453 -0.009679983 -0.0006341668 0.09950907
-0.076641336 0.0038260077 -0.07599801 0.092641875 0.023929195 0.0017767661 0.003519607 0.0033399502
-0.0012803627 0.05556217 0.009911841 0.055061188 0.0027929202 -0.03232362 -0.012559404 -0.00530832
0.00042433463 0.007297214 0.005275009 0.008273345 -0.051926877 0.008424459 0.020572616 0.004127351
-0.018623896 0.00076659647 -0.029160645 0.023377134 0.025351072 0.005265488 -0.03275879 -0.0433147
-0.06692358 -0.05813967 0.044107705 -0.0018684524 -0.007167919 0.00046624313 0.0023798395 0.01014695
0.012911145 0.0030548163 0.0072193854 -0.038126223 -0.002301118 -0.017672716 0.09905878 0.015436142
-0.032799635 -0.0021276574 -0.0013809925 -0.10282005 0.020523854 0.006552355 0.11104983 0.058810227
0.0017349119 -0.046911545 0.00017564357 -0.01592268 0.00832189 0.000110879366 -0.00138706 0.0046617645
0.042180236 -0.02244266 0.055922832 -0.0067409803 -0.0006853179 -0.04242231 0.014136001 -0.017520599
0.007868219 0.00057794363 0.012102724 -0.0025335513 -0.054223146 0.0062982966 0.04791336 0.0068261055
0.019472674 -0.004675311 0.010016843 0.014029106 0.05477764 -0.023697568 0.07302589 -0.016281616
0.008359924 -0.065385036 -0.034827743 0.00398752 -0.058190122 -0.031201037 -0.04097096 -0.03044073
0.008893942 0.0066145747 -0.0027835108 -0.00014535965 0.0009055574 0.00049908157 -0.14135021 0.0016528377
0.038178608 -0.0026357595 -0.016067207 -0.00088126044 -0.0035069084 -0.03538276 0.009818475 -0.10381234
0.0037614559 -0.06487091 0.040078152 0.0155707225 -0.0008911354 0.0047907475 -0.007913308 0.09834335
-0.052070294 -0.0065293834 0.0015491801 0.02560533 0.038435284 -0.0095088845 -0.020159168 -0.010206746
00000000: bde5 03bd 57d0 c1bc 5d67 313b fc8c 713d
00000010: dbd2 9a3b 1f7a 3d3a 6fd4 77bc 6426 383c
00000020: f686 7abc 80e3 563c b346 95bd b02f f0b9
00000030: 6c13 953b 739e b9bc c542 9339 ea46 e93b
00000040: 6a9d 86bc e95c 19bd da50 4dbb e324 32bc
00000050: 79a0 b5b9 29fb 1bbd 1962 9abb 1a2b d6bb
00000060: f2f4 15bc 8535 2b3b 7cee 233c bbb3 9a3b
00000070: 8110 663d 4781 0e3d 59c1 233d f416 3d3d
00000080: 887d ce3c 8abb 08bc 036f af3b f1b2 cd3c
00000090: 35f2 60bc 929d f53b b3b8 f6b8 6f58 9fbc
000000a0: 2aaa 003c ec47 9c3d 6aed 1abb 3f27 ba3c
000000b0: ad09 293b 15e3 9dbb 716d f4bc bcf3 783d
000000c0: 66e0 b73a 5c28 56bb 4e02 833d f67e 423b
000000d0: 62d2 85ba fb61 563c ee42 ba3d 60b9 9ebc
000000e0: 8e83 2f3a 1127 7b3b c030 efba 795c 32bc
000000f0: 108b b8bc 4c1e 9bbd 6726 a23d fb65 cfbb
00000100: c146 e1ba ea91 18bb e71e 92b9 7bc8 063c
00000110: ceb7 03bc f761 4d3d ddd1 73bb a1b0 adbb
00000120: cf40 7a3d 9eb1 e1bc 423a 2c3c 7dab c5bc
00000130: 21f3 1dbd 0005 d33b 4411 66bd 3440 88ba
00000140: 5b59 1c3c 5167 20bd d4e0 263c 0a44 aebb
00000150: ce52 ab3d 1f80 843d 47b2 42bd b6da efbd
00000160: 0823 31bd bc39 883d 0dd4 003d 1bfc 9f3c
00000170: 77e6 d0bd cd1d 7fbc 959a 693d b772 85bc
00000180: e35d 19bb ece3 c03d 4c72 943c cb37 a13c
00000190: 8923 843d 051c 45bd e27e 3e3d fa2c 873a
000001a0: da98 013d 882d 7cbc bf77 0fbd d611 42bc
000001b0: a887 cf3a 3b5a 43bd 655d b53b 15e4 b03d
000001c0: 45a4 2ebc 3638 60bb fdf8 23bc 01bb 073d
000001d0: d5c5 ae3b fe9f 1ebd e3d1 89bd 37cf adbb
000001e0: 00b7 5cbd 32a6 c23c da2d ba3a d6bc 5dbd
000001f0: 08c9 8b3d cb98 1ebc 373e 26ba 69cb cb3d
00000200: 22f6 9cbd c2bd 7a3b d8a4 9bbd 06bb bd3d
00000210: 2907 c43c 61e2 e83a 35a9 663b 11e3 5a3b
00000220: d8d1 a7ba 2895 633d 4665 223c d787 613d
00000230: 6d09 373b c665 04bd f5c5 4dbc 6af1 adbb
00000240: 3b79 de39 781d ef3b fcd9 ac3b ed8c 073c
00000250: 47b1 54bd be06 0a3c e787 a83c bb3e 873b
00000260: 2491 98bc 6bf5 483a 4ee2 eebc 6781 bf3c
00000270: 0dad cf3c 1d8a ac3b 152e 06bd c16a 31bd
00000280: 3b0f 89bd dd23 6ebd 48aa 343d dce6 f4ba
00000290: dde0 eabb 1872 f439 15f7 1b3b 653f 263c
000002a0: 4489 533c 5033 483b 9890 ec3b 3e2a 1cbd
000002b0: 5bce 16bb 5fc6 90bc 54df ca3d dfe7 7c3c
000002c0: e958 06bd 2b70 0bbb 6b02 b5ba 5293 d2bd
000002d0: a421 a83c 23b5 d63b 186e e33d fee2 703d
000002e0: fc65 e33a 5226 40bd f62c 3839 4870 82bc
000002f0: 8958 083c e887 e838 03ce b5ba b7c1 983b
00000300: 2fc5 2c3d abd9 b7bc 570f 653d 71e3 dcbb
00000310: e8a6 33ba 04c3 2dbd af9a 673c 5c87 8fbc
00000320: b4e9 003c 2481 173a 814a 463c f009 26bb
00000330: 1719 5ebd f161 ce3b cd40 443d 86ad df3b
00000340: 2885 9f3c 5a33 99bb af1d 243c 56da 653c
00000350: 855e 603d 6721 c2bc 998e 953d 0661 85bc
00000360: 10f8 083c 97e8 85bd 89a7 0ebd bea9 823b
00000370: c458 6ebd 5199 ffbc 2ad1 27bd d65e f9bc
00000380: e6b7 113c 13bf d83b 906b 36bb af6b 18b9
00000390: ee62 6d3a ccd4 023a 1cbe 10be 08a4 d83a
000003a0: 2c61 1c3d b5bc 2cbb 609f 83bc 6304 67ba
000003b0: 29d4 65bb 83ed 10bd abdd 203c 909b d4bd
000003c0: c282 763b 0adb 84bd fd28 243d 581c 7f3c
000003d0: 169b 69ba b4fb 9c3b d2a6 01bc 3d68 c93d
000003e0: a947 55bd 70f4 d5bb dc0d cb3a 45c2 d13c
000003f0: 516e 1d3d 27cb 1bbc d724 a5bc 323a 27bc

weight f4 [256, 1]
0.51749635 -0.01763371 0.51615936 0.7480359 0.87108463 -0.003628981 0.61968946 0.2697003
-0.96307814 -0.34346855 0.19109407 -0.9240372 -0.063954 -1.0466378 -0.7034594 0.61569923
0.3703234 0.1049242 -0.7485837 -0.30152965 -0.90093064 -0.45211923 0.32376048 0.37451595
0.57812566 -0.9220003 0.38462505 -0.1732157 -0.84923154 0.78447074 -0.5204662 -0.28862002
-0.048131704 0.009380138 -0.12350314 0.27257422 -0.5718901 0.50358707 0.010047526 -0.041324392
0.72127306 -0.7237898 0.05164149 0.22386861 -0.785763 0.075552225 0.2862246 0.34158313
-1.5891263 -0.6502521 -0.27116394 -0.65869415 0.6515268 -0.43370366 -0.12163806 0.4341646
0.3329502 -0.49612856 0.06736863 -0.6665957 -0.03225724 -0.08665618 -0.20707165 0.50539446
-0.36173868 0.27913845 0.5452041 0.29575327 0.32802105 0.57050705 0.2748335 -0.5332726
-0.83013564 0.22405708 0.53881896 -0.8308363 -0.20463322 0.2178739 0.0634528 -0.24679092
-0.12967776 0.014991045 0.5835991 0.16846712 0.3858686 0.8022288 0.7641613 -1.177162
-0.07645019 0.49371055 0.03980565 0.88755465 -0.66502494 0.93460363 -0.24554539 -0.22447169
-0.4035807 0.39468625 0.16292098 -0.18412773 -0.62044775 0.585536 0.6880607 -1.059936
0.68797165 0.15182307 0.2358588 -0.8529017 0.025730249 0.3342675 0.62060857 -1.3562709
0.4713885 0.07581246 -0.604923 -0.7540773 -0.46216255 0.6578939 0.26080063 0.38935208
0.7894122 0.16559131 -0.019370751 -1.0238863 -0.87442017 0.1346193 -0.4420361 0.47874245
0.112869725 -0.56636524 0.026368141 0.36918807 -0.08367043 -0.14900088 -0.069054864 -0.18055642
-0.9820715 0.89425755 -0.5950846 0.16044223 0.08916978 0.27870047 -0.013041019 0.86126703
0.28858194 0.2786308 -0.029146552 0.30911472 0.24637187 0.6998991 0.1920601 0.24074867
0.7699115 -0.13689363 0.20489983 -0.9379822 0.3792819 0.41725254 0.57510704 0.85593706
0.47964182 -0.21034896 0.38894743 -0.05255274 -0.8257079 -0.20965278 0.5177664 0.047968037
0.82564044 -0.11873448 0.02823712 0.62805915 0.0688237 -0.00039490237 0.7177083 -0.13126087
0.39493474 0.010571361 0.9244897 0.69701076 -0.5730264 -0.7058016 -0.27263927 -0.25262663
-0.827952 -0.2402574 -0.57580686 0.3306539 -0.16423595 -0.02565186 0.2975648 0.011013025
0.40575257 -0.45118344 0.3991758 0.30797333 -0.3463937 -0.38015664 -0.9343049 0.25054094
-0.89107275 -0.61175823 -0.39534575 -0.7317325 -0.22596073 0.4946523 0.084483065 0.2603068
0.80970734 0.18388243 0.22310361 -0.6670269 0.30814227 0.60435337 0.46209654 0.522686
-0.9409548 0.6103349 0.61277276 0.023597581 -0.84686387 -0.29153976 0.3325392 0.84593153
0.8997626 0.45940912 -0.9613364 -1.0203816 -0.057276845 -0.010444302 0.53625643 0.08451683
0.09499002 -0.35202348 0.9413282 -0.33598292 -0.36610964 -0.5660335 0.7984219 0.8272047
0.00022422474 0.6285436 0.35645574 -0.2703178 -0.15016854 -0.9101138 0.5671768 -0.95183265
0.51015323 -1.3397437 -0.83971024 0.56948996 -0.7009728 0.8035426 0.19224006 -0.07426536
00000000: a47a 043f 9274 90bc 0523 043f 487f 3f3f
00000010: 67ff 5e3f 33d4 6dbb f8a3 1e3f 2816 8a3e
00000020: 4a8c 76bf 1cdb afbe 2aae 433e b48d 6cbf
00000030: 51fa 82bd 3af8 85bf ea15 34bf 779e 1d3f
00000040: 079b bd3e 80e2 d63d 2ea3 3fbf 1862 9abe
00000050: 64a3 66bf 2c7c e7be efc3 a53e 8ec0 bf3e
00000060: 0b00 143f 3608 6cbf 93ed c43e 755f 31be
00000070: 3d67 59bf 13d3 483f 463d 05bf 01c6 93be
00000080: c025 45bd 26af 193c 37ef fcbd d98e 8b3e
00000090: 6467 12bf 15eb 003f 619e 243c c443 29bd
000000a0: 5aa5 383f 4a4a 39bf 0786 533d d03d 653e
000000b0: c427 49bf 20bb 9a3d 088c 923e fce3 ae3e
000000c0: 7e68 cbbf ec76 26bf 00d6 8abe 2ea0 28bf
000000d0: 76ca 263f 680e debe 601d f9bd d34a de3e
000000e0: 7378 aa3e 9004 febe 90f8 893d 04a6 2abf
000000f0: 2b20 04bd cc78 b1bd 970a 54be 8861 013f
00000100: d035 b9be 3ceb 8e3e 7f92 0b3f f96c 973e
00000110: 60f2 a73e c00c 123f fab6 8c3e 8e84 08bf
00000120: c583 54bf 386f 653e 0af0 093f b0b1 54bf
00000130: 5f8b 51be 561a 5f3e 8bf3 813d c2b6 7cbe
00000140: 3fca 04be 009d 753c c066 153f a582 2c3e
00000150: 9290 c53e de5e 4d3f 13a0 433f 3fad 96bf
00000160: eb91 9cbd a1c7 fc3e 400b 233d c836 633f
00000170: 133f 2abf 2f42 6f3f 4070 7bbe e8db 65be
00000180: 21a2 cebe 5114 ca3e c2d4 263e fb8b 3cbe
00000190: aad5 1ebf b0e5 153f bf24 303f fcab 87bf
000001a0: e91e 303f 8277 1b3e f884 713e c457 5abf
000001b0: 3ec8 d23c 1c25 ab3e 34e0 1e3f 499a adbf
000001c0: d559 f13e 9043 9b3d 3cdc 1abf 360b 41bf
000001d0: 92a0 ecbe bc6b 283f a987 853e 2859 c73e
000001e0: eb16 4a3f c590 293e 69af 9ebc b50e 83bf
000001f0: 00da 5fbf a4d9 093e 8e52 e2be bb1d f53e
00000200: 3e28 e73d 50fd 10bf 0002 d83c 3806 bd3e
00000210: 675b abbd b093 18be a36c 8dbd c8e3 38be
00000220: 0a69 7bbf 10ee 643f 7757 18bf f84a 243e
00000230: a59e b63d d4b1 8e3e 00aa 55bc ff7b 5c3f
00000240: 03c1 933e b2a8 8e3e c0c4 eebc 4944 9e3e
00000250: e848 7c3e 962c 333f 67ab 443e d286 763e
00000260: ec18 453f d82d 0cbe 43d1 513e 9a1f 70bf
00000270: 3d31 c23e 20a2 d53e 373a 133f b11e 5b3f
00000280: 9d93 f53e b865 57be 1e24 c73e 8b41 57bd
00000290: 9861 53bf 38af 56be 578c 043f 227a 443d
000002a0: 2c5d 533f 102b f3bd 8851 e73c 7cc8 203f
000002b0: 71f3 8c3d e60a cfb9 bbbb 373f 4069 06be
000002c0: e334 ca3e 8033 2d3c 5bab 6c3f 4c6f 323f
000002d0: dcb1 12bf 6aaf 34bf 6097 8bbe 4758 81be
000002e0: aaf4 53bf 0906 76be 1468 13bf 784b a93e
000002f0: 782d 28be d923 d2bc 6a5a 983e fa6f 343c
00000300: cdbe cf3e 8401 e7be c560 cc3e aeae 9d3e
00000310: 845a b1be e4a3 c2be 9b2e 6fbf e746 803e
00000320: 581d 64bf 309c 1cbf c26a cabe d252 3bbf
00000330: 4062 67be 1143 fd3e 7505 ad3d ef46 853e
00000340: fb48 4f3f ad4b 3c3e 4675 643e 46c2 2abf
00000350: d3c4 9d3e e7b6 1a3f eb97 ec3e c0ce 053f
00000360: 6ae2 70bf e83e 1c3f adde 1c3f b74f c13c
00000370: 12cc 58bf b344 95be 9442 aa3e f88e 583f
00000380: d756 663f ac37 eb3e 241a 76bf dd9b 82bf
00000390: 209b 6abd 941e 2bbc 1a48 093f 2917 ad3d
000003a0: 218a c23d 6c3c b4be e3fa 703f f405 acbe
000003b0: b972 bbbe 92e7 10bf 6165 4c3f b0c3 533f
000003c0: df1d 6b39 3ce8 203f 5e81 b63e 1867 8abe
000003d0: c8c5 19be 38fd 68bf 8032 113f 4eab 73bf
000003e0: 6799 023f b97c abbf 40f7 56bf 18ca 113f
000003f0: f472 33bf f8b4 4d3f 94da 443e 7018 98bd

bias f4 [256]
-1.1440289 -0.0009468886 -0.44248226 0.015882872 0.51996094 0.15282677 0.485798 0.46320415
-0.7988615 0.3123009 -0.0007129888 -0.38251317 0.34862378 0.3424136 -0.55483055 0.79009306
-1.4367546 -0.96631074 -0.76830304 -0.5588242 -0.99292696 -0.25754058 0.011583798 -0.4860504
-0.897269 0.16072655 0.13102122 0.6867656 0.40559298 -0.66473544 -0.85753715 0.36080617
-0.5033958 0.33634794 0.67798305 0.69643116 -0.55591977 0.40181738 0.30757728 0.30425078
0.6198856 -0.8245114 0.05803846 0.1196166 -0.0012559046 -0.9673164 -1.1195974 0.4834328
0.09783828 -0.89788055 1.0112535 -0.0011594212 0.4832325 -0.7773719 -0.55473804 -1.69324
-0.81457424 -0.8919078 -0.6037847 -0.50645924 0.17304748 0.30478045 0.80258065 -0.22216369
-0.6280931 0.7676433 -0.8731199 0.57157296 -0.44420686 0.886235 0.22010624 -0.30994463
0.44935519 0.4229893 0.11493423 -0.5735154 0.76754284 -0.8502968 0.42710927 0.172604
0.71796083 -0.17783141 -0.5740565 0.084615394 0.35809156 -0.96228814 0.0063552232 0.5100495
0.3310994 -1.4001278 -0.7310281 0.10536994 0.29261872 -0.56665695 0.9165083 0.8262418
0.6394601 -1.5678426 0.04865853 0.7017689 -0.6168051 -0.000403216 -1.1854954 0.40813783
-0.7706323 0.0137830945 -1.3049318 -0.8634566 0.065710664 -1.2789978 -0.5633026 0.8144631
-0.3408385 0.8107536 -0.7379652 -0.31763387 -0.0005082294 -0.1782677 0.30442286 0.08439366
-0.020974314 0.48783222 0.20089056 0.51726806 -0.5220455 0.8223787 0.18466501 0.88322324
-0.6225691 -0.6220628 -0.69177306 -1.449505 0.6724074 -0.46145678 0.26082265 -0.51659775
-0.27812314 -0.9301622 0.34812167 0.8223925 0.3061 0.052485347 -0.2019732 -0.907233
-0.23077056 0.11271023 -0.1266526 -0.7378695 -0.9820406 0.07248422 -0.7723742 -0.25249752
-0.36019912 -0.260458 0.17622139 -0.23482835 -1.4893917 -0.97954047 -0.17990072 0.021229008
-1.8234391 0.36065188 -1.5193219 0.19869365 -0.5620649 -0.7396462 -1.496819 0.46047685
-0.1129038 -0.5388373 0.54312646 -0.43001863 0.15720062 0.53208 0.93089944 0.46700102
-0.4907667 -0.654402 -0.6928707 -0.954768 -0.35596728 0.6338174 -0.31530738 0.9873156
-0.4824922 -0.0007865682 -0.3761437 -0.49942848 -0.9027612 0.3332243 0.6850287 -0.0039764848
0.4428225 -0.90423405 0.8971835 -1.0597012 -0.90037394 -0.7054789 0.17402802 -0.97590727
-0.23870921 -0.04160452 0.28603822 -0.74469006 -0.591979 -1.9183098 0.47331688 0.26793402
0.07260422 -0.029705966 -0.8980362 -0.8604574 -1.2184104 -0.78141916 0.08924752 0.5951958
0.37967545 0.24869415 -1.7472079 0.54038745 -0.99892855 0.52643514 -0.29204613 -0.47727975
0.7536092 0.67762077 -0.24950886 0.0457687 -0.5681585 0.08734225 0.09468577 0.292454
0.32485676 -0.5684539 0.7939753 -0.8888434 -0.0004493943 -0.94376516 0.75923043 -0.5156575
-0.007285687 -0.8144963 -0.051878773 -0.37056613 -0.29695976 -0.6571777 -0.00082639966 -0.12709105
0.12646365 0.47824207 -0.070112586 -0.8673494 -0.9541402 -0.0012126811 -0.7615866 -0.22828388
00000000: 8a6f 92bf 9e38 78ba 098d e2be cc1c 823c
00000010: 291c 053f 9f7e 1c3e 84ba f83e 1829 ed3e
00000020: 3082 4cbf e7e5 9f3e dee7 3aba c4d8 c3be
00000030: d17e b23e d650 af3e 6009 0ebf 8a43 4a3f
00000040: 93e7 b7bf 2460 77bf 82af 44bf 1a0f 0fbf
00000050: 7630 7ebf 5cdc 83be f8c9 3d3c 99db f8be
00000060: 6cb3 65bf 8095 243e 6d2a 063e dfcf 2f3f
00000070: e2a9 cf3e 1a2c 2abf 8e87 5bbf 96bb b83e
00000080: 8cde 00bf cc35 ac3e 4c90 2d3f 5049 323f
00000090: c250 0ebf 02bb cd3e c57a 9d3e c2c6 9b3e
000000a0: d3b0 1e3f 2e13 53bf bcb9 6d3d 8cf9 f43d
000000b0: 2a9d a4ba 0ca2 77bf f84e 8fbf 8184 f73e
000000c0: 705f c83d 80db 65bf c170 813f b8f7 97ba
000000d0: 406a f73e d801 47bf 5003 0ebf 17bc d8bf
000000e0: f087 50bf 1254 64bf a291 1abf 50a7 01bf
000000f0: 5c33 313e 2f0c 9c3e ed75 4d3f e17e 63be
00000100: b6ca 20bf 4584 443f c984 5fbf 9b52 123f
00000110: 156f e3be 4ce0 623f 8863 613e 10b1 9ebe
00000120: e211 e63e 0e92 d83e a362 eb3d e8d1 12bf
00000130: b07d 443f 0dad 59bf 11ae da3e 1abf 303e
00000140: 48cc 373f 7019 36be 5ef5 12bf d64a ad3d
00000150: c757 b73e 8458 76bf 7a3f d03b 9b92 023f
00000160: dc85 a93e 6337 b3bf a824 3bbf 32cc d73d
00000170: 1fd2 953e 6e10 11bf 4aa0 6a3f 9584 533f
00000180: a8b3 233f 11af c8bf 2b4e 473d 20a7 333f
00000190: f0e6 1dbf bc66 d3b9 50be 97bf 71f7 d03e
000001a0: 2948 45bf 7dd2 613c 0108 a7bf 7e0b 5dbf
000001b0: 5093 863d 33b6 a3bf 9934 10bf a780 503f
000001c0: 6282 aebe 8c8d 4f3f 4aeb 3cbf e8a0 a2be
000001d0: b33a 05ba cf8b 36be 50dd 9b3e 95d6 ac3d
000001e0: 53d2 abbc 25c5 f93e 41b6 4d3e ae6b 043f
000001f0: c6a4 05bf 6987 523f d318 3d3e eb1a 623f
00000200: b060 1fbf 823f 1fbf 0a18 31bf 6189 b9bf
00000210: e422 2c3f 1044 ecbe 8c8a 853e c03f 04bf
00000220: 2866 8ebe 1c1f 6ebf 013d b23e 5188 523f
00000230: 24b9 9c3e e0fa 563d 10d2 4ebe 6c40 68bf
00000240: 1e4f 6cbe 9fd4 e63d 38b1 01be 04e5 3cbf
00000250: 0367 7bbf 9b72 943d 51ba 45bf 5b47 81be
00000260: 056c b8be c05a 85be 6173 343e d876 70be
00000270: 63a4 bebf 2ac3 7abf e537 38be 75e8 ad3c
00000280: 7466 e9bf 5da7 b83e 2479 c2bf 5976 4b3e
00000290: 7ce3 0fbf 7459 3dbf c497 bfbf 9fc3 eb3e
000002a0: 1c3a e7bd 3ef1 09bf 560a 0b3f 672b dcbe
000002b0: 33f9 203e 6536 083f 6d4f 6e3f c21a ef3e
000002c0: c645 fbbe e486 27bf f95f 31bf ad6b 74bf
000002d0: 5841 b6be db41 223f f86f a1be b7c0 7c3f
000002e0: 3809 f7be b331 4eba e895 c0be 17b5 ffbe
000002f0: 5c1b 67bf 609c aa3e 0a5e 2f3f 2c4d 82bb
00000300: a1b9 e23e e27b 67bf d1ad 653f 4aa4 87bf
00000310: e87e 66bf 449a 34bf 6734 323e 0fd5 79bf
00000320: 3070 74be 8069 2abd 9a73 923e 02a4 3ebf
00000330: f08b 17bf 2d8b f5bf 9756 f23e a62e 893e
00000340: 85b1 943d ed59 f3bc b3e5 65bf f046 5cbf
00000350: dff4 9bbf 160b 48bf 67c7 b63d c05e 183f
00000360: d264 c23e aea9 7e3e 82a4 dfbf d556 0a3f
00000370: c8b9 7fbf 74c4 063f 1287 95be 035e f4be
00000380: 88ec 403f 8e78 2d3f 407f 7fbe f677 3b3d
00000390: d672 11bf 7ee0 b23d 9dea c13d 88bc 953e
000003a0: a053 a63e 3286 11bf f741 4b3f 3e8b 63bf
000003b0: af9c ebb9 989a 71bf ed5c 423f 2102 04bf
000003c0: c6bc eebb d482 50bf d67e 54bd d8ba bdbe
000003d0: 1c0b 98be cc3c 28bf bea2 58ba 2824 02be
000003e0: b07f 013e 25dc f43e 3097 8fbd 9c0a 5ebf
000003f0: 8842 74bf d3f2 9eba 57f7 42bf 40c3 69be

weight f4 [1, 256]
-0.06313084 -0.040419884 -0.041415833 -0.002051903 0.004544212 -0.00511554 -0.027195975 0.020157047
-0.01988026 0.0067634075 0.02791303 0.028236048 -0.00687017 -0.031611968 0.0020538324 -0.0020765916
-0.028589992 0.012360889 0.001692763 0.026347259 -0.02294299 0.071978636 -0.007712592 -0.0049216263
-0.020624159 -0.009057346 -0.0015427341 0.08854363 -0.0005656969 -3.8174072e-05 0.012669605 0.0022823163
-0.04502288 0.029624403 -0.0055993134 -0.024667036 0.033424906 0.013898484 0.0029653623 0.013569076
-0.014786957 0.02570038 0.0025037844 -0.029389251 0.002709714 -0.08446906 0.012978139 0.027401086
-0.011636992 0.0059177354 -0.020951265 -0.0066454657 -0.023921285 -0.014683229 -0.054571018 0.025549665
-0.005867278 -0.0025958517 -0.0022406213 0.018287892 -0.012772393 -0.028655542 0.037328973 -0.062288266
-0.003309945 -0.025779251 -0.04655361 -0.0053780037 -0.024181996 -0.08308967 -0.06433087 0.002915764
-0.0022548162 0.0020180456 -0.013117218 -0.025823515 -0.05414715 0.0011968558 -0.022621283 0.0008167914
-0.032842178 -0.0262331 -0.0006261463 -0.015526041 -0.009754813 -0.009995616 -0.047689535 -0.0024491062
0.037101835 -0.005630811 -0.0368934 0.018536735 0.027603371 -0.0413242 -0.019357465 -0.027287139
0.03812464 0.07845821 0.043440066 0.006606632 0.045338057 -0.019308684 0.047367778 0.0016902281
0.01658116 0.01884943 0.034311503 -0.011923779 -0.007890819 -0.05030843 -0.008693293 0.039194703
-0.015481253 0.014207566 -0.0145854065 -0.03341039 -0.030206643 -0.017696243 -0.0045499364 -0.0090932315
-0.031069292 0.033636592 -0.0004124643 -0.049035434 -0.034865443 0.060166895 0.0012801522 -0.031553328
0.016276687 0.00025697018 -0.04872629 -0.0011906265 -0.013087536 0.0036065828 0.0011383562 -0.0013205077
-0.0009855385 -0.020822737 0.0200411 0.0031171716 -0.007089187 0.0016414406 -0.017116172 -0.048958942
-0.006760846 -0.052746445 -0.0037870894 -0.03305664 0.050261233 -0.0127095515 -0.0016200788 0.0038103056
0.003092687 0.0013467725 -0.005196489 -0.05448224 0.021086674 -0.0060080723 -0.045741823 -0.016418198
-0.09048478 0.032651596 0.0024772591 0.0057407124 0.044216778 -0.045483712 0.013374855 -0.024577899
-0.051119987 0.03196671 0.03808649 -0.035849992 -0.0018134145 0.010890678 -0.016693134 -0.029704517
-0.0014124876 0.0056607462 0.05071234 -0.08681414 -0.033487204 -0.0066443435 -0.0036652 0.053897284
-0.005323137 0.020027822 0.0010588977 -0.013763501 -0.04298998 0.006936775 -0.007003903 0.05077777
-0.033266265 0.02600656 -0.014208015 -0.01087893 0.0028209316 0.028105365 -0.018509053 -0.012035919
-0.018431056 0.0002938809 -0.02232423 0.004659313 0.05711316 -0.0010711887 -0.02281422 -0.018695718
-0.048875686 -0.051393643 0.056737974 -0.039591424 0.01800763 -0.009719998 0.027497927 -0.018747976
0.057569027 0.043422848 -0.06755545 -0.018493054 -0.044892415 -0.06163472 0.044728164 0.0074384403
-0.0036339655 -0.03192563 -0.0030081666 -0.0052411947 -0.022807006 -0.002198266 0.07140895 0.029210541
-0.025094386 0.0024955873 -0.033946663 0.010499645 -0.0004446893 0.01769074 0.039620664 -0.0068028825
-0.023931084 -0.054333545 -0.020472033 0.003639406 -0.010429849 -0.085696094 0.0010903347 0.009851514
0.008864073 -0.023835227 -0.0060781823 -0.049070515 0.035467867 -0.09679573 0.024547784 0.012403944
00000000: be4a 81bd 528f 25bd a6a3 29bd 3879 06bb
00000010: 9de7 943b 43a0 a7bb 18ca debc 6420 a53c
00000020: eddb a2bc 939f dd3b dea9 e43c 494f e73c
00000030: 2a1f e1bb 8d7b 01bd 9799 063b 6d17 08bb
00000040: 8f35 eabc 5485 4a3c b3df dd3a 35d6 d73c
00000050: f0f2 bbbc 8969 933d e9b9 fcbb 9845 a1bb
00000060: fff3 a8bc 4365 14bc 9135 caba 5d56 b53d
00000070: 474b 14ba 191d 20b8 2d94 4f3c ea92 153b
00000080: e969 38bd e0ae f23c 727a b7bb 8612 cabc
00000090: 8ee8 083d 78b6 633c 8656 423b d450 5e3c
000000a0: fe44 72bc 9a89 d23c 8816 243b bac1 f0bc
000000b0: 7595 313b 1dfe acbd 43a2 543c 3e78 e03c
000000c0: 15a9 3ebc 90e9 c13b fda1 abbc 35c2 d9bb
000000d0: 92f6 c3bc ed91 70bc dc85 5fbd 884d d13c
000000e0: 4c42 c0bb 2a1f 2abb 63d7 12bb 7dd0 953c
000000f0: 4d43 51bc 07bf eabc 44e6 183d fb21 7fbd
00000100: aaeb 58bb 022f d3bc 00af 3ebd f739 b0bb
00000110: 5219 c6bc eb2a aabd e7bf 83bd 6716 3f3b
00000120: 8ac5 13bb 3041 043b 9ae9 56bc d68b d3bc
00000130: 67c9 5dbd d1df 9c3a 4550 b9bc f11d 563a
00000140: 8585 06bd cce6 d6bc f823 24ba f060 7ebc
00000150: a7d2 1fbc a7c4 23bc 1a56 43bd 2f81 20bb
00000160: 18f8 173d ab82 b8bb 891d 17bd 5ada 973c
00000170: 7720 e23c 9043 29bd 8c93 9ebc 4789 dfbc
00000180: 9528 1c3d b3ae a03d 36ee 313d 727c d83b
00000190: 66b4 393d 3f2d 9ebc b704 423d a58a dd3a
000001a0: 36d5 873c 1f6a 9a3c 388a 0c3d f45b 43bc
000001b0: 7e48 01bc 3610 4ebd 506e 0ebc a08a 203d
000001c0: 15a5 7dbc dac6 683c a1f7 6ebc 55d9 08bd
000001d0: ec73 f7bc b6f7 90bc a217 95bb c7fb 14bc
000001e0: 0785 febc 86c6 093d 0540 d8b9 61d9 48bd
000001f0: 11cf 0ebd 9071 763d c8ca a73a 103e 01bd
00000200: b056 853c f4b9 8639 3895 47bd cc0e 9cba
00000210: 1b6d 56bc 6b5c 6c3b e534 953a e314 adba
00000220: 2f2d 81ba 7294 aabc 3c2d a43c 7649 4c3b
00000230: 694c e8bb 9b25 d73a 3737 8cbc 2c89 48bd
00000240: 168a ddbb a80c 58bd d130 78bb 6666 07bd
00000250: b9de 4d3d b93b 50bc d358 d4ba 52b6 793b
00000260: aeae 4a3b 3086 b03a 4f47 aabb c528 5fbd
00000270: f6bd ac3c 5ddf c4bb c75b 3bbd 757f 86bc
00000280: 1650 b9bd aebd 053d 8359 223b 961c bc3b
00000290: a71c 353d 214d 3abd 3522 5b3c 9757 c9bc
000002a0: 3163 51bd 86ef 023d 9400 1c3d 71d7 12bd
000002b0: 18b0 edba d06e 323c 0ac0 88bc e356 f3bc
000002c0: 3823 b9ba c87d b93b beb7 4f3d 9dcb b1bd
000002d0: e129 09bd cbb8 d9bb da33 70bb 66c3 5c3d
000002e0: b66d aebb 6311 a43c b6ca 8a3a 4f80 61bc
000002f0: 4316 30bd e34d e33b ff80 e5bb 5afc 4f3d
00000300: 3542 08bd b60b d53c bcc8 68bc 8a3d 32bc
00000310: 61df 383b 393d e63c 4ca0 97bc 4e32 45bc
00000320: bafc 96bc 0714 9a39 4ee1 b6bc 26ad 983b
00000330: 7def 693d 2167 8cba e3e4 babc c327 99bc
00000340: df31 48bd 2482 52bd 1466 683d 9e2a 22bd
00000350: bd84 933c a040 1fbc 5543 e13c 5b95 99bc
00000360: 80cd 6b3d 28dc 313d 835a 8abd bf7e 97bc
00000370: 1ce1 37bd b074 7cbd e134 373d 29be f33b
00000380: d327 6ebb 73c4 02bd a924 45bb 54be abbb
00000390: c2d5 babc c910 10bb db3e 923d f24a ef3c
000003a0: be92 cdbc 028d 233b a80b 0bbd b406 2c3c
000003b0: 3025 e9b9 2cec 903c 4749 223d b7ea debb
000003c0: 1f0b c4bc da8c 5ebd f7b4 a7bc 1a83 6e3b
000003d0: f5e1 2abc 6f81 afbd 90e9 8e3a 3f68 213c
000003e0: 9e3a 113c 1842 c3bc 7d2b c7bb 2afe 48bd
000003f0: c146 113d d73c c6bd 6f18 c93c e939 4b3c

weight f4 [256, 1]
-0.82190514 0.86672324 -0.37572274 -0.9930831 -0.4959803 0.11887345 0.50716096 -0.461385
0.59140944 0.4755245 -0.5920031 -0.52416646 0.16617486 0.42823178 -1.0145427 -0.45634064
-0.30296612 0.54612684 -1.4156458 -0.47515327 0.64205134 -2.2565784 0.16660637 -0.67308044
-0.5350348 -0.07055615 -0.04239384 0.051751614 0.70868593 -0.9138653 -0.25500503 0.36035383
-0.35639727 0.6110905 0.015037834 0.54668 -0.8514354 -0.27573073 -0.028482912 0.8189361
-0.04221666 0.5907417 -0.09876324 -0.26049387 -0.06580198 0.84315157 -0.4065815 0.22375932
0.20465995 -0.06766494 0.604936 -0.19021893 0.9160915 0.6719557 -0.3790592 -0.19384022
-0.65440345 0.23404418 -0.42912316 -0.41557664 0.72816277 -0.94068205 -0.25986767 -0.81998104
-0.24334776 0.48810238 0.40848204 0.6119515 -0.015972614 0.72254425 0.83202475 -0.63019234
0.21313483 0.14625342 -0.69992447 -0.46322963 -0.37900317 -0.36709642 0.42808914 -0.4046347
-0.9362494 0.6780587 0.70874894 0.0032454515 0.7046847 -0.46487236 0.51076823 0.6276384
0.7749887 -0.3799951 -0.9941606 0.76351976 -0.8994123 0.34179923 -3.3135457 -0.0068058684
0.19689739 -0.49439573 0.07300675 -1.3171729 0.31066802 0.24807365 0.22887775 -0.47319663
0.39611304 0.5644393 -0.65563387 -0.1538012 -0.6887486 -0.14746094 -0.51532876 0.5469569
-0.33722055 0.36433542 0.26631612 -0.24836816 -0.12525202 0.6158923 -0.85009027 -0.39801502
0.85424465 -0.19545464 -0.76335764 -0.22534919 -1.3302352 -0.1912537 0.3347368 0.9024372
0.21886405 -0.6140232 0.2509553 0.34492475 -0.077825025 -0.030931711 0.49170464 0.03291881
-0.038467765 -0.76925004 0.20770696 -0.5446431 0.27402705 0.046527553 0.82937527 -0.24543448
0.28432137 0.67827046 -0.50624764 0.24112636 0.44599685 0.7692346 -2.7040806 0.27889445
0.5964325 0.00037332994 -0.0362576 0.86885124 -4.107364 0.2395462 -0.20564711 -0.059154153
0.42730886 -0.8615235 -0.0015442371 -0.8667717 -0.31501564 0.6920138 0.33346325 -0.67142516
0.31110787 0.21983902 0.104441516 0.37308016 -0.37177396 -0.9499452 0.3050211 0.7522899
-0.48296642 -0.7931049 0.1595044 0.7157881 -0.48590428 -0.8277813 0.18894626 -0.40024206
-0.21705914 0.14575705 0.21568078 0.3300708 -0.059943005 0.15834898 -0.6245781 -0.44792068
0.462623 0.16115715 0.48075435 -0.836231 0.52019083 -0.06924236 0.61609346 -0.16921127
0.51769257 -0.81187415 0.79112315 -0.51452523 -0.187107 0.20208284 -0.4028815 -0.64352757
-0.027267337 0.4887077 -0.62188876 0.67821866 0.18765606 -0.4798653 0.8115251 -0.6014966
-0.45837116 -0.5069257 -0.4319973 0.6695296 -0.55707955 -0.6580942 -0.12761672 0.18895483
0.01582341 0.27673915 0.1597656 0.022104267 0.6772839 -0.9469285 -0.3596246 -0.9068049
-0.53344285 0.2513267 -0.65270936 -0.85075706 0.1766995 -3.0377285 -0.60408676 -0.14824246
0.49051982 -0.53739077 0.3600304 0.43978277 0.15565383 -0.7218841 0.0016505718 -0.2145986
0.081817985 0.0065776724 -0.68951833 -0.44342315 0.24348953 0.8468818 0.34058782 -0.9047414
00000000: 6068 52bf 93e1 5d3f bb5e c0be b23a 7ebf
00000010: 21f1 fdbe ec73 f33d 4dd5 013f a83a ecbe
00000020: 9c66 173f f277 f33e 848d 17bf c62f 06bf
00000030: be29 2a3e 3241 db3e 89dc 81bf 7ba5 e9be
00000040: 601e 9bbe f8ce 0b3f e233 b5bf 4a47 f3be
00000050: 7a5d 243f c86b 10c0 dc9a 2a3e 004f 2cbf
00000060: 0af8 08bf be7f 90bd 2aa5 2dbd 80f9 533d
00000070: 716c 353f 14f3 69bf 0590 82be 4c80 b83e
00000080: b479 b6be 6d70 1c3f 3f61 763c 38f3 0b3f
00000090: acf7 59bf 942c 8dbe ff54 e9bc cca5 513f
000000a0: 60eb 2cbd d93a 173f 6244 cabd 745f 85be
000000b0: 30c3 86bd c8d8 573f 732b d0be 2a21 653e
000000c0: 6192 513e eb93 8abd 16dd 1a3f c0c8 42be
000000d0: f984 6a3f 4a05 2c3f 0c14 c2be 0d7e 46be
000000e0: fc86 27bf 47a9 6f3e 08b6 dbbe 76c6 d4be
000000f0: e068 3a3f 8ad0 70bf 600d 85be 47ea 51bf
00000100: 2830 79be 8ee8 f93e 8f24 d13e daa8 1c3f
00000110: 00d9 82bc a9f8 383f 93ff 543f 4954 21bf
00000120: 0440 5a3e 75c3 153e 402e 33bf 6f2c edbe
00000130: b40c c2be 10f4 bbbe 802e db3e 482c cfbe
00000140: 0aae 6fbf 4195 2d3f 9270 353f a4b1 543b
00000150: 3766 343f c003 eebe b5c1 023f e9ac 203f
00000160: a965 463f b88e c2be 4f81 7ebf 0876 433f
00000170: e23f 66bf 4f00 af3e 2211 54c0 c303 dfbb
00000180: 789f 493e 7021 fdbe 9084 953d 1f99 a8bf
00000190: e10f 9f3e 0507 7e3e ee5e 6a3e d446 f2be
000001a0: 54cf ca3e 187f 103f 9fd7 27bf 107e 1dbe
000001b0: d451 30bf 0000 17be 96ec 03bf 5e05 0c3f
000001c0: 2ca8 acbe 2c8a ba3e 965a 883e 3954 7ebe
000001d0: 1142 00be 1eab 1d3f 849f 59bf a0c8 cbbe
000001e0: c7af 5a3f 4325 48be 686b 43bf f0c1 66be
000001f0: 2645 aabf 03d8 43be 9f62 ab3e 2006 673f
00000200: e61d 603e a030 1dbf 377d 803e fa99 b03e
00000210: ba62 9fbd 8064 fdbc b6c0 fb3e e0d5 063d
00000220: 6090 1dbd 92ed 44bf 22b1 543e bb6d 0bbf
00000230: 464d 8c3e ad93 3e3d f051 543f 2d53 7bbe
00000240: 9292 913e 22a3 2d3f 7299 01bf d4e9 763e
00000250: b359 e43e 8fec 443f a80f 2dc0 41cb 8e3e
00000260: cdaf 183f 7fbb c339 d982 14bd 096d 5e3f
00000270: 876f 83c0 994b 753e 2895 52be a04b 72bd
00000280: 3ac8 da3e ce8c 5cbf 0068 caba c0e4 5dbf
00000290: bb49 a1be d127 313f b2bb aa3e 85e2 2bbf
000002a0: 8849 9f3e 7b1d 613e 6fe5 d53d 5d04 bf3e
000002b0: 2859 bebe 9c2f 73bf ba2b 9c3e 1296 403f
000002c0: 6047 f7be ec08 4bbf 1f55 233e e43d 373f
000002d0: 72c8 f8be 7ae9 53bf 217b 413e 87ec ccbe
000002e0: c044 5ebe 5641 153e 6cdb 5c3e 0aff a83e
000002f0: cc86 75bd 3c26 223e 5ae4 1fbf dc55 e5be
00000300: ecdc ec3e 6106 253e 6f25 f63e 3c13 56bf
00000310: 3a2b 053f f0ce 8dbd 4db8 1d3f b845 2dbe
00000320: 8087 043f fcd6 4fbf 0c87 4a3f edb7 03bf
00000330: fa98 3fbe ceee 4e3e 7c46 cebe 39be 24bf
00000340: c05f dfbc e537 fa3e 1a34 1fbf bd9f 2d3f
00000350: e928 403e e8b0 f5be 1cc0 4f3f aefb 19bf
00000360: a0af eabe e2c5 01bf c02e ddbe 4b66 2b3f
00000370: c49c 0ebf dd78 28bf f5ad 02be 607d 413e
00000380: 19a0 813c c1b0 8d3e 9899 233e 0214 b53c
00000390: 7a62 2d3f e869 72bf b720 b8be 5e24 68bf
000003a0: b68f 08bf e5ad 803e f617 27bf 37cb 59bf
000003b0: b7f0 343e 256a 42c0 6ea5 1abf dfcc 17be
000003c0: 6a25 fb3e 7192 09bf e855 b83e 352b e13e
000003d0: b863 1f3e 65cd 38bf 0058 d83a bcbf 5bbe
000003e0: 3090 a73d 8489 d73b 4684 30bf 5c08 e3be
000003f0: 5255 793e 3fcd 583f 8761 ae3e 229d 67bf

bias f4 [256]
-0.35073757 -0.54216874 0.72941846 -0.5543269 0.9549008 -0.36426622 -0.5992186 -0.17125535
0.2036436 0.7350403 -0.083865404 -0.5720775 -0.6394232 -0.8764867 0.010053918 0.82479477
-0.9645672 -0.5268871 0.08731557 0.8463596 -1.3078973 0.12228333 -0.59188724 -0.6898699
-0.31435788 0.6386535 0.7076867 -0.7146199 0.059661146 -0.01963985 0.5011596 0.56293786
0.32487306 -1.2794247 -0.14624983 0.4165922 0.40669736 -0.20885289 0.12653221 0.3036374
-0.18652153 0.8339462 0.15813108 -0.7489604 -0.76693785 -0.20716906 0.8037085 -0.4794789
-0.26823336 0.16815922 0.34973866 -0.41988647 0.8941365 -0.2792085 0.43562168 0.38293058
-0.07814133 -0.9676544 -0.122505546 0.21179788 -0.7546019 0.13208249 0.51902515 0.36026445
-0.77110434 -0.042590115 0.42944404 0.058862384 -0.97424126 -0.8038808 -1.1212695 0.6949025
0.2581465 0.4297693 -0.17506719 0.5458713 -0.15410757 -0.26700938 0.30441275 -0.6712251
-0.2091825 -0.8049793 0.535547 0.3779252 0.6413046 -0.32477057 -0.002406084 -1.2987807
-0.04065878 0.75140303 0.15857178 -0.24653004 -0.2313075 0.19239123 0.06924405 0.25266275
0.40933275 -0.5747317 -0.6122058 0.0037692455 0.64849997 0.12513249 0.5444035 -0.4404719
-0.045928 -0.6776078 0.4807814 -0.79766107 -0.7658088 -0.5435178 -0.97468936 -0.23977417
-0.8295096 -0.10785116 0.06683032 0.943347 0.48169178 0.057430357 0.098079085 -0.5947578
0.778351 0.38847175 -0.5626768 -0.5824925 0.18332358 0.21660483 0.30238798 -0.0038841635
-0.8647352 -0.16947937 -0.95812315 -0.71639806 0.59418356 -0.5144377 -0.2726938 -0.64512634
-0.4328586 0.3375208 -0.03210502 -0.0013042411 -0.19043094 0.46349666 -0.6600475 0.49159458
-0.083097644 0.39801198 -0.2948476 0.29939187 0.26763755 0.56880486 0.08092727 0.41337663
0.34884354 0.5890882 0.77447075 -0.0026880812 0.05648634 0.6662705 -0.052482843 -0.03091693
-0.024915446 0.924082 -0.63264585 -0.06507552 0.59106374 0.31285405 -0.69487166 -0.00022324755
-0.32883397 0.53489614 0.24599701 0.4686591 -0.869035 -0.76916564 -0.081583895 0.21372172
-0.69928503 -0.1454302 0.33529267 -0.5391798 0.36976227 -0.4309653 0.71072376 0.7819178
-0.61317456 -0.17326221 0.12436924 -0.36265126 0.5889275 -0.62449753 -0.58941185 0.81432635
0.8400357 0.67042077 0.9564318 -0.49027693 -0.6618418 -0.48847926 -0.29984495 -0.45011103
-0.64848286 -0.035583496 -0.94635206 0.14574246 0.3785958 0.17903854 -0.9863745 0.2034702
-0.4617411 0.34596205 -0.28156257 -0.8001188 -0.39020306 0.8855048 0.09951104 -0.30172992
0.8747537 -0.8410107 -0.86811864 -0.82656574 -0.009847403 0.64658815 0.23512901 0.21782188
0.915186 -0.31314108 -0.5685311 -0.12356758 -0.02927403 -0.7640263 0.68335485 -0.237692
-0.98763883 0.60956085 -0.52242506 0.368609 -0.39716116 0.07452232 -0.86335075 0.7953451
0.4153214 0.54864043 0.5729079 -0.20089002 0.20343533 0.8274156 -0.49146628 0.43488303
-0.88578176 0.33474118 -0.2621374 0.50480574 -0.50279546 0.7754624 -0.7202289 -0.27517688
00000000: e093 b3be 92cb 0abf 2bbb 3a3f 5ee8 0dbf
00000010: 6174 743f 1a81 babe 6466 19bf 905d 2fbe
00000020: f387 503e 9a2b 3c3f a0c1 abbd ac73 12bf
00000030: 3db1 23bf 6f61 60bf 30b9 243c c025 533f
00000040: e0ed 76bf 13e2 06bf 81d2 b23d 06ab 583f
00000050: 2e69 a7bf af6f fa3d ec85 17bf 509b 30bf
00000060: 84f3 a0be cc7e 233f f52a 353f 54f1 36bf
00000070: 3f5f 743d c0e3 a0bc ff4b 003f b21c 103f
00000080: c355 a63e 30c4 a3bf 84c2 15be 934b d53e
00000090: a33a d03e 88dd 55be a991 013e 5c76 9b3e
000000a0: 80ff 3ebe 807d 553f 1ded 213e debb 3fbf
000000b0: 0a56 44bf 2024 54be d7bf 4d3f 427e f5be
000000c0: e255 89be ee31 2c3e f210 b33e 5cfb d6be
000000d0: 21e6 643f 6bf4 8ebe ce09 df3e 7a0f c43e
000000e0: 9008 a0bd 33b8 77bf 30e4 fabd 8be1 583e
000000f0: 972d 41bf a240 073e d5de 043f 9574 b83e
00000100: 1867 45bf f972 2ebd 17e0 db3e af19 713d
00000110: e067 79bf 22cb 4dbf c285 8fbf 21e5 313f
00000120: c72b 843e b90a dc3e d044 33be 39be 0b3f
00000130: 60ce 1dbe 74b5 88be fddb 9b3e 68d5 2bbf
00000140: f033 56be 2013 4ebf 9c19 093f 697f c13e
00000150: 8a2c 243f 5448 a6be 64af 1dbb 723e a6bf
00000160: d289 26bd f35b 403f a460 223e 5f72 7cbe
00000170: e0db 6cbe 3502 453e d3cf 8d3d 035d 813e
00000180: 1094 d13e 9e21 13bf 85b9 1cbf 7205 773b
00000190: 1804 263f bb22 003e 075e 0b3f 8885 e1be
000001a0: 001f 3cbd b477 2dbf fb28 f63e 8433 4cbf
000001b0: 0c0c 44bf fc23 0bbf 3e85 79bf 5c87 75be
000001c0: be5a 54bf 12e1 dcbd 56de 883d 307f 713f
000001d0: 4ea0 f63e 183c 6b3d b0dd c83d 0c42 18bf
000001e0: 0342 473f c5e5 c63e 960b 10bf 3a1e 15bf
000001f0: 2db9 3b3e a8cd 5d3e 99d2 9a3e 738d 7ebb
00000200: 495f 5dbf 008c 2dbe 8f47 75bf dd65 37bf
00000210: 6a1c 183f 30b2 03bf 869e 8bbe 0027 25bf
00000220: a49f ddbe 87cf ac3e 8e80 03bd 12f3 aaba
00000230: 5400 43be 6f4f ed3e dff8 28bf 49b2 fb3e
00000240: 192f aabd 3ac8 cb3e 44f6 96be e449 993e
00000250: ca07 893e 329d 113f 32bd a53d 1aa6 d33e
00000260: 9f9b b23e 7cce 163f b743 463f 852a 30bb
00000270: 385e 673d b490 2a3f 40f8 56bd 8045 fdbc
00000280: 7a1b ccbc a390 6c3f 14f5 21bf 5046 85bd
00000290: f44f 173f 682e a03e 1ce3 31bf 8f17 6ab9
000002a0: ed5c a8be f4ee 083f a4e6 7b3e 16f4 ef3e
000002b0: 1479 5ebf 0ae8 44bf 7515 a7bd ded9 5a3e
000002c0: 5804 33bf a8eb 14be 7bab ab3e b007 0abf
000002d0: 7b51 bd3e 7ca7 dcbe fef1 353f c42b 483f
000002e0: 02f9 1cbf a66b 31be 4db5 fe3d 6dad b9be
000002f0: f4c3 163f 12df 1fbf b2e3 16bf b177 503f
00000300: 940c 573f b2a0 2b3f b7d8 743f 9405 fbbe
00000310: 776e 29bf f419 fabe 4785 99be f474 e6be
00000320: f902 26bf 00c0 11bd 2144 72bf 833d 153e
00000330: 4fd7 c13e e155 373e 0a83 7cbf 7e5a 503e
00000340: 5469 ecbe f021 b13e f828 90be 96d4 4cbf
00000350: b2c8 c7be 71b0 623f 72cc cb3d 587c 9abe
00000360: dcef 5f3f 7a4c 57bf 063d 5ebf d099 53bf
00000370: 0057 21bc cd86 253f a9c5 703e b30c 5f3e
00000380: a149 6a3f 0754 a0be 418b 11bf 0011 fdbd
00000390: 17d0 efbc 3a97 43bf 58f0 2e3f 8865 73be
000003a0: e6d5 7cbf 2e0c 1c3f a6bd 05bf 52ba bc3e
000003b0: b558 cbbe 289f 983d 8e04 5dbf bd9b 4b3f
000003c0: 02a5 d43e b373 0c3f 18aa 123f 1db6 4dbe
000003d0: 5a51 503e 82d1 533f 78a1 fbbe fda8 de3e
000003e0: 98c2 62bf 3263 ab3e e036 86be f33a 013f
000003f0: 34b7 00bf b484 463f ec60 38bf fce3 8cbe
