checkpoints/143052000.ckpt (torch, 122663 bytes, 33 tensors)

weight f4 [256, 18]
0	0xbd4417e7	-0.047874358
1	0x3da08b71	0.07839096
2	0x3e11e6f6	0.14248261
3	0xbcfcb18f	-0.030846385
4	0x3d4c3ab5	0.049860675
5	0x3dd42abd	0.10359714
6	0xbe4501dc	-0.1923899
7	0xbe0b22ed	-0.13587542
8	0x3dbb4a7f	0.091450684
9	0x3ca79d4d	0.020460749
10	0xbe49d863	-0.19711451
11	0xbe0f05b3	-0.13967018
12	0xbd116047	-0.035492208
13	0xbe5c6d0f	-0.21525978
14	0xbe827a74	-0.2548405
15	0xbe0892a1	-0.13337184
16	0xbe00397b	-0.12521927
17	0x3e078441	0.13234045
18	0x3dc56e1a	0.09640141
19	0xbd37ae20	-0.044843793
20	0xbd3fd7d0	-0.046836674
21	0xbdb9d300	-0.09073448
22	0xbe37ee5d	-0.17962022
23	0x3e13fbc9	0.14451517
24	0xbe4c123b	-0.1992883
25	0x3e3870ec	0.18011826
26	0x3e67ad01	0.2262459
27	0xbe00ecb4	-0.12590295
28	0x3e55f8ae	0.20895645
29	0xbc842cd7	-0.016134663
30	0xbbd60229	-0.006531019
31	0x3d9de80c	0.07710275
32	0xbd3efbe4	-0.04662694
33	0xbd695e6c	-0.056974813
34	0x3c59610b	0.013267766
35	0xbd1649a0	-0.036691308
36	0xbeb04ba0	-0.34432697
37	0xbd1360ee	-0.03598111
38	0xbd0d1786	-0.03444626
39	0xbd73c456	-0.059513412
40	0xbd89cb52	-0.067282334
41	0xbe16ba06	-0.147194
42	0x3d854efa	0.06509204
43	0x3d78bf1a	0.060729124
44	0xbe3c1bd5	-0.18369992
45	0xbc8dac5a	-0.017294098
46	0xbd126bf5	-0.035747487
47	0x3a432727	0.0007444494
48	0x3d951d15	0.072809376
49	0xbd53da91	-0.051722113
50	0xbdcfc2ee	-0.10144602
51	0x3c9cad67	0.019125653
52	0x3df67a48	0.12035042
53	0xbe6a8dbe	-0.22905633
54	0xbe907051	-0.2821069
55	0x3d755f3d	0.05990528
56	0x3cd59f2a	0.026076872
57	0x3dcbc98e	0.09950553
58	0x3dc09333	0.09403076
59	0x3d6ebb40	0.058284044
60	0x3dadd7fb	0.08488461
61	0x3c47f9ac	0.0122055225
62	0x3da78632	0.081798926
63	0xbd781620	-0.060567975
64	0xbd53df3f	-0.051726576
65	0xbe45d8dc	-0.19321007
66	0x3e54a89f	0.20767449
67	0xbe298185	-0.16553314
68	0xbe07083a	-0.13186732
69	0x3d027fdb	0.031860214
70	0x3d6920a7	0.056915905
71	0xbe4f6585	-0.2025357
72	0xbd03fbc0	-0.03222251
73	0xbab9768a	-0.0014149707
74	0xbb1ba97e	-0.0023752148
75	0xbbb0cbd6	-0.005395393
76	0x3b98eb4a	0.0046667205
77	0xbe912b63	-0.28353414
78	0x3c291c9a	0.010321761
79	0xbe60e8c1	-0.21963789
80	0xbba216eb	-0.0049465797
81	0xbcb03db7	-0.021513803
82	0xbc6f3fc3	-0.014602604
83	0xbaed9414	-0.0018125796
84	0x3c0e094d	0.00866921
85	0xbe04183c	-0.1289987
86	0x3d887b6a	0.06664164
87	0x3a5860ae	0.00082541525
88	0xbd2fbc72	-0.042904325
89	0x3c5a8939	0.0133383805
90	0x3e483cd3	0.19554453
91	0xbd74db58	-0.059779495
92	0x3cfc748c	0.030817293
93	0xbdf4f7a4	-0.11961296
94	0xbe74fce4	-0.23924595
95	0xbe39380b	-0.18087785
96	0x3e0f76e9	0.14010204
97	0x3dcf525a	0.10123129
98	0x3df83f22	0.12121417
99	0xbe2758fc	-0.16342539
100	0xbda4eed4	-0.08053365
101	0xbdec3e14	-0.11535278
102	0xbd790dc6	-0.06080415
103	0x3e01014f	0.12598155
104	0x3d8adcfc	0.06780431
105	0xbd498b81	-0.049205307
106	0xbdc3f432	-0.09568061
107	0xbd7ebde8	-0.062192827
108	0x3eaa77d8	0.3329456
109	0xbdd53bfa	-0.1041183
110	0xba9167ca	-0.0011093554
111	0x3e1cf043	0.15326028
112	0x3d8e8855	0.06959597
113	0x3e4af6c0	0.1982069
114	0xbe08c8ca	-0.13357845
115	0xbd02291a	-0.03177748
116	0xbd8cfd9a	-0.06884308
117	0x3d4dc5b0	0.050237358
118	0xbb8012aa	-0.003908475
119	0x3c977a9d	0.018491084
120	0x3d726be1	0.059184913
121	0x3d2c568c	0.042074725
122	0xbde272c5	-0.11057047
123	0x3c8a16ec	0.016856633
124	0xbca04d04	-0.019567974
125	0xbdcd8a7f	-0.10036182
126	0x3ca6628b	0.02031066
127	0xbcf731df	-0.030175148
128	0xbb00a62c	-0.0019630296
129	0x3b2af574	0.0026086243
130	0xbd3c8fa2	-0.046035416
131	0xbc2808f4	-0.010256041
132	0xbc74ade9	-0.014934042
133	0x3dbfdbe1	0.093681104
134	0x3adf6420	0.0017043389
135	0xbc27045b	-0.0101939095
136	0xbdf24a4f	-0.118305795
137	0xbc3a6dcd	-0.011378718
138	0x3c5c2c00	0.013438225
139	0xbdec7333	-0.1154541
140	0x3e88f1e0	0.26747036
141	0x3bae4d0c	0.0053192433
142	0xbeb5737b	-0.35439667
143	0xbe0fd86a	-0.14047399
144	0x3d3c19d0	0.045923054
145	0x3ce00c91	0.027349742
146	0xbe2fd591	-0.17171313
147	0x3dea39d4	0.11436811
148	0x3d8a1609	0.06742484
149	0x3e192b1d	0.14957853
150	0x3df811c9	0.12112767
151	0x3cbbf7e7	0.022945357
152	0xbd9ee27a	-0.07758041
153	0x3e5d7faa	0.21630731
154	0xbd707dc4	-0.05871369
155	0x3e1c9f89	0.15295233
156	0x3e177888	0.14792073
157	0xbd82da0f	-0.063892476
158	0xbd2b007d	-0.041748513
159	0x3cd6ab86	0.026204836
160	0xbcdac79d	-0.026706511
161	0x3dd59266	0.10428314
162	0xbd2fb0e8	-0.04289332
163	0xbc7e8c66	-0.015536403
164	0x3badb04a	0.0053005563
165	0xbb82b75b	-0.003989143
166	0xbe065600	-0.13118744
167	0xbde722c2	-0.112859264
168	0x3c429874	0.011877168
169	0xbd4f4435	-0.050602157
170	0xbc4d9fcb	-0.012550305
171	0x3cdd9f5d	0.02705353
172	0xbcc67188	-0.024224058
173	0xb9b61707	-0.00034730902
174	0x3ae181ec	0.0017204857
175	0xbd4fc057	-0.05072054
176	0xbc41c8a1	-0.011827619
177	0x39f12350	0.00045993412
178	0x3cf50171	0.029907914
179	0xbc579237	-0.013157419
180	0xbd4edc80	-0.050503254
181	0xbdabe1ee	-0.08392702
182	0xbe0f2549	-0.13979067
183	0xbe123700	-0.14278793
184	0xbe3dc91b	-0.18533747
185	0xbddba8ff	-0.10725593
186	0xbdce9a52	-0.10088028
187	0x3cbf1089	0.023323314
188	0xbdf480e7	-0.11938649
189	0xbe58c558	-0.2116903
190	0xbd8e4657	-0.0694701
191	0xbddd6820	-0.10810876
192	0xbe0fa42f	-0.14027475
193	0x3e0649c2	0.13114074
194	0x3ccf4b47	0.02530445
195	0xbdfb9989	-0.12285144
196	0xbd7beba9	-0.06150404
197	0x3e803b9c	0.25045478
198	0x3e1dd704	0.15414053
199	0x3d1d1093	0.038345885
200	0xbc2e4cba	-0.01063841
201	0x3e10c34e	0.14137003
202	0x3d13fd83	0.03613044
203	0x3da05192	0.07828058
204	0x3e45c64c	0.19313926
205	0x3db44b32	0.08803405
206	0x3e2dcffc	0.16973871
207	0x3e32682f	0.17422555
208	0x3e6564a1	0.22401668
209	0x3d83f01b	0.06442281
210	0xbe1edaa1	-0.15513088
211	0x3e03ac2c	0.12858647
212	0xbe222aeb	-0.15836684
213	0xbd528f14	-0.05140598
214	0xbc40a187	-0.011757261
215	0x3df15141	0.11783076
216	0x3d795d91	0.060880248
217	0x3d3d0ddb	0.04615579
218	0x3d8d3448	0.068947375
219	0x3e1cba15	0.1530536
220	0x3df34328	0.118780434
221	0xbcb852f0	-0.022500485
222	0xbc1e527a	-0.009663219
223	0xbe930c6b	-0.28720412
224	0x3d9dca23	0.0770457
225	0x3b888bf8	0.004167076
226	0xbe5967ee	-0.21231052
227	0xbd3147ea	-0.043281473
228	0xbda4276c	-0.080153316
229	0xbe435e12	-0.19078854
230	0xbe3f38c1	-0.18673994
231	0x3e0453ab	0.12922542
232	0xbda2d5b9	-0.079509206
233	0x3df97714	0.121809155
234	0x3dcfb49e	0.10141872
235	0x3d8580c1	0.065186985
236	0x3d1bc515	0.03802975
237	0x3c1978cc	0.009367179
238	0x3dc4a298	0.09601325
239	0x3e0e422a	0.13892427
240	0x3cc7c42b	0.024385532
241	0xbe5f737c	-0.21821398
242	0x3e318fee	0.17340061
243	0xbdb3875d	-0.08766053
244	0xbe5eaa62	-0.21744683
245	0xbcded39e	-0.027200516
246	0x3d697a21	0.057001237
247	0x3e4d7d9d	0.20067449
248	0x3d230daf	0.03980797
249	0xbca52343	-0.020158416
250	0x3cc2e4a1	0.02379066
251	0x3e137589	0.14400305
252	0xbef43417	-0.4769599
253	0x3d6a9bfa	0.057277657
254	0xbc234e0a	-0.009967336
255	0xbbe13306	-0.0068725375

bias f4 [256]
0	0x3db79b2f	0.08965146
1	0x3e66f5b4	0.22554666
2	0xbd80284c	-0.06257686
3	0xbe348831	-0.17630078
4	0xbe601ffd	-0.21887203
5	0x3dc697df	0.09696936
6	0x3c44d100	0.01201272
7	0xbe934d77	-0.28770038
8	0xbdd98f21	-0.10623003
9	0xbe5249d1	-0.20535971
10	0x3d8c31cd	0.06845436
11	0xbd4da0bd	-0.05020212
12	0x3d018bdf	0.031627532
13	0xbc937628	-0.018000677
14	0xbe7523e5	-0.23939474
15	0x3e021313	0.12702589
16	0xbe6b7c68	-0.22996676
17	0x3db3fc7e	0.087883934
18	0xbe3bf2cf	-0.18354343
19	0xbd973d85	-0.07384781
20	0xbc7751cd	-0.015095186
21	0xbd2d6347	-0.042331006
22	0x3df5261d	0.1197016
23	0xbdcbda22	-0.09953715
24	0xbe2f5daf	-0.17125581
25	0xbdc7982a	-0.0974582
26	0x3cd522f5	0.026017645
27	0xbdd721b9	-0.10504479
28	0xbe4ad295	-0.19806893
29	0xbe92a990	-0.2864499
30	0x3d9d5649	0.07682473
31	0xbe7c88cb	-0.24661557
32	0xbdbdc8bc	-0.09266803
33	0x3e05d87c	0.13070863
34	0x3dc91805	0.098190345
35	0x3e13e940	0.14444447
36	0x3d967835	0.073471464
37	0xbeab07f8	-0.33404517
38	0xbc2a47c3	-0.010393086
39	0xbd0dd706	-0.03462889
40	0xbd984f5a	-0.0743701
41	0xbe0192d6	-0.1265367
42	0xbe2d80ef	-0.16943716
43	0x3df6ec70	0.120568156
44	0x3e0d33f5	0.13789351
45	0xbd77029e	-0.06030523
46	0x3ce790e1	0.028267326
47	0x3d13f3a5	0.03612103
48	0x3e32e479	0.17469968
49	0x3e0d5d95	0.1380523
50	0xbc30fba1	-0.0108021805
51	0xbe26096c	-0.16214532
52	0x3ca8c299	0.020600604
53	0xbdf94a69	-0.12172396
54	0xbe34b65e	-0.17647693
55	0xbe333b48	-0.17503083
56	0xbe399e61	-0.18126823
57	0xbe5a0ed6	-0.21294722
58	0xbe1b1756	-0.1514562
59	0xbed3dcbb	-0.4137934
60	0xbe24435c	-0.1604132
61	0x3d7d9432	0.06190891
62	0x3c3962e7	0.011315084
63	0x3e01f5c5	0.1269141
64	0xbdace1a5	-0.08441476
65	0xbc8f921f	-0.01752573
66	0xbd6ff40a	-0.058582343
67	0x3e08fe2f	0.13378213
68	0x3e3687aa	0.17825189
69	0x3c52b616	0.0128607955
70	0x3dec0f61	0.11526371
71	0xbde53a4c	-0.1119276
72	0xbdeafebb	-0.11474367
73	0xbdb5ffc3	-0.08886673
74	0x3e182c39	0.1486062
75	0x3cca35bd	0.024683828
76	0xb9aa3028	-0.00032460806
77	0xbe5687ec	-0.20950288
78	0x3d3847d0	0.04499036
79	0xbe994254	-0.29933417
80	0xbe52a722	-0.20571569
81	0xbcfab77b	-0.030605068
82	0xbe62da93	-0.22153692
83	0x3bf92b62	0.0076040486
84	0xbe0b8df7	-0.13628374
85	0xbd962869	-0.073319264
86	0xbdac882c	-0.0842441
87	0x3d537d8d	0.051633406
88	0xbd2125ce	-0.039342694
89	0xbd0b23c6	-0.033969663
90	0x3e321b24	0.17393166
91	0x3e0b2b17	0.13590656
92	0x3e31c6ae	0.17360947
93	0xbcfacab1	-0.030614229
94	0xbd6f7e2d	-0.05846994
95	0xbe1abd3d	-0.15111251
96	0xbe11eefe	-0.14251325
97	0xbdb8f9b1	-0.09032
98	0xbe0cdddf	-0.13756512
99	0xbdf89bed	-0.121391155
100	0x3da9f33d	0.08298347
101	0xbdd812b4	-0.10550442
102	0xbdc43db7	-0.09582084
103	0x3d0efb07	0.034907367
104	0xbe2ba7f6	-0.16763291
105	0xbd904694	-0.07044712
106	0xbe259949	-0.16171755
107	0xbe85e194	-0.26148665
108	0x3d01e1c8	0.031709462
109	0x3e24ceac	0.16094464
110	0xbda21365	-0.079138555
111	0x3e26a79d	0.16274877
112	0xbd650343	-0.055911314
113	0xbe7ab8d9	-0.24484576
114	0x3d291eda	0.041289188
115	0xbdb53331	-0.088476546
116	0xbd7d8bd2	-0.06190092
117	0xbe246799	-0.16055144
118	0xbce66264	-0.028123088
119	0xbdef2d17	-0.11678522
120	0xbe2f1867	-0.17099153
121	0xbd5765ef	-0.052587446
122	0xbe68809b	-0.22705309
123	0xbd902339	-0.07037968
124	0xbe5c58ca	-0.21518245
125	0xbdd5e391	-0.104437955
126	0x3d0e69c4	0.034768835
127	0xbe32a21b	-0.17444651
128	0xbe162145	-0.14661129
129	0x3d8ae2d3	0.067815445
130	0xbd40b683	-0.047049057
131	0x3d614869	0.055000696
132	0xbd6d153c	-0.05788158
133	0xbe382cd0	-0.17985845
134	0xbe05a89d	-0.13052602
135	0xbe3fa987	-0.18717013
136	0xbe4e2f2d	-0.20135184
137	0xbd2a43e0	-0.041568637
138	0xbdd2e8d1	-0.102983125
139	0xbe1e254a	-0.15443912
140	0xbc198f6b	-0.009372572
141	0x3d4b0c69	0.049572382
142	0xbdb19946	-0.08671813
143	0xbe831e81	-0.2560921
144	0xbbbf783e	-0.0058431914
145	0x3ddedf43	0.108824275
146	0xbe20cffa	-0.15704337
147	0x3e2058be	0.15658852
148	0xbe6f9cca	-0.23399654
149	0xbc96019d	-0.018311316
150	0xbd8bc731	-0.06825102
151	0x3c03f912	0.008054988
152	0xbe132930	-0.1437118
153	0x3e048e42	0.12944892
154	0xbe80612c	-0.25074136
155	0xbdb037fa	-0.08604427
156	0xbd1cced7	-0.038283195
157	0xbe0387bf	-0.12844752
158	0xbdb7e120	-0.08978486
159	0x3c5af8a2	0.013364943
160	0xbe437895	-0.19088967
161	0xbd93bfab	-0.07214292
162	0x3d3c7453	0.046009373
163	0xbe4647f0	-0.1936338
164	0xbdc40d16	-0.095728084
165	0xbe0628ab	-0.13101451
166	0xbdbe9620	-0.09305978
167	0xbe42cde9	-0.19023861
168	0xbe1d61d9	-0.15369357
169	0xbe86a6f7	-0.2629926
170	0xbe8001ec	-0.25001466
171	0xbdb8a2c7	-0.09015422
172	0x3e26a672	0.16274431
173	0x3e164cc4	0.14677721
174	0x3dc1424b	0.094364725
175	0xbe39b9aa	-0.18137231
176	0x3da8f2ae	0.082494125
177	0xbe2dd905	-0.16977318
178	0xbe359544	-0.17732722
179	0xbe98b878	-0.29828238
180	0xbca6de50	-0.020369679
181	0x3e0d568c	0.13802546
182	0x3ce0ddca	0.027449507
183	0xbdfa645c	-0.12226173
184	0x3ca5e61a	0.020251323
185	0x3e078809	0.13235487
186	0x3e0592c9	0.13044275
187	0xbe4cc2de	-0.19996211
188	0xbd602277	-0.05472037
189	0x3dffd547	0.12491851
190	0xbe45be70	-0.19310927
191	0xbd13ce6f	-0.036085542
192	0xbe6b4751	-0.22976424
193	0xbeade2aa	-0.33961993
194	0xbd863277	-0.06552594
195	0x3d3f435f	0.04669511
196	0xbd7dd794	-0.06197317
197	0x3db4c648	0.08826882
198	0x3da881cb	0.08227881
199	0xbe30ae71	-0.17254044
200	0x3ceb2647	0.028704775
201	0x3c948021	0.018127503
202	0x3d5d47d3	0.054023575
203	0xbe0aad8b	-0.13542764
204	0xbe159e27	-0.14611112
205	0xbe0ad2f6	-0.13557038
206	0xbe2e5694	-0.17025214
207	0x3e5c97cc	0.21542281
208	0xbe0317f3	-0.12802105
209	0xbca8848f	-0.020571021
210	0x3db96356	0.0905215
211	0xbeb320a4	-0.3498584
212	0x3ccdd2cc	0.02512493
213	0xbe388691	-0.18020083
214	0x3dc35708	0.09538084
215	0xbe3d1a72	-0.1846712
216	0xbebfe258	-0.37477374
217	0x3dfc36c3	0.123151325
218	0xbc4265e1	-0.01186511
219	0x3d75ec18	0.06003961
220	0x3e26ca32	0.16288069
221	0xbe1a4bf2	-0.15068033
222	0x38e2ad88	0.000108088425
223	0xbeae906c	-0.3409456
224	0xbe1976cc	-0.14986724
225	0xbd211337	-0.039324965
226	0x3d5032af	0.050829586
227	0x3a13900f	0.00056290714
228	0xbbb0bbb4	-0.0053934697
229	0xbe25edea	-0.16204038
230	0x3d94632e	0.072454795
231	0xbd20a5f8	-0.03922078
232	0xbe5ed44f	-0.21760677
233	0x3dd78c7c	0.10524842
234	0x3ca1bd50	0.019743592
235	0x3dc08353	0.09400048
236	0xbd404259	-0.046938274
237	0xbe079da1	-0.13243724
238	0xbe4237c2	-0.18966582
239	0xbdccdd14	-0.10003105
240	0xbd375aee	-0.04476445
241	0xbd637a49	-0.055536542
242	0xbbfc4dc8	-0.007699702
243	0x3aa5d9be	0.0012653393
244	0x3d94774a	0.07249315
245	0xbe008725	-0.12551554
246	0x3d983787	0.07432466
247	0xbe77b2ed	-0.24189349
248	0xbe940164	-0.2890731
249	0x3dc52ab8	0.096272886
250	0xbe81f92e	-0.25385422
251	0xbda02062	-0.078186765
252	0xbe6cdb2c	-0.23130482
253	0xbe09cc4e	-0.13456842
254	0xbd8411c5	-0.06448702
255	0xbeb67000	-0.35632324

weight f4 [1, 256]
0	0xbbcae8db	-0.0061923093
1	0x3ccf741d	0.025323922
2	0x3c126971	0.008936272
3	0x3d8fc3a9	0.07019741
4	0xb9282562	-0.00016035655
5	0x3c391f4b	0.011298965
6	0xbd8b8ef3	-0.06814375
7	0x3a12cdac	0.00056001055
8	0x3bbe14aa	0.005800803
9	0xba8191bc	-0.0009885351
10	0xbc6d7e2d	-0.014495415
11	0xbd1fbe9c	-0.03900014
12	0xbd0c83a3	-0.034305226
13	0xbbb8c5ff	-0.0056388373
14	0x3caba9dd	0.02095502
15	0xbcc5fc9d	-0.024168307
16	0xbcdee0d4	-0.027206816
17	0xbda07b42	-0.078360096
18	0xbd9d9317	-0.07694071
19	0xbcc71c4d	-0.024305487
20	0x3c4cf2ef	0.012509092
21	0x3d61260e	0.054967932
22	0x3c48202b	0.012214701
23	0x3c0d4da0	0.008624464
24	0x3d92d2ef	0.07169139
25	0xbd5fb880	-0.054619312
26	0x3dab21c6	0.08356051
27	0xbd6ef682	-0.058340557
28	0xbd2302f1	-0.039797727
29	0xbc924870	-0.017856807
30	0xb8031e94	-3.1261312e-05
31	0xba465fa5	-0.0007567353
32	0x3d885cc6	0.0665832
33	0xbd2f3528	-0.042775303
34	0xba91b35e	-0.0011116078
35	0xbbf8a384	-0.007587852
36	0xbbc7dedc	-0.006099565
37	0x3a03242b	0.0005002643
38	0xbda7d8d2	-0.08195652
39	0x3b87faef	0.0041497867
40	0xba9566ee	-0.0011398473
41	0x3d3fb94c	0.046807572
42	0xbb49e214	-0.003080492
43	0xbc5c0079	-0.013427847
44	0x3ced9598	0.029001996
45	0x3cb15a8a	0.021649618
46	0x3c8956d5	0.016765038
47	0xbc74bceb	-0.01493762
48	0xbc756742	-0.014978232
49	0xbc7b69c6	-0.015345043
50	0xba1a0bae	-0.0005876374
51	0xbd19d587	-0.03755715
52	0x3a5c3832	0.0008400708
53	0xbdc8115b	-0.09768935
54	0xb925c1eb	-0.00015807866
55	0x3d9becd7	0.07613533
56	0xbda2f21e	-0.079563364
57	0xbc098736	-0.008394053
58	0x3c24bce9	0.010054805
59	0x3a8b7070	0.0010638367
60	0x3b026ca4	0.001990118
61	0xbe06d12a	-0.13165727
62	0xbd1a1a37	-0.037622657
63	0x3c1d5adc	0.009604182
64	0xbce7116f	-0.028206555
65	0xbd3b71b1	-0.04576272
66	0xbd50c9ff	-0.05097389
67	0x3d0ae827	0.033912804
68	0xbdbbbeef	-0.09167277
69	0xbac9c572	-0.0015393926
70	0x3cd543da	0.02603333
71	0xbd0d7697	-0.034536924
72	0xbbe8a8cd	-0.0071002007
73	0x3b0d592d	0.0021568045
74	0x3d96126b	0.07327732
75	0xbd4b7024	-0.049667493
76	0x396b777e	0.00022455861
77	0xbce34bcf	-0.02774611
78	0x3d7ee6c5	0.062231798
79	0xbc63a08c	-0.013893258
80	0x3a115361	0.00055437355
81	0xbb4514d7	-0.0030072236
82	0x394c6f6b	0.00019496462
83	0xbdc3b88f	-0.09556686
84	0xbc0bd8a8	-0.008535542
85	0xbdd70438	-0.104988515
86	0xbcc1c5a7	-0.023653818
87	0xbb71db24	-0.00369043
88	0x3d2aea27	0.04172721
89	0x39987ba4	0.0002908382
90	0xbda47eb3	-0.080319785
91	0xbd4f5d32	-0.050625987
92	0xbd4fbd46	-0.050717615
93	0x3db09174	0.08621493
94	0x3b4902a8	0.003067175
95	0xbd01821e	-0.03161823
96	0x3b5c0082	0.0033569639
97	0xbdde314c	-0.108492464
98	0x3ceef574	0.029169776
99	0xbd4f9bb7	-0.05068561
100	0xba95d68f	-0.0011431741
101	0x3c90e17e	0.017685648
102	0xb82c7ed4	-4.1126114e-05
103	0xbcc9d60c	-0.024638198
104	0x3a008343	0.0004902372
105	0x3a27231e	0.00063757773
106	0x3ba7b241	0.005117685
107	0x3dd7b231	0.10532034
108	0x3d7047bd	0.058662165
109	0xbd9943c4	-0.074836284
110	0xba96d9a6	-0.0011508956
111	0xbcd21d84	-0.02564884
112	0x3d6b3f8a	0.057433642
113	0xbcc9e445	-0.02464498
114	0xbc99077a	-0.018680323
115	0x3d771354	0.060321167
116	0x3cf9d916	0.030499022
117	0x3a8f4196	0.001092958
118	0xbab67846	-0.0013921342
119	0x3d047304	0.03233625
120	0x3c0d3344	0.00861818
121	0xbb179374	-0.002312866
122	0x3b0a9440	0.0021145493
123	0x3cf9d40c	0.03049662
124	0x3a275847	0.0006383699
125	0xbbda6869	-0.0066652787
126	0xbd64f645	-0.055898923
127	0x3d99d31a	0.075109676
128	0x3c5859c5	0.0132049965
129	0xbb09707d	-0.002097159
130	0xbb6001b7	-0.003418071
131	0xbce54cec	-0.02799078
132	0x3d151862	0.036400206
133	0x3cc6534f	0.024209647
134	0xba38b0ce	-0.0007045389
135	0x3d592d45	0.053021688
136	0x3a204745	0.00061141356
137	0xbb2a23a3	-0.0025961183
138	0x3c2f1853	0.010686952
139	0x3d4d7188	0.0501571
140	0xbab957e2	-0.0014140571
141	0xbc21bb03	-0.009871247
142	0x3dbb0932	0.09132613
143	0x3db503d3	0.0883862
144	0x3ae514e1	0.0017477536
145	0xbc109929	-0.008825579
146	0x3c6499c6	0.013952678
147	0xbda0503e	-0.07827805
148	0xbbfaacc0	-0.007649988
149	0x3d386632	0.045019336
150	0x392dde66	0.00016581416
151	0xbc574dc3	-0.013141098
152	0xb9ce4d89	-0.0003934915
153	0xba8d26da	-0.0010769025
154	0x3d897223	0.06711223
155	0x3d70262b	0.05863015
156	0xbc3dc7a2	-0.011583241
157	0x3c60af39	0.013713651
158	0x3aafa0f4	0.0013399408
159	0xbaed9158	-0.0018124981
160	0x38ce3512	9.8327306e-05
161	0xbd0890f1	-0.033341352
162	0xb9c005f9	-0.00036625544
163	0x3d17eea8	0.037092835
164	0xba8f8d61	-0.0010952168
165	0x3d7c52e5	0.061602492
166	0x3dfabfdb	0.12243625
167	0xbc155326	-0.009114062
168	0xbacdda76	-0.0015705365
169	0xbc861759	-0.016368555
170	0x3bcc7706	0.0062397746
171	0x3d434ac2	0.047678716
172	0xbdf46e04	-0.11935046
173	0x3dd87fbe	0.1057124
174	0xbd397490	-0.04527718
175	0xbd3a79c8	-0.045526296
176	0x3d81584e	0.06315671
177	0x3ba039c1	0.0048896973
178	0xbd5fc205	-0.05462839
179	0xbaccb0ed	-0.0015616693
180	0x3c1eafe2	0.009685488
181	0x3cc11c6d	0.023573125
182	0x3c05266c	0.008126836
183	0x3801ecf8	3.097669e-05
184	0xbe33294e	-0.17496225
185	0x3cb6a276	0.022294264
186	0xba910717	-0.0011064735
187	0xbc61826b	-0.013764004
188	0x3cb85905	0.022503385
189	0x3a3c7ce7	0.0007190243
190	0x3ce3f3dc	0.027826242
191	0xb8a8183a	-8.015377e-05
192	0x3d964a6d	0.07338414
193	0xbd2c7d27	-0.042111542
194	0x3c9b2ef4	0.018943287
195	0xbd16916b	-0.036759775
196	0x3c90cc89	0.017675655
197	0x3d4eec38	0.050518245
198	0xbc07b166	-0.008282041
199	0x3cb7c2f1	0.022431822
200	0xbd1aade8	-0.037763506
201	0xbc6261d2	-0.0138172675
202	0xbc4f8f3f	-0.01266843
203	0xb8add324	-8.288611e-05
204	0x3ae1e84c	0.0017235368
205	0x3aa8bffa	0.0012874596
206	0x3a0f082c	0.0005456235
207	0x3d019f2d	0.031645942
208	0x3dbec406	0.09314732
209	0xbd2dca59	-0.042429302
210	0x3da7feb8	0.082028806
211	0x3a0036e4	0.0004890992
212	0xbd0a8de6	-0.03382673
213	0x3b9ef51d	0.004850997
214	0xbc07ea2f	-0.00829558
215	0xbbf9ccaf	-0.007623277
216	0x3a7e735d	0.00097065215
217	0xbbe3ef96	-0.006956051
218	0x3cc37a95	0.023862163
219	0xbc8ecdb1	-0.017432066
220	0xbd2058ae	-0.03914707
221	0x3a8654b1	0.0010248629
222	0xbdaa50da	-0.083162025
223	0x3c00d357	0.007862887
224	0xbbff1008	-0.0077838935
225	0x3be3bec5	0.0069502317
226	0xbd44e301	-0.04806805
227	0xbaa9d365	-0.0012956677
228	0x3deb2d0c	0.114832014
229	0x3ca93a59	0.020657705
230	0x3da08b0e	0.078390226
231	0xbca694f7	-0.020334704
232	0x3d28e0b1	0.041229907
233	0x3a970f27	0.0011524901
234	0x3d12b3c8	0.035815984
235	0xbd84145b	-0.06449195
236	0x3d322942	0.043496378
237	0xba544c26	-0.0008098505
238	0xbd7dec00	-0.061992645
239	0x3afad649	0.0019137348
240	0x3c408241	0.011749805
241	0x398d6b52	0.00026973576
242	0xbac6c8fb	-0.0015166098
243	0x3c8eb1d0	0.017418772
244	0xbd86e604	-0.06586841
245	0x3c8975e7	0.016779853
246	0xbad2d2df	-0.0016084573
247	0x3c71a167	0.014747954
248	0xbd5efec8	-0.054442197
249	0xbd6172c9	-0.05504111
250	0x3d784c8d	0.06061988
251	0x3dbb2808	0.09138495
252	0x3d5732b8	0.052538604
253	0xbc2384e7	-0.009980417
254	0xbbcb5c2b	-0.0062060556
255	0x3c27cd97	0.0102418875

weight f4 [256, 1]
0	0xbe58068b	-0.21096246
1	0x3db76285	0.08954338
2	0xc03d6134	-2.9590578
3	0x3ea1b652	0.31584412
4	0xbc07036c	-0.008240562
5	0xbe616342	-0.2201052
6	0xbf61eb1e	-0.88249385
7	0x3d341123	0.043961655
8	0x3e8f0549	0.2793372
9	0xbf7e0bb6	-0.9923662
10	0x3e08e54a	0.13368717
11	0x3e738ea0	0.23784876
12	0x3e522d5d	0.20525117
13	0xbf07ea40	-0.5309181
14	0xbcd82cae	-0.026388492
15	0x3e805d9d	0.2507142
16	0xbdbae2d6	-0.09125297
17	0x3eb14a73	0.34627113
18	0xbe10f1c9	-0.14154734
19	0x3f1b01e2	0.6054975
20	0xbd3900dd	-0.04516684
21	0x3f5d6f8c	0.8649833
22	0x3f6dd4d9	0.92902905
23	0xbf14d97c	-0.58144355
24	0xbf176788	-0.5914235
25	0x3f2d16c6	0.67612875
26	0x3ee7be75	0.45262495
27	0x3f4c3df8	0.79782057
28	0x3ea08a7e	0.3135566
29	0xbe214df1	-0.15752389
30	0xbf363c3a	-0.7118565
31	0xbf4efce2	-0.8085462
32	0xbd229b42	-0.039698847
33	0xbf5dfee8	-0.8671708
34	0xbce089c0	-0.027409434
35	0x3f3c8612	0.73642075
36	0xc070d357	-3.7628992
37	0xc09482d4	-4.64097
38	0xbe8be41d	-0.27322474
39	0x3eac7ffa	0.33691388
40	0xbd9c071d	-0.07618544
41	0x3d82ed07	0.06392866
42	0x3f56a590	0.8384638
43	0x3ef4bd5c	0.4780072
44	0x3cd27645	0.025691161
45	0x3f043d75	0.51656276
46	0x3ecb33df	0.39688012
47	0x3ee43b11	0.44576314
48	0xbc842672	-0.016131613
49	0xbd700663	-0.05859984
50	0xbd91cf30	-0.07119596
51	0xbeaaedc4	-0.33384526
52	0x3e00cd0b	0.12578218
53	0xbf2d8b7a	-0.6779095
54	0x3f0911cb	0.53542775
55	0x3e85498a	0.26032668
56	0xc0af91ba	-5.486539
57	0x3eb9f134	0.36316836
58	0xbd8c3e3b	-0.06847807
59	0x3da9be29	0.08288223
60	0xbf0f73bf	-0.5603599
61	0x3e9d34d0	0.30704355
62	0xc0237b76	-2.5544105
63	0xbda055c7	-0.07828861
64	0x3e8cc36b	0.27492842
65	0x3f6f04d7	0.9336676
66	0xbf4dbd3a	-0.8036686
67	0x3e56b097	0.20965801
68	0x3f76a390	0.96343327
69	0xbeade61e	-0.33964628
70	0xc093687a	-4.6065035
71	0xbdaa9a00	-0.083301544
72	0x3e40bab0	0.18821216
73	0xbf41affe	-0.7565917
74	0x3f277d69	0.65425736
75	0x3e8e96e4	0.27849495
76	0x3d0966c3	0.033545267
77	0xbe1315e0	-0.14363813
78	0x3ed64496	0.41849202
79	0xc0b30746	-5.594638
80	0x3d39a7c3	0.045326006
81	0x3ee45a4a	0.44600135
82	0x3d95380c	0.07286081
83	0x3f282fd3	0.65697974
84	0xbd89b2f0	-0.06723583
85	0x3f1dc243	0.61624545
86	0xbe09d953	-0.13461809
87	0xbd7dc6a0	-0.061957
88	0x3ebbbf76	0.3666951
89	0xbeff9780	-0.49920273
90	0x3f1d1cee	0.6137227
91	0x3eb74650	0.35795832
92	0xbf74b87a	-0.9559399
93	0x3e4347f7	0.19070421
94	0xbf2bdd60	-0.67134666
95	0x3efa6460	0.48904705
96	0x3d9b7ce7	0.075921826
97	0xbf70fd20	-0.9413624
98	0xc09bdf12	-4.8709803
99	0x3f06839a	0.5254456
100	0xbeb572fc	-0.3543929
101	0x3f21d5c5	0.6321681
102	0xbd41597b	-0.047204476
103	0x3e8710d9	0.2638004
104	0xbdc94610	-0.098278165
105	0xbf0c13f4	-0.54717946
106	0x3ea10b23	0.3145381
107	0x3ecb35bf	0.39689443
108	0x3eb03e6a	0.34422618
109	0xbe1ae04b	-0.15124623
110	0xbd83ac60	-0.06429362
111	0x3e87509c	0.26428688
112	0xbea8cf14	-0.32970488
113	0xc09f83e4	-4.98485
114	0x3e953644	0.29142964
115	0x3d9bb99e	0.07603763
116	0xbf1f7458	-0.622869
117	0xbe70f5d0	-0.2353127
118	0x3ec2cb4a	0.38045722
119	0xbe20c5a5	-0.15700395
120	0xbef38610	-0.4756322
121	0x3de60249	0.112309046
122	0x3d9e769f	0.07737469
123	0xbf101b62	-0.5629178
124	0xbbc33e01	-0.005958319
125	0x3d104d8c	0.035230204
126	0xbe28e650	-0.16494107
127	0x3f153971	0.58290774
128	0xbd0cc504	-0.034367576
129	0xbdedbbb3	-0.116080664
130	0xbe8261d4	-0.25465262
131	0xbf4157ce	-0.75524604
132	0x3ebc6124	0.36792862
133	0xbdd9bacd	-0.106313325
134	0x3e1e6680	0.15468788
135	0xbf279ea0	-0.6547642
136	0xc048b29b	-3.1359012
137	0x3c0f1880	0.008733869
138	0xbd2ae7dd	-0.04172503
139	0x3e27afa7	0.163756
140	0x3d6f9a93	0.058497023
141	0x3ec9d586	0.39420718
142	0x3e87b540	0.2650547
143	0x3dba5f20	0.09100175
144	0x3ce0cf8b	0.027442714
145	0x3d336560	0.04379785
146	0x3e143fcd	0.14477463
147	0x3f1a941b	0.6038224
148	0x3f08e02c	0.5346706
149	0xbecc6318	-0.39919353
150	0xbe9d8ba4	-0.307706
151	0xbe1b895f	-0.15189122
152	0xbeea30f8	-0.45740485
153	0x3e9f78f0	0.31146955
154	0x3f4fc4d6	0.8115972
155	0x3c80ff55	0.015746752
156	0xbf7c464e	-0.98544776
157	0xbd347b70	-0.04406303
158	0xbf042be0	-0.5162945
159	0xbf4b0dec	-0.7931812
160	0xbdf6dc75	-0.120537676
161	0x3e936a11	0.2879186
162	0xbf72b832	-0.9481231
163	0x3df9284c	0.12165889
164	0xbe8c0384	-0.27346432
165	0x3ea97028	0.3309338
166	0x3edbd87b	0.429386
167	0x3f1f2830	0.62170696
168	0xbd078067	-0.03308144
169	0x3f026a08	0.5094304
170	0xc0ab8f15	-5.361216
171	0xbd815bab	-0.063163124
172	0xbe123962	-0.14279702
173	0xbe2eb790	-0.17062211
174	0x3d384baa	0.044994034
175	0x3f74a0c8	0.9555783
176	0xc0b8a2b7	-5.7698627
177	0xbe12d6a3	-0.1433969
178	0x3cb9de2a	0.022688944
179	0xc0878e4e	-4.236121
180	0xbecedd44	-0.40403187
181	0xbf00f4c6	-0.50373495
182	0x3f49eb40	0.7887459
183	0xbf05f1d8	-0.5232215
184	0xbf3c6768	-0.73595285
185	0xbf528c2e	-0.8224515
186	0xbf3a15de	-0.72689617
187	0x3f0b7220	0.54471016
188	0xbf322ff6	-0.6960443
189	0xbd99d661	-0.07511593
190	0xbe463098	-0.19354475
191	0xbf62b196	-0.88552225
192	0xbf4a8d6e	-0.79122055
193	0x3ebf2d8e	0.37339443
194	0x3f33fd37	0.7030825
195	0x3d241cc4	0.040066496
196	0xbd8b581c	-0.06803915
197	0x3f5e79e7	0.8690476
198	0x3efec369	0.4975846
199	0xbd9e1454	-0.07718721
200	0xc094e794	-4.653269
201	0xbf0e2d7e	-0.55538166
202	0xc012e860	-2.295433
203	0x3a30fcc7	0.0006751534
204	0x3eeb4282	0.4594918
205	0xbefb5090	-0.49084902
206	0xbd4b75e5	-0.04967298
207	0x3f26955a	0.6507164
208	0x3f37805d	0.7168024
209	0x3f6a2f3a	0.9147831
210	0x3f35481c	0.70813155
211	0xbd2c98af	-0.042137798
212	0x3f006f18	0.50169516
213	0xbe2f7d20	-0.17137575
214	0xbf7a75ee	-0.97836196
215	0x3f39c159	0.7256065
216	0x3e028f70	0.1275003
217	0xbdfedf20	-0.124449015
218	0x3d5cb336	0.053881846
219	0x3f33af1f	0.7018909
220	0x3eae160f	0.34001204
221	0xbc348d05	-0.01101995
222	0x3ef0672b	0.4695371
223	0xbd2d8f98	-0.04237327
224	0x3e3e7ef3	0.18603115
225	0xbf146daa	-0.57979834
226	0x3dcd985d	0.100388266
227	0xbe82d528	-0.2555325
228	0x3d08d6d8	0.033408016
229	0xbd3d123c	-0.046159968
230	0x3ecdccb4	0.4019524
231	0xbe244502	-0.1604195
232	0xbe8a3185	-0.26990905
233	0xbf4afecc	-0.7929504
234	0x3f165bc5	0.5873378
235	0x3ecb6ae5	0.39729992
236	0xc090e0b4	-4.5274296
237	0x3e383b24	0.1799131
238	0x3e05977c	0.13046068
239	0xbde45210	-0.11148465
240	0xbe6840d7	-0.22680984
241	0xbda499ed	-0.080371715
242	0xbdcf6c00	-0.10128021
243	0xbd6026b7	-0.05472442
244	0xbf08fe12	-0.5351268
245	0xbe86cf96	-0.2633025
246	0xbda4c313	-0.0804502
247	0xbe3469e7	-0.17618524
248	0xbf73ee4b	-0.9528548
249	0xbe91073e	-0.28325838
250	0xbe9a74fc	-0.30167377
251	0x3ec04bb5	0.3755776
252	0xbd55bb22	-0.052180417
253	0xbd8bb8f4	-0.068223864
254	0xbe7ec039	-0.24878015
255	0x3e96b775	0.29436842

bias f4 [256]
0	0x3f436bf7	0.76336616
1	0x3d5cb705	0.05388548
2	0x3e9ecb2d	0.31014386
3	0xbf92d141	-1.1470109
4	0x3ec9bc3a	0.39401418
5	0x3f89a890	1.0754566
6	0xbf75b9b0	-0.9598646
7	0x3eb1eb96	0.3475005
8	0xbf821aec	-1.0164466
9	0xbe9e58a4	-0.30927002
10	0x3de59443	0.11209919
11	0x3f13c0a8	0.57715845
12	0x3f0ac37f	0.54204553
13	0xbf6f05fc	-0.93368506
14	0x3d397815	0.045280535
15	0xbf9c5cc7	-1.2215813
16	0x3ee48b42	0.44637495
17	0x3d2dbf21	0.042418603
18	0x3f0467af	0.5172071
19	0x3ee573da	0.4481495
20	0x3eb41e6d	0.35179463
21	0x3e6aaeaa	0.22918192
22	0xbf099f2b	-0.53758496
23	0xbea57838	-0.32318282
24	0xbe8bada8	-0.27280927
25	0x3f2833bb	0.65703934
26	0x3f4387c9	0.76379067
27	0xbf2078bf	-0.62684244
28	0xbf927f9f	-1.1445197
29	0x3f13fcec	0.57807803
30	0xbf360576	-0.7110208
31	0xbe8fe688	-0.2810557
32	0x3e4871a5	0.19574602
33	0xbdd25b60	-0.10271335
34	0xbe8052b8	-0.2506311
35	0x3f5f1e85	0.87155944
36	0x3ee7510e	0.45179027
37	0x3e9292b0	0.2862754
38	0x3f7d6ecc	0.9899719
39	0xbefbc104	-0.49170697
40	0x3e28b781	0.16476251
41	0x3f4e69da	0.80630267
42	0xbf449427	-0.7678856
43	0xbfdbe8f6	-1.7180469
44	0xbe4ed110	-0.20196939
45	0xbeda23fc	-0.4260558
46	0x3e5cb235	0.21552356
47	0xbfcdf70e	-1.609102
48	0x3da42b1a	0.080160335
49	0x3ee2bbb4	0.4428383
50	0xbef6af10	-0.48180437
51	0xbc6c8080	-0.014434934
52	0xbf00c835	-0.5030549
53	0xbf5974cc	-0.8494384
54	0x3e76b5cf	0.24092792
55	0xbfa28bf1	-1.2698957
56	0x3f0f7269	0.5603395
57	0x3f2034a8	0.6258035
58	0x3eab9ca8	0.33517957
59	0x3f0ee4d7	0.5581793
60	0x3f0fd730	0.56187725
61	0xbd9b6669	-0.075878926
62	0x3dfa60fd	0.1222553
63	0x3ec56bc9	0.38558796
64	0x3db89b10	0.09013951
65	0xbf0a642a	-0.5405909
66	0xbf4813cc	-0.7815521
67	0x3d425234	0.047441676
68	0xbf9522f6	-1.1651294
69	0x3e12c7cd	0.1433403
70	0x3e471d6d	0.19444819
71	0xbebdf3c4	-0.3710004
72	0xbf34e4f5	-0.7066186
73	0xbd002bc0	-0.031291723
74	0x3f4aaa15	0.79165775
75	0x3b160787	0.002289267
76	0x3edd01a4	0.43165314
77	0xbf12e256	-0.5737661
78	0x3efc8447	0.4931967
79	0x3f0b5b27	0.5443596
80	0x3f19c64e	0.60068214
81	0xb9371d56	-0.00017463168
82	0x3e793a1c	0.24338573
83	0x3f4c8168	0.7988496
84	0xbd301a40	-0.042993784
85	0x3e8f09e3	0.2793723
86	0x3f4cc9b8	0.799953
87	0xbeb3120c	-0.34974706
88	0xba88f8cd	-0.0010450125
89	0xbe20ba40	-0.15696049
90	0xbeb00f91	-0.34386876
91	0x3f4260ef	0.7592916
92	0xbf2ef5d8	-0.6834388
93	0xbf6e8a89	-0.9318014
94	0xbdfba980	-0.12288189
95	0x3f0c4e17	0.54806656
96	0x3cecc0ac	0.028900467
97	0xbde7f220	-0.113254786
98	0x3f2719c3	0.65273684
99	0x3ebe46f7	0.37163517
100	0xbc9d1500	-0.019175053
101	0xbfc13165	-1.5093199
102	0x3e8a227e	0.2697944
103	0xbfa4c5bd	-1.2872845
104	0xbf39fd20	-0.72651863
105	0xbef305a0	-0.4746523
106	0x3f073c44	0.52826333
107	0xbfb74c68	-1.4320192
108	0xbfa03f8f	-1.2519397
109	0x3f7511a0	0.9573002
110	0xbf789d72	-0.9711524
111	0xbf76d58b	-0.9641959
112	0xbf2b64d4	-0.66950727
113	0x3eccb212	0.39979607
114	0x3f077156	0.5290731
115	0x3ed6b3f0	0.41934156
116	0xbea2a364	-0.31765282
117	0xbeba1018	-0.36340404
118	0xbe9d1d60	-0.30686474
119	0x3f44696c	0.7672336
120	0xbcc271c0	-0.02373588
121	0xbf199219	-0.5998855
122	0x3edcfe6c	0.43162858
123	0xbeeb920c	-0.46009862
124	0x3edd0c37	0.43173382
125	0xbea4a392	-0.32156044
126	0xbec158a8	-0.37762952
127	0x3f8034aa	1.0016072
128	0x3daac4e3	0.083383344
129	0x3f45ec2b	0.7731349
130	0xbe7b1700	-0.24520493
131	0xbf27ea80	-0.65592194
132	0x3e81710b	0.25281557
133	0x3f057a9c	0.5214021
134	0x3e978213	0.29591426
135	0xbf3b844c	-0.73248744
136	0x3e443048	0.19159043
137	0xbed17980	-0.4091301
138	0x3d96f3da	0.0737073
139	0x3f0bb539	0.545734
140	0xbdbc84ab	-0.09204992
141	0xbe033e26	-0.12816676
142	0x3e66d2a2	0.22541288
143	0xbf5206b8	-0.820415
144	0xbc92fa08	-0.01794149
145	0xbf5a57ee	-0.8529042
146	0xbf3619ff	-0.71133417
147	0xbffc7e35	-1.9726015
148	0x3f4fe6fe	0.8121184
149	0xbf7960d6	-0.97413385
150	0xbec1ac88	-0.37826943
151	0x3e8f7e60	0.28026104
152	0xbea57cc8	-0.32321763
153	0xbf9167ef	-1.1359843
154	0x3f3f9dd1	0.74850184
155	0x3f1db5b1	0.61605364
156	0xbe531d20	-0.20616579
157	0x3e575b4e	0.21030924
158	0xbec6f6ec	-0.3886026
159	0xbf5ae4f0	-0.8550558
160	0x3ecf7c90	0.4052472
161	0xbf86f4de	-1.0543478
162	0xbf0e7210	-0.55642796
163	0x3e19f149	0.15033449
164	0xbd650000	-0.055908203
165	0xbf99e0a4	-1.202168
166	0x3e0102e8	0.12598765
167	0x3ae28ae9	0.001728383
168	0x3f64395a	0.8915001
169	0x3f3806e9	0.71885544
170	0x3e90d9b9	0.2829111
171	0x3e9e3f17	0.3090751
172	0x3f05dbcd	0.52288514
173	0x3f556518	0.8335738
174	0xbac8e151	-0.0015325939
175	0xbf11ca25	-0.56949073
176	0x3eae6b06	0.34066027
177	0x3f0333a5	0.5125068
178	0x3f0580d9	0.5214973
179	0x3cd3bf40	0.025848031
180	0xbe9c3fb0	-0.3051734
181	0xbe7552c0	-0.23957348
182	0xbfd31816	-1.6491725
183	0x3ede05da	0.4336384
184	0xbe42af98	-0.19012296
185	0xbf248050	-0.6425829
186	0xbd600f20	-0.054701924
187	0xbff3fcae	-1.9061487
188	0xbc4b0080	-0.012390256
189	0xba5d68f9	-0.0008446123
190	0xbf1afc1c	-0.6054094
191	0xbe9e1834	-0.3087784
192	0xbf565fb8	-0.83739805
193	0x3f13c7ea	0.5772692
194	0x3ecfad82	0.40562063
195	0x3ec58ed2	0.38585526
196	0x3ddd4617	0.10804384
197	0xbf800c3d	-1.0003735
198	0x3e9e681c	0.30938804
199	0x3f34b797	0.70592636
200	0x3f071b87	0.5277638
201	0xbe8b7fd0	-0.2724595
202	0x3eccb99d	0.39985362
203	0x3e25e595	0.1620086
204	0x3cc7bc92	0.02438191
205	0xbe77e8d0	-0.24209905
206	0x3e3111fa	0.17292014
207	0xbfdd0a85	-1.7268835
208	0x3ef1c577	0.47220966
209	0x3f5973c0	0.84942245
210	0x3e59d81b	0.21273844
211	0x3e1e8f00	0.15484238
212	0x3b569402	0.0032742028
213	0xbe76e110	-0.24109292
214	0xbd33c3e0	-0.043887973
215	0xbf13d9e0	-0.57754326
216	0x3f03bc94	0.5145962
217	0xbf6d60e0	-0.92725945
218	0x3e058ef9	0.13042821
219	0x3d8a0867	0.06739884
220	0xbf9e89df	-1.2385825
221	0xba82661d	-0.0009948645
222	0xbfd827b0	-1.6887112
223	0x3e53ed86	0.20696077
224	0x3f03ca42	0.51480496
225	0xbe3c1128	-0.1836592
226	0xbec3a9df	-0.3821554
227	0xbf6dde14	-0.9291699
228	0x3f06ace5	0.52607566
229	0x3e68f473	0.227495
230	0x3f46483b	0.77453965
231	0x3f48e107	0.78468364
232	0xb9521442	-0.00020034707
233	0xbf107442	-0.56427395
234	0xba9167ea	-0.0011093591
235	0xbfb7e50e	-1.4366777
236	0x3ec511a5	0.38490024
237	0xbea4a2d6	-0.32155484
238	0xb905b180	-0.00012749992
239	0xbdd5a7a0	-0.104323626
240	0x3f52c424	0.82330537
241	0x3eee3796	0.46526784
242	0xbf5d7b62	-0.8651639
243	0x3e8992f1	0.2686992
244	0xbf199686	-0.59995306
245	0x3f74e146	0.9565624
246	0x3e81024e	0.2519707
247	0x3f5af74a	0.85533583
248	0xbac5e928	-0.0015099393
249	0x3f8384bd	1.0274884
250	0x3f8bfd09	1.0936595
251	0x3e9ef5e1	0.31046966
252	0x3f48bd7f	0.7841415
253	0x3e715c9a	0.23570481
254	0x3f67d9e1	0.9056683
255	0x3e8b8489	0.27249554

weight f4 [1, 256]
0	0x3d14a080	0.036285877
1	0x3d2ffae6	0.042963885
2	0x3d3276eb	0.04357044
3	0x3c2c589c	0.010519173
4	0x3afcb89b	0.0019281091
5	0x3d35b686	0.04436352
6	0x3ca62b3a	0.020284284
7	0xba87a9ec	-0.0010350323
8	0x3c99bb02	0.01876593
9	0xbb23d545	-0.0024998945
10	0x3c11f7fb	0.008909221
11	0xbc53e7a9	-0.01293365
12	0x3d911267	0.07083588
13	0x3ba72dc9	0.0051018936
14	0xbd4b6a3f	-0.04966187
15	0xbc2bdf3b	-0.010490234
16	0xbc75aa60	-0.014994234
17	0xbc033c3e	-0.008009968
18	0x3d939911	0.072069295
19	0x3d65e2c7	0.056124475
20	0x3d85d011	0.06533826
21	0x3c582122	0.013191493
22	0x3d2b2251	0.041780774
23	0xbcf4490f	-0.029819993
24	0x3d4b793c	0.049676165
25	0xbb9a00a6	-0.0046997843
26	0xbd15d7ee	-0.03658288
27	0x3ccd0a8c	0.025029443
28	0xbc3726b6	-0.011178663
29	0x3b7d07d8	0.0038609412
30	0xbad29bab	-0.0016068121
31	0xbb0e6adb	-0.0021731171
32	0xbd20f4e7	-0.039296057
33	0xbd353c1a	-0.04424677
34	0xbba4b7e4	-0.0050268043
35	0x3dd2696c	0.10274014
36	0xbd4a561f	-0.049398538
37	0xb9a7f7cd	-0.00032037348
38	0x3d3f5145	0.046708364
39	0xbc12e340	-0.008965313
40	0xbaec74c3	-0.0018040169
41	0xb997112d	-0.0002881376
42	0xbc8d5389	-0.017251747
43	0xbce0b540	-0.027430177
44	0x3c80c060	0.015716732
45	0xbdade7f1	-0.08491505
46	0xbd9ce8d8	-0.07661599
47	0xbd722125	-0.05911364
48	0xbd0195e5	-0.03163709
49	0x3dcee9b5	0.1010317
50	0xbbaa9f3c	-0.0052069705
51	0xbc0c329d	-0.008556989
52	0x3c0cb95b	0.008589114
53	0xbcd7c691	-0.026339801
54	0xbba787ef	-0.00511264
55	0xbd0b7e62	-0.034056075
56	0x3b982ee0	0.00464426
57	0x3dad2205	0.08453754
58	0xbd3bf88b	-0.045891326
59	0xb9ac7e01	-0.00032900277
60	0x3bd453b0	0.006479703
61	0x3c6b72f4	0.014370669
62	0xbb44f86f	-0.0030055305
63	0x3cc60b0a	0.024175186
64	0xbd0b2d16	-0.033978544
65	0x3b5eb444	0.0033981958
66	0xbcb801c1	-0.022461774
67	0x3cb9aaa2	0.022664372
68	0xbd5bab84	-0.053630367
69	0x3b1d0573	0.0023959547
70	0xbd72358d	-0.0591331
71	0x3d845535	0.064615645
72	0x3c8ea9da	0.017414976
73	0xbc58e44c	-0.013238024
74	0x3dc9e440	0.09857988
75	0xbd4bb234	-0.049730495
76	0xbb14c001	-0.002269745
77	0xbcc67e58	-0.024230167
78	0x3d7fd16d	0.062455583
79	0xbc5717fe	-0.013128279
80	0x3a919038	0.0011105603
81	0xbd31137e	-0.04323148
82	0xbbcd1a8e	-0.006259269
83	0xbd070f1d	-0.032973398
84	0x3d9c5f1f	0.076353304
85	0x3c1a3d75	0.009414067
86	0xba1dff76	-0.00060271414
87	0x3c1d767d	0.009610769
88	0xbd82e155	-0.06390635
89	0x3a5bb41a	0.0008381024
90	0x3c53d4ec	0.0129291825
91	0x3da38c2b	0.07985719
92	0xbcf51d39	-0.029921161
93	0xbc0756c2	-0.008260431
94	0xbb32f905	-0.0027309072
95	0xbcb55284	-0.022134073
96	0xbc3ef04c	-0.011653971
97	0x3d6280c4	0.05529858
98	0xbc1c0ce6	-0.00952456
99	0x3c49c388	0.012314685
100	0xbbb96742	-0.0056580612
101	0x3d83e2df	0.064397566
102	0xbb59acf9	-0.0033214672
103	0xbcd3eae6	-0.025868844
104	0xba454d16	-0.00075264403
105	0x3aba6f4f	0.0014223846
106	0xbcda82a1	-0.026673617
107	0xbbe9de54	-0.0071370993
108	0x3c6168ea	0.013757924
109	0x3d1684c3	0.036747705
110	0xbb9200d5	-0.0044556656
111	0xbc535d0a	-0.0129006
112	0xbdd91dab	-0.10601362
113	0x3cb6eeea	0.02233072
114	0xbc19159d	-0.009343532
115	0x3c566fdd	0.013088194
116	0x3c456c08	0.012049682
117	0xbc462423	-0.012093577
118	0x3bf1f3d8	0.007383805
119	0xbc36714b	-0.01113541
120	0x3b9d291d	0.004796161
121	0x3b98d9ad	0.004664621
122	0x3c792237	0.015205911
123	0x3c1a97c3	0.009435597
124	0x3b8c250a	0.0042768763
125	0x3c8f7e74	0.017516352
126	0x3b952565	0.004551577
127	0x3d56eb0d	0.052470256
128	0xba660f54	-0.0008776088
129	0x3cea5163	0.028603261
130	0x3c2749ba	0.010210449
131	0x3d4bc645	0.04974963
132	0x3ce172a4	0.027520485
133	0xbd5893f4	-0.052875474
134	0x3b9936b3	0.00467571
135	0xbc6e98d0	-0.0145628005
136	0xbbc137b0	-0.005896531
137	0xbbdfd018	-0.0068302266
138	0xbd509615	-0.05092438
139	0x3d0d9d58	0.034573883
140	0xbb2a7e43	-0.00260152
141	0xbc30d206	-0.010792261
142	0xbd001f49	-0.031279836
143	0xbc8185a5	-0.015810797
144	0x3b35d285	0.0027743888
145	0x3cf0bf2d	0.029388035
146	0x3b89e13d	0.0042077587
147	0x3cb91b37	0.022595985
148	0x3d87a185	0.06622604
149	0x3c224c76	0.009905925
150	0xbba2c543	-0.004967363
151	0x3d0821ff	0.033235546
152	0xbbd97b39	-0.0066370037
153	0xbd492919	-0.04911146
154	0xbc839570	-0.016062468
155	0x3cba65f9	0.022753702
156	0xbcf9b095	-0.030479709
157	0xbd07c102	-0.03314305
158	0x3b8aa18e	0.0042306846
159	0xbb5a513d	-0.0033312582
160	0x3c2b2b1e	0.010447292
161	0xbd932bc9	-0.07186086
162	0xbb8bd4b5	-0.0042673
163	0xbca14af3	-0.019689059
164	0xbc3972ee	-0.011318905
165	0x3c6ef09b	0.014583732
166	0x3ca2e97c	0.019886725
167	0xbc0c29a3	-0.008554849
168	0x3d80c7cd	0.06288109
169	0x3d83e361	0.064398535
170	0xbd5b6595	-0.053563673
171	0xbd69e51b	-0.057103258
172	0xbc69fc38	-0.014281325
173	0x3d2c71e1	0.04210079
174	0xbb2898ff	-0.0025725958
175	0xbc97ec68	-0.018545344
176	0x3ca36e5f	0.01995009
177	0x3d13457d	0.03595494
178	0x3d869adc	0.06572506
179	0xbc0686ec	-0.008210879
180	0x3cc8bbbc	0.024503581
181	0xbb8c4dbd	-0.004281728
182	0x3d0d1a9b	0.0344492
183	0x3b1db34a	0.0024063163
184	0x3d9b2726	0.07575826
185	0x3d31b04c	0.04338102
186	0xbb5286d7	-0.0032123828
187	0x3d134927	0.035958435
188	0x3d79ee27	0.061018135
189	0x3d8591a3	0.065219186
190	0xbd3dc934	-0.04633446
191	0xbb07f533	-0.0020745515
192	0x3d6a2c05	0.057170887
193	0xbcfbb73f	-0.030727027
194	0xbd7b2aaf	-0.061320003
195	0x3d92a6d2	0.07160725
196	0xbd39fb4a	-0.045405664
197	0x3d5ce27f	0.05392694
198	0x3d4c28fd	0.049843777
199	0x3a32aba8	0.000681574
200	0xbb1b67f9	-0.0023713096
201	0x3b3fa198	0.0029240604
202	0xbd14ba3a	-0.036310412
203	0xbb7a94e2	-0.0038235714
204	0x3cfbeaea	0.030751664
205	0xbc3a9ef7	-0.011390439
206	0xb9917871	-0.0002774629
207	0x3d4ab50e	0.049489073
208	0xbcb838be	-0.022487994
209	0xbcea68a0	-0.028614342
210	0xbd9ee619	-0.077587314
211	0xbbd2141f	-0.00641109
212	0xbd1ee7af	-0.03879517
213	0xbc59819e	-0.013275532
214	0x3d66ccab	0.05634753
215	0xbd15b7c7	-0.036552217
216	0x3a2a0cfc	0.000648692
217	0xbcfa8b80	-0.030584097
218	0x3ccc6d4e	0.024954464
219	0x3c65b9d4	0.014021356
220	0xbd1f1743	-0.038840543
221	0xbb27493a	-0.0025525824
222	0xbcbdc50b	-0.023165246
223	0xbcc2a00c	-0.023757957
224	0x3cc71734	0.024303056
225	0xbc7db788	-0.015485652
226	0x3c81417d	0.015778298
227	0xbbc58fcb	-0.0060291043
228	0xbd2be5a2	-0.04196704
229	0xbda5feee	-0.081052646
230	0x3ceaba74	0.02865336
231	0x3c05f924	0.008177076
232	0xba97471b	-0.0011541577
233	0xbc934ae7	-0.017980052
234	0x3bb07410	0.0053849295
235	0xbc4bdbb4	-0.012442518
236	0x3d1e7163	0.038682353
237	0x3bd772d3	0.0065749674
238	0x3c124284	0.008926991
239	0x3ab719a4	0.0013969433
240	0x3bb767e3	0.005597101
241	0xb978faa2	-0.00023744491
242	0xbb1d970f	-0.0024046337
243	0xbc5af3fe	-0.013363836
244	0xbcbabb19	-0.022794293
245	0xbc7abefd	-0.015304324
246	0x3ae12c90	0.0017179418
247	0xbc8fa143	-0.01753295
248	0x3d2c5218	0.04207048
249	0x3cbfa86d	0.023395741
250	0xbb636243	-0.003469602
251	0x3c9ae566	0.018908214
252	0xbbd1a4b7	-0.0063978094
253	0x3cb58a4a	0.022160668
254	0xbda0b44f	-0.07846891
255	0xbcb396b9	-0.021922456

weight f4 [256, 1]
0	0x3f3ca066	0.7368225
1	0xbc3b4700	-0.011430502
2	0x3e43b1da	0.19110814
3	0xbf084ea0	-0.5324497
4	0xbf65297d	-0.8951643
5	0x3f5a16da	0.8519112
6	0x3eac750c	0.3368305
7	0xbe2671c9	-0.16254343
8	0xc0610614	-3.515996
9	0x3cc40acb	0.023930928
10	0xbe69455f	-0.22780369
11	0xbecda3e4	-0.401641
12	0x3eb1180c	0.3458866
13	0xbe886858	-0.26642108
14	0xbea838f9	-0.32855967
15	0xbeced4a4	-0.40396607
16	0xbe8d2030	-0.2756362
17	0x3dc411ca	0.095737055
18	0xc063abdb	-3.5573642
19	0x3e85886f	0.26080653
20	0xbe479e10	-0.1949389
21	0xbf3d67fe	-0.73986804
22	0xbf7011fa	-0.9377743
23	0xbef99ac8	-0.487509
24	0x3eaadfd0	0.3337388
25	0xbf16c332	-0.58891594
26	0x3f41ea33	0.75747985
27	0xbdbff0d0	-0.09372103
28	0x3e9d12f2	0.30678517
29	0xbf290506	-0.6602329
30	0x3cef09e4	0.02917952
31	0xbdcbbabb	-0.099477254
32	0xbedff3bc	-0.43740642
33	0x3ec80944	0.3906957
34	0xbf5a3f5c	-0.8525293
35	0x3c1f1380	0.009709239
36	0x3ee64a6d	0.44978657
37	0xbcd339ae	-0.02578434
38	0x3e91689e	0.2840013
39	0x3efbf7ca	0.49212486
40	0xbf2a68c8	-0.66566133
41	0x3dd4acc6	0.103845164
42	0xbfa189d2	-1.2620184
43	0xbeadbca0	-0.33932972
44	0x3f4a44cb	0.7901122
45	0x3f0eac05	0.5573123
46	0xbe9bf774	-0.3046223
47	0x3efc38c3	0.49262056
48	0xbf84e59b	-1.038257
49	0x3ea6d254	0.32582343
50	0xbe907d0c	-0.28220403
51	0x3f20615b	0.6264855
52	0xbfde63df	-1.7374228
53	0xbc18fa80	-0.009337068
54	0xbf13d826	-0.5775169
55	0x3eb68327	0.35646936
56	0xbf7ea2f8	-0.9946742
57	0x3ea17f1e	0.31542295
58	0xbd1fb6b8	-0.038992614
59	0x3e1dc181	0.15405847
60	0x3d98dedd	0.07464383
61	0x3e1b61be	0.15174004
62	0xbf7f4940	-0.99721146
63	0xbecd3900	-0.4008255
64	0xbf542ee2	-0.8288404
65	0x3f61262d	0.87948877
66	0x3ee557ee	0.44793648
67	0xbee0bbaf	-0.4389319
68	0x3f41a4e0	0.75642204
69	0x3c960bea	0.018316228
70	0x3f1d96e3	0.6155836
71	0xbf1260b2	-0.57178795
72	0x3d967372	0.07346238
73	0xbcf15ee6	-0.029464196
74	0xbf28bf02	-0.65916455
75	0xbed794bf	-0.42105672
76	0x3e45ff60	0.19335699
77	0xbf31ebcd	-0.6950043
78	0x3f16d8ea	0.58924735
79	0x3e75c11c	0.23999447
80	0xbd0eac40	-0.03483224
81	0x3eee503c	0.4654559
82	0x3eb7424c	0.35792768
83	0xbf1812c8	-0.5940366
84	0xbf6d1970	-0.9261694
85	0x3ed85e51	0.42259458
86	0x3f251d06	0.6449741
87	0xbf6169fc	-0.88052344
88	0x3f6a94a3	0.9163305
89	0xbcfa3c1e	-0.030546244
90	0xbed337f0	-0.41253614
91	0x3eba5bc7	0.36398146
92	0xbedeb874	-0.43500102
93	0x3e8d4591	0.27592137
94	0xbecd5ab0	-0.40108252
95	0xbf2b1b1a	-0.6683823
96	0xbf5f6e88	-0.8727803
97	0xbf2063f6	-0.6265253
98	0x3f56fb27	0.8397698
99	0x3e1c175b	0.15243284
100	0xbf25668c	-0.646096
101	0x3f2fcfe8	0.68676615
102	0x3e05b477	0.13057123
103	0x3efd3b17	0.49459144
104	0xbdb90995	-0.09035031
105	0xbf614732	-0.8799926
106	0xbf71c041	-0.9443398
107	0x3eac7cdd	0.33689013
108	0xbc694724	-0.014238153
109	0x3e8d54b4	0.27603686
110	0xbf4fb2e9	-0.8113237
111	0xbeedf924	-0.46479142
112	0x3f191553	0.59798163
113	0x3e0d8b72	0.13822725
114	0xbf1f8bea	-0.62322867
115	0xbd60c00f	-0.05487066
116	0x3f2153b8	0.6301837
117	0x3ef37b0b	0.47554812
118	0xbefbebf4	-0.49203455
119	0x3ef3b79e	0.47601026
120	0x3e8794e7	0.2648079
121	0xbe9d1cd8	-0.3068607
122	0xbf6da28d	-0.9282616
123	0x3eadb6cb	0.33928522
124	0xbef067b0	-0.46954107
125	0x3c93e65d	0.018054182
126	0xbf784e67	-0.9699463
127	0x3f7ad0a1	0.9797459
128	0x3e061e5b	0.13097517
129	0xbe5b7160	-0.21429968
130	0xbf0d5a9e	-0.55216396
131	0xbc5888d2	-0.013216214
132	0xbec9c980	-0.39411545
133	0x3f12b23c	0.57303214
134	0xbe274658	-0.16335428
135	0x3ee33010	0.44372606
136	0xbd0777dc	-0.03307329
137	0xbf687107	-0.90797466
138	0xbed62aae	-0.41829437
139	0x3ea496f9	0.32146433
140	0x3d688a2f	0.056772407
141	0x3eed045c	0.46292388
142	0x3ee759d0	0.4518571
143	0x3e5222ac	0.20521039
144	0xbf797cf0	-0.97456264
145	0x3e4cce9c	0.2000069
146	0xbf39f832	-0.7264434
147	0xbf5fc040	-0.87402725
148	0xbf3528cc	-0.70765376
149	0xbdace080	-0.084412575
150	0x3ca1a9d7	0.019734306
151	0x3f1e8631	0.6192351
152	0xbed63794	-0.41839278
153	0xbf32dda8	-0.6986947
154	0x3f2ae5e7	0.66757053
155	0x3ee8a777	0.45440266
156	0x3f687d76	0.9081644
157	0x3e5c9158	0.21539819
158	0xbf379652	-0.71713746
159	0xbf554de4	-0.83321977
160	0xbf5fc935	-0.8741639
161	0x3f25152e	0.6448544
162	0xc00cb808	-2.1987324
163	0xbe245fe7	-0.16052209
164	0x3e9a26d2	0.30107743
165	0xbe68c590	-0.22731614
166	0xbf7b8baa	-0.98259985
167	0x3ec96e89	0.39342144
168	0xbd97d300	-0.07413292
169	0xbf57772f	-0.84166235
170	0xbe85bd34	-0.26120913
171	0xbec94fdc	-0.3931874
172	0xbf727584	-0.94710565
173	0x3f6df23f	0.92947763
174	0xbec06654	-0.3757807
175	0x3e5b6085	0.21423538
176	0xbccd0e7e	-0.025031324
177	0xbf067d82	-0.5253526
178	0x3e7a91ba	0.24469653
179	0xbd18c00c	-0.037292525
180	0xbf10eb23	-0.5660879
181	0x3e78cd35	0.2429703
182	0x3e194008	0.14965832
183	0xbf1cf51e	-0.6131152
184	0x3ec34dc9	0.38145283
185	0x3ec67441	0.3876057
186	0xbe9ac4c7	-0.30228254
187	0xbf33a038	-0.7016635
188	0xbd8b16c0	-0.067914486
189	0x3e9ef883	0.31048974
190	0x3eefcdb5	0.4683663
191	0xbf297c72	-0.66205513
192	0xbe0b8d7e	-0.13628194
193	0x3f24032e	0.6406735
194	0x3b9293b6	0.004473175
195	0xbe7a3200	-0.24433136
196	0x3ef7141f	0.4825754
197	0xbe5f9feb	-0.21838348
198	0xbf510a46	-0.816563
199	0x3e4f3508	0.20235074
200	0xbf742013	-0.9536144
201	0xbe8062ff	-0.25075528
202	0xbb0ec000	-0.0021781921
203	0xbf0e477a	-0.55577815
204	0x3f04b990	0.51845646
205	0xbecee3d4	-0.40408194
206	0xbda7625e	-0.08173059
207	0xbe547b18	-0.20750082
208	0xbfb70f8f	-1.4301623
209	0x3f38bfd1	0.7216769
210	0x3f578073	0.8418037
211	0xbd924156	-0.07141368
212	0xbf576b30	-0.8414793
213	0x3e57410c	0.21020907
214	0x3e9467be	0.289854
215	0x3ef7eae0	0.48421383
216	0xbd058391	-0.032596175
217	0x3f36c63c	0.7139623
218	0xbdb31713	-0.087446354
219	0xbdc0a590	-0.094065785
220	0xbc535c51	-0.012900428
221	0xbda58655	-0.080822624
222	0x3eec40ee	0.46143287
223	0x3e43b581	0.19112207
224	0xc05f4fe7	-3.4892519
225	0xbeca676d	-0.39532033
226	0xbf613ce0	-0.8798351
227	0x3e34d150	0.17657971
228	0x3e9919fd	0.2990264
229	0xbdbf0bc2	-0.093284145
230	0x3f66a6c4	0.90098214
231	0x3ef3537f	0.4752464
232	0x3f766ae7	0.9625687
233	0xbe1e5160	-0.1546073
234	0x3ddf765b	0.109112464
235	0x3f4f6534	0.810138
236	0xbd444218	-0.047914594
237	0xbf507c2e	-0.81439483
238	0xbea9face	-0.3319916
239	0xbf031faf	-0.5122022
240	0x3f1cb870	0.6121893
241	0x3df0ae25	0.117519654
242	0x3e3921bf	0.1807928
243	0xbf83f2c1	-1.0308458
244	0xbf0f4346	-0.55962026
245	0x3eda955b	0.42692074
246	0x3b7937a1	0.0038027542
247	0x3e86d0de	0.26331228
248	0x3e983628	0.29728818
249	0x3d30edc0	0.043195486
250	0x3dbee0bc	0.093202084
251	0xbf557c6d	-0.83392984
252	0xbf6fa39e	-0.93609035
253	0x3ed5f1c0	0.41786003
254	0x3ea5b0b0	0.32361364
255	0x3d10bd35	0.035336692
