checkpoints/189050400.ckpt (torch, 122663 bytes, 33 tensors)

weight f4 [256, 18]
000000 35 0f 0a 3e d6 6c ff bd e6 70 da bd f3 f4 a9 bd
       0.13482364 -0.12471931 -0.10666065 -0.082986735
000010 bb cc 8a 3e 99 e2 d7 bd 9e 10 56 be 7c 1b 44 be
       0.27109322 -0.10541267 -0.20904776 -0.1915111
000020 aa f6 95 3d 91 db 74 3c b9 42 ec 3d ca 94 27 3d
       0.07322438 0.014944927 0.11536164 0.04091338
000030 42 73 cb 3d 7b 22 29 be aa db 76 3e 7f bc 5d bd
       0.09934093 -0.1651706 0.24107233 -0.054134842
000040 bc 75 32 3e 27 eb 18 3e bb 43 66 3c 5e 9b 06 3e
       0.17427725 0.14933454 0.014054234 0.13145205
000050 68 4f 75 3d 37 69 37 3d df 62 1c 3e 27 02 3f bd
       0.05989018 0.044778075 0.15272091 -0.046632912
000060 29 aa 16 be 82 ad 18 be bb cf dc bb 6b 7a 31 be
       -0.14713348 -0.14909938 -0.0067386306 -0.17331855
000070 2e eb 61 be 63 06 02 bd 2e 1c 4c 3d b7 2f 96 3d
       -0.2206237 -0.031744372 0.04983156 0.0733332
000080 0e 1c e1 3d 84 af 4e bb 4c b8 5e 3e be d4 43 bd
       0.10991679 -0.003153772 0.21749991 -0.04781031
000090 f6 e4 c4 bd d9 bb c1 bd 53 ae 09 bc b7 8b 27 3d
       -0.09613983 -0.09459657 -0.008403379 0.040904727
0000a0 bf 9b 6b be 2d 8e c2 3c 7f 0f 92 bd 84 a7 ac be
       -0.23008631 0.023749435 -0.07131862 -0.33721554
0000b0 8c bc ed bd dc 36 7d bd 31 c4 30 3d 36 dd 16 3c
       -0.11608228 -0.061819896 0.043155853 0.009208014
0000c0 48 dc 61 bc 22 fb ae bd 0c c8 51 3c f5 98 42 3d
       -0.013785429 -0.085439935 0.012804043 0.047509152
0000d0 f4 90 54 be 15 6d e9 3d 68 40 f1 bd 4a 7c bf 3d
       -0.2075842 0.11397759 -0.11779863 0.09349878
0000e0 73 82 f1 3d 54 09 da 3d 51 5c b9 bc f1 70 2b ba
       0.11792459 0.106463104 -0.022627028 -0.0006539962
0000f0 9f ca 27 be 40 88 06 bb ec be e9 3c ea 58 31 be
       -0.16385888 -0.0020527989 0.028533421 -0.17319074
000100 e8 56 84 be 9f 95 e9 bd 62 e0 06 3e 3a 15 6d 3e
       -0.25847554 -0.11405491 0.13171533 0.23152629
000110 1b 3f 02 3e 81 09 49 be 27 b6 cf bd 68 82 77 bd
       0.12719385 -0.19632532 -0.10142165 -0.0604271
000120 af a6 28 be 69 a7 32 be 01 09 78 bd fe 23 28 3e
       -0.16469835 -0.17446674 -0.06055546 0.1641998
000130 68 e8 3e be e8 20 3b be 99 f4 33 3d bb e5 9b be
       -0.18643343 -0.18274271 0.04393444 -0.30448708
000140 f3 c2 2d bd 9d 17 02 3e 64 5d e9 3d f7 19 86 3c
       -0.042422246 0.1270432 0.11394766 0.016369803
000150 63 76 01 3c b8 be 07 be e3 2d ad 3d ab f7 70 3d
       0.007901761 -0.13256347 0.08456018 0.058829945
000160 0d 66 d0 3b 80 e0 8f be 99 4b 15 bc 01 11 06 bb
       0.0063598217 -0.28100967 -0.009112262 -0.0020456912
000170 8d ef b7 3a 45 0d 25 bc 20 41 7a bc 6e de 8f 3e
       0.0014033184 -0.0100739645 -0.015274316 0.28099388
000180 5b 0d 34 bb f7 37 0e be ae e0 2e 3c 34 dc 54 3b
       -0.002747378 -0.13888536 0.010673685 0.0032479884
000190 ac 75 9d bb 23 a9 34 3b 38 8d d8 3b 6a 5c 64 bc
       -0.0048052873 0.0027566634 0.0066086315 -0.013938049
0001a0 04 a2 07 bd c1 f6 84 bb 20 e5 f2 bd 17 08 16 bb
       -0.033113495 -0.0040577357 -0.118601084 -0.0022893006
0001b0 7a 98 05 be f0 9f 09 be 34 67 31 bd b2 13 46 3d
       -0.13046446 -0.13439918 -0.043311313 0.048358627
0001c0 29 16 66 be 86 7c 98 bd 2a d8 9e 3b b8 a7 7d 3d
       -0.22469391 -0.07445626 0.004847546 0.061927527
0001d0 d6 87 1a be 8b 38 2b be 8d f7 ce 3d a6 3b 2b 3c
       -0.1509088 -0.16720788 0.1010581 0.010451233
0001e0 cd 53 2a 3c a0 02 10 3e e0 87 fa 3c b7 81 08 3d
       0.010395956 0.14063501 0.030582368 0.03332683
0001f0 ae 90 cb 3d 5e ad ae ba 8c d8 cd bd df e0 cb 3b
       0.09939705 -0.0013326814 -0.10051069 0.006221875
000200 e3 3d 34 bb e9 30 9e 3c b2 7b 71 be c5 cc 85 3d
       -0.0027502708 0.019310432 -0.23582342 0.06533197
000210 b2 8a ff 3b 55 36 17 be 5e 2a 53 bd c9 a9 a4 bd
       0.007798516 -0.1476682 -0.051554076 -0.080401964
000220 0a 50 1a bd 62 77 be bb 76 35 0c 3a 5a 73 c6 bc
       -0.037673987 -0.0058125714 0.00053485425 -0.024224926
000230 2d 2c 95 bd 49 21 74 3a 46 ea 45 be 1b e1 81 bb
       -0.072838165 0.0009312821 -0.1932765 -0.0039636022
000240 97 f1 6b bd bb c3 3b bd fd 26 73 bc 8b b0 8e bc
       -0.057603445 -0.04584096 -0.0148408385 -0.017418167
000250 e2 2a b5 bb 40 75 71 3e 74 03 e5 bb 87 cf b4 bd
       -0.0055287937 0.23579884 -0.006988937 -0.08828645
000260 c5 d7 3d be ec 33 2d 3d 6b 9e ae bd dd 4c f7 bb
       -0.18539341 0.042285845 -0.085263096 -0.0075470046
000270 c2 cc be 3b d9 b0 8b 3c ea e0 9e 3d b2 e7 19 bd
       0.005822749 0.017052101 0.07757743 -0.037574477
000280 47 31 9b be 4a f7 a5 bb 9c 8b b8 be 11 a0 84 3d
       -0.30311033 -0.0050648795 -0.36044014 0.06475843
000290 10 35 90 3c 78 8c de bc a2 46 02 be 5b 48 28 bd
       0.017603427 -0.02716659 -0.12722257 -0.04108463
0002a0 93 0c c1 bd 71 a7 64 bd 55 80 0a be be 3d 0f bb
       -0.094262265 -0.055823747 -0.13525517 -0.002185687
0002b0 9c 99 dc bd c1 c6 83 bc ae 03 f1 bb 22 d9 5e bd
       -0.10771486 -0.016085984 -0.007355175 -0.054406293
0002c0 e8 a7 ae 3c 8d cd 86 bd a8 4d 58 be 2f f8 e6 bc
       0.021320298 -0.065821745 -0.21123374 -0.028194515
0002d0 ae f8 a2 3e 9d 3b a9 bc 36 99 7b 3c cb 49 70 3d
       0.31830353 -0.020658309 0.015356353 0.058664124
0002e0 5a da 85 3e 2b b2 7e 3e 2d 34 0a bd 94 b3 0c 3e
       0.26143152 0.24872653 -0.033741165 0.13740379
0002f0 ae d6 8f be 09 6c 1a be e9 6e e3 bd 8c 59 fe bb
       -0.28093475 -0.15080275 -0.11105139 -0.0077621397
000300 45 74 c3 3c 65 2c a8 bc 0d 40 24 3e a6 1f 95 3c
       0.023859153 -0.020528981 0.16040058 0.018203568
000310 5c 76 ac 3d 77 0d 1e be a5 4a 86 bc e6 a6 7d 3b
       0.08421013 -0.15434824 -0.016393015 0.0038704216
000320 55 3b 59 bb 95 c5 14 3b 4f e9 92 bc 44 0e ed bd
       -0.0033146937 0.0022700776 -0.017933516 -0.115749866
000330 14 38 7a 3b 9d 67 85 bd f7 3e 33 3b d5 37 82 bb
       0.0038180398 -0.06513903 0.0027350762 -0.003973941
000340 15 78 ac 3a 2d 87 b1 ba 85 c9 95 bb 5b 66 85 bd
       0.0013158346 -0.0013544314 -0.004571142 -0.065136634
000350 c2 0d af 3c 67 ec 93 3b d9 68 e7 bc 2e 40 3e 3b
       0.021368865 0.0045142653 -0.028248237 0.0029029953
000360 df 27 cc bc 70 6f 85 ba ff 09 3c 3b 2d 13 90 bc
       -0.024921356 -0.0010180306 0.0028692482 -0.017587269
000370 39 9c 82 bc 8f 1a ba bd 02 b7 34 bb e4 be 85 3d
       -0.015943633 -0.09087097 -0.0027574901 0.0653055
000380 b6 7b ec 3c 33 60 36 3c 3d 1f 97 bb 27 99 db 3a
       0.028867584 0.011131334 -0.004611878 0.0016754017
000390 d2 ab fd 3b 5d 07 d7 bc a4 82 2f 3e 14 a5 2c bc
       0.00774143 -0.026248628 0.17139679 -0.010537405
0003a0 a2 cb e3 bd 29 4e f3 3b ec 9b 28 3e 44 a2 d4 bd
       -0.11122824 0.007425089 0.1646573 -0.10382512
0003b0 6b 43 05 3d 11 b5 c0 bc 27 a1 7e bd fe 34 41 be
       0.032534998 -0.02352384 -0.062165406 -0.18867871
0003c0 3d 05 14 3e db 0a 07 be fd 21 d1 3d a3 ac 22 3e
       0.14455123 -0.13187735 0.10211561 0.15886168
0003d0 5d e3 31 bd 9b 77 41 3d 94 ae 86 bd 8e 76 d6 3d
       -0.04342972 0.047233205 -0.06576267 0.10471831
0003e0 ce 3f 23 be 44 01 13 be d9 2c 08 be 94 7e 18 be
       -0.15942308 -0.14355952 -0.13298358 -0.14892036
0003f0 80 00 28 3a 65 bb 1b b9 27 54 64 bb 97 f3 98 3b
       0.0006408766 -0.00014851762 -0.0034840198 0.00466771

bias f4 [256]
000000 3a 7d 35 3e 44 07 1a bd 1e 78 71 bd ba bc 6d 3d
       0.17723551 -0.037604585 -0.058952443 0.05804131
000010 2f 27 81 be 68 c1 59 3d f8 83 8c be 77 3f 23 3c
       -0.25225207 0.053162962 -0.27444434 0.009963862
000020 0c ff 35 3d fa 78 18 be bb db eb bc f8 4c a3 3d
       0.044432685 -0.14889899 -0.0287913 0.07973665
000030 c8 30 88 be d9 06 62 be ec 62 96 bc 08 c7 8e be
       -0.26599717 -0.22072925 -0.018357717 -0.27886224
000040 25 0c 8a 3d 2c 2a 0c 3e a7 20 0a bd b4 f1 e2 bd
       0.06740598 0.13687962 -0.033722546 -0.110812575
000050 10 42 08 3c 9f c8 46 bd 70 c5 d0 3d 52 39 e8 bc
       0.008316532 -0.04853117 0.10193908 -0.028347645
000060 25 37 a3 bd 13 68 98 be 8b f4 a5 bd 7e 6a f1 bc
       -0.07969502 -0.29766902 -0.081032835 -0.029469725
000070 70 89 93 bd 40 d4 02 3e 0c 84 0f 3e a8 65 8a be
       -0.072039485 0.1277628 0.14015216 -0.27030683
000080 c7 fd a5 bd 55 6c 23 be f6 d8 ba be 0b 4a 3d be
       -0.08105045 -0.15959294 -0.36493653 -0.18485276
000090 47 b0 5e be b4 ff cc bd 08 4b 49 be 68 5a 6c be
       -0.21746932 -0.10009709 -0.19657528 -0.23081362
0000a0 cc 0f d4 be 2d 90 85 3d f8 94 ec bd 08 62 73 be
       -0.41418302 0.0652164 -0.11551851 -0.23767865
0000b0 fd 09 81 3d 0f fe c4 3d a1 00 1b 3e 8d ed 83 be
       0.06300733 0.0961877 0.15136959 -0.25767174
0000c0 bc b6 43 3d 6c 38 58 bd 8c 38 8b be 1c 56 1d be
       0.04778169 -0.052788183 -0.2719158 -0.1536488
0000d0 64 44 28 be 1c 2f 2b bc 19 5a bb bd 66 a2 82 3c
       -0.16432339 -0.0104482435 -0.09148044 0.015946578
0000e0 92 2f 0a be 3d ee 74 bd 1b 99 fb bc 4e c8 93 bc
       -0.13494709 -0.059797514 -0.030712655 -0.018039849
0000f0 aa f6 b2 3b ba b8 84 be 26 29 87 be dd 69 f5 3c
       0.0054615336 -0.25922185 -0.2639858 0.029957706
000100 fc b1 bd 3c c3 1b 6a be fa 7d 49 be a1 86 06 be
       0.023156159 -0.22862153 -0.19676962 -0.13137294
000110 75 82 02 be 17 46 b3 3d b2 2b 1d be c8 c8 55 bc
       -0.12745078 0.08753603 -0.153487 -0.013048358
000120 1d 77 4b 3d 96 c2 91 be f8 06 6d 3d fe 69 6f be
       0.049674142 -0.2846877 0.057867974 -0.23380277
000130 75 92 c6 bd 6f 19 a8 3a 2b d7 cf bd 14 30 0a 3d
       -0.09695903 0.0012824963 -0.10148462 0.033737257
000140 32 49 1c be 01 3e da 3d 47 13 ba bd 3c da ed bd
       -0.15262297 0.106563576 -0.09085708 -0.116138905
000150 d4 46 2b be f5 76 cb 3d 1b 36 f4 3b d4 d1 98 3d
       -0.16726238 0.09934799 0.007452739 0.074618965
000160 f3 fd 3e bd fe 42 6d be 0f f7 5e bd 87 a7 5a bd
       -0.046628904 -0.23170087 -0.054434832 -0.053382423
000170 12 47 bf bd b8 f0 78 be aa 3d 53 be 5f 42 ac 3d
       -0.093397275 -0.24310577 -0.20628992 0.08411097
000180 ad 8a 1a 3e ea 19 17 3d 12 23 46 3e e7 e0 47 be
       0.15091963 0.036889948 0.19349316 -0.19519387
000190 a0 ad 8a be 88 e5 a3 3d 42 aa 0f 3c 60 95 61 be
       -0.2708559 0.08002764 0.00876862 -0.22029638
0001a0 43 5b 7c 3d 74 d2 f9 bd 1a e2 63 3e 4a 89 b2 3d
       0.06161047 -0.12198344 0.2225422 0.08717592
0001b0 ea c4 43 3d a0 f7 11 be 00 e2 93 3d 28 ee 8e be
       0.047795214 -0.14254618 0.072208405 -0.27916074
0001c0 cb e5 0c be 77 35 7c bd 66 94 9a 3d 0b 8f 33 be
       -0.13759534 -0.061574426 0.07547836 -0.17535035
0001d0 c9 94 d0 3d 7d 80 4c be 16 17 87 3c cb 84 8f bd
       0.101846285 -0.1997089 0.0164905 -0.0700775
0001e0 17 c9 c0 bd 6d 91 3d be 3c 84 c6 bd fc 6b c2 3c
       -0.09413355 -0.18512507 -0.096931905 0.023733132
0001f0 da 34 b1 bd 34 64 ea bb 77 34 0b be d6 e8 33 be
       -0.08652659 -0.0071530584 -0.13594232 -0.17569289
000200 01 36 a3 3d e4 90 97 bd 2a 15 3b 3e dd ff 83 3d
       0.07969285 -0.074006826 0.18269792 0.064452864
000210 37 00 aa bc 7b 78 47 bd 86 04 33 be a3 27 d7 3d
       -0.020752056 -0.048698884 -0.17482194 0.10505607
000220 56 4b 21 bd b7 2d f8 bc 3f ea 38 bd 5c b0 20 be
       -0.039378487 -0.030295236 -0.04514527 -0.15692276
000230 6d 7c 58 be 21 e6 3e 3d 4a ca 2e be 4c 37 09 be
       -0.21141215 0.046606187 -0.17069355 -0.134
000240 51 26 16 be f6 98 7c bc c3 1c 0a be ab d3 a9 bd
       -0.14663054 -0.015417328 -0.13487534 -0.082923256
000250 64 40 de bc d4 af 88 be 5b cd b1 3c a0 35 ef bd
       -0.027130313 -0.26696646 0.021704366 -0.1168015
000260 de b8 2f be e8 44 84 be 35 f4 42 be cd cc 2e be
       -0.17160365 -0.2583382 -0.1903847 -0.17070313
000270 3b 80 4a bb 84 64 fb bd af 8c fa 3d 98 8a e4 bc
       -0.0030899185 -0.12275031 0.122338645 -0.027898118
000280 76 36 35 bd be fe 42 be 38 da 09 be 08 0e cb 3d
       -0.04424139 -0.19042489 -0.1346215 0.099147856
000290 d3 b4 34 be fa 24 e3 bd 27 bc 0b 3d 48 20 23 bc
       -0.17647104 -0.11091037 0.034114983 -0.009956427
0002a0 33 53 a3 bd e6 17 d5 3a be 1d be bd b7 1f b0 be
       -0.07974853 0.0016257733 -0.092830166 -0.34399197
0002b0 5c 3c f1 bd 53 34 92 be d3 ec 9f be 98 c7 cd 3c
       -0.11779091 -0.28555545 -0.3123537 0.025119588
0002c0 47 39 01 be 7c 3e c4 3d 1b cb 42 be 9f 08 56 bd
       -0.12619506 0.095822304 -0.19022791 -0.052254315
0002d0 bc 43 08 3e 05 fe c0 be 20 64 9a bc b8 e1 b4 be
       0.13307089 -0.37693802 -0.018846571 -0.3532846
0002e0 ac 7f be 3d 10 5e 4b be 60 92 10 3e d5 ff 05 be
       0.09301695 -0.19860101 0.14118338 -0.13085873
0002f0 ad 97 bf 3d 95 28 42 be 89 1f 82 be e6 bd 93 bd
       0.09355102 -0.18960793 -0.25414684 -0.07213955
000300 ab 66 00 bc d5 05 e1 bd 9a 05 aa 3d 6e 33 bf bd
       -0.007836978 -0.109874405 0.0830185 -0.09335981
000310 18 d4 07 3e fe ca 43 be 2a 32 64 3d 87 7a 98 3c
       0.13264501 -0.19120404 0.055711903 0.018613113
000320 8f 63 87 bd 5e 28 01 bd bc 99 f9 bd 2b 8c 45 3d
       -0.06610786 -0.031532638 -0.12187526 0.048229378
000330 06 a6 89 bd 73 dd 73 3d 61 d3 9d be fe c7 8d bd
       -0.067211196 0.059537362 -0.30825332 -0.06922911
000340 8d e6 1b be 1f 22 6b be 42 0f f5 bd 3c b4 2f 3d
       -0.15224667 -0.22962235 -0.11965801 0.042896494
000350 9c 15 1b 3d 75 de 4a 3d ee bc 17 bd 1e b2 85 be
       0.037862405 0.049528558 -0.03704541 -0.26112455
000360 65 32 65 bc ea 0b dd bc 75 9b 3e be 21 72 8e be
       -0.013989066 -0.02698322 -0.1861399 -0.27821448
000370 29 b8 4d 3e 98 8a 34 3d 24 16 92 3d 77 33 e8 bd
       0.20089783 0.044077486 0.07133129 -0.11337941
000380 1c de 46 be ef 67 61 be 28 a1 21 3d c2 fb 0c bd
       -0.19420666 -0.22012304 0.03946033 -0.034419782
000390 2b a4 08 be 2d 19 cd 3c f9 65 9b 3d 0a 73 cb 3c
       -0.13343875 0.025036419 0.07587809 0.024835128
0003a0 31 d1 ac bd 85 ae 11 bd 3e 77 ff 3d 54 f4 d0 3d
       -0.084383376 -0.035566825 0.124739155 0.10202852
0003b0 92 df bc bb b9 64 0d 3e 03 ee 0b 3d 9a b1 25 be
       -0.0057639563 0.13807954 0.034162533 -0.16181031
0003c0 07 df f3 bc 73 21 83 be 24 aa 34 be e7 a7 cc 3d
       -0.029769434 -0.25611457 -0.17643028 0.09992962
0003d0 79 c2 9f 3d 51 e3 71 be 3b 2e 4d 3c 57 2f 80 bd
       0.078007646 -0.2362187 0.012523229 -0.06259029
0003e0 79 24 1d be c3 38 80 be 66 aa 21 be c6 75 88 be
       -0.15345944 -0.25043306 -0.15787658 -0.26652354
0003f0 6a 92 2a be 39 af d9 bd 7b 48 f2 bc 34 87 0e be
       -0.16657415 -0.10629124 -0.029575577 -0.13918763

weight f4 [1, 256]
000000 0d ec 88 bc d2 08 ce bc b8 c3 bf bb 00 5c 63 3d
       -0.01671412 -0.02515069 -0.005852189 0.05550766
000010 95 03 14 bc 2f f2 d6 39 fc b3 00 bc 19 ae 37 ba
       -0.009034057 0.00040997702 -0.007855412 -0.00070068386
000020 68 a2 43 bb a6 08 11 3c 5f 2e 63 bd c8 0f 96 39
       -0.002985144 0.00885216 -0.055464145 0.00028621987
000030 14 bf 40 b7 fb cd 67 bc 22 8e b2 3a 5c 76 02 3c
       -1.1488581e-05 -0.014148231 0.0013622681 0.007962789
000040 cd 62 b6 bc f7 ae 88 bb da 18 ab ba 2f ec 89 ba
       -0.022263909 -0.004171248 -0.0013053671 -0.0010522659
000050 07 87 3f 3c 17 93 c9 bc 33 f3 a5 ba 1f e1 b1 3a
       0.011689908 -0.02460627 -0.001266098 0.001357112
000060 ff 1d 7b bc 5e 3f 95 3a 3c 5a 13 bb 1a 59 5f 3c
       -0.015326976 0.0011386683 -0.0022484204 0.013632083
000070 35 43 f5 3c 11 cc 9d 3c b3 1b 47 3c 40 a1 30 3d
       0.029939273 0.019262346 0.0121526 0.04312253
000080 4e b6 76 bb 1a 01 b6 3a 70 75 bc 3a bf 88 bb 3c
       -0.0037645283 0.0013885826 0.0014378261 0.022892354
000090 a1 4f e2 ba 47 cf 38 bb ff f6 0d 3a 22 6d 99 3b
       -0.0017266163 -0.0028199719 0.00054155284 0.004682199
0000a0 ad f7 73 bb 1a 2d b9 3d 31 c4 b9 3a fb b0 ac 3b
       -0.0037226484 0.090418056 0.001417285 0.005270121
0000b0 d1 34 81 3a ad e8 64 3c 28 76 de bc bc 27 e5 3c
       0.000985766 0.01397149 -0.02715595 0.027973048
0000c0 f4 a7 9a 39 c8 a8 64 3a c0 68 ac 3d ea ae 84 39
       0.00029498304 0.000872266 0.08418417 0.00025307323
0000d0 7f e7 08 3c c3 20 a8 bb 15 24 a3 3d dc 92 01 bd
       0.008355974 -0.0051308586 0.079658665 -0.031634197
0000e0 5d ac 12 ba 0f 60 a5 ba 3a b6 dc b8 05 cd ba bb
       -0.0005595142 -0.0012617129 -0.0001052436 -0.0057007098
0000f0 82 7b ca 38 4b 3b 0f bd 75 61 b3 3d 0f 67 7e bc
       9.655116e-05 -0.034968656 0.08758823 -0.015527501
000100 7f 89 eb 39 6f 16 59 ba 12 6e b6 bb 65 8b 8c 3b
       0.00044925135 -0.0008281236 -0.0055673206 0.004289078
000110 84 12 46 bb 85 b2 73 3d 0a a5 9c 3b 84 9c 89 ba
       -0.0030223439 0.05949642 0.0047804164 -0.0010498916
000120 9a 08 74 3d f1 4b bb bb 4a 15 f8 ba c8 15 04 bc
       0.059578516 -0.00571584 -0.0018927243 -0.008061834
000130 7c 1a 29 bd 7f ee 67 3c e4 a6 46 bd f1 45 17 3b
       -0.041285023 0.014155983 -0.048499003 0.002308246
000140 4e 52 2a 3c b5 2b d6 bb fd 62 34 bb 76 ef e0 b9
       0.0103955995 -0.006535972 -0.0027524822 -0.00042903022
000150 81 93 ac 3d 46 4a 36 3d a6 a7 0e bd 83 16 07 be
       0.08426572 0.044504426 -0.03482785 -0.13192181
000160 b9 ad 9d bc ba bb 62 3d 45 63 88 3b 0b 16 77 3c
       -0.019247876 0.05535481 0.0041622245 0.015080939
000170 46 d5 d2 bd b4 13 ba bc 4f 88 6a 3d ac 98 4f bc
       -0.10294585 -0.022714473 0.0572589 -0.012670677
000180 5e d9 13 bb c2 f0 f3 3d 0c a4 7b 3b 17 58 12 3b
       -0.002255998 0.11911155 0.003839734 0.0022330338
000190 2c 0a 72 3d 9a 6d 2b bd 57 b0 23 3d 6d d1 1e 3c
       0.059091732 -0.04185257 0.039963093 0.009693486
0001a0 31 b1 78 3b 20 b3 92 bc 8c b9 fe bc 14 a0 aa ba
       0.0037947411 -0.01790768 -0.031094335 -0.0013017678
0001b0 96 46 d7 3a 18 09 83 bd 87 9e 41 bb 19 93 d1 3d
       0.0016424234 -0.06398219 -0.0029543953 0.10233135
0001c0 26 00 80 bc 33 30 7d 3a e7 e6 c9 ba 1f fd 30 3d
       -0.01562507 0.00096583663 -0.0015403897 0.043210145
0001d0 90 a0 8e 39 7a ea fc bc 7b 87 d5 bc 77 e1 37 bb
       0.0002720398 -0.030873526 -0.026065579 -0.0028057972
0001e0 53 03 40 bd 73 e5 d0 3b 68 09 c2 3a 08 13 53 bd
       -0.04687817 0.0063750087 0.0014803829 -0.05153182
0001f0 24 9d 89 3d 9f d3 fa 3b fc 69 a0 3a b2 34 cc 3d
       0.06719425 0.0076546217 0.0012238617 0.09970988
000200 59 4c 4f bd 49 d9 c6 3a 3e cd 80 bd f7 d5 d9 3d
       -0.05060992 0.0015170957 -0.06289147 0.10636514
000210 70 29 1d 3c ba 0b 9c b8 9c 69 02 3b dc 07 9c ba
       0.009592399 -7.440844e-05 0.0019899374 -0.0011904198
000220 93 85 29 3a 45 cc 5b 3d 97 02 b7 3b 60 86 ef 3c
       0.00064667425 0.053661603 0.0055850255 0.02923888
000230 8e df ca ba 53 a8 38 bc 51 2c 59 3c a5 bb 95 bc
       -0.0015478001 -0.0112706 0.013255195 -0.018277952
000240 c3 d6 57 bb aa 3c 63 3c a4 e3 8e b9 26 3c 7d bb
       -0.0032934404 0.013869444 -0.00027253956 -0.0038640588
000250 f2 5c 77 bd 97 6c 15 bb 16 20 4c 3c 06 43 19 bb
       -0.060391374 -0.002280032 0.012458822 -0.0023385896
000260 1d 8a b8 bc 54 af 7d ba 52 42 2d bc c2 8b a5 3c
       -0.022526795 -0.000967731 -0.010574894 0.020208243
000270 91 a3 22 3d 1c cb 6a bb 42 a8 cd bc dc db 25 bd
       0.03970677 -0.003582663 -0.025104646 -0.040492877
000280 dc e8 a2 bd 96 d0 82 bd 65 6a 37 3d cd 3e f2 3a
       -0.07954571 -0.06387441 0.0447792 0.0018481851
000290 e4 5a 27 3b b3 71 5d bb 36 a1 1f bc 47 10 1a bb
       0.0025536353 -0.0033789694 -0.0097430255 -0.0023508237
0002a0 23 99 97 bb 50 96 a2 ba 4d 86 c6 3a 85 76 ec bc
       -0.0046264096 -0.0012404416 0.0015146226 -0.028865108
0002b0 44 28 6e ba a1 0a 8c b9 e4 21 d1 3d 99 c0 ad 3c
       -0.00090849795 -0.000267108 0.10211542 0.021210002
0002c0 ce 79 30 bc c5 62 f6 ba ae 49 9f bc 68 30 d1 bd
       -0.010771228 -0.0018797746 -0.019444313 -0.10214311
0002d0 ef 9a 8c 3c f6 dd 89 3c 93 e7 01 3e 78 d1 82 3d
       0.017163722 0.016829472 0.12685995 0.06387609
0002e0 fa c9 6b 3a 67 6b 24 bd 89 f7 42 ba 65 22 42 bc
       0.00089946354 -0.04014149 -0.00074373983 -0.011849021
0002f0 02 3b 02 bb 2c 37 3d 38 98 48 de ba 5c c2 e2 3b
       -0.0019871597 4.5112494e-05 -0.001695889 0.006920142
000300 ff 14 37 3d 80 6a fe bb 27 b0 82 3d 17 72 b7 bb
       0.044697758 -0.0077641606 0.06381255 -0.0055983174
000310 8a dc ae 3b 64 75 8a bc 35 4d 3b 3b 2f 7c 85 bc
       0.005336349 -0.01690168 0.0028579955 -0.016294567
000320 70 5f c0 ba 08 f1 4f 3a a0 13 af 3c de 1c e5 ba
       -0.001467688 0.000793234 0.021371663 -0.0017479917
000330 6c c2 37 bd ac a7 b6 3c d4 d4 6f 3b e3 dc 0f bb
       -0.04486315 0.022296749 0.0036595361 -0.0021951727
000340 a2 9c c5 39 06 85 df bb cc af 54 3c 62 a5 a7 3c
       0.0003769147 -0.0068212776 0.012981366 0.020464603
000350 8b cb 69 3d e1 31 b4 bc 44 69 87 3d a9 ff c1 bb
       0.05707888 -0.02199644 0.06611875 -0.0059203696
000360 69 ce 65 3c 44 5c 83 bd 76 86 26 bd 81 4a da 3b
       0.014026263 -0.06414083 -0.040655576 0.0066617136
000370 68 5f 2b bd f5 7c 9a bc b3 c3 e7 bc 1f eb 15 bd
       -0.041839033 -0.018858412 -0.028291559 -0.036601182
000380 b7 b7 35 3c 36 d2 b8 3b 2e 99 45 ba 1a 3d 23 39
       0.011091164 0.0056402935 -0.0007537779 0.00015567653
000390 b7 75 c4 bb e6 d6 dd 3a cf a9 1a be c1 a0 b6 39
       -0.005995478 0.0016925007 -0.1510384 0.00034833516
0003a0 19 aa 10 3c 90 0a 7f ba 78 b8 1e bc 47 1d fd b9
       0.008829617 -0.0009729052 -0.009687535 -0.00048277734
0003b0 b1 d2 87 ba 21 9e 79 ba f9 3e 2d 3c 71 61 ee bd
       -0.0010362474 -0.0009522159 0.010574096 -0.11639679
0003c0 66 f3 89 ba 42 56 6b bd c0 9f 59 3c 78 13 ff ba
       -0.0010524809 -0.05745531 0.013282716 -0.0019460758
0003d0 c5 f3 60 3a 54 64 3c 3c 23 53 fa 3a c0 1d dd 3d
       0.00085812464 0.011498529 0.0019098263 0.1079669
0003e0 32 8b 49 bd b4 cc 20 3c 40 46 60 39 51 d6 7a bb
       -0.049205013 0.00981443 0.00021388475 -0.0038274715
0003f0 c4 02 47 3b e3 05 87 bc e3 37 a1 bc c4 43 52 3b
       0.0030366639 -0.0164823 -0.01967997 0.0032083848

weight f4 [256, 1]
000000 55 f9 e7 3e 92 74 90 bc 9b d8 f5 3e d7 7e 38 3f
       0.45307413 -0.01763371 0.4801682 0.7206854
000010 83 0a 53 3f 16 2f d1 bc 59 c3 05 3f 66 4f 89 3d
       0.82437915 -0.025535148 0.522512 0.06704597
000020 4a 8c 76 bf 5f 67 41 be 21 76 4f 3e b4 8d 6c bf
       -0.96307814 -0.18887089 0.20259906 -0.9240372
000030 ca 40 0f bd bc 1f 88 bf ea 15 34 bf 19 f5 00 3f
       -0.034973897 -1.0634685 -0.7034594 0.5037399
000040 3e bc c6 3e 80 e2 d6 3d 2e a3 3f bf 18 62 9a be
       0.38815492 0.1049242 -0.7485837 -0.30152965
000050 64 a3 66 bf 2c 7c e7 be 0b 4b 23 3d 69 61 22 3e
       -0.90093064 -0.45211923 0.03986649 0.15857472
000060 8d 5c db 3e 2c 0d 85 bf b4 60 0a 3e 9e ad 10 be
       0.42844048 -1.0394645 0.13513452 -0.1412873
000070 25 af 75 bf bd 6e 3f 3f 46 3d 05 bf cc 1d 42 be
       -0.95970374 0.7477835 -0.5204662 -0.18956679
000080 c0 25 45 bd e6 d2 6d bc 03 e9 90 bd 2f 16 09 3e
       -0.048131704 -0.014515614 -0.070756935 0.13387369
000090 64 67 12 bf ac 11 44 3e 6a 08 15 bd 5f b7 46 bd
       -0.5718901 0.19147366 -0.036384977 -0.04851472
0000a0 bc d1 04 3f 4a 4a 39 bf 63 c3 01 bd b1 04 0b 3e
       0.5188253 -0.7237898 -0.031680476 0.13576008
0000b0 c4 27 49 bf 20 bb 9a 3d 68 de 9b 3e 05 8f 31 3e
       -0.785763 0.075552225 0.3044312 0.17339714
0000c0 f8 91 d2 bf ec 76 26 bf 5b 71 87 be 2e a0 28 bf
       -1.6450796 -0.6502521 -0.2645367 -0.65869415
0000d0 2c 68 23 3f 68 0e de be 60 1d f9 bd f1 41 e3 3e
       0.6383083 -0.43370366 -0.12163806 0.44386247
0000e0 ae a8 8e 3e 90 04 fe be 90 f8 89 3d 04 a6 2a bf
       0.27863067 -0.49612856 0.06736863 -0.6665957
0000f0 15 b9 05 bd 9d 02 b5 bd fa 48 4e be a0 66 c6 3e
       -0.03264721 -0.08838389 -0.20145026 0.38750172
000100 d0 35 b9 be 94 9a 0d 3e b8 97 cf 3e cb 27 56 3e
       -0.36173868 0.13828498 0.4054544 0.20913617
000110 0b ee 45 3e 2b 9e 0c 3f e1 78 7d 3e 8e 84 08 bf
       0.19329087 0.54928845 0.24753143 -0.5332726
000120 05 41 7f bf 2f 79 d8 3d 3c fd 09 3e b0 b1 54 bf
       -0.99708587 0.10569989 0.13475507 -0.8308363
000130 b3 d0 52 be 2a fd 6b 3e 01 4a a8 3d 30 05 7a be
       -0.20587425 0.23045793 0.0821724 -0.24416041
000140 12 6c f5 bd 00 9d 75 3c b7 5b d3 3e 85 c0 fc bb
       -0.119835034 0.014991045 0.4128091 -0.00771338
000150 49 63 b4 3e 51 d8 47 3f 6b 76 1d 3f ad 89 a1 bf
       0.35232 0.7806445 0.61508816 -1.262014
000160 ee 81 e3 bc aa 0e d9 3e 40 0b 23 3d 0c 53 58 3f
       -0.027771916 0.42394 0.03980565 0.8450172
000170 78 eb 35 bf eb 5f 5b 3f 4d a0 6b be 92 82 51 be
       -0.7106242 0.85693234 -0.23010369 -0.20459965
000180 40 ea c4 be 04 a2 cf 3e 95 ec 85 3c 12 60 40 be
       -0.3845997 0.40553296 0.016348163 -0.18786648
000190 aa d5 1e bf 8d 13 02 3f 5c d0 2d 3f f7 92 80 bf
       -0.62044775 0.5081108 0.67896056 -1.004485
0001a0 66 56 ea 3e 6c 0e 3a 3e 40 5b 7c 3e c4 57 5a bf
       0.45769042 0.18169564 0.24644184 -0.8529017
0001b0 6b e3 1b bd 31 d0 b6 3e 10 66 a9 3e da e6 cb bf
       -0.03805868 0.35705712 0.3308568 -1.5929825
0001c0 56 74 02 3f a6 46 07 3d 3c dc 1a bf 36 0b 41 bf
       0.50958765 0.03302636 -0.604923 -0.7540773
0001d0 92 a0 ec be c0 33 0e 3f ad 7a 4a 3e 36 eb 7a 3d
       -0.46216255 0.55547714 0.1977336 0.06125947
0001e0 43 ed 3a 3f 27 be 62 3d cb b8 2c bd d8 14 9c bf
       0.7301828 0.055357125 -0.04216842 -1.2193861
0001f0 00 da 5f bf 2e 5d cf 3d d9 02 f1 be c7 a8 e4 3e
       -0.87442017 0.101251945 -0.47072485 0.44660017
000200 6b 5f fd 3d 50 fd 10 bf 00 02 d8 3c a5 a9 c4 3e
       0.12371715 -0.56636524 0.026368141 0.38410679
000210 39 56 96 bd b0 93 18 be ca 81 e6 bd c8 e3 38 be
       -0.073406644 -0.14900088 -0.11255224 -0.18055642
000220 0a 69 7b bf 82 c4 5e 3f 62 74 2a bf bc 69 29 3d
       -0.9820715 0.870186 -0.66583836 0.0413606
000230 e4 47 4b bc 15 3c 3e 3e 00 aa 55 bc 94 f9 56 3f
       -0.012407277 0.18577607 -0.013041019 0.83974576
000240 ea d8 f7 3d ba e5 4b 3e c0 c4 ee bc f3 e7 85 3e
       0.1210192 0.19911852 -0.029146552 0.26153526
000250 5f 98 86 3e f7 56 f5 3e 30 bb 4c 3e 63 5e d4 3d
       0.26288125 0.4791791 0.19993281 0.10369565
000260 ad 08 32 3f d8 2d 0c be c2 7a ca 3d 9a 1f 70 bf
       0.6954449 -0.13689363 0.098866954 -0.9379822
000270 0d 98 c9 3e 4e ea a8 3e 97 f5 df 3e 20 d9 39 3f
       0.39373818 0.3299126 0.43742058 0.7259693
000280 7c eb fd 3e c2 02 34 be 3f e9 ce 3e 50 9b 59 bd
       0.49593723 -0.17579177 0.40412328 -0.053126633
000290 98 61 53 bf 38 af 56 be 5d 5e e2 3e 09 7d 6c bc
       -0.8257079 -0.20965278 0.44212618 -0.014434108
0002a0 80 ad 2d 3f 10 2b f3 bd f1 2b 4d bd ca 19 00 3f
       0.67842865 -0.11873448 -0.050090734 0.5003935
0002b0 ae 1a 8b bc 5b 2b fa bc a5 72 30 3f 39 7b 14 be
       -0.016980495 -0.030538252 0.68924934 -0.1450013
0002c0 27 87 94 3e 80 33 2d 3c c7 3b 6f 3f 19 eb 2b 3f
       0.29009363 0.010571361 0.9345059 0.67155606
0002d0 dc b1 12 bf 74 8f 7f bf 60 97 8b be 66 8f 71 be
       -0.5730264 -0.9982827 -0.27263927 -0.23589858
0002e0 aa f4 53 bf 09 06 76 be 14 68 13 bf 56 67 76 3e
       -0.827952 -0.2402574 -0.57580686 0.24062857
0002f0 78 2d 28 be 9b a0 06 bd 0a 4f 48 3d 3a 62 bc 3a
       -0.16423595 -0.03286801 0.048903503 0.0014372536
000300 45 5c bc 3e 84 01 e7 be d1 fc c3 3e a7 51 9b 3e
       0.36789146 -0.45118344 0.3827882 0.30335733
000310 84 5a b1 be e4 a3 c2 be 9c 39 a3 bf 0e 45 8b 3e
       -0.3463937 -0.38015664 -1.2751956 0.27201122
000320 58 1d 64 bf 30 9c 1c bf 3e 8c 03 be d2 52 3b bf
       -0.89107275 -0.61175823 -0.12846467 -0.7317325
000330 40 62 67 be d9 e3 00 3f b0 91 ef bb eb 56 ff 3c
       -0.22596073 0.5034767 -0.0073110685 0.031169375
000340 72 02 2a 3f 48 d7 0a 3e bc f8 72 3e 46 c2 2a bf
       0.6640998 0.13558686 0.23727697 -0.6670269
000350 fc 86 a7 3e e1 69 05 3f d0 ce 9d 3e 51 1a 76 3e
       0.32720172 0.52114683 0.30821848 0.24033476
000360 1b 37 6e bf 04 20 0a 3f dc 33 0f 3f c0 20 7c bb
       -0.93052834 0.539551 0.55938506 -0.003847167
000370 12 cc 58 bf 2a db 5e be 21 33 9d 3e 82 b9 56 3f
       -0.84686387 -0.21763292 0.3070307 0.8387681
000380 02 e5 49 3f e5 78 9f 3e 24 1a 76 bf c3 15 8a bf
       0.78865063 0.31146923 -0.9613364 -1.0787891
000390 20 9b 6a bd bb 40 3b bd 28 b7 ff 3e ac 6a 8f bc
       -0.057276845 -0.04571603 0.49944425 -0.01750692
0003a0 a6 23 3f 3d 6c 3c b4 be 45 66 68 3f f4 05 ac be
       0.046664856 -0.35202348 0.9078105 -0.33598292
0003b0 b9 72 bb be 92 e7 10 bf ed cc 40 3f 41 c8 52 3f
       -0.36610964 -0.5660335 0.7531269 0.82336813
0003c0 df 1d 6b 39 3c a6 0a 3f e6 1a 5a 3e 18 67 8a be
       0.00022422474 0.54159904 0.21299323 -0.2703178
0003d0 c8 c5 19 be 38 fd 68 bf dd cc d9 3e 4e ab 73 bf
       -0.15016854 -0.9101138 0.4253911 -0.95183265
0003e0 2b 40 dc 3e 7e a6 b3 bf 40 f7 56 bf 39 67 e0 3e
       0.43017706 -1.4035184 -0.83971024 0.43828753
0003f0 f4 72 33 bf fb 00 49 3f bc 76 54 3e 70 18 98 bd
       -0.7009728 0.7851712 0.20748419 -0.07426536

bias f4 [256]
000000 2b 48 b4 bf 9e 38 78 ba bc 2e e2 be 06 d0 dc 3c
       -1.4084524 -0.0009468886 -0.4417628 0.026954662
000010 56 ac eb 3e f3 26 c9 3d b7 5c e0 3e a3 3e af 3e
       0.4602992 0.09821882 0.43820736 0.34227476
000020 30 82 4c bf 1f db 19 3e 07 d8 6d bc c4 d8 c3 be
       -0.7988615 0.15024994 -0.014516837 -0.38251317
000030 3d 14 91 3e 9d 63 c7 3e 60 09 0e bf ec b7 23 3f
       0.28335753 0.38943186 -0.55483055 0.6395252
000040 49 3f cb bf 24 60 77 bf 82 af 44 bf 1a 0f 0f bf
       -1.5878688 -0.96631074 -0.76830304 -0.5588242
000050 76 30 7e bf 5c dc 83 be b0 76 be bd ac 07 3a bf
       -0.99292696 -0.25754058 -0.092999816 -0.72667956
000060 6c 2e a0 bf cc 3f f3 3d 91 e0 2a 3d ab dc 25 3f
       -1.2514167 0.11877403 0.04171807 0.6478984
000070 4e 0f d7 3e a8 e8 2b bf 8e 87 5b bf 3e 2f 99 3e
       0.42003864 -0.6715188 -0.85753715 0.29918855
000080 8c de 00 bf a3 89 ad 3e c0 8b 0b 3f 80 f1 11 3f
       -0.5033958 0.3389407 0.54510117 0.57009125
000090 c2 50 0e bf f9 a9 bc 3e 33 ea 88 3e 56 5f 74 3e
       -0.55591977 0.3684843 0.2674118 0.23864493
0000a0 b8 1f f5 3e 2e 13 53 bf d1 b1 e5 3c 36 c2 aa 3d
       0.47875762 -0.8245114 0.028038891 0.08337824
0000b0 2a 9d a4 ba 0c a2 77 bf b1 c0 a1 bf 60 7c f9 3e
       -0.0012559046 -0.9673164 -1.263693 0.48727703
0000c0 5a a1 b4 3d 80 db 65 bf 02 5e 81 3f b8 f7 97 ba
       0.08819838 -0.89788055 1.0106814 -0.0011594212
0000d0 22 69 ef 3e d8 01 47 bf 50 03 0e bf 9c 8e ec bf
       0.46759897 -0.7773719 -0.55473804 -1.8481021
0000e0 42 3b 80 bf 12 54 64 bf a2 91 1a bf 50 a7 01 bf
       -1.0018084 -0.8919078 -0.6037847 -0.50645924
0000f0 ca 8b 37 3e dc a5 9b 3e 85 5c 50 3f 0c 36 89 be
       0.17924419 0.30399978 0.81391174 -0.26799047
000100 b6 ca 20 bf 4b 03 23 3f 16 08 9a bf c0 c4 ea 3e
       -0.6280931 0.636769 -1.2033718 0.45853233
000110 af bb 32 bf 4e e6 5b 3f a5 b0 60 3e 10 b1 9e be
       -0.6981763 0.8589829 0.21942385 -0.30994463
000120 af d4 ec 3e 54 eb 94 3e 60 44 98 3d e8 d1 12 bf
       0.46256015 0.2908579 0.074349165 -0.5735154
000130 32 99 47 3f 6b 8b 7a bf 13 d6 a4 3e e3 f7 ad 3d
       0.7796813 -0.97868985 0.32194576 0.08494546
000140 fa 2e 21 3f 70 19 36 be 9d d2 49 bf a5 28 c8 3c
       0.62962306 -0.17783141 -0.78836995 0.024433443
000150 cd e4 a4 3e 63 2a 7d bf ba 25 92 bd 37 21 0a 3f
       0.3220581 -0.988928 -0.07136102 0.5395693
000160 39 4d 7e 3e 13 6e d5 bf a8 24 3b bf 24 55 c2 3d
       0.24834146 -1.6674217 -0.7310281 0.094888955
000170 d0 9e a4 3e 7a 73 2a bf 85 2d 6a 3f 46 20 4d 3f
       0.32152414 -0.66582453 0.9147571 0.8012737
000180 c4 0f 15 3f 21 ec da bf 57 3c 1b 3d 1c d9 28 3f
       0.5822718 -1.7103311 0.03789934 0.6595628
000190 f0 e6 1d bf 79 81 42 bc b2 97 9d bf 1c 78 cd 3e
       -0.6168051 -0.011871689 -1.2311919 0.401307
0001a0 b5 67 80 bf 6c a0 40 3c 2f a7 ae bf 7e 0b 5d bf
       -1.0031649 0.011756998 -1.364477 -0.8634566
0001b0 93 69 eb 3c cd 03 b7 bf ff 0d 55 bf 14 f6 55 3f
       0.028736865 -1.4298035 -0.8322448 0.8357861
0001c0 7f 32 b0 be 32 13 2e 3f 4a eb 3c bf e8 a0 a2 be
       -0.34413525 0.6799804 -0.7379652 -0.31763387
0001d0 b3 3a 05 ba 68 5b 41 be 24 a4 49 3e 58 d2 9e 3d
       -0.0005082294 -0.18882525 0.19691521 0.07754964
0001e0 13 f3 5a bb 36 fb c1 3e d2 91 09 3e 34 3f 0a 3f
       -0.0033409044 0.3788697 0.13434532 0.5400269
0001f0 c6 a4 05 bf 21 91 4c 3f 20 d7 1d 3e a8 34 59 3f
       -0.5220455 0.7990895 0.15414095 0.8484597
000200 fc 3b 2c bf 82 3f 1f bf 0a 18 31 bf 86 70 cc bf
       -0.6727903 -0.6220628 -0.69177306 -1.597184
000210 9c e9 21 3f 10 44 ec be c1 ca 8f 3e c0 3f 04 bf
       0.63247085 -0.46145678 0.28084376 -0.51659775
000220 28 66 8e be 0b c4 70 bf 7c fa a2 3e 95 c5 2d 3f
       -0.27812314 -0.9404914 0.3183173 0.6787961
000230 f3 b0 85 3e e3 74 9c bc 10 d2 4e be 76 7b 6d bf
       0.26111564 -0.019098705 -0.2019732 -0.9276651
000240 1b 05 da be 31 eb fe 3b 38 b1 01 be a3 57 64 bf
       -0.4258202 0.007779502 -0.1266526 -0.89196223
000250 a4 8e 8e bf 2d e1 df 3c c5 28 61 bf 0f 93 c7 be
       -1.113728 0.027329052 -0.87952834 -0.38979384
000260 3b d3 f6 be c0 5a 85 be f4 22 c0 3d d8 76 70 be
       -0.4820803 -0.260458 0.09381667 -0.23482835
000270 57 49 d1 bf dd 99 98 bf 9a d0 93 be 56 6e 47 bd
       -1.6350507 -1.1921955 -0.28870088 -0.04868921
000280 fe 0f fe bf 44 2e a4 3e cb 9a d5 bf 2f a3 c1 3d
       -1.984863 0.32066548 -1.6687864 0.09454953
000290 7c e3 0f bf 74 59 3d bf 5e 6b e2 bf 21 21 98 3e
       -0.5620649 -0.7396462 -1.7689016 0.29712775
0002a0 79 f6 41 be 3e f1 09 bf 94 6c fe 3e 30 14 1b bf
       -0.18941678 -0.5388373 0.49692214 -0.6057768
0002b0 01 a8 92 3d 86 4d ec 3e b7 f7 68 3f e3 af d2 3e
       0.071609505 0.46152896 0.9100298 0.41149816
0002c0 a0 6d 2e bf e4 86 27 bf 3d 34 31 bf b9 34 98 bf
       -0.68136024 -0.654402 -0.69220334 -1.189109
0002d0 58 41 b6 be 31 e7 18 3f f8 6f a1 be 1e 53 7b 3f
       -0.35596728 0.5972777 -0.31530738 0.981737
0002e0 38 09 f7 be b3 31 4e ba e8 95 c0 be 4d 9d 31 bf
       -0.4824922 -0.0007865682 -0.3761437 -0.69380647
0002f0 5c 1b 67 bf 00 71 8e 3e b9 eb 19 3f 3b f0 5f bc
       -0.9027612 0.27820587 0.6012531 -0.013668115
000300 63 5b c3 3e e2 7b 67 bf 8e 98 5e 3f b0 a7 9b bf
       0.3815566 -0.90423405 0.8695153 -1.2160549
000310 e8 7e 66 bf 44 9a 34 bf b0 66 12 3e 20 10 8f bf
       -0.90037394 -0.7054789 0.14296985 -1.1176796
000320 30 70 74 be 80 69 2a bd 03 0a 91 3e 02 a4 3e bf
       -0.23870921 -0.04160452 0.2832795 -0.74469006
000330 f0 8b 17 bf 53 d9 04 c0 ae a8 ea 3e c6 0e 5a 3e
       -0.591979 -2.0757644 0.45831817 0.21294698
000340 27 0f 03 3d b3 df 01 bd 1d 5a 82 bf f0 46 5c bf
       0.031996872 -0.031707477 -1.018375 -0.8604574
000350 d6 08 ae bf e8 b5 5f bf 0e 93 da 3d 64 11 00 3f
       -1.3596447 -0.8738694 0.1067258 0.50026536
000360 3f a6 cb 3e 2a 09 39 3e 5b 95 00 c0 8a fc 07 3f
       0.39775273 0.18069902 -2.009116 0.5311972
000370 c8 b9 7f bf 7d f5 f9 3e ca ff 86 be 2f af 0f bf
       -0.99892855 0.48820105 -0.26367027 -0.56126684
000380 87 3b 27 3f c5 e8 1e 3f 40 7f 7f be 20 41 7a 3d
       0.65325207 0.6207393 -0.24950886 0.061097264
000390 d6 72 11 bf f4 3e 31 3d 77 32 1a 3c 19 21 52 3e
       -0.5681585 0.043272927 0.009411446 0.20520438
0003a0 d4 46 8d 3e 32 86 11 bf 70 fa 46 3f 3e 8b 63 bf
       0.275931 -0.5684539 0.7772589 -0.8888434
0003b0 af 9c eb b9 98 9a 71 bf 17 a0 39 3f 17 b1 12 bf
       -0.0004493943 -0.94376516 0.725099 -0.5730147
0003c0 c6 bc ee bb be d8 81 bf 55 b5 d3 bd d8 ba bd be
       -0.007285687 -1.014427 -0.10337321 -0.37056613
0003d0 1c 0b 98 be cc 3c 28 bf 47 18 78 bb 28 24 02 be
       -0.29695976 -0.6571777 -0.0037856267 -0.12709105
0003e0 1a ba b3 3d 31 b4 ea 3e 30 97 8f bd 3a ea 93 bf
       0.087757304 0.458406 -0.070112586 -1.1555855
0003f0 88 42 74 bf df 76 d4 ba 29 19 64 bf 40 c3 69 be
       -0.9541402 -0.0016209743 -0.8910089 -0.22828388

weight f4 [1, 256]
000000 72 b3 f5 bd d9 d7 1a bd d0 5e ee bc 4d 31 c9 3b
       -0.11997117 -0.037803505 -0.029097944 0.0061399103
000010 27 68 aa 3c 03 45 67 bb fd 78 16 bd 30 a2 a4 bb
       0.020801617 -0.0035288937 -0.036736477 -0.005024217
000020 70 9d 83 bc 54 69 50 bb b9 87 44 3c 32 b0 e5 bb
       -0.016066283 -0.0031801062 0.011995249 -0.0070095295
000030 38 b4 08 37 0a 63 86 bc 56 db 21 bb 4b ec 0d 3c
       8.148192e-06 -0.016404647 -0.0024697385 0.008662294
000040 f1 5a 46 bd 67 05 3c bc a4 55 ef 3a 59 53 d7 3c
       -0.048426572 -0.011475897 0.0018259776 0.02628486
000050 d0 b3 be bc b3 6b 67 3d 42 af 57 bb d9 0f d8 bb
       -0.0232791 0.056499194 -0.0032910858 -0.006593686
000060 cf 7a 9a bd 68 79 99 bb 6c e3 b5 b9 56 86 6a 3d
       -0.07542955 -0.004683662 -0.00034692453 0.05725702
000070 0b ff 3d bc 42 52 b0 3c 7d e3 bc 3c 6a 37 a5 bc
       -0.0115964515 0.021523599 0.023057694 -0.020168025
000080 f4 2c a4 bc 9c 21 a3 3c 59 5d c4 3a 9b 8b b6 bc
       -0.020040967 0.019913487 0.0014981433 -0.022283366
000090 0d f4 d1 bb c6 d2 1c 3b ad 48 17 3b 6a ba ad 3a
       -0.006407267 0.0023929342 0.002308409 0.0013254408
0000a0 72 ea 05 bc bb d3 95 3c b6 72 de 38 e8 be a2 bc
       -0.008173572 0.018289438 0.000106071515 -0.019866422
0000b0 1b 7d ea bb d6 f2 c0 bd 48 7b e6 bb d5 a7 55 3c
       -0.007156027 -0.09421317 -0.0070337392 0.013040503
0000c0 7a 75 68 3b a0 2a 19 3b d5 4a 5c bd fc b1 9b 3b
       0.0035470412 0.0023371354 -0.053782303 0.004751442
0000d0 0e aa e8 bc b2 76 37 bc 24 c1 73 bd 53 45 12 3d
       -0.0284014 -0.011197733 -0.059510365 0.035710644
0000e0 86 55 11 bd ef de 8b bb 2e 94 d9 3a fc f3 b8 3c
       -0.035481952 -0.004268519 0.0016599947 0.022577278
0000f0 af 6e cf bc 5b 64 b3 bc 21 cb 93 3c a1 d4 06 bd
       -0.025321333 -0.02189844 0.018041195 -0.032917622
000100 db 4b e8 bb cb 98 34 bc b1 c8 7f bd 95 fb 81 bc
       -0.007089121 -0.011022757 -0.062447254 -0.015867034
000110 74 fe 41 bc a7 41 cf bd 40 b2 99 bd 54 2e 83 b8
       -0.0118404515 -0.10119944 -0.075047016 -6.255196e-05
000120 ba 7e 9e b8 7f 24 61 bb 27 43 15 ba 86 6c 0e bc
       -7.557632e-05 -0.0034354029 -0.00056939054 -0.008692866
000130 18 e3 85 bd 70 83 a7 3b 8d 7f d5 bc 63 9c 26 3b
       -0.06537455 0.005112104 -0.026061798 0.0025422804
000140 99 7f 95 bc 23 3c 24 bd d0 35 38 bc 22 6f 90 38
       -0.01824932 -0.040096413 -0.011243299 6.887155e-05
000150 ad 1d 10 bc a2 9b 13 bc f3 47 30 bd 77 ab 91 3c
       -0.008796138 -0.009009274 -0.043037366 0.017781956
000160 51 1d 3e 3b 0e e9 1a bd 2e c7 4d ba ec a3 18 bc
       0.0029009173 -0.037819915 -0.00078498095 -0.009316426
000170 f8 a2 18 3d f4 98 0d bd 37 04 0f bc da 61 33 bb
       0.037264794 -0.034569696 -0.008729032 -0.0027371556
000180 7d 7b 0e 3d 38 c5 64 3d 25 c8 47 3a f5 47 a9 bb
       0.034785736 0.055852145 0.00076210714 -0.0051660486
000190 26 a6 f1 3c d2 36 89 bc ab eb 45 3d de 73 2d 3b
       0.029498171 -0.016749773 0.048320454 0.0026466767
0001a0 07 c2 5d bc ff 7f b9 bb 1a a6 a4 3c 4a 0b ce 3b
       -0.013535029 -0.0056610103 0.020098735 0.006287967
0001b0 06 46 6b 39 cd 32 af bd 46 a8 8e bc ac 8a f6 3c
       0.00022437432 -0.08554611 -0.017414223 0.03009542
0001c0 1b 86 82 bc 88 5a 95 bb 17 b0 25 bb 90 fd 08 bd
       -0.015933087 -0.0045579113 -0.002528196 -0.03344494
0001d0 e5 8e 0a bb 32 81 aa bc 8a 0d 53 3a 05 f6 8a ba
       -0.00211423 -0.020813558 0.00080510287 -0.0010601884
0001e0 22 43 05 bd 23 71 40 3c 52 57 72 bb c2 aa 6d bd
       -0.032534726 0.011745724 -0.0036978316 -0.058024175
0001f0 34 7a eb bc 4c 5f 8a 3d 54 2e 52 bb 25 7a df bc
       -0.028744794 0.06756458 -0.003207107 -0.027279923
000200 2a af 5b 3b 20 58 5c bb d0 6a 41 bd cc 9b 63 bb
       0.0033521154 -0.0033621863 -0.047221005 -0.0034730313
000210 63 89 02 bc 93 8c e4 39 0c f8 31 bc fa 62 24 3c
       -0.007967326 0.00043592285 -0.010862362 0.0100333635
000220 a1 57 c9 3a 74 0d 88 bc a8 77 c9 3a 82 3e 2b 3b
       0.0015361198 -0.016607977 0.0015370743 0.0026129787
000230 25 99 85 3b 0a 96 8f bb 01 f7 41 bd 5c ef 53 bd
       0.004077094 -0.0043818997 -0.047354702 -0.051741943
000240 a1 38 4b bc 37 0d 51 bd 26 a9 47 3b 92 dc 1e bd
       -0.012403638 -0.051037993 0.003046581 -0.03878457
000250 a9 19 59 3d fb 85 5c bc 17 f8 39 3c 3c 73 f7 bb
       0.053002987 -0.013459678 0.011350653 -0.007551579
000260 44 20 c5 bb 51 16 ff ba d0 56 02 bb 56 c1 54 bd
       -0.0060158093 -0.0019461607 -0.001988817 -0.051942192
000270 11 dd 9e bc 30 99 d4 bc b9 3b 5e bb 9e 89 49 bc
       -0.019392522 -0.025951952 -0.003391011 -0.012300877
000280 e0 a4 e4 bd a8 46 25 3d 62 62 2c bb 8b 33 3d bb
       -0.1116426 0.040350586 -0.0026303758 -0.0028869833
000290 d2 a4 c6 3c 2d 78 1c bd cf 2a 56 3c 63 ba b0 ba
       0.024248514 -0.038200546 0.01307173 -0.0013483282
0002a0 24 c9 54 bd 4d 0b c6 b9 7b e0 ad 39 0b f8 ee bc
       -0.051949635 -0.00037773923 0.00033164382 -0.02917101
0002b0 10 cb 78 3a af e9 b6 3a 9d fb fa bb c2 81 39 bd
       0.0009490708 0.0013955141 -0.007659389 -0.045289762
0002c0 9d ad 85 bc 9b 84 73 3b 4f 09 2f 3d c3 02 f4 bd
       -0.016318137 0.0037157896 0.042733487 -0.11914589
0002d0 ca dd 9b bc a3 79 4d 3c 46 ed 61 bc 67 8a 8a 3d
       -0.019026656 0.0125412075 -0.013789481 0.067646794
0002e0 5f 91 c6 bb 10 85 9a 3c 35 eb 8b ba b3 ac fb bc
       -0.00605981 0.018862277 -0.0010674956 -0.030721998
0002f0 ba 33 26 bd 43 3a ed 39 31 54 3e ba 0f c3 1f 3d
       -0.040576674 0.0004524757 -0.00072604703 0.03900438
000300 e1 1d 2e bd 34 af 1e 3c b7 3c b9 bc 3e 57 0a bd
       -0.042508963 0.009685326 -0.022611959 -0.033774607
000310 45 36 7f bc db 74 ab 3c d7 fa d0 bc b3 b2 ce bc
       -0.015576904 0.020929744 -0.025510235 -0.025231695
000320 24 10 a7 bc 0d b1 fc bb 59 c0 34 bd f5 14 28 3b
       -0.020393439 -0.007711536 -0.04412875 0.0025647257
000330 46 4e 71 3d 11 86 01 bd 9a 46 27 3b 1a 95 c7 3a
       0.058912538 -0.031621996 0.002552426 0.0015226931
000340 e5 85 cc bc 87 22 28 bd f2 dd 2a 3d 66 49 65 bd
       -0.02496619 -0.041048553 0.04171557 -0.0559782
000350 4a 5e b5 bb 80 0c 84 3a d7 3b 30 3c 37 77 92 ba
       -0.005534922 0.0010074526 0.010756454 -0.0011174445
000360 0f d3 90 3d 99 6f 2f 3d 46 5a ac bd dd 12 d9 bc
       0.07071506 0.042831037 -0.08415656 -0.026498253
000370 40 57 e1 bc cf 76 9a bd 01 96 87 3c 1d f8 77 3c
       -0.027507424 -0.07542192 0.01655102 0.015134838
000380 f3 90 6c bc d7 ef 83 bc 73 96 23 3b 2d be 0a 3b
       -0.014438855 -0.016105575 0.00249615 0.0021170483
000390 dc c3 59 bc a9 35 17 3a 8a 23 be 3d e7 09 d6 ba
       -0.013291325 0.0005768189 0.09284122 -0.0016329855
0003a0 04 95 80 bb c2 73 29 bb 78 f2 90 bc b7 04 c0 bb
       -0.003924014 -0.002585635 -0.017693743 -0.005859937
0003b0 96 d9 b9 3a a7 af 66 3a 63 4e 2b 3d e0 4f 46 bc
       0.0014179226 0.0008799978 0.041822802 -0.012104005
0003c0 60 aa 8e bc 40 34 65 bd c9 9a cc bc 79 91 ec bb
       -0.017415226 -0.055958033 -0.024976151 -0.00721949
0003d0 bf b3 25 bb 8b 81 d6 bd 91 77 93 3b b1 3d 74 3b
       -0.002528414 -0.10473927 0.0045003374 0.0037268216
0003e0 90 18 b8 3b b3 85 5c bc 21 1b e2 3a 95 53 80 bd
       0.0056181625 -0.013459611 0.0017250517 -0.06265942
0003f0 82 b9 9b 3b 7d 11 e5 bd 24 de df 3c e3 4c 6d 3b
       0.004752339 -0.11184976 0.027327605 0.0036209158

weight f4 [256, 1]
000000 60 68 52 bf 89 d1 58 3f 32 b2 b9 be b2 3a 7e bf
       -0.82190514 0.84694725 -0.36268765 -0.9930831
000010 68 fa f4 be 98 f7 ce 3d b8 82 fd 3e a8 3a ec be
       -0.47847295 0.101058185 0.49513793 -0.461385
000020 2f 6b c5 3e 3c 22 94 3e 84 8d 17 bf c6 2f 06 bf
       0.38558337 0.2893237 -0.5920031 -0.52416646
000030 36 5a 37 3e 2f c5 e9 3e 29 26 83 bf b7 23 e0 be
       0.17905506 0.45658252 -1.024602 -0.43777248
000040 60 1e 9b be 9e 55 e7 3e 58 0a bf bf 2f f5 d8 be
       -0.30296612 0.45182508 -1.4925032 -0.4237456
000050 fc a0 2b 3f 67 b1 1f c0 c0 ef 22 3e 00 4f 2c bf
       0.6704252 -2.4952028 0.1591177 -0.67308044
000060 0a f8 08 bf c8 ce 62 bd 66 0f 83 bd 80 f9 53 3d
       -0.5350348 -0.055372983 -0.063994214 0.051751614
000070 60 cc 16 3f 14 f3 69 bf 8e c5 75 be f3 91 a5 3e
       0.589056 -0.9138653 -0.24001142 0.32337913
000080 34 83 8b be bb 11 1b 3f 3f 61 76 3c f4 55 f9 3e
       -0.27248538 0.6057393 0.015037834 0.4869839
000090 64 08 69 bf 94 2c 8d be ad 56 06 bd 1a e1 26 3f
       -0.9102843 -0.27573073 -0.032797504 0.6518723
0000a0 60 eb 2c bd b4 0d 17 3f 01 3e e6 bd 74 5f 85 be
       -0.04221666 0.59005284 -0.11242295 -0.26049387
0000b0 30 c3 86 bd ca 86 56 3f c7 60 cf be 05 6b 83 3e
       -0.06580198 0.8379942 -0.40503523 0.25667587
0000c0 28 1e f2 3d c6 38 47 bd 39 29 14 3f c0 c8 42 be
       0.11822158 -0.048638128 0.578754 -0.19021893
0000d0 44 36 6b 3f 3a cc 0a 3f f3 2e ba be 74 cb 48 be
       0.9187968 0.54217875 -0.36363944 -0.19608861
0000e0 fc 86 27 bf 6c d9 84 3e 08 b6 db be 73 82 fa be
       -0.65440345 0.2594713 -0.42912316 -0.4892765
0000f0 27 8f 3a 3f 18 03 7a bf 8b f2 83 be a8 69 40 bf
       0.72874683 -0.9766097 -0.25770983 -0.7516122
000100 28 30 79 be b4 c3 af 3e db 90 86 3e e6 27 fe 3e
       -0.24334776 0.34328997 0.2628239 0.49639815
000110 00 d9 82 bc 1e 20 3e 3f 25 d3 64 3f 23 f1 07 bf
       -0.015972614 0.74267757 0.8938468 -0.5310232
000120 df f8 44 3e 36 07 c3 ba 40 2e 33 bf 0d 99 cb be
       0.19235562 -0.0014879468 -0.69992447 -0.39765206
000130 b4 0c c2 be 10 f4 bb be 81 50 c3 3e 48 2c cf be
       -0.37900317 -0.36709642 0.38147357 -0.4046347
000140 0a ae 6f bf 7f aa 2e 3f 35 ae dd 3e 54 3e 1d bd
       -0.9362494 0.68228906 0.43296972 -0.03838952
000150 02 f9 30 3f c0 03 ee be 2d 51 ec 3e ad a0 26 3f
       0.69129956 -0.46487236 0.46155682 0.6508892
000160 6d 65 26 3f 5d fc c0 be af 4b 6b bf ed 8c 40 3f
       0.64998513 -0.37692538 -0.9191236 0.75215036
000170 e2 3f 66 bf 08 25 ad 3e a1 d0 82 c0 0c 8b 1e bd
       -0.8994123 0.33817315 -4.0879674 -0.038706824
000180 dc f7 10 3e 70 21 fd be 90 84 95 3d 5e ff c1 bf
       0.14157051 -0.49439573 0.07300675 -1.5156057
000190 a1 18 92 3e ba 23 2a 3e aa fa 3c 3e d4 46 f2 be
       0.28534415 0.16615191 0.18454996 -0.47319663
0001a0 ef dc a5 3e 6e ce 12 3f c6 aa 16 bf 10 7e 1d be
       0.3239512 0.57346237 -0.5885433 -0.1538012
0001b0 d4 51 30 bf 00 00 17 be 96 ec 03 bf 10 3f 06 3f
       -0.6887486 -0.14746094 -0.51532876 0.52439976
0001c0 2c a8 ac be 28 5f 7a 3e 46 36 3a 3d af 4c 72 be
       -0.33722055 0.24450362 0.045461915 -0.23662065
0001d0 5a e4 f2 bd 93 55 e3 3e b2 1c 62 bf a0 c8 cb be
       -0.11859961 0.44401225 -0.88325036 -0.39801502
0001e0 e7 cd 4b 3f a8 04 24 be 68 6b 43 bf f0 c1 66 be
       0.7961106 -0.16017401 -0.76335764 -0.22534919
0001f0 6b 6e a5 bf 6e 46 4d be 54 d0 a4 3d 4e 3c 65 3f
       -1.2924322 -0.20046398 0.08047548 0.8954514
000200 be 48 75 3e a0 30 1d bf 9a d8 88 3e dc e5 bd 3e
       0.2395353 -0.6140232 0.26727754 0.3708943
000210 04 97 d9 bd 80 64 fd bc 4e c5 a0 3e e0 d5 06 3d
       -0.10624507 -0.030931711 0.31400532 0.03291881
000220 60 90 1d bd dd 75 54 bf 95 4f f6 3d bb 6d 0b bf
       -0.038467765 -0.82992345 0.12026898 -0.5446431
000230 97 38 e7 3d 86 05 3b bd 1f b6 42 3f f7 de 6e be
       0.112900905 -0.045659564 0.76059145 -0.23327242
000240 9f 97 06 3e c5 c9 21 3f 72 99 01 bf bf 6e 16 3e
       0.13143776 0.631985 -0.50624764 0.14690684
000250 53 c8 d0 3e fb ea 16 3f d5 35 4c c0 6a 0a 26 3d
       0.40777835 0.589523 -3.1907856 0.040537275
000260 a8 57 f4 3e 00 c8 c1 bc 28 04 d6 bd ec ec 52 3f
       0.47723126 -0.023654938 -0.104500115 0.82392764
000270 23 97 a3 c0 ce 5c ab 3d 28 95 52 be a0 4b 72 bd
       -5.1121993 0.083673105 -0.20564711 -0.059154153
000280 e4 b6 ce 3e b7 d1 50 bf 00 68 ca ba c0 e4 5d bf
       0.4037391 -0.8157 -0.0015442371 -0.8667717
000290 a4 47 9b be f7 ed 11 3f 68 b6 b6 3e 85 e2 2b bf
       -0.30328095 0.5700373 0.3568604 -0.67142516
0002a0 0d 5b bb 3e 2a f5 ce 3c d5 72 02 bc f2 06 38 3e
       0.36592904 0.025263388 -0.007961948 0.179714
0002b0 28 59 be be 9c 2f 73 bf f9 3a a2 3e bb 6d 2b 3f
       -0.37177396 -0.9499452 0.31685618 0.6696431
0002c0 60 47 f7 be ec 08 4b bf 8d 71 03 3e 06 1f 2a 3f
       -0.48296642 -0.7931049 0.12836285 0.6645359
0002d0 79 01 e5 be 7a e9 53 bf a1 a2 4f 3e 92 a6 cc be
       -0.44727686 -0.8277813 0.20276882 -0.39970833
0002e0 c0 44 5e be 35 ce 22 3e 7e f3 6c 3c dc 5d 92 3e
       -0.21705914 0.15898974 0.01446235 0.28587234
0002f0 18 25 90 bd 53 61 d6 3d 5a e4 1f bf d5 86 d3 be
       -0.07038325 0.10467782 -0.6245781 -0.41313806
000300 a3 b0 f0 3e 55 86 df 3d 73 ed f5 3e 3c 13 56 bf
       0.47009763 0.10914294 0.48032722 -0.836231
000310 20 e9 01 3f f0 ce 8d bd 3c 8c f9 3e b8 45 2d be
       0.50746346 -0.06924236 0.48739803 -0.16921127
000320 20 0c fa 3e fc d6 4f bf e0 0b 44 3f 9b 10 05 bf
       0.48837376 -0.81187415 0.7658062 -0.5197846
000330 e2 62 43 be 61 5e 3a 3e 7c 46 ce be 7a 95 38 bf
       -0.1908069 0.18200065 -0.4028815 -0.72103083
000340 c0 5f df bc a4 cd cc 3e 1a 34 1f bf eb 19 2f 3f
       -0.027267337 0.4000064 -0.62188876 0.6839892
000350 4d d6 5e 3e 73 f8 e0 be 5d 2c 40 3f ae fb 19 bf
       0.21761437 -0.43939552 0.75067693 -0.6014966
000360 e9 0b e0 be e2 c5 01 bf c0 2e dd be 1b 81 26 3f
       -0.43759087 -0.5069257 -0.4319973 0.6504075
000370 c4 9c 0e bf 82 c2 1f bf 5e e0 dd bd 74 8f 13 3e
       -0.55707955 -0.6240617 -0.1083381 0.14410192
000380 26 43 11 3c 83 05 92 3e a6 11 17 3e c0 96 29 3d
       0.008866107 0.2851983 0.14752826 0.041403532
000390 8f 16 dc 3e e8 69 72 bf 46 83 af be 5e 24 68 bf
       0.4298596 -0.9469285 -0.3427984 -0.9068049
0003a0 b6 8f 08 bf 07 b2 62 3c f6 17 27 bf ee 25 5e bf
       -0.53344285 0.01383639 -0.65270936 -0.86776626
0003b0 61 b3 08 3e 18 6f 49 c0 6e a5 1a bf c7 fc 16 be
       0.13349678 -3.1474056 -0.60408676 -0.14744864
0003c0 e6 a7 90 3e 5a 0c df be 6b 9d a8 3e 33 aa 81 3e
       0.28253096 -0.4356411 0.329326 0.25325164
0003d0 78 48 4c b6 a7 f2 32 bf 00 58 d8 3a a8 40 50 be
       -3.0440551e-06 -0.6990151 0.0016505718 -0.20337164
0003e0 30 90 a7 3d 96 59 91 bc 46 84 30 bf 95 22 d1 be
       0.081817985 -0.017742913 -0.68951833 -0.40846696
0003f0 a4 44 74 3e 01 10 55 3f 92 b1 b5 3e 22 9d 67 bf
       0.2385431 0.83227545 0.35487038 -0.9047414
