checkpoints/191052000.ckpt (torch, 122663 bytes, 33 tensors)

weight f4 [256, 18]
000000 10 59 d2 bd 11 c5 a8 3d 9e 60 fa 3d 6c 17 e1 bc
       -0.102708936 0.082407124 0.122254595 -0.027476989
000010 e5 3d ba 3b 54 1f 27 3d 51 ca 4f be d6 02 5f be
       0.005683648 0.04080136 -0.20292021 -0.21778426
000020 4a 6e dc 3c e7 d9 43 bd 19 14 78 be 0d 18 9d bd
       0.026908059 -0.04781523 -0.24226417 -0.07670603
000030 d3 cd 11 bd 68 a2 73 be f3 a8 a1 be 6c 69 ee bd
       -0.03559668 -0.23792422 -0.3157421 -0.116412014
000040 93 a9 53 be 97 fb b3 3d c8 28 05 3d 30 f4 3f bc
       -0.20670156 0.08788221 0.032509595 -0.011715934
000050 10 8e e7 bc 17 36 b8 bc a1 15 74 be 20 76 05 3e
       -0.028265983 -0.02248673 -0.23836376 0.13033342
000060 a2 df 23 be ab 2a 0a 3e 19 ed 2c 3e 23 56 0b be
       -0.16003278 0.13492839 0.1688732 -0.13607077
000070 fd 4f 26 3e 04 8d 3f 3c a3 87 8c 3a e0 6e 93 3d
       0.1624145 0.011691336 0.0010721575 0.07198882
000080 fe a6 91 bd 8c 63 95 bc b3 8d 04 bd 32 d4 1c bd
       -0.07111929 -0.018235944 -0.032361697 -0.038288303
000090 b9 6e b0 be db f0 f1 bc b7 1b 60 bc b2 cc 1e bd
       -0.34459475 -0.029533794 -0.013678483 -0.03876943
0000a0 8b 09 94 bd bb a2 27 be b7 48 77 3d 04 bd 2f 3d
       -0.07228383 -0.1637067 0.06037208 0.04290487
0000b0 1c 4a 3f be e5 a4 0e bd 4d 3b b2 bc da d2 25 3b
       -0.18680614 -0.034825224 -0.021756792 0.002530268
0000c0 10 66 28 3d 27 6e 45 bd 4b 5e e4 bd 52 42 79 3b
       0.04111296 -0.048200753 -0.111507975 0.0038033915
0000d0 84 c1 d3 3d 2a 61 76 be db ca 97 be c9 6b 70 3d
       0.103396446 -0.24060503 -0.29646954 0.058696542
0000e0 67 63 05 3d da 26 b8 3d a8 c4 bd 3d bf de 4f 3d
       0.0325655 0.08991785 0.09266025 0.050749537
0000f0 dc 8b a9 3d 2e 2e 05 3c 44 ca a9 3d fc 29 81 bd
       0.08278629 0.008128686 0.08290532 -0.06306836
000100 27 24 67 bd 80 9d 3a be b4 2d 4b 3e 63 7e 31 be
       -0.056430962 -0.18224144 0.19841653 -0.17333369
000110 e6 87 06 be 23 71 08 3d b1 39 5d 3d 22 64 4d be
       -0.13137779 0.03331102 0.054010097 -0.20057729
000120 1b a7 17 bd 16 59 69 3a f8 54 7d 3a f1 b0 7d bc
       -0.0370246 0.00089015195 0.00096638454 -0.015484081
000130 36 c3 d6 3b b5 21 69 be 95 92 d3 ba e2 6a 48 be
       0.0065540327 -0.22766764 -0.0016141707 -0.19572023
000140 c6 cc 36 3d 46 e0 85 3b 7e 54 2f bb fe d8 a4 b9
       0.04462888 0.0040855734 -0.0026753242 -0.0003144219
000150 bc fb 79 3b 24 f7 2c bd 8c f2 f0 3d e2 4c 25 bb
       0.003814443 -0.04222788 0.11765012 -0.0025222828
000160 9e 1b a8 bc da 4a a5 bb 0f 37 47 3e cb 06 67 bd
       -0.020520981 -0.0050443234 0.19454597 -0.056402963
000170 32 7e 09 3d df 48 ec bd 91 af 7b be 69 0f 3c be
       0.033567615 -0.115373366 -0.24578692 -0.18365254
000180 0b d9 0c 3e 64 e4 c8 3d 9b c1 ec 3d a9 cd 2b be
       0.1375467 0.09809187 0.11560365 -0.16777672
000190 42 d8 a4 bd bd 5d dd bd 63 06 6c bd d7 08 09 3e
       -0.080490604 -0.10808895 -0.05762328 0.13382278
0001a0 df ef 65 3d a3 c2 64 bd 75 cc cc bd 55 da 91 bd
       0.056136962 -0.055849683 -0.099999346 -0.07121722
0001b0 cb 73 c2 3e 52 4f ae bd bb c8 81 ba e1 64 09 3e
       0.37978968 -0.08511223 -0.0009901741 0.13417388
0001c0 ad a9 9e 3d c0 4a 56 3e 23 ed 01 be 0f 11 51 bd
       0.07747207 0.20926952 -0.12688117 -0.05104166
0001d0 c8 03 a3 bd 13 9f ef 3c af 22 0e 3b 4c 45 71 3c
       -0.079597056 0.029250657 0.0021688154 0.014725994
0001e0 49 3a 0d 3d 13 96 58 3d 41 1c d6 bd c5 ae 61 3c
       0.034479413 0.052877497 -0.10454608 0.013774578
0001f0 e1 fb 22 bd 58 8e 0a be cf 59 d7 bc 15 19 0f bb
       -0.03979099 -0.13530862 -0.026287941 -0.0021835018
000200 3b a4 ce bb 83 69 7f bc 35 a2 77 3b ac 4d ab 3d
       -0.006306199 -0.015589121 0.0037785892 0.08364424
000210 63 16 bc 3a 94 87 02 3e a2 2c 0f 3d 7f dd a7 3c
       0.0014349933 0.12747031 0.034954675 0.02049136
000220 50 e1 fb bb 75 ec 9a ba 30 da 66 3b a9 8e 30 bd
       -0.0076867715 -0.0011819737 0.0035225265 -0.0431048
000230 d8 e2 bf 3e 02 8c 92 bb 9b 8a a4 be 64 8f 8e bc
       0.37477756 -0.0044722566 -0.32136998 -0.017402358
000240 c4 97 17 3d 23 53 cd 3c ff 15 2b be f8 32 d8 3d
       0.03700997 0.025064057 -0.1670761 0.105565965
000250 1e 62 8d 3d 41 38 11 3e 09 f0 f1 3d 2a 89 7e 3c
       0.0690348 0.14181615 0.11813361 0.015535632
000260 3c db a2 bd a1 28 57 3e 08 0a 54 bd c1 8f 14 3e
       -0.07951972 0.21011592 -0.05176738 0.14507963
000270 dc cd 0e 3e 92 68 8e bd 7f f2 28 bd 54 56 e2 3c
       0.13945717 -0.06953539 -0.041246887 0.027629055
000280 f4 13 07 bd c9 71 d3 3d 26 af 53 bc 01 88 d2 3a
       -0.032978013 0.10324437 -0.012920177 0.0016062261
000290 18 7e 44 bb 22 44 67 bb 8f da 3f bc 07 c0 d0 bc
       -0.0029982384 -0.0035288413 -0.011709823 -0.02548219
0002a0 07 fe 31 3b c0 9e 86 3c 76 ea 88 3c 45 e3 43 3c
       0.0027159469 0.01643312 0.016713362 0.011956041
0002b0 0a b3 6d ba e1 59 04 3a aa 9c d1 b8 b1 d7 9b 3c
       -0.00090675114 0.00050487934 -9.9950776e-05 0.019023748
0002c0 68 5e a3 3d fa 80 e6 b9 97 22 c8 3d 5a 65 d1 3b
       0.07976991 -0.00043965114 0.097722225 0.006390256
0002d0 31 79 63 bd c6 91 a9 bd 86 97 bc bd 46 92 ca bd
       -0.0555355 -0.08279757 -0.09208588 -0.09891181
0002e0 31 58 37 be 46 1b ef bd 90 c1 c3 bd 04 89 9f 3c
       -0.17904736 -0.11675124 -0.095584035 0.019474514
0002f0 cd 96 f6 bd d4 f0 54 be 07 6b 8b bd a6 54 70 bd
       -0.12040482 -0.20794994 -0.06807523 -0.058674477
000300 b6 59 e6 bd 31 e5 ef 3d 64 1b b9 3c 6a dc cb bd
       -0.1124758 0.11713637 0.022596069 -0.0995415
000310 e9 0b 84 bd c3 18 89 3e 71 8f 1a 3e 0d 5b 46 3d
       -0.06447584 0.26776704 0.15093781 0.048426677
000320 95 05 c6 bc a2 2c 04 3e d1 8a df 3b e7 3f 19 3d
       -0.024172584 0.12907651 0.006821968 0.037414458
000330 35 a1 17 3e 9d 9c 09 3d 6e 6b fc 3d c1 9a 07 3e
       0.1480759 0.033596624 0.12325178 0.13242628
000340 d3 7d 66 3e 68 e8 21 3d e6 24 ff bd 52 75 e5 3d
       0.22508936 0.03952828 -0.1245821 0.11204018
000350 27 07 51 be 54 74 70 bd 4b 9d 89 bd a7 f6 c9 3d
       -0.20412885 -0.05870469 -0.067194544 0.09861498
000360 00 ef 42 3d 1c c9 75 3d b6 41 51 3d de e9 00 3e
       0.04759121 0.060006246 0.051088057 0.12589213
000370 5a a8 2e 3d 15 31 ca bd ec dd 13 bd 27 9c b6 be
       0.04264102 -0.09872643 -0.036100313 -0.3566601
000380 fa dd d4 3c 24 4c 76 bd 74 5b 60 be cd 75 1b bd
       0.025984753 -0.060131207 -0.21909887 -0.03795414
000390 7e b6 92 bd ca b6 3b be fd a6 89 be 96 83 98 3d
       -0.07163714 -0.18331447 -0.26885214 0.07446973
0003a0 e9 3d 19 be ed a4 a0 3d 83 68 1e 3d d7 f3 d7 bb
       -0.14965023 0.07843957 0.03867389 -0.0065903473
0003b0 ad 68 63 3a 29 4f ba ba 5c 1c 44 3d 79 f1 81 3d
       0.00086749607 -0.0014214265 0.047878608 0.063448854
0003c0 4e 6c b3 3b 48 ed 3f be 20 49 93 3d 0a b3 52 ba
       0.0054755574 -0.1874286 0.07191682 -0.0008037543
0003d0 05 e6 e4 ba 46 e7 6d ba bb 45 1f 3a 05 ef 1e 3e
       -0.0017463571 -0.0009075295 0.00060757593 0.15520866
0003e0 83 91 23 bd 87 7d d5 ba 84 41 5d 3d 8a f2 37 3d
       -0.039933693 -0.001628802 0.05401756 0.044909038
0003f0 a7 55 e5 be b6 50 26 3d 1f b8 c1 bc b1 e3 a1 bc
       -0.4479191 0.040604316 -0.023647366 -0.019761892

bias f4 [256]
000000 dc bf fd 3b 73 af 38 3e 35 a9 a4 bd d2 b4 38 be
       0.0077438187 0.18035679 -0.08040086 -0.18037727
000010 1e a2 47 be f2 29 c0 3d 9b 9e ed bb 6d 00 82 be
       -0.19495437 0.093830004 -0.0072515733 -0.2539095
000020 40 bc e8 bd 10 a5 0d be e9 4f 84 3d 7f 4d d6 bd
       -0.11364031 -0.13832498 0.06460554 -0.10464
000030 37 f1 1a bd 2a 72 51 3c ec 49 79 be a9 36 aa 3d
       -0.037827697 0.0127835665 -0.24344605 0.08311207
000040 c4 18 9b be fe 85 9c 3d fe b1 4a be fa 23 b8 bd
       -0.30292332 0.076427445 -0.19794461 -0.08991237
000050 d3 0d 60 bd be 88 03 bd a0 79 e6 3d 3e e7 43 bd
       -0.054700684 -0.03211283 0.11253667 -0.04782795
000060 fc c9 21 be d8 43 01 be 63 eb 02 bb e6 6d de bd
       -0.15799707 -0.12623537 -0.0019976727 -0.10860805
000070 0d 4c 5e be fb 77 93 be 4a cf a9 3d 33 d0 7b be
       -0.21708699 -0.28802475 0.082914904 -0.2459114
000080 d8 7a ac bd d2 0e 02 3e 1a 79 03 3e 7e 49 0d 3e
       -0.08421868 0.12700966 0.12839165 0.13797566
000090 63 2f 11 3d 92 f1 a1 be 8c 5b f3 bc b3 ac 42 bd
       0.035445582 -0.31629616 -0.029706739 -0.04752798
0000a0 dc 82 80 bd 05 6c 34 be f8 df 1c be 60 9a e5 3d
       -0.062749594 -0.17619331 -0.15319812 0.11211085
0000b0 a2 20 22 3e af d8 5e bd 5b 92 4e 3c 37 cd d1 3c
       0.15832761 -0.054405864 0.012608136 0.02561055
0000c0 f3 31 d8 3d 5e dd fd 3d 80 32 95 ba 46 b2 2a be
       0.10556402 0.12395738 -0.0011382848 -0.16669568
0000d0 80 7a 1c 3c 04 51 14 be 89 d7 1b be 3c 91 3c be
       0.009550691 -0.1448403 -0.15218939 -0.18414778
0000e0 be c2 4c be 00 80 69 be 7d 43 50 be 8c fe b3 be
       -0.19996163 -0.22802734 -0.20338245 -0.3515514
0000f0 7b db 2f be f7 bd 2a 3d fd 5e cc 3c 5a 16 a1 3d
       -0.17173569 0.04168507 0.024947638 0.07865591
000100 3b 32 b0 bd 11 99 41 bd b6 07 61 bd 6b e2 fd 3d
       -0.08603331 -0.047265116 -0.054938994 0.123967014
000110 93 fe 25 3e 5e c7 34 3c 2b 9a ae 3d a9 a5 cc bd
       0.16210394 0.011033861 0.08525499 -0.09992535
000120 46 1d ee bd b5 04 19 bc d2 6c 09 3e 21 72 01 bc
       -0.11626677 -0.009339501 0.13420418 -0.007900746
000130 35 96 0c 3b 36 c1 20 be 8a 55 24 3d 16 2b a4 be
       0.0021451835 -0.15698704 0.04012064 -0.32064122
000140 04 e0 37 be 95 ba 9a bd da 50 30 be e3 ab 89 bc
       -0.17956549 -0.07555119 -0.17218342 -0.016805595
000150 cb 90 13 be 2c eb b7 bd 1f 84 8a be 04 43 80 3c
       -0.14410703 -0.08980402 -0.27053925 0.015656956
000160 bc 20 63 bd 0c 86 3c bc a5 6e 2a 3e 6a 3f e7 3d
       -0.05545114 -0.011506569 0.1664377 0.11291392
000170 a4 e6 16 3e a7 e8 d5 bc a5 dc 76 bd 98 dc 47 be
       0.1473642 -0.026111914 -0.060269017 -0.19517744
000180 de 35 ce bd 72 1f cc bd cd ba 16 be b5 a2 00 be
       -0.10068868 -0.09966935 -0.14719696 -0.12562068
000190 d3 cd b3 3d d9 f6 e7 bd a4 90 aa bd 72 f3 1b 3d
       0.08779492 -0.11326379 -0.08328369 0.038073964
0001a0 39 0c 1d be 9e db 8a bd 03 e2 31 be c1 62 86 be
       -0.15336694 -0.0678017 -0.17371373 -0.26247218
0001b0 63 88 d0 3c a8 69 11 3e a7 a2 44 bd d0 c3 1f 3e
       0.02545566 0.14200461 -0.04800668 0.1560204
0001c0 18 aa 99 bd b0 80 84 be ef af d8 3b 20 a4 f3 bd
       -0.07503146 -0.2587943 0.00661277 -0.11896539
0001d0 e2 a1 97 bd c8 ff ea bd e5 ab 4b bc 52 32 00 be
       -0.074039236 -0.11474568 -0.01243112 -0.12519196
0001e0 6f 3a 2d be 5d 75 cb bd 71 b0 82 be 81 e2 88 bd
       -0.16916822 -0.09934495 -0.2552524 -0.06683827
0001f0 02 7d 55 be e2 40 fe bd d8 f0 a4 3c 60 d7 35 be
       -0.20848468 -0.12414719 0.020134374 -0.1775794
000200 bc 14 a9 bd 23 35 39 bc 59 39 6e bd 28 c0 43 3d
       -0.08255908 -0.011304173 -0.05816016 0.047790676
000210 83 65 89 bd 70 81 3b be 0c 35 ec bd d5 e6 64 be
       -0.06708815 -0.18311095 -0.115335554 -0.2235368
000220 62 79 2c be f1 c5 a8 3b 76 d2 06 be de b1 22 be
       -0.16843179 0.0051505496 -0.13166222 -0.15888163
000230 ce 89 6b 3b 46 5b 9a 3d 66 ee a1 bd 87 af 81 be
       0.0035940292 0.0753694 -0.07906799 -0.2532923
000240 5e 00 a9 bc b6 7a 91 3d b0 e6 30 be 2f 50 15 3e
       -0.020630058 0.071034834 -0.172755 0.14581369
000250 f0 d8 85 be 05 aa bc 3c 3f b1 eb bc bc 46 f2 bc
       -0.26142073 0.02303029 -0.028771041 -0.029574744
000260 a3 e0 06 be 92 fe ea 3d b8 e4 85 be 35 d9 c7 bd
       -0.1317163 0.11474337 -0.2615106 -0.09758226
000270 b2 73 5f bd bf 8a 16 be 1a 75 b2 bd 44 7d 24 3d
       -0.054553695 -0.14701365 -0.087137416 0.040158525
000280 81 bb 5d be 32 b2 b2 bd d8 bb 8c 3d 54 f7 56 be
       -0.21653558 -0.08725394 0.06871766 -0.20992786
000290 f1 02 bb bd 6b 1d 05 be ae ea ac bd 44 0c 50 be
       -0.091314204 -0.12999503 -0.08443199 -0.20317179
0002a0 eb 3f 79 be c5 54 99 be 29 7c 88 be 7b d6 0e be
       -0.24340789 -0.29947487 -0.26657227 -0.13949005
0002b0 32 e3 17 3e d6 91 06 3e c4 ca 85 3d 8a 66 3d be
       0.14832762 0.1314157 0.06532815 -0.18496147
0002c0 0a 97 75 3d 14 53 66 be 90 90 53 be 89 0e 8c be
       0.059958495 -0.2249263 -0.20660615 -0.2735484
0002d0 07 cf df bc 0c 7c bf 3d 29 ba c7 3c a1 c6 08 be
       -0.027320398 0.09349832 0.02438076 -0.13357021
0002e0 8b cd 71 3c 0f 0a 06 3e 66 11 0b 3e 13 01 50 be
       0.014758478 0.13089775 0.13580856 -0.2031291
0002f0 37 cc a4 bc 3c fb f1 3d 7b 1b 4b be 88 31 0a bd
       -0.020116908 0.11815497 -0.19834702 -0.033738643
000300 5a 69 59 be 71 3a c9 be 97 4a cb bd 56 7d 0d ba
       -0.21231595 -0.393024 -0.09926336 -0.00053973997
000310 f1 e1 e3 bd 58 b1 a2 3d 68 f3 82 3d 29 2a 48 be
       -0.11127079 0.07943982 0.06394082 -0.19547333
000320 8a 0b 74 bb 8b b0 1d bb 9d 03 96 3c 2d 91 d8 bd
       -0.0037238323 -0.0024061527 0.01831227 -0.10574565
000330 1f b2 0c be 76 83 d0 bd 3b 89 13 be 5f 3c 5a 3e
       -0.13739823 -0.10181324 -0.14407818 0.21312092
000340 a2 8c 0d be 2c 9d 04 bd f3 2d aa 3d 87 dd a3 be
       -0.13823178 -0.032376453 0.08309545 -0.3200495
000350 84 37 6f 3c f6 95 1c be ca f5 bd 3d 06 ce 40 be
       0.014600638 -0.1529158 0.09275396 -0.18828592
000360 e0 f2 a5 be 45 2e a2 3d c2 7d 94 bd df 95 a4 3d
       -0.3241186 0.079189815 -0.07250549 0.08036398
000370 63 e6 23 3e e3 c1 e4 bd 87 b8 e3 bb 43 6f b6 be
       0.16005854 -0.111697935 -0.0069494876 -0.3563176
000380 61 96 59 be ca 75 bc bd 06 14 f2 3b 8d 5c 03 3d
       -0.21248771 -0.09202154 0.007387641 0.032070685
000390 54 e7 3c bc 4f 48 6d be 6b 59 86 3d 1e 93 de bd
       -0.011529762 -0.23172115 0.06560024 -0.10867904
0003a0 e9 96 5e be 28 56 0f 3e 68 cc ee 3c c8 51 9e 3d
       -0.21737255 0.1399771 0.029150203 0.07730442
0003b0 ec 85 8b bd 70 55 f0 bd bc 48 5b be 4c a4 80 bd
       -0.06812653 -0.11735046 -0.21414465 -0.06281337
0003c0 db 3b c7 bd 8c d1 54 bd 5a 78 71 bd 7f 28 36 bc
       -0.097282134 -0.051957652 -0.058952667 -0.011118053
0003d0 61 e4 f2 3c 30 85 0f be 37 f2 9a 3d 2f 88 86 be
       0.029649915 -0.14015651 0.0756573 -0.26275775
0003e0 75 2f a2 be 82 56 ab 3d 21 77 87 be 0f b2 93 bd
       -0.31676832 0.083661094 -0.26458076 -0.07211696
0003f0 e1 a4 94 be 90 8e 11 be 14 e6 9b bd 0e 90 d2 be
       -0.29032043 -0.1421454 -0.07612243 -0.4112553

weight f4 [1, 256]
000000 96 73 ad 3b c1 94 01 3c 02 4a 63 3c 5a a0 84 3d
       0.00529332 0.007909001 0.013872625 0.06475897
000010 23 42 35 3b 32 7b f1 3c c6 bf 85 bd 45 84 15 3b
       0.0027657829 0.02947769 -0.065307185 0.0022814434
000020 79 c3 47 bc 5f 27 bc 3a fd 42 51 bb e8 a8 12 bd
       -0.0121926 0.0014354995 -0.0031930797 -0.035805613
000030 7d 89 04 bd 6a 3e 22 3b fd 05 96 3c 3f ba 93 3a
       -0.03235768 0.002475644 0.018313402 0.0011270716
000040 0a b1 d9 3a 38 11 aa bd 53 83 9c bd 3b 58 cd bb
       0.0016608548 -0.083040655 -0.076422356 -0.0062666214
000050 ef bc 7a 3b 8b b2 4b 3d 4e 12 07 bb 2e 93 32 3b
       0.0038259586 0.04973082 -0.0020610276 0.002724837
000060 46 1c 87 3d 64 39 50 bd 3a 04 bf 3d 68 86 77 bd
       0.065971896 -0.050835982 0.09326978 -0.060430914
000070 60 0c 0b bd 0a 5d 49 3a f3 b1 c5 ba 38 87 91 3a
       -0.03394735 0.00076814054 -0.001508294 0.001110292
000080 67 bc 59 3d 7d ec 29 bd 44 0f a5 b9 38 63 57 bc
       0.05315819 -0.0414853 -0.00031482626 -0.013146214
000090 5d bc 16 bc ef a9 e2 3a 70 63 a8 bd 11 0d 3a bb
       -0.009200183 0.0017293076 -0.08222091 -0.0028389136
0000a0 10 c1 2c 3b 43 d8 3f 3b e5 9e 59 bc c7 4c 91 bc
       0.0026360191 0.002927319 -0.013282512 -0.017736806
0000b0 c6 0a e3 3b 7b 25 34 3c 4c a7 2a 3c 3e fa 16 bc
       0.0069287745 0.010995264 0.010415863 -0.009214936
0000c0 1d 3a c4 3a d1 c4 d6 ba 92 f5 73 3a fa 2c 09 bd
       0.0014970932 -0.001638556 0.0009306307 -0.03349016
0000d0 b6 89 87 ba 90 df d4 bd 3a b7 8d ba 28 2a 9f 3d
       -0.0010340724 -0.10394204 -0.0010812052 0.077717125
0000e0 f9 f2 97 bd a8 94 79 bc d0 da 36 3c 70 a2 fb 3a
       -0.0741939 -0.015233196 0.011160567 0.001919819
0000f0 b1 8b 54 bb 85 5a 0d be ea 4e 06 bb 53 af 5a 3b
       -0.0032431895 -0.13804062 -0.0020493814 0.0033368662
000100 fc f7 8e bc f4 cd 10 bd 77 ec e5 bc d5 ba 14 3d
       -0.017452233 -0.035352662 -0.028066857 0.03631099
000110 6a 95 ba bd 8e 40 0a 3b 89 7d 7d 3c 9a 8b 4f bc
       -0.0911053 0.0021095606 0.015471824 -0.012667561
000120 1a 64 41 bc 47 00 01 3b d0 a6 3c 3d c7 74 40 bd
       -0.011803651 0.0019684003 0.046057522 -0.046986368
000130 96 2a 23 3b d8 57 18 b9 da 43 83 3d 15 15 9e bb
       0.002489721 -0.00014528574 0.06409426 -0.0048242905
000140 1d a3 13 3b 15 4b 1c bb 98 7f c1 3a 31 c2 bd bd
       0.0022527643 -0.0023848463 0.0014762757 -0.09265555
000150 b0 17 80 bb dc 46 f3 bd 69 bc df 3a 00 f7 1f bb
       -0.003909074 -0.1187875 0.00170697 -0.0024408698
000160 d7 86 05 3d b1 f4 8a 3a b0 a3 ae bd b6 ab 16 bd
       0.032599296 0.0010601488 -0.08527315 -0.03678485
000170 e9 2f 02 bd 28 61 c1 3d 8b 39 b7 3a 29 1b e3 bb
       -0.031783972 0.09442359 0.0013978941 -0.006930728
000180 02 ca 6d 3b 6c c7 a8 bd ad 95 10 3d 2c 63 45 bd
       0.0036283736 -0.08241162 0.035298992 -0.04819028
000190 3a bd 97 ba ec 9e 9b 3c 36 e2 37 3b a4 eb 8b bc
       -0.001157678 0.018996678 0.0028058416 -0.017080136
0001a0 21 03 a1 3a b4 87 d9 b9 44 aa 57 3a b2 d4 d5 3d
       0.0012284258 -0.00041490572 0.00082269707 0.10440959
0001b0 d1 75 85 3d fb e7 8c bd b0 4b 53 3a 89 4b 05 bd
       0.06516612 -0.06880184 0.00080602895 -0.03254274
0001c0 11 ed 8a 3d 16 87 ab bc 35 41 9d bb 84 67 53 3d
       0.06783498 -0.020938437 -0.004799033 0.051612392
0001d0 2a 22 eb 3c c3 44 11 3b d0 dd 94 ba 14 31 0e 3d
       0.028702814 0.002216623 -0.0011357609 0.034714773
0001e0 93 fb 86 39 d0 50 18 bb 11 4e 01 3b 1f f0 b6 3c
       0.0002574591 -0.0023241527 0.001973037 0.022331296
0001f0 3a b4 2c 3b 19 91 ac b9 bc 43 0b bd c8 82 b4 3d
       0.002635254 -0.00032914503 -0.034000143 0.08814007
000200 30 3e 92 3b 9c 91 18 3b 09 c9 24 ba 4e df a0 bc
       0.0044629797 0.002328015 -0.000628606 -0.01963773
000210 d6 47 3e 3d eb 3b 3f 3d 29 76 33 3b 17 54 12 3d
       0.046455227 0.046688 0.0027383661 0.035724726
000220 60 8b f9 3a db 86 e4 39 d8 99 73 3b 5e f0 f4 3c
       0.0019038729 0.00043588024 0.0037170555 0.029899772
000230 a1 36 e3 39 95 2e 40 bb df 62 ac 3d fd c9 b1 3d
       0.00043337516 -0.002932464 0.08417296 0.08681104
000240 b2 20 94 39 81 6b 41 bb ef 90 8a 3a e5 56 a8 bd
       0.0002825312 -0.002951354 0.0010571758 -0.08219699
000250 f0 c7 30 bb 49 a6 be 3c 8b 10 cd 3a 7d e9 84 bb
       -0.002697464 0.02327265 0.0015645189 -0.0040561543
000260 69 67 e2 b9 94 1c 60 bb 5c 03 95 3d 2a 73 67 3d
       -0.00043183126 -0.0034196721 0.072760314 0.056506313
000270 cd 7e d3 bc 53 3a 5c 3b 32 0c 30 3a 89 01 93 3a
       -0.0258173 0.00336041 0.00067156844 0.0011215667
000280 f7 b5 19 3b c5 92 17 bd 67 dd 74 3a e4 aa e9 3c
       0.0023454407 -0.037005205 0.0009340853 0.02852387
000290 42 9e af ba de 30 7c 3d f7 97 f8 3d a8 4d af bb
       -0.0013398605 0.06157004 0.1213836 -0.0053498335
0002a0 9d 5a b4 3b 00 7c 66 bc b0 31 dd 3b 6b 7c a2 3c
       0.005503966 -0.01406765 0.006750308 0.019834718
0002b0 39 4e 01 be 7b 85 ef 3d 07 33 9c bc b8 1b 2b bd
       -0.12627496 0.11695381 -0.0190673 -0.04177448
0002c0 35 94 79 3d 00 04 fc 3a 6f 97 5f bd d6 34 c6 3a
       0.060932357 0.0019227266 -0.054587778 0.0015121948
0002d0 a5 d7 05 bb f3 3c 76 3c d0 62 8d 3b 39 58 d3 3a
       -0.0020422724 0.01502918 0.004314758 0.0016124315
0002e0 5a 81 31 be bf 6d eb 3c 33 7c e3 b9 d0 fb de bb
       -0.173345 0.028738854 -0.0004338935 -0.0068049207
0002f0 e4 1d 1b 3b 99 6a c4 bb 9e a6 91 3c cb d6 ae 3a
       0.002366894 -0.0059941527 0.017779645 0.001333916
000300 8b f7 5b 3d c8 b5 0e bd e7 46 4b 3c 24 c9 a8 bb
       0.053702872 -0.03484133 0.012407041 -0.005150931
000310 49 6b 7d 3c 68 39 73 3d 8f d7 00 bc 51 d5 05 3c
       0.015467473 0.05938092 -0.007863893 0.008168534
000320 ce d1 08 bd dd 83 d1 bb 72 da 0f bb 65 9e 6d 3b
       -0.03340321 -0.006393893 -0.0021950272 0.003625774
000330 a5 9b d5 3a 04 0b 92 3a b8 ba ef 3a ca cf f6 3c
       0.0016296996 0.0011142199 0.00182899 0.030128378
000340 41 fb be 3d 75 67 4b bd 00 b7 b0 3d be b8 fd 3a
       0.09325267 -0.04965921 0.086286545 0.0019357426
000350 53 b5 0c bd a5 e9 55 3b fe 49 93 bc f6 39 06 bc
       -0.03435261 0.0032640484 -0.017979618 -0.00819253
000360 e5 1e 09 3b 90 f0 2a bb 26 d8 2c 39 80 0a 6e bc
       0.0020922956 -0.0026083328 0.0001648372 -0.014528871
000370 6b ef ff bc e7 bd c1 3a 88 d7 a8 bd 20 b3 00 3b
       -0.031242093 0.0014781327 -0.08244234 0.0019638017
000380 3c d5 0e 3a d9 56 37 3b 53 d3 a7 bc 48 18 10 3a
       0.00054486445 0.002797535 -0.02048651 0.0005496782
000390 fe a1 ff 3d fa b8 87 3c 56 16 a6 3d ec b6 35 3b
       0.124820694 0.016567696 0.08109729 0.0027727438
0003a0 ae d7 49 3d bd aa b8 39 d9 aa 81 ba 9b 4b 7b bd
       0.049277954 0.00035222425 -0.0009892836 -0.0613514
0003b0 49 c5 31 3d d3 83 9f ba b1 66 6a bd 37 1c 80 3a
       0.043401036 -0.0012170024 -0.05722684 0.0009774034
0003c0 21 6a 47 3c 1c 08 2b 3b 89 8c ad 3a bb cc 34 3b
       0.012171299 0.0026097363 0.0013240735 0.002758785
0003d0 c0 42 31 bd 1c 2b 3b 3c bc f7 24 3b f0 9e d6 3b
       -0.04327655 0.011423852 0.0025172075 0.0065497085
0003e0 56 5f 1c bd e4 e7 4d bd bc ab 5c 3d f1 b8 a9 3d
       -0.038176857 -0.050269976 0.053874716 0.08287228
0003f0 60 d6 07 3d c5 1a 18 3b 96 c6 39 bc f8 d9 e8 39
       0.03316343 0.0023209315 -0.0113388505 0.00044412888

weight f4 [256, 1]
000000 f6 3a 31 be 19 0f 29 bc 58 d2 2e c0 78 98 9e 3e
       -0.17307648 -0.010318541 -2.7315884 0.309757
000010 d5 01 3e bd c3 68 49 be 1e eb 61 bf 8b 48 3c bd
       -0.046388466 -0.1966887 -0.88249385 -0.04596762
000020 49 e9 8d 3e b6 0b 7e bf 5e 7e db 3d 66 9c 74 3e
       0.27717045 -0.9923662 0.10717462 0.23887786
000030 8b 3b 53 3e 40 ea 07 bf ff f0 74 bc 96 77 70 3e
       0.20628183 -0.5309181 -0.014950036 0.23483118
000040 0d 0b 98 bd f7 0a c8 3e 4b e7 00 be 12 33 ed 3e
       -0.07423983 0.39070866 -0.12588231 0.46328026
000050 04 f0 38 bd 67 df 03 3f 68 a7 6e 3f 7c d9 14 bf
       -0.04515077 0.5151276 0.9322419 -0.58144355
000060 88 67 17 bf 64 f6 0f 3f 86 f6 d3 3e 2d 4a 4b 3f
       -0.5914235 0.5623534 0.4139902 0.7941006
000070 5e 4b 9d 3e bd ae 0e be 3a 3c 36 bf e2 fc 4e bf
       0.30721563 -0.13933845 -0.7118565 -0.8085462
000080 7a 2e 28 bd e8 fe 5d bf c0 89 e0 bc 6e 9f 33 3f
       -0.04105995 -0.8671708 -0.027409434 0.70165145
000090 6f e4 5d c0 6a c1 95 c0 b3 ae 73 be 5d 7b 1b 3e
       -3.4670675 -4.67986 -0.23797111 0.15183778
0000a0 0a 1c fb bd 1c d1 b8 bd 9b 16 54 3f b7 f8 e7 3e
       -0.122612074 -0.090242594 0.82846993 0.45306942
0000b0 45 76 d2 3c 12 da e3 3e 9a 97 a4 3e e8 1f d9 3e
       0.025691161 0.44502312 0.32146913 0.42407155
0000c0 09 98 84 bc 35 68 79 bd 30 cf 91 bd c4 ed aa be
       -0.016185777 -0.060890395 -0.07119596 -0.33384526
0000d0 6d 9b b3 3d 7a 8b 2d bf a6 3f 07 3e 2b 4d 7d 3e
       0.087698795 -0.6779095 0.13207874 0.24736468
0000e0 27 53 a8 c0 d7 5b b0 3e 23 c0 58 bd a6 d8 53 bd
       -5.2601504 0.34445068 -0.05291761 -0.051720284
0000f0 a2 da 6f bf bd 85 a8 3e 99 e4 28 c0 4f 4c 80 bd
       -0.9369298 0.32914534 -2.6389525 -0.06264555
000100 31 25 8f 3e f4 00 64 3f 3a bd 4d bf 47 c3 55 3e
       0.27958062 0.89063954 -0.8036686 0.20875274
000110 49 13 80 3f b8 44 80 be 63 c5 99 c0 00 9a aa bd
       1.0005885 -0.25052428 -4.805345 -0.083301544
000120 ae b5 44 3e fe af 41 bf eb 62 1a 3f 82 42 90 3e
       0.1920993 -0.7565917 0.60307187 0.2817574
000130 05 41 36 bd e0 15 13 be 77 61 d6 3e b6 89 ac c0
       -0.0444956 -0.14363813 0.41871235 -5.3918104
000140 6f 87 65 bd ca 46 cc 3e 04 06 76 bc b5 9c 24 3f
       -0.056037363 0.39897758 -0.015016083 0.64301616
000150 f0 b2 89 bd a1 86 1a 3f 39 db b7 bd a0 c6 7d bd
       -0.06723583 0.6036168 -0.0897736 -0.061957
000160 da c8 b0 3e 80 97 ff be 05 df 1a 3f 20 cb a8 3e
       0.34528238 -0.49920273 0.6049655 0.32967472
000170 7a b8 74 bf b2 4f 3d 3e 60 dd 2b bf f8 33 92 3e
       -0.9559399 0.18487433 -0.67134666 0.28555274
000180 0c 88 a7 bb 20 fd 70 bf 6c 66 90 c0 c6 a1 f0 3e
       -0.0051126536 -0.9413624 -4.5125027 0.46998423
000190 fc 72 b5 be 00 6d 00 3f 72 ca 68 bd c3 1e 80 3e
       -0.3543929 0.5016632 -0.056833692 0.2502347
0001a0 10 46 c9 bd f4 13 0c bf 06 74 03 3e 38 29 c3 3e
       -0.098278165 -0.54717946 0.12837228 0.38117385
0001b0 f2 0a ab 3e 67 13 08 be 60 ac 83 bd 93 0a 87 3e
       0.33406788 -0.13288651 -0.06429362 0.26375255
0001c0 14 cf a8 be e6 3d 9e c0 2b 10 64 3e 42 60 a8 bd
       -0.32970488 -4.945056 0.22271793 -0.08221485
0001d0 58 74 1f bf d0 f5 70 be 35 bf e9 3d b0 ef 0f be
       -0.622869 -0.2353127 0.11413423 -0.14056277
0001e0 10 86 f3 be ed a4 b2 3d 8f 1c 11 bd 62 1b 10 bf
       -0.4756322 0.08722863 -0.035427626 -0.5629178
0001f0 40 f5 36 bd 8c 4d 10 3d 50 e6 28 be d5 a6 13 3f
       -0.044667482 0.035230204 -0.16494107 0.5767644
000200 2f b2 32 bd 52 a8 d7 bd d4 61 82 be ce 57 41 bf
       -0.04362696 -0.105301514 -0.25465262 -0.75524604
000210 ed 67 b5 3e 55 44 c7 bd 63 27 dc bc a0 9e 27 bf
       0.35430852 -0.0972983 -0.02687425 -0.6547642
000220 ed f9 44 c0 80 18 0f 3c aa ed 87 bc bb f6 f2 3d
       -3.0777543 0.008733869 -0.01659282 0.11863466
000230 86 34 96 3c b1 e9 8a 3e 7f 9b 39 3e 20 5f ba 3d
       0.018335592 0.27131417 0.18125723 0.09100175
000240 39 f7 02 3b 60 65 33 3d 43 61 0b 3e 2b 80 08 3f
       0.0019983782 0.04379785 0.13611321 0.5332057
000250 ea cb ec 3e 18 63 cc be a4 8b 9d be 8c bb 01 be
       0.46249324 -0.39919353 -0.307706 -0.126692
000260 f8 30 ea be c3 13 9c 3e 7b a0 49 3f 3c 67 98 3c
       -0.45740485 0.30483827 0.787605 0.018603913
000270 4e 46 7c bf a7 f7 26 bd e0 2b 04 bf ec 0d 4b bf
       -0.98544776 -0.040763523 -0.5162945 -0.7931812
000280 22 e3 b7 bd 7c 1e 91 3e 32 b8 72 bf db 60 2d bd
       -0.08978869 0.2834357 -0.9481231 -0.042328697
000290 84 03 8c be bb 27 a5 3e 75 62 83 3e b2 e4 12 3f
       -0.27346432 0.32256874 0.25661054 0.5738021
0002a0 79 04 89 bd 9f b5 eb 3e 57 ee b5 c0 21 d6 54 bd
       -0.06690306 0.46037003 -5.685344 -0.05196202
0002b0 68 ab 02 be ec 33 1a be b9 36 54 3d 7d 98 76 3f
       -0.12760699 -0.15058869 0.05181 0.9632643
0002c0 4f b7 c0 c0 a8 6d f7 bd 49 a1 66 3d db 65 88 c0
       -6.0223765 -0.12081462 0.056306157 -4.2624335
0002d0 44 dd ce be c6 f4 00 bf 36 66 3d 3f 5e fa 46 bf
       -0.40403187 -0.50373495 0.73984087 -0.7772578
0002e0 68 67 3c bf 2e 8c 52 bf de 15 3a bf 47 52 01 3f
       -0.73595285 -0.8224515 -0.72689617 0.5051617
0002f0 f6 2f 32 bf 61 d6 99 bd 98 30 46 be 96 b1 62 bf
       -0.6960443 -0.07511593 -0.19354475 -0.88552225
000300 6e 8d 4a bf 85 ee b3 3e 8c ae 21 3f 7a 78 06 3d
       -0.79122055 0.35142913 0.6315696 0.03282974
000310 78 e5 34 bd 0b 8e 62 3f 1a ba d3 3e f2 4b f0 bd
       -0.04416415 0.8849799 0.41352922 -0.117332354
000320 75 f5 8b c0 7e 2d 0e bf 2b 04 f8 bf 1f ac 93 bd
       -4.373713 -0.55538166 -1.9376272 -0.07210564
000330 13 af ed 3e 90 50 fb be 30 8b 2c bd 92 dd 03 3f
       0.46422634 -0.49084902 -0.042124927 0.51509964
000340 02 6e 17 3f 70 6f 69 3f 22 6a 33 3f 53 d2 0d bd
       0.59152234 0.91185665 0.7008382 -0.03462441
000350 85 ac fd 3e 20 7d 2f be ee 75 7a bf 3d f7 1d 3f
       0.49545684 -0.17137575 -0.97836196 0.6170538
000360 5a ca 4e bd 20 df fe bd 73 92 07 bd e9 38 eb 3e
       -0.050485946 -0.124449015 -0.03309865 0.45941857
000370 7f 62 a9 3e 05 8d 34 bc 2e 32 e4 3e aa 70 1b bd
       0.3308296 -0.01101995 0.44569534 -0.03794924
000380 e4 27 1e 3c aa 6d 14 bf 25 53 e2 3d 28 d5 82 be
       0.009653065 -0.57979834 0.11051015 -0.2555325
000390 59 3c eb 3c 48 fa 06 bd 09 fb c0 3e bf 37 0a be
       0.0287153 -0.03295353 0.37691525 -0.13497828
0003a0 85 31 8a be cc fe 4a bf e7 3d d4 3d 3f 6c c3 3e
       -0.26990905 -0.7929504 0.103633694 0.38168523
0003b0 7b df 8e c0 f2 8b 7c 3d ce 32 12 3e 10 52 e4 bd
       -4.4647803 0.0616569 0.14277193 -0.11148465
0003c0 6c aa 43 be d9 5d 57 bd 00 6c cf bd 44 3b 42 bd
       -0.1910798 -0.052579734 -0.10128021 -0.0474198
0003d0 12 fe 08 bf 54 80 6c be 6b 8f 63 bd 22 bd 19 be
       -0.5351268 -0.23095828 -0.055556696 -0.15013555
0003e0 4b ee 73 bf 03 ef 7e be b1 c0 87 be 03 60 2b 3e
       -0.9528548 -0.24895863 -0.265142 0.16735844
0003f0 e3 b6 e8 bd b4 04 cd bd a6 2d 61 be 81 13 5a 3d
       -0.11363008 -0.10010663 -0.2199007 0.053241257

bias f4 [256]
000000 18 92 36 3f ea 4c 96 3c 90 9f b8 3e 46 74 a7 bf
       0.7131667 0.018347222 0.36059237 -1.3082359
000010 55 d6 a9 3e 96 bc 8a 3f b0 b9 75 bf 21 34 9b 3e
       0.33171335 1.0838802 -0.9598646 0.3031321
000020 73 08 96 bf a4 58 9e be 28 03 db 3d ab 71 01 3f
       -1.1721328 -0.30927002 0.106939614 0.5056407
000030 8f 18 e6 3e fc 05 6f bf 54 d6 ef 3c 1a 45 a5 bf
       0.44940612 -0.93368506 0.029277004 -1.2911713
000040 16 f9 96 3e a3 2b 27 3b 66 31 08 3f 70 70 d2 3e
       0.29486912 0.0025508187 0.53200376 0.41101408
000050 6d 72 98 3e 22 9a 96 3e 77 8d 1c bf 38 78 a5 be
       0.297748 0.2941447 -0.6115336 -0.32318282
000060 a8 ad 8b be 44 fb 09 3f f2 c9 3a 3f 0f 5a 23 bf
       -0.27280927 0.53899026 0.72964394 -0.63809294
000070 bf 0c a7 bf d7 a0 16 3f 76 05 36 bf 88 e6 8f be
       -1.3050765 0.5883917 -0.7110208 -0.2810557
000080 3d 20 61 3e 60 5b d2 bd b8 52 80 be 12 4e 5b 3f
       0.21984954 -0.10271335 -0.2506311 0.85666
000090 47 8d eb 3e 19 8f 85 3e 9a 01 80 3f 9d a8 28 bf
       0.46006224 0.26085737 1.0000489 -0.65882283
0000a0 ba 8e f1 3d 41 2b 1b 3f 56 66 40 bf 21 f1 f3 bf
       0.11794801 0.60612875 -0.7515615 -1.9057962
0000b0 10 d1 4e be 53 b6 fc be 7f 01 4c 3e 29 35 e5 bf
       -0.20196939 -0.49357852 0.19922446 -1.7906848
0000c0 6b 35 01 3d 70 d9 da 3e 10 af f6 be 80 80 6c bc
       0.031545084 0.42744017 -0.48180437 -0.014434934
0000d0 0a e7 0d bf cc 74 59 bf 48 5a 3e 3e 40 64 ae bf
       -0.5543066 -0.8494384 0.18589127 -1.3624344
0000e0 2f 28 18 3f 44 13 1a 3f 7a 38 93 3e 66 aa 03 3f
       0.59436315 0.60185647 0.28754026 0.5143188
0000f0 d6 6d 0a 3f 26 09 5a 3a 08 18 9b 3d d8 8b b2 3e
       0.54073846 0.0008317403 0.07572943 0.34872317
000100 fc 18 66 3d e2 94 24 bf cc 13 48 bf d1 7b 0b 3d
       0.05617617 -0.6428968 -0.7815521 0.034053627
000110 ef 72 89 bf b8 9b ff 3d b1 ef 2d 3e c4 f3 bd be
       -1.07382 0.12480873 0.16985966 -0.3710004
000120 7a 96 54 bf c0 2b 00 bd 6e 6a 45 3f 4c 50 22 3b
       -0.8304211 -0.031291723 0.77115524 0.00247671
000130 e7 01 b3 3e 56 e2 12 bf ac bf fa 3e 08 51 12 3f
       0.3496239 -0.5737661 0.4897436 0.57154894
000140 06 50 07 3f d0 79 81 bb 45 85 6e 3e 40 63 44 3f
       0.5285648 -0.0039512888 0.23293026 0.76713943
000150 40 1a 30 bd 84 e5 83 3e f5 49 cb 3e 0c 12 b3 be
       -0.042993784 0.25761044 0.39704862 -0.34974706
000160 78 54 52 3b 40 ba 20 be 35 c8 d5 be 63 ac 3d 3f
       0.0032093804 -0.15696049 -0.41754308 0.74091166
000170 d8 f5 2e bf 96 7a 82 bf 80 a9 fb bd 87 be ff 3e
       -0.6834388 -1.019366 -0.12288189 0.49950048
000180 f9 fe 31 3d 20 f2 e7 bd 65 62 36 3f fe 1d ae 3e
       0.04345605 -0.113254786 0.7124389 0.34007257
000190 00 15 9d bc b8 c8 e8 bf e8 d8 5d 3e 6c f1 b0 bf
       -0.019175053 -1.8186255 0.21664774 -1.3823676
0001a0 20 fd 39 bf a0 05 f3 be b4 08 ef 3e 56 aa cd bf
       -0.72651863 -0.4746523 0.46686327 -1.6067607
0001b0 58 46 b5 bf 99 80 6e 3f 72 9d 78 bf 5d 43 8f bf
       -1.4162092 0.93164974 -0.9711524 -1.1192433
0001c0 d4 64 2b bf 30 de d6 3e 38 3a c7 3e a0 f8 b9 3e
       -0.66950727 0.4196639 0.38911605 0.36322498
0001d0 64 a3 a2 be 18 10 ba be 2a e1 0c bf 88 5a 44 3f
       -0.31765282 -0.36340404 -0.55031073 0.7670064
0001e0 c0 71 c2 bc c3 cc 22 bf bc 8d a5 3e 0c 92 eb be
       -0.02373588 -0.6359369 0.32334697 -0.46009862
0001f0 34 04 b7 3e 92 a3 a4 be a8 58 c1 be 73 04 80 3f
       0.35745394 -0.32156044 -0.37762952 1.0001358
000200 a9 21 e6 3d 69 19 28 3f 00 17 7b be 80 ea 27 bf
       0.11236889 0.6566377 -0.24520493 -0.65592194
000210 47 f1 7a 3e 06 e9 06 3f 81 53 5f 3e 4c 84 3b bf
       0.24506103 0.52699316 0.21809198 -0.73248744
000220 44 c3 37 3e 80 79 d1 be 67 a7 08 3d cb 4a 06 3f
       0.17945582 -0.4091301 0.033362772 0.52457875
000230 98 24 0d be ed b4 15 be fa c7 70 3e b8 06 52 bf
       -0.1378349 -0.14619799 0.23513785 -0.820415
000240 e7 d7 53 bd ee 57 5a bf e7 37 41 bf 2b 0b 0e c0
       -0.051719572 -0.8529042 -0.75475925 -2.2194316
000250 87 8e 46 3f d6 60 79 bf 88 ac c1 be 08 23 7a 3e
       0.7756123 -0.97413385 -0.37826943 0.24427426
000260 c8 7c a5 be da 1a a6 bf 99 5d 3c 3f 40 29 1b 3f
       -0.32321763 -1.2976944 0.7358032 0.6060982
000270 20 1d 53 be fc 88 4f 3e ec f6 c6 be f0 e4 5a bf
       -0.20616579 0.20267099 -0.3886026 -0.8550558
000280 e1 eb b0 3e 97 0d 9b bf 10 72 0e bf a0 b7 15 3e
       0.3455496 -1.2113522 -0.55642796 0.14620829
000290 00 00 65 bd 6d da ae bf 3e dd 26 3e 96 52 3d 3b
       -0.055908203 -1.3660408 0.16295335 0.0028888336
0002a0 4c be 4e 3f 7d 0c 2c 3f a3 47 a2 3e bb 85 8e 3e
       0.8075912 0.67206556 0.3169528 0.27836403
0002b0 75 59 09 3f 5f 50 54 3f a0 cf 19 3a f4 96 23 bf
       0.53652126 0.82935137 0.00058674254 -0.6390221
0002c0 fb e8 bd 3e 46 54 e3 3e 45 1f f2 3e a2 27 d1 b9
       0.37091812 0.44400233 0.47289482 -0.00039893115
0002d0 b0 3f 9c be c0 52 75 be 9b a0 e5 bf 14 fb d0 3e
       -0.3051734 -0.23957348 -1.7939638 0.40816557
0002e0 98 af 42 be 50 80 24 bf 20 0f 60 bd 34 16 07 c0
       -0.19012296 -0.6425829 -0.054701924 -2.1107302
0002f0 80 00 4b bc f9 68 5d ba 1c fc 1a bf 34 18 9e be
       -0.012390256 -0.0008446123 -0.6054094 -0.3087784
000300 b8 5f 56 bf 76 32 f8 3e ec 4c ba 3e f6 44 a5 3e
       -0.83739805 0.48476 0.36386812 0.32279176
000310 ef 58 99 3d 08 f1 6e bf 39 e4 8e 3e 5c 5f 23 3f
       0.07487666 -0.93336535 0.27908495 0.6381738
000320 6c 71 0c 3f d0 7f 8b be de 61 da 3e 78 3f 02 3e
       0.5486057 -0.2724595 0.42652792 0.12719524
000330 e5 2b 00 3d d0 e8 77 be f5 69 24 3e 81 c0 03 c0
       0.03129186 -0.24209905 0.16056044 -2.0586245
000340 5c 39 ef 3e 49 7b 56 3f 37 8a 53 3e b3 0c 01 3e
       0.4672345 0.8378187 0.20658194 0.126025
000350 4c 26 8b 3b 10 e1 76 be e0 c3 33 bd 05 8f 25 bf
       0.0042465087 -0.24109292 -0.043887973 -0.64671355
000360 22 80 ef 3e e0 60 6d bf 9f 5e 8d 3d 0e d3 45 3d
       0.46777445 -0.92725945 0.06902813 0.04829698
000370 cd bd b3 bf 1d 66 82 ba f6 fc ef bf 8b a8 2d 3e
       -1.4042298 -0.0009948645 -1.8749073 0.16958825
000380 35 ff c2 3e 28 11 3c be 04 64 f3 be 14 de 6d bf
       0.38085333 -0.1836592 -0.47537243 -0.9291699
000390 60 89 05 3f eb 64 35 3e d0 a7 44 3f 3b 30 3d 3f
       0.5216274 0.17714278 0.7681856 0.7390172
0003a0 42 14 52 b9 42 74 10 bf d6 4e 9b be 74 0d ce bf
       -0.00020034707 -0.56427395 -0.30333585 -1.6097856
0003b0 84 fd d8 3e 4f b8 e7 be a0 b3 cd ba a0 a7 d5 bd
       0.42380917 -0.45257804 -0.0015693791 -0.104323626
0003c0 3b 39 4c 3f 85 3f c8 3e 62 7b 5d bf d6 94 82 3e
       0.79774827 0.39110962 -0.8651639 0.25504178
0003d0 86 96 19 bf 6a 4f 78 3f 73 50 4e 3e 13 5f 50 3f
       -0.59995306 0.96996176 0.20147876 0.8139507
0003e0 28 e9 c5 ba b4 e8 85 3f 64 9e 8e 3f a0 01 9f 3e
       -0.0015099393 1.046164 1.1142087 0.31055927
0003f0 c3 c1 1a 3f b3 8d 47 3e a6 97 6c 3f 7f cb 19 3e
       0.60451907 0.19487648 0.924189 0.15019034

weight f4 [1, 256]
000000 51 80 bc 3c d2 e6 cf 3c ec e3 63 3d 4a 64 90 3c
       0.023010405 0.025378618 0.055637285 0.017625947
000010 62 18 14 3a 99 60 50 3d 82 01 f3 3a df 64 8a 3a
       0.0005649385 0.050873373 0.0018539878 0.0010558626
000020 71 68 e3 3c 23 bb 0c 3b 56 9f 02 3d a0 2e 45 bc
       0.027759762 0.0021473847 0.031890236 -0.012035042
000030 48 8a 44 3d 24 88 db 3b 7b fd 2d bd 92 d7 d7 ba
       0.047983438 0.006699579 -0.042478066 -0.0016467443
000040 7d 78 2b bb ee 5f 44 bc ed e8 ac 3d ad 89 cf 3c
       -0.0026164346 -0.011985762 0.084428646 0.025334204
000050 9f e8 23 3c 6f f1 5b 3c b3 34 51 3d 6a 46 48 3b
       0.010004192 0.0134242615 0.05107565 0.0030559548
000060 f8 14 70 3d 4e 86 42 bb 41 e4 2f bd ef 0c d9 3c
       0.058613747 -0.0029682103 -0.04294229 0.026495425
000070 62 7d 58 bc f2 39 8e 3b 93 ff 0f 39 7e cf e4 3a
       -0.013213487 0.0043404037 0.00013732752 0.0017456857
000080 b8 f4 02 bd 14 2b 6c bd c0 42 8b b9 e7 8d da 3d
       -0.031971663 -0.05765827 -0.0002656188 0.10671597
000090 32 30 53 bd 1b 0d 8f 3a 35 33 70 3d d9 0d 0f 3c
       -0.051559635 0.001091394 0.058642585 0.008731329
0000a0 e7 e1 e5 3a 2a 12 ff ba 07 40 c4 bb f6 89 16 bd
       0.0017538638 -0.0019460369 -0.005989078 -0.036752664
0000b0 5b bc 86 3b 16 25 ad bd 21 16 5f bd 21 63 8e bd
       0.004111809 -0.08454339 -0.054464463 -0.06952501
0000c0 62 54 69 bc f5 55 d4 3d 1e ba 43 3a 39 9d 7d bc
       -0.01424131 0.103679575 0.0007466393 -0.015479379
0000d0 6f 4d 5a bb 64 bf b3 bc f4 0a 98 ba b6 89 3d bd
       -0.0033310314 -0.021941848 -0.0011599944 -0.04627391
0000e0 40 38 8b ba e2 6b b3 3d fd 7c 34 bd 6b 7a 4d 3b
       -0.0010621622 0.087608114 -0.04406451 0.0031353484
0000f0 b8 a2 bc 3a a7 b4 28 3c 5e 51 01 bb e9 11 d2 3c
       0.0014391756 0.010296977 -0.0019732337 0.025643306
000100 f6 c4 2c bc d5 e8 90 b9 6c ee 0a bd 93 10 50 3c
       -0.010545006 -0.00027639294 -0.033918783 0.012699264
000110 1c a7 4e bd e7 33 ab b8 c6 05 6a bd 95 4c 39 3d
       -0.050452337 -8.163583e-05 -0.057134412 0.04523905
000120 4b 69 d9 3c 00 ed 27 3b 4b d4 c3 3d 08 a1 3c bd
       0.026539465 0.002562344 0.09561976 -0.04605201
000130 38 c2 e0 3a ad 3f c1 bb ed 97 86 3d ba 9f 8d bc
       0.0017147725 -0.0058974833 0.06571946 -0.017288078
000140 50 44 e5 3a 50 23 1f bd 63 ec 94 bb 2a 9e a1 bc
       0.0017491672 -0.038852036 -0.004544781 -0.019728739
000150 14 81 37 3d 0e 86 9e 3c 9e e6 c6 bb 1b 27 53 bb
       0.044800833 0.019351032 -0.006069972 -0.0032219354
000160 bb 64 95 bd 87 f0 01 3a 4f 63 6f 3c 9e 61 ab 3d
       -0.072946034 0.0004956801 0.014611079 0.083682284
000170 c1 9e 33 bd bf 38 e5 bb 02 4e 85 3b 50 8b d0 bb
       -0.04385257 -0.00699529 0.004068137 -0.0063642636
000180 ec 3a 49 3b 2a 36 49 3d 11 8f 4e bc f9 74 86 3c
       0.0030705286 0.04912392 -0.012607352 0.016413199
000190 dd e1 34 ba 3e 50 95 3d 21 a0 b3 3b 07 ca 9a bc
       -0.00069001113 0.072906956 0.0054817353 -0.018895162
0001a0 2c b1 07 3b 07 74 a3 bb 52 06 31 ba 01 2c a7 bb
       0.0020704968 -0.004988197 -0.0006752956 -0.005101681
0001b0 bc 9e ee 3a 33 15 66 3d 9d 39 39 3b 1b 33 b1 bc
       0.0018205266 0.05617256 0.00282631 -0.021630814
0001c0 a7 54 fc bd 3f 70 1b 3c 60 cd 8b 3a ea df e0 3b
       -0.12320834 0.009487211 0.0010666065 0.00686263
0001d0 06 f6 98 bb ab 98 26 bc 7a 78 ff 3a 7f 9f db bc
       -0.004668 -0.010168235 0.0019490861 -0.026809452
0001e0 be 99 f5 3c b8 d8 c8 bb 3e 97 05 ba 5b e5 9b 3c
       0.029980537 -0.0061293505 -0.0005096084 0.019030264
0001f0 9e 0d 7b 3a 56 1b a1 ba 4c 4c 1b 3b 83 5d 52 3d
       0.0009576919 -0.0012291472 0.00236966 0.05135871
000200 27 d5 81 3b eb 57 27 3a af 1f 68 ba a6 c1 39 3d
       0.0039621773 0.0006383645 -0.0008854819 0.045350693
000210 8e 84 c1 3c fd 23 b7 bd 3f f3 83 3a 9e e5 09 bd
       0.023622777 -0.08942411 0.0010067 -0.033666246
000220 75 46 48 3b 06 8e 10 ba a2 07 12 bd e2 be 19 3c
       0.0030559574 -0.0005514327 -0.03565181 0.009383889
000230 f0 42 68 3a 3c 2d 56 bc d1 57 18 bd 1e ee c6 bc
       0.0008860072 -0.013072308 -0.037193123 -0.024283465
000240 ce 6f 8d ba cc 8b f7 ba 74 34 0f 3b d2 e7 4b 3c
       -0.0010790767 -0.0018886267 0.0021851333 0.012445407
000250 17 f4 82 3d ac 56 9d 3b 2a 79 3a 3b 28 9a f2 3c
       0.06394213 0.004801592 0.0028453567 0.029614523
000260 0d 5d d7 3a d0 d5 54 bd 2b 34 ad bc 96 65 1f 3c
       0.001643093 -0.05196172 -0.02114304 0.00972881
000270 f0 45 20 bd 5d d2 48 bc 31 d4 87 ba 36 aa b5 3a
       -0.039129198 -0.012257186 -0.0010362921 0.0013859931
000280 ca 75 1a 3a e3 be a7 bd d0 4d 04 3b 53 a8 97 bc
       0.0005892186 -0.081907056 0.0020187981 -0.01851288
000290 6a 9a 6e 3b 38 26 a0 38 77 03 97 3c a0 eb 7d bc
       0.0036407956 7.636513e-05 0.01843427 -0.015498072
0002a0 de 11 37 3d 0a 1b 78 3d 67 c2 6d bd 97 48 fd bc
       0.044694774 0.06057266 -0.058046725 -0.030918403
0002b0 26 43 19 bb 12 3b fc 3c 44 a5 d4 3a 70 6e cd bc
       -0.002338597 0.030789886 0.0016223569 -0.025077075
0002c0 22 02 8b 3c b6 f9 e3 ba ec 5c 6b 3d 04 02 14 bb
       0.01696879 -0.0017393145 0.057461664 -0.002258421
0002d0 98 0b 86 bb e9 2b 7f bc 7b 42 51 3d 5f e9 05 b9
       -0.0040907376 -0.015574434 0.05108879 -0.00012770806
0002e0 63 c6 c3 3d 27 b8 64 3d a2 9b 5d 3a 3d 9b 19 3d
       0.09559324 0.055839684 0.0008453672 0.037501562
0002f0 f9 c7 5f 3d c9 4b 71 3d ee 92 8b bd f4 92 31 3a
       0.05463407 0.058910165 -0.06815134 0.0006773912
000300 7b 5e 65 3d 38 74 16 bd 4b 90 42 bd 8e 50 15 3d
       0.055998307 -0.03673193 -0.04750089 0.036453776
000310 3c 81 3f bd 63 ff 5f 3d 58 1d 44 3d 49 c8 19 bc
       -0.046754107 0.054686915 0.047879547 -0.009386131
000320 63 ce 8f 3b 35 42 96 3c a0 fc 73 bc 78 76 69 3b
       0.004388617 0.018342117 -0.014891773 0.0035623591
000330 66 76 ed 3c 2c ee 82 3b bc 5e 8c 3b 6d c3 6f 3d
       0.02898712 0.0039956775 0.004283754 0.058535982
000340 70 f6 99 bc 96 0c 12 bd ef bc b6 bd da 5b a4 3a
       -0.018794268 -0.035656534 -0.08922755 0.0012539581
000350 8e d9 33 bd 84 af 45 bb c1 7e a5 3d f9 46 06 bd
       -0.04390865 -0.003016443 0.08080817 -0.03278253
000360 e2 20 d6 3a 38 22 37 bd 42 eb 06 3b 77 11 05 3c
       0.0016336704 -0.044710368 0.0020587002 0.00812184
000370 20 ed 2b bd 69 5a cb 3a 96 33 2a bd 78 cf 91 bc
       -0.041974187 0.0015514615 -0.041553102 -0.017799124
000380 59 4a 62 bb 51 0a 05 bc 45 3e 47 3c 14 88 a1 3b
       -0.0034529178 -0.008120135 0.012160842 0.004929552
000390 31 f8 80 bd 95 d5 97 bd 9b d9 cb 3c 41 7e 96 bb
       -0.06297339 -0.074137844 0.024884036 -0.0045926874
0003a0 ad cf 81 3a c6 05 32 3a 50 a9 62 3a af 80 42 bc
       0.0009903811 0.00067910214 0.00086464453 -0.011871501
0003b0 6f 1b 55 3d d8 c2 7c bb 6d aa 17 3c 2c 7e 86 3b
       0.052028116 -0.0038568284 0.009256941 0.0041043963
0003c0 de e7 ad 3c d6 9c a3 3a 62 53 1f bb 13 ed 3a bc
       0.021228727 0.0012482654 -0.0024311175 -0.011409062
0003d0 b3 23 16 bc 55 25 38 bb da f6 f3 3a 63 4a 45 bc
       -0.009163785 -0.0028098423 0.0018612996 -0.012041661
0003e0 6b 81 9f 3c 53 ba f8 3c 52 0c a5 3b 76 b2 94 3c
       0.019470891 0.030362284 0.005036869 0.018151503
0003f0 1b d9 25 bb 0c c2 08 bc 3c 10 af bd b5 e8 b2 bb
       -0.0025306407 -0.008347046 -0.08548018 -0.0054598697

weight f4 [256, 1]
000000 ff 3f 2b 3f 00 47 3b bc d8 fb 54 3e a0 4e 08 bf
       0.66894525 -0.011430502 0.20799196 -0.5324497
000010 45 0c 65 bf dd 2c 5a 3f 1b b1 ac 3e 3f f7 08 be
       -0.89471847 0.85224706 0.3372887 -0.13375567
000020 ae c6 86 c0 3b 78 9b bc 49 c4 6e be e4 a3 cd be
       -4.211753 -0.018978229 -0.23317064 -0.401641
000030 a8 2c 68 3e 58 68 88 be 48 ed a2 be a4 d4 ce be
       0.22673285 -0.26642108 -0.31821656 -0.40396607
000040 30 20 8d be ca 11 c4 3d 87 9c 84 c0 86 f3 84 3d
       -0.2756362 0.095737055 -4.1441073 0.06491761
000050 10 9e 47 be fe 67 3d bf fa 11 70 bf c8 9a f9 be
       -0.1949389 -0.73986804 -0.9377743 -0.487509
000060 17 e2 b2 3e 2d b0 f6 be 9f 8d 3d 3f d0 f0 bf bd
       0.34938118 -0.48181286 0.7404422 -0.09372103
000070 9a 7f 8c 3e 06 05 29 bf e4 09 ef 3c 4c 29 97 bd
       0.27441102 -0.6602329 0.02917952 -0.07380924
000080 b6 a3 df be 5c 07 cf 3e 5c 3f 5a bf 80 13 1f 3c
       -0.4367959 0.40435302 -0.8525293 0.009709239
000090 8b 47 dd 3e 0d 10 77 bd 09 b3 85 3e 78 a6 78 3e
       0.43218645 -0.06031804 0.26113155 0.24282253
0000a0 c8 68 2a bf c6 ac d4 3d 69 1e b2 bf a0 bc ad be
       -0.66566133 0.103845164 -1.391553 -0.33932972
0000b0 d2 48 0b 3f 9e d9 0d 3f 74 f7 9b be 09 14 f4 3e
       0.5440799 0.5541018 -0.3046223 0.47671536
0000c0 34 8b 8e bf ed a2 ae 3e 0c 7d 90 be cc 21 1e 3f
       -1.1136231 0.34108678 -0.28220403 0.6177032
0000d0 df 63 de bf 80 fa 18 bc 26 d8 13 bf f7 cb b3 3e
       -1.7374228 -0.009337068 -0.5775169 0.3511655
0000e0 64 50 6e bf 94 d8 a7 3e 42 e3 d3 bc 5e ac 52 3d
       -0.93091416 0.32782423 -0.0258652 0.051433913
0000f0 dd de 98 3d e1 c5 06 3e 40 49 7f bf 4d 79 d6 be
       0.07464383 0.13161422 -0.99721146 -0.4188942
000100 e2 2e 54 bf 5f a4 52 3f ed b7 d6 3e 2c 1a e7 be
       -0.8288404 0.8228206 0.419372 -0.45137155
000110 a9 3c 3d 3f 73 68 19 3d 8b 81 14 3f b2 60 12 bf
       0.73920685 0.037453126 0.58010167 -0.57178795
000120 11 c6 b4 3d cf 70 05 bd 02 bf 28 bf 50 2d da be
       0.08826841 -0.032578286 -0.65916455 -0.42612696
000130 84 c4 f7 3d 01 8e 30 bf 74 3d 15 3f 91 86 4e 3e
       0.12098029 -0.6896668 0.58296895 0.2016852
000140 40 ac 0e bd f5 ab dd 3e 4d e8 09 3e c8 12 18 bf
       -0.03483224 0.43295255 0.13467522 -0.5940366
000150 b6 6b 6c bf b0 08 e0 3e 0a 0f a9 3e fc 69 61 bf
       -0.92351854 0.43756628 0.33019286 -0.88052344
000160 be a5 68 3f 0e ca 0a bd f0 37 d3 be 8e 22 b7 3e
       0.908779 -0.0338841 -0.41253614 0.3576855
000170 e2 1f d2 be 2b 20 92 3e b0 5a cd be 1a 1b 2b bf
       -0.4103995 0.28540167 -0.40108252 -0.6683823
000180 88 6e 5f bf f6 63 20 bf a3 d3 51 3f 91 23 dc 3d
       -0.8727803 -0.6265253 0.81963557 0.10748971
000190 8c 66 25 bf 23 3f 2a 3f 42 f5 db 3d 46 fd f9 3e
       -0.646096 0.6650259 0.107401386 0.48826045
0001a0 c1 a0 88 bd 32 47 61 bf e8 10 85 bf 1d c9 b4 3e
       -0.066712864 -0.8799926 -1.0395784 0.35309687
0001b0 1f d0 a0 bc 23 6e 95 3e 3a 07 54 bf 24 f9 ed be
       -0.01963049 0.2918559 -0.82823527 -0.46479142
0001c0 53 c0 19 3f b5 2b e3 3d ea 8b 1f bf 12 34 bd bd
       0.6005909 0.11092321 -0.62322867 -0.09238447
0001d0 1c 44 1f 3f 0d 3b 9f 3e f4 eb fb be b7 ed fa 3e
       0.622133 0.3109974 -0.49203455 0.49009487
0001e0 3f a1 8f 3e d8 1c 9d be 53 24 80 bf 29 83 b5 3e
       0.28052709 -0.3068607 -1.0011085 0.3545163
0001f0 b0 67 f0 be 9c 2f 64 bd 21 3e 88 bf 32 9a 79 3f
       -0.46954107 -0.055709466 -1.064396 0.9750091
000200 fd 9f b6 3b 60 71 5b be 73 13 21 bf 3d 50 d0 bc
       0.0055732713 -0.21429968 -0.629203 -0.025428886
000210 a6 31 cf be e3 0b 14 3f 58 46 27 be 5a 7c e1 3e
       -0.40467566 0.5783064 -0.16335428 0.44040185
000220 a5 4b e4 bc 07 71 68 bf 94 00 cc be 82 d6 a6 3e
       -0.027868101 -0.90797466 -0.3984419 0.3258553
000230 eb df a4 3c 86 9d ba 3e 14 f7 e6 3e 84 43 59 3e
       0.020126304 0.36448306 0.4511038 0.21217161
000240 f0 7c 79 bf c4 12 b0 3d 32 f8 39 bf 40 c0 5f bf
       -0.97456264 0.08597329 -0.7264434 -0.87402725
000250 cc 28 35 bf 80 e0 ac bd 40 05 bf bc a4 86 10 3f
       -0.70765376 -0.084412575 -0.023317933 0.56455445
000260 94 37 d6 be a7 84 2d bf cb 7c 29 3f 8e 39 e9 3e
       -0.41839278 -0.67780536 0.66206044 0.45551723
000270 38 a8 64 3f 70 6d 34 3e 52 96 37 bf e4 4d 55 bf
       0.8931918 0.17619872 -0.71713746 -0.83321977
000280 d0 a0 87 bf 0c 82 24 3f c5 b7 0d c0 63 71 0f be
       -1.0595951 0.64260936 -2.2143414 -0.14008097
000290 54 4b 4f 3e 90 c5 68 be dc 88 75 bf 67 4b cc 3e
       0.20243579 -0.22731614 -0.95911956 0.39901277
0002a0 55 dd 0b be 12 77 5a bf e2 29 85 be dc 4f c9 be
       -0.1365865 -0.85337937 -0.26008517 -0.3931874
0002b0 84 75 72 bf 2b e5 68 3f 54 66 c0 be 65 0e 6c 3e
       -0.94710565 0.9097468 -0.3757807 0.23052366
0002c0 30 50 0e bd 82 7d 06 bf 40 43 91 3d 81 4e 7c bd
       -0.03474444 -0.5253526 0.07092905 -0.061598305
0002d0 2e 95 20 bf ec d6 72 3e ee 34 2a 3e 0f 21 0b bf
       -0.6272763 0.23714799 0.16621754 -0.5434732
0002e0 f4 60 cb 3e 74 02 ce 3e c7 c4 9a be 38 a0 33 bf
       0.39722407 0.40236247 -0.30228254 -0.7016635
0002f0 c0 16 8b bd 42 f2 6b 3e 50 28 f3 3e 72 7c 29 bf
       -0.067914486 0.23041633 0.47491693 -0.66205513
000300 0c 0b 13 be 58 8b 19 3f 33 b1 b8 3c 00 32 7a be
       -0.14359683 0.59978247 0.022545433 -0.24433136
000310 19 22 f3 3e a2 ab 60 be 46 0a 51 bf ed 4a 54 3e
       0.47486952 -0.21940473 -0.816563 0.20731707
000320 4b 9c 6d bf 5c 17 80 be 00 c0 0e bb 7a 47 0e bf
       -0.9281661 -0.25017822 -0.0021781921 -0.55577815
000330 64 5b 05 3f d4 e3 ce be 02 c3 78 bd 18 7b 54 be
       0.52092576 -0.40408194 -0.06073285 -0.20750082
000340 0c da d8 bf 41 ca 39 3f 14 a8 59 3f 06 b4 8e bd
       -1.6941543 0.7257424 0.8502209 -0.069679305
000350 30 6b 57 bf ae 9a 47 3e 28 6e 9c 3e 55 2e 4e 3e
       -0.8414793 0.194926 0.30552793 0.20134862
000360 4a 62 14 bd 62 bb 2a 3f 9d 7c 95 bd 90 a5 c0 bd
       -0.03622655 0.66692173 -0.07299159 -0.094065785
000370 51 5c 53 bc b0 18 7b bd 59 92 e2 3e 60 77 ce 3d
       -0.012900428 -0.06130284 0.4425228 0.10081363
000380 de 29 72 c0 98 8f c6 be e0 3c 61 bf a1 84 b9 3d
       -3.7838054 -0.38781428 -0.8798351 0.090585
000390 a5 d9 9e 3e 6f b7 bd bd c4 1f 63 3f 9e ab d4 3e
       0.31025425 -0.09263503 0.88720345 0.41537184
0003a0 44 24 75 3f 60 51 1e be 95 19 2b bd 32 a0 48 3f
       0.9575846 -0.1546073 -0.041772444 0.7836944
0003b0 c7 d7 93 bd 2e 7c 50 bf e9 7b b5 be 2e e9 16 bf
       -0.07218891 -0.81439483 -0.35446098 -0.58949554
0003c0 32 8b 0f 3f 2a 10 bc 3d 80 b3 42 3d fe 42 83 bf
       0.5607177 0.091827706 0.047534466 -1.0254819
0003d0 a1 8f 17 bf d3 30 ce 3e a1 37 79 3b 76 1c 51 3e
       -0.59203535 0.40271625 0.0038027542 0.20421013
0003e0 d0 42 81 3d c0 ed 30 3d 95 a3 a2 3d f8 4e 4b bf
       0.063115716 0.043195486 0.07941357 -0.7941737
0003f0 9e a3 6f bf 5e 36 47 3e 95 0a ae 3e 4a 7a 8e bd
       -0.93609035 0.19454333 0.33992448 -0.069569185
