checkpoints/203052000.ckpt (torch, 122663 bytes, 33 tensors)

weight f4 [256, 18]
0.13242607 -0.12869272 -0.10552931 -0.07656344 0.27360412 -0.102872126 -0.20511359 -0.1975822
0.06798245 0.013150273 0.11752776 0.039943907 0.092437476 -0.16833946 0.24119939 -0.05200157
0.16815124 0.14407624 0.021369305 0.12471093 0.048691288 0.041960225 0.15288657 -0.052693423
-0.13471617 -0.14810339 -0.0009697201 -0.16864568 -0.22299252 -0.03345211 0.048234913 0.06758633
0.103117675 -0.008889986 0.21853732 -0.0462837 -0.09661247 -0.08809128 -0.0019930375 0.051745445
-0.22791077 0.031949267 -0.06316615 -0.34007987 -0.12046885 -0.06223547 0.046981454 0.009690407
-0.018226134 -0.08191348 0.023838138 0.044491492 -0.2105042 0.10787722 -0.11911848 0.08616639
0.11702219 0.10356287 -0.016432138 0.0034646417 -0.16143377 0.0024209155 0.028837122 -0.1694202
-0.2606699 -0.10941788 0.12892844 0.22848459 0.13172299 -0.18492997 -0.0969073 -0.05393918
-0.16992153 -0.17437194 -0.04801201 0.16227031 -0.19435644 -0.17750785 0.03295628 -0.32159102
-0.060809616 0.110919885 0.11943744 0.016182117 -0.002124161 -0.11512111 0.089885235 0.052828383
-0.010815669 -0.2946891 -0.0050762338 0.00687337 -0.002357428 -0.008248654 -0.01724934 0.29072246
-0.0035493458 -0.1349025 0.019665057 0.0018078625 0.004192932 -0.00090667664 0.0027083477 -0.022573095
-0.025566522 -0.0017399872 -0.1145781 0.0071800905 -0.13131459 -0.12191307 -0.03448464 0.06313296
-0.22556971 -0.085039385 0.00897461 0.055796027 -0.15381768 -0.16296327 0.097837836 0.009648513
0.0009881508 0.13732564 0.02599396 0.018925875 0.093305014 -0.0039770864 -0.069124505 -0.008675382
0.0025136776 0.006781898 -0.20680384 0.063135475 -0.0002546224 -0.15657343 -0.04303939 -0.03581896
-0.010341194 -0.0010224216 0.005845847 -0.022885678 -0.07193027 -0.00543848 -0.20211945 0.0039596977
-0.05671537 -0.032089394 -0.015588411 -0.016327394 0.002691334 0.2438965 0.008146796 -0.094332844
-0.14412649 0.033000402 -0.07584728 -0.0011998767 0.002906587 -0.003937997 0.08499949 -0.034670778
-0.3091124 0.002540313 -0.32438162 0.038945407 -0.0023338627 -0.0218321 -0.13561852 -0.017536286
-0.033235412 -0.0768511 -0.11639303 -0.0107685225 -0.09521916 -0.010361767 0.010371155 -0.062282912
0.042021044 -0.042602193 -0.23224068 -0.017817538 0.32180268 -0.008777361 0.01679997 0.055223428
0.24644987 0.27392772 -0.03243707 0.13708073 -0.27381685 -0.14348136 -0.10473691 -0.006437403
0.023594992 -0.011011831 0.17896855 0.016804008 0.08390183 -0.15416382 -0.015391284 -0.0011005778
0.0015684792 0.0005970068 0.0043280735 -0.1314687 0.009754586 -0.065636784 0.004068408 0.0002903674
-0.0014962563 -0.00081649196 -0.0006929974 -0.043953687 0.008127663 0.0023177797 -0.028802367 -0.005041252
-0.020923685 0.002635967 0.0011787389 -0.013165092 -0.02831067 -0.08982913 0.0021472448 0.0758527
0.04549653 0.008515087 -0.0038212389 -0.0043377965 -0.0017971697 -0.020590015 0.18174799 0.0004477777
-0.10063365 0.010444332 0.1622205 -0.104597874 0.023289898 -0.02191809 -0.062910005 -0.19033477
0.13773206 -0.13567571 0.0968553 0.15819985 -0.042482164 0.037592128 -0.059784256 0.10147359
-0.16389853 -0.13603202 -0.13682915 -0.1473121 -0.0011615389 -0.0021370794 0.00020539813 0.0013772623
00000000: b39a 073e 06c8 03be c01f d8bd 4bcd 9cbd
00000010: d715 8c3e 9fae d2bd 4c09 52be fd52 4abe
00000020: 623a 8b3d 3e74 573c 65b2 f03d 399c 233d
00000030: dc4f bd3d 2e61 2cbe f9fc 763e 99ff 54bd
00000040: d72f 2c3e b988 133e ae0e af3c 7268 ff3d
00000050: 8470 473d 7cde 2b3d 4c8e 1c3e 0fd5 57bd
00000060: 09f3 09be 6aa8 17be d034 7eba 74b1 2cbe
00000070: 2758 64be 1405 09bd f991 453d b46a 8a3d
00000080: 5c2f d33d 4ea7 11bc 3fc8 5f3e fa93 3dbd
00000090: c2dc c5bd 3369 b4bd 9f9d 02bb 08f3 533d
000000a0: 7161 69be 3cdd 023d 415d 81bd f31e aebe
000000b0: 5fb8 f6bd 9fea 7ebd a06f 403d 83c4 1e3c
000000c0: f94e 95bc 41c2 a7bd 3348 c33c b63c 363d
000000d0: 6a8e 57be bbee dc3d 64f4 f3bd 0178 b03d
000000e0: 54a9 ef3d c518 d43d b19c 86bc 0b0f 633b
000000f0: e54e 25be 39a8 1e3b d43b ec3c 7d7c 2dbe
00000100: 8676 85be 7b16 e0bd d105 043e ddf7 693e
00000110: 64e2 063e 485e 3dbe 5677 c6bd 54ef 5cbd
00000120: e9ff 2dbe 8f8e 32be 3ea8 44bd 302a 263e
00000130: 6005 47be 9ec4 35be 2afd 063d 94a7 a4be
00000140: 8113 79bd f729 e33d 9e9b f43d 5c90 843c
00000150: 8235 0bbb 9ec4 ebbd c015 b83d 9362 583d
00000160: 3434 31bc 7de1 96be 8956 a6bb 023a e13b
00000170: 147f 1abb 5d25 07bc 7d4e 8dbc 93d9 943e
00000180: 249c 68bb e223 0abe 9d18 a13c cdf5 ec3a
00000190: dd64 893b 0aae 6dba 897e 313b 36eb b8bc
000001a0: e270 d1bc 4810 e4ba eca7 eabd f746 eb3b
000001b0: 5577 06be 8fad f9bd c43f 0dbd da4b 813d
000001c0: bffb 66be 2129 aebd 3e0a 133c 608a 643d
000001d0: 6282 1dbe d8df 26be 345f c83d cc14 1e3c
000001e0: d784 813a 189f 0c3e 49f1 d43c 700a 9b3c
000001f0: b316 bf3d 3852 82bb 2691 8dbd 3023 0ebc
00000200: 83bc 243b af3a de3b 63c4 53be 2c4d 813d
00000210: d77e 85b9 c954 20be 124a 30bd e7b6 12bd
00000220: 1d6e 29bc c702 86ba 858e bf3b bf7a bbbc
00000230: 2d50 93bd 4735 b2bb 67f8 4ebe 5ac0 813b
00000240: 604e 68bd 2b70 03bd 8966 7fbc 07c1 85bc
00000250: 1861 303b 01c0 793e 247a 053c 9431 c1bd
00000260: e595 13be 6e2b 073d d255 9bbd 2e45 9dba
00000270: 707c 3e3b 500a 81bb 3614 ae3d f202 0ebd
00000280: fb43 9ebe 617b 263b 5915 a6be 3885 1f3d
00000290: b8f3 18bb 3bd9 b2bc 95df 0abe 42a8 8fbc
000002a0: db21 08bd 1c64 9dbd 785f eebd 756e 30bc
000002b0: 4302 c3bd 67c4 29bc c7eb 293c 5e1c 7fbd
000002c0: 421e 2c3d a37f 2ebd 80d0 6dbe 16f6 91bc
000002d0: 52c3 a43e ecce 0fbc 17a0 893c f631 623d
000002e0: 5b5d 7c3e 4140 8c3e bcdc 04bd e45e 0c3e
000002f0: b931 8cbe c7ec 12be 4e80 d6bd daf0 d2bb
00000300: 494a c13c f86a 34bc 8843 373e 8fa8 893c
00000310: b9d4 ab3d 1fdd 1dbe b92b 7cbc 4341 90ba
00000320: 6e95 cd3a 7380 1c3a 83d2 8d3b bb9f 06be
00000330: b3d1 1f3c 946c 86bd 4850 853b 743c 9839
00000340: 081e c4ba d909 56ba 45aa 35ba c808 34bd
00000350: e429 053c e4e5 173b f1f2 ebbc 1631 a5bb
00000360: 2668 abbc 30c0 2c3b ea7f 9a3a 66b2 57bc
00000370: c7eb e7bc 56f8 b7bd cab8 0c3b a958 9b3d
00000380: 925a 3a3d dd82 0b3c c06d 7abb 1324 8ebb
00000390: 028f ebba 64ac a8bc 251c 3a3e b5c3 ea39
000003a0: 0419 cebd b41e 2b3c 211d 263e 6937 d6bd
000003b0: 75ca be3c 918d b3bc f6d6 80bd 1ee7 42be
000003c0: a209 0d3e 93ee 0abe 125c c63d 24ff 213e
000003d0: c701 2ebd 34fa 193d 56e0 74bd 63d1 cf3d
000003e0: 04d5 27be fa4b 0bbe f11c 0cbe fcd8 16be
000003f0: c73e 98ba 3e0e 0cbb 2460 5739 4185 b43a

bias f4 [256]
0.1711644 -0.036608182 -0.06181577 0.06251516 -0.269356 0.057145823 -0.2805761 0.0010584038
0.038386215 -0.16992642 -0.02911423 0.079238914 -0.25544852 -0.22452757 -0.02389855 -0.30486542
0.06456034 0.12753877 -0.03942643 -0.111805886 0.0143244965 -0.05399651 0.09691346 -0.03540691
-0.07900661 -0.28890347 -0.07264219 -0.03724676 -0.08011927 0.13054793 0.13813919 -0.28389245
-0.06757208 -0.1639793 -0.36481768 -0.19715314 -0.21395807 -0.093196385 -0.18511264 -0.23906684
-0.42169154 0.059380453 -0.11106186 -0.25444558 0.059643973 0.081719704 0.1486082 -0.25217217
0.046771634 -0.044583865 -0.28056037 -0.15004277 -0.16794963 -0.013018258 -0.09462 0.0129825
-0.13797288 -0.05622749 -0.035389308 -0.012033357 0.0055549494 -0.25204504 -0.26819074 0.030826142
0.010885815 -0.22809303 -0.1967419 -0.14968248 -0.1269097 0.0801539 -0.153796 -0.015382394
0.044308502 -0.27852356 0.05855384 -0.23223877 -0.10024513 -4.960414e-05 -0.11757732 0.029463552
-0.18385199 0.10344759 -0.09497348 -0.09975178 -0.17147286 0.09837752 0.0023999936 0.070012
-0.05809822 -0.23384 -0.05644668 -0.058014423 -0.095441 -0.24516553 -0.2146496 0.067508005
0.13344441 0.03646216 0.1846697 -0.1950943 -0.26951373 0.07540314 -0.00029712 -0.22793831
0.060974043 -0.12726128 0.22543013 0.078141004 0.046951383 -0.14386943 0.06703818 -0.28287616
-0.13320379 -0.07606935 0.08495133 -0.18799078 0.104890086 -0.2016741 0.014802863 -0.069326244
-0.107480444 -0.1803142 -0.09293311 0.019204315 -0.079855986 -0.012107243 -0.12646642 -0.18220386
0.07267187 -0.07731157 0.17366685 0.063638255 -0.034724414 -0.036232345 -0.17108862 0.099439114
-0.027510377 -0.03767091 -0.055417813 -0.1669799 -0.20600174 0.046481237 -0.17072684 -0.13930307
-0.14857846 -0.0371372 -0.13925987 -0.0852759 -0.030675525 -0.27107182 0.011940712 -0.11365953
-0.17782973 -0.24340387 -0.1947569 -0.1736937 -0.0070471126 -0.12536788 0.12418431 -0.025392214
-0.048488434 -0.19433525 -0.1355921 0.10090471 -0.17211573 -0.121442616 0.03362008 -0.014565124
-0.080523655 0.009724272 -0.09205223 -0.34429535 -0.11290373 -0.27353793 -0.3176687 -0.00931912
-0.11779615 0.089685954 -0.19155109 -0.06024235 0.1261707 -0.3795672 -0.023747418 -0.36049405
0.08848123 -0.19620754 0.14623486 -0.12966457 0.06527456 -0.18276612 -0.25594223 -0.06868423
-0.021966819 -0.1005043 0.07602598 -0.098690815 0.12852146 -0.18659493 0.048560906 0.022617562
-0.0629738 -0.04229861 -0.12466104 0.054995913 -0.06965245 0.056795258 -0.29888457 -0.06432731
-0.16107228 -0.23849547 -0.11588 0.04237466 0.036239803 0.04080177 -0.033520125 -0.25973538
-0.019231012 -0.034627482 -0.18747292 -0.2782167 0.19631717 0.030953202 0.067217566 -0.11769735
-0.2231803 -0.22809736 0.04811911 -0.034811374 -0.13837785 0.026422119 0.06859912 0.023851298
-0.07032719 -0.025312878 0.12074055 0.102386154 -0.0032950256 0.13400845 0.024326827 -0.16980127
-0.02892176 -0.25518456 -0.18465322 0.10339638 0.08986384 -0.2426081 0.020546349 -0.06185133
-0.15418282 -0.2553286 -0.14760152 -0.2688604 -0.15460968 -0.12317421 -0.030469514 -0.12303208
00000000: b845 2f3e 76f2 15bd 8832 7dbd f307 803d
00000010: 08e9 89be bd11 6a3d aca7 8fbe 23ba 8a3a
00000020: dd3a 1d3d 3101 2ebe f780 eebc 0348 a23d
00000030: 26ca 82be 8eea 65be e4c6 c3bc 5217 9cbe
00000040: 3638 843d 8699 023e 9c7d 21bd 7cfa e4bd
00000050: 4bb1 6a3c 722b 5dbd 907a c63d d606 11bd
00000060: 38ce a1bd 28eb 93be 6ec5 94bd 0f90 18bd
00000070: 9215 a4bd 5bae 053e 5c74 0d3e 5a5a 91be
00000080: 3b63 8abd 31ea 27be 62c9 babe 83e2 49be
00000090: d317 5bbe bfdd bebd 2b8e 3dbe f0cd 74be
000000a0: f4e7 d7be eb38 733d 6774 e3bd b146 82be
000000b0: 3d4d 743d a95c a73d bf2c 183e b61c 81be
000000c0: 9d93 3f3d 929d 36bd 9ca5 8fbe d0a4 19be
000000d0: fdfa 2bbe 884a 55bc 21c8 c1bd 8db4 543c
000000e0: c348 0dbe cc4e 66bd 61f4 10bd 8f27 45bc
000000f0: 4b06 b63b 0c0c 81be 4c50 89be 1b87 fc3c
00000100: 6b5a 323c 3891 69be b576 49be 5d46 19be
00000110: 9ef4 01be ba27 a43d b37c 1dbe 7006 7cbc
00000120: d57c 353d a49a 8ebe 27d6 6f3d 00d0 6dbe
00000130: 524d cdbd 0a0e 50b8 61cc f0bd 8c5d f13c
00000140: b243 3cbe 54dc d33d 7581 c2bd a94a ccbd
00000150: 9596 2fbe 277a c93d 3649 1d3b 7462 8f3d
00000160: 66f8 6dbd c173 6fbe a234 67bd 88a0 6dbd
00000170: 9276 c3bd ac0c 7bbe 1bcd 5bbe a341 8a3d
00000180: a7a5 083e 5959 153d 0e1a 3d3e cdc6 47be
00000190: b4fd 89be f66c 9a3d c5c6 9bb9 a968 69be
000001a0: ebbf 793d c850 02be 28d7 663e 6408 a03d
000001b0: 1850 403d 8252 13be 504b 893d 25d5 90be
000001c0: 9366 08be 3fca 9bbd f7fa ad3d a880 40be
000001d0: 9dd0 d63d a883 4ebe b587 723c ebfa 8dbd
000001e0: b51e dcbd 49a4 38be b753 bebd 5e52 9d3c
000001f0: 898b a3bd 755d 46bc 6a80 01be a693 3abe
00000200: fdd4 943d 8755 9ebd b9d5 313e c654 823d
00000210: 303b 0ebd 5e68 14bd db31 2fbe bca6 cb3d
00000220: 715d e1bc d04c 1abd cafd 62bd c7fc 2abe
00000230: 1ff2 52be 1c63 3e3d 04d3 2ebe 77a5 0ebe
00000240: f424 18be 2d1d 18bd 249a 0ebe 22a5 aebd
00000250: 3d4b fbbc edc9 8abe faa2 433c 54c6 e8bd
00000260: ff18 36be dd3e 79be 5a6e 47be c3dc 31be
00000270: 77eb e6bb 7060 00be 5854 fe3d 5503 d0bc
00000280: cf9b 46bd d2ff 46be a8d8 0abe 21a7 ce3d
00000290: 1b3f 30be e8b6 f8bd 36b5 093d 8fa2 6ebc
000002a0: 96e9 a4bd 8e52 1f3c e185 bcbd 7b47 b0be
000002b0: 123a e7bd 2a0d 8cbe 79a5 a2be 39af 18bc
000002c0: 1c3f f1bd 45ad b73d f825 44be afc0 76bd
000002d0: e432 013e a256 c2be f289 c2bc ad92 b8be
000002e0: a635 b53d a1ea 48be 97be 153e cac6 04be
000002f0: abae 853d 0b27 3bbe dc0a 83be 51aa 8cbd
00000300: c2f3 b3bc 33d5 cdbd 82b3 9b3d 691e cabd
00000310: 219b 033e be12 3fbe cde7 463d 7748 b93c
00000320: 68f8 80bd 4f41 2dbd 4a4e ffbd 6543 613d
00000330: f2a5 8ebd 25a2 683d 6607 99be 09be 83bd
00000340: 22f0 24be 2838 74be 7e52 edbd 0d91 2d3d
00000350: 3070 143d c21f 273d 664c 09bd 09fc 84be
00000360: 5b8a 9dbc 8cd5 0dbd e7f8 3fbe 6b72 8ebe
00000370: 5e07 493e 9291 fd3c 5da9 893d 4f0b f1bd
00000380: 6089 64be 5b92 69be 8b18 453d 5f96 0ebd
00000390: ecb2 0dbe 3373 d83c b27d 8c3d cc63 c33c
000003a0: b407 90bd f45c cfbc d246 f73d d5af d13d
000003b0: 5bf1 57bb 8339 093e 0e49 c73c 62e0 2dbe
000003c0: 54ed ecbc 8da7 82be bc15 3dbe 7bc1 d33d
000003d0: 880a b83d 426e 78be d150 a83c d257 7dbd
000003e0: 1ae2 1dbe 6eba 82be da24 17be 12a8 89be
000003f0: 0052 1ebe c342 fcbd 349b f9bc 3ef8 fbbd

weight f4 [1, 256]
-0.016071562 -0.027397085 -0.0046700835 0.051813874 -0.010258782 0.00030942552 -0.005277088 0.00088480924
0.0021379334 0.005758925 -0.05154155 -0.0009729462 -0.001192083 -0.013635844 0.0014374832 0.0070821783
-0.02309498 -8.643361e-05 -0.0025566032 -0.00034791106 0.017813643 -0.008974519 0.00025715167 -0.001707104
-0.019315861 -0.0013240199 -0.0015773538 0.00961321 0.031552933 0.013912633 0.0052590654 0.040023312
-0.00056534103 0.001410149 -4.0061444e-05 0.023653861 -0.00039361225 -0.0010886431 0.00053276436 0.00044253469
-0.0016172872 0.09036536 0.00070367387 0.004577763 -0.0027412951 0.010113987 -0.02793748 0.02135605
-0.00031666667 0.0018563878 0.08718825 -0.0009957509 0.011253436 0.006156791 0.0713 -0.034637522
0.00063651346 -0.0017092371 0.0027710437 0.0003955916 -0.012137681 -0.023910992 0.090249166 -0.0125289
0.002652398 0.001553238 -0.0044908705 0.002845107 -0.0008216549 0.06129903 0.0021156769 -0.0026097447
0.06323831 -0.00048567035 0.00019373049 -0.0015785869 -0.037877053 0.007997182 -0.04774942 0.0009134721
0.006431514 -0.0033651218 -0.0023620683 -0.0011693364 0.08734102 0.037661567 -0.033718877 -0.13511099
-0.010231773 0.050889507 -0.0035172298 0.009417584 -0.099769115 -0.024052257 0.05863819 -0.0074408734
-0.0001478199 0.1216868 -0.0019482491 0.00030094973 0.052464508 -0.038281545 0.03652882 0.0014239573
-0.001972633 -0.013849771 -0.028586878 0.001949373 0.002260466 -0.06863664 -0.0021067597 0.10520586
-0.0147531545 0.000586846 0.0010509448 0.033353176 0.00017591484 -0.029353159 -0.013191634 0.0008484418
-0.042295594 0.0021676603 0.00039515574 -0.053792395 0.062297065 0.011144292 -0.0007939457 0.09980295
-0.037069324 -0.00029578077 -0.06413912 0.11131634 0.007617448 -0.0025806539 -0.0014382948 0.0025873901
-0.0017148365 0.05420823 0.0007051787 0.029038273 -0.00026782573 -0.00400534 0.007456238 -0.01979528
0.0024654418 0.01865952 0.00028947752 -0.0015813092 -0.058862846 -0.0030435268 0.0017665568 -0.0013649153
-0.019789496 -0.0014169607 -0.007610958 0.008545539 0.04107225 -0.003006612 -0.02005164 -0.039479062
-0.0839449 -0.06397188 0.04351641 0.0016615537 0.002954584 -0.001258106 -0.010627385 0.0013163915
-0.010372838 0.0010066499 0.0005297508 -0.025197245 8.2552455e-05 -0.0012303329 0.0970347 0.015349725
-0.007578252 0.0028832734 -0.021263536 -0.10279655 0.014926885 0.018253962 0.13301167 0.066609815
0.00010514695 -0.034402855 0.0035411322 -0.004407515 0.00045825233 0.00010832209 -0.00012129321 0.005955261
0.04464958 -0.0027910457 0.064587146 -0.008023452 -0.0073075183 -0.0075098816 0.005554169 -0.015561667
0.0048303013 0.0008244145 0.020416139 0.0029250514 -0.04036466 0.024501164 -0.00037096697 0.0001423743
-0.0023022888 -0.005397147 0.01734839 0.017656684 0.05362659 -0.020348156 0.0661345 -0.0034533932
0.01607838 -0.06376096 -0.04712221 0.0025484893 -0.028645156 -0.020752585 -0.021152938 -0.03574927
0.011087382 0.0012892548 -2.4541445e-05 4.8051246e-05 0.0064423885 0.0013643184 -0.15289819 0.0007726116
-0.0019747715 -0.0011540028 -0.0038476489 -0.0006776841 0.00014956259 -0.0018743884 0.011227798 -0.11878298
0.0003008497 -0.05510259 0.0073158275 0.002662599 -0.0017757287 0.011061075 -0.0038384649 0.107860394
-0.047531065 0.0075824643 -0.0018643979 -0.008455087 -0.0005837276 -0.019684305 -0.015932644 -0.0024876292
00000000: 82a8 83bc da6f e0bc 8007 99bb c93a 543d
00000010: 7314 28bc 643a a239 6ceb acbb 8bf2 673a
00000020: 921c 0c3b 5db5 bc3b 3b1d 53bd 500d 7fba
00000030: ab3f 9cba e068 5fbc ef69 bc3a 9e11 e83b
00000040: af31 bdbc b143 b5b8 af8c 27bb d567 b6b9
00000050: ebed 913c dc09 13bc 50d2 8639 e8c0 dfba
00000060: 4c3c 9ebc bc8a adba 36bf ceba ba80 1d3c
00000070: a63d 013d d0f1 633c 3d54 ac3b 7cef 233d
00000080: 6533 14ba c0d4 b83a a607 28b8 bec5 c13c
00000090: be5d ceb9 cdb0 8eba 36a9 0b3a 0004 e839
000000a0: 27fb d3ba 7911 b93d c176 383a 0f01 963b
000000b0: 4da7 33bb 23b5 253c 24dd e4bc e2f2 ae3c
000000c0: 4806 a6b9 0a52 f33a c18f b23d db83 82ba
000000d0: 5560 383c e8be c93b bc05 923d 13e0 0dbd
000000e0: b2db 263a 7b08 e0ba 669a 353b 6867 cf39
000000f0: 20dd 46bc fce0 c3bc 8ed4 b83d 0446 4dbc
00000100: dbd3 2d3b 0596 cb3a 2728 93bb fa74 3a3b
00000110: 5464 57ba b114 7b3d 2ba7 0a3b 4008 2bbb
00000120: 1683 813d 92a1 feb9 2224 4b39 96e8 ceba
00000130: f824 1bbd 9d06 033c e594 43bd 1376 6f3a
00000140: 73bf d23b 6089 5cbb eecc 1abb 6b44 99ba
00000150: d9df b23d 0443 1a3d ce1c 0abd 895a 0abe
00000160: 2ba3 27bc 8471 503d 5381 66bb 364c 1a3c
00000170: c053 ccbd 3d09 c5bc 992e 703d 92d2 f3bb
00000180: 1a00 1bb9 ee36 f93d 645c ffba cac8 9d39
00000190: 06e5 563d 1ccd 1cbd 3e9f 153d 14a4 ba3a
000001a0: 4a47 01bb 26ea 62bc 072f eabc 1b82 ff3a
000001b0: 5424 143b 5e91 8cbd 9011 0abb 2c76 d73d
000001c0: 37b7 71bc 92d6 193a dbbf 893a 579d 083d
000001d0: c875 3839 0976 f0bc b921 58bc f769 5e3a
000001e0: 253e 2dbd 4e0f 0e3b e82c cf39 6a55 5cbd
000001f0: 352b 7f3d 8c96 363c cb20 50ba 7d65 cc3d
00000200: 01d6 17bd 0613 9bb9 5f5b 83bd d2f9 e33d
00000210: c99b f93b 3020 29bb 2a85 bcba 3491 293b
00000220: 5dc4 e0ba 7309 5e3d bedb 383a ace1 ed3c
00000230: f66a 8cb9 3a3f 83bb 7553 f43b b629 a2bc
00000240: 4093 213b dadb 983c 04c5 9739 ef43 cfba
00000250: 2b1a 71bd e875 47bb cf8b e73a f5e6 b2ba
00000260: 951d a2bc 50b9 b9ba 5865 f9bb 9702 0c3c
00000270: 603b 283d 940a 45bb 5643 a4bc ccb4 21bd
00000280: 4eeb abbd b003 83bd 433e 323d 7ec8 d93a
00000290: b2a1 413b 08e7 a4ba 7c1e 2ebc c58a ac3a
000002a0: d6f2 29bc 91f1 833a f9de 0a3a 746a cebc
000002b0: 0320 ad38 1f43 a1ba 21ba c63d 6a7d 7b3c
000002c0: fc52 f8bb 4df5 3c3b de30 aebc ff86 d2bd
000002d0: e58f 743c 5589 953c 3634 083e ba6a 883d
000002e0: 5782 dc38 02ea 0cbd 5712 683b ea6c 90bb
000002f0: 9641 f039 fb2a e338 cc5e feb8 5a24 c33b
00000300: 7ae2 363d fae9 36bb 4446 843d cc74 03bc
00000310: e873 efbb 7415 f6bb bfff b53b 5df6 7ebc
00000320: 8147 9e3b 851d 583a bf3f a73c 38b2 3f3b
00000330: 6a55 25bd aab6 c83c 587e c2b9 4f4a 1539
00000340: ffe1 16bb 8dda b0bb 361e 8e3c c0a4 903c
00000350: 8ea7 5b3d 2db1 a6bc 8671 873d 5352 62bb
00000360: cfb6 833c 1b95 82bd 3803 41bd 8e04 273b
00000370: 3fa9 eabc 5301 aabc ed48 adbc d46d 12bd
00000380: daa7 353c 36fc a83a 5ade cdb7 a28a 4938
00000390: ac1a d33b eed2 b23a 5891 1cbe 1689 4a3a
000003a0: 2b6b 01bb e941 97ba d628 7cbb 9ca6 31ba
000003b0: e7d3 1c39 0aae f5ba ccf4 373c 7e44 f3bd
000003c0: 5dbb 9d39 41b3 61bd 9cb9 ef3b 007f 2e3b
000003d0: 91bf e8ba 8339 353c c18e 7bbb e9e5 dc3d
000003e0: efaf 42bd 5276 f83b d05e f4ba 3587 0abc
000003f0: 4c05 19ba fb40 a1bc 2d85 82bc 7e07 23bb

weight f4 [256, 1]
0.43776515 -0.01763371 0.46580902 0.7127403 0.80732006 -0.040077914 0.4930074 0.025681784
-0.96307814 -0.1943307 0.20183982 -0.9240372 -0.028559541 -1.0769279 -0.7034594 0.46273518
0.3897248 0.1049242 -0.7485837 -0.30152965 -0.90093064 -0.45211923 0.031405106 0.16375302
0.4099957 -1.0596105 0.069120646 -0.13014148 -0.9891768 0.7306872 -0.5204662 -0.20140429
-0.048131704 -0.01804757 -0.056570504 0.09118698 -0.5718901 0.098541625 -0.023604233 -0.09151338
0.43058386 -0.7237898 -0.037671275 0.095768295 -0.785763 0.075552225 0.305689 0.1301442
-1.6618093 -0.6502521 -0.26046363 -0.65869415 0.634335 -0.43370366 -0.12163806 0.44381046
0.28534514 -0.49612856 0.06736863 -0.6665957 -0.029830297 -0.117003314 -0.19176789 0.34850726
-0.36173868 0.09325991 0.39498144 0.18007201 0.17776075 0.5426557 0.23824666 -0.5332726
-1.0254997 0.04759391 0.055599708 -0.8308363 -0.19941446 0.22859934 0.08559809 -0.24346736
-0.1130847 0.014991045 0.35571367 -0.008458856 0.34264827 0.7697608 0.5674295 -1.2810906
-0.011662986 0.41944876 0.03980565 0.8282102 -0.7192942 0.81375295 -0.21922797 -0.18372148
-0.3843609 0.4067711 0.0033251373 -0.22264113 -0.62044775 0.48506582 0.68038833 -1.0010797
0.40618992 0.18731144 0.24403438 -0.8529017 -0.0563763 0.36095828 0.26591069 -1.631848
0.5169015 0.009682025 -0.604923 -0.7540773 -0.46216255 0.51553 0.17468902 0.014328305
0.7060337 0.022236977 -0.049721453 -1.2495726 -0.87442017 0.09687118 -0.474888 0.43704554
0.12006109 -0.56636524 0.026368141 0.38531363 -0.07055194 -0.14900088 -0.12176182 -0.18055642
-0.9820715 0.86023885 -0.6481024 0.009300797 -0.017014828 0.13826561 -0.013041019 0.8323352
0.11147033 0.17324029 -0.029146552 0.26468658 0.26315567 0.40464422 0.19748601 0.099695124
0.659754 -0.13689363 0.07040354 -0.9379822 0.39598987 0.33111387 0.38426018 0.6896044
0.49814186 -0.1751052 0.4057163 -0.052145816 -0.8257079 -0.20965278 0.43551555 -0.02356621
0.6278165 -0.11873448 -0.05419296 0.46574405 -0.029691253 -0.031426594 0.68081415 -0.159932
0.24232994 0.010571361 0.936225 0.6523673 -0.5730264 -1.0438887 -0.27263927 -0.22367598
-0.827952 -0.2402574 -0.57580686 0.2314289 -0.16423595 -0.024726748 0.011435697 0.0014372536
0.3522552 -0.45118344 0.3779711 0.31011266 -0.3463937 -0.38015664 -1.3125536 0.275429
-0.89107275 -0.61175823 -0.11884174 -0.7317325 -0.22596073 0.5035464 -0.025206892 -0.0050136736
0.5990639 0.10950145 0.2389978 -0.6670269 0.3293652 0.4926584 0.26675913 0.15972601
-0.9339879 0.5206603 0.5519115 -0.013341927 -0.84686387 -0.19768994 0.2882458 0.83734316
0.74320745 0.25293618 -0.9613364 -1.1281725 -0.057276845 -0.03865814 0.4998798 -0.0197106
0.01855413 -0.35202348 0.8991294 -0.33598292 -0.36610964 -0.5660335 0.73722833 0.82203037
0.00022422474 0.5131591 0.17097275 -0.2703178 -0.15016854 -0.9101138 0.3746563 -0.95183265
0.3978352 -1.421016 -0.83971024 0.40667194 -0.7009728 0.77475893 0.2066327 -0.07426536
00000000: c122 e03e 9274 90bc 857e ee3e 2676 363f
00000010: 87ac 4e3f bd28 24bd 776b fc3e 9b62 d23c
00000020: 4a8c 76bf a1fe 46be 19af 4e3e b48d 6cbf
00000030: b3f5 e9bc c6d8 89bf ea15 34bf a0eb ec3e
00000040: 028a c73e 80e2 d63d 2ea3 3fbf 1862 9abe
00000050: 64a3 66bf 2c7c e7be a4a2 003d dfae 273e
00000060: f5ea d13e 51a1 87bf 208f 8d3d cf43 05be
00000070: b13a 7dbf 510e 3b3f 463d 05bf ed3c 4ebe
00000080: c025 45bd 7fd8 93bc 79b6 67bd 3dc0 ba3d
00000090: 6467 12bf 31d0 c93d aa5d c1bc 5e6b bbbd
000000a0: 7d75 dc3e 4a4a 39bf 324d 1abd 2b22 c43d
000000b0: c427 49bf 20bb 9a3d 4583 9c3e 8544 053e
000000c0: 2bb6 d4bf ec76 26bf 7d5b 85be 2ea0 28bf
000000d0: c763 223f 680e debe 601d f9bd 203b e33e
000000e0: c218 923e 9004 febe 90f8 893d 04a6 2abf
000000f0: ab5e f4bc 6f9f efbd cd5e 44be 8b6f b23e
00000100: d035 b9be 0dff be3d 023b ca3e cc64 383e
00000110: ea06 363e 7ceb 0a3f eff6 733e 8e84 08bf
00000120: 9343 83bf d5f1 423d 85bc 633d b0b1 54bf
00000130: 4e33 4cbe f215 6a3e 0d4e af3d 824f 79be
00000140: f498 e7bd 009d 753c 1a20 b63e 0397 0abc
00000150: 986f af3e 0b0f 453f 0f43 113f c7fa a3bf
00000160: 1c16 3fbc fdc1 d63e 400b 233d 9505 543f
00000170: aa23 38bf 1d52 503f 4c7d 60be 7c21 3cbe
00000180: f4ca c4be 4d44 d03e 8cea 593b 09fc 63be
00000190: aad5 1ebf 8c5a f83e ee2d 2e3f 6123 80bf
000001a0: 20f8 cf3e 92ce 3f3e 26e4 793e c457 5abf
000001b0: d6ea 66bd 86cf b83e 7225 883e 65e0 d0bf
000001c0: a853 043f 5ba1 1e3c 3cdc 1abf 360b 41bf
000001d0: 92a0 ecbe c6f9 033f aee1 323e 44c1 6a3c
000001e0: a0be 343f 522a b63c b9a8 4bbd fff1 9fbf
000001f0: 00da 5fbf 6664 c63d 8524 f3be 6fc4 df3e
00000200: 97e2 f53d 50fd 10bf 0002 d83c d447 c53e
00000210: 897d 90bd b093 18be 435e f9bd c8e3 38be
00000220: 0a69 7bbf 9d38 5c3f 0aea 25bf 5f62 183c
00000230: ae62 8bbc 8095 0d3e 00aa 55bc eb13 553f
00000240: 8e4a e43d e765 313e c0c4 eebc 0085 873e
00000250: 57bc 863e 872d cf3e c639 4a3e f52c cc3d
00000260: a3e5 283f d82d 0cbe bb2f 903d 9a1f 70bf
00000270: 2fbf ca3e c287 a93e c0bd c43e ea89 303f
00000280: 730c ff3e c74e 33be 0cba cf3e da96 55bd
00000290: 9861 53bf 38af 56be e5fb de3e ed0d c1bc
000002a0: 95b8 203f 102b f3bd 70f9 5dbd 0176 ee3e
000002b0: 123b f3bc 2cb9 00bd d649 2e3f 37c5 23be
000002c0: 5725 783e 8033 2d3c 71ac 6f3f 8b01 273f
000002d0: dcb1 12bf 259e 85bf 6097 8bbe 510b 65be
000002e0: aaf4 53bf 0906 76be 1468 13bf b3fb 6c3e
000002f0: 782d 28be c08f cabc ca5c 3b3c 3a62 bc3a
00000300: cb5a b43e 8401 e7be 6e85 c13e 16c7 9e3e
00000310: 845a b1be e4a3 c2be c201 a8bf 0805 8d3e
00000320: 581d 64bf 309c 1cbf 4c63 f3bd d252 3bbf
00000330: 4062 67be 6be8 003f af7e cebc be49 a4bb
00000340: 405c 193f 4c42 e03d d7bb 743e 46c2 2abf
00000350: 8ea2 a83e b93d fc3e a794 883e 378f 233e
00000360: d519 6fbf fe49 053f 124a 0d3f 1998 5abc
00000370: 12cc 58bf 3b6f 4abe f494 933e 1f5c 563f
00000380: d842 3e3f da80 813e 241a 76bf f567 90bf
00000390: 209b 6abd ff57 1ebd 3ff0 ff3e 2078 a1bc
000003a0: d5fe 973c 6c3c b4be 582d 663f f405 acbe
000003b0: b972 bbbe 92e7 10bf ffba 3c3f 9570 523f
000003c0: df1d 6b39 655e 033f 7b13 2f3e 1867 8abe
000003d0: c8c5 19be 38fd 68bf f3d2 bf3e 4eab 73bf
000003e0: 0eb1 cb3e dae3 b5bf 40f7 56bf 4e37 d03e
000003f0: f472 33bf 9a56 463f 8697 533e 7018 98bd

bias f4 [256]
-1.4736115 -0.0009468886 -0.4469486 0.03214237 0.44088835 0.084047034 0.42889178 0.31505078
-0.7988615 0.11478424 -0.002375996 -0.38251317 0.27465597 0.3966691 -0.55483055 0.6057094
-1.6223727 -0.96631074 -0.76830304 -0.5588242 -0.99292696 -0.25754058 -0.10257385 -0.7276368
-1.3357286 0.11186932 0.029368931 0.63725525 0.4214428 -0.68470746 -0.85753715 0.29046366
-0.5033958 0.32635096 0.525146 0.54163146 -0.55591977 0.35597298 0.25555182 0.21805245
0.45854563 -0.8245114 0.022164745 0.061982125 -0.0012559046 -0.9673164 -1.296646 0.48572275
0.083636 -0.89788055 1.0084901 -0.0011594212 0.4633326 -0.7773719 -0.55473804 -1.8825266
-1.0296687 -0.8919078 -0.6037847 -0.50645924 0.18048723 0.30656174 0.81517273 -0.29315585
-0.6280931 0.6237653 -1.2755011 0.43185762 -0.7274077 0.851809 0.21874833 -0.30994463
0.46886006 0.27624246 0.059297442 -0.5735154 0.7811509 -1.0056378 0.29734322 0.072001465
0.5911353 -0.17783141 -0.88121694 0.023628173 0.31390324 -0.99882895 -0.09007617 0.5458098
0.23132607 -1.7113514 -0.7310281 0.09032986 0.32765567 -0.70689666 0.91200066 0.78941786
0.558766 -1.7420336 0.020523392 0.6413438 -0.6168051 -0.0036216981 -1.2266244 0.3985216
-1.0922745 0.004400258 -1.3825366 -0.8634566 0.016233921 -1.4641334 -0.9252296 0.8417007
-0.34951395 0.64850307 -0.7379652 -0.31763387 -0.0005082294 -0.17580508 0.18917876 0.063439935
-0.0064023444 0.3674017 0.115073524 0.546184 -0.5220455 0.7940563 0.15096301 0.83932567
-0.69054115 -0.6220628 -0.69177306 -1.6302557 0.6172723 -0.46145678 0.27586618 -0.51659775
-0.27812314 -0.9382834 0.3047325 0.6500956 0.24479045 -0.050814208 -0.2019732 -0.9331771
-0.4382819 -0.017006071 -0.1266526 -0.9253091 -1.1438348 0.011179363 -0.8944443 -0.39667127
-0.516752 -0.260458 0.08072881 -0.23482835 -1.6671395 -1.2226983 -0.3220868 -0.051111832
-2.0206738 0.31279612 -1.7017388 0.078036204 -0.5620649 -0.7396462 -1.8122132 0.27149054
-0.19325149 -0.5388373 0.47848162 -0.67030674 0.06357534 0.45166168 0.90456355 0.3862342
-0.7674645 -0.654402 -0.6963067 -1.2651055 -0.35596728 0.6003616 -0.31530738 0.9801349
-0.4824922 -0.0007865682 -0.3761437 -0.7276627 -0.9027612 0.26181963 0.57734615 -0.013668115
0.3636258 -0.90423405 0.86215377 -1.2380097 -0.90037394 -0.7054789 0.13575435 -1.1497135
-0.23870921 -0.04160452 0.28210628 -0.74469006 -0.591979 -2.1110847 0.4508471 0.19798578
0.016152166 -0.036913995 -1.043905 -0.8604574 -1.3917873 -0.90626156 0.11129341 0.48407125
0.40464965 0.16835125 -2.0611348 0.52653855 -0.99892855 0.47731057 -0.2582155 -0.5733064
0.6141582 0.6021685 -0.24950886 0.059334856 -0.5681585 0.03770192 -4.7837948e-05 0.1852027
0.27727756 -0.5684539 0.7723983 -0.8888434 -0.0004493943 -0.94376516 0.7151562 -0.5883529
-0.007285687 -1.0947708 -0.13032058 -0.37056613 -0.29695976 -0.6571777 -0.02930007 -0.12709105
0.07505126 0.46119514 -0.070112586 -1.2422767 -0.9541402 -0.002358549 -0.918219 -0.22828388
00000000: 4d9f bcbf 9e38 78ba 72d6 e4be b8a7 033d
00000010: 1ebc e13e da20 ac3d b497 db3e 564e a13e
00000020: 3082 4cbf 0014 eb3d 99b6 1bbb c4d8 c3be
00000030: b59f 8c3e 3618 cb3e 6009 0ebf c50f 1b3f
00000040: e9a9 cfbf 2460 77bf 82af 44bf 1a0f 0fbf
00000050: 7630 7ebf 5cdc 83be 3d12 d2bd 6846 3abf
00000060: 28f9 aabf be1b e53d 1d97 f03c 2923 233f
00000070: 5ac7 d73e fd48 2fbf 8e87 5bbf a7b7 943e
00000080: 8cde 00bf 7917 a73e f86f 063f 5ca8 0a3f
00000090: c250 0ebf 1742 b63e b0d7 823e 2449 5f3e
000000a0: 7ec6 ea3e 2e13 53bf d792 b53c f8e0 7d3d
000000b0: 2a9d a4ba 0ca2 77bf 7ff8 a5bf a7b0 f83e
000000c0: 5a49 ab3d 80db 65bf 3416 813f b8f7 97ba
000000d0: ee39 ed3e d801 47bf 5003 0ebf a2f6 f0bf
000000e0: 2fcc 83bf 1254 64bf a291 1abf 50a7 01bf
000000f0: a5d1 383e a9f5 9c3e 29af 503f 8618 96be
00000100: b6ca 20bf 15af 1f3f 9f43 a3bf 711c dd3e
00000110: 6437 3abf 2810 5a3f 90ff 5f3e 10b1 9ebe
00000120: 6d0e f03e a76f 8d3e e0e1 723d e8d1 12bf
00000130: 81f9 473f bdb8 80bf 5f3d 983e 8175 933d
00000140: a554 173f 7019 36be 6f97 61bf df8f c13c
00000150: edb7 a03e 41b3 7fbf db79 b8bd 31ba 0b3f
00000160: bee0 6c3e 900d dbbf a824 3bbf ddfe b83d
00000170: 7cc2 a73e 2ef7 34bf e078 693f 4a17 4a3f
00000180: 4a0b 0f3f f5fa debf ac20 a83c 1b2f 243f
00000190: f0e6 1dbf 035a 6dbb 0702 9dbf 060b cc3e
000001a0: a7cf 8bbf 0a30 903b f6f6 b0bf 7e0b 5dbf
000001b0: 00fd 843c b968 bbbf d9db 6cbf b279 573f
000001c0: 7ef3 b2be 4c04 263f 4aeb 3cbf e8a0 a2be
000001d0: b33a 05ba 3f06 34be 14b8 413e ccec 813d
000001e0: c2ca d1bb 131c bc3e abab eb3d b7d2 0b3f
000001f0: c6a4 05bf 4647 4b3f 0c96 1a3e 0cde 563f
00000200: 4ec7 30bf 823f 1fbf 0a18 31bf 38ac d0bf
00000210: 8f05 1e3f 1044 ecbe 553e 8d3e c03f 04bf
00000220: 2866 8ebe 5733 70bf e605 9c3e aa6c 263f
00000230: 59aa 7a3e 8f22 50bd 10d2 4ebe b2e4 6ebf
00000240: 7c66 e0be 5150 8bbc 38b1 01be 0fe1 6cbf
00000250: 2e69 92bf a629 373c 4dfa 64bf 7f18 cbbe
00000260: dc49 04bf c05a 85be 2555 a53d d876 70be
00000270: d464 d5bf 6181 9cbf 90e8 a4be a45a 51bd
00000280: b852 01c0 d026 a03e 94d2 d9bf 72d1 9f3d
00000290: 7ce3 0fbf 7459 3dbf 9af6 e7bf cf00 8b3e
000002a0: b8e3 45be 3ef1 09bf 8bfb f43e 3999 2bbf
000002b0: ca33 823d 3340 e73e 7a91 673f 7dc0 c53e
000002c0: 8e78 44bf e486 27bf 2841 32bf faee a1bf
000002d0: 5841 b6be 4cb1 193f f86f a1be 1fea 7a3f
000002e0: 3809 f7be b331 4eba e895 c0be 1a48 3abf
000002f0: 5c1b 67bf 390d 863e f5cc 133f 3bf0 5fbc
00000300: 292d ba3e e27b 67bf 1cb6 5c3f 1a77 9ebf
00000310: e87e 66bf 449a 34bf 3003 0b3e d029 93bf
00000320: 3070 74be 8069 2abd 3c70 903e 02a4 3ebf
00000330: f08b 17bf 031c 07c0 6ed5 e63e c9bc 4a3e
00000340: 8c51 843c 2133 17bd ae9e 85bf f046 5cbf
00000350: 1626 b2bf c200 68bf cded e33d 30d8 f73e
00000360: 3d2e cf3e 4564 2c3e a2e9 03c0 3bcb 063f
00000370: c8b9 7fbf 0d62 f43e d234 84be 35c4 12bf
00000380: 7939 1d3f b727 1a3f 407f 7fbe 1b09 733d
00000390: d672 11bf 546d 1a3d 9ba5 48b8 c7a5 3d3e
000003a0: 53f7 8d3e 3286 11bf e5bb 453f 3e8b 63bf
000003b0: af9c ebb9 989a 71bf 7a14 373f 4c9e 16bf
000003c0: c6bc eebb 7321 8cbf c272 05be d8ba bdbe
000003d0: 1c0b 98be cc3c 28bf b306 f0bc 2824 02be
000003e0: 7ab4 993d c521 ec3e 3097 8fbd ec02 9fbf
000003f0: 8842 74bf e391 1abb 6610 6bbf 40c3 69be

weight f4 [1, 256]
-0.13203263 -0.038455617 -0.024002496 0.009067319 0.023511427 -0.0050129327 -0.03162415 0.00013914715
-0.015170944 -0.0049533295 0.014833764 0.0038210326 -0.0015108119 -0.011126614 -0.0021275268 0.014512331
-0.05310148 -0.008561672 -0.0026567609 0.020507745 -0.019389126 0.042595495 -0.0034741994 -0.0025069118
-0.09785852 -0.007086185 -0.0017316844 0.043612715 -0.013414094 0.031351693 0.016807694 -0.022268586
-0.011208011 0.012702755 -0.0015131027 -0.021695914 -0.0028830154 0.005479719 -0.004259341 -0.0041567297
0.001304649 0.021513073 -0.0022646512 -0.011790624 -0.0010293777 -0.094011344 -0.0088961255 0.010357348
-0.003934768 -0.0019731526 -0.05893253 0.001022525 -0.027891638 -0.013641974 -0.05901672 0.033390164
-0.035374388 -0.0009909135 -0.0020914027 0.014695223 -0.024099562 -0.021528345 0.020379126 -0.015295556
0.00015149645 -0.008171445 -0.06788004 -0.00920271 -0.008960326 -0.103163004 -0.07706417 0.0005343824
0.00024697624 -0.0024170661 0.0012032514 -0.005273682 -0.07124135 0.008118185 -0.024803787 -0.0019207102
-0.008656285 -0.043197196 -0.017259475 -0.001898351 -0.010538918 -0.006779155 -0.03563321 0.02274855
-0.0075015808 -0.04265109 -0.00049849466 -0.010889843 0.03864794 -0.029394833 -0.004696817 0.0035558199
0.034385644 0.051791824 0.0048746075 -0.018202469 0.02298465 -0.0111373775 0.048540667 0.0063203173
-0.026542706 -0.013377881 0.01219315 -0.00090213807 -0.002545238 -0.09441076 -0.018911304 0.03147662
-0.016922198 0.0007474835 -0.0037736057 -0.032605767 0.00034544757 -0.017297812 0.0035708507 -0.0016001224
-0.030285016 0.0067377673 -0.0061925654 -0.055174284 -0.02486439 0.07053791 -0.0067629567 -0.024783608
0.000621499 -0.0020498142 -0.045032628 0.00032955146 -0.007667164 0.0038024166 -0.015093655 -0.0009127649
-0.00077120657 -0.011772484 -0.00023376087 0.0022119274 -0.004920992 -0.002467465 -0.05393614 -0.042876195
-0.009508582 -0.05034535 -0.002844785 -0.04064582 0.055631515 -0.014070657 0.0099264495 -0.008032347
-0.0037344813 -0.0042662355 -0.0023768719 -0.053170633 -0.028406503 -0.031854782 0.008994359 -0.0027702756
-0.118854776 0.038568262 -0.011529902 -0.0035637133 0.012722858 -0.037459485 0.0093871225 -0.0008619262
-0.040359616 -0.0036823894 0.0011597716 -0.026819611 -0.0009647136 -0.0009780702 -0.0060134474 -0.045042843
-0.019355655 -0.0014141424 0.047839534 -0.12907209 -0.017150173 0.018222399 -0.01693129 0.073560834
-0.00066665345 0.017138353 0.00079670444 -0.034901682 -0.03043244 -0.0035791583 -0.0011885891 0.031109063
-0.04359548 0.004105018 -0.017982313 -0.030754695 -0.0127207795 0.01202685 -0.022649419 -0.02586316
-0.021281525 -8.11146e-05 -0.055701267 -0.0002755465 0.056635104 -0.037471857 0.0025263417 -0.003422917
-0.0071333894 -0.038299847 0.03119686 -0.059478205 -0.015480312 -0.0003092446 0.0073517757 0.006109473
0.07135123 0.043395445 -0.09117468 -0.028602947 -0.018531786 -0.080475286 0.016061652 0.022562204
-0.009035083 -0.0026079286 0.0015672698 -0.0050654155 -0.013280017 -0.0035375725 0.098771654 0.00016626205
0.001723729 -0.003937033 -0.012313423 5.4132033e-06 0.0028784396 0.002552721 0.046611235 -0.0038039926
-0.017377295 -0.059326317 -0.02472196 -0.0072282306 -0.0011886986 -0.107902564 0.0069069755 0.003940021
0.011936787 -0.012403457 0.0030630545 -0.06652096 0.0015072703 -0.11258529 0.029756922 0.0009471802
00000000: 9033 07be a383 1dbd e2a0 c4bc 188f 143c
00000010: 099b c03c 8743 a4bb 5388 01bd 07e8 1139
00000020: 8d8f 78bc 8a4f a2bb 5109 733c 4a6a 7a3b
00000030: 6f06 c6ba 674c 36bc fa6d 0bbb 21c5 6d3c
00000040: f080 59bd 4146 0cbc 0d1d 2ebb dcff a73c
00000050: f2d5 9ebc 9d78 2e3d 65af 63bb 004b 24bb
00000060: 0c6a c8bd 3a33 e8bb b0f9 e2ba 3fa3 323d
00000070: cac6 5bbc a26a 003d 4ab0 893c 9c6c b6bc
00000080: cea1 37bc 371f 503c 4d53 c6ba a1bb b1bc
00000090: f9f0 3cbb 378f b33b f191 8bbb 2d35 88bb
000000a0: c200 ab3a 2f3c b03c 8b6a 14bb 762d 41bc
000000b0: 2fec 86ba 0589 c0bd 0ec1 11bc deb1 293c
000000c0: 3aef 80bb 0250 01bb 3d63 71bd 3f06 863a
000000d0: 017d e4bc 9682 5fbc 84bb 71bd 20c4 083d
000000e0: bce4 10bd 8ae1 81ba ea0f 09bb 3cc4 703c
000000f0: 726c c5bc 365c b0bc 20f2 a63c 369a 7abc
00000100: 05db 1e39 86e1 05bc b104 8bbd f7c6 16bc
00000110: 55ce 12bc 2047 d3bd d2d3 9dbd cc15 0c3a
00000120: 977c 8139 a467 1ebb 6bb6 9d3a dace acbb
00000130: fce6 91bd 2302 053c 5031 cbbc 57c0 fbba
00000140: 17d3 0dbc 8bef 30bd be63 8dbc 17d2 f8ba
00000150: 6dab 2cbc ad23 debb 21f4 11bd 2b5b ba3c
00000160: d2cf f5bb e9b2 2ebd 69ad 02ba 506b 32bc
00000170: 4d4d 1e3d 6fcd f0bc c2e7 99bb c208 693b
00000180: f6d7 0c3d aa23 543d 2cbb 9f3b 581d 95bc
00000190: 4e4a bc3c 8c79 36bc 94d2 463d aa1a cf3b
000001a0: 1770 d9bc e62e 5bbc c7c5 473c 767d 6cba
000001b0: 02ce 26bb 6e5a c1bd e1eb 9abc a1ed 003d
000001c0: 6ca0 8abc c5f2 433a 994e 77bb a08d 05bd
000001d0: 301d b539 24b4 8dbc ef04 6a3b 33bb d1ba
000001e0: 4818 f8bc 7dc8 dc3b 01eb cabb 6efe 61bd
000001f0: 68b0 cbbc 2e76 903d cb9b ddbb fe06 cbbc
00000200: 18ec 223a 2d56 06bb 2274 38bd a6c7 ac39
00000210: d53c fbbb f731 793b 614b 77bc 9e46 6fba
00000220: cc2a 4aba 60e1 40bc b51d 75b9 fcf5 103b
00000230: 4640 a1bb 31b5 21bb 24ec 5cbd f39e 2fbd
00000240: e2c9 1bbc ed36 4ebd 936f 3abb 3b7c 26bd
00000250: dfdd 633d 9d88 66bc 8ca2 223c 1b9a 03bc
00000260: 33be 74bb c7cb 8bbb 4bc5 1bbb 73c9 59bd
00000270: c1b4 e8bc 297a 02bd 135d 133c 838d 35bb
00000280: 226a f3bd c1f9 1d3d eae7 3cbc 308d 69bb
00000290: 8973 503c 1e6f 19bd 72cc 193c e3f2 61ba
000002a0: 2050 25bd 3e54 71bb 7a03 983a cdb4 dbbc
000002b0: d5e4 7cba 9732 80ba 740c c5bb d87e 38bd
000002c0: c08f 9ebc bf5a b9ba 63f3 433d 792b 04be
000002d0: 857e 8cbc 2447 953c 7db3 8abc 10a7 963d
000002e0: 5bc2 2eba bb65 8c3c eed9 503a 11f5 0ebd
000002f0: 744d f9bc 5090 6abb 6fca 9bba 6fd8 fe3c
00000300: 2d91 32bd 6383 863b a54f 93bc 45f1 fbbc
00000310: d16a 50bc 440c 453c 468b b9bc fade d3bc
00000320: 9856 aebc 121c aab8 0327 64bd 3a77 90b9
00000330: 36fa 673d 177c 19bd fb90 253b 0553 60bb
00000340: 35bf e9bb 4de0 1cbd 8f90 ff3c 6b9f 73bd
00000350: 22a1 7dbc 1c22 a2b9 2ae7 f03b f931 c83b
00000360: 9820 923d 6cbf 313d cab9 babd ba50 eabc
00000370: f9cf 97bc 3ad0 a4bd ba93 833c 5fd4 b83c
00000380: e307 14bc c8e9 2abb d96c cd3a c9fb a5bb
00000390: 6e94 59bc 9ed6 67bb cb48 ca3d a156 2e39
000003a0: bfee e13a 3a02 81bb 3dbe 49bc 10a3 b536
000003b0: 34a4 3c3b 8d4b 273b 6ceb 3e3d 684c 79bb
000003c0: d45a 8ebc 2700 73bd b585 cabc cbda ecbb
000003d0: 1bce 9bba 05fc dcbd e953 e23b 4b1b 813b
000003e0: 8392 433c df37 4bbc 87bd 483b 243c 88bd
000003f0: 998f c53a 1e93 e6bd cac4 f33c 304c 783a

weight f4 [256, 1]
-0.82190514 0.84289694 -0.35625032 -0.9930831 -0.4718035 0.06962984 0.5020743 -0.461385
0.32669437 0.2236341 -0.5920031 -0.52416646 0.19298989 0.45968583 -1.024602 -0.42113033
-0.30296612 0.44580567 -1.5375532 -0.40084708 0.6719215 -2.5402486 0.15853532 -0.67308044
-0.5350348 -0.0664212 -0.07434952 0.051751614 0.5578893 -0.9138653 -0.23492734 0.31909516
-0.2715071 0.5970771 0.015037834 0.46608415 -0.93375546 -0.27573073 -0.057887927 0.56884944
-0.04221666 0.5883585 -0.13842574 -0.26049387 -0.06580198 0.83592105 -0.4026714 0.2522808
0.14063619 -0.045369737 0.5718637 -0.19021893 0.91969746 0.49583098 -0.356035 -0.19567448
-0.65440345 0.2595994 -0.42912316 -0.47415072 0.7295954 -0.94407034 -0.25567406 -0.75510013
-0.24334776 0.3101033 0.21488683 0.46618333 -0.015972614 0.74686563 0.90119785 -0.52509975
0.18605329 -0.0048901043 -0.69992447 -0.39948633 -0.37900317 -0.36709642 0.37736025 -0.4046347
-0.9362494 0.6864865 0.3696573 -0.042055413 0.6885297 -0.46487236 0.44880036 0.6530548
0.6183625 -0.37455907 -0.94285554 0.7494805 -0.8994123 0.32837972 -4.2598486 -0.040353894
0.09938632 -0.49439573 0.07300675 -1.5156057 0.2677875 0.15176618 0.17269029 -0.47319663
0.28198084 0.58498174 -0.56950426 -0.1538012 -0.6887486 -0.14746094 -0.51532876 0.5164471
-0.33722055 0.22096433 0.017411109 -0.24033554 -0.13001272 0.40680274 -0.88325036 -0.39801502
0.77954066 -0.15957461 -0.76335764 -0.22534919 -1.2903066 -0.2074623 0.046146266 0.89422727
0.2516044 -0.6140232 0.28123918 0.37898734 -0.108492106 -0.030931711 0.3015658 0.03291881
-0.038467765 -0.82983464 0.10659229 -0.5446431 0.11639167 -0.056469504 0.7509799 -0.23106122
0.10134413 0.617539 -0.50624764 0.11074171 0.39768022 0.5380721 -3.2735698 0.014469187
0.42170864 -0.035285484 -0.12490626 0.80895025 -5.3248334 0.06096347 -0.20564711 -0.059154153
0.3976323 -0.8106307 -0.0015442371 -0.8667717 -0.28141424 0.538974 0.3635328 -0.67142516
0.37913948 -0.0019073131 -0.040711984 0.15421553 -0.37177396 -0.9499452 0.32170305 0.6435272
-0.48296642 -0.7931049 0.119831495 0.66389406 -0.44485256 -0.8277813 0.2069895 -0.39480445
-0.21705914 0.16361795 0.008629413 0.2834206 -0.07620435 0.10508012 -0.6245781 -0.39563784
0.4701364 0.07142632 0.479474 -0.836231 0.5095141 -0.06924236 0.45462635 -0.16921127
0.49001068 -0.81187415 0.77108544 -0.54922706 -0.18968588 0.17674999 -0.4028815 -0.7351375
-0.027267337 0.37484565 -0.62188876 0.69007856 0.22347967 -0.4254941 0.7290253 -0.6014966
-0.43417725 -0.5069257 -0.4319973 0.6544375 -0.55707955 -0.6118175 -0.10381324 0.13210604
0.0030383142 0.28257617 0.16411372 0.022958225 0.38058898 -0.9469285 -0.3359254 -0.9068049
-0.53344285 -0.00937159 -0.65270936 -0.8986798 0.1378933 -3.1621335 -0.60408676 -0.14705928
0.23453408 -0.43054846 0.30555272 0.24182844 -0.0057635675 -0.68495697 0.0016505718 -0.20078841
0.081817985 -0.022942197 -0.68951833 -0.38999036 0.22950014 0.827967 0.3619504 -0.9047414
00000000: 6068 52bf 18c8 573f 7166 b6be b23a 7ebf
00000010: 3a90 f1be 179a 8e3d f187 003f a83a ecbe
00000020: 7c44 a73e 5600 653e 848d 17bf c62f 06bf
00000030: 249f 453e f15b eb3e 2926 83bf 659e d7be
00000040: 601e 9bbe a440 e43e 8bce c4bf d43b cdbe
00000050: 0c03 2c3f 6f93 22c0 1557 223e 004f 2cbf
00000060: 0af8 08bf d707 88bd 9044 98bd 80f9 533d
00000070: d5d1 0e3f 14f3 69bf cb90 70be 7160 a33e
00000080: fb02 8bbe 0bda 183f 3f61 763c 95a2 ee3e
00000090: 990a 6fbf 942c 8dbe e41b 6dbd 1ea0 113f
000000a0: 60eb 2cbd aa9e 163f 7abf 0dbe 745f 85be
000000b0: 30c3 86bd ecfe 553f f22a cebe f32a 813e
000000c0: ef02 103e 9ed5 39bd a965 123f c0c8 42be
000000d0: 4b71 6b3f 8fdd fd3e 384a b6be e45e 48be
000000e0: fc86 27bf 36ea 843e 08b6 dbbe e2c3 f2be
000000f0: c4c6 3a3f 98ae 71bf b6e7 82be 3e4e 41bf
00000100: 2830 79be dcc5 9e3e 4b0b 5c3e 95af ee3e
00000110: 00d9 82bc 9632 3f3f e7b4 663f f06c 06bf
00000120: c184 3e3e 2b3d a0bb 402e 33bf 7989 ccbe
00000130: b40c c2be 10f4 bbbe 5d35 c13e 482c cfbe
00000140: 0aae 6fbf 94bd 2f3f b943 bd3e 4c42 2cbd
00000150: 7b43 303f c003 eebe 29c9 e53e 992e 273f
00000160: 014d 1e3f 35c6 bfbe fb5e 71bf f4dd 3f3f
00000170: e23f 66bf 6321 a83e ae50 88c0 204a 25bd
00000180: 0e8b cb3d 7021 fdbe 9084 953d 5eff c1bf
00000190: 711b 893e 9868 1b3e b9d5 303e d446 f2be
000001a0: cb5f 903e 5dc1 153f 08cb 11bf 107e 1dbe
000001b0: d451 30bf 0000 17be 96ec 03bf e135 043f
000001c0: 2ca8 acbe 7944 623e bea1 8e3c 851a 76be
000001d0: 0e22 05be 7348 d03e b21c 62bf a0c8 cbbe
000001e0: fa8f 473f 8767 23be 686b 43bf f0c1 66be
000001f0: c428 a5bf ff70 54be de03 3d3d 14ec 643f
00000200: 4bd2 803e a030 1dbf 95fe 8f3e a10a c23e
00000210: 1c31 debd 8064 fdbc d566 9a3e e0d5 063d
00000220: 6090 1dbd 0b70 54bf 0f4d da3d bb6d 0bbf
00000230: c25e ee3d 914c 67bd 3840 403f 509b 6cbe
00000240: 838d cf3d 0917 1e3f 7299 01bf 8dcc e23d
00000250: be9c cb3e 18bf 093f 2b82 51c0 2b10 6d3c
00000260: 32ea d73e 8387 10bd dace ffbd 5d17 4f3f
00000270: 0965 aac0 d5b4 793d 2895 52be a04b 72bd
00000280: 7696 cb3e 7e85 4fbf 0068 caba c0e4 5dbf
00000290: 8715 90be 33fa 093f f920 ba3e 85e2 2bbf
000002a0: 921e c23e cffe f9ba 9cc1 26bd adea 1d3e
000002b0: 2859 bebe 9c2f 73bf 43b6 a43e 33be 243f
000002c0: 6047 f7be ec08 4bbf 376a f53d f6f4 293f
000002d0: b7c3 e3be 7ae9 53bf 0ef5 533e cf23 cabe
000002e0: c044 5ebe 778b 273e 6262 0d3c 811c 913e
000002f0: 0711 9cbd 3f34 d73d 5ae4 1fbf 0b91 cabe
00000300: b8b5 f03e f647 923d 9e7d f53e 3c13 56bf
00000310: 846f 023f f0ce 8dbd c9c4 e83e b845 2dbe
00000320: aee2 fa3e fcd6 4fbf db65 453f 259a 0cbf
00000330: 043d 42be f3fd 343e 7c46 cebe f931 3cbf
00000340: c05f dfbc c5eb bf3e 1a34 1fbf fda8 303f
00000350: dbd7 643e 5dda d9be 67a1 3a3f aefb 19bf
00000360: 7b4c debe e2c5 01bf c02e ddbe 3789 273f
00000370: c49c 0ebf 12a0 1cbf 099c d4bd ce46 073e
00000380: 741e 473b d3ad 903e 6d0d 283e e312 bc3c
00000390: 8fdc c23e e869 72bf 6afe abbe 5e24 68bf
000003a0: b68f 08bf 4c8b 19bc f617 27bf e10f 66bf
000003b0: e733 0d3e 6560 4ac0 6ea5 1abf b596 16be
000003c0: b429 703e d970 dcbe 6871 9c3e e0a1 773e
000003d0: 4fdc bcbb 5759 2fbf 0058 d83a 7a9b 4dbe
000003e0: 3090 a73d 46f1 bbbc 4684 30bf d1ac c7be
000003f0: 1602 6b3e a5f5 533f 9051 b93e 229d 67bf

bias f4 [256]
-0.35073757 -0.607021 0.71087766 -0.5543269 0.90963054 -0.4315908 -0.6711674 -0.17125535
0.10158734 0.45194903 -0.083865404 -0.5720775 -0.6491289 -0.96523607 -0.0019790796 0.67093664
-0.9645672 -0.61948276 0.010465302 0.75509614 -1.3964072 0.1469632 -0.6261943 -0.6898699
-0.31435788 0.465711 0.5087105 -0.7146199 0.001895788 -0.01963985 0.4418767 0.4159881
0.3423062 -1.3400874 -0.14624983 0.26013747 0.26310855 -0.20885289 -0.0012745837 0.14995053
-0.18652153 0.8058041 0.020407317 -0.7489604 -0.76693785 -0.28336528 0.8119145 -0.5298675
-0.32856306 0.036145363 0.30920312 -0.41988647 0.87592673 -0.3827339 0.4536532 0.3932558
-0.07814133 -0.984808 -0.122505546 0.25445828 -0.8685692 0.092594214 0.51830125 0.31917512
-0.77110434 -0.21058822 0.37207267 -0.09824314 -0.97424126 -0.87156904 -1.1437005 0.6193048
0.2150512 0.21838935 -0.17506719 0.4762668 -0.15410757 -0.26700938 0.1600298 -0.6712251
-0.2091825 -0.88290125 0.3641534 0.21291842 0.5940343 -0.32477057 -0.04274149 -1.3805486
-0.23433211 0.75610363 0.07054617 -0.30935854 -0.2313075 0.13564949 0.07745551 0.19466183
0.31948426 -0.5747317 -0.6122058 -0.0010959647 0.5536343 0.06385977 0.5097461 -0.4404719
-0.10575964 -0.7446328 0.5152666 -0.79766107 -0.7658088 -0.5435178 -0.97468936 -0.22559592
-0.8295096 -0.27731016 0.013059366 0.892396 0.2985139 -0.052361332 -0.00034887862 -0.5947578
0.72554797 0.2714611 -0.5626768 -0.5824925 0.17610216 0.2109583 0.16206414 -0.028113909
-0.92901194 -0.16947937 -1.0450232 -0.79523206 0.539486 -0.5144377 -0.41342312 -0.64512634
-0.4328586 0.27206057 -0.10404165 -0.0013042411 -0.3504073 0.31477237 -0.79149747 0.46886694
-0.19499846 0.28539708 -0.2948476 0.18896872 0.25064662 0.46696255 0.072240055 0.21771452
0.2599175 0.4181563 0.6601912 0.0021157437 0.0664896 0.5277123 -0.052482843 -0.03091693
-0.022127585 0.9483219 -0.63264585 -0.06507552 0.53048086 0.25020316 -0.7702917 -0.00022324755
-0.3237923 0.23682907 0.09482391 0.30956063 -0.869035 -0.76916564 -0.13610743 0.031030262
-0.69928503 -0.1454302 0.31732777 -0.6496939 0.39358974 -0.4309653 0.62868464 0.7781425
-0.61317456 -0.2163723 0.010375106 -0.3829421 0.5033195 -0.68293875 -0.58941185 0.7654808
0.7732282 0.5984494 0.9274682 -0.49027693 -0.69254285 -0.48847926 -0.48461312 -0.45011103
-0.6636123 -0.035583496 -1.0145872 0.04848489 0.35056615 0.16663109 -0.9863745 0.03125031
-0.4617411 0.27534485 -0.28156257 -0.8899404 -0.47084993 0.8156498 0.090062045 -0.30172992
0.8545476 -0.8410107 -0.86811864 -0.8726163 -0.009847403 0.6438441 0.19634376 0.19519833
0.78220224 -0.3776182 -0.5804944 -0.13619475 -0.23783235 -0.7640263 0.63970685 -0.237692
-0.98763883 0.35166174 -0.52242506 0.19613451 -0.43929455 -0.001793984 -0.86335075 0.7253559
0.30875057 0.5329122 0.46804693 -0.35354155 0.035358272 0.84539574 -0.49146628 0.42821655
-0.88578176 0.23537499 -0.2621374 0.45108962 -0.563899 0.72522914 -0.7814899 -0.27517688
00000000: e093 b3be ba65 1bbf 14fc 353f 5ee8 0dbf
00000010: 8cdd 683f 78f9 dcbe a0d1 2bbf 905d 2fbe
00000020: 060d d03d dd65 e73e a0c1 abbd ac73 12bf
00000030: 502d 26bf b619 77bf 72b3 01bb 81c2 2b3f
00000040: e0ed 76bf 6c96 1ebf a876 2b3c fb4d 413f
00000050: 79bd b2bf 857d 163e 454e 20bf 509b 30bf
00000060: 84f3 a0be ac71 ee3e da3a 023f 54f1 36bf
00000070: 177c f83a c0e3 a0bc aa3d e23e 64fc d43e
00000080: c242 af3e fc87 abbf 84c2 15be bd30 853e
00000090: 2ab6 863e 88dd 55be ef0f a7ba a28c 193e
000000a0: 80ff 3ebe 2d49 4e3f 3f2d a73c debb 3fbf
000000b0: 0a56 44bf 4115 91be a1d9 4f3f 65a5 07bf
000000c0: 6b39 a8be 290d 143d df4f 9e3e 5cfb d6be
000000d0: bc3c 603f b3f5 c3be 3b45 e83e d358 c93e
000000e0: 9008 a0bd 611c 7cbf 30e4 fabd 5b48 823e
000000f0: 8d5a 5ebf 09a2 bd3d 64af 043f ec6a a33e
00000100: 1867 45bf 70a4 57be 4f80 be3e b333 c9bd
00000110: e067 79bf 261f 5fbf c764 92bf c28a 1e3f
00000120: 6236 5c3e 75a1 5f3e d044 33be 3ed9 f33e
00000130: 60ce 1dbe 74b5 88be dade 233e 68d5 2bbf
00000140: f033 56be d105 62bf 5072 ba3e 4907 5a3e
00000150: a212 183f 5448 a6be b311 2fbd d1b5 b0bf
00000160: c2f4 6fbe 0290 413f 837a 903d 3e64 9ebe
00000170: e0db 6cbe b3e7 0a3e ffa0 9e3d 6e55 473e
00000180: 7193 a33e 9e21 13bf 85b9 1cbf 79a6 8fba
00000190: faba 0d3f e9c8 823d b87e 023f 8885 e1be
000001a0: 8398 d8bd 41a0 3ebf 83e8 033f 8433 4cbf
000001b0: 0c0c 44bf fc23 0bbf 3e85 79bf 9e02 67be
000001c0: be5a 54bf 99fb 8dbe f3f6 553c 1074 643f
000001d0: d0d6 983e d678 56bd b2e9 b6b9 0c42 18bf
000001e0: 83bd 393f f3fc 8a3e 960b 10bf 3a1e 15bf
000001f0: 2054 343e 7405 583e 24f4 253e 244f e6bc
00000200: bad3 6dbf 008c 2dbe 52c3 85bf 5494 4bbf
00000210: c11b 0a3f 30b2 03bf 32ac d3be 0027 25bf
00000220: a49f ddbe 864b 8b3e ca13 d5bd 12f3 aaba
00000230: 9668 b3be d829 a13e 949f 4abf 540f f03e
00000240: adad 47be 911f 923e 44f6 96be 0481 413e
00000250: c154 803e b715 ef3e 98f2 933d 8ef0 5e3e
00000260: e813 853e 9518 d63e 4a02 293f 4aa8 0a3b
00000270: b32b 883d 2718 073f 40f8 56bd 8045 fdbc
00000280: e944 b5bc 39c5 723f 14f5 21bf 5046 85bd
00000290: 98cd 073f a11a 803e d631 45bf 8f17 6ab9
000002a0: 1bc8 a5be 5283 723e 0a33 c23d bb7e 9e3e
000002b0: 1479 5ebf 0ae8 44bf bf5f 0bbe 2d33 fe3c
000002c0: 5804 33bf a8eb 14be c978 a23e 5752 26bf
000002d0: 9884 c93e 7ca7 dcbe 7af1 203f 5934 473f
000002e0: 02f9 1cbf b390 5dbe 59fc 293c fd10 c4be
000002f0: 8cd9 003f 13d5 2ebf b2e3 16bf 8df6 433f
00000300: 49f2 453f fb33 193f 8e6e 6d3f 9405 fbbe
00000310: 7d4a 31bf f419 fabe 361f f8be f474 e6be
00000320: 7fe2 29bf 00c0 11bd fedd 81bf 1898 463d
00000330: 687d b33e 57a1 2a3e 0a83 7cbf 5300 003d
00000340: 5469 ecbe 00fa 8c3e f828 90be 22d3 63bf
00000350: 3e13 f1be 6dce 503f 7372 b83d 587c 9abe
00000360: a2c3 5a3f 7a4c 57bf 063d 5ebf c863 5fbf
00000370: 0057 21bc f8d2 243f 570e 493e 12e2 473e
00000380: 683e 483f 2c57 c1be 489b 14bf a376 0bbe
00000390: 538a 73be 3a97 43bf d4c3 233f 8865 73be
000003a0: e6d5 7cbf 020d b43e a6bd 05bf 7cd7 483e
000003b0: 37eb e0be 1d24 ebba 8e04 5dbf edb0 393f
000003c0: 8e14 9e3e ef6c 083f d9a3 ef3e 6603 b5be
000003d0: d6d3 103d db6b 583f 78a1 fbbe 333f db3e
000003e0: 98c2 62bf 2406 713e e036 86be 38f5 e63e
000003f0: af5b 10bf 9ea8 393f b90f 48bf fce3 8cbe
