checkpoints/204552000.ckpt (torch, 122663 bytes, 33 tensors)

weight f4 [256, 18]
0	0xbe0a6fc8	-0.13519204
1	0x3da2a651	0.079418786
2	0x3dcf2499	0.10114402
3	0xbcd09df1	-0.025465937
4	0xbd314de4	-0.043287173
5	0x3d028925	0.031869072
6	0xbe461000	-0.19342041
7	0xbe841b6f	-0.2580218
8	0xbb9259b0	-0.004466258
9	0xbd9eeb05	-0.0775967
10	0xbe89e866	-0.26935118
11	0xbd4de111	-0.05026347
12	0xbcffb1db	-0.031212738
13	0xbe897728	-0.26848722
14	0xbea6df8e	-0.32592434
15	0xbdd0d7ef	-0.10197436
16	0xbe7cb230	-0.24677348
17	0x3d8ecae8	0.06972295
18	0x3b5c28a7	0.0033593567
19	0xbad16ddd	-0.0015978176
20	0xbc93ff6c	-0.01806613
21	0x3ac961f4	0.0015364275
22	0xbe858a8e	-0.2608227
23	0x3e140522	0.14455083
24	0xbdf93955	-0.12169138
25	0x3ddba547	0.107248835
26	0x3e0293c6	0.12751684
27	0xbe089bb4	-0.13340646
28	0x3e0c49c9	0.13700022
29	0x3c1a076c	0.009401184
30	0x3b1c552b	0.0023854475
31	0x3d065866	0.032799147
32	0xbd753993	-0.05986936
33	0xbaf011b6	-0.0018315825
34	0xbd75a742	-0.059973963
35	0xbd17a601	-0.037023548
36	0xbeb148a1	-0.34625724
37	0xbcc1f3fc	-0.023675911
38	0xbc301f9a	-0.010749722
39	0xbd0e110b	-0.034684222
40	0xbd9ebd2a	-0.07750924
41	0xbe26862a	-0.16262117
42	0x3d6cb158	0.057786316
43	0x3d23dd18	0.040005773
44	0xbe416c99	-0.18889083
45	0xbd1939c0	-0.03740859
46	0xbcbf144b	-0.023325106
47	0x3b144301	0.0022622945
48	0x3d09257e	0.03348302
49	0xbd63622d	-0.05551355
50	0xbdde848c	-0.10865125
51	0x38298a8c	4.042177e-05
52	0x3dce63da	0.10077639
53	0xbe777abe	-0.24167916
54	0xbe9991a1	-0.2999392
55	0x3d76f970	0.060296476
56	0x3d0eb29c	0.034838304
57	0x3db34903	0.0875416
58	0x3db97ba4	0.09056786
59	0x3d4be35b	0.04977737
60	0x3da5787a	0.0807962
61	0x3c005655	0.007833083
62	0x3da8ae31	0.082363494
63	0xbd7cbc98	-0.061703295
64	0xbd72c0e9	-0.059266005
65	0xbe363a6a	-0.1779572
66	0x3e48090b	0.195347
67	0xbe31b419	-0.17353858
68	0xbe0463a9	-0.12928642
69	0x3d08efd1	0.03343183
70	0x3d5d4378	0.05401942
71	0xbe4d6912	-0.20059612
72	0xbb1aa882	-0.0023598974
73	0xbb1b35f6	-0.0023683286
74	0xba7476d3	-0.00093255675
75	0xbc87cf8b	-0.016578456
76	0x3bd820e4	0.0065957177
77	0xbe5128d3	-0.2042573
78	0x3b9bf20d	0.0047590793
79	0xbe44db32	-0.19224241
80	0x3d2a1975	0.041528184
81	0xbb9f02b4	-0.004852617
82	0xbb941c8c	-0.0045200046
83	0x3a560627	0.0008164369
84	0x3b761549	0.0037549308
85	0xbca91df2	-0.020644162
86	0x3e10490d	0.14090367
87	0xbb528906	-0.003212513
88	0xbc88b265	-0.016686628
89	0x3c71f144	0.014766995
90	0x3e45817a	0.19287673
91	0xbd6aa604	-0.05728723
92	0x3d06af34	0.03288193
93	0xbdeaae41	-0.114590175
94	0xbe7cf9a0	-0.247046
95	0xbe3c0d61	-0.18364479
96	0x3e0d96ac	0.13827008
97	0x3dc6f09a	0.0971386
98	0x3deb976c	0.11503491
99	0xbe2f7f54	-0.17138416
100	0xbda4ecc8	-0.08052975
101	0xbddb54e2	-0.107095495
102	0xbd6a945e	-0.0572704
103	0x3e036c24	0.12834221
104	0x3d57c0cb	0.052674096
105	0xbd6b15c3	-0.0573938
106	0xbdcf5f28	-0.101255715
107	0xbd95346d	-0.0728539
108	0x3ec7e56e	0.39042228
109	0xbda0ec7b	-0.07857605
110	0x3a350397	0.0006905137
111	0x3e02dec6	0.12780294
112	0x3da4ec61	0.08052898
113	0x3e582210	0.21106744
114	0xbdf75ca9	-0.120782204
115	0xbd69ad42	-0.057049997
116	0xbda81fb0	-0.08209169
117	0x3cd21c7f	0.025648354
118	0x3c0168db	0.007898535
119	0x3c3832e6	0.011242604
120	0x3cfa7c1f	0.030576764
121	0x3d72af47	0.05924919
122	0xbdd5aa8e	-0.10432921
123	0x3c58d775	0.013234963
124	0xbd3c839e	-0.046023957
125	0xbe12bd48	-0.14330018
126	0xbc1f2e2c	-0.009715598
127	0xbb67202c	-0.0035266979
128	0xbbdf007d	-0.006805478
129	0xbc9202ac	-0.01782354
130	0x3c745755	0.0149134
131	0x3da07007	0.078338675
132	0x3a67ad63	0.00088377873
133	0x3e0e4357	0.13892876
134	0x3d43e2e9	0.04782382
135	0x3bf8c61f	0.0075919772
136	0xbadbee76	-0.0016779441
137	0x3a33d924	0.00068606646
138	0x3b825f5c	0.003978653
139	0xbd10b6d5	-0.035330612
140	0x3ebcf18c	0.36903036
141	0xbb428a31	-0.002968442
142	0xbe9ea19f	-0.30982682
143	0x3c8520d1	0.016251
144	0x3d0fca91	0.03510529
145	0x3cde01a0	0.027100384
146	0xbe284472	-0.1643236
147	0x3dd3bccc	0.103387445
148	0x3d8add34	0.067804724
149	0x3e1017dc	0.14071602
150	0x3dedd45d	0.11612771
151	0x3c662d21	0.0140488455
152	0xbda6c4d9	-0.081430145
153	0x3e578ad1	0.21049048
154	0xbd4fc24f	-0.050722416
155	0x3e139f37	0.14416204
156	0x3e0bc966	0.13651046
157	0xbd8b900e	-0.068145856
158	0xbd20647f	-0.03915834
159	0x3ce1dd33	0.027571296
160	0xbd0bee80	-0.034163
161	0x3dd1351f	0.1021521
162	0x3b7f4ec6	0.0038956865
163	0xbb886fb4	-0.0041637067
164	0xba72a7d2	-0.00092565746
165	0xb8de70c8	-0.00010606792
166	0xbc370e2f	-0.011172815
167	0xbd4a5251	-0.04939491
168	0xbb9e9f7b	-0.004840789
169	0x3ce2a7c1	0.027667882
170	0xba7cbfed	-0.0009641636
171	0x3bfd2a4f	0.007725991
172	0xba1ecbb7	-0.00060575776
173	0xba7310db	-0.0009272226
174	0xba80afad	-0.000981798
175	0x3cc5b33a	0.024133313
176	0x3d6e8812	0.058235236
177	0x3b1976ca	0.002341675
178	0x3ddecd2a	0.10878976
179	0x3c4670a3	0.012111816
180	0xbd8a4d19	-0.067529865
181	0xbd95915e	-0.07303117
182	0xbd948755	-0.07252375
183	0xbd935d43	-0.07195523
184	0xbe3e2ed4	-0.18572551
185	0xbdef1423	-0.11673763
186	0xbdbe6c0a	-0.092979506
187	0x3c68155b	0.014165248
188	0xbe02b7bd	-0.12765403
189	0xbe56c708	-0.20974362
190	0xbd8e47bf	-0.06947278
191	0xbd19c5d9	-0.037542198
192	0xbdc0c6d0	-0.094129205
193	0x3dc2eaa0	0.095174074
194	0x3cb31b2f	0.021863548
195	0xbdb0f3aa	-0.08640225
196	0xbd8ec897	-0.06971853
197	0x3e8b8ff3	0.27258262
198	0x3e1b6118	0.15173757
199	0x3d5f690b	0.054543536
200	0xbcd6887e	-0.026188131
201	0x3dfbcba2	0.12294699
202	0xbc374174	-0.011185039
203	0x3b6a6f2b	0.0035771828
204	0x3df18fba	0.11794992
205	0x3b9f7439	0.0048661497
206	0x3dd26f1b	0.10275098
207	0x3de6f37d	0.112769105
208	0x3e6a7313	0.2289546
209	0x3cfa14f7	0.030527575
210	0xbde2b8f2	-0.11070432
211	0x3ddec105	0.10876659
212	0xbe730f41	-0.23736288
213	0xbd67cdff	-0.056592938
214	0xbdc4d5a1	-0.09611059
215	0x3db8c6d7	0.09022301
216	0x3d2a9309	0.04164413
217	0x3d8cfb75	0.06883899
218	0x3d390fc0	0.045181036
219	0x3df19790	0.117964864
220	0x3c3fd4d5	0.011708458
221	0xbde28f4d	-0.11062489
222	0xbd1f08c5	-0.038826723
223	0xbec1e73e	-0.37871736
224	0x3c0aa843	0.008462968
225	0xbd9f2207	-0.07770162
226	0xbe639af8	-0.22227085
227	0xbd208078	-0.039185017
228	0xbd8f7602	-0.0700493
229	0xbe4bd2a4	-0.19904572
230	0xbe9116e5	-0.2833778
231	0x3d63daa8	0.05562845
232	0xbe2ff6da	-0.1718401
233	0x3d844cd6	0.06459968
234	0x3d1b101c	0.03785716
235	0xbba2f5cf	-0.0049731503
236	0xb8e5320a	-0.000109288914
237	0xb99f391d	-0.00030369396
238	0x3c8c3287	0.017113937
239	0x3cd85d41	0.026411654
240	0x3c02b187	0.007976896
241	0xbe38b818	-0.18038976
242	0x3cf26c1f	0.029592572
243	0x3c2b012b	0.01043729
244	0xbb7a1bc0	-0.0038163513
245	0x3a7817e3	0.00094640086
246	0xbb3b5752	-0.0028585983
247	0x3e014043	0.1262217
248	0xbd9c4373	-0.076300524
249	0x3a388007	0.00070381205
250	0x3d7ac5f7	0.06122395
251	0x3d1c894e	0.03821688
252	0xbeda5b50	-0.4264779
253	0x3cd391d6	0.025826376
254	0xbce563c1	-0.028001668
255	0xbc8eca0d	-0.01743033

bias f4 [256]
0	0xbd0517c1	-0.032493357
1	0x3e1c5778	0.15267742
2	0xbdaa9910	-0.083299756
3	0xbe390245	-0.18067272
4	0xbe44127f	-0.1914768
5	0x3dbe3622	0.09287669
6	0xbc59408e	-0.01326002
7	0xbe784512	-0.24245098
8	0xbdebc7e1	-0.11512733
9	0xbe0223d3	-0.12708978
10	0x3d72e084	0.059296146
11	0xbe08924f	-0.13337062
12	0xbd7548f8	-0.05988404
13	0x3ca261f5	0.0198221
14	0xbe79fee4	-0.2441364
15	0x3dad2f9d	0.08456347
16	0xbe9a60d4	-0.30152
17	0x3d8b74de	0.068094
18	0xbe4f7022	-0.20257619
19	0xbdc235b9	-0.09482903
20	0xbd830b99	-0.063986965
21	0xbce9f894	-0.028560914
22	0x3de497f1	0.11161793
23	0xbd0d2d34	-0.034466937
24	0xbe1b3e48	-0.15160477
25	0xbe0b98a2	-0.13632444
26	0xbbee0658	-0.00726394
27	0xbde403ff	-0.11133575
28	0xbe64bb35	-0.22337039
29	0xbe9316c0	-0.28728294
30	0x3d9dfa24	0.07713726
31	0xbe74ebc2	-0.2391806
32	0xbdae433a	-0.08508916
33	0x3dfe711b	0.12423917
34	0x3e02ad85	0.12761505
35	0x3e0dbf1a	0.1384243
36	0x3cab01c5	0.020874867
37	0xbe9e6a60	-0.30940533
38	0xbd12b700	-0.035819054
39	0xbd2d23d4	-0.042270496
40	0xbd7e5e01	-0.062101368
41	0xbe407d06	-0.18797693
42	0xbe146b2f	-0.14494012
43	0x3de15f4f	0.11004507
44	0x3e2ad29e	0.16681907
45	0xbd5e0266	-0.054201506
46	0x3c2135ca	0.0098394845
47	0x3cb8c807	0.022556318
48	0x3dcbeb6a	0.09957011
49	0x3dfa3974	0.122179896
50	0xbb897acf	-0.004195548
51	0xbe2de35b	-0.1698126
52	0x3c438746	0.011934107
53	0xbe1d9e4c	-0.15392417
54	0xbe15c9b1	-0.1462772
55	0xbe3e6316	-0.18592486
56	0xbe5378db	-0.20651571
57	0xbe6aee24	-0.22942406
58	0xbe62426f	-0.22095655
59	0xbeb1f002	-0.34753424
60	0xbe3149f9	-0.17313375
61	0x3d06f4c6	0.032948278
62	0x3c9f06bc	0.01941239
63	0x3d27930c	0.04091172
64	0xbda9abd9	-0.082847305
65	0xbd730341	-0.059329275
66	0xbd6777c4	-0.0565107
67	0x3df81461	0.12113262
68	0x3e1f9845	0.1558543
69	0x3c14e15d	0.009086934
70	0x3da175ac	0.07883772
71	0xbdd33a8e	-0.10313903
72	0xbdeded27	-0.11617499
73	0x3c0a29f1	0.008432851
74	0x3e0a8abf	0.1352949
75	0xbca87b55	-0.020566622
76	0x3b76138e	0.0037548277
77	0xbe200fec	-0.15631074
78	0x3d22c8f6	0.039742433
79	0xbea6da79	-0.32588556
80	0xbe31cca1	-0.17363216
81	0xbdb55e0e	-0.0885583
82	0xbe1ea487	-0.1549245
83	0xbcdd177f	-0.026988743
84	0xbe19b0bf	-0.1500883
85	0xbdc5761a	-0.09641667
86	0xbe8bb286	-0.2728464
87	0x3c13e8c4	0.009027664
88	0xbd769197	-0.06019744
89	0xba2c28ee	-0.00065673783
90	0x3e260033	0.16211013
91	0x3dd9ef7c	0.10641381
92	0x3e05ddfa	0.13072959
93	0xbcc842ac	-0.024445854
94	0xbd5fdfdc	-0.05465685
95	0xbe592037	-0.21203695
96	0xbdbb4cb6	-0.09145491
97	0xbdd30568	-0.103037655
98	0xbe18dff1	-0.14929177
99	0xbe022e3e	-0.12712952
100	0x3dad9eac	0.0847753
101	0xbdeb0cb7	-0.114770345
102	0xbd9fcfea	-0.07803328
103	0x3d1ced9c	0.03831254
104	0xbe13de99	-0.14440383
105	0xbd837417	-0.06418627
106	0xbe332475	-0.17494376
107	0xbe863066	-0.262088
108	0x3cc782c3	0.024354344
109	0x3e09efcb	0.1347038
110	0xbd44a77a	-0.04801128
111	0x3e1dc291	0.15406252
112	0xbda8294a	-0.08211
113	0xbe867913	-0.26264247
114	0xbb22b775	-0.0024828587
115	0xbdf4b321	-0.119482286
116	0xbda2cdd1	-0.079494126
117	0xbdbd3b76	-0.09239857
118	0xbc3cf863	-0.011533829
119	0xbe032048	-0.12805283
120	0xbe2b2707	-0.16714107
121	0xbddb646d	-0.10712514
122	0xbe805eeb	-0.25072417
123	0xbd7c33e0	-0.06157291
124	0xbe52d10b	-0.20587556
125	0xbe0486e2	-0.12942079
126	0x3c73565d	0.014852134
127	0xbe35d159	-0.17755641
128	0xbd93278e	-0.07185279
129	0xbce7e16d	-0.028305734
130	0xbd780a37	-0.060556617
131	0x3d36208e	0.04446464
132	0xbd8fcc50	-0.070213914
133	0xbe3ccd59	-0.18437709
134	0xbdd8fdd2	-0.105952874
135	0xbe713474	-0.23555166
136	0xbe26ce7e	-0.16289708
137	0x3ba21a80	0.0049470067
138	0xbe104e5b	-0.1409239
139	0xbe23c4b4	-0.15993005
140	0x3b7f86f9	0.0038990362
141	0x3da4f551	0.08054603
142	0xbd9a9db8	-0.07549614
143	0xbe8007b4	-0.25005877
144	0xbcb99d8c	-0.022658132
145	0x3d6a8b7b	0.057261925
146	0xbe306f05	-0.1722985
147	0x3e1263c7	0.14295875
148	0xbe887c75	-0.26657453
149	0x3cfe436d	0.03103801
150	0xbc9bf481	-0.019037487
151	0xbd35923a	-0.044328906
152	0xbe051cf4	-0.12999326
153	0x3de28a27	0.11061507
154	0xbe86c6eb	-0.26323637
155	0xbdcf334b	-0.10117205
156	0xbd7a50df	-0.06111228
157	0xbe0743bf	-0.13209437
158	0xbda74bda	-0.081687644
159	0x3d2e8158	0.04260382
160	0xbe5dc0e0	-0.21655607
161	0xbdbd87e0	-0.09254432
162	0x3da1667f	0.07880878
163	0xbe594f3d	-0.21221633
164	0xbdbce6e0	-0.092237234
165	0xbe040772	-0.12893465
166	0xbd9ffbf0	-0.07811725
167	0xbe54f73d	-0.20797439
168	0xbe8afdce	-0.27146763
169	0xbe9d72cc	-0.30751646
170	0xbe8b0066	-0.2714874
171	0xbe0f6abe	-0.14005563
172	0x3e1286c7	0.14309226
173	0x3e041ab5	0.12900813
174	0x3d562029	0.052276764
175	0xbe3eb1ef	-0.18622564
176	0x3d5e059a	0.05420456
177	0xbe6de105	-0.2323037
178	0xbe5a51e7	-0.21320306
179	0xbe861ad2	-0.26192337
180	0xbd04aa35	-0.032388885
181	0x3d92612e	0.07147442
182	0x3cc77617	0.024348302
183	0xbe0e1d6d	-0.13878413
184	0x3c45dae3	0.012076112
185	0x3e0875d9	0.13326205
186	0x3e06e527	0.13173352
187	0xbe508a16	-0.20365176
188	0xbb88a5eb	-0.0041701696
189	0x3df14f5f	0.11782717
190	0xbe4d89cb	-0.20072095
191	0xbcf88f32	-0.030341718
192	0xbe4f37e9	-0.20236172
193	0xbed1a4c7	-0.40946028
194	0xbddf11b9	-0.10892052
195	0xbc145efd	-0.00905585
196	0xbdf59631	-0.11991537
197	0x3da17f4a	0.078856066
198	0x3d6bef4d	0.057601262
199	0xbe46c200	-0.19409943
200	0xbc718b22	-0.0147426445
201	0xbc23a6e8	-0.009988524
202	0x3c702635	0.014657547
203	0xbdcef310	-0.10104954
204	0xbe0a5df6	-0.13512406
205	0xbdc5b67b	-0.09653946
206	0xbe0949e6	-0.13407096
207	0x3e5a4a2a	0.21317354
208	0xbe0c6070	-0.13708663
209	0xbd182737	-0.037146773
210	0x3da5ad36	0.08089678
211	0xbe9f55cf	-0.31120154
212	0x3c12e0c1	0.008964718
213	0xbe134d7e	-0.1438503
214	0x3dbf23b5	0.093329825
215	0xbe3fed2d	-0.18742819
216	0xbea1975b	-0.31560788
217	0x3d743213	0.059618067
218	0xbdae4dc6	-0.08510928
219	0x3d9ef89c	0.07762262
220	0x3e22f70e	0.15914556
221	0xbdc9aa79	-0.09846968
222	0xbc165048	-0.009174414
223	0xbeb61e43	-0.35569963
224	0xbe65239a	-0.22376862
225	0xbdcab0e5	-0.09897021
226	0xbc0c188a	-0.008550772
227	0x3d05b37b	0.03264187
228	0xbc586f59	-0.013210141
229	0xbe8344f5	-0.25638548
230	0x3d865dec	0.06560883
231	0xbe1c2524	-0.15248543
232	0xbe5e2d6e	-0.21697018
233	0x3e0ca5d2	0.1373513
234	0x3cadce49	0.021216528
235	0x3d935bfc	0.07195279
236	0xbd965c7e	-0.0734186
237	0xbdf712f2	-0.120641604
238	0xbe656233	-0.22400741
239	0xbd6e5109	-0.05818275
240	0xbdf76171	-0.12079132
241	0xbd4bff67	-0.049804118
242	0xbd50856c	-0.05090849
243	0xbcbbb140	-0.022911668
244	0x3c2a0c61	0.010378928
245	0xbe1382b8	-0.14405334
246	0x3d9e9be7	0.0774458
247	0xbe86d56e	-0.2633471
248	0xbea21f0b	-0.3166431
249	0x3da3d4a1	0.0799954
250	0xbe88a95a	-0.26691705
251	0xbd89dcc6	-0.06731562
252	0xbe9b4636	-0.30327004
253	0xbe0ee08b	-0.13952844
254	0xbda2c71d	-0.07948134
255	0xbecf5dd8	-0.40501285

weight f4 [1, 256]
0	0x3b810d84	0.0039383788
1	0x3b0362e8	0.0020047966
2	0x3c3a2d75	0.011363377
3	0x3d75c75d	0.06000458
4	0xbaa69b78	-0.0012711128
5	0x3d077d80	0.03307867
6	0xbd83629e	-0.06415294
7	0xbac2c766	-0.0014860451
8	0xbc804565	-0.01565809
9	0xbae471bf	-0.0017428919
10	0x39dd40fc	0.00042200822
11	0xbd070ee7	-0.032973196
12	0xbcfdda31	-0.03098783
13	0xbb239030	-0.0024957769
14	0x3c60e014	0.013725299
15	0x3b913792	0.0044316733
16	0xbb0b9dad	-0.00213037
17	0xbdae175d	-0.0850055
18	0xbd96d08f	-0.07363998
19	0xbba5db3e	-0.005061536
20	0xbacf37df	-0.0015809498
21	0x3d387dbf	0.045041796
22	0xbbc82875	-0.0061083385
23	0xbaf9c2dc	-0.0019055265
24	0x3d84e4b9	0.06488938
25	0xbd4d0e12	-0.050062247
26	0x3dbcd9c0	0.0922122
27	0xbd809ba4	-0.06279686
28	0xbd1c24fe	-0.038121216
29	0xbb0f07f6	-0.0021824813
30	0xbb1775ea	-0.0023111054
31	0xbab392d8	-0.0013700379
32	0x3d39e2e1	0.045382384
33	0xbd33ff48	-0.043944627
34	0xb9f639e5	-0.0004696391
35	0xbc5affc5	-0.013366644
36	0xbbee3ab9	-0.007270184
37	0xbb54844f	-0.0032427495
38	0xbda0ea0a	-0.078571394
39	0xbbc783c7	-0.006088707
40	0xbb0a1fab	-0.0021076004
41	0xba318c56	-0.0006772926
42	0xbc7558b8	-0.0149747655
43	0xbcba63bf	-0.02275264
44	0x3bd96535	0.0066343793
45	0x3bf25742	0.007395656
46	0x3b8b7bef	0.0042567174
47	0xbbfe4579	-0.0077597466
48	0x3a6339aa	0.00086679554
49	0xb9708a9a	-0.00022939817
50	0x3aad3018	0.0013213186
51	0xbd0af6a9	-0.03392664
52	0xb9d5fe8c	-0.00040816178
53	0xbdd5dc01	-0.10442353
54	0xbac685c6	-0.0015146069
55	0x3d9e9312	0.07742895
56	0xbd96cdbf	-0.07363462
57	0xbc773603	-0.015088561
58	0x3c11a842	0.008890213
59	0xbaa408a6	-0.0012514784
60	0xbc1336a9	-0.0089852
61	0xbe0f0a68	-0.13968813
62	0xbab8e2c6	-0.001410567
63	0xbb09f87d	-0.0021052652
64	0xbc641754	-0.0139215775
65	0xbce50802	-0.02795792
66	0xbcbcc4d1	-0.023043068
67	0x3d1b4651	0.037908856
68	0xbdb88a86	-0.09010796
69	0xbaf7add6	-0.0018896412
70	0x3c47acc2	0.012187185
71	0xbbce0d40	-0.0062882006
72	0xbc4e8fff	-0.0126075735
73	0xbb057a46	-0.002036707
74	0x3d1e30b8	0.03862068
75	0xbd3d67d4	-0.046241596
76	0xbaaf3dd7	-0.001336987
77	0xba570804	-0.00082027935
78	0x3d837f0a	0.06420715
79	0xbbf603d4	-0.0075077806
80	0xba9203fe	-0.0011140106
81	0xbb243b28	-0.0025059674
82	0xba1da41e	-0.000601353
83	0xbdb60a5b	-0.08888694
84	0xba6cec2e	-0.0009037879
85	0xbdf917bb	-0.12162729
86	0x3a2c4c7e	0.00065726775
87	0x3b8bedfe	0.0042703142
88	0x3cf652ba	0.030068744
89	0xbb20ad8d	-0.0024517507
90	0xbdb108b4	-0.08644238
91	0xbd034149	-0.032044683
92	0xbcdcbd56	-0.026945751
93	0x3dc8d802	0.09806825
94	0xba65a3ee	-0.0008760084
95	0xbb19816f	-0.0023423096
96	0xbb806020	-0.003917709
97	0xbd990526	-0.07471685
98	0x3d1e6596	0.0386711
99	0xbd443a1d	-0.047906984
100	0xba22cbce	-0.0006210179
101	0x3c8ea966	0.01741476
102	0xbb1e316a	-0.002413834
103	0xbc82cfdb	-0.015968254
104	0xbad45fba	-0.0016202845
105	0xba1bf7e8	-0.00059497217
106	0xba07757c	-0.0005167348
107	0x3dd59f25	0.10430745
108	0x3d8af269	0.06784517
109	0xbd88852a	-0.06666024
110	0x3b1e664b	0.0024169858
111	0xbd14a6e2	-0.036291964
112	0x3d88296b	0.06648525
113	0xbc885985	-0.016644249
114	0xbb0ad57d	-0.0021184378
115	0x3d4d844b	0.050174993
116	0x3ccca82f	0.02498254
117	0x3ad9527b	0.0016580367
118	0xb8691eba	-5.5580145e-05
119	0x3d040464	0.03223075
120	0xbb23042f	-0.002487432
121	0x3b368fa4	0.0027856613
122	0xba2e84b7	-0.00066573493
123	0x3c4b7474	0.012417901
124	0xbb0cbbff	-0.002147436
125	0xbaee5426	-0.0018183037
126	0xbcc1abed	-0.02364155
127	0x3db997d4	0.09062162
128	0xb83d99e0	-4.520442e-05
129	0x3a563e9b	0.0008172781
130	0x3b24c347	0.0025140808
131	0xbc511a7b	-0.012762661
132	0x3d3c0eaa	0.045912422
133	0x3d4bc267	0.049745943
134	0xbabc6318	-0.0014372794
135	0x3ce63f93	0.028106486
136	0xbb8543dd	-0.004066928
137	0x3b3fb72c	0.0029253466
138	0x3b2b7dcc	0.002616751
139	0x3cb5e8a4	0.022205658
140	0x3b0646c2	0.0020488952
141	0xbb132afc	-0.002245604
142	0x3da41b4d	0.0801302
143	0x3daff199	0.08591003
144	0x3b70be91	0.003673468
145	0xbae8838d	-0.00177394
146	0xb9b9eb64	-0.0003546133
147	0xbdac0709	-0.08399779
148	0xbb71adc9	-0.0036877266
149	0x3c365144	0.011127774
150	0x3a543e8d	0.0008096479
151	0x39c20aa7	0.000370105
152	0xbb2fcc7c	-0.0026824763
153	0xbb30da53	-0.00269856
154	0x3d9cfef2	0.076658145
155	0x3d6c246b	0.05765192
156	0xbce82fbb	-0.028343072
157	0xb94c06ea	-0.00019457532
158	0x3b04f64d	0.0020288408
159	0xbb0a3b9f	-0.0021092666
160	0xbaec9233	-0.0018048942
161	0xbd17c5a2	-0.03705371
162	0xba881a4f	-0.0010383817
163	0x3ca9cd48	0.020727769
164	0xbb8229d0	-0.0039722696
165	0x3d7e6a0e	0.06211286
166	0x3dfc80db	0.12329265
167	0xbb7e32ba	-0.003878756
168	0x3b0c6656	0.0021423302
169	0xbc467f19	-0.012115263
170	0x3bdb0bc1	0.006684751
171	0xb97db23d	-0.00024194359
172	0xbe0522bb	-0.1300153
173	0x3deee3d2	0.11664547
174	0xbbf88855	-0.0075846114
175	0xbd31bd69	-0.043393526
176	0x3d68b734	0.05681534
177	0xbb286f98	-0.002570128
178	0xbd5ad3d9	-0.05342469
179	0xba96e04f	-0.0011510941
180	0xba5ec83e	-0.00084984663
181	0x3bfef56f	0.007780723
182	0x3a4e2daa	0.0007865081
183	0xbaa635c0	-0.0012680814
184	0xbe33a011	-0.17541529
185	0x3cd5dab6	0.026105266
186	0xbac844e5	-0.0015279321
187	0xbc030df3	-0.007998931
188	0xb95b3d88	-0.0002090839
189	0xbb932ee8	-0.0044916756
190	0x3c861739	0.016368495
191	0x3b15a689	0.0022834858
192	0x3d38665d	0.045019496
193	0xbd092628	-0.033483654
194	0x3bed8594	0.00724859
195	0xbb048a10	-0.0020223893
196	0x3c2d7a47	0.010588235
197	0x3d72c10b	0.05926613
198	0xbbb7d1fb	-0.0056097484
199	0x3b1311f9	0.0022441132
200	0xbd02f64f	-0.03197318
201	0xbb227c1e	-0.0024793218
202	0xbba97f59	-0.0051726517
203	0xbb0fd17c	-0.002194493
204	0x384edd74	4.932047e-05
205	0xbb57fcc7	-0.0032957064
206	0xbaf43093	-0.0018630199
207	0x3cf76419	0.030199097
208	0x3dbfb8ac	0.09361395
209	0xbd4f3900	-0.05059147
210	0x3db58fa5	0.08865289
211	0xbaab5fb1	-0.0013074783
212	0xbd0b0fad	-0.033950496
213	0x3a9d0333	0.0011979103
214	0xbca14d87	-0.019690288
215	0xbc0f81cd	-0.008758974
216	0xba8f25cb	-0.0010921297
217	0x3a50ce12	0.0007965277
218	0x38b5bd8f	8.6660606e-05
219	0xbc52fcbe	-0.012877641
220	0xbcf08ad0	-0.029363066
221	0xbad0a623	-0.0015918653
222	0xbdabfefa	-0.08398242
223	0xba525b6e	-0.00080244883
224	0xbacfba50	-0.0015848372
225	0x3ae8df45	0.0017766735
226	0xbc09bd4a	-0.008406946
227	0xbba83c13	-0.0051341145
228	0x3e002a5f	0.12516163
229	0x3c557753	0.013028937
230	0x3dac6c66	0.08419113
231	0x3adadab2	0.0016697256
232	0x3d48cc1c	0.04902278
233	0xbb88906c	-0.004167607
234	0xbb0135a2	-0.0019715806
235	0xbd809151	-0.06277717
236	0x3d300360	0.04297197
237	0xb982ed0a	-0.0002497214
238	0xbd5cf7dd	-0.05394732
239	0xbb245d4c	-0.0025080023
240	0x3c369dd8	0.011146031
241	0xbaaa02ce	-0.0012970807
242	0xbac697a5	-0.0015151395
243	0x396c18f2	0.00022516007
244	0xbd1ec8e5	-0.038765807
245	0x3c00085d	0.007814494
246	0xbb0ec9e4	-0.0021787817
247	0x3a8948b9	0.0010473944
248	0xbd061ccd	-0.03274231
249	0xbd4620d7	-0.048371162
250	0x3d613dd8	0.05499062
251	0x3da650a4	0.0812085
252	0x3cb74ecf	0.022376446
253	0x3a97145f	0.0011526457
254	0xbc396958	-0.01131662
255	0xba702ac5	-0.00091616466

weight f4 [256, 1]
0	0xbe2c2b8c	-0.16813487
1	0xbc7122cc	-0.014717769
2	0xc0294c2f	-2.6452749
3	0x3e9d7453	0.3075281
4	0xbd2ab9d0	-0.04168111
5	0xbe470f2c	-0.19439381
6	0xbf61eb1e	-0.88249385
7	0xbd94a6fc	-0.07258412
8	0x3e8d3f29	0.2758725
9	0xbf7e0bb6	-0.9923662
10	0x3db95c76	0.09050839
11	0x3e705b11	0.23472239
12	0x3e518324	0.20460182
13	0xbf07ea40	-0.5309181
14	0xbc3bad0a	-0.01145483
15	0x3e6f1103	0.23346333
16	0xbdaf95de	-0.08573507
17	0x3ecb8b6e	0.39754814
18	0xbdfae5a2	-0.1225083
19	0x3ec3e8db	0.38263592
20	0xbd445681	-0.04793406
21	0x3ebb92ee	0.36635536
22	0x3f6e32a4	0.9304602
23	0xbf14d97c	-0.58144355
24	0xbf176788	-0.5914235
25	0x3f02e58c	0.5113151
26	0x3ece335a	0.40273553
27	0x3f4a1dc4	0.7895167
28	0x3e9c2257	0.3049495
29	0xbe07f861	-0.13278343
30	0xbf363c3a	-0.7118565
31	0xbf4efce2	-0.8085462
32	0xbd24c556	-0.040227257
33	0xbf5dfee8	-0.8671708
34	0xbce089c0	-0.027409434
35	0x3f30896d	0.68959695
36	0xc05938cd	-3.3940918
37	0xc096abc1	-4.708466
38	0xbe6c6a30	-0.23087382
39	0x3e1bbcdf	0.15208767
40	0xbdfc0274	-0.123051554
41	0xbdafd0bd	-0.085847355
42	0x3f4c8985	0.7989734
43	0x3ee4da69	0.44697884
44	0x3cd27645	0.025691161
45	0x3ed996dd	0.42497912
46	0x3e950184	0.2910272
47	0x3ed66091	0.4187055
48	0xbc87ad10	-0.016562015
49	0xbd739440	-0.059467554
50	0xbd91cf30	-0.07119596
51	0xbeaaedc4	-0.33384526
52	0x3db8ed99	0.09029693
53	0xbf2d8b7a	-0.6779095
54	0x3d6f8484	0.058475986
55	0x3e7d3e5d	0.24730821
56	0xc0a633c9	-5.1938214
57	0x3eaba768	0.33526158
58	0xbd4767f1	-0.04868311
59	0xbd614939	-0.05500147
60	0xbf80fb0a	-1.0076611
61	0x3ea985a9	0.33109787
62	0xc028e1e4	-2.6387873
63	0xbd5e9f15	-0.05435093
64	0x3e7be7ed	0.24600191
65	0x3f5ca780	0.86193085
66	0xbf4dbd3a	-0.8036686
67	0x3e53a7aa	0.20669428
68	0x3f8095cd	1.0045716
69	0xbe6c421d	-0.23072095
70	0xc099daa3	-4.807939
71	0xbdaa9a00	-0.083301544
72	0x3e438f06	0.19097528
73	0xbf41affe	-0.7565917
74	0x3f15c67e	0.58506
75	0x3e905d03	0.28195962
76	0xbd328156	-0.043580376
77	0xbe1315e0	-0.14363813
78	0x3ed62e1c	0.41832054
79	0xc0aae648	-5.3406105
80	0xbd727a53	-0.05919869
81	0x3ebfb0a9	0.37439469
82	0xbd11758e	-0.0355125
83	0x3f231438	0.63702726
84	0xbd89b2f0	-0.06723583
85	0x3f193b4b	0.598561
86	0xbdecb8aa	-0.115586594
87	0xbd7dc6a0	-0.061957
88	0x3ead0f24	0.33800614
89	0xbeff9780	-0.49920273
90	0x3f19852b	0.59968823
91	0x3ea4b720	0.32170963
92	0xbf74b87a	-0.9559399
93	0x3e3da90a	0.18521515
94	0xbf2bdd60	-0.67134666
95	0x3e119f03	0.14220814
96	0xbc11bd6d	-0.00889526
97	0xbf70fd20	-0.9413624
98	0xc08d5765	-4.4169183
99	0x3ee4a861	0.44659713
100	0xbeb572fc	-0.3543929
101	0x3ef1ec15	0.4725043
102	0xbdc74152	-0.09729256
103	0x3e80573b	0.25066552
104	0xbdc94610	-0.098278165
105	0xbf0c13f4	-0.54717946
106	0x3d9ebb11	0.07750524
107	0x3ec1086f	0.37701747
108	0x3ea95cd3	0.33078632
109	0xbe042472	-0.12904528
110	0xbd83ac60	-0.06429362
111	0x3e86b7b8	0.2631204
112	0xbea8cf14	-0.32970488
113	0xc09e35b6	-4.9440565
114	0x3e1e03e3	0.1543117
115	0xbdaf46bc	-0.085584134
116	0xbf1f7458	-0.622869
117	0xbe70f5d0	-0.2353127
118	0x3dbe6b56	0.092978165
119	0xbe0c9ba2	-0.13731244
120	0xbef38610	-0.4756322
121	0x3dab6c22	0.08370234
122	0xbd2ed7a8	-0.042686135
123	0xbf101b62	-0.5629178
124	0xbd3b01f0	-0.045656145
125	0x3d104d8c	0.035230204
126	0xbe28e650	-0.16494107
127	0x3f132b41	0.57487875
128	0xbd7ccf1d	-0.061720956
129	0xbdbfca13	-0.093647145
130	0xbe8261d4	-0.25465262
131	0xbf4157ce	-0.75524604
132	0x3eb28206	0.34864825
133	0xbdc34eed	-0.09536538
134	0xbd3f40d4	-0.046692684
135	0xbf279ea0	-0.6547642
136	0xc0440baf	-3.063213
137	0x3c0f1880	0.008733869
138	0xbc1f0bb5	-0.009707381
139	0x3dbc268a	0.09187038
140	0x3c79e050	0.015251234
141	0x3e63071c	0.22170681
142	0x3e21a903	0.15787129
143	0x3dba5f20	0.09100175
144	0x3b02f739	0.0019983782
145	0x3d336560	0.04379785
146	0x3df32480	0.11872196
147	0x3f06341c	0.5242326
148	0x3ee0ab64	0.4388076
149	0xbecc6318	-0.39919353
150	0xbe9d8ba4	-0.307706
151	0xbde3b18a	-0.11117847
152	0xbeea30f8	-0.45740485
153	0x3e9b3da8	0.30320477
154	0x3f47a9d4	0.7799351
155	0x3c9b74a0	0.01897651
156	0xbf7c464e	-0.98544776
157	0xbd533332	-0.051562496
158	0xbf042be0	-0.5162945
159	0xbf4b0dec	-0.7931812
160	0xbda5e5f1	-0.081004985
161	0x3e90e846	0.2830221
162	0xbf72b832	-0.9481231
163	0xbd69a3e6	-0.05704107
164	0xbe8c0384	-0.27346432
165	0x3ea3d8f1	0.3200145
166	0x3e55fa2c	0.20896214
167	0x3f0dc57b	0.55379456
168	0xbda7198f	-0.08159172
169	0x3edf64bf	0.4363155
170	0xc0b8ec97	-5.7788806
171	0xbd507318	-0.050891012
172	0xbdfe4f2e	-0.12417446
173	0xbe1821f1	-0.14856698
174	0x3d472742	0.048621424
175	0x3f76ea93	0.9645168
176	0xc0c3041d	-6.094252
177	0xbdce27eb	-0.100662075
178	0x3d8cca23	0.06874492
179	0xc08865db	-4.2624335
180	0xbecedd44	-0.40403187
181	0xbf00f4c6	-0.50373495
182	0x3f3912b2	0.7229415
183	0xbf4d3b98	-0.8016906
184	0xbf3c6768	-0.73595285
185	0xbf528c2e	-0.8224515
186	0xbf3a15de	-0.72689617
187	0x3efeacd7	0.4974124
188	0xbf322ff6	-0.6960443
189	0xbd99d661	-0.07511593
190	0xbe463098	-0.19354475
191	0xbf62b196	-0.88552225
192	0xbf4a8d6e	-0.79122055
193	0x3eb02237	0.34401104
194	0x3f1a2187	0.6020741
195	0x3ccdeb60	0.02513665
196	0xbd2ffeec	-0.04296772
197	0x3f626b66	0.88445127
198	0x3ec4df9f	0.3845186
199	0xbde48609	-0.11158378
200	0xc0898868	-4.297901
201	0xbf0e2d7e	-0.55538166
202	0xbfed48bc	-1.8537822
203	0xbdc0ff15	-0.09423653
204	0x3eee4017	0.46533272
205	0xbefb5090	-0.49084902
206	0xbd100949	-0.035165105
207	0x3eff8563	0.49906453
208	0x3f013a38	0.5047946
209	0x3f692506	0.9107212
210	0x3f32d11d	0.6985033
211	0xbcddb59f	-0.027064143
212	0x3efa353b	0.48868737
213	0xbe2f7d20	-0.17137575
214	0xbf7a75ee	-0.97836196
215	0x3f118b3f	0.568531
216	0xbd82754e	-0.0637003
217	0xbdfedf20	-0.124449015
218	0xbd19ea8c	-0.037577197
219	0x3ec7bf69	0.39013222
220	0x3ea8135d	0.32827273
221	0xbc348d05	-0.01101995
222	0x3ee12e82	0.43980795
223	0xbd841e73	-0.0645112
224	0xbc34e4a1	-0.0110408375
225	0xbf146daa	-0.57979834
226	0x3de58a13	0.11207976
227	0xbe82d528	-0.2555325
228	0x3cdbb194	0.026818074
229	0xbce94efb	-0.028480044
230	0x3ebd2261	0.36940292
231	0xbe00e1f2	-0.12586191
232	0xbe8a3185	-0.26990905
233	0xbf4afecc	-0.7929504
234	0x3d8dfbed	0.06932817
235	0x3ec135dc	0.37736404
236	0xc08e7fd4	-4.453104
237	0x3da276ab	0.0793279
238	0x3e158aa7	0.14603673
239	0xbde45210	-0.11148465
240	0xbe3a314a	-0.18182865
241	0xbd4c45e4	-0.04987134
242	0xbdcf6c00	-0.10128021
243	0xbd58474b	-0.052802365
244	0xbf08fe12	-0.5351268
245	0xbe6615b3	-0.22469215
246	0xbd87c30c	-0.06628999
247	0xbe123203	-0.1427689
248	0xbf73ee4b	-0.9528548
249	0xbe782c41	-0.24235632
250	0xbe842ab2	-0.25813824
251	0x3deba2e7	0.115056805
252	0xbe0b065b	-0.13576643
253	0xbdf44a84	-0.11928275
254	0xbe5ba9ba	-0.21451464
255	0xbb1b481a	-0.00236941

bias f4 [256]
0	0x3f2ce544	0.6753733
1	0xba95822f	-0.0011406596
2	0x3ebf89a9	0.37409714
3	0xbfacb847	-1.3493737
4	0x3ea036bb	0.31291756
5	0x3f8ae220	1.0850258
6	0xbf75b9b0	-0.9598646
7	0x3e955d1c	0.291726
8	0xbf9b1df4	-1.2118516
9	0xbe9e58a4	-0.30927002
10	0x3dcf21e0	0.10113883
11	0x3eeaaa9b	0.45833287
12	0x3ed77ea0	0.42088795
13	0xbf6f05fc	-0.93368506
14	0x3cd63ec6	0.02615298
15	0xbfa67a71	-1.3006116
16	0x3e8e0fc0	0.2774639
17	0x3a2d44ae	0.00066096603
18	0x3f090f5b	0.53539056
19	0x3eca53cb	0.39517054
20	0x3e8e9515	0.27848116
21	0x3e9c9b5d	0.30587283
22	0xbf1fa29d	-0.62357503
23	0xbea57838	-0.32318282
24	0xbe8bada8	-0.27280927
25	0x3efec1b1	0.4975715
26	0x3f38357f	0.7195663
27	0xbf23c6be	-0.6397513
28	0xbfac4f26	-1.3461654
29	0x3f148402	0.5801393
30	0xbf360576	-0.7110208
31	0xbe8fe688	-0.2810557
32	0x3e5f487f	0.21804999
33	0xbdd25b60	-0.10271335
34	0xbe8052b8	-0.2506311
35	0x3f5af45c	0.8552911
36	0x3ee87a24	0.45405686
37	0x3e8184da	0.2529667
38	0x3f8045af	1.0021266
39	0xbf308db5	-0.6896623
40	0x3ddf5feb	0.10906967
41	0x3f12f14e	0.5739945
42	0xbf43b6df	-0.76450914
43	0xbff9e7a6	-1.9523818
44	0xbe4ed110	-0.20196939
45	0xbf04de4f	-0.51901716
46	0x3e45182b	0.192475
47	0xbfeb0860	-1.8361931
48	0x3c913dc1	0.017729642
49	0x3ed9cd09	0.42539242
50	0xbef6af10	-0.48180437
51	0xbc6c8080	-0.014434934
52	0xbf0dbff6	-0.55371034
53	0xbf5974cc	-0.8494384
54	0x3e2d8fd3	0.16949396
55	0xbfb0b431	-1.380499
56	0x3f1a03a4	0.60161805
57	0x3f1935e8	0.5984788
58	0x3e89c083	0.26904687
59	0x3efd05dd	0.49418536
60	0x3f0b8720	0.5450306
61	0xbaa00992	-0.0012209883
62	0x3d814fe8	0.06314069
63	0x3ea19183	0.3155633
64	0x3d49c69b	0.04926167
65	0xbf2c379b	-0.6727235
66	0xbf4813cc	-0.7815521
67	0x3cef6f5f	0.02922791
68	0xbf879625	-1.0592695
69	0x3df01139	0.11722035
70	0x3e233b3c	0.15940565
71	0xbebdf3c4	-0.3710004
72	0xbf5ca094	-0.8618252
73	0xbd002bc0	-0.031291723
74	0x3f44e71f	0.7691516
75	0x3af60bce	0.0018771829
76	0x3ea81385	0.32827392
77	0xbf12e256	-0.5737661
78	0x3efa4780	0.48882675
79	0x3f136744	0.57579446
80	0x3f026728	0.50938654
81	0xbbf8b268	-0.007589627
82	0x3e6acde8	0.2293011
83	0x3f418d77	0.75606483
84	0xbd301a40	-0.042993784
85	0x3e80831b	0.25100026
86	0x3ec23cd3	0.3793703
87	0xbeb3120c	-0.34974706
88	0x3b68934a	0.0035488182
89	0xbe20ba40	-0.15696049
90	0xbedb376d	-0.42815724
91	0x3f3c97e8	0.7366929
92	0xbf2ef5d8	-0.6834388
93	0xbf84de3d	-1.0380322
94	0xbdfba980	-0.12288189
95	0x3eed149f	0.46304795
96	0x3d547dce	0.05187779
97	0xbde7f220	-0.113254786
98	0x3f3a32fd	0.7273405
99	0x3eac23ad	0.33620968
100	0xbc9d1500	-0.019175053
101	0xbff23c06	-1.8924568
102	0x3e5198ad	0.20468397
103	0xbfb34a0b	-1.4006971
104	0xbf39fd20	-0.72651863
105	0xbef305a0	-0.4746523
106	0x3ee48db1	0.44639352
107	0xbfd34910	-1.6506672
108	0xbfbaa509	-1.4581615
109	0x3f6c722d	0.9236172
110	0xbf789d72	-0.9711524
111	0xbf9452dc	-1.1587787
112	0xbf2b64d4	-0.66950727
113	0x3ed75041	0.42053416
114	0x3eb5c170	0.35499144
115	0x3ec2b40a	0.38027984
116	0xbea2a364	-0.31765282
117	0xbeba1018	-0.36340404
118	0xbf133bb9	-0.57513005
119	0x3f43ecdf	0.7653331
120	0xbcc271c0	-0.02373588
121	0xbf239838	-0.6390414
122	0x3e9cdbb0	0.30636358
123	0xbeeb920c	-0.46009862
124	0x3ead1c42	0.33810622
125	0xbea4a392	-0.32156044
126	0xbec158a8	-0.37762952
127	0x3f7fe72e	0.9996213
128	0x3defd41a	0.11710377
129	0x3f1fef8e	0.62474906
130	0xbe7b1700	-0.24520493
131	0xbf27ea80	-0.65592194
132	0x3e77330b	0.24140565
133	0x3f06f512	0.527177
134	0x3e502aee	0.20328876
135	0xbf3b844c	-0.73248744
136	0x3e2e5d89	0.17027868
137	0xbed17980	-0.4091301
138	0x3ca60467	0.020265771
139	0x3f0399ab	0.51406354
140	0xbe11e384	-0.14246947
141	0xbe3648b6	-0.17801175
142	0x3e6eee99	0.23333205
143	0xbf5206b8	-0.820415
144	0xbd53d7e7	-0.051719572
145	0xbf5a57ee	-0.8529042
146	0xbf457b33	-0.7714111
147	0xc0113c80	-2.2693176
148	0x3f446be3	0.7672712
149	0xbf7960d6	-0.97413385
150	0xbec1ac88	-0.37826943
151	0x3e6d9bfd	0.23204036
152	0xbea57cc8	-0.32321763
153	0xbfab555c	-1.3385425
154	0x3f3b528a	0.7317282
155	0x3f1a2702	0.6021577
156	0xbe531d20	-0.20616579
157	0x3e55b0c9	0.2086822
158	0xbec6f6ec	-0.3886026
159	0xbf5ae4f0	-0.8550558
160	0x3eaa5d8f	0.33274505
161	0xbfa01016	-1.2504909
162	0xbf0e7210	-0.55642796
163	0x3e1cc02e	0.15307686
164	0xbd650000	-0.055908203
165	0xbfb42bd2	-1.4075873
166	0x3e33e7e1	0.17568924
167	0x3b2cc8ac	0.0026364727
168	0x3f46bdea	0.77633536
169	0x3f293d52	0.6610919
170	0x3ea5dab2	0.32393414
171	0x3e901261	0.28139022
172	0x3f0a1023	0.5393087
173	0x3f53d223	0.8274252
174	0xbb2e2681	-0.0026573243
175	0xbf260952	-0.6485797
176	0x3ec0bec4	0.37645543
177	0x3ed62428	0.4182446
178	0x3eed986f	0.4640536
179	0xb9d127a2	-0.00039893115
180	0xbe9c3fb0	-0.3051734
181	0xbe7552c0	-0.23957348
182	0xbfeb66f5	-1.8390795
183	0x3ece0ed7	0.40245697
184	0xbe42af98	-0.19012296
185	0xbf248050	-0.6425829
186	0xbd600f20	-0.054701924
187	0xc00a28a8	-2.1587315
188	0xbc4b0080	-0.012390256
189	0xba5d68f9	-0.0008446123
190	0xbf1afc1c	-0.6054094
191	0xbe9e1834	-0.3087784
192	0xbf565fb8	-0.83739805
193	0x3eebdbdd	0.4606618
194	0x3eb2bda1	0.349103
195	0x3e9db3a3	0.30801114
196	0x3d8c60a1	0.06854368
197	0xbf6c504b	-0.9231002
198	0x3e89921e	0.2686929
199	0x3f220ff1	0.63305575
200	0x3f0d0ce0	0.5509777
201	0xbe8b7fd0	-0.2724595
202	0x3edf856e	0.43656486
203	0x3df79e99	0.12090797
204	0x3d074998	0.03302917
205	0xbe77e8d0	-0.24209905
206	0x3e225f6f	0.15856718
207	0xc0077e77	-2.1170938
208	0x3eeeeef4	0.46666682
209	0x3f55686e	0.8336247
210	0x3e509396	0.203688
211	0x3df9ae5c	0.121914595
212	0xba1ee536	-0.0006061377
213	0xbe76e110	-0.24109292
214	0xbd33c3e0	-0.043887973
215	0xbf2e88e9	-0.6817766
216	0x3ee69005	0.45031753
217	0xbf6d60e0	-0.92725945
218	0x3d318420	0.043338895
219	0x3cef5e45	0.029219756
220	0xbfb916ad	-1.4460045
221	0xba82661d	-0.0009948645
222	0xbff5eb1d	-1.9212376
223	0x3e21c81a	0.15798989
224	0x3eaed7e8	0.34149098
225	0xbe3c1128	-0.1836592
226	0xbeff0726	-0.4981014
227	0xbf6dde14	-0.9291699
228	0x3f04dc01	0.518982
229	0x3e1fe09a	0.15613022
230	0x3f443fa2	0.76659596
231	0x3f33bdc7	0.7021145
232	0xb9521442	-0.00020034707
233	0xbf107442	-0.56427395
234	0xbeb1b224	-0.34706223
235	0xbfd3a80e	-1.6535661
236	0x3edd3a44	0.43208516
237	0xbedf1fa6	-0.43578833
238	0x3b18e08c	0.00233272
239	0xbdd5a7a0	-0.104323626
240	0x3f47005d	0.7773493
241	0x3ebd66ea	0.3699258
242	0xbf5d7b62	-0.8651639
243	0x3e7211aa	0.23639551
244	0xbf199686	-0.59995306
245	0x3f78f580	0.97249603
246	0x3e3fcb27	0.1872984
247	0x3f4c7d2b	0.7987849
248	0xbac5e928	-0.0015099393
249	0x3f867960	1.0505791
250	0x3f8f436a	1.1192448
251	0x3e9e7279	0.3094671
252	0x3f15173c	0.5823858
253	0x3e402766	0.1876503
254	0x3f6dad38	0.92842436
255	0x3e06d8a3	0.13168578

weight f4 [1, 256]
0	0x3c757044	0.0149803795
1	0x3c53912a	0.012913028
2	0x3d854f10	0.065092206
3	0x3c92b7cb	0.017909905
4	0xbb193762	-0.0023378958
5	0x3d5fdb1c	0.05465232
6	0xbc11fad5	-0.008909901
7	0xba765a88	-0.00093976455
8	0x3ce5c203	0.028046614
9	0x3aa741c2	0.0012760686
10	0x3d1b3116	0.03788861
11	0xbbda9a50	-0.0066712275
12	0x3d35cca6	0.04438462
13	0x3a182ad7	0.00058047235
14	0xbd1cee1a	-0.03831301
15	0xba374682	-0.00069914025
16	0xbb89c734	-0.004204655
17	0xbc5ee589	-0.01360453
18	0x3db07a18	0.086170375
19	0x3c81ff07	0.015868677
20	0x3b81f97b	0.003966508
21	0x3c5b7930	0.013395593
22	0x3d52b783	0.05144454
23	0x3ab2b897	0.0013635334
24	0x3d7b8687	0.061407592
25	0x3b2b1fbd	0.0026111447
26	0xbd3d5c57	-0.04623064
27	0x3cb62ad3	0.022237217
28	0xbc71ee36	-0.014766267
29	0x3b005d12	0.0019586724
30	0x3a498a59	0.0007688157
31	0x3a65a1b7	0.0008759754
32	0xbcc862f2	-0.024461243
33	0xbd83d8ac	-0.06437811
34	0x3a04a334	0.00050597196
35	0x3de49a84	0.11162284
36	0xbd40410d	-0.046937037
37	0x3a96a1cc	0.0011492311
38	0x3d82ca57	0.063862495
39	0x3c4393ac	0.011937063
40	0xbab45cc7	-0.001376056
41	0x3b23e2e8	0.0025007073
42	0xbbbf22b2	-0.0058329934
43	0xbd36265b	-0.044470172
44	0xbb73e345	-0.003721432
45	0xbdb22fed	-0.08700547
46	0xbd21590c	-0.039391562
47	0xbd8f55b9	-0.06998772
48	0xbbd9ce5e	-0.0066469153
49	0x3dda99cd	0.106738664
50	0xb9b2fd1b	-0.00034139384
51	0xbc82318d	-0.015892768
52	0xb9557ceb	-0.00020359799
53	0xbcb6a3ad	-0.022294844
54	0x3aef0c86	0.0018237985
55	0xbd57a21a	-0.052644826
56	0x3af840b8	0.0018940186
57	0x3db86eec	0.09005532
58	0xbd1459d3	-0.036218476
59	0xbb05d3ed	-0.0020420507
60	0xbaa1b561	-0.001233738
61	0x3c0cd330	0.008595273
62	0xbb96fcda	-0.004607779
63	0x3cb2ea61	0.021840276
64	0xbb85a753	-0.0040787845
65	0xba5758e5	-0.00082148454
66	0xbd1af2c2	-0.03782917
67	0x3c790684	0.015199307
68	0xbd56d6d2	-0.052450962
69	0xba398026	-0.00070762855
70	0xbd543850	-0.051811516
71	0x3d06b39f	0.032886144
72	0x3cd14ebe	0.025550243
73	0x3a60e455	0.0008578946
74	0x3dc62574	0.09675112
75	0xbd3a8bb8	-0.045543402
76	0xba861111	-0.0010228475
77	0xb8f0aa87	-0.00011475855
78	0x3d862ead	0.065518714
79	0xbc98166b	-0.018565377
80	0xbafd5165	-0.0019326626
81	0xbd1d0be2	-0.03834141
82	0xbb8c7bb4	-0.0042872075
83	0xbc84382c	-0.016140066
84	0x3d004208	0.031312972
85	0x3ca2fb78	0.0198953
86	0xbbd21177	-0.0064107734
87	0x3992156e	0.00027863256
88	0xbd96789d	-0.07347224
89	0x3a8d64e8	0.0010787519
90	0x3c67a411	0.014138238
91	0x3dab1530	0.083536506
92	0xbd4c7524	-0.0499164
93	0xbc278cf2	-0.010226475
94	0x3a52cb77	0.0008041183
95	0xbb15ff26	-0.0022887676
96	0xbba78408	-0.005112175
97	0x3d2a6bb0	0.041606605
98	0xbc3483e0	-0.01101777
99	0x3c5031dc	0.0127072
100	0x3aaac297	0.0013027963
101	0x3d961779	0.07328696
102	0xba31dc92	-0.00067848817
103	0xbc93d410	-0.018045455
104	0x3aaf9124	0.0013394696
105	0x39c751f3	0.00038017295
106	0x3b2469f7	0.0025087574
107	0xbc1bae52	-0.00950201
108	0x3a7731c0	0.00094297156
109	0x3d82f71a	0.06394787
110	0xbad97e9f	-0.0016593522
111	0xbcad9f23	-0.021194046
112	0xbe04baf9	-0.1296195
113	0x3bc4a205	0.0060007595
114	0x3b73e369	0.0037214404
115	0x3bf90974	0.007600004
116	0xbc3f531f	-0.011677532
117	0xbbdca83d	-0.0067339228
118	0xba7d695d	-0.00096668844
119	0xbcef1849	-0.029186385
120	0x3d20a415	0.03921898
121	0xba0cae10	-0.00053665135
122	0xb9d78853	-0.00041109565
123	0x3c9cd1df	0.019143043
124	0xbb20a630	-0.0024513118
125	0xb841b34f	-4.618178e-05
126	0x3b68cc5e	0.0035522203
127	0x3d4ee8e8	0.050515085
128	0xb851a0d8	-4.997928e-05
129	0x3b6658d4	0.003514816
130	0xb946515c	-0.0001891306
131	0x3d3ab5b7	0.045583453
132	0x3cb69945	0.022289881
133	0xbdd07899	-0.10179252
134	0xbb12efa3	-0.0022420667
135	0xbd1a7ef1	-0.037718717
136	0x3a4598d0	0.00075377245
137	0xba9403a0	-0.0011292584
138	0xbd09d772	-0.03365273
139	0x3bcb41f5	0.006202931
140	0xbaf27eec	-0.001850096
141	0xbc16ed98	-0.00921192
142	0xbd0ec204	-0.034852996
143	0xbcc71dae	-0.024306145
144	0xb986bfe5	-0.00025701444
145	0x3a0c1642	0.0005343893
146	0x3833604e	4.2766616e-05
147	0x3b97e709	0.004635696
148	0x3d82d58b	0.06388386
149	0x3b2e6d20	0.0026615337
150	0x380222aa	3.10267e-05
151	0x3ccc73be	0.024957534
152	0x3a461fdc	0.0007557848
153	0xbd64ef97	-0.055892553
154	0xbca1d557	-0.019755049
155	0x3b941f5a	0.004520339
156	0xbd26b62a	-0.04070107
157	0xbb8285fc	-0.0039832573
158	0xbaa9018f	-0.0012894141
159	0x3ab18c4f	0.0013545844
160	0xb9c0570e	-0.00036685955
161	0xbdaad968	-0.08342248
162	0xbaeac8f1	-0.0017912668
163	0xbc2e9634	-0.010655928
164	0x3aebd32a	0.0017992009
165	0xbaf1ad84	-0.0018438553
166	0x3cc19d96	0.023634713
167	0xbca2355f	-0.01980084
168	0x3d183c96	0.037167154
169	0x3d776449	0.060398374
170	0xbd7acdf2	-0.06123156
171	0xbc5c715a	-0.0134547595
172	0xb9f43e0e	-0.0004658554
173	0x3ce34241	0.027741553
174	0xbb959e51	-0.004565992
175	0xbcc84d8e	-0.024451043
176	0x3c6ec448	0.014573164
177	0xbb29dc70	-0.0025918745
178	0x3d62cbf1	0.055370275
179	0xbb114b0d	-0.0022169978
180	0xbb3de0f9	-0.0028973205
181	0xbc8bc023	-0.017059391
182	0x3d5df6b3	0.05419035
183	0x3b040ddd	0.0020149865
184	0x3dca0e41	0.09866
185	0x3d6b4276	0.05743643
186	0x3ab6497c	0.0013907398
187	0x3d10ae48	0.035322458
188	0x3d43b759	0.047782276
189	0x3d74f22c	0.059801266
190	0xbd9c6cef	-0.07637965
191	0xbac7d9af	-0.001524737
192	0x3d515456	0.05110582
193	0xbd123d30	-0.035702884
194	0xbd2dbc9b	-0.042416196
195	0x3cce91df	0.025216041
196	0xbd456c53	-0.04819901
197	0x3d65d6b5	0.056112964
198	0x3d45f4a1	0.048329
199	0xbb78f671	-0.0037988687
200	0x3c1f7bb5	0.009734084
201	0x3ce2357c	0.027613394
202	0xbb5d700b	-0.0033788707
203	0xbaf159a0	-0.0018413551
204	0x3cf9d640	0.03049767
205	0x39eacaa6	0.00044782943
206	0x3aaa78f6	0.001300602
207	0x3d7e2f05	0.06205656
208	0xbca4a301	-0.020097258
209	0xbd1e900a	-0.038711585
210	0xbdbaddca	-0.09124334
211	0x3a25a9d7	0.00063195586
212	0xbd27c2d6	-0.040957294
213	0xbbc45c94	-0.0059924815
214	0x3db0ceec	0.08633217
215	0xbcfdf28a	-0.03099944
216	0xb96da988	-0.00022665237
217	0xbd37e4e2	-0.044896014
218	0x3b53a249	0.0032292774
219	0x3bd5195b	0.0065032667
220	0xbd1db6f8	-0.03850457
221	0x39b0d3de	0.0003372719
222	0xbd3936e1	-0.045218352
223	0xbc8bd3d8	-0.017068788
224	0xbaa55810	-0.0012614746
225	0xbbd8ae88	-0.0066126026
226	0x3b385235	0.002812517
227	0x38c85e80	9.554345e-05
228	0xbd8ea252	-0.06964554
229	0xbd8cfaf6	-0.068838045
230	0x3cd51695	0.026011745
231	0xbc338c53	-0.010958749
232	0xba79dab3	-0.0009531185
233	0x39321500	0.00016983226
234	0x3afaff85	0.0019149637
235	0xbc167879	-0.009183996
236	0x3d5d6d2c	0.054059193
237	0x3a8706fa	0.0010301762
238	0x3bc00ef4	0.0058611576
239	0x3a4d66ce	0.00078354485
240	0x3cbd66ff	0.023120401
241	0xba82ff02	-0.0009994211
242	0xb9f4ae2d	-0.00046669078
243	0xbb2c7482	-0.0026314561
244	0xbc2b3e8e	-0.010451926
245	0x3b33583a	0.002736582
246	0xbb454a0b	-0.0030103948
247	0xbb965753	-0.0045880466
248	0x3c88e69c	0.016711526
249	0x3d1afef5	0.037840802
250	0x3c3fd38a	0.01170815
251	0x3cc569a6	0.024098229
252	0x39a3ee34	0.00031267258
253	0xbba943f8	-0.005165573
254	0xbdaf7a43	-0.085682414
255	0xbb9998bd	-0.0046873973

weight f4 [256, 1]
0	0x3f2091d3	0.6272251
1	0xbc3b4700	-0.011430502
2	0x3e59444f	0.21217464
3	0xbf084ea0	-0.5324497
4	0xbf650c45	-0.89471847
5	0x3f5a695f	0.85317034
6	0x3eac4c4b	0.33651957
7	0xbde96091	-0.11395372
8	0xc08b7bf7	-4.3588824
9	0xbc660bd5	-0.014040907
10	0xbe72a37a	-0.23695174
11	0xbecda3e4	-0.401641
12	0x3e2ee5d6	0.17079863
13	0xbe886858	-0.26642108
14	0xbea01d95	-0.3127257
15	0xbeced4a4	-0.40396607
16	0xbe8d2030	-0.2756362
17	0x3dc411ca	0.095737055
18	0xc089037b	-4.281675
19	0x3ce53418	0.027978942
20	0xbe479e10	-0.1949389
21	0xbf3d67fe	-0.73986804
22	0xbf7011fa	-0.9377743
23	0xbef99ac8	-0.487509
24	0x3eb5f2af	0.35536715
25	0xbef6b02d	-0.48181286
26	0x3f3cad13	0.7370159
27	0xbdbff0d0	-0.09372103
28	0x3e87c8e6	0.2652046
29	0xbf290506	-0.6602329
30	0x3cef09e4	0.02917952
31	0xbd6f6afe	-0.058451645
32	0xbee679df	-0.45014855
33	0x3ed06803	0.40704355
34	0xbf5a3f5c	-0.8525293
35	0x3c1f1380	0.009709239
36	0x3ed38495	0.4131209
37	0xbd89e91a	-0.06733914
38	0x3e81a049	0.253176
39	0x3e7b1b45	0.24522121
40	0xbf2a68c8	-0.66566133
41	0x3dd4acc6	0.103845164
42	0xbfb707ca	-1.4299252
43	0xbeadbca0	-0.33932972
44	0x3f04cbc3	0.51873416
45	0x3f0e7bf6	0.556579
46	0xbe9bf774	-0.3046223
47	0x3ef1830e	0.471703
48	0xbf919217	-1.1372708
49	0x3eb206d3	0.3477083
50	0xbe907d0c	-0.28220403
51	0x3f1d99cd	0.61562806
52	0xbfde63df	-1.7374228
53	0xbc18fa80	-0.009337068
54	0xbf13d826	-0.5775169
55	0x3eb34abf	0.35017964
56	0xbf6a6953	-0.9156696
57	0x3eac1787	0.336117
58	0xbcba93ff	-0.022775648
59	0x3d1f61c1	0.038911585
60	0x3d98dedd	0.07464383
61	0x3e0629b6	0.13101849
62	0xbf7f4940	-0.99721146
63	0xbef50510	-0.47855425
64	0xbf542ee2	-0.8288404
65	0x3f4c3e68	0.79782724
66	0x3ed4330c	0.41445196
67	0xbee7800b	-0.45214877
68	0x3f3bc9dd	0.73354894
69	0x3c971682	0.01844335
70	0x3f104b9f	0.5636539
71	0xbf1260b2	-0.57178795
72	0x3dbd92c4	0.09256509
73	0xbcf42499	-0.029802607
74	0xbf28bf02	-0.65916455
75	0xbedca5bf	-0.43095204
76	0x3ded9034	0.1159977
77	0xbf33fefa	-0.7031094
78	0x3f14f0b0	0.5817976
79	0x3e444de8	0.19170344
80	0xbd0eac40	-0.03483224
81	0x3ed5b706	0.41741198
82	0x3dad165d	0.08451531
83	0xbf1812c8	-0.5940366
84	0xbf71ecd2	-0.94501984
85	0x3ee3722c	0.44423044
86	0x3e86a7ac	0.26299798
87	0xbf6169fc	-0.88052344
88	0x3f67dd56	0.90572107
89	0xbd471a26	-0.04860892
90	0xbed337f0	-0.41253614
91	0x3eb77513	0.35831508
92	0xbed139c9	-0.408644
93	0x3e93c650	0.28862238
94	0xbecd5ab0	-0.40108252
95	0xbf2b1b1a	-0.6683823
96	0xbf5f6e88	-0.8727803
97	0xbf2063f6	-0.6265253
98	0x3f4ffd89	0.8124624
99	0x3dd742e8	0.10510808
100	0xbf25668c	-0.646096
101	0x3f287c9d	0.65815145
102	0x3db0df73	0.086363696
103	0x3efb50c5	0.4908506
104	0xbd5739d3	-0.05254538
105	0xbf614732	-0.8799926
106	0xbf8a47f3	-1.0803207
107	0x3eb8078c	0.35943258
108	0xbcb5067b	-0.022097817
109	0x3e985b13	0.29756984
110	0xbf54073a	-0.82823527
111	0xbeedf924	-0.46479142
112	0x3f1a30f6	0.6023096
113	0x3dcf508a	0.101227835
114	0xbf1f8bea	-0.62322867
115	0xbdc0a4e9	-0.09406454
116	0x3f1eabb3	0.6198074
117	0x3e82cf1b	0.25548634
118	0xbefbebf4	-0.49203455
119	0x3efc411a	0.4926842
120	0x3e9286b5	0.28618398
121	0xbe9d1cd8	-0.3068607
122	0xbf84a13f	-1.0361708
123	0x3eb8874b	0.3604072
124	0xbef067b0	-0.46954107
125	0xbd562b19	-0.052287195
126	0xbf8abd74	-1.0839067
127	0x3f798213	0.974641
128	0xbbce3c39	-0.0062938
129	0xbe5b7160	-0.21429968
130	0xbf293918	-0.66102743
131	0xbcd684ac	-0.02618631
132	0xbecfbf10	-0.40575457
133	0x3f13d843	0.57751864
134	0xbe274658	-0.16335428
135	0x3edf32f9	0.43593577
136	0xbcb9567e	-0.02262425
137	0xbf687107	-0.90797466
138	0xbec6d094	-0.38831007
139	0x3ea5ca87	0.3238108
140	0x3ca4dfeb	0.020126304
141	0x3eb2892f	0.34870288
142	0x3ee914d6	0.4552371
143	0x3e5ad61b	0.21370737
144	0xbf797cf0	-0.97456264
145	0x3dbab9d9	0.09117479
146	0xbf39f832	-0.7264434
147	0xbf5fc040	-0.87402725
148	0xbf3528cc	-0.70765376
149	0xbdace080	-0.084412575
150	0xbd1d5727	-0.038413193
151	0x3f098767	0.5372223
152	0xbed63794	-0.41839278
153	0xbf2b50f6	-0.6692041
154	0x3f292b63	0.6608183
155	0x3ee953d7	0.45571777
156	0x3f63c499	0.8897186
157	0x3e0763d3	0.13221674
158	0xbf379652	-0.71713746
159	0xbf554de4	-0.83321977
160	0xbf8d47de	-1.1037557
161	0x3f242852	0.64124024
162	0xc00db7c5	-2.2143414
163	0xbe073764	-0.13204724
164	0x3e34cd19	0.17656364
165	0xbe68c590	-0.22731614
166	0xbf6fb384	-0.93633294
167	0x3ecd79f7	0.40132114
168	0xbe2c2c3d	-0.1681375
169	0xbf61796b	-0.88075894
170	0xbe864c77	-0.26230213
171	0xbec94fdc	-0.3931874
172	0xbf727584	-0.94710565
173	0x3f67e290	0.9058008
174	0xbec06654	-0.3757807
175	0x3e717a5a	0.2358183
176	0xbd1d155b	-0.038350444
177	0xbf067d82	-0.5253526
178	0x3c97f33a	0.018548597
179	0xbd6312c9	-0.055437837
180	0xbf23ca45	-0.63980514
181	0x3e5e3a77	0.2170199
182	0x3e2ea3b5	0.17054637
183	0xbf0b8765	-0.5450347
184	0x3ecec722	0.403863
185	0x3ed175b2	0.40910107
186	0xbe9ac4c7	-0.30228254
187	0xbf33a038	-0.7016635
188	0xbd8b16c0	-0.067914486
189	0x3dc91ad6	0.09819572
190	0x3ef55c6b	0.47922072
191	0xbf297c72	-0.66205513
192	0xbe1608cf	-0.14651798
193	0x3f17415b	0.590841
194	0x3cf801e0	0.030274332
195	0xbe7a3200	-0.24433136
196	0x3ef25de0	0.47337246
197	0xbe631f1f	-0.2217984
198	0xbf510a46	-0.816563
199	0x3e4a8217	0.19776188
200	0xbf6d591e	-0.9271411
201	0xbe814db0	-0.25254583
202	0xbb0ec000	-0.0021781921
203	0xbf0e477a	-0.55577815
204	0x3f05c2b9	0.5225025
205	0xbecee3d4	-0.40408194
206	0xbd49afd9	-0.049239967
207	0xbe547b18	-0.20750082
208	0xbfd5eaf1	-1.6712323
209	0x3f3a0431	0.72662646
210	0x3f5a6fca	0.85326827
211	0xbd872fea	-0.06600936
212	0xbf576b30	-0.8414793
213	0x3e473daf	0.19457124
214	0x3e9f610e	0.31128734
215	0x3e3655c6	0.17806157
216	0xbce69840	-0.02814877
217	0x3f25c0b4	0.64747167
218	0xbd7576fc	-0.059927925
219	0xbdc0a590	-0.094065785
220	0xbc535c51	-0.012900428
221	0xbd4fad1b	-0.050702196
222	0x3edfabdc	0.43685806
223	0x3d93e43a	0.07221265
224	0xc07229de	-3.7838054
225	0xbec83e2a	-0.39109927
226	0xbf613ce0	-0.8798351
227	0x3daed52a	0.085367516
228	0x3ea028f6	0.3128125
229	0xbdb9a5c7	-0.09064823
230	0x3f61a313	0.88139457
231	0x3ebf4d7c	0.37363803
232	0x3f74f204	0.95681787
233	0xbe1e5160	-0.1546073
234	0xbcf4fa19	-0.029904412
235	0x3f469444	0.77569985
236	0xbda40b76	-0.080099985
237	0xbf507c2e	-0.81439483
238	0xbebf80e7	-0.37403032
239	0xbf216d50	-0.6305742
240	0x3f08ff53	0.53514594
241	0x3da69fd3	0.08135953
242	0xbb2fcb2e	-0.0026823985
243	0xbf83be5a	-1.0292466
244	0xbf1b339a	-0.6062561
245	0x3eca36c0	0.39494896
246	0x3b7937a1	0.0038027542
247	0x3e2a9229	0.16657318
248	0x3cd7d701	0.026347639
249	0x3d30edc0	0.043195486
250	0x3d98b703	0.07456782
251	0xbf4f8cad	-0.8107403
252	0xbf6fa39e	-0.93609035
253	0x3e36a1b4	0.17835122
254	0x3eb12279	0.34596613
255	0xbd9c0fe9	-0.07620222
