checkpoints/20500800.ckpt (torch, 122663 bytes, 33 tensors)

weight f4 [256, 18]
0	0x3e45ca49	0.19315447
1	0xbd85f08a	-0.0654002
2	0x3e5684f6	0.20949158
3	0x3a70c8a7	0.0009185173
4	0x3e56d793	0.20980673
5	0xbe368939	-0.17825784
6	0x3e084aec	0.1330983
7	0x3e1c3282	0.15253642
8	0xbda83d5f	-0.082148306
9	0xbe9d2b60	-0.30697155
10	0xbc6e109b	-0.014530326
11	0x3d8a2eea	0.067472294
12	0xbd940450	-0.07227385
13	0xbe1a3aeb	-0.15061538
14	0xbe0d9aef	-0.13828634
15	0x3e390634	0.18068773
16	0xbe5235a4	-0.20528275
17	0xbe01a744	-0.12661463
18	0x3e65e7ef	0.22451757
19	0x3d02a07f	0.031891342
20	0x3e3babac	0.18327206
21	0xbe3a3f8d	-0.18188305
22	0xbd92e2c1	-0.07172156
23	0xbe50804c	-0.20361441
24	0x3d27097c	0.04078053
25	0x3e5c0234	0.21485215
26	0xbe1aba23	-0.15110068
27	0xbef3118b	-0.47474322
28	0x3e195770	0.14974761
29	0x3de39262	0.11111905
30	0xbc29bce4	-0.010359976
31	0x3e1ff327	0.15620099
32	0x3cc3dd05	0.023909101
33	0x3e597a5b	0.21238081
34	0xbd5617bd	-0.052268732
35	0xbdef58d7	-0.11686867
36	0x3e1cea31	0.15323712
37	0xbe2a003c	-0.16601652
38	0x3e79afc6	0.24383458
39	0xbd301d90	-0.042996943
40	0xbcdd2bf1	-0.026998492
41	0x3d96fc8f	0.073723905
42	0x3e717e43	0.23583321
43	0x3e2e73cc	0.1703636
44	0x3cd3dd74	0.025862433
45	0x3f161566	0.586264
46	0xbcb7cd1d	-0.022436673
47	0x3d2d3d53	0.04229481
48	0x3b4b2c22	0.0031001647
49	0xbe2b3b42	-0.16721824
50	0x3e68e56f	0.22743772
51	0x3e44dcca	0.1922485
52	0x3cd278fd	0.025692457
53	0xbe24bd31	-0.16087796
54	0xbe3c39a1	-0.18381359
55	0xbd49bdb6	-0.049253188
56	0x3de6b741	0.11265422
57	0x3bc9250c	0.0061384495
58	0x3e4ec08c	0.20190638
59	0x3e769ac2	0.24082473
60	0xbe1802d2	-0.14844826
61	0x3d2b6f33	0.041854095
62	0xbdf187f7	-0.11793511
63	0xbe9ae596	-0.30253285
64	0x3cb825c0	0.022478938
65	0x3badac44	0.0053000767
66	0xbe33b6c5	-0.1755019
67	0xbc447fca	-0.011993358
68	0xbe4c945a	-0.19978467
69	0x3d503a37	0.050836768
70	0xbe86f024	-0.26355088
71	0x3d1e91cc	0.03871326
72	0x3c962d98	0.018332288
73	0xbd02c40c	-0.031925246
74	0x3be71380	0.007051885
75	0x3ddcabc9	0.10774953
76	0x3dddefe0	0.10836768
77	0xbd3d9836	-0.046287738
78	0xbdcdb3fd	-0.10044096
79	0xbd9fa8bd	-0.07795856
80	0xbe31aabf	-0.1735029
81	0x3eeaa064	0.45825493
82	0xbdd665dd	-0.10468648
83	0x3e04fb8f	0.12986587
84	0xbe0c6a72	-0.1371248
85	0xbdbf0d0b	-0.093286596
86	0x3dba3fad	0.090941764
87	0x3e574889	0.21023764
88	0x3cd2ef85	0.025748977
89	0x3d6ec00b	0.058288615
90	0x3e083cef	0.13304494
91	0xbcdb5ac6	-0.026776683
92	0x3e104df0	0.14092231
93	0x3e3e5f5f	0.18591069
94	0x3e642dc7	0.22283088
95	0x3e0362ba	0.1283063
96	0x3d4dc33e	0.050235026
97	0x3d164b7a	0.036693074
98	0xbe3b1b8f	-0.18272232
99	0x3eae4538	0.34037185
100	0xbe3e932e	-0.18610832
101	0x3dce3280	0.10068226
102	0xbd3ddbab	-0.04635207
103	0xbc191aeb	-0.009344797
104	0xbe347dce	-0.17626116
105	0x3e259780	0.16171074
106	0x3e172878	0.14761531
107	0xbe88822a	-0.26661807
108	0x3e3b3fe7	0.18286096
109	0x3d10c0fd	0.035340298
110	0x3e338473	0.17530994
111	0xbcf3d6cd	-0.029765511
112	0xbd6fa5c3	-0.058507692
113	0x3d97f860	0.07420421
114	0xbe5004c8	-0.20314324
115	0xbdf1f0ee	-0.11813532
116	0xbe10ca66	-0.14139709
117	0x3f091bd1	0.5355807
118	0x3db52597	0.0884506
119	0x3d932c2b	0.07186159
120	0xbe57d325	-0.21076639
121	0x3e1dece9	0.15422405
122	0xbd25b2f3	-0.040453862
123	0x3d7bdf3f	0.0614922
124	0x3dbe9b38	0.093069494
125	0xbe4a297e	-0.1974239
126	0x3e01b251	0.12665679
127	0xbd82a5e6	-0.06379299
128	0x3d4c7323	0.04991449
129	0x3bff5ff7	0.0077934223
130	0xbe4a3f71	-0.19750763
131	0xbc8bd52e	-0.017069425
132	0xbe206236	-0.15662464
133	0x3d95cabf	0.073140614
134	0xbb9bf36a	-0.004759242
135	0x3efa697f	0.48908612
136	0xbe332828	-0.17495787
137	0xbe57a636	-0.21059498
138	0xbc957930	-0.018246263
139	0xbe69f2cb	-0.22846524
140	0x3dbd751c	0.092508525
141	0x3e17b24b	0.14814107
142	0x3dd3ee98	0.103482425
143	0x3c17873e	0.009248553
144	0xbd6fa478	-0.05850646
145	0xbe529c84	-0.20567518
146	0x3d4c0a65	0.0498146
147	0x3e429211	0.19001032
148	0x3c43ec1f	0.011958151
149	0x3d0f9149	0.035050664
150	0xbcec923f	-0.02887833
151	0xbdca4db6	-0.098781034
152	0x3dd37867	0.10325699
153	0xbe4cb754	-0.19991809
154	0xbe74d5d0	-0.23909688
155	0xbe2f862a	-0.17141023
156	0x3e2cf066	0.1688858
157	0xbd9acaa6	-0.07558183
158	0x3cab10fc	0.020882122
159	0xbd6550be	-0.055985205
160	0xbe4491d6	-0.19196257
161	0x3dd97931	0.106188186
162	0x3e1f8877	0.15579401
163	0x3d1a0a5a	0.03760753
164	0x3c8d46c3	0.017245656
165	0x3e3efc30	0.1865089
166	0x3dcba17a	0.099429086
167	0x3e2f4d51	0.17119338
168	0xbe4cb9b0	-0.19992709
169	0xbe8c7f57	-0.27440903
170	0x3cc3ab6b	0.02388545
171	0x3e3abc58	0.1823591
172	0x3dba30b9	0.09091324
173	0xbdddeebb	-0.1083655
174	0x3db13f8b	0.08654698
175	0x3e1a71f9	0.1508254
176	0x3de514cf	0.111856095
177	0x3cf37929	0.02972086
178	0xbda15296	-0.0787708
179	0xbe3a2328	-0.18177474
180	0xbda12f52	-0.07870354
181	0xbc3aa371	-0.0113915065
182	0x3e586484	0.21132094
183	0xbd10dafa	-0.035365082
184	0x3d0dcf6d	0.034621645
185	0x3e0cf374	0.13764745
186	0x3e55e765	0.20889051
187	0xbc428ce9	-0.011874416
188	0xbdf0d63a	-0.117596105
189	0xbe281613	-0.1641467
190	0xbe0a9feb	-0.13537566
191	0x3d9964a8	0.07489902
192	0x3e571404	0.21003729
193	0x3e4d69a2	0.20059827
194	0xbe288471	-0.16456772
195	0x3d6312fe	0.055438034
196	0xbdb3c005	-0.08776859
197	0x3dbef85e	0.09324716
198	0x3bafab80	0.0053610206
199	0x3dcefb37	0.10106509
200	0xbcff66a8	-0.03117688
201	0xbe3fa3cf	-0.18714832
202	0x3c1f01ed	0.009705049
203	0x3db388b0	0.087663054
204	0x3bf68803	0.007523538
205	0xbe7a00b1	-0.24414326
206	0xbdca9f27	-0.09893637
207	0x3e7395ab	0.23787563
208	0xbe33cc43	-0.17558388
209	0x3e2660b6	0.1624783
210	0x3db5e611	0.08881772
211	0xbe79b3b4	-0.24384958
212	0x3e788622	0.24269918
213	0x3b8e7335	0.00434723
214	0xbe041313	-0.12897901
215	0x3e01e3e3	0.12684588
216	0x3e21a4e3	0.15785556
217	0xbcb35bf5	-0.021894434
218	0xbe155b30	-0.14585567
219	0xbcb48a37	-0.022038562
220	0x3e205a78	0.15659511
221	0x3e37ac6d	0.17936869
222	0x3c3ff643	0.011716428
223	0xbd4b2c4c	-0.04960279
224	0x3c4ff23b	0.01269203
225	0x3e22670b	0.1585962
226	0xbe829355	-0.2550303
227	0x3c33f1f6	0.010982981
228	0xbc769d73	-0.015052187
229	0x3df811d5	0.12112776
230	0x3e817882	0.25287253
231	0x3e0b9855	0.13632329
232	0x3e50a429	0.20375122
233	0x3d0c40da	0.034241535
234	0xbd923fe0	-0.071410894
235	0x3d46610a	0.048432387
236	0xbe400feb	-0.18756072
237	0xbba9647e	-0.0051694503
238	0x3e18dd57	0.14928184
239	0x3a303a49	0.00067225524
240	0xbd742684	-0.059607044
241	0xbe3f06e8	-0.18654978
242	0x3d205d75	0.039151628
243	0x3ee1734e	0.44033283
244	0x3e2abb1d	0.1667294
245	0xbd3eec59	-0.046612117
246	0xbe3e10d8	-0.18561113
247	0x3d6640d8	0.056214184
248	0xbdf42aee	-0.11922251
249	0x3e360984	0.17777067
250	0x3e20993a	0.15683451
251	0xbe2d0067	-0.16894685
252	0x3dfad8da	0.122483924
253	0xbe1010b6	-0.14068875
254	0x3e0177fc	0.12643427
255	0xbe0696d5	-0.13143475

bias f4 [256]
0	0xbe71ec61	-0.23625328
1	0x3d918712	0.07105841
2	0x3e55a2c6	0.20862874
3	0xbd3a3dbb	-0.045469027
4	0x3d200be5	0.039073844
5	0xbe512cde	-0.20427272
6	0xbc71bde9	-0.014754751
7	0x3d86cb26	0.06581716
8	0xbe5c0799	-0.21487273
9	0xbe461ed5	-0.19347699
10	0x3da057dc	0.07829258
11	0xbe80bceb	-0.25144133
12	0x3e440440	0.19142246
13	0x3dbcb487	0.0921412
14	0xbe90f7d3	-0.28314075
15	0x3d182f66	0.037154578
16	0xbe3cfad2	-0.18455055
17	0xbe197b69	-0.14988483
18	0xbd3adcb1	-0.045620624
19	0x3c24b6d3	0.010053354
20	0x3d2d06df	0.04224288
21	0xbe136e0f	-0.14397453
22	0x3d47b8b3	0.048760127
23	0xbdff9951	-0.12480415
24	0xbdeababe	-0.114613995
25	0xbe03e32f	-0.12879632
26	0xbe3da628	-0.18520415
27	0x3e11a705	0.14223869
28	0xbe39c1fa	-0.18140402
29	0x3d877169	0.06613428
30	0x3d99d5b8	0.07511467
31	0xbe69b803	-0.22824101
32	0xbdb99a01	-0.09062577
33	0x3e1327f2	0.14370707
34	0x3d780b7f	0.06055784
35	0x3d8eee4c	0.06979045
36	0x3c1977d2	0.009366946
37	0x3d3af173	0.04564042
38	0x3cf940e0	0.030426443
39	0x3ac47b52	0.0014990366
40	0x3dbd3f47	0.09240585
41	0x3ded80b3	0.11596813
42	0x3e2f1be3	0.17100482
43	0xbe252ee3	-0.16131167
44	0x3db42640	0.08796358
45	0x3dc17e18	0.094478786
46	0xbe244bef	-0.16044591
47	0x3e446069	0.19177403
48	0x3e287596	0.16451105
49	0x3e52098a	0.20511451
50	0xbddf0ce8	-0.108911335
51	0x3d30569d	0.04305135
52	0xbe2a80b9	-0.16650666
53	0x3e0583f3	0.13038616
54	0xbd9ca71b	-0.0764906
55	0xbd736595	-0.059423048
56	0xbd9c63c9	-0.0763622
57	0xbcf1bf96	-0.0295103
58	0xbd4129c2	-0.047158964
59	0xbe262c15	-0.16227753
60	0x3d6343da	0.05548463
61	0x3c297ced	0.010344726
62	0x3e835b0c	0.256554
63	0xbd167523	-0.036732804
64	0xbe45aec3	-0.19304948
65	0x3dcd64ad	0.10028968
66	0x3e1952ab	0.14972942
67	0xbde2c7aa	-0.11073239
68	0xbd484151	-0.048890416
69	0xbdd75c82	-0.10515691
70	0x3dd1946c	0.10233387
71	0x3d623657	0.055227604
72	0xbde79fdb	-0.11309787
73	0x3e0320ac	0.12805432
74	0xbe2fe265	-0.17176206
75	0x3df4052c	0.11915049
76	0xbe3a9c19	-0.18223609
77	0xbdd59ede	-0.10430692
78	0x3df96111	0.12176717
79	0xbe40f842	-0.18844703
80	0x3e46814a	0.19385257
81	0xbe635ee6	-0.2220417
82	0xbe822806	-0.2542116
83	0xbe29d61c	-0.16585582
84	0xbd0be078	-0.034149617
85	0xbdc3dee5	-0.09563998
86	0xbe279d35	-0.16368563
87	0xbe11d7d3	-0.14242487
88	0xbe2aba64	-0.16672665
89	0x3cd807b6	0.026370864
90	0xbe5154a4	-0.20442444
91	0xbda5d8e4	-0.08098009
92	0xbe52c36a	-0.20582357
93	0xbdc7a738	-0.09748691
94	0xbd1499df	-0.036279555
95	0x3e531a6f	0.20615552
96	0x3dbdef8f	0.09274208
97	0x3e079bac	0.13242978
98	0xbdd11134	-0.10208359
99	0xbe4ce4b3	-0.20009117
100	0xbe8674ee	-0.26261085
101	0xbe76a584	-0.24086577
102	0xbe7a7295	-0.24457772
103	0x3e02d180	0.1277523
104	0xbd73cee3	-0.059523474
105	0x3dfb9a51	0.12285293
106	0xbe1a26a1	-0.15053798
107	0xbd8adf72	-0.067809
108	0xbb951841	-0.0045500104
109	0x3ccf8854	0.025333561
110	0xbdc12602	-0.094310775
111	0xbe06ec22	-0.13176015
112	0x3e233c93	0.15941076
113	0xbcc2f14b	-0.023796698
114	0x3e409167	0.18805467
115	0x3e550363	0.20802073
116	0x3d691109	0.05690101
117	0x3d97c5b0	0.07410753
118	0xbe3586db	-0.17727225
119	0xbdab7c28	-0.0837329
120	0xbd495102	-0.04914952
121	0x3df2e50d	0.11860094
122	0xbddfb568	-0.10923272
123	0x3ca0e1a5	0.019638846
124	0x3d4dd80e	0.050254874
125	0x3da689f7	0.081317835
126	0xbd32b0f3	-0.043625783
127	0x3e768272	0.24073198
128	0xbd2c50e4	-0.04206933
129	0xbdf09708	-0.11747557
130	0xbbfc2bbb	-0.0076956428
131	0xbdabb3ac	-0.08383879
132	0xbdc12331	-0.0943054
133	0x3e769dd8	0.2408365
134	0x3e6bb3ca	0.23017803
135	0xbd6481f6	-0.055788003
136	0xbb8d88a0	-0.0043192655
137	0xbe4b90ca	-0.19879451
138	0x3cb685ff	0.022280691
139	0xbde48db8	-0.11159843
140	0x3cc6f43c	0.024286382
141	0xbda2bb80	-0.07945919
142	0x3e07feb7	0.1328076
143	0xbe440c8a	-0.19145408
144	0xbc8aa030	-0.016922086
145	0x3dd630f5	0.104585566
146	0xbda8dd87	-0.08245378
147	0xbe374a27	-0.1789938
148	0x3dd37fde	0.10327123
149	0x3e1be669	0.15224613
150	0x3e405866	0.18783721
151	0x3e1c9141	0.15289785
152	0xbd6d1e41	-0.05789018
153	0xbcf91e36	-0.030409914
154	0x3d6e794c	0.058221146
155	0xbe40ee2f	-0.1884086
156	0x3d01f665	0.03172912
157	0xbe4658cb	-0.1936981
158	0xbdad8945	-0.08473448
159	0x3e2e21e6	0.17005119
160	0x3e014da0	0.12627268
161	0xbc52d898	-0.012869023
162	0xbd924b8d	-0.071433164
163	0xbde93a1a	-0.11388035
164	0x3de44969	0.111468144
165	0xbdf588c3	-0.11988976
166	0x3d8ef71c	0.06980726
167	0x3ce026f4	0.027362324
168	0xbd09ec0f	-0.03367239
169	0xbcdf2480	-0.027239084
170	0xbcf842f2	-0.03030536
171	0x3e46ae50	0.19402432
172	0x3d40ac3e	0.047039263
173	0x3de8998e	0.11357413
174	0xbe59fe44	-0.21288401
175	0x3e36a93b	0.17837994
176	0xbe4a6433	-0.19764785
177	0x3e3968d0	0.18106389
178	0x3e658ebf	0.22417735
179	0xbe02e959	-0.12784328
180	0xbc6dee54	-0.014522154
181	0x3ca7e4fc	0.02049493
182	0x3e062fc2	0.13104156
183	0xbe952549	-0.2913001
184	0xbd6ba4c8	-0.057530195
185	0xbca6b10f	-0.0203481
186	0xbe0bb862	-0.13644555
187	0x3d02d8ed	0.031945158
188	0xbd6636c8	-0.056204587
189	0x3e1caaa4	0.15299469
190	0xbdf27a38	-0.118397176
191	0xbd9c07c5	-0.076186694
192	0xbd01c247	-0.031679418
193	0xbdae54e1	-0.08512283
194	0xbe0c7fc2	-0.1372061
195	0x3e0954cd	0.13411255
196	0x3e6f3370	0.23359466
197	0xbe72913f	-0.2368822
198	0xbc5a6cc8	-0.0133315995
199	0xbe1a7e97	-0.15087353
200	0x3e094a65	0.13407286
201	0x3e0ecdb9	0.13945664
202	0x3dd1ced3	0.10244527
203	0x3e07a8c7	0.13247977
204	0xbc5a90f2	-0.013340222
205	0xbd1d43dd	-0.038394798
206	0x3d00d878	0.03145644
207	0xbe194694	-0.1496833
208	0xbcff351d	-0.031153256
209	0xbd7e4341	-0.062075857
210	0xbe584ef4	-0.21123868
211	0x3dbe2085	0.09283546
212	0xbcc406be	-0.023928996
213	0xbe2621ca	-0.16223827
214	0xbe0c4fcd	-0.13702317
215	0xbd6df54d	-0.058095265
216	0xbd07c5d0	-0.033147633
217	0x3e67321e	0.22577712
218	0xbd93212d	-0.07184062
219	0x3ba6b962	0.0050880173
220	0x3d8e2855	0.069412865
221	0xbd8f9fca	-0.07012899
222	0xbe412b2a	-0.18864122
223	0x3df6ceaf	0.120511405
224	0x3d53948b	0.051655333
225	0xbc40aba9	-0.011759677
226	0x3e2bc77e	0.16775319
227	0x3e2827eb	0.16421477
228	0xbe0bd7e7	-0.13656579
229	0xbd043374	-0.032275632
230	0x3e4526e3	0.19253115
231	0x3e18bf2d	0.14916678
232	0x3e414b29	0.18876328
233	0x3d114a96	0.03547152
234	0x3e25249a	0.16127244
235	0x3d08d5fe	0.033407204
236	0xbc1aa25d	-0.0094381245
237	0x3da3297a	0.079668954
238	0x3e42e6ab	0.19033305
239	0xbdaf323e	-0.08554505
240	0x3d298604	0.041387573
241	0xbb5037b4	-0.0031771483
242	0x3e7a2664	0.24428707
243	0x3e080869	0.13284458
244	0xb9a73c91	-0.00031897848
245	0xbdfd3bfd	-0.123649575
246	0x3e185794	0.14877158
247	0xbdcd339e	-0.10019611
248	0xbd85b803	-0.06529238
249	0xbe0095be	-0.12557122
250	0xbe1b5ebf	-0.15172862
251	0xbded6ebe	-0.11593388
252	0x3c4c077d	0.012452957
253	0x3db11f94	0.08648601
254	0xbe481822	-0.19540456
255	0x3e2abb3b	0.16672985

weight f4 [1, 256]
0	0xbcbc23dd	-0.02296632
1	0xbd9aa730	-0.0755142
2	0x3e0c1982	0.13681605
3	0xbda9b13b	-0.08285757
4	0x3d1851a0	0.03718722
5	0x3dbae090	0.09124863
6	0x3d93c0e1	0.07214523
7	0x3d0b2f0d	0.033980418
8	0xbd374d3b	-0.044751387
9	0x3c806ca9	0.015676813
10	0xbd6912f6	-0.05690285
11	0x3c8518a5	0.016247103
12	0x3d34f372	0.04417748
13	0x3cf8b2b4	0.03035865
14	0x3d8a6d88	0.06759173
15	0x3c21754f	0.009854629
16	0xbc9c9416	-0.019113582
17	0xbbd3ce2c	-0.0064637866
18	0x3ccfa821	0.025348725
19	0x3b1cec5c	0.0023944592
20	0xbcee3943	-0.029080039
21	0xbd92ced8	-0.071683586
22	0xbd9b39be	-0.07579373
23	0xbd39ac59	-0.04533038
24	0x3d934d46	0.07192473
25	0xbd4572fc	-0.04820536
26	0x3d881b25	0.066458024
27	0x3dee924d	0.116489984
28	0x3cb7071d	0.022342259
29	0xbca43588	-0.020045057
30	0x3d3714ef	0.0446977
31	0xbcefbd6d	-0.02926513
32	0x3cad1cc2	0.021131877
33	0xbda9bd98	-0.08288115
34	0x3de0ada3	0.109706186
35	0xbde92da3	-0.11385658
36	0xbd1d37fa	-0.03838346
37	0x3c9259b1	0.017865034
38	0x3db14303	0.086553596
39	0xbde31a7d	-0.110890366
40	0xbd402a48	-0.046915323
41	0x3d881635	0.06644861
42	0x3de2254b	0.11042269
43	0x3cc684de	0.024233278
44	0xbd6ad6de	-0.05733382
45	0x3d8d7405	0.069068946
46	0x3d3caf0b	0.04606537
47	0x3c1df283	0.009640339
48	0xbe22a98f	-0.15884994
49	0x3d6ffecc	0.058592603
50	0x3cb055bf	0.021525262
51	0xbcbd1a73	-0.023083901
52	0x3d2e093c	0.042489275
53	0x3d977e4d	0.07397137
54	0x3b9635a9	0.0045840335
55	0xbc6da960	-0.014505714
56	0xbd2c54d4	-0.042073086
57	0xbda18f10	-0.07888615
58	0x3e0fd60b	0.14046495
59	0x3c87c617	0.016573949
60	0xbd1a6b3c	-0.037699923
61	0xbd436451	-0.04770309
62	0xbd8a2d6f	-0.06746947
63	0x3d93e0cd	0.07220612
64	0x3d7a7119	0.061143015
65	0xbd8d16dc	-0.06889126
66	0x3cb2d688	0.021830812
67	0xbd94a4f7	-0.07258027
68	0x3cb68778	0.022281393
69	0x3d281e7f	0.04104471
70	0x3dba3323	0.09091785
71	0xbc917e7e	-0.017760511
72	0x3dc50027	0.0961917
73	0xbca2da21	-0.019879403
74	0x3dbb254c	0.09137973
75	0x3bf2b587	0.0074068937
76	0xbd5b78b9	-0.053581927
77	0xbd93e2b9	-0.07220978
78	0x3b983503	0.0046449914
79	0x3d1ad14b	0.037797254
80	0xbdba12a4	-0.09085587
81	0xbd8f9ec9	-0.07012708
82	0xbbdf98f7	-0.0068236548
83	0x3c790470	0.015198812
84	0x3d2d5e45	0.04232623
85	0xbd3cd248	-0.046098977
86	0x3d1c3a45	0.038141508
87	0x3ddc892d	0.10768352
88	0x3de77b6c	0.11302838
89	0x3cfbe79e	0.030750092
90	0xbd3a59ae	-0.04549568
91	0x3d1f5385	0.03889801
92	0x3cc353a6	0.023843598
93	0x3d9012d3	0.070348404
94	0x3dd50204	0.10400775
95	0xbd7d169e	-0.061789148
96	0x3a6c6c5f	0.0009018834
97	0xbd64130f	-0.05568224
98	0x3d680aff	0.05665111
99	0x3db3e63c	0.08784148
100	0xbc6460cc	-0.013939094
101	0x3ce9da0d	0.028546358
102	0x3d202a7b	0.039103013
103	0xbdb3efea	-0.08785994
104	0xba5efa01	-0.00085058814
105	0x3dd1e295	0.10248295
106	0xbdb459bc	-0.08806178
107	0xbd168909	-0.03675178
108	0xbdd6e449	-0.10492761
109	0x3c94308a	0.018089551
110	0x3d3c5a56	0.04598459
111	0xbd1a5e75	-0.037687737
112	0x3d0c45dc	0.03424631
113	0x3df044ea	0.11731894
114	0xbdd85e6d	-0.10564885
115	0xbdafee9b	-0.08590432
116	0xbcd02425	-0.02540786
117	0x3daef76d	0.085432865
118	0xbd8003c1	-0.06250716
119	0xbd1fe51f	-0.039036866
120	0x3da24ec1	0.07925177
121	0x3c95a920	0.018269122
122	0x3d96009d	0.07324336
123	0x3d83dc69	0.06438524
124	0xbd02feaa	-0.031981148
125	0x3d9a97e1	0.075485
126	0xbbf080d6	-0.007339577
127	0xbdff3c35	-0.124626555
128	0xbd804eff	-0.06265067
129	0x3d016285	0.031588096
130	0xbda8b567	-0.08237725
131	0xbd313d3f	-0.0432713
132	0x3d90583c	0.07048079
133	0x3db1d7e4	0.08683756
134	0x3d9a281c	0.075271815
135	0x3d7ab26e	0.06120532
136	0xbdba65cd	-0.09101448
137	0xbd2b9e86	-0.041899227
138	0xbd64bbae	-0.055843048
139	0xbc13ed2a	-0.009028712
140	0xbd578e5d	-0.052626003
141	0x3da2ed3f	0.07955407
142	0x3d9b885d	0.075943686
143	0x3d4c9e9f	0.04995596
144	0xbd8e22b5	-0.069402136
145	0x3b1e2e64	0.0024136538
146	0xbd6109db	-0.05494104
147	0x3da7ae60	0.08187556
148	0xbb306a44	-0.0026918808
149	0x3d91364b	0.07090434
150	0x3cef596f	0.02921745
151	0x3d854db5	0.06508962
152	0xbc32bd42	-0.01090938
153	0xbd3908fe	-0.04517459
154	0xbc9fd818	-0.019512221
155	0x3d341851	0.043968502
156	0x3caf2eed	0.02138468
157	0x3d618540	0.055058718
158	0xbd32ff2e	-0.04370039
159	0x3b14b6d1	0.0022691975
160	0x3dcdc2f7	0.10046952
161	0x3d0d6be7	0.03452673
162	0xbd8e41f8	-0.06946176
163	0x3cb6f0ed	0.02233168
164	0x3d8e64c3	0.069528125
165	0xbde54fd0	-0.11196864
166	0xbd98a74c	-0.07453784
167	0x3ded94c5	0.11600641
168	0xbd3a7673	-0.04552312
169	0xbd5f7d9e	-0.054563157
170	0x3d4690d9	0.04847798
171	0x3d8801c1	0.066409595
172	0x3dcee382	0.101019874
173	0xbd17d60a	-0.037069358
174	0x3cb74547	0.022371901
175	0x3d881d63	0.0664623
176	0xbd95a955	-0.07307688
177	0xbc2e9326	-0.0106552
178	0xbd1611be	-0.036638014
179	0xbdde69e2	-0.10860039
180	0x3cfb8e29	0.030707436
181	0x3e11b774	0.14230138
182	0x3cbee622	0.023303095
183	0x3c03cca3	0.008044395
184	0xbdfeb372	-0.1243657
185	0x3d0f3d2e	0.034970455
186	0x3d0303cc	0.031986043
187	0xbdfc55dd	-0.123210646
188	0xbdb329d1	-0.0874821
189	0x3dac1c30	0.08403814
190	0xbddd4934	-0.10804978
191	0xbd6b29a6	-0.057412766
192	0xbce60817	-0.02808003
193	0xbd6b0487	-0.057377364
194	0x3e101331	0.14069821
195	0xbd3f1823	-0.046653878
196	0xbcf420d7	-0.029800816
197	0x3cda1e21	0.026625695
198	0x3d9869c3	0.074420474
199	0x3d2ef926	0.042718075
200	0x3d6ab708	0.05730346
201	0xbdca018b	-0.098635755
202	0xbca1a118	-0.019730136
203	0x3d471a43	0.04860903
204	0xbd7cd24d	-0.061723996
205	0xbdc2b83a	-0.09507795
206	0xbc794c15	-0.015215893
207	0xbaa9c0da	-0.0012951151
208	0xbd4ca77a	-0.049964406
209	0xbd877e00	-0.066158295
210	0x3cd5fb85	0.02612091
211	0xbd2e2ac6	-0.04252126
212	0xbd3d14d4	-0.04616244
213	0x3dbc6ac8	0.092000544
214	0xbb081b2d	-0.002076815
215	0x3c7f8863	0.015596482
216	0x3ba701f2	0.0050966674
217	0x3d993e6e	0.07482611
218	0x3ca483e4	0.020082422
219	0xbb4720d3	-0.0030384555
220	0x3ce9a3ee	0.02852055
221	0x3cae565a	0.02128141
222	0x3d89ce39	0.06728787
223	0x3dcf40f4	0.10119811
224	0xbd9a4cd0	-0.07534182
225	0x3dc24af8	0.094869554
226	0x3df84cb4	0.12124005
227	0x3df0af84	0.11752227
228	0x3d079cd9	0.033108566
229	0x3bffc03b	0.007804898
230	0x3d404cfe	0.046948425
231	0x3d938fd4	0.072051674
232	0x3d9f8b1a	0.077902034
233	0x3e055f8d	0.13024731
234	0x3dd24624	0.102672845
235	0x3e0a553e	0.1350908
236	0x3d665267	0.05623093
237	0x3dfdfef6	0.124021456
238	0xbd988bc3	-0.074485324
239	0xbd06708c	-0.032822177
240	0x3daa6643	0.08320286
241	0x3d82cc53	0.06386628
242	0x3d3ac76a	0.045600332
243	0xbd13bd83	-0.036069404
244	0xbdbb72b7	-0.091527395
245	0x3d3f0acd	0.04664116
246	0x3db1d635	0.08683435
247	0xbc70b53e	-0.014691649
248	0x3cba2f44	0.022727616
249	0x3da90a31	0.08253897
250	0xbe300118	-0.17187917
251	0xb9f5c0e5	-0.0004687376
252	0xbd471d2f	-0.048611816
253	0x3ddf870c	0.1091443
254	0xbd6eae83	-0.058271896
255	0x3d30c573	0.043157052

weight f4 [256, 1]
0	0x3e161f96	0.14660487
1	0x3f548310	0.83012486
2	0x3e8ad19c	0.27113044
3	0x3ee47fdd	0.44628802
4	0x3ec7c0a7	0.3901417
5	0xbf1b2a06	-0.60611
6	0xbf24184e	-0.64099586
7	0x3ebf1648	0.37321687
8	0xbe9bc9ee	-0.30427498
9	0x3f34d1c7	0.70632595
10	0xbe4b4088	-0.19848835
11	0x3f80f483	1.0074619
12	0xbe8ba5cc	-0.2727493
13	0x3cf4eaf6	0.029897194
14	0x3f180996	0.59389627
15	0x3e28a29b	0.16468279
16	0xbf145c6b	-0.5795352
17	0xbf735dbe	-0.95064914
18	0x3f3e1d20	0.7426319
19	0xbdd5034c	-0.104010195
20	0x3ebc61ff	0.36793515
21	0xbd842170	-0.0645169
22	0xbe5f0208	-0.21778119
23	0x3f3b9f8e	0.73290336
24	0x3ee44a14	0.44587767
25	0xbeae06f8	-0.33989692
26	0xbf3715be	-0.7151755
27	0x3d2e9e14	0.042631224
28	0xbf5149be	-0.81753147
29	0x3f07bf40	0.530262
30	0x3f5b8af7	0.8575892
31	0xbe273a6e	-0.16330883
32	0x3e845cbd	0.25852004
33	0xbe0a4344	-0.13502222
34	0x3d258a4b	0.04041509
35	0x3f694b90	0.91130924
36	0xbec2ad08	-0.38022637
37	0x3f7bd79b	0.9837586
38	0x3f48476a	0.7823397
39	0x3f5adfbe	0.85497653
40	0xbd6c4700	-0.0576849
41	0x3f713290	0.9421778
42	0xbeab08a0	-0.33405018
43	0x3f80a6ee	1.0050943
44	0xbeaf7654	-0.34269965
45	0xbe8ed246	-0.278948
46	0xbea4d7e8	-0.32195973
47	0xbf0c1498	-0.54718924
48	0xbf1b9b91	-0.6078425
49	0x3ede003d	0.43359557
50	0x3ef427cb	0.4768661
51	0xbdb04eb0	-0.086087584
52	0x3f0bc2ef	0.5459432
53	0xbf7e8905	-0.99427825
54	0x3f044618	0.51669455
55	0x3df5a9a1	0.11995245
56	0xbf33f6e8	-0.70298624
57	0x3f4ee387	0.8081593
58	0xbe9f6488	-0.31131387
59	0xbf0b221e	-0.54348934
60	0xbeb1a47a	-0.34695798
61	0x3f18dca8	0.59711695
62	0x3ecd27f9	0.4006956
63	0x3f5d6528	0.8648248
64	0x3f61d8b9	0.8822132
65	0xbde27410	-0.110572934
66	0x3f47aa84	0.7799456
67	0xbd9fd218	-0.07803744
68	0xbf33b991	-0.70205027
69	0x3f85a846	1.0441978
70	0x3eebdb76	0.46065873
71	0x3f39d46a	0.72589743
72	0x3f6dad09	0.92842156
73	0xbebb4b64	-0.36580956
74	0xbed8188c	-0.42206228
75	0xbf45ee00	-0.77316284
76	0x3f4a6051	0.7905322
77	0x3f395e48	0.72409487
78	0x3eec7753	0.46184787
79	0x3dfb359c	0.122660846
80	0x3daf138d	0.08548651
81	0x3f866913	1.0500816
82	0xbf569417	-0.8381972
83	0xbd89d000	-0.06729126
84	0x3b97cb00	0.004632354
85	0x3edfaf3e	0.43688387
86	0x3e392446	0.18080243
87	0x3ec7e7ed	0.39044133
88	0x3f5ea106	0.8696445
89	0x3e8d26ca	0.27568656
90	0xbf33a550	-0.7017412
91	0x3dc14327	0.094366364
92	0x3f53faae	0.8280438
93	0x3f3225f1	0.69589144
94	0x3b2aeed6	0.0026082299
95	0xbf1bd03e	-0.6086463
96	0x3f7c0bfc	0.98455787
97	0xbd21517e	-0.039384358
98	0xbf2e4425	-0.6807273
99	0x3dd97a91	0.10619081
100	0x3e2aed0b	0.16691987
101	0x3f73d3cc	0.9524505
102	0xbf2f894c	-0.68568873
103	0x3dcd0490	0.10010636
104	0x3e9915cc	0.29899442
105	0xbf2e29b6	-0.68032396
106	0xbf1f4ee4	-0.6222975
107	0x3f526e7f	0.82199854
108	0x3e553fcb	0.20825116
109	0x3eb68243	0.35646257
110	0x3f7812a0	0.9690342
111	0x3ef4671f	0.47734925
112	0xbf3d1732	-0.7386352
113	0x3f4aa44c	0.7915695
114	0x3f3371f1	0.70095736
115	0xbe99875c	-0.29986084
116	0x3d195fc7	0.037444856
117	0x3ed914fb	0.4239882
118	0x3e99fb0e	0.30074352
119	0xbe9fbbc5	-0.31197944
120	0x3f4122e8	0.7544389
121	0x3f116554	0.5679524
122	0x3f846e26	1.0346115
123	0x3cb843e5	0.022493312
124	0x3cb1bd4e	0.021696713
125	0xbf6cbfe6	-0.92480314
126	0x3f219ebc	0.63132834
127	0xbef9b901	-0.4877396
128	0x3f4566f7	0.77110237
129	0xbe12ec10	-0.14347863
130	0xbf520798	-0.8204284
131	0xbe42a1b0	-0.19006991
132	0x3ee57ea5	0.44823185
133	0xbe9cd0c4	-0.30628026
134	0x3f73275b	0.94981927
135	0x3f55a0c3	0.8344843
136	0xbefd2300	-0.49440765
137	0x3f442774	0.766227
138	0x3ee3ec70	0.44516325
139	0xbe3a2cc7	-0.18181144
140	0x3f34b191	0.70583445
141	0x3f2bd219	0.6711746
142	0xbf0f1648	-0.55893373
143	0x3e114b86	0.14188966
144	0x3f01c957	0.50697845
145	0x3ec15aa2	0.3776446
146	0xbf263999	-0.6493164
147	0x3e6a8030	0.22900462
148	0xbd4e2540	-0.050328493
149	0xbe82577d	-0.25457373
150	0xbea71554	-0.3263346
151	0xbf4646af	-0.77451605
152	0xbf41f51b	-0.75764626
153	0x3df1e08c	0.11810407
154	0xbea169a4	-0.3152591
155	0x3e35b368	0.1774422
156	0x3d7d2737	0.061804976
157	0xbf3fc886	-0.7491535
158	0x3e83c8c3	0.25739107
159	0x3f470d6a	0.77754843
160	0xbe7bff10	-0.24609017
161	0x3e10461a	0.14089242
162	0xbe46ff18	-0.19433248
163	0xbf5b33ff	-0.85626215
164	0xbec8276c	-0.39092577
165	0x3f40fdc8	0.7538724
166	0xbef2f1e7	-0.47450182
167	0x3f84f3a2	1.0386851
168	0xbeac2e58	-0.33629107
169	0xbeaf4ccc	-0.3423828
170	0x3f2ecae7	0.68278354
171	0x3f5b4eaf	0.85666937
172	0xbf37e9c5	-0.7184108
173	0x3f86bfae	1.0527246
174	0x3f82b130	1.0210323
175	0xbf41bdef	-0.7568044
176	0x3f80ec9a	1.0072205
177	0x3f50b559	0.81526715
178	0x3f5761f4	0.8413384
179	0x3e0909b7	0.13382612
180	0x3f83ed2c	1.0306754
181	0xbf7421b0	-0.95363903
182	0xbe17e698	-0.14834058
183	0x3f1fa773	0.6236488
184	0xbef2be68	-0.47410893
185	0xbe7921d8	-0.24329317
186	0x3f4a79e7	0.7909226
187	0x3f3b7366	0.7322296
188	0xbea6aaa3	-0.3255206
189	0xbf6c8348	-0.9238782
190	0xbba6c700	-0.0050896406
191	0xbf142f05	-0.57884246
192	0xbf4fd06a	-0.8117739
193	0x3f7b6fb2	0.9821731
194	0x3e9aa7b0	0.3020606
195	0xbedffccc	-0.43747556
196	0xbec1e41c	-0.37869346
197	0x3ec0bc4f	0.37643668
198	0xbf354132	-0.70802605
199	0x3f2aaa53	0.66666144
200	0xbedd3554	-0.4320475
201	0xbe772c7b	-0.24138062
202	0xbf50f3a5	-0.8162177
203	0xbec87d47	-0.3915808
204	0x3dce5db4	0.10076466
205	0x3e66c4b6	0.22535977
206	0xbda16ec0	-0.07882452
207	0x3eddc5b0	0.43314886
208	0xbf4876c2	-0.7830621
209	0xbee4ea45	-0.44709983
210	0x3f347462	0.70490086
211	0x3f7d2577	0.9888529
212	0xbc49ba80	-0.0123125315
213	0x3c9242c0	0.017854095
214	0x3e21df70	0.15807891
215	0xbe9924e2	-0.29910952
216	0xbf7e6df8	-0.9938655
217	0x3e8876fd	0.2665328
218	0xbed68cc8	-0.41904283
219	0xbe93b6a4	-0.2885028
220	0xbe0328ed	-0.1280858
221	0x3e111bac	0.14170712
222	0xbf39bd8e	-0.7255486
223	0x3de9d6ba	0.11417909
224	0x3f18f61a	0.5975052
225	0xbf04a930	-0.5182066
226	0xbf50270e	-0.8130959
227	0x3f8713e9	1.0552951
228	0x3f5ee6ed	0.87071115
229	0xbf5fc8a4	-0.8741553
230	0xbd158be5	-0.036510367
231	0xbf429a34	-0.76016545
232	0x3ddebbde	0.108756766
233	0xbf51291f	-0.8170337
234	0x3f5585e6	0.8340744
235	0xbe8f79f8	-0.28022742
236	0x3eb360c5	0.35034767
237	0xbee4ceff	-0.44689175
238	0x3e6a3752	0.22872666
239	0x3ea4b717	0.32170936
240	0xbf034d44	-0.51289773
241	0x3f2507c8	0.64465
242	0xbe280d68	-0.16411364
243	0xbe9aaeec	-0.3021158
244	0xbf2adbc3	-0.6674158
245	0x3f3f52e3	0.7473585
246	0xbf6e82f0	-0.93168545
247	0x3f2ede0d	0.6830757
248	0xbf22afd0	-0.6354952
249	0xbb4d5fa1	-0.0031337517
250	0x3effe376	0.49978226
251	0x3cbabf00	0.022796154
252	0xbf61612e	-0.8803891
253	0x3f37d48e	0.7180871
254	0x3ef294f5	0.4737927
255	0x3f7ed151	0.9953814

bias f4 [256]
0	0xbdfe089f	-0.12403988
1	0xbf1c1cfa	-0.60981715
2	0xbf7e5621	-0.9935017
3	0xbd3c01ab	-0.04590003
4	0x3e1df1a0	0.15424204
5	0xbf1d5e38	-0.6147189
6	0xbf40d764	-0.7532866
7	0x3ee76a81	0.45198444
8	0x3f4994bf	0.78742594
9	0xbd1e613f	-0.03866696
10	0xbf0d0a36	-0.55093706
11	0x3f3847e4	0.71984696
12	0xbf4f1de6	-0.80904996
13	0xbe3a2d07	-0.18181239
14	0xbf174ac5	-0.59098464
15	0xbe2e3a5c	-0.1701445
16	0x3f16d999	0.5892578
17	0xbdda4770	-0.10658157
18	0xbf685856	-0.9075979
19	0x3e2af685	0.16695602
20	0x3f02ebf7	0.51141304
21	0xbf6336de	-0.88755596
22	0xbda56b50	-0.08077109
23	0x3eb2d3dc	0.3492726
24	0xbdff0b13	-0.12453284
25	0xbecb24a0	-0.3967638
26	0x3d8814c8	0.06644589
27	0x3f4b6b5b	0.79460686
28	0xbeb63910	-0.3559041
29	0xbf555966	-0.83339536
30	0xbee7fe1d	-0.4531106
31	0x3edc6384	0.43044674
32	0x3f39d4f4	0.72590566
33	0x3ef9bcfa	0.4877699
34	0x3f3da364	0.7407744
35	0x3eef1f87	0.4670374
36	0x3ee0da11	0.4391637
37	0x3ecbc9a6	0.39802283
38	0xbe1f74e0	-0.15571928
39	0xbf73ff18	-0.9531112
40	0xbf63c836	-0.8897737
41	0xbe262407	-0.16224681
42	0xbd22a0c0	-0.039704084
43	0x3f1916a3	0.59800166
44	0xbee157ac	-0.440122
45	0x3e846b4e	0.25863117
46	0xbd6b2a60	-0.05741346
47	0xbf737c1c	-0.9511125
48	0x3f29fd34	0.6640198
49	0xbf3e5a5f	-0.74356645
50	0xbf2d30d3	-0.67652625
51	0xbf08feca	-0.5351378
52	0xbe4fa35d	-0.20277162
53	0x3f292f36	0.66087663
54	0xbf154dfe	-0.5832213
55	0x3f5733da	0.84063494
56	0x3f5ab2dc	0.8542917
57	0xbe8337d6	-0.25628537
58	0x3f51f54b	0.8201491
59	0xbf02af5a	-0.51048815
60	0x3ea9e453	0.3318201
61	0x3f1fd0d6	0.62428033
62	0xbf8811ae	-1.0630395
63	0xbf23ca34	-0.6398041
64	0xbdea06e3	-0.11427095
65	0xbdcce230	-0.10004079
66	0xbd4d7abb	-0.050165873
67	0x3f7effd4	0.9960911
68	0x3f2f90e4	0.6858046
69	0xbf2bc1e1	-0.6709271
70	0xbda683ed	-0.081306316
71	0x3dc3d7a3	0.09562614
72	0xbeeaa867	-0.45831606
73	0xbf03823e	-0.5137061
74	0xbf4ae8f6	-0.7926172
75	0xbf2bf896	-0.6717619
76	0x3ecd6bcb	0.40121302
77	0xbf794790	-0.9737482
78	0xbe6394da	-0.22224751
79	0x3f35f6d0	0.7107973
80	0xbf2cec36	-0.6754793
81	0x3db098c6	0.08622889
82	0x3e026639	0.12734307
83	0xbf3f6220	-0.747591
84	0xbf1b3e34	-0.6064179
85	0x3ecaa209	0.39576748
86	0x3e70b0a7	0.23504888
87	0x3e8ae771	0.271297
88	0x3f5b2415	0.8560193
89	0xbe0dd9a3	-0.13852553
90	0x3f07e807	0.5308842
91	0x3f26389b	0.64930123
92	0xbe63a6b3	-0.2223156
93	0xbe0dad00	-0.13835526
94	0x3e79edbb	0.24407093
95	0x3f6b9b80	0.9203415
96	0xbf300c43	-0.6876871
97	0x3f6d1ed8	0.9262519
98	0x3d4b3012	0.04960639
99	0x3f047e09	0.51754814
100	0xbd48fac6	-0.04906728
101	0xbf0f2c5d	-0.5592707
102	0xbf46802c	-0.77539325
103	0x3ee8322a	0.45350772
104	0x3e9607bd	0.2930278
105	0x3efa068a	0.48833114
106	0xbe885ab8	-0.26631713
107	0x3ab8e0b9	0.0014105059
108	0xbea11c05	-0.3146669
109	0x3e81fd4b	0.2538856
110	0xbda07001	-0.07833863
111	0xbedd28ba	-0.43195134
112	0xbf2978ea	-0.66200125
113	0x3dd753c8	0.10514027
114	0xbef78439	-0.48343065
115	0xbef97f74	-0.48730052
116	0x3f4833c6	0.78204
117	0x3c91544f	0.017740397
118	0x3f368b90	0.71306705
119	0x3f4f564c	0.80991054
120	0xbf2358ac	-0.6380718
121	0xbe233012	-0.15936306
122	0x3f206e08	0.62667894
123	0x3eec5acb	0.4616302
124	0x3f8339bb	1.0251993
125	0xbf281aa4	-0.6566565
126	0x3f4c7696	0.7986845
127	0x3d3f60cc	0.046723172
128	0xbe4207cc	-0.18948287
129	0xbe8cc7d4	-0.27496207
130	0xbe8aa424	-0.27078354
131	0x3e2ce168	0.1688286
132	0xbe5c53dc	-0.21516365
133	0xbf745a2c	-0.9545009
134	0x3df976e1	0.121808775
135	0xbecbdd81	-0.39817432
136	0xbe7f9ff8	-0.24963367
137	0x3f001c1f	0.5004291
138	0x3eb681dc	0.3564595
139	0x3e2c98ba	0.16855136
140	0xbf30ff17	-0.69139236
141	0x3ab33690	0.0013672877
142	0xbeb274d4	-0.34854758
143	0x3f5890c2	0.8459588
144	0x3f1a298c	0.60219646
145	0x3ee920a4	0.45532715
146	0x3f0a0f5b	0.5392968
147	0x3dc082f5	0.09399978
148	0xbd884eb0	-0.066556334
149	0x3e1ec886	0.15506181
150	0x3e90974a	0.28240424
151	0x3ef824d1	0.4846559
152	0x3eee5c45	0.4655477
153	0x3f6a1e8c	0.9145286
154	0xbf264f86	-0.64965093
155	0x3f06e433	0.52691954
156	0xbefb7f9d	-0.491208
157	0xbe87857c	-0.26469028
158	0xbece4a45	-0.40291038
159	0xbf534674	-0.8252938
160	0xbe1e1028	-0.1543585
161	0x3ed28b5c	0.41121948
162	0x3eb1706e	0.3465609
163	0x3f565417	0.8372206
164	0xbf7d1e38	-0.98874235
165	0x3f291ad6	0.66056573
166	0x3f0a5afc	0.5404508
167	0x3eea41f8	0.45753455
168	0xbf1a0526	-0.60164106
169	0xbf477b60	-0.7792263
170	0x3f1ca0d5	0.6118291
171	0x3f1a76ef	0.6033773
172	0x3ec7726e	0.3895449
173	0xbf2010d1	-0.6252566
174	0x3e363e53	0.17797212
175	0x3eac4f25	0.33654132
176	0xbf0763a3	-0.5288641
177	0x3f586a81	0.8453751
178	0x3ee0ff80	0.4394493
179	0x3e657cd7	0.22410904
180	0xbf200abb	-0.62516373
181	0x3ef9b1ed	0.4876856
182	0xbe9b0c54	-0.30282843
183	0xbe2a3cb3	-0.16624717
184	0xbe1656b8	-0.14681518
185	0xbf23f328	-0.640429
186	0x3ecb56ea	0.39714748
187	0xbe985f21	-0.29760078
188	0x3e9b2d31	0.30307916
189	0xbe250bb0	-0.1611774
190	0xbdf50910	-0.11964619
191	0x3f05f6bc	0.5232961
192	0x3e28b59b	0.16475527
193	0xbf11be61	-0.5693112
194	0x3f1d29f8	0.61392164
195	0xbf5fa4b8	-0.87360716
196	0xbf6acff6	-0.91723573
197	0x3f064b7d	0.52458936
198	0xbecf7f54	-0.4052683
199	0x3e80bd69	0.25144508
200	0x3f41bdca	0.7568022
201	0x3f12b9aa	0.5731455
202	0xb9c61d48	-0.0003778732
203	0x3f38ce5c	0.7218988
204	0x3f2dfb28	0.6796136
205	0xbe460cf0	-0.19340873
206	0xbeb5fdc8	-0.35545182
207	0xbe1fe57d	-0.15614887
208	0xbe940c60	-0.2891569
209	0x3edf639c	0.43630683
210	0xbe91c7b7	-0.28472683
211	0xbf541c76	-0.8285593
212	0xbed3822c	-0.4131025
213	0xbe9b5ee0	-0.3034582
214	0x3f585bbd	0.8451498
215	0x3e571ce4	0.21007115
216	0xbed57f58	-0.41698718
217	0xbf33fd09	-0.70307976
218	0xbf4cddd8	-0.80026007
219	0xbe341860	-0.17587423
220	0x3eec30cf	0.46130988
221	0xbe3350bf	-0.17511271
222	0xbf03726e	-0.5134648
223	0x3ec3fa61	0.3827696
224	0xbee97bc9	-0.45602253
225	0xbf78fe1a	-0.9726273
226	0x3f4b336e	0.7937535
227	0xbc1af0ca	-0.009456823
228	0x3f57aaad	0.84244806
229	0xbf79be68	-0.9755616
230	0x3f73a81d	0.95178396
231	0xbf7634e0	-0.9617443
232	0xbf75bc93	-0.95990866
233	0x3f239b95	0.63909274
234	0x3e55810a	0.20850006
235	0x3f394985	0.72377807
236	0xbf77c676	-0.967872
237	0x3e41a81c	0.18911785
238	0x3eba4ae7	0.3638527
239	0xbecee49c	-0.4040879
240	0xbead01c4	-0.3379041
241	0xbf0c9f9e	-0.54931056
242	0xbf35d9cc	-0.71035457
243	0xbf6f3752	-0.9344379
244	0x3f41cfc4	0.7570765
245	0x3eff277c	0.49834812
246	0x3f149a6d	0.58048135
247	0xbeed967f	-0.46403882
248	0xbe968438	-0.2939775
249	0x3e848e1b	0.25889668
250	0xbf55437e	-0.8330611
251	0xbefca930	-0.4934783
252	0xbf5b5644	-0.85678506
253	0xbf6adf25	-0.9174674
254	0x3d150260	0.036379218
255	0x3f609785	0.877312

weight f4 [1, 256]
0	0xbd5d8137	-0.054078307
1	0xbb6a3e4f	-0.0035742705
2	0x3dc2a2ed	0.09503732
3	0x3db607d7	0.08888214
4	0x3de8054a	0.11329134
5	0x3da09484	0.07840827
6	0x3da09641	0.07841159
7	0x3d889bf7	0.06670373
8	0x3d6be689	0.057592902
9	0x3d018f8a	0.03163103
10	0xbd803d8f	-0.06261741
11	0x3d62d9b3	0.055383395
12	0x3d91b87e	0.07115267
13	0x3db65503	0.089029334
14	0x3d5e28c8	0.05423811
15	0xbd90b65e	-0.07066034
16	0xbdb201d3	-0.08691754
17	0xbcd55726	-0.026042532
18	0x3d812d72	0.06307496
19	0xbc195c0c	-0.009360325
20	0x3d783e1c	0.060606107
21	0x3c8acb7c	0.016942732
22	0xbdc64770	-0.09681594
23	0x3babb2fd	0.005239843
24	0x3ddc8e7b	0.107693635
25	0x3d8ef8a8	0.06981021
26	0x3c959ea7	0.018264128
27	0x3da51c75	0.080620684
28	0xbd47d58d	-0.048787642
29	0x3dc84b88	0.097800314
30	0x3d80f642	0.0629697
31	0x3cf37e44	0.029723294
32	0x3bb0c584	0.0053946394
33	0xbc21b11d	-0.009868887
34	0x3c8db43b	0.017297855
35	0x3d6b0db7	0.057386126
36	0x3b4c7335	0.0031196598
37	0x3dcfa9ac	0.10139784
38	0x3de1620e	0.110050306
39	0xbd1f6049	-0.038910184
40	0xbd19d0cf	-0.03755265
41	0x3d4673fc	0.048450455
42	0x3d82fe00	0.06396103
43	0x3dd45ab4	0.10368863
44	0xbd4dd9e3	-0.05025662
45	0xbc848941	-0.016178729
46	0x3d6ddc00	0.058071136
47	0xbcd52127	-0.026016785
48	0xbe164b45	-0.1467715
49	0x3dd0da89	0.10197932
50	0x3a4f9869	0.0007919134
51	0xbc901889	-0.017589824
52	0x3d43319c	0.047654733
53	0x3d492e5b	0.049116474
54	0x3da5fe15	0.08105103
55	0x3d967a7a	0.07347579
56	0xbd9b694a	-0.07588442
57	0x3b0d3793	0.0021548017
58	0x3e0a5377	0.13508402
59	0x3d57856d	0.05261748
60	0xbd456321	-0.04819024
61	0x3db502df	0.08838438
62	0x3c86682c	0.016407095
63	0x3d987cfc	0.07445714
64	0x3cca1df2	0.024672482
65	0xbdaa7b56	-0.08324306
66	0x3a0509da	0.00050750154
67	0xbd6bdab3	-0.057581615
68	0xbd88e8af	-0.06685006
69	0x3d6db375	0.05803247
70	0x3d83bde3	0.064327024
71	0x3d6688e7	0.056282904
72	0x3d149331	0.036273185
73	0xbc3f0472	-0.011658775
74	0x3e302eba	0.17205325
75	0xbd22d9e5	-0.03975858
76	0x3cc7d577	0.02439378
77	0x3b872119	0.0041238186
78	0xbca5bf17	-0.02023272
79	0x3da1071a	0.07862683
80	0xbd7475f3	-0.059682798
81	0x3dabee5b	0.08395072
82	0x3d0db188	0.034593135
83	0x3d0f1ae6	0.03493776
84	0x3d3b21e9	0.045686636
85	0xbcdf407e	-0.027252432
86	0x3d38b754	0.04509671
87	0x3e08ec41	0.13371374
88	0x3d6f5a72	0.058435865
89	0x3dce46f1	0.10072125
90	0x3cc51bea	0.024061162
91	0xbd26ae48	-0.04069355
92	0x3d8d1492	0.06888689
93	0x3dc0112c	0.09378275
94	0x3dbd99fe	0.09257887
95	0xbd586773	-0.052833032
96	0x3d5e8d23	0.054333817
97	0x3c28aecf	0.010295584
98	0x3bb2e7fa	0.0054597827
99	0x3d2caa9a	0.042154886
100	0x3d16ecf9	0.03684709
101	0x3d04362f	0.032278236
102	0x3d041d6a	0.032254614
103	0xbd75f72f	-0.060050186
104	0xbc648b49	-0.013949224
105	0x3c90e7ff	0.01768875
106	0xbd9c68fe	-0.07637213
107	0x3d0d4993	0.034493994
108	0xbc4e098b	-0.012575517
109	0xbd25e938	-0.040505618
110	0x3d1c32cb	0.038134377
111	0xbcce8071	-0.02520773
112	0x3d951b13	0.072805546
113	0x3ce34795	0.027744094
114	0xbd06b9a0	-0.03289187
115	0xbd995ec7	-0.074887805
116	0x3c991f54	0.018691696
117	0x3de774a6	0.11301546
118	0x3c978e5e	0.018500503
119	0x3c5faf8c	0.0136526935
120	0x3d6fb1bc	0.05851911
121	0x3dc68696	0.09693639
122	0x3c788d77	0.015170447
123	0x3d322f93	0.0435024
124	0xbd4eaa78	-0.05045554
125	0x3d840bed	0.06447587
126	0x3d0f9463	0.035053622
127	0xbd136bd6	-0.035991512
128	0x3d6ca478	0.057774037
129	0x3d5c9228	0.053850323
130	0xbdbebaf6	-0.09313004
131	0xbd90b20d	-0.070652105
132	0x3da5ba65	0.080921926
133	0x3db474a6	0.088113114
134	0x3da92c94	0.08260456
135	0x3d38592d	0.04500692
136	0xbda39819	-0.07987995
137	0x3d66739e	0.056262605
138	0xbc9f4d73	-0.01944611
139	0xbd56b94b	-0.052422803
140	0x3be70910	0.007050641
141	0x3cd86444	0.026414998
142	0x3dc158d8	0.09440774
143	0x3dca3dd2	0.098750725
144	0x3ca8dc5f	0.020612894
145	0x3c1861c9	0.009300658
146	0xbd18d8ed	-0.03731625
147	0x3d264063	0.040588748
148	0x3c63ea34	0.013910819
149	0x3d4b538a	0.049640216
150	0xbd0be4c0	-0.0341537
151	0x3dc58f6d	0.09646497
152	0x3d9cbc46	0.07653098
153	0x3d1b89c7	0.03797319
154	0xbd486432	-0.04892368
155	0x3da2f08a	0.079560354
156	0xbd4f0312	-0.050540037
157	0xbbf2c3d8	-0.0074086003
158	0xbd325f45	-0.043547887
159	0x3c6fb760	0.014631122
160	0x3d894514	0.06702629
161	0x3d44ac4d	0.04801588
162	0xbba3c21b	-0.0049975044
163	0xbd32c413	-0.043644022
164	0xbcf196e4	-0.029490896
165	0x3d0c3159	0.03422675
166	0xbda71bc3	-0.08159592
167	0x3daf3ebd	0.08556888
168	0x3c012ada	0.007883752
169	0x3c019eea	0.007911423
170	0x3dda5504	0.10660747
171	0x3c4cae3d	0.0124927135
172	0x3d11e358	0.035617203
173	0x3e0b62a9	0.13611855
174	0x3de7f479	0.11325926
175	0x3c6b7645	0.014371459
176	0x3d8646c5	0.06556467
177	0x3dc054b0	0.09391153
178	0x3c42395f	0.011854499
179	0xbb8ffa9c	-0.0043938886
180	0x3d94398a	0.07237537
181	0x3d6bd0e4	0.05757226
182	0x3c989af9	0.018628584
183	0x3debae04	0.115078
184	0xbe1c15f0	-0.15242743
185	0x3caef5d4	0.021357454
186	0x3d8d0586	0.06885819
187	0x3cb2ecde	0.021841463
188	0xbd00b632	-0.031423755
189	0xbbe0d05c	-0.006860776
190	0xbd631616	-0.055440985
191	0xbd505461	-0.05086172
192	0x3cfc632b	0.030809006
193	0x3d3422f4	0.043978646
194	0x3dc22e2f	0.09481465
195	0xbd2367d2	-0.039893933
196	0xbd439c18	-0.047756284
197	0x3d04ab46	0.0323899
198	0xbc95f94a	-0.018307347
199	0x3d66dede	0.056364886
200	0x3d831a1f	0.064014666
201	0xbcead691	-0.028666766
202	0x3d84472f	0.0645889
203	0x3d3cefa7	0.046126988
204	0x3c23498f	0.009966268
205	0xbc2ce7ac	-0.010553282
206	0x3d63dfd2	0.055633374
207	0x3d178a90	0.036997378
208	0xbd7eb9d0	-0.062188923
209	0xbd8753b6	-0.066077635
210	0x3df5e43e	0.12006424
211	0x3cba05e9	0.022707896
212	0xbd2d6852	-0.042335816
213	0xbd0f61ea	-0.035005488
214	0x3c7833c0	0.015149057
215	0x3d8440a8	0.06457645
216	0xbd8d6d99	-0.0690567
217	0x3d8acf36	0.067778036
218	0xbc22740a	-0.009915361
219	0xbd780d77	-0.060559716
220	0xbc05bf4e	-0.008163286
221	0xbb0e0686	-0.0021671369
222	0x3ca603c6	0.020265471
223	0x3cc5157c	0.024058096
224	0xbc264d1e	-0.010150222
225	0x3c275efe	0.010215519
226	0xbd2d369e	-0.042288415
227	0x3e06749f	0.13130425
228	0x3dade438	0.08490795
229	0x3ce07238	0.027398214
230	0xbcde6544	-0.027147897
231	0xbcd18b9f	-0.025579272
232	0xbbdeb036	-0.0067959083
233	0xba9f8bce	-0.0012172402
234	0x3d949812	0.072555676
235	0x3d604039	0.054748747
236	0x3dffd0ef	0.12491023
237	0x3e2dcf52	0.16973618
238	0xbb5f0482	-0.0034029786
239	0xbd272156	-0.040803276
240	0x3d980045	0.074219264
241	0x3cdeab1b	0.027181199
242	0x3d3bf346	0.0458863
243	0xbd576872	-0.05258984
244	0xbda0fcd3	-0.078607224
245	0x3cc2caec	0.023778401
246	0x3d10532f	0.03523558
247	0x3d2f55d6	0.04280647
248	0x3d4334d1	0.04765779
249	0x3d766dec	0.060163423
250	0xbb14b5c2	-0.0022691344
251	0xbd209490	-0.03920418
252	0x3ad3df39	0.0016164548
253	0x3e014287	0.12623034
254	0x3d4c9f99	0.04995689
255	0x3d0efa20	0.034906507

weight f4 [256, 1]
0	0x3f1be284	0.6089251
1	0x3f838a77	1.0276631
2	0xbe883851	-0.26605466
3	0xbf52f1a4	-0.82399964
4	0x3dd3bc3f	0.103386395
5	0xbf050b3a	-0.51970255
6	0xbea4d7c2	-0.3219586
7	0xbf43b90e	-0.76454246
8	0x3ec37234	0.38173068
9	0x3e011629	0.1260611
10	0xbf6a3f08	-0.9150243
11	0x3dee15a4	0.11625221
12	0x3f1930ce	0.59840095
13	0xbf6ec7c6	-0.9327358
14	0x3e2e2701	0.17007066
15	0x3ea01bad	0.31271115
16	0xbe872240	-0.26393318
17	0x3f80d076	1.0063617
18	0x3f588a1e	0.8458575
19	0x3f8046c9	1.0021602
20	0xbf556460	-0.83356285
21	0xbf59bdc8	-0.8505521
22	0xbee21630	-0.44157553
23	0xbf25d6b0	-0.6478071
24	0xbf13f7f9	-0.5780025
25	0x3ec3cd31	0.38242486
26	0x3f5088da	0.8145882
27	0x3f1b2de5	0.60616904
28	0xbf1d555a	-0.6145836
29	0x3ee7bb37	0.4526002
30	0x3f4c7bb7	0.79876274
31	0x3ec91927	0.39277002
32	0xbf41b22c	-0.75662494
33	0xbd5612e0	-0.052264094
34	0xbf1d08c3	-0.61341494
35	0xbf70de5e	-0.94089305
36	0xbebca2b4	-0.36842883
37	0x3f1b00b7	0.60547966
38	0x3e7f4610	0.2492907
39	0x3d0f0738	0.034918994
40	0x3f659d90	0.89693546
41	0x3f64d817	0.89392227
42	0x3f66b25a	0.9011589
43	0x3f672fa4	0.9030707
44	0xbf661834	-0.8988068
45	0x3e2038ac	0.15646619
46	0x3f5a8cae	0.8537091
47	0x3e60a551	0.21938063
48	0x3f684245	0.9072612
49	0x3f06ee59	0.5270744
50	0xbe2f2b9c	-0.1710648
51	0x3f7b6612	0.9820262
52	0x3d9a102a	0.07522614
53	0x3f2b905a	0.6701714
54	0xbf2af8ea	-0.6678606
55	0x3f722a77	0.94596046
56	0xbe60d260	-0.21955252
57	0x3e265f67	0.1624733
58	0xbed397d0	-0.4132676
59	0x3f156ffb	0.58373994
60	0xbf038e8d	-0.5138939
61	0xbf00e3ba	-0.50347483
62	0x3f77e197	0.968286
63	0xbf67ca70	-0.9054327
64	0xbf87ac5e	-1.0599477
65	0xbd43e180	-0.047822475
66	0xbf3b0178	-0.73049116
67	0xbf49e3d6	-0.78863275
68	0x3f80df7a	1.00682
69	0xbe804e88	-0.25059915
70	0xbf33817c	-0.7011945
71	0x3f2f0c20	0.68377876
72	0xbf17cf64	-0.5930083
73	0x3efb9c4c	0.49142683
74	0xbe357058	-0.17718637
75	0x3f3488ec	0.70521426
76	0x3e6c0f46	0.23052701
77	0xbe4a9d50	-0.19786572
78	0x3e268147	0.16260253
79	0x3f4c94af	0.79914373
80	0xbe70b2e0	-0.23505735
81	0xbe8d03e8	-0.27542043
82	0x3ea41941	0.32050517
83	0x3f2b51fa	0.6692196
84	0xbf6f2f98	-0.93432
85	0xbd9c85fa	-0.076427415
86	0xbf5552a4	-0.83329225
87	0xbe776a00	-0.2416153
88	0xbd0db5e0	-0.034597278
89	0xbe299518	-0.16560781
90	0xbd491aa0	-0.049097657
91	0x3e032e0a	0.12810531
92	0xbf27c14d	-0.6552933
93	0x3f623815	0.88366824
94	0x3d14ee5c	0.03636013
95	0x3eae0231	0.33986047
96	0x3f7a357c	0.9773786
97	0x3e14fe2b	0.14550082
98	0xbf4f9afc	-0.8109586
99	0xbe415a30	-0.1888206
100	0x3f013495	0.5047086
101	0x3f61e989	0.8824697
102	0xbde69b47	-0.112600856
103	0x3efc7e70	0.49315214
104	0x3e5a4065	0.21313627
105	0xbf6dc97b	-0.9288556
106	0x3c864b5d	0.016393358
107	0x3cff575f	0.031169591
108	0x3f1b5a6e	0.6068486
109	0x3e2ec734	0.17068177
110	0xbdd284b0	-0.102792144
111	0x3e07df22	0.13268712
112	0xbf811bd1	-1.0086614
113	0x3f1bdbb7	0.60882133
114	0xbf5881e5	-0.84573203
115	0x3f5b5f96	0.8569273
116	0x3f7d2ecc	0.9889953
117	0xbf645c74	-0.8920357
118	0x3f0a186e	0.53943527
119	0x3f58a10a	0.84620726
120	0xbeeab9d7	-0.4584491
121	0x3f554c10	0.8331919
122	0xbf7575ce	-0.9588288
123	0xbf17e9e4	-0.59341264
124	0xbf313bf6	-0.6923212
125	0xbeceda6f	-0.40401027
126	0xbe26f140	-0.16302967
127	0x3f6a257f	0.91463464
128	0xbf78bac8	-0.97160006
129	0xbf090c00	-0.53533936
130	0x3f62110f	0.8830728
131	0x3e868b1b	0.26278004
132	0xbf091172	-0.53542244
133	0x3f2ed30b	0.68290776
134	0x3f863baa	1.0486958
135	0xbef0ed24	-0.47055924
136	0xbe1b8e30	-0.15190959
137	0xbf33e860	-0.7027645
138	0xbf6b7466	-0.91974485
139	0xbe31a7c9	-0.17349161
140	0xbea0f7b7	-0.3143899
141	0xbe74cf88	-0.23907292
142	0x3f076bc8	0.52898836
143	0x3f7ee1e2	0.9956342
144	0xbef043c4	-0.469267
145	0x3e33471b	0.17507593
146	0x3e6bc56f	0.23024534
147	0xbf1b2fb1	-0.60619646
148	0xbf4b4aa6	-0.7941078
149	0x3f6733b6	0.9031328
150	0x3f312493	0.6919643
151	0x3ef19bcc	0.47189176
152	0xbf63c0e6	-0.88966215
153	0xbf20ff6e	-0.62889755
154	0xbf7a5c68	-0.9779725
155	0x3e0aa72b	0.13540332
156	0xbf458dd9	-0.7716957
157	0xbcee6440	-0.029100537
158	0x3f68e5fb	0.9097592
159	0xbf153e32	-0.5829803
160	0x3bb70800	0.0055856705
161	0x3f1b7d0c	0.6073768
162	0xbec91bc4	-0.39278996
163	0xbe0ba451	-0.136369
164	0x3f15a376	0.58452547
165	0xbf620698	-0.8829131
166	0xbf664692	-0.8995143
167	0xbf41f8c6	-0.75770223
168	0x3f266842	0.65002835
169	0x3ece5f1e	0.40306944
170	0xbdee03fb	-0.11621853
171	0x3eb58139	0.35450152
172	0xbf88aa43	-1.067696
173	0xbefeaae6	-0.4973976
174	0xbf556d7a	-0.8337017
175	0x3ec3b8d3	0.38226947
176	0x3e7cff8e	0.24706861
177	0xbf71e430	-0.9448881
178	0x3e727ed9	0.23681201
179	0xbedd1642	-0.43181044
180	0x3f0defc0	0.55443954
181	0xbf7653e2	-0.96221745
182	0x3e3b7569	0.18306507
183	0xbd939280	-0.07205677
184	0xbf1caab2	-0.6119796
185	0x3eefd92b	0.46845374
186	0x3e9d8fec	0.30773866
187	0x3f77a294	0.9673245
188	0x3e393cd7	0.18089615
189	0x3f5950d3	0.8488895
190	0x3e0c33b2	0.13691595
191	0xbf60630d	-0.8765114
192	0xbf3088e6	-0.6895889
193	0xbee96e00	-0.45591736
194	0xbea94e94	-0.33067763
195	0xbf6905a6	-0.91024244
196	0xbebb06d8	-0.3652866
197	0x3f5c48f2	0.86048806
198	0xbf359f8f	-0.7094659
199	0xbf723902	-0.94618237
200	0xbf66a398	-0.90093374
201	0x3f371481	0.7151566
202	0x3ac8359a	0.0015274764
203	0xbe1396c0	-0.14412975
204	0xbf7ea875	-0.99475795
205	0x3ebb95a3	0.366376
206	0xbd34e5df	-0.044164535
207	0x3ed4b8c6	0.4154722
208	0xbd8aedd1	-0.06783641
209	0xbe9e91ac	-0.30970514
210	0xbbf1e98b	-0.007382577
211	0x3d1db640	0.038503885
212	0x3f2b3bb7	0.6688799
213	0x3e1da3a7	0.1539446
214	0xbe981134	-0.29700625
215	0x3f2da4a4	0.67829347
216	0xbe55a6bc	-0.20864385
217	0xbf7bb384	-0.98320794
218	0x3f2f758e	0.6853875
219	0x3ede1e8f	0.4338269
220	0x3e103c80	0.14085579
221	0xbe677c0f	-0.22605918
222	0x3ebe31a8	0.3714726
223	0x3e4e8bb3	0.20170479
224	0x3ebea393	0.37234172
225	0xbf3923b4	-0.72320104
226	0xbf5ea65e	-0.86972606
227	0xbf7672a6	-0.9626869
228	0xbf8a69b2	-1.0813506
229	0xbf35afb4	-0.70971227
230	0x3f5c684a	0.8609663
231	0xbf561909	-0.8363195
232	0xbf44e232	-0.76907647
233	0x3f10dbc0	0.5658531
234	0x3f4dac3c	0.80340934
235	0x3ea3fb2e	0.32027572
236	0xbf70f50e	-0.94123924
237	0xbf3d10b1	-0.73853594
238	0x3ed878ba	0.42279607
239	0x3f4e4bb2	0.8058425
240	0x3eaf414a	0.342295
241	0xbe14d3e8	-0.14533961
242	0x3e222f3d	0.15838332
243	0xbf39a89a	-0.7252289
244	0xbf66e0ae	-0.90186584
245	0x3e4e1709	0.20125975
246	0xbd3ded80	-0.046369076
247	0x3f5f2daf	0.8717908
248	0x3f243af7	0.64152473
249	0xbe874fd8	-0.26428103
250	0xbe771e98	-0.24132764
251	0xbf3ba101	-0.7329255
252	0x3f5b37e3	0.8563215
253	0xbc94d340	-0.018167138
254	0x3f1baf33	0.6081421
255	0xbf0b66e2	-0.5445386
