checkpoints/205300800.ckpt (torch, 122663 bytes, 33 tensors)

weight f4 [256, 18]
00000000: 4ad5 0bbe a037 a23d 8170 cb3d 6f7a c6bc
00000010: 46e0 2fbd d58d cd3c b9dc 43be 73a2 84be
00000020: 9277 b8bb 4449 9ebd ae29 8bbe 2a05 3abd
00000030: 45a3 eabc 0e08 89be dc54 aabe d25e cbbd
00000040: 87c2 7dbe 1daf 8c3d 1f0d 2f3b d714 0c3a
00000050: 3a38 93bc aaa4 923b 0eef 83be d7af 0e3e
00000060: 60c5 f4bd 3112 da3d d185 003e 7894 07be
00000070: 2d36 083e 2b5c 563c 5562 333b dc98 003d
00000080: 5f6b 84bd d0bb acb8 96d7 78bd c8b7 1bbd
00000090: 1c18 b1be 1deb cbbc 58ed 43bc 8b6b 09bd
000000a0: 1c3d 99bd 0c73 29be 0163 733d b765 253d
000000b0: 3f8e 40be 4763 1fbd 5696 c7bc b941 a73b
000000c0: 4482 073d 58a7 68bd ef5e e2bd 68ec 013a
000000d0: 011c cf3d 29a5 78be 2373 99be 026c 733d
000000e0: 430b 0b3d bf52 b33d e5dc be3d f963 4e3d
000000f0: bccd a73d 21ff 073c ab61 ab3d 87b6 83bd
00000100: ffbc 6fbd 588e 35be ed5d 473e 46dc 32be
00000110: c294 02be dc38 0a3d 7a12 5f3d dfe5 4dbe
00000120: 2005 62bb 76ca 0bbb 7690 ae39 d9a2 60bc
00000130: 5df5 153c afe5 51be 2481 e93a 3f7b 44be
00000140: c28d 3f3d 2585 a3bb 1e0a 99bb 65ce 393a
00000150: 3bb7 233b ae2c e7bc bf89 0f3e 2300 88b9
00000160: e0c6 85bc ce4e 723c 6084 443e cf6c 67bd
00000170: 454c 0a3d 1a1c eabd 34ad 7fbe 14d0 3dbe
00000180: f290 0c3e 74aa c53d ffbc e73d 7725 2dbe
00000190: 27ac a6bd 7f55 dabd 01c0 66bd 86be 043e
000001a0: 3beb 4b3d a7ef 6bbd a397 d0bd 7195 94bd
000001b0: 1265 c93e f115 9ebd 325d aa3a 9047 023e
000001c0: 6d9c 9e3d 116a 583e fcbb f9bd a280 6abd
000001d0: bbf2 a7bd d074 ee3c b3f0 c13b 3f5e 1d3c
000001e0: e468 ed3c a3f0 733d da5a d7bd cf4f 4d3c
000001f0: 2445 3dbd 14f4 12be 751b 2dbc 620d 96bb
00000200: d3a8 c2bb 9831 7cbc 3d24 a73c f22e 9d3d
00000210: ea34 2e3b 586d 0f3e 55ce 513d bdce c73b
00000220: 6ed1 a5ba 29bd a73a 6d73 9f3b 2ccb 23bd
00000230: 5790 bc3e 0f6f 19bb 220e 9ebe 722b 683c
00000240: d7da 123d 0fc8 d63c d140 29be 12f6 d33d
00000250: 563e 903d 9c77 103e f832 f03d 512a 6e3c
00000260: 2a93 a3bd 694b 553e 1f01 4ebd c4f5 133e
00000270: 00e6 0a3e bb46 8ebd e835 1abd 8725 e43c
00000280: b50a 0abd 84ef cf3d 4844 573b 33d7 653a
00000290: 695b 56bb 1b55 7db9 e124 9ebc 8716 58bd
000002a0: 0747 0e3b 0ace e13c 78fd d0bb b9bf b93b
000002b0: e98e 113b 7d55 353a be35 95bb f5b3 0b3d
000002c0: 40e4 603d 633b 1d3b e89f de3d 902e 113c
000002d0: 5b19 8abd 1fdf 96bd 0f7d 96bd fccb 8abd
000002e0: 76c1 3bbe b185 00be ae8d b9bd 6d1c 663c
000002f0: 6bb2 03be ece1 55be b26a 95bd 797e 00bd
00000300: 2136 bdbd 8aee c23d 6406 5a3c 9745 aebd
00000310: 350f 8fbd ae9c 8a3e 01c6 1e3e 9274 643d
00000320: 2a9b d2bc fc79 fa3d 67ee 7dbc 9425 f23a
00000330: b966 ea3d 2f83 573b f50f d13d aaed e93d
00000340: 49f7 683e f019 e93c 99a9 e4bd e53d de3d
00000350: 66c2 75be e717 70bd f60b c8bd 553a b73d
00000360: a48f 313d c4c0 8d3d 5000 363d 99cb f13d
00000370: 20eb 003c ac52 f7bd c511 1ebd 1c5e c2be
00000380: d37c f13b b0b4 96bd 1842 69be f131 12bd
00000390: b9b0 8fbd 8808 4bbe 46bc 96be ec97 5e3d
000003a0: 96e2 30be c864 803d 346a 1f3d 32d8 8ebb
000003b0: 7c43 86ba d8e7 21b9 6f90 813c 6295 d03c
000003c0: 6a2c 023c 96b3 38be 5e62 da3c de5b fe3b
000003d0: 191e 71ba c35b 8dba f822 0cbb f0e2 023e
000003e0: 9667 9ebd f4b6 003b 29c9 7a3d 842f 153d
000003f0: fe05 dbbe 05d4 d43c c25f dcbc bb95 97bc
-0.13655582 0.07920766 0.09933568 -0.024228303 -0.042938493 0.025092045 -0.19127168 -0.2590519
-0.0056294883 -0.07728818 -0.27180237 -0.04541508 -0.028642306 -0.26763958 -0.33267868 -0.09930195
-0.24781238 0.06869338 0.0026710702 0.00053436816 -0.017971147 0.004475196 -0.25768322 0.13934265
-0.11951709 0.10648001 0.12551047 -0.1324023 0.13301916 0.013083498 0.0027371843 0.031395778
-0.06465792 -8.236582e-05 -0.060752474 -0.038017064 -0.34588706 -0.024892384 -0.011958443 -0.033549827
-0.07482359 -0.16547793 0.05942059 0.040380206 -0.18804263 -0.038913038 -0.024363678 0.0051042703
0.033083215 -0.056800216 -0.110532634 0.0004956187 0.10112763 -0.24281754 -0.29970655 0.059429176
0.033946287 0.08756017 0.09319476 0.05038831 0.081935376 0.008300574 0.08368238 -0.06431299
-0.05852985 -0.17730081 0.19469424 -0.1746684 -0.12752059 0.03374563 0.05446098 -0.2010722
-0.0034487918 -0.0021330393 0.00033295498 -0.013710701 0.009152737 -0.20497774 0.0017814976 -0.1918764
0.04676605 -0.0049902373 -0.0046703955 0.0007087945 0.002498104 -0.028219547 0.1401739 -0.00025940043
-0.016330183 0.014789296 0.19191122 -0.056500252 0.033764143 -0.11431141 -0.24968415 -0.18536407
0.13727167 0.09651652 0.11315345 -0.16908823 -0.08138304 -0.10660838 -0.056335453 0.12963304
0.04978488 -0.057601597 -0.101851724 -0.07255066 0.39334923 -0.07719029 0.0012997745 0.12722611
0.077446796 0.21134211 -0.12194058 -0.05725158 -0.08200594 0.029108435 0.005918586 0.00960499
0.02898068 0.05955566 -0.105153754 0.012531235 -0.046208516 -0.14350921 -0.010565628 -0.004579232
-0.0059405356 -0.015392683 0.020403022 0.0767497 0.0026581832 0.14006555 0.051222164 0.006097643
-0.0012650916 0.0012797463 0.0048660547 -0.03998868 0.36828873 -0.0023412143 -0.30870157 0.014170514
0.035853233 0.026218442 -0.16528632 0.103496686 0.0704314 0.14108127 0.117284715 0.014536456
-0.07987054 0.20829548 -0.050294038 0.14449221 0.135643 -0.069470845 -0.037649065 0.027849926
-0.033701617 0.10153106 0.0032847095 0.0008767724 -0.0032708293 -0.00024159664 -0.019304695 -0.05275586
0.0021709816 0.027564067 -0.006377872 0.005668607 0.0022210425 0.0006917341 -0.0045535257 0.034107167
0.054905176 0.0023991696 0.108703434 0.008861199 -0.067431174 -0.07366776 -0.07348072 -0.06777188
-0.18335518 -0.12550999 -0.090602264 0.014044863 -0.1286103 -0.20886964 -0.07295741 -0.031370614
-0.0923884 0.09518154 0.013307188 -0.08509367 -0.069853224 0.27072662 0.1550522 0.055775233
-0.025708754 0.12230298 -0.015498734 0.0018474334 0.11445374 0.0032884588 0.10208122 0.11422284
0.22750582 0.02845475 -0.11165161 0.10851649 -0.23999938 -0.058616545 -0.09767906 0.08946673
0.043349877 0.06921533 0.04443389 0.11806411 0.007868558 -0.12076315 -0.038591165 -0.37962425
0.0073696165 -0.07358682 -0.22779119 -0.03569216 -0.07016129 -0.19827473 -0.29440516 0.054344103
-0.17273936 0.062692225 0.038919643 -0.0043592686 -0.0010243501 -0.00015440525 0.015815942 0.025461856
0.007945159 -0.18037257 0.026658233 0.0077624163 -0.00091979053 -0.0010784793 -0.0021383148 0.12781882
-0.07734601 0.0019640299 0.061226998 0.036422268 -0.4277801 0.025980005 -0.02690113 -0.018504014

bias f4 [256]
00000000: 8e4f 09bd f58d 1b3e c5d4 a9bd b387 38be
00000010: 8ab2 43be fbef bc3d f68d 5cbc 101b 77be
00000020: 37c8 eabd 083f 02be 4c62 723d e92f 0abe
00000030: 0e00 79bd fb85 a23c 6fcf 7abe a530 b03d
00000040: b783 98be e0dd 8b3d d9d0 4ebe 6365 c2bd
00000050: 90a0 85bd 2597 eabc 76f5 e53d 9d1a 06bd
00000060: 3c91 1abe 3a82 0bbe 6b51 09bc 8196 e2bd
00000070: 419f 64be 0f14 92be 5469 9d3d 4da0 75be
00000080: 39f9 afbd df25 fd3d ae84 003e 0fd7 0d3e
00000090: 6325 a53c 87a8 9dbe 2fdb 10bd e0a7 2abd
000000a0: 65b2 79bd 9588 41be 5753 13be 8651 e23d
000000b0: e553 2a3e 5e80 60bd 49ee 183c d339 bb3c
000000c0: db1b cf3d 4805 fc3d 4bc5 3abb 0998 2ebe
000000d0: 9b03 233c 5bbd 1dbe f739 16be 9856 3fbe
000000e0: f021 53be 0f6f 6abe 1930 63be 1c28 b2be
000000f0: d3a6 30be 4ec0 063d 626e b43c 27f3 193d
00000100: c5a3 a7bd 636c 73bd 6994 67bd 6ba5 f63d
00000110: 02e2 1f3e f0ce 2a3c 81d9 9e3d 0913 d4bd
00000120: a882 ecbd 38a4 113c 05c6 0a3e 9ff1 aebc
00000130: 1c0d af3b 4ff0 1dbe 6a62 203d e7af a6be
00000140: a83b 32be 371a b7bd 49c8 1cbe a192 e3bc
00000150: d147 1abe 7679 c4bd 4c5b 8bbe 253f f93b
00000160: 48ab 7abd b9b8 cbba b8be 263e 1af1 d83d
00000170: 8c97 043e e4f9 ccbc af72 5cbd 5f2e 58be
00000180: 123d b6bd 894b d2bd e592 18be cc37 02be
00000190: 66a5 ac3d 6d36 eabd be62 9ebd bd55 1a3d
000001a0: 3900 16be a82e 89bd daf7 32be 8fee 85be
000001b0: a01b cb3c e443 0a3e 4ced 3abd c63e 1e3e
000001c0: 4fba aabd 8c15 86be 2945 dcba d754 f5bd
000001d0: 8ae7 a4bd b28e bcbd bea6 49bc 74f3 03be
000001e0: 1187 2abe ee47 dbbd 127c 7fbe 031d 78bd
000001f0: 7573 54be 07c1 04be ed67 7b3c e076 36be
00000200: c966 92bd a901 f2bc 56b6 74bd daf4 333d
00000210: 9a5a 91bd e4ad 3dbe 7f16 d8bd 74d9 71be
00000220: b43e 24be f537 ff3b 57a5 10be a590 24be
00000230: 63e7 9b3b ad4b a63d d7d1 9bbd 564a 80be
00000240: d459 a7bc acf2 643d d2c4 2cbe fbe0 123e
00000250: 718a 88be 9917 f93c 5375 98bc 765c 3bbd
00000260: 05a0 05be ee41 e33d 5635 87be fadf d0bd
00000270: 1710 7fbd 42fc 04be 26e6 a6bd 1071 2b3d
00000280: 15d4 5dbe e5fa bcbd e9f3 9d3d 0697 59be
00000290: 885d bdbd 906a 03be 7e7b a0bd 11ff 55be
000002a0: 8355 8bbe 03a7 9dbe 4bd9 8abe 3d88 0fbe
000002b0: c5f1 123e b443 033e 3ff6 593d ac2c 3ebe
000002c0: 2a15 5f3d 366d 6ebe 5f63 5abe 75f7 85be
000002d0: 2848 00bd 80c6 8f3d 24fd cb3c 8311 0dbe
000002e0: d634 503c 524b 093e 6ba4 063e 5bfb 4fbe
000002f0: ae85 53bb b78f f03d 9e63 4ebe a17b f1bc
00000300: 5fa3 4ebe 7d1a d2be 59c8 e0bd 8792 16bc
00000310: 3e12 f7bd 7079 a23d 1652 6a3d 13ff 47be
00000320: aefb 6dbc 7e8b 22bc f3d1 793c a6a5 ccbd
00000330: ebdd 0abe 37eb c7bd 2eed 09be e8d7 5a3e
00000340: 4a9d 0cbe bc1a 1bbd a4cb a33d 2d43 9fbe
00000350: 6640 153c 3d84 12be dc6c c03d b275 3fbe
00000360: a357 a1be 477a 6d3d f01d b0bd 04e4 a03d
00000370: e777 233e 5bdd cbbd 0546 0fbc cada b5be
00000380: aca7 64be 1a37 c9bd 9955 00bc 94fa 023d
00000390: 5098 65bc b10c 84be a10b 853d 33d4 1fbe
000003a0: 3ae1 5ebe 6353 0b3e 38d1 9e3c 4de1 933d
000003b0: 881c 96bd 9553 fabd 5203 66be d28f 6ebd
000003c0: e504 f9bd 2e5b 4abd a982 45bd 9ad4 b9bc
000003d0: 6b5f 213c 3a38 13be 146d a03d 1aad 86be
000003e0: 0cfb a1be deba a43d a978 88be 8822 8abd
000003f0: 9b6f 9bbe c303 0fbe 0d11 a2bd f5d9 cfbe
-0.033523135 0.15190871 -0.08292536 -0.18020515 -0.19111076 0.0922546 -0.0134615805 -0.24131417
-0.11463969 -0.12719357 0.059175774 -0.13494839 -0.060791068 0.019839277 -0.24493192 0.08603028
-0.2978799 0.06829429 -0.20196857 -0.09491994 -0.065247655 -0.028636524 0.112284586 -0.032740224
-0.15094465 -0.13623896 -0.008381228 -0.110638626 -0.22326376 -0.28530928 0.07686105 -0.23986931
-0.08592457 0.12360739 0.12550613 0.1385157 0.020159429 -0.3079264 -0.03536528 -0.041664004
-0.060961146 -0.18899758 -0.1438726 0.110507056 0.16633566 -0.05480992 0.009334155 0.022854721
0.10112735 0.12305695 -0.0028498943 -0.17050184 0.00994959 -0.15404265 -0.1467055 -0.18685377
-0.20618415 -0.22893928 -0.22186317 -0.34796226 -0.17251138 0.03289824 0.02202529 0.037585404
-0.081855334 -0.059429538 -0.05653802 0.1204327 0.15613559 0.010425314 0.07756329 -0.10355193
-0.11548358 0.00888925 0.13552101 -0.021355448 0.005342139 -0.15423702 0.039156355 -0.32556078
-0.1740557 -0.08940547 -0.15310778 -0.027779879 -0.15066458 -0.09593479 -0.2721809 0.0076064044
-0.061198503 -0.0015542723 0.16283691 0.105928615 0.12948436 -0.0250215 -0.05382031 -0.21111439
-0.08898367 -0.102683134 -0.14899786 -0.12716597 0.08429985 -0.11436162 -0.07733677 0.037679423
-0.14648522 -0.06698352 -0.1747736 -0.26158568 0.024793446 0.1350246 -0.04563646 0.15453634
-0.08336317 -0.26188314 -0.0016805279 -0.119790725 -0.08051975 -0.092069045 -0.012307821 -0.12885839
-0.16653086 -0.10707079 -0.24949673 -0.060574543 -0.20747168 -0.12964259 0.015344602 -0.17818785
-0.07148511 -0.029541807 -0.0597442 0.04393468 -0.07097359 -0.18523365 -0.10551166 -0.23618108
-0.16039544 0.007788653 -0.14125572 -0.16070803 0.004757808 0.08119903 -0.07608383 -0.25056714
-0.020428576 0.055895492 -0.16871956 0.14343636 -0.26668122 0.03040676 -0.018610632 -0.045742474
-0.13049324 0.110965595 -0.2640788 -0.1019897 -0.062271204 -0.12986854 -0.08149366 0.04185587
-0.21662934 -0.09227542 0.07712538 -0.21249017 -0.09246355 -0.12833619 -0.07836054 -0.20898081
-0.27213678 -0.30791482 -0.27118906 -0.14016815 0.1435004 0.12818795 0.053213354 -0.18571728
0.054463543 -0.23283848 -0.2132697 -0.26165357 -0.031318814 0.07020283 0.02490098 -0.13776211
0.01270791 0.13407639 0.13148658 -0.20310728 -0.0032275724 0.117461614 -0.20155188 -0.029477896
-0.20179509 -0.41035834 -0.10975713 -0.009190208 -0.12064026 0.079333186 0.05720719 -0.19530897
-0.014525337 -0.009920953 0.01524781 -0.099925324 -0.13561217 -0.097616605 -0.13469383 0.21371424
-0.13731876 -0.037867293 0.07997826 -0.3110594 0.009109592 -0.14308257 0.09395763 -0.18697241
-0.31512174 0.05797794 -0.0859946 0.078559905 0.15963708 -0.099543296 -0.008744721 -0.35518485
-0.22329587 -0.09824963 -0.007832908 0.03197725 -0.014013365 -0.25790933 0.06496359 -0.15608291
-0.21765605 0.13606028 0.019386873 0.07220707 -0.07329661 -0.12222973 -0.22462204 -0.058242626
-0.12159137 -0.049403362 -0.04822031 -0.022684384 0.00984941 -0.14376917 0.07833305 -0.2630394
-0.31636846 0.080434546 -0.26654556 -0.067448676 -0.30358586 -0.13966279 -0.079134084 -0.40595976

weight f4 [1, 256]
00000000: 9271 2f3b 4d45 903b 5a92 813c bb41 763d
00000010: 43b4 86b9 f081 033d 2411 83bd 0441 5aba
00000020: 729d 75bc 54ae f3ba c85f f4b6 b90a 08bd
00000030: 536b 00bd b57f 51bb cc33 553c 5bb6 20ba
00000040: 362b 3bba ec50 b0bd 858f 97bd 3c20 73bb
00000050: 9148 2b3b 68f7 363d 88aa babb 72f7 f3ba
00000060: 024a 853d fd59 4cbd ad00 bf3d 4766 7fbd
00000070: 1917 1bbd 2a6b 2abb 4569 8db9 5e07 62ba
00000080: a474 363d d83a 32bd 2dba e83a 8729 52bc
00000090: 2f6c d2bb 1edc 0dbb b892 a0bd 484c bfbb
000000a0: 374d b8ba a1fe 953a 5283 68bc 8d5b c3bc
000000b0: a94f 203c 76b9 f53b 9348 803b 5c95 0bbc
000000c0: c8b0 8639 e34c 29bb 2e9e 8bba b6c9 0ebd
000000d0: 24c4 0d3b f676 d8bd 416d 84ba 0ecf a23d
000000e0: 1083 99bd c51b 6abc adee d93b b9c0 32ba
000000f0: c12e c6bb 833f 10be 376d a6b9 aba3 0abb
00000100: 1724 66bc 3618 e0bc e282 c1bc d7d6 163d
00000110: 74fb b4bd 25a3 49ba d958 443c 5e64 8bbb
00000120: daaf 42bc 79ca 03bb 2b89 143d 1a6a 3ebd
00000130: a660 9cb9 9fe6 003a 825b 843d 65a0 bfbb
00000140: a15f 10ba 770d 2dbb ad9f fd3a 2542 b4bd
00000150: 5c13 42ba b1e1 f7bd 4507 1f3b 3aeb 3b3b
00000160: 9a82 f43c eea4 0f3a 42ab b1bd b3c6 febc
00000170: fa28 d5bc e104 ca3d aa41 9eba 4ada 9cb9
00000180: f6e4 e2bb 62ed 99bd 8026 1f3d 90ec 42bd
00000190: 0d88 a33a 6603 8f3c 89d1 a1ba 77c8 81bc
000001a0: e20a 8eba 0e09 0b3b 3355 103a 3c61 d93d
000001b0: 18e0 8a3d 5991 8abd 8ad0 a4ba 11ef 17bd
000001c0: 1175 873d c166 80bc c1bc c7ba 545a 503d
000001d0: 9098 d23c 18c3 3d3b 03c5 b73a 0f0f 023d
000001e0: 4c58 70bb 0314 513b 1b34 1a3a 4081 623c
000001f0: 84e9 91ba b008 0239 0536 bebc 689e bc3d
00000200: d8d3 56ba ee16 9c3b be75 073b 5e71 44bc
00000210: cfa1 363d 5d00 5f3d bc53 35ba d5d7 e63c
00000220: 489d 03bb a351 0c3b 77bb 0c3b f0e6 c23c
00000230: 17ab afb9 9ef8 13bb 5fdc a13d e8fd ad3d
00000240: d211 033b 49cd 8239 d001 aaba 0efe abbd
00000250: d8a3 5cbb 4ce0 253c 6ead ccb9 cdbc e23a
00000260: 3727 373a 0b97 e0ba 8063 9d3d 6f02 703d
00000270: dcb0 e8bc 7864 fcba aa17 4f3a 4b54 8039
00000280: 0c71 80b9 82e6 17bd aa29 683a d525 983c
00000290: bcf6 4eba a7c5 7b3d b691 fd3d 0160 23bb
000002a0: 0b8c 843b 8428 30bc 0d9d 103c 7686 263a
000002b0: 1a04 05be e092 ee3d d65d e4bb f4c2 35bd
000002c0: d215 6d3d a8c2 98ba 4f6d 59bd 6246 39ba
000002d0: 034d 8b3a 1cc9 023c 6c62 5138 0a6b 853a
000002e0: ac6d 33be 8149 d53c ae9f 33ba c187 03bc
000002f0: baea 8d3a 654d 7ebb 7908 543c ab7f e7b9
00000300: 6099 3a3d 4e96 09bd 3e24 083c 986e 35bb
00000310: 8401 213c 439d 703d 8345 a5bb c625 523b
00000320: 257b 07bd eede 55bb 7ccf 79bb bd89 c8ba
00000330: 4563 d1ba c31b 4abb 5700 dbba 355a ef3c
00000340: 40f7 c03d bb37 49bd 23b1 b63d 6152 1dba
00000350: 35a4 08bd 38f7 ecba 3c05 9bbc 2e35 0dbc
00000360: 572f d0b9 af67 a13a 70a2 573b 4fd6 4abc
00000370: 004e fdbc 1f0b b5ba 1f76 a8bd 708c 7bb7
00000380: 56aa b4b9 8ac2 ef3a e963 54bc 1a23 30bb
00000390: 3309 ff3d 4f09 553c d4d5 ae3d 5e7d 903b
000003a0: 9500 4a3d adc9 19bb cc37 6cba f806 83bd
000003b0: 6f52 343d 4771 ba3a 4ffc 57bd 17ba ecba
000003c0: 7071 443c 051b 9cb9 8ef5 ec36 444e 133b
000003d0: a6cb 1ebd 163a eb3b eaf1 9cba 3e94 f03a
000003e0: 3ecb 06bd 0592 49bd 40bb 663d 879a a53d
000003f0: dd46 b33c ca45 303b 8298 2cbc 88bb ebb9
0.0026770574 0.0044027925 0.015816856 0.06012128 -0.00025692777 0.03210634 -0.06399754 -0.0008325728
-0.014991151 -0.0018591383 -7.282917e-06 -0.03321335 -0.031352352 -0.0031966988 0.013012838 -0.00061306887
-0.0007139923 -0.086091846 -0.07400421 -0.003709807 0.0026135782 0.04466954 -0.0056965984 -0.0018613173
0.065082565 -0.049890507 0.09326301 -0.0623534 -0.037863825 -0.0026003816 -0.00026972048 -0.00086223136
0.04454483 -0.04351315 0.001775568 -0.012827284 -0.006421588 -0.0021646093 -0.078404844 -0.005837951
-0.0014061098 0.0011443683 -0.014191465 -0.023847366 0.009784617 0.0074989153 0.0039149015 -0.008519497
0.00025690184 -0.0025833182 -0.0010652 -0.034860335 0.0021631802 -0.10569565 -0.0010103361 0.07949649
-0.07495701 -0.014288847 0.006650767 -0.0006818879 -0.006048054 -0.14086728 -0.0003174336 -0.0021154683
-0.01404669 -0.027355295 -0.02362198 0.03682598 -0.088370234 -0.0007691852 0.011984074 -0.004253908
-0.011882747 -0.0020109697 0.036263626 -0.046487905 -0.00029826647 0.0004917178 0.06462766 -0.005847978
-0.0005507414 -0.002640573 0.0019349955 -0.088016786 -0.00074033975 -0.12103594 0.0024265808 0.0028674142
0.029847432 0.00054795935 -0.08675243 -0.031100607 -0.026020516 0.09864212 -0.0012074013 -0.00029917277
-0.006924267 -0.0751598 0.038855076 -0.047588885 0.0012476459 0.017457675 -0.0012345772 -0.01584266
-0.0010836984 0.0021215114 0.000550586 0.10614249 0.06781024 -0.06766004 -0.0012574357 -0.037093226
0.066141255 -0.015673997 -0.0015238748 0.050867394 0.025707513 0.0028955396 0.0014020506 0.031752642
-0.0036673723 0.0031902797 0.0005882398 0.013824761 -0.0011132215 0.00012401002 -0.023219118 0.09209901
-0.00081950193 0.0047634756 0.0020669545 -0.0119899195 0.044587906 0.054443706 -0.00069170794 0.028179089
-0.002008276 0.0021410964 0.0021474042 0.02379176 -0.00033506073 -0.0022578607 0.079033606 0.084956944
0.0019999635 0.00024948482 -0.0012970511 -0.083980665 -0.0033666994 0.010124277 -0.00039039127 0.0017298699
0.00069867395 -0.0017134858 0.07684994 0.05859607 -0.028404646 -0.0019256016 0.00078999496 0.00024476866
-0.0002449829 -0.037085064 0.0008856306 0.018572727 -0.00078950427 0.061467793 0.12381308 -0.002492905
0.0040450147 -0.010751847 0.008826506 0.00063524337 -0.12989846 0.11649108 -0.006969194 -0.044375375
0.057882138 -0.0011654692 -0.05308276 -0.0007067678 0.001062781 0.0079825185 4.9921146e-05 0.0010178995
-0.17522305 0.026036026 -0.0006852102 -0.008027972 0.00108274 -0.0038803455 0.012941473 -0.00044154873
0.045556426 -0.033590607 0.008309422 -0.0027684327 0.0098270215 0.058743726 -0.005043687 0.0032065972
-0.033076424 -0.0032634097 -0.0038118055 -0.0015299838 -0.0015975019 -0.0030839301 -0.0016708475 0.029217819
0.09422159 -0.049125414 0.08920505 -0.000600135 -0.033359725 -0.0018079048 -0.018923394 -0.008618636
-0.00039708122 0.0012314225 0.0032903217 -0.012380197 -0.030920982 -0.0013812518 -0.08225655 -1.4993464e-05
-0.00034459186 0.001829223 -0.012963274 -0.002687639 0.124529265 0.013002708 0.08536878 0.004409476
0.04931696 -0.0023466155 -0.0009011 -0.063978136 0.044023927 0.0014224433 -0.052730855 -0.001806083
0.011989936 -0.0002977477 7.0619344e-06 0.002247707 -0.038768433 0.0071785552 -0.0011973951 0.0018354726
-0.03290867 -0.04921152 0.05633092 0.080861144 0.021884376 0.0026897066 -0.010534408 -0.00044962415

weight f4 [256, 1]
00000000: ef56 2ebe 6323 71bc 4488 28c0 bca9 9d3e
00000010: bbc8 2cbd 6c99 43be 1eeb 61bf 9033 90bd
00000020: 3f7b 8d3e b60b 7ebf 2810 b43d 2775 703e
00000030: 9039 503e 40ea 07bf de33 34bc 28b2 713e
00000040: a729 9ebd 9c7b cc3e 7fd2 01be 493f c13e
00000050: 6e01 48bd aba1 b73e ab14 6e3f 7cd9 14bf
00000060: 8867 17bf 9b75 023f 9d4e ce3e 6413 4a3f
00000070: a460 9c3e e73f 06be 3a3c 36bf e2fc 4ebf
00000080: 2b7c 20bd e8fe 5dbf c089 e0bc 140a 303f
00000090: 7ceb 58c0 70c6 96c0 52c4 6fbe ef6d 1d3e
000000a0: d582 04be fb2f b4bd 076a 4c3f cce8 e43e
000000b0: 4576 d23c b5bc d93e 7008 953e 9974 d63e
000000c0: 4daa 93bc 543d 79bd 30cf 91bd c4ed aabe
000000d0: a746 b33d 7a8b 2dbf 69c8 553d 16e2 783e
000000e0: 5ef9 a5c0 e5c8 aa3e 13ca 45bd c04d 68bd
000000f0: 7340 81bf 60bb a93e 34ca 29c0 d5b2 66bd
00000100: ee96 7c3e 9842 5c3f 3abd 4dbf 999d 533e
00000110: 00a6 803f 4ded 69be e314 9ac0 009a aabd
00000120: d700 453e feaf 41bf 6d2f 153f 62b4 903e
00000130: 5e33 36bd e015 13be ac1a d63e 66b7 aac0
00000140: 6607 77bd cdb3 bf3e dd11 0ebd 161c 233f
00000150: f0b2 89bd 5419 193f 714b ebbd a0c6 7dbd
00000160: ce4e ad3e 8097 ffbe 2a7a 193f 8e27 a43e
00000170: 7ab8 74bf a00d 3a3e 60dd 2bbf a980 0c3e
00000180: 69a8 2dbc 20fd 70bf 2906 8dc0 bc2a e43e
00000190: fc72 b5be 063d f13e 419d c7bd 4e25 7c3e
000001a0: 1046 c9bd f413 0cbf bdf0 983d 6e28 c13e
000001b0: 938c a93e b1f0 04be 60ac 83bd e5f1 863e
000001c0: 14cf a8be 8814 9ec0 a1c0 183e 7ff9 bbbd
000001d0: 5874 1fbf d0f5 70be 7742 be3d acd0 09be
000001e0: 1086 f3be 226c ab3d d1f5 2fbd 621b 10bf
000001f0: 526f 3fbd 8c4d 103d 50e6 28be eb27 133f
00000200: ff35 83bd 640b c4bd d461 82be ce57 41bf
00000210: ed6a b23e b116 bebd e196 40bd a09e 27bf
00000220: f5cc 43c0 8018 0f3c a01f 12bc 4c12 b83d
00000230: 50e0 793c 0ab4 613e c390 213e 205f ba3d
00000240: 39f7 023b 6065 333d 2aa0 f53d 9130 063f
00000250: b350 df3e 1863 ccbe a48b 9dbe 9975 e8bd
00000260: f830 eabe 136d 9b3e 5ca6 473f 5537 9d3c
00000270: 4e46 7cbf 865a 3dbd e02b 04bf ec0d 4bbf
00000280: 4776 a3bd 50f6 903e 32b8 72bf 2148 5dbd
00000290: 8403 8cbe 5d05 a43e a0da 513e 5bac 0d3f
000002a0: 6429 abbd 2422 de3e 061a b9c0 9d5c 4ebd
000002b0: 17d7 00be d2c3 15be 7556 4a3d 69e6 763f
000002c0: e62c c3c0 df7f cebd d53d 8b3d db65 88c0
000002d0: 44dd cebe c6f4 00bf 11ad 383f e8c2 4cbf
000002e0: 6867 3cbf 2e8c 52bf de15 3abf 4eaf fe3e
000002f0: f62f 32bf 61d6 99bd 9830 46be 96b1 62bf
00000300: 6e8d 4abf 6578 b03e cc1a 1a3f a648 bc3c
00000310: aceb 27bd a055 623f c356 c33e ea98 e3bd
00000320: 073f 89c0 7e2d 0ebf 7635 ecbf 4047 c8bd
00000330: 3257 ee3e 9050 fbbe 25d7 24bd ec44 ff3e
00000340: 5758 003f ec3a 693f f7ea 323f f525 f8bc
00000350: 02d3 fa3e 207d 2fbe ee75 7abf 6088 113f
00000360: 23a8 83bd 20df febd 3737 0fbd 2dfc c63e
00000370: 233e a83e 058d 34bc f83c e13e 051d 80bd
00000380: 21bf 68bc aa6d 14bf 57ea e63d 28d5 82be
00000390: 696e de3c 6dbc e5bc 63ec bc3e 2abc fcbd
000003a0: 8531 8abe ccfe 4abf a4a1 8f3d 9458 c13e
000003b0: fa60 8ec0 9e54 943d a8bc 153e 1052 e4bd
000003c0: 2551 3ebe bb1f 50bd 006c cfbd f12d 5fbd
000003d0: 12fe 08bf a659 67be eb23 87bd 508f 10be
000003e0: 4bee 73bf 38f5 79be 00eb 84be 249d e23d
000003f0: 03a6 0cbe 8827 f5bd ad0c 5cbe d731 91bb
-0.1702535 -0.0147179095 -2.633317 0.3079356 -0.04218362 -0.19101495 -0.88249385 -0.07041085
0.27633092 -0.9923662 0.08792144 0.2348219 0.20334458 -0.5309181 -0.010998694 0.23603117
-0.07722788 0.39938056 -0.12677954 0.37743595 -0.04882949 0.3586553 0.93000287 -0.58144355
-0.5914235 0.509607 0.40294352 0.7893584 0.3054248 -0.13110314 -0.7118565 -0.8085462
-0.039180916 -0.8671708 -0.027409434 0.6876538 -3.3893728 -4.7117233 -0.23414734 0.15373968
-0.12940533 -0.08798214 0.79849285 0.4470886 0.025691161 0.42526785 0.29108 0.41885832
-0.018025542 -0.060849503 -0.07119596 -0.33384526 0.0875371 -0.6779095 0.05219308 0.24304995
-5.1866903 0.33356395 -0.048288416 -0.056714773 -1.0097793 0.33150768 -2.6529665 -0.05632289
0.2466695 0.86039114 -0.8036686 0.20665587 1.0050659 -0.2284443 -4.8150496 -0.083301544
0.19238602 -0.7565917 0.5827549 0.2826262 -0.04448258 -0.14363813 0.41817224 -5.3348875
-0.06030979 0.37441865 -0.034685005 0.6371473 -0.06723583 0.5980427 -0.11488999 -0.061957
0.33849186 -0.49920273 0.5995203 0.32061428 -0.9559399 0.1816926 -0.67134666 0.13720955
-0.010599234 -0.9413624 -4.407002 0.44563854 -0.3543929 0.4711687 -0.09746791 0.24623606
-0.098278165 -0.54717946 0.07467792 0.37726158 0.33115062 -0.12982441 -0.06429362 0.26356426
-0.32970488 -4.9400063 0.14917232 -0.09178447 -0.622869 -0.2353127 0.09290021 -0.13458508
-0.4756322 0.08370234 -0.04295904 -0.5629178 -0.046737023 0.035230204 -0.16494107 0.57482785
-0.06406783 -0.09572485 -0.25465262 -0.75524604 0.34847203 -0.09281672 -0.04701889 -0.6547642
-3.0593846 0.008733869 -0.008918673 0.08987865 0.015251234 0.22041336 0.15777878 0.09100175
0.0019983782 0.04379785 0.119934395 0.52417856 0.43616256 -0.39919353 -0.307706 -0.11350555
-0.45740485 0.30356655 0.7798822 0.019191423 -0.98544776 -0.046228908 -0.5162945 -0.7931812
-0.07981544 0.28312922 -0.9481231 -0.054023866 -0.27346432 0.32035342 0.20493555 0.5534112
-0.08357504 0.43385422 -5.7844267 -0.05038129 -0.1258205 -0.14625481 0.049398858 0.9644533
-6.099231 -0.10082983 0.06798903 -4.2624335 -0.40403187 -0.50373495 0.7213908 -0.79984903
-0.73595285 -0.8224515 -0.72689617 0.49743122 -0.6960443 -0.07511593 -0.19354475 -0.88552225
-0.79122055 0.34466854 0.6019714 0.02298386 -0.04099624 0.88411903 0.3815213 -0.111131504
-4.288944 -0.55538166 -1.8453815 -0.09779215 0.465509 -0.49084902 -0.04024424 0.4985727
0.50134796 0.9110553 0.6988978 -0.030291537 0.4898911 -0.17137575 -0.97836196 0.56848717
-0.06428554 -0.124449015 -0.034964766 0.3886427 0.32859907 -0.01101995 0.43991828 -0.06255535
-0.014205725 -0.57979834 0.112751655 -0.2555325 0.027152257 -0.02804395 0.368991 -0.12340577
-0.26990905 -0.7929504 0.070132524 0.37762892 -4.449338 0.07242702 0.14622748 -0.11148465
-0.18585642 -0.05081151 -0.10128021 -0.054487173 -0.5351268 -0.22592792 -0.06598648 -0.1411717
-0.9528548 -0.2440995 -0.2596054 0.110651284 -0.13735203 -0.119704306 -0.2148921 -0.00443099

bias f4 [256]
00000000: 81bb 2c3f 72d8 a9ba d571 c03e 8e07 adbf
00000010: 6d8f 9f3e 20dd 8a3f b0b9 75bf 76c0 953e
00000020: d26a 9bbf a458 9ebe 9205 cf3d 6ab0 e83e
00000030: 66a4 d63e fc05 6fbf 3b97 cb3c 1022 a6bf
00000040: 6a8d 8f3e 2213 1f39 904d 093f 27d4 c93e
00000050: d4af 8d3e d098 9d3e 9320 20bf 3878 a5be
00000060: a8ad 8bbe d7bc fd3e b7e8 373f 33c0 23bf
00000070: b49a acbf 4ef9 143f 7605 36bf 88e6 8fbe
00000080: 57d7 5e3e 605b d2bd b852 80be d0ef 5a3f
00000090: f2ef e73e cbca 813e b260 803f a4dd 30bf
000000a0: be3e e03d e865 123f 0e8e 43bf e743 fabf
000000b0: 10d1 4ebe 7e65 04bf ee5d 443e 5961 ebbf
000000c0: d939 983c 423a da3e 10af f6be 8080 6cbc
000000d0: a165 0ebf cc74 59bf b098 2b3e 3153 b1bf
000000e0: 2a3f 1a3f 3f48 193f 0a3c 893e aceb fb3e
000000f0: e5e5 0b3f 8a0c 3739 ec84 843d 00f4 9f3e
00000100: 56a2 4a3d 7c8b 2cbf cc13 48bf b9f2 e93c
00000110: bd61 87bf 96fe f23d 54c2 203e c4f3 bdbe
00000120: 01f6 5cbf c02b 00bd d2ff 443f dc02 143a
00000130: ee31 a83e 56e2 12bf 800a fa3e 7183 133f
00000140: d5e2 013f 6b9f abbb c780 6b3e 6032 413f
00000150: 401a 30bd c0a4 803e b9e3 c13e 0c12 b3be
00000160: 8470 183b 40ba 20be c1c6 dbbe f875 3c3f
00000170: d8f5 2ebf c565 85bf 80a9 fbbd 5c96 ec3e
00000180: 9c80 5a3d 20f2 e7bd e18b 3a3f 6e92 ab3e
00000190: 0015 9dbc 9fd2 f2bf 1cae 513e 99f0 b3bf
000001a0: 20fd 39bf a005 f3be 9f3b e43e 3c9f d3bf
000001b0: 20f5 babf a674 6c3f 729d 78bf a0a0 94bf
000001c0: d464 2bbf 55a6 d73e 8b79 b53e 1d5c c33e
000001d0: 64a3 a2be 1810 babe 3b40 13bf 33cd 433f
000001e0: c071 c2bc 3898 23bf 4ae1 9c3e 0c92 ebbe
000001f0: a669 ab3e 92a3 a4be a858 c1be ecc4 7f3f
00000200: 5205 ef3d 9c61 1f3f 0017 7bbe 80ea 27bf
00000210: ef8f 763e c1d0 063f 3587 4f3e 4c84 3bbf
00000220: 2fb0 2f3e 8079 d1be 10c6 9d3c 8a51 033f
00000230: 84e3 11be fe22 36be e34b 6e3e b806 52bf
00000240: e7d7 53bd ee57 5abf 882a 45bf cb6d 11c0
00000250: 1158 443f d660 79bf 88ac c1be 6725 6c3e
00000260: c87c a5be e7a4 abbf 7320 3b3f c9f6 193f
00000270: 201d 53be 5572 573e ecf6 c6be f0e4 5abf
00000280: 5710 aa3e 0164 a0bf 1072 0ebf 20aa 1d3e
00000290: 0000 65bd 9f7d b4bf 6691 343e f8f0 a53a
000002a0: c985 463f a611 293f 742a a63e 91dd 8f3e
000002b0: 9042 0a3f a6b9 533f cae6 38bb f568 26bf
000002c0: f839 c13e 5676 d53e 0f3e ed3e a227 d1b9
000002d0: b03f 9cbe c052 75be 85f3 ebbf 3b1e cf3e
000002e0: 98af 42be 5080 24bf 200f 60bd 5658 0ac0
000002f0: 8000 4bbc f968 5dba 1cfc 1abf 3418 9ebe
00000300: b85f 56bf 6bf3 ea3e 1834 b23e 7870 9d3e
00000310: 729d 893d c65c 6cbf 9039 893e dfa6 213f
00000320: d64b 0d3f d07f 8bbe 6e2a e03e 695e f83d
00000330: 8e3b 053d d0e8 77be 95ea 203e e2b8 07c0
00000340: b78e ef3e 8932 553f 9ab9 4f3e 731f f83d
00000350: a893 85b9 10e1 76be e0c3 33bd 9bc9 2dbf
00000360: a304 e63e e060 6dbf 87db 2e3d 6db9 ee3c
00000370: fa68 b9bf 1d66 82ba 3747 f6bf c702 213e
00000380: 1340 ae3e 2811 3cbe ab18 00bf 14de 6dbf
00000390: acaf 043f dc61 1e3e 1d1e 443f 7aca 323f
000003a0: 4214 52b9 4274 10bf ff19 b1be 6afc d3bf
000003b0: ebcf dd3e 15ac e2be be29 8fba a0a7 d5bd
000003c0: 10e1 463f e8dd bc3e 627b 5dbf e3f8 713e
000003d0: 8696 19bf c827 793f c0ed 3f3e 9967 4c3f
000003e0: 28e9 c5ba df97 863f 6761 8f3f 3ed7 9e3e
000003f0: 4b66 153f 52f7 3e3e 65e4 6d3f 8083 043e
0.6747361 -0.0012958182 0.37586847 -1.351793 0.31164113 1.0848732 -0.9598646 0.292484
-1.2141974 -0.30927002 0.10108484 0.45447093 0.419223 -0.93368506 0.024852386 -1.2979145
0.28037578 0.00015170549 0.53633976 0.39419672 0.2767321 0.3078065 -0.62549704 -0.32318282
-0.27280927 0.49558136 0.7183947 -0.6396515 -1.3484712 0.5819291 -0.7110208 -0.2810557
0.21761833 -0.10271335 -0.2506311 0.85522175 0.4530025 0.2535003 1.0029509 -0.69088197
0.10949467 0.57186747 -0.76388633 -1.9551972 -0.20196939 -0.51717365 0.19176456 -1.8389083
0.018582271 0.42622572 -0.48180437 -0.014434934 -0.55623823 -0.8494384 0.16757464 -1.3853513
0.6025263 0.59875864 0.2680362 0.4920324 0.54647666 0.00017456911 0.06470665 0.31240845
0.049471222 -0.67400336 -0.7815521 0.028558122 -1.0576702 0.11864965 0.1569913 -0.3710004
-0.8631287 -0.031291723 0.7695285 0.0005646178 0.32850593 -0.5737661 0.48836136 0.5762244
0.50736743 -0.00523751 0.22998343 0.7546749 -0.042993784 0.25125694 0.3786905 -0.34974706
0.0023260424 -0.15696049 -0.42925075 0.73617506 -0.6834388 -1.0421683 -0.12288189 0.46208465
0.053345308 -0.113254786 0.7286969 0.33510154 -0.019175053 -1.8970526 0.20476574 -1.40578
-0.72651863 -0.4746523 0.44576737 -1.653297 -1.4606056 0.9236549 -0.9711524 -1.1611519
-0.66950727 0.4211909 0.35444292 0.38156214 -0.31765282 -0.36340404 -0.5751988 0.76484984
-0.02373588 -0.6390414 0.30640632 -0.46009862 0.3347904 -0.32156044 -0.37762952 0.99909854
0.11670937 0.62258315 -0.24520493 -0.65592194 0.24078344 0.52662283 0.20266421 -0.73248744
0.17157052 -0.4091301 0.019259483 0.51296294 -0.14246947 -0.17786786 0.23271136 -0.820415
-0.051719572 -0.8529042 -0.7701802 -2.2723262 0.7669688 -0.97413385 -0.37826943 0.23061143
-0.32321763 -1.3409699 0.7309639 0.6014219 -0.20616579 0.21039708 -0.3886026 -0.8550558
0.3321559 -1.2530519 -0.55642796 0.15396929 -0.055908203 -1.4100837 0.1763359 0.0012660315
0.7754789 0.66042554 0.32454264 0.2809873 0.54007816 0.8270515 -0.0028213733 -0.650039
0.3773954 0.41691846 0.4633641 -0.00039893115 -0.3051734 -0.23957348 -1.8433691 0.40452752
-0.19012296 -0.6425829 -0.054701924 -2.1616416 -0.012390256 -0.0008446123 -0.6054094 -0.3087784
-0.83739805 0.45888838 0.3480537 0.3074987 0.067194834 -0.9232906 0.2680173 0.6314525
0.5519384 -0.2724595 0.4378237 0.12127382 0.0325275 -0.24209905 0.15714486 -2.1206594
0.4678857 0.83280236 0.20285645 0.121153735 -0.0002547775 -0.24109292 -0.043887973 -0.6788575
0.44925413 -0.92725945 0.042689826 0.029141152 -1.4485161 -0.0009948645 -1.9240483 0.15723716
0.3403326 -0.1836592 -0.5003764 -0.9291699 0.51830554 0.15467018 0.7660845 0.69840205
-0.00020034707 -0.56427395 -0.34590146 -1.6561406 0.4332269 -0.44271913 -0.0010922474 -0.104323626
0.7768717 0.3688805 -0.8651639 0.23630099 -0.59995306 0.97326326 0.18743038 0.7984558
-0.0015099393 1.0515097 1.12016 0.31023592 0.5835921 0.18649033 0.9292663 0.12940788

weight f4 [1, 256]
00000000: 1ed2 343c b841 083c 6feb 8b3d 2443 753c
00000010: 9ee6 92ba 2fed 513d 67b0 b5bb 09a8 be38
00000020: 9207 0c3d 9e6b 2d3b 5cd0 0c3d 8ba3 acbb
00000030: f386 2c3d ca98 9f38 90ef 15bd bada 0cbb
00000040: 2a71 68b9 5a70 8cbc d24d bb3d ace5 453c
00000050: c987 a83b 7d24 043c f2ed 513d da81 6b3b
00000060: c598 803d 73fd 03ba 6253 3fbd 46b5 b53c
00000070: a560 92bc 2945 043b 7d98 063b d0c3 4d3a
00000080: f925 e9bc cfb0 89bd 9300 ff39 6a35 e43d
00000090: 9362 3cbd 7e10 583b 220f 8a3d 641f 2d3c
000000a0: 33ff 253b 8d21 303a 9fb7 6bbb 41a3 3cbd
000000b0: ae85 87ba 6118 b3bd 2fa5 27bd e0ab 96bd
000000c0: cbdb 06bc 45ad d43d 47e2 643b f0a5 a4bc
000000d0: 968c 5cbb 2206 9bbc 9be2 2c3a a771 58bd
000000e0: 2f9d 373b 8f5d ba3d ff23 16bd 2d12 63ba
000000f0: 905b e8ba 44f8 003c 930f 97bb 75f6 bf3c
00000100: bdad 6bba b295 183b dcca 19bd 84b0 333c
00000110: caac 48bd 3638 453b e83b 4fbd 9b79 e83c
00000120: bcaf ed3c 3639 bf3a 824e c73d 7e3b 48bd
00000130: e257 713a 5821 853a d062 853d 6532 a0bc
00000140: 9619 d0ba d079 19bd e16d 77bb a6b4 6abc
00000150: 06dd fa3c 48aa cc3c bcbd f2bb aa84 93ba
00000160: 8ea0 9abd 74d9 40bb 06c9 5f3c 3a17 ac3d
00000170: 7183 58bd 73f3 08bc f994 3339 40db 6fbb
00000180: 62ee 5abb bee3 3e3d e814 fabb dbba 933c
00000190: 1024 6abb 8187 8d3d 7090 e03a bf89 a4bc
000001a0: afca 8b3a 7323 8abb 4061 253b c59e bfbb
000001b0: 3f0e aeb9 5e46 803d 6e58 503b 77d8 d2bc
000001c0: 9dbd 08be a54b 9b3b 535f 223b 43ca 293c
000001d0: c7e5 75bc 39d3 e7bb 5536 b7ba 520a 0bbd
000001e0: 371d 1e3d e41b 21ba da2c abb8 9e2a 9c3c
000001f0: 5e8e 53ba ebb4 ce39 e6eb 4b3b b410 443d
00000200: 9cda 233b 0073 ebb9 4010 83ba ab4c 423d
00000210: edff 953c 1f3d d6bd b5f2 9dba 4f71 1fbd
00000220: 3ef5 883b 5f91 0d3a ab68 0dbd 5c73 ad3b
00000230: 3d3c bc3a 78c5 bdbb 283e 1bbd c53f cbbc
00000240: 2100 3e3a 6b87 9e3a 1493 183b 4749 053c
00000250: acd9 823d 9620 d63a 8aaf fe39 e4bd e13c
00000260: 14ab 59ba b242 52bd c38a a9bc aa07 183c
00000270: 2d13 15bd 8fd2 3ebb 5e95 91b9 d2db 7bba
00000280: d2de 543a ab5f a9bd 9050 adba fb9a 3abc
00000290: 484e 923b bf6e 16bb c4b6 d63c d97a 96bc
000002a0: 0cde 043d 9a1e 7e3d b583 78bd f6d5 08bc
000002b0: 63bd 18bb 141b cd3c 8d58 bbbb 9770 f0bc
000002c0: ad6b 653c 477f 23ba 5739 773d 17d4 08bb
000002d0: 4ad6 2cbb 5d95 5fbc 8063 583d 631e 3c3b
000002e0: 5ce7 c73d 0b1d 633d 943d 7aba 84ff 033d
000002f0: 3279 563d 4323 7c3d 1b35 9ebd 9e2b f43a
00000300: 1f69 5f3d 0923 1abd 4a0b 3cbd 9719 c63c
00000310: 76fa 45bd 41d1 5e3d 8e4a 453d 4b5f b2ba
00000320: 7098 fa3b 7677 f93c cb50 b4b9 74ac 1d3b
00000330: 4034 e43c 11f9 d83a be35 fc3a 6ffa 7d3d
00000340: d8c3 96bc ef53 13bd df53 b6bd 03e8 833a
00000350: 3731 20bd ed99 bebb 0d4b b53d 4652 f7bc
00000360: b60b 4739 8cbd 35bd c602 d93a b298 f33b
00000370: 258e 2cbd 965c e839 e731 41bd 0e75 8abc
00000380: c97e 99ba 1019 c1bb 56f7 143b 0464 253b
00000390: 75d0 92bd c85c 86bd 7872 d33c 0036 22bc
000003a0: 693e f8ba 08bd 35b9 742d d13a eccc 65bc
000003b0: 90de 5e3d 3c53 2c3a c372 153c 3c88 a53a
000003c0: 9bbd b73c f75a e9b9 7170 b639 0a28 32bb
000003d0: e3a3 43bc 7e18 4fba 430d a53a 6655 66bb
000003e0: e8dd 8d3c e3bc 113d 5516 7a3c 348e c03c
000003f0: f7be d63a 227a c3bb f213 acbd 7f69 9cbb
0.011036424 0.00831645 0.06832015 0.014969621 -0.0011207645 0.051251587 -0.0055447104 9.091205e-05
0.034186907 0.002646185 0.034378394 -0.0052685193 0.042120885 7.61017e-05 -0.036605418 -0.0021492676
-0.00022167401 -0.017143417 0.091457024 0.012078684 0.00514314 0.00806534 0.051252313 0.0035935552
0.062791385 -0.00050350203 -0.04671038 0.022181164 -0.01786835 0.0020182824 0.0020537667 0.0007849308
-0.02846049 -0.06723177 0.00048637818 0.111430004 -0.045992445 0.0032968814 0.067411676 0.010566566
0.0025329113 0.00067188666 -0.00359676 -0.04605413 -0.0010339522 -0.08744884 -0.040929016 -0.07357001
-0.008231114 0.10384611 0.003492491 -0.020098656 -0.0033653132 -0.018923823 0.0006595046 -0.052842762
0.0028017273 0.09099876 -0.036655422 -0.0008662071 -0.0017727483 0.007871691 -0.004610011 0.02343295
-0.00089904276 0.0023282585 -0.037546977 0.010967378 -0.04899291 0.0030093319 -0.05059424 0.028378299
0.02901446 0.0014589194 0.09731771 -0.04888486 0.0009206516 0.0010157032 0.065129876 -0.01955528
-0.0015876766 -0.037469685 -0.0037754702 -0.0143252965 0.03062297 0.02498354 -0.007407872 -0.0011254747
-0.075501546 -0.0029426487 0.013658768 0.084028676 -0.052859727 -0.008358824 0.00017126267 -0.003659919
-0.0033406247 0.04660391 -0.0076318868 0.018033436 -0.0035727061 0.06910611 0.001713289 -0.020085214
0.0010665263 -0.0042156517 0.0025234967 -0.005847784 -0.0003319848 0.062634215 0.003179099 -0.025737984
-0.13353582 0.004739242 0.0024776056 0.010363164 -0.0150083965 -0.0070747402 -0.0013977984 -0.03394539
0.03860208 -0.00061458186 -8.16227e-05 0.01906329 -0.00080702256 0.00039426176 0.0031115948 0.04786749
0.0025002128 -0.00044908375 -0.000999935 0.047436398 0.018310511 -0.10460877 -0.0012050482 -0.03892642
0.004179626 0.0005400385 -0.034523647 0.005293293 0.0014361214 -0.0057913624 -0.037901074 -0.024810681
0.0007247944 0.0012094801 0.0023281025 0.008135146 0.06389174 0.0016336616 0.00048577442 0.027556367
-0.00083033857 -0.051333137 -0.02069605 0.009279171 -0.03639524 -0.0029117202 -0.00027767842 -0.0009607646
0.0008120361 -0.082702 -0.0013222862 -0.011389489 0.0044648983 -0.0022954193 0.026210196 -0.018369125
0.032438323 0.062040903 -0.06067248 -0.0083517935 -0.0023306243 0.025037326 -0.005717343 -0.029350562
0.014002723 -0.00062369223 0.060357418 -0.0020878369 -0.0026372843 -0.013646451 0.052829266 0.0028704635
0.09760925 0.05544762 -0.0009545919 0.0322261 0.052361675 0.061557066 -0.07724973 0.0018628722
0.05454361 -0.03763107 -0.045909204 0.024182124 -0.04833456 0.05439878 0.048166804 -0.0013608722
0.0076475665 0.030452471 -0.0003439247 0.002405909 0.027856946 0.001655372 0.0019242091 0.06200641
-0.018403932 -0.035968717 -0.08902716 0.0010063652 -0.039109435 -0.005816689 0.088522054 -0.030190598
0.00018982482 -0.04437022 0.0016556613 0.007433974 -0.042127747 0.0004431947 -0.04716673 -0.01690152
-0.0011710759 -0.0058928803 0.0022730432 0.0025236616 -0.07168666 -0.06560665 0.025811419 -0.00990057
-0.0018939498 -0.00017331925 0.0015958981 -0.014025908 0.05441147 0.0006573682 0.0091216 0.0012629102
0.022429278 -0.00044508997 0.0003479752 -0.002718451 -0.011940929 -0.0007900073 0.0012592453 -0.0035146116
0.017317727 0.035580527 0.015264113 0.023505308 0.0016383816 -0.005965487 -0.08402242 -0.0047733183

weight f4 [256, 1]
00000000: 0aaa 1f3f 0047 3bbc 20d4 5a3e a04e 08bf
00000010: 450c 65bf 7b6e 5a3f 9305 ac3e 976f ddbd
00000020: 1cd4 8bc0 2eaa 8abc f97e 73be e4a3 cdbe
00000030: 5bae 293e 5868 88be cc17 a0be a4d4 cebe
00000040: 3020 8dbe ca11 c43d e74d 89c0 86ed c83c
00000050: 109e 47be fe67 3dbf fa11 70bf c89a f9be
00000060: 88a5 b63e 2db0 f6be 5ba5 3c3f d0f0 bfbd
00000070: 0568 873e 0605 29bf e409 ef3c fd76 75bd
00000080: f85d e8be 7848 d03e 5c3f 5abf 8013 1f3c
00000090: 0427 d13e b436 8cbd 2551 813e 00e4 7c3e
000000a0: c868 2abf c6ac d43d c34f b7bf a0bc adbe
000000b0: 5ea6 043f 4387 0e3f 74f7 9bbe d54e f13e
000000c0: f282 91bf 54c1 b23e 0c7d 90be 9393 1d3f
000000d0: df63 debf 80fa 18bc 26d8 13bf 624e b33e
000000e0: 702b 69bf cbcb ac3e cd66 b8bc 7602 223d
000000f0: ddde 983d 4f6b 053e 4049 7fbf 4270 f4be
00000100: e22e 54bf 017f 4b3f 79f3 d33e eb79 e7be
00000110: 17a6 3b3f 8216 973c 87de 0f3f b260 12bf
00000120: 9639 c13d 7941 03bd 02bf 28bf 0b9a dcbe
00000130: ce43 e63d d16f 35bf 4805 153f da6a 433e
00000140: 40ac 0ebd 8358 d53e deb8 a73d c812 18bf
00000150: 7b8c 71bf c032 e43e 7839 843e fc69 61bf
00000160: 0ced 673f 261a 47bd f037 d3be cbb8 b73e
00000170: 1e85 d0be 51ce 933e b05a cdbe 1a1b 2bbf
00000180: 886e 5fbf f663 20bf dacf 4f3f 59a5 d63d
00000190: 8c66 25bf 5b5b 283f 5bfe aa3d 3fb7 fb3e
000001a0: 57b5 60bd 3247 61bf b2d8 8abf a6d6 b83e
000001b0: f6f3 b6bc c7fa 983e 3a07 54bf 24f9 edbe
000001c0: 603b 1a3f b3e1 cc3d ea8b 1fbf 94ff c2bd
000001d0: 33a2 1e3f 9a34 813e f4eb fbbe e314 fc3e
000001e0: 2743 933e d81c 9dbe 1ec9 84bf 0564 b93e
000001f0: b067 f0be dfa5 4fbd a028 8abf 868f 793f
00000200: f904 d4bb 6071 5bbe 2445 29bf 1fb8 e9bc
00000210: 4da3 cfbe c7bc 133f 5846 27be 5547 df3e
00000220: 1456 cbbc 0771 68bf 347b c6be d283 a63e
00000230: ebdf a43c 27d3 b23e 1474 e93e e068 5b3e
00000240: f07c 79bf b9d3 af3d 32f8 39bf 40c0 5fbf
00000250: cc28 35bf 80e0 acbd ee42 f7bc 59e5 083f
00000260: 9437 d6be 1633 2abf 052a 293f 3854 e93e
00000270: bdc2 633f 2210 033e 5296 37bf e44d 55bf
00000280: 80f1 8dbf a614 243f c5b7 0dc0 1810 07be
00000290: 44f1 2e3e 90c5 68be 3b77 70bf deae cd3e
000002a0: b322 2fbe f30b 61bf 3eb5 86be dc4f c9be
000002b0: 8475 72bf 08d6 673f 5466 c0be ee0e 733e
000002c0: a110 1ebd 827d 06bf f4bd 6c3c 2af6 65bd
000002d0: cb07 24bf 596d 5d3e e377 303e a317 0abf
000002e0: 188a cf3e 0235 d23e c7c4 9abe 38a0 33bf
000002f0: c016 8bbd aeab af3d deac f53e 727c 29bf
00000300: 9fd4 16be ea12 173f 2f96 fc3c 0032 7abe
00000310: c49a f23e d8db 63be 460a 51bf 43e3 4c3e
00000320: e41a 6cbf 45c7 81be 00c0 0ebb 7a47 0ebf
00000330: 4bbd 053f d4e3 cebe 6efc 50bd 187b 54be
00000340: efe7 d5bf 3b10 3a3f e08c 5a3f d1a3 88bd
00000350: 306b 57bf 67fe 483e 3a15 a03e a72e 353e
00000360: 09dc efbc b171 253f 3b07 74bd 90a5 c0bd
00000370: 515c 53bc ebf6 57bd 6073 df3e 5dc3 913d
00000380: de29 72c0 a9bf c7be e03c 61bf 2e28 ab3d
00000390: 4e05 a03e 3613 babd 95af 613f 0f5f bd3e
000003a0: 93f3 743f 6051 1ebe 94fd f4bc 0f6d 463f
000003b0: a34e a5bd 2e7c 50bf 5bb2 c0be 690d 21bf
000003c0: cd74 083f 808b a73d a621 8ebb 0737 84bf
000003d0: 773b 1cbf b5f1 c93e a137 793b d33f 283e
000003e0: 44d8 b73c c0ed 303d eaeb 973d 4e85 4ebf
000003f0: 9ea3 6fbf 74ed 393e 3aee b13e a132 9dbd
0.62368834 -0.011430502 0.21369982 -0.5324497 -0.89471847 0.8532483 0.33598003 -0.108123
-4.3696423 -0.016926851 -0.23778905 -0.401641 0.16570418 -0.26642108 -0.31268156 -0.40396607
-0.2756362 0.095737055 -4.2907596 0.024527323 -0.1949389 -0.73986804 -0.9377743 -0.487509
0.35673165 -0.48181286 0.7368981 -0.09372103 0.26446548 -0.6602329 0.02917952 -0.05992793
-0.45384192 0.4068029 -0.8525293 0.009709239 0.4085008 -0.06846371 0.2525722 0.2469635
-0.66566133 0.103845164 -1.4321216 -0.33932972 0.51816356 0.55675143 -0.3046223 0.47130457
-1.1368086 0.34913123 -0.28220403 0.61553305 -1.7374228 -0.009337068 -0.5775169 0.3502074
-0.91081905 0.33749232 -0.022509957 0.03955313 0.07464383 0.13029216 -0.99721146 -0.47741896
-0.8288404 0.7949067 0.41396692 -0.45210204 0.7330031 0.01844335 0.56198925 -0.57178795
0.09434812 -0.03204486 -0.65916455 -0.43086275 0.112434015 -0.70873743 0.58211184 0.1908373
-0.03483224 0.41669092 0.081895575 -0.5940366 -0.9435498 0.4456997 0.25825095 -0.88052344
0.9059608 -0.04860892 -0.41253614 0.35883173 -0.4072656 0.28868344 -0.40108252 -0.6683823
-0.8727803 -0.6265253 0.8117653 0.10480756 -0.646096 0.657644 0.08349296 0.49163243
-0.05486044 -0.8799926 -1.084738 0.36101264 -0.022333127 0.29878828 -0.82823527 -0.46479142
0.6024685 0.10003986 -0.62322867 -0.09521404 0.61966246 0.25235444 -0.49203455 0.49234685
0.2876217 -0.3068607 -1.0373876 0.3620912 -0.46954107 -0.050695296 -1.0793648 0.97484624
-0.0064703193 -0.21429968 -0.66121125 -0.028530179 -0.40554276 0.57709926 -0.16335428 0.4360911
-0.024821319 -0.90797466 -0.38765872 0.32522446 0.020126304 0.3492672 0.45596373 0.21426725
-0.97456264 0.08585305 -0.7264434 -0.87402725 -0.70765376 -0.084412575 -0.030183282 0.53474957
-0.41839278 -0.664842 0.6607974 0.45572066 0.8896902 0.12799123 -0.71713746 -0.83321977
-1.1089325 0.64094007 -2.2143414 -0.13189733 0.17084223 -0.22731614 -0.9393193 0.40172476
-0.1710308 -0.8790886 -0.26310152 -0.3931874 -0.94710565 0.9056096 -0.3757807 0.23736164
-0.038590077 -0.5253526 0.014449585 -0.056142963 -0.6407439 0.21623744 0.17233233 -0.53942317
0.40535045 0.41056067 -0.30228254 -0.7016635 -0.067914486 0.08577667 0.4798345 -0.66205513
-0.14729546 0.59013236 0.030833332 -0.24433136 0.47383702 -0.22251832 -0.816563 0.20008568
-0.9222853 -0.25347343 -0.0021781921 -0.55577815 0.52241963 -0.40408194 -0.051021986 -0.20750082
-1.6711406 0.72681016 0.8537121 -0.066718705 -0.8414793 0.19628297 0.31266195 0.17693578
-0.029279726 0.64626604 -0.059577208 -0.094065785 -0.012900428 -0.052725714 0.43642712 0.07117341
-3.7838054 -0.39013413 -0.8798351 0.08357273 0.31254047 -0.090856954 0.8815854 0.36986586
0.95684165 -0.1546073 -0.029906072 0.7751016 -0.080716394 -0.81439483 -0.37636074 -0.6291109
0.53303224 0.081809044 -0.0043375073 -1.0329293 -0.61028236 0.3944222 0.0038027542 0.16430597
0.02244199 0.043195486 0.07418044 -0.80672157 -0.93609035 0.18156987 0.34752065 -0.07675672

bias f4 [256]
00000000: 4b97 d5be 9810 adbe 9416 56bf e0d9 b5bd
00000010: e183 30ba b8c4 cb3d 2fb3 62bf 2899 b73d
00000020: 55f6 fb3d 424a 673d 3cfe 643f a844 36bf
00000030: fd63 0f3f 807b 25bf 1cbe 613f 0068 83bd
00000040: 300a 57bf 1605 5bbf ba4a 183e 7aaf 503e
00000050: d09f 4fbe 2c3e 2fbf a2ae 2ebf 2ea8 18bf
00000060: 4f70 b1bf eaac 96ba e8ae 2f3e f493 2abf
00000070: d2d1 5e3f 5097 90be 6a6e 98be 1040 963e
00000080: 65b8 893e 6336 8cbf 62bf 3fbf c461 19bf
00000090: 7591 56be 81f3 963e 9e5b a83e f2cf 7ebf
000000a0: 587c 30bf 2cae 7cbf f627 5a3e da01 6abf
000000b0: e6e9 97bf 2e4e a7bf b443 30bf d5e4 90bd
000000c0: d3a6 123f 2ffe acbf 1eb2 63bf d641 f63e
000000d0: df6a 51ba 7626 4fbf f831 67be 7a2e 273f
000000e0: 85b9 203f 9a7a a9bf 868d db3e 3aba 81be
000000f0: c9c4 34bf 9ed8 b5be def1 10bf 7cbe ec3d
00000100: e693 1cbf 8d70 4abf a249 32bf 14b6 8f3f
00000110: 133c 84be bec5 28be fa7b 37bf a8b9 3dbe
00000120: 7858 c2be 88fd 1d3e 9810 4abe 5267 803f
00000130: 5740 24bf 8500 603e 9bb9 cebe c052 9cbc
00000140: eabf 23bf d8f5 0bbd e8f9 3abe d645 adba
00000150: 5270 e63e e8af dcbf ef3c 923e 48cb 77bf
00000160: 6080 81bf 4bc1 02bb 6821 a9be 6e06 86bf
00000170: 1d17 373f 91d9 4abf c877 cdbe 80b0 c5bd
00000180: 402b 5fbd c87e 07bf bb7f d5be fe9c 9fbe
00000190: 4a26 3dbf 1426 5a3e 0de6 f2be 4121 8bbf
000001a0: f26f 823e 1e24 3fbf 4df9 083f 9ed6 b2bf
000001b0: 518e 163f fed5 94bf 7211 a9ba e0cf 36bd
000001c0: ddaf 4b3f 4be4 9b3e b82a 73be d1df bb3e
000001d0: ae11 7d3b 103c d2be b02f c0bd cb9d a7bf
000001e0: 51f2 8ebf f070 2bbf 3fd4 0b3d 161c b3bf
000001f0: 6665 42bf 19db 603e ac75 aa3e 1752 03bf
00000200: da22 db3a b055 65bf eb8d 323d 92e3 d03d
00000210: 3fb3 843f 9274 c4bf 0026 2fbc 6810 843e
00000220: 8079 b83d 659b ffb9 eee7 783f 7725 70bf
00000230: a21c 34be 137d 7ebf 7e62 b7be 7fd8 bf3d
00000240: 30cc 41bf 49a1 e2be c22d 5fbf 50d2 11bf
00000250: 4cf5 f1be 80d7 70bc 5daa 543c cbfd 0d3f
00000260: 5cd0 5ebf 5250 c93e 1247 de3e 7746 5f3e
00000270: c240 11bf cffb 2dbe 04b2 8fbe 9043 f6be
00000280: 5400 f13c 6fa5 7ebe 6f0d 34bb c9c8 c23e
00000290: b633 5ebf 90f7 a3be 6bd9 ce3e 2d32 90bf
000002a0: 5b62 353f fa49 e63e 4f89 803f ac18 74bf
000002b0: 3090 aebe a19b 0b3e 8477 2dbf d2f9 6bbf
000002c0: 72ee 2b3f 349c 6cbf 4044 013f e137 e23e
000002d0: edc1 203d 5bbc 3e3d a0fb 2bbf 4340 013f
000002e0: afa3 c8bf d6d3 cbbf 1fd4 80ba a083 97be
000002f0: 90e8 a2bd 4424 743e a59d aabf 3c9d 58bf
00000300: 7b73 0f3f 596f 8a3e 2090 a63e 4439 48bf
00000310: c540 b3be 80bc 593f fe5c 76bf f9ee 17bf
00000320: da10 553f 7938 763f 504f d5bd 2c9e 79bf
00000330: 1935 b7bf 8e25 11bf 8649 533e 8c5e 53bf
00000340: 6d29 9fba 8eeb 90be 7c7f ffbe bfc2 a43e
00000350: 3234 01bf bb97 17bf 0169 9bbf 1fa9 2d3e
00000360: 3873 d03d 752e 0c3e 772c 6d3e 7699 74bf
00000370: c1c2 cab8 93ae 933e 3023 a63e 0e8f ea3e
00000380: 8b60 81ba fae0 563f 7c3c 98be 20c3 edbe
00000390: 8550 5abf 9e19 3e3f 69bb 76bf ae71 323d
000003a0: 9464 d33e c0f5 36bd 0be2 f53d 0f39 143f
000003b0: 5699 363f 83d0 0bba 05af 493f 3d9e c83b
000003c0: b737 513f 3d3d d1be 737b 1a3e a1e1 ce3e
000003d0: cdd3 953e 0e78 663e f4cc 13bd c08c 75be
000003e0: 6e51 973e 6cd7 18bf 75f4 133f 4f14 4d3f
000003f0: f86b 4bbf 2985 14bf 93fe abbf 1aaa 283f
-0.4171699 -0.33801723 -0.836282 -0.08879447 -0.00067335187 0.099496305 -0.8855466 0.08964759
0.123028435 0.056467302 0.8945043 -0.7119851 0.56011945 -0.6464157 0.8818071 -0.06416321
-0.8399992 -0.85554636 0.14872256 0.20379439 -0.20275807 -0.6845424 -0.6823522 -0.5963162
-1.3862399 -0.0011495624 0.17156565 -0.6663201 0.8703891 -0.28240442 -0.2977174 0.2934575
0.26898494 -1.0954098 -0.749014 -0.59914804 -0.20953925 0.29482654 0.32882398 -0.9953605
-0.68939734 -0.98703265 0.21304306 -0.91409075 -1.1868255 -1.3070734 -0.68853307 -0.07074896
0.57285804 -1.3515071 -0.8894366 0.48097104 -0.00079886423 -0.8091806 -0.22577655 0.6530529
0.6278308 -1.324054 0.4288141 -0.25337392 -0.7061277 -0.35516828 -0.5661906 0.115597695
-0.61163175 -0.7907799 -0.69643605 1.1227441 -0.25827083 -0.16481683 -0.7167355 -0.18527853
-0.3795812 0.15428746 -0.19732893 1.0031531 -0.64160675 0.21875198 -0.4037598 -0.019082427
-0.6396471 -0.03417 -0.18259394 -0.0013219665 0.4500757 -1.7241182 0.28562114 -0.9679456
-1.0117302 -0.0019951637 -0.330333 -1.0470712 0.71519643 -0.7923823 -0.40130448 -0.09652805
-0.054484606 -0.5292783 -0.41699013 -0.31174463 -0.7388655 0.21303588 -0.4744114 -1.0869523
0.25476032 -0.74664485 0.535054 -1.3971746 0.5881091 -1.1627805 -0.0012898876 -0.04463184
0.7956522 0.3044761 -0.23746765 0.36694196 0.0038615274 -0.4106145 -0.09384096 -1.309503
-1.1167699 -0.66969204 0.03413796 -1.3992946 -0.7593597 0.21958579 0.33292902 -0.51297134
0.0016718761 -0.89583874 0.043592375 0.101996556 1.0367202 -1.5348074 -0.010690212 0.25793767
0.09007549 -0.00048753168 0.97228897 -0.93807167 -0.17589048 -0.994096 -0.3581733 0.09367465
-0.7570219 -0.44263676 -0.87179196 -0.56961536 -0.4725746 -0.014699817 0.012980071 0.5546538
-0.8703668 0.39319092 0.43413597 0.21804224 -0.5673944 -0.16990589 -0.28065503 -0.4809842
0.029419102 -0.24867795 -0.0027473827 0.38043812 -0.86797655 -0.32024813 0.40400252 -1.1265312
0.70853204 0.44978315 1.0041903 -0.95350146 -0.3409438 0.13633586 -0.6776049 -0.9217807
0.67160714 -0.9242585 0.50494766 0.44183257 0.039247442 0.04656635 -0.67180824 0.5048868
-1.5674952 -1.5924022 -0.0009828842 -0.2959261 -0.07954514 0.23841959 -1.3329359 -0.8461492
0.56035584 0.27038077 0.32531834 -0.7821238 -0.35010353 0.85053253 -0.96235645 -0.5934902
0.8322884 0.9617992 -0.10415518 -0.97506976 -1.4313079 -0.5669793 0.20633516 -0.8256614
-0.0012143083 -0.28304714 -0.4990195 0.3217983 -0.5047027 -0.592159 -1.214142 0.16959046
0.10178226 0.13689597 0.23161493 -0.9554666 -9.668386e-05 0.28844127 0.3244872 0.45812267
-0.0009870691 0.83937037 -0.29733646 -0.4643793 -0.85279113 0.7425784 -0.96379715 0.043565445
0.41287673 -0.04466796 0.12006005 0.57899565 0.7132772 -0.00053335 0.78782684 0.006122379
0.8172564 -0.40867034 0.15086155 0.40406516 0.29263154 0.22506735 -0.03608413 -0.23979473
0.29554313 -0.5970371 0.57794887 0.80109113 -0.7946162 -0.58015686 -1.3437065 0.65884554
