checkpoints/20750400.ckpt (torch, 76583 bytes, 33 tensors)

weight f4 [256, 3]
0.014407242 0.40731764 -0.2158427 -0.39593568 0.0030522305 0.20204072 -0.5190083 0.11342908
-0.60144985 0.18499504 -0.5458495 0.1520284 -0.2482922 0.115695626 0.15163736 0.51283574
-0.4189567 0.00013091027 -0.40973794 0.4305554 0.45215392 -0.1807101 -0.006498114 0.048480675
0.46075326 0.49850556 -0.24621914 -0.2692535 -0.2646778 -0.29501805 0.44995505 0.5207769
-0.3558597 0.5304016 -0.12390409 0.6017848 -0.53612995 0.48677647 0.24345109 -0.10658412
-0.38310808 0.34012124 0.5328096 -0.13105483 -0.31239054 -0.31899995 0.43494263 0.35375926
-0.4785326 0.08400558 -0.007918135 0.08801344 -0.5159618 -0.20135337 0.17211285 -0.52407557
0.36445227 0.332434 -0.1648097 0.13129044 -0.45850673 -0.48292744 0.09801922 0.11359598
-0.1812902 -0.49012658 -0.3239 -0.47624686 -0.0441284 0.57412046 -0.49787542 -0.5703241
0.33968416 0.45120877 -0.46788758 0.3979192 0.34850785 -0.10099607 0.50809216 0.20483878
-0.2021647 0.13866152 0.37099302 0.34127772 0.2605251 -0.15186659 -0.51629907 -0.29796523
0.46751732 -0.2399753 -0.15255727 -0.13753568 -0.45454696 -0.33588696 -0.41929615 0.35468838
-0.22255406 -0.021800809 0.3640348 0.3972134 -0.2726688 0.38094166 -0.53088176 0.41864482
-0.1400023 -0.060181506 -0.020120505 0.16795191 0.02283841 0.11111616 0.18270211 0.5330755
-0.27632445 -0.043407895 -0.19002382 0.14897868 -0.06610616 -0.38179588 -0.15419595 -0.49284977
0.5231512 -0.17843431 0.4577163 0.48810118 -0.12763084 0.5261787 -0.2022439 -0.47189394
0.5319715 -0.34958363 -0.43151915 -0.05736745 -0.16410094 -0.53684366 -0.36271843 0.49572173
-0.126069 0.32858372 -0.40747094 -0.47983012 -0.029440816 -0.037656352 -0.34761754 -0.43313798
0.059873145 -0.14739428 -0.1125332 0.43157038 -0.44963002 0.08993824 -0.49225554 0.08468468
0.10529098 -0.24198556 -0.48573998 0.36917222 0.12699264 0.496058 0.3451343 0.3540338
-0.069783635 0.168963 0.24157491 -0.51663876 0.26467294 0.13123268 -0.0392108 -0.59016365
-0.060618304 0.45144275 -0.59369427 0.5489945 -0.2419 -0.09025711 -0.18252763 0.46046638
-0.4960195 0.19588894 -0.5535733 0.17841274 -0.06746465 -0.17389366 0.47048816 0.11471373
-0.010093335 -0.41251013 0.06806062 -0.034749422 0.42134777 -0.30456355 0.51647407 -0.2968086
0.29024187 0.3563127 -0.5801752 -0.32728234 0.32569435 -0.50264126 -0.35063437 0.43901446
-0.13014008 0.022258969 -0.32781914 0.36505893 -0.47115886 -0.07103871 0.066365786 -0.097163945
0.27246216 -0.28416118 0.307489 -0.06569779 0.54434586 0.12567642 -0.08736055 -0.3675051
-0.19045934 -0.41269788 -0.00055489514 0.45937347 0.03267879 -0.54837054 -0.5003589 0.07948237
-0.15062992 0.08992005 0.017939836 -0.5252741 -0.18784112 -0.14130372 0.060696196 -0.46037278
0.13736628 0.5527063 0.37606436 0.12835447 0.41229045 0.2448151 0.22515108 0.29243216
-0.14307977 0.089035384 -0.20821804 0.2616358 -0.4422588 0.11754253 0.5171758 -0.02180502
-0.41029853 -0.12331067 0.19685069 -0.40308365 -0.1346654 0.09107852 0.44857338 -0.48228905
00000000: 5a0c 6c3c f08b d03e de05 5dbe 15b8 cabe
00000010: ee07 483b c3e3 4e3e badd 04bf 814d e83d
00000020: 9ef8 19bf 576f 3d3e cbbc 0bbf 55ad 1b3e
00000030: 4f40 7ebe d4f1 ec3d d346 1b3e 3449 033f
00000040: 7e81 d6be f544 0939 2cc9 d1be c271 dc3e
00000050: b880 e73e 120c 39be 22ee d4bb ac93 463d
00000060: dae7 eb3e 1f3c ff3e df20 7cbe 98db 89be
00000070: d983 87be 9b0c 97be 8260 e63e a351 053f
00000080: 3e33 b6be 66c8 073f 6dc1 fdbd 920e 1a3f
00000090: d03f 09bf c43a f93e 3e4b 793e c648 dabd
000000a0: be26 c4be 5f24 ae3e 3666 083f 3d33 06be
000000b0: a7f1 9fbe f653 a3be cdb0 de3e ef1f b53e
000000c0: 3a02 f5be 1e0b ac3d 11bb 01bc 6440 b43d
000000d0: 1316 04bf 942f 4ebe 5a3e 303e d129 06bf
000000e0: 7d99 ba3e ca34 aa3e e0c3 28be 0071 063e
000000f0: 65c1 eabe 4442 f7be 4dbe c83d 02a5 e83d
00000100: 23a4 39be dff1 fabe 39d6 a5be a1d6 f3be
00000110: fbbf 34bd 8ff9 123f 87e9 febe c300 12bf
00000120: 15eb ad3e d604 e73e f68e efbe 11bc cb3e
00000130: 9f6f b23e 07d7 cebd 5412 023f 42c1 513e
00000140: 4304 4fbe 49fd 0d3e ccf2 bd3e f4bb ae3e
00000150: 8c63 853e ea82 1bbe 2d2c 04bf e68e 98be
00000160: 6e5e ef3e 16bc 75be f937 1cbe 27d6 0cbe
00000170: 61ba e8be 60f9 abbe fcad d6be b799 b53e
00000180: 36e5 63be 9c97 b2bc c562 ba3e 8e5f cb3e
00000190: 3f9b 8bbe c90a c33e dee7 07bf 9d58 d63e
000001a0: c35c 0fbe e280 76bd c2d3 a4bc 96fb 2b3e
000001b0: 9e17 bb3c df90 e33d 4316 3b3e a377 083f
000001c0: 667a 8dbe 7acc 31bd 9b95 42be de8d 183e
000001d0: ab62 87bd c07a c3be 8be5 1dbe ce56 fcbe
000001e0: 3ded 053f 7cb7 36be ca59 ea3e 66e8 f93e
000001f0: a9b1 02be a6b3 063f 0619 4fbe 159c f1be
00000200: 492f 083f a0fc b2be 14f0 dcbe 22fa 6abd
00000210: 140a 28be 966e 09bf 3bb6 b9be 3dcf fd3e
00000220: 3b18 01be 203c a83e 08a0 d0be 4bac f5be
00000230: de2d f1bc 8c3d 1abd edfa b1be 43c4 ddbe
00000240: 8b3d 753d 87ee 16be ce77 e6bd cbf6 dc3e
00000250: e835 e6be 8a31 b83d eb08 fcbe 296f ad3d
00000260: cca2 d73d 10cb 77be e9b2 f8be 2404 bd3e
00000270: 5c0a 023e 50fb fd3e 71b5 b03e eb43 b53e
00000280: b9ea 8ebd a304 2d3e 6a5f 773e 7042 04bf
00000290: 3683 873e dc61 063e 819b 20bd f714 17bf
000002a0: e64a 78bd 8123 e73e 59fc 17bf e78a 0c3f
000002b0: a2b4 77be b8d8 b8bd 86e8 3abe 40c2 eb3e
000002c0: 45f6 fdbe 1c97 483e fbb6 0dbf d4b1 363e
000002d0: e82a 8abd 2e11 32be d3e3 f03e 08ef ea3d
000002e0: 845e 25bc 8734 d3be 5e63 8b3d 6955 0ebd
000002f0: e5ba d73e c1ef 9bbe a537 043f 4cf7 97be
00000300: 959a 943e 9e6e b63e 5d86 14bf 8d91 a7be
00000310: 69c1 a63e 19ad 00bf 5986 b3be 81c6 e03e
00000320: 7143 05be 7158 b63c e9d7 a7be 01e9 ba3e
00000330: bc3b f1be be7c 91bd c9ea 873d e4fd c6bd
00000340: 2980 8b3e 937d 91be 336f 9d3e 908c 86bd
00000350: 405a 0b3f 52b1 003e 17ea b2bd a129 bcbe
00000360: c607 43be 234d d3be 6276 11ba 0033 eb3e
00000370: 32da 053d 0362 0cbf 8517 00bf a7c7 a23d
00000380: bb3e 1abe 0128 b83d 90f6 923c 5d78 06bf
00000390: 6c59 40be ecb1 10be 939c 783d fbb5 ebbe
000003a0: bfa9 0c3e 297e 0d3f 828b c03e 5b6f 033e
000003b0: bc17 d33e cfb0 7a3e 018e 663e abb9 953e
000003c0: 8183 12be 2f58 b63d 1c37 55be 21f5 853e
000003d0: bf6f e2be 23ba f03d a265 043f 71a0 b2bc
000003e0: a612 d2be 4e8a fcbd 3a93 493e fb60 cebe
000003f0: bae5 09be 6087 ba3d 69ab e53e 97ee f6be

bias f4 [256]
0.07748059 0.04648464 -0.1745723 0.05806976 -0.5365567 0.114824116 -0.2487221 -0.1814578
0.09931814 -0.37497562 0.4135116 -0.28778678 -0.10329465 0.04098754 -0.36021522 0.028870514
-0.34477118 0.2126503 0.50335574 0.08786188 -0.19636732 -0.40685213 -0.5580166 -0.46412966
0.06840962 -0.22614436 0.5177278 -0.5406537 -0.15553135 -0.5444623 0.49169433 -0.18598461
0.07831782 0.23520945 -0.44542474 -0.29328614 -0.2871756 -0.42723092 0.42327482 -0.5158824
-0.46873242 0.24694805 -0.013220619 0.49534404 -0.35296765 0.3016352 -0.5383232 0.32442373
-0.3536822 -0.37770945 0.19148587 -0.05668237 -0.23486255 0.08247939 -0.24776617 0.23657492
0.45948663 -0.0148888845 0.21549396 0.012326059 0.15052247 0.13803807 -0.13344733 0.038307328
-0.26669866 -0.24918902 -0.435152 0.013809367 0.33086404 0.1855547 -0.3557513 0.2576765
-0.34062356 -0.41918528 0.41948074 0.3276157 0.20560183 0.42538127 -0.5372048 0.47278035
-0.20862457 0.5934667 0.3532757 0.38829225 0.39362663 -0.4580473 0.25695127 -0.24832876
-0.27207413 0.31811926 0.3937673 -0.057459626 -0.18167582 0.45443487 0.06276171 0.18410765
-0.14968055 0.055553406 0.17586097 0.007334179 0.23399636 -0.4380505 0.45827612 0.30780435
0.538519 -0.3588679 -0.17018083 0.16406853 0.04247493 0.41327783 -0.41358277 -0.040414304
0.43597052 0.103180684 0.48035043 0.45283017 0.35066286 0.06292295 0.48687705 0.18696675
-0.39168876 -0.45203894 0.39491424 -0.49444407 -0.18174203 -0.43181384 -0.23278256 0.5055365
0.1790678 0.47244406 0.2457211 -0.4381946 0.123526715 0.4220607 -0.022260193 -0.33338457
-0.11590719 -0.13258679 0.57171905 0.30641085 -0.034158815 -0.41634557 -0.4200595 -0.012480348
0.34691012 0.5958375 -0.25565395 -0.25616446 0.3804872 0.3179294 -0.5737805 -0.5731562
-0.25530982 -0.58158666 0.33092684 -0.4793906 0.47800753 -0.50587445 0.44739282 -0.32836673
0.25599015 0.42007592 -0.24288084 0.16335393 0.18354149 0.22025941 -0.5777347 0.04469392
0.31988508 0.40374863 -0.10606285 -0.3910009 -0.12108382 0.40023527 0.19482914 -0.44133103
-0.4418224 0.24131186 -0.34891903 0.4059895 -0.005599453 0.24920806 0.19399695 0.022620535
0.08751247 0.3426898 -0.282766 0.27747333 -0.11217219 0.39608923 0.14928178 -0.07253652
-0.24201491 0.42876637 -0.3977183 0.1672001 0.41690612 0.3702695 0.19587405 -0.13846204
0.23230381 -0.084869504 -0.2272551 -0.2872056 -0.015059043 -0.31130883 0.5932073 0.40297648
0.19195054 -0.49844646 0.031615913 -0.08676718 -0.4717767 0.07801104 0.0068421178 -0.33891577
0.2435327 -0.6239688 0.09407155 -0.5033142 -0.079138905 -0.21185932 0.13976936 0.0045895893
0.5705147 -0.23453148 -0.14061956 0.30101225 0.03906092 -0.19250076 -0.199308 0.5503001
-0.14776716 0.5864864 -0.073565625 -0.38389736 0.47814482 -0.024940107 0.1110588 -0.42563006
-0.4034501 0.038259976 -0.40849635 0.33430678 -0.5413086 -0.21635287 -0.5440149 -0.4078904
0.42620176 -0.43118605 -0.025092226 0.057898894 -0.35691306 0.13986102 0.25744632 -0.24980302
00000000: 25ae 9e3d ae66 3e3d 15c3 32be 8fda 6d3d
00000010: c85b 09bf e828 eb3d 02b1 7ebe 13d0 39be
00000020: 4f67 cb3d cefc bfbe cbb7 d33e ca58 93be
00000030: 258c d3bd 8de2 273d 216e b8be db81 ec3c
00000040: d985 b0be 00c1 593e ecdb 003f eef0 b33d
00000050: 8414 49be ec4e d0be 2dda 0ebf 67a2 edbe
00000060: 581a 8c3d 6392 67be cf89 043f 4868 0abf
00000070: 9c43 1fbe e261 0bbf 5cbf fb3e c072 3ebe
00000080: 1865 a03d bfda 703e b60e e4be 9a29 96be
00000090: ae08 93be 03be dabe 7ab7 d83e de10 04bf
000000a0: b2fd efbe f3df 7c3e 4c9b 58bc bc9d fd3e
000000b0: 2db8 b4be ee6f 9a3e 8dcf 09bf de1a a63e
000000c0: d515 b5be 2263 c1be df14 443e c62b 68bd
000000d0: cf7f 70be f4ea a83d 6ab6 7dbe b240 723e
000000e0: d541 eb3e 82f0 73bc 73aa 5c3e 3df3 493c
000000f0: 9022 1a3e da59 0d3e 6ba6 08be 25e8 1c3d
00000100: ba8c 88be 682b 7fbe 3ecc debe af40 623c
00000110: 0367 a93e 0d02 3e3e 0925 b6be 2dee 833e
00000120: 3666 aebe 749f d6be 2ec6 d63e 3fbd a73e
00000130: 4989 523e 93cb d93e 4186 09bf 4410 f23e
00000140: aea1 55be 6fed 173f 8de0 b43e 3ece c63e
00000150: 6e89 c93e 2d85 eabe 1e8f 833e e549 7ebe
00000160: 4d4d 8bbe 87e0 a23e de9b c93e c95a 6bbd
00000170: 3a09 3abe b0ab e83e 3689 803d b786 3c3e
00000180: dc45 19be f88b 633d e614 343e 8d53 f03b
00000190: be9c 6f3e 2848 e0be 2ba3 ea3e 8898 9d3e
000001a0: 62dc 093f 89bd b7be e243 2ebe 9501 283e
000001b0: 31fa 2d3d 2799 d33e 1fc1 d3be 7889 25bd
000001c0: 8737 df3e 6550 d33d 7ef0 f53e 5bd9 e73e
000001d0: 158a b33e bfdd 803d f347 f93e 3674 3f3e
000001e0: 6e8b c8be a671 e7be 3332 ca3e c627 fdbe
000001f0: 951a 3abe b416 ddbe 8d5e 6ebe d76a 013f
00000200: 8d5d 373e 30e4 f13e 509e 7b3e 0b5b e0be
00000210: 93fb fc3d 5718 d83e 025b b6bc 62b1 aabe
00000220: c060 edbd d5c4 07be 2e5c 123f e2e1 9c3e
00000230: 1dea 0bbd 3f2b d5be 0a12 d7be 607a 4cbc
00000240: 349e b13e ce88 183f 13e5 82be fd27 83be
00000250: 38cf c23e a4c7 a23e 47e3 12bf 5dba 12bf
00000260: f8b7 82be dde2 14bf 3e6f a93e af72 f5be
00000270: 67bd f43e fd80 01bf ac10 e53e af1f a8be
00000280: 2411 833e 3114 d73e c1b5 78be 4146 273e
00000290: 4df2 3b3e af8b 613e 6ce6 13bf f910 373d
000002a0: fac7 a33e 24b8 ce3e 7b37 d9bd 4531 c8be
000002b0: cbfa f7bd a3eb cc3e 4a81 473e 24f6 e1be
000002c0: 8c36 e2be 751a 773e 84a5 b2be dbdd cf3e
000002d0: 9e7b b7bb 6630 7f3e 23a7 463e b34e b93c
000002e0: bd39 b33d 0a75 af3e b5c6 90be fc10 8e3e
000002f0: 88ba e5bd 35cc ca3e 53dd 183e 078e 94bd
00000300: c2d2 77be 4487 db3e bca1 cbbe 8136 2b3e
00000310: b874 d53e f793 bd3e 3593 483e fec8 0dbe
00000320: 0de1 6d3e 10d0 adbd 90b5 68be 9d0c 93be
00000330: 34ba 76bc df63 9fbe 6fdc 173f ef52 ce3e
00000340: af8e 443e 6034 ffbe b07f 013d feb2 b1bd
00000350: b78c f1be 41c4 9f3d d833 e03b 5e86 adbe
00000360: a360 793e 6bbc 1fbf 96a8 c03d 33d9 00bf
00000370: 9413 a2bd a6f1 58be b31f 0f3e 4464 963b
00000380: 400d 123f 0529 70be 93fe 0fbe 471e 9a3e
00000390: 58fe 1f3d eb1e 45be 6517 4cbe 78e0 0c3f
000003a0: 4650 17be f923 163f 93a9 96bd 328e c4be
000003b0: 66cf f43e 324f ccbc cc72 e33d 2fec d9be
000003c0: 0391 cebe 7eb6 1c3d 6f26 d1be 422a ab3e
000003d0: 3393 0abf 9b8b 5dbe 8f44 0bbf 03d7 d0be
000003e0: 1e37 da3e 6bc4 dcbe 368e cdbc 6427 6d3d
000003f0: 4fbd b6be ba37 0f3e 01d0 833e 5dcc 7fbe

weight f4 [1, 256]
0.058106665 -0.019586908 -0.03444953 -0.05736119 -0.050329197 0.00066999515 -0.00022561377 -0.017736008
-0.052672654 0.013200227 -0.036521643 0.05891931 -0.051654287 0.035706736 -0.022390611 0.03747708
-0.07006579 -0.03735718 0.0005970901 -0.0026124842 -0.026554985 0.044058554 0.02748521 -0.048799567
-0.044417564 0.05634331 0.01643682 -0.01053911 0.0014795428 -0.05884595 -0.039392848 0.011764668
0.0591034 0.06864969 0.027743734 0.0013401851 0.050984297 0.023174806 -0.046229932 0.0048771934
0.055513885 0.011581152 -0.013271415 -0.004011846 -0.031185472 0.048176076 -0.018117297 0.04982209
-0.015389836 0.033201646 0.0071631907 -0.033105668 0.057896804 0.020943081 0.05572305 -0.027938971
-0.02224439 -0.02186853 -0.030674841 -0.05505192 0.025650501 -0.03814089 0.06922697 0.018882502
-0.018827377 0.047164343 0.013275851 0.05804074 0.030285006 -0.025753941 -0.008561806 -0.041268006
-0.031602282 -0.0047453814 0.05211694 -0.056063574 -0.015241288 -0.0037140285 0.014122677 -0.0055871503
-0.0117446175 0.007186466 -0.03154343 0.0071628485 0.06152576 -0.023632225 0.06907115 -0.03273818
-0.039250623 0.007207592 -0.013941709 0.0072680744 0.0052889697 0.050551742 0.005595385 -0.027937094
0.031164998 0.0077279625 -0.005884858 0.0070750876 -0.042137343 -0.074542 0.004727325 -0.026370233
0.042564295 0.03288773 0.033334665 -0.040209495 -0.0051021352 0.029607825 0.048560154 -0.02141485
0.06532785 -0.0011658306 0.041977823 0.054904215 -0.0038057347 -0.0328006 -0.022206087 0.037532277
0.03931838 -0.06039147 0.049171615 -0.078205496 0.0431506 -0.0073993867 -0.021648273 0.014975398
-0.03473229 0.0042431075 0.030684711 0.051605858 0.02720287 0.022877213 -0.023096405 -0.008762421
-0.0425191 0.010411483 -0.05052055 -0.0034839518 -0.049135208 -0.06358834 -0.0036352964 -0.032029875
0.06256367 -0.007357391 0.018636499 0.030321058 -0.038296532 0.0075494377 0.038876068 -0.07141612
-0.00951655 -0.056905497 0.00079631037 -0.057358466 0.040165838 -0.048174407 0.014695965 0.032789085
-0.050401986 -0.04834511 0.026134618 0.05303091 0.010913909 -0.061758827 -0.026816731 -0.035575714
0.010703263 0.06559173 0.005071809 0.016411103 -0.009149768 -0.014462784 0.032342102 -0.04916343
-0.050222374 -0.047159236 -0.0384292 -0.004294313 -0.007702731 0.026253164 0.008961443 0.030974455
-0.066562064 -0.04411843 0.021743959 -0.023517892 0.02229142 0.0069372375 -0.038351845 -0.04091111
-0.0113579 -0.025506526 -0.044230312 -0.02553222 0.049800415 0.03325724 0.01748365 -0.007539667
-0.05596555 0.056719914 0.011570091 -0.059416782 -0.004622991 -0.015037245 0.017561583 0.025984213
-0.006183916 -0.041245684 -0.03991181 -0.021472657 0.0010968336 -0.03307326 -0.044732437 0.016474875
0.023675144 0.029005602 -0.05410974 0.013456025 0.0009674813 -0.032036997 -0.05525889 -0.03008158
0.018808631 -0.016664645 0.022603678 -0.045465376 0.026638214 0.10378036 -0.05016533 -0.0037576044
0.01655679 0.028686374 -0.061851833 -0.029527372 -0.04953244 0.014260183 0.02589719 -0.010597869
0.028931871 0.009448706 -0.0398247 0.006452695 0.03647746 0.05320079 0.040836986 0.047327567
-0.05251029 0.022547616 0.0068823714 0.017322574 -0.047774937 -0.019589493 -0.025743373 0.02234361
00000000: 4101 6e3d b974 a0bc f31a 0dbd 91f3 6abd
00000010: fd25 4ebd 9da2 2f3a bc92 6cb9 1b4b 91bc
00000020: 48bf 57bd c445 583c b897 15bd 6055 713d
00000030: 7293 53bd 3a41 123d 846c b7bc 9181 193d
00000040: a77e 8fbd d803 19bd 0a86 1c3a 3636 2bbb
00000050: d789 d9bc be76 343d aa28 e13c 0ee2 47bd
00000060: 31ef 35bd 3ec8 663d 83a6 863c 3bac 2cbc
00000070: 38ed c13a 7308 71bd 655a 21bd 98c0 403c
00000080: 6816 723d 3598 8c3d d446 e33c 26a9 af3a
00000090: e9d4 503d 17d9 bd3c 995b 3dbd ddd0 9f3b
000000a0: 8762 633d dfbe 3d3c 5970 59bc ce75 83bb
000000b0: ad78 ffbc 4754 453d ba6a 94bc 3f12 4c3d
000000c0: a725 7cbc 73fe 073d 33b9 ea3b cf99 07bd
000000d0: 3325 6d3d d390 ab3c da3d 643d 45e0 e4bc
000000e0: de39 b6bc a225 b3bc ce49 fbbc 1f7e 61bd
000000f0: 0021 d23c 9f39 1cbd dfc6 8d3d 7aaf 9a3c
00000100: df3b 9abc 662f 413d f482 593c 21bc 6d3d
00000110: 4318 f83c eef9 d2bc d146 0cbc a408 29bd
00000120: 6571 01bd 257f 9bbb 9378 553d eba2 65bd
00000130: 98b6 79bc 0f67 73bb cd62 673c 6a14 b7bb
00000140: 7f6c 40bc 727c eb3b af33 01bd 54b6 ea3b
00000150: 6f02 7c3d 5e98 c1bc 2d75 8d3d 7818 06bd
00000160: 43c5 20bd aa2d ec3b c46b 64bc 0729 ee3b
00000170: 184f ad3b 580f 4f3d 7e59 b73b 55dc e4bc
00000180: bd4d ff3c d93a fd3b c4d5 c0bb 23d6 e73b
00000190: 3598 2cbd 7aa9 98bd ade7 9a3b 6306 d8bc
000001a0: e657 2e3d 49b5 063d ee89 083d b6b2 24bd
000001b0: d02f a7bb 1c8c f23c 03e7 463d 326e afbc
000001c0: 9cca 853d c9ce 98ba f0f0 2b3d 3ee3 603d
000001d0: a269 79bb ec59 06bd 8ae9 b5bc 72bb 193d
000001e0: 4f0c 213d 0c5d 77bd 2d68 493d 342a a0bd
000001f0: afbe 303d 8e76 f2bb b857 b1bc 5f5b 753c
00000200: 7243 0ebd c409 8b3b 815e fb3c aa60 533d
00000210: 8ed8 de3c fe68 bb3c ac34 bdbc 4290 0fbc
00000220: 8228 2ebd ed94 2a3c a3ee 4ebd 0353 64bb
00000230: 0042 49bd 9b3a 82bd 273e 6ebb c231 03bd
00000240: 6221 803d 4516 f1bb 92ab 983c de63 f83c
00000250: d3dc 1cbd 4661 f73b 833c 1f3d 9d42 92bd
00000260: 4eeb 1bbc bd15 69bd 7cbf 503a b6f0 6abd
00000270: ef84 243d 8752 45bd 58c7 703c d94d 063d
00000280: 5072 4ebd 8605 46bd 4418 d63c f136 593d
00000290: 41d0 323c d3f6 7cbd c3ae dbbc d7b7 11bd
000002a0: bd5c 2f3c f554 863d 6b31 a63b 9470 863c
000002b0: e9e8 15bc 50f5 6cbc 2779 043d 985f 49bd
000002c0: fab5 4dbd 0b2a 41bd f067 1dbd 4fb7 8cbb
000002d0: 3167 fcbb e010 d73c 04d3 123c 24be fd3c
000002e0: b151 88bd 87b5 34bd 6320 b23c 98a8 c0bc
000002f0: 7f9c b63c c451 e33b d316 1dbd 6892 27bd
00000300: 7c16 3abc 10f3 d0bc d82a 35bd f228 d1bc
00000310: 85fb 4b3d be38 083d df39 8f3c 500f f7bb
00000320: 223c 65bd 2453 683d 7b90 3d3c 035f 73bd
00000330: 767c 97bb c75e 76bc 4fdd 8f3c d8dc d43c
00000340: 72a2 cabb 3cf1 28bd 917a 23bd 6de7 afbc
00000350: a1c3 8f3a d477 07bd 5c39 37bd 51f6 863c
00000360: 60f2 c13c 289d ed3c 2da2 5dbd a976 5c3c
00000370: 929e 7d3a 3a39 03bd 2557 62bd a56d f6bc
00000380: 8f14 9a3c 4b84 88bc 592b b93c e739 3abd
00000390: 6238 da3c cc8a d43d 297a 4dbd 2442 76bb
000003a0: 1ba2 873c b0ff ea3c 5958 7dbd 63e3 f1bc
000003b0: 87e2 4abd 8ba3 693c 5826 d43c afa2 2dbc
000003c0: 8802 ed3c bfce 1a3c 3a1f 23bd 2171 d33b
000003d0: 6469 153d 12e9 593d af44 273d 8dda 413d
000003e0: 0815 57bd c7b5 b83c 8485 e13b 12e8 8d3c
000003f0: a7af 43bd 257a a0bc c4e3 d2bc f209 b73c

weight f4 [256, 1]
0.92673934 0.6111111 0.75693196 0.5175056 -0.13813277 0.5029297 0.58495396 -0.45806405
0.93839395 -0.9552126 -0.21914765 0.11385569 0.52559847 0.43057102 -0.5976645 0.78218305
-0.6593362 -0.3635106 0.7388291 0.7115802 -0.45757616 0.9761931 0.34806693 0.4708293
-0.7517033 -0.95962024 0.91541284 -0.2816031 -0.8628361 0.5139852 -0.8806055 0.9357125
-0.95571935 0.8171403 -0.83282906 -0.82397854 0.35889214 0.50389916 0.3356365 0.059864342
-0.33254778 0.8119795 0.38703045 0.4190574 -0.7443945 0.70227003 0.14760451 1.0013341
0.603132 0.60382044 -0.44143736 0.17039067 -0.41164076 0.3048521 0.91441554 0.24021056
-0.0766077 0.87007487 0.42456985 0.8501909 0.42543605 0.9684764 -0.18739092 0.7233788
0.15956648 0.30168682 0.48456338 0.010448694 0.4412618 0.44037613 -0.584008 0.60189736
-0.5243361 -0.29334578 -0.5209091 0.10119557 -0.34591538 0.19119044 0.36689606 0.6343081
0.14907797 0.17807153 -0.051009294 -0.27372718 0.29538506 -0.94788253 -0.80339146 0.1654297
0.9934877 -0.51741743 0.19733498 -0.56308854 0.44228187 -0.13541895 -0.54643726 0.46931863
-0.4951539 -0.46810985 0.772242 0.4968688 -0.5215235 0.7628096 -0.22300148 0.39824226
0.51100194 -0.50876725 -0.51566887 0.01761257 -0.69293666 -0.33945826 -0.3060594 0.64150894
0.6802703 -0.36004555 -0.79682183 -0.6807437 0.438788 -0.24575269 -0.7268182 -0.06259083
0.017643813 0.85507745 -0.8305657 -0.57898045 -0.025603222 0.99115413 -0.095383406 -0.9711424
-0.34729177 0.10757543 0.19771525 -0.0038923025 -0.49252617 -0.8492657 -0.08297328 0.6143153
0.94240713 -0.9223722 0.79276717 -0.9477505 -0.6421028 -0.50632584 -0.33442068 -0.6404784
0.6716906 0.12898982 -0.08172908 0.609697 -0.3769621 -0.43120027 -0.5334079 0.8876648
-0.74467874 0.43782616 -0.0021902083 0.20134439 -0.6645014 -0.5032762 -0.9429004 0.56914806
0.08489834 -0.44264317 -0.32221782 -0.8528329 0.3428748 0.26308304 0.3052292 -0.7077683
0.3386476 -0.47463417 -0.7915276 -0.7626129 -0.1969651 -0.27526277 -0.5813433 0.32662985
0.07594097 0.0030691624 -0.31730628 0.88581705 0.80618757 -0.7748911 -0.5591578 -0.016315365
-0.8686631 0.048334718 0.47265133 -0.832737 0.56085306 -0.53345215 0.12756075 0.649799
0.6511806 -0.5857625 -0.7989439 0.8278794 -0.31759858 -0.400245 0.7704389 0.42643222
-0.2333051 0.73558956 -0.33798736 0.84953946 0.21253596 -0.91443825 -0.9523551 0.54071933
0.8819758 -0.09019315 -0.9725181 0.6100128 -0.9959651 -0.4533771 0.7493125 -0.6095904
-0.7980098 0.6818157 -0.8257481 -0.3709786 0.093050346 0.39376563 -0.3913076 -0.8171985
-0.8265343 -0.001298666 -0.8566001 -0.39736605 -0.19721222 0.5564298 0.37582538 -0.53017414
-0.2017758 -0.40609613 -0.69771576 0.2260869 -0.79244035 0.42011383 0.013316512 0.70892006
0.539226 0.9205045 -0.27925643 0.14735405 0.5069005 -0.29943308 0.10092581 -0.7504839
0.5461741 0.32394746 0.58404976 -0.9624402 -0.258888 0.2556358 0.3600111 -0.82022876
00000000: ca3e 6d3f c771 1c3f 4bc6 413f 3f7b 043f
00000010: ad72 0dbe 00c0 003f 8bbf 153f 5f87 eabe
00000020: 963a 703f d088 74bf 3e68 60be 2c2d e93d
00000030: 9f8d 063f ce73 dc3e 8a00 19bf 263d 483f
00000040: 42ca 28bf 101e babe e723 3d3f 1f2a 363f
00000050: 6c47 eabe cae7 793f d435 b23e 8a10 f13e
00000060: a16f 40bf aca9 75bf 7f58 6a3f 482e 90be
00000070: d4e2 5cbf 8994 033f 5d6f 61bf db8a 6f3f
00000080: 06aa 74bf 1b30 513f 4934 55bf 42f0 52bf
00000090: b6c0 b73e 89ff 003f 8cd8 ab3e 5034 753d
000000a0: b443 aabe e3dd 4f3f db28 c63e b18e d63e
000000b0: a390 3ebf f8c7 333f a325 173e b72b 803f
000000c0: dc66 1a3f fa93 1a3f 1404 e2be e47a 2e3e
000000d0: 94c2 d2be 9315 9c3e 2317 6a3f c2f9 753e
000000e0: 7fe4 9cbd 3abd 5e3f 3861 d93e 1ca6 593f
000000f0: c1d2 d93e 12ee 773f 68e3 3fbe 5a2f 393f
00000100: 6565 233e b276 9a3e b118 f83e 0031 2b3c
00000110: 11ed e13e fb78 e13e 8c81 15bf f215 1a3f
00000120: e43a 06bf 6b31 96be 4c5a 05bf 9f3f cf3d
00000130: d21b b1be 6dc7 433e cdd9 bb3e 0462 223f
00000140: e5a7 183e 6258 363e 1fef 50bd f825 8cbe
00000150: b63c 973e 6ea8 72bf 10ab 4dbf 6766 293e
00000160: 3655 7e3f 7875 04bf 2e12 4a3e 9226 10bf
00000170: c572 e23e 44ab 0abe 50e3 0bbf 884a f03e
00000180: d084 fdbe 18ac efbe a7b1 453f 9665 fe3e
00000190: 9082 05bf 7d47 433f 805a 64be 69e6 cb3e
000001a0: 06d1 023f 923e 02bf e002 04bf 3d48 903c
000001b0: 4c64 31bf 79cd adbe d1b3 9cbe ee39 243f
000001c0: 3226 2e3f e457 b8be 84fc 4bbf 3845 2ebf
000001d0: d2a8 e03e 98a6 7bbe c210 3abf 9f2f 80bd
000001e0: c289 903c 5be6 5a3f f49f 54bf 1038 14bf
000001f0: d9bd d1bc 47bc 7d3f 6058 c3bd ca9c 78bf
00000200: 3ad0 b1be 8250 dc3d de75 4a3e 0016 7fbb
00000210: 642c fcbe 7a69 59bf e5ed a9bd c443 1d3f
00000220: 9841 713f 9620 6cbf caf2 4a3f c79f 72bf
00000230: d960 24bf 929e 01bf 3039 abbe 64f6 23bf
00000240: eaf3 2b3f e815 043e 9361 a7bd 1a15 1c3f
00000250: 2d01 c1be 48c6 dcbe 6c8d 08bf 003e 633f
00000260: 44a3 3ebf c02a e03e 9989 0fbb 392d 4e3e
00000270: c41c 2abf b6d6 00bf ec61 71bf b0b3 113f
00000280: 2edf ad3d 20a2 e2be bcf9 a4be 4253 5abf
00000290: 498d af3e d2b2 863e 0047 9c3e 4e30 35bf
000002a0: 3863 ad3e 4003 f3be 8ea1 4abf 993a 43bf
000002b0: 38b1 49be 3eef 8cbe ead2 14bf 073c a73e
000002c0: f086 9b3d 0024 493b f875 a2be e8c4 623f
000002d0: 4f62 4e3f 435f 46bf f724 0fbf cda7 85bc
000002e0: b460 5ebf a0fa 453d 5bff f13e 412e 55bf
000002f0: 1194 0f3f 5290 08bf 499f 023e 3a59 263f
00000300: c6b3 263f 88f4 15bf 9687 4cbf e8ef 533f
00000310: 489c a2be eaec ccbe 7c3b 453f 5355 da3e
00000320: 88e7 6ebe 994f 3c3f ae0c adbe 6b7b 593f
00000330: 07a3 593e a018 6abf 8bcd 73bf 956c 0a3f
00000340: 2bc9 613f 30b7 b8bd f2f6 78bf cd29 1c3f
00000350: 92f7 7ebf 0b21 e8be f2d2 3f3f 1e0e 1cbf
00000360: 5f4a 4cbf 798b 2e3f 3a64 53bf e8f0 bdbe
00000370: 2e91 be3d a69b c93e 7859 c8be ec33 51bf
00000380: c097 53bf 0038 aaba 254a 5bbf 9073 cbbe
00000390: 00f2 49be 2f72 0e3f 2f6c c03e 7eb9 07bf
000003a0: 519e 4ebe d5eb cfbe 809d 32bf 5383 673e
000003b0: 5fdd 4abf 2919 d73e 802d 5a3c c97b 353f
000003c0: b70a 0a3f 2fa6 6b3f b3fa 8ebe fbe3 163e
000003d0: 3bc4 013f 4b4f 99be 31b2 ce3d b61f 40bf
000003e0: 11d2 0b3f 71dc a53e 4984 153f 7b62 76bf
000003f0: f88c 84be b2e2 823e 6053 b83e 83fa 51bf

bias f4 [256]
-0.19282275 -0.528359 -0.5435475 0.81442064 0.12031824 -0.34781504 -0.6718593 0.23514563
0.12776494 -0.9733182 0.49191746 -0.25766438 0.7192048 0.21029091 -0.41709185 -0.37372178
-0.5574236 -0.030765414 -0.17535435 0.27725634 0.098363906 -0.7688332 0.08440702 -0.38696286
0.8494191 -0.99092126 0.3752507 -0.5559728 0.11441433 -0.14570032 0.05196681 -0.57808524
-0.04364264 -0.028220415 0.9101542 -0.7300979 -0.86550194 -0.098943375 0.008040095 -0.47539914
-0.38503063 0.552553 -0.737516 -0.7169245 0.35957292 -0.13537411 0.11093045 -0.3221583
0.5306798 0.70692927 0.123625994 -0.115221836 -0.48037314 -0.6918329 0.16042714 -0.51826614
0.35792118 -0.580173 -0.57040197 0.6541877 -0.96049005 0.36556762 -0.9176636 0.18161072
-0.07498492 -0.58830285 -0.51236016 -0.15877998 -0.6531609 0.4569054 0.4429344 0.54947704
0.48651695 0.38366094 -0.74893725 -0.22936665 0.36239526 -0.5884415 -0.09506141 -0.5059471
0.049686704 0.016008705 0.08811936 -0.93941617 -0.7004555 0.19747055 -0.741531 0.39309448
0.98365396 -0.6663859 0.4029574 -0.9982544 -0.47525647 0.8587437 -0.559824 0.2647657
-0.22873533 -0.8723892 -0.7202017 -0.4197585 -0.51075923 -0.112998836 -0.5333674 0.062172133
0.87492985 0.48496383 0.19342357 0.8962154 -0.8277919 0.2839368 0.68268794 -0.39319098
-0.16639946 -0.009479284 -0.031164408 -0.67730594 0.8230937 -0.03953743 -0.16638291 0.53062767
-0.2219609 -0.65210396 0.2051581 0.1738028 0.4742782 -0.09044833 -0.7375344 -0.36398256
0.7993131 -0.84958035 -0.0062680165 -0.9932475 -0.29368556 -0.92599106 0.9813646 -0.1965263
-0.9417109 -0.83745325 -0.9212467 0.46022177 0.8299694 -0.48576283 -0.0010775299 -0.4863758
-0.7133264 -1.0074582 0.7742082 -0.5906182 1.0347527 0.18599291 -0.56816936 0.82348126
-0.49835563 0.8740495 0.30300757 -0.36380473 -0.8676932 0.89499384 0.28964803 0.6974798
0.8391176 -0.23979568 -0.7277502 0.74273217 -0.8232682 0.684471 -0.7237403 -0.28983784
-0.3868823 0.50662595 -0.0782665 0.053684935 -0.783877 0.008883378 0.4835499 -0.3028614
-0.94500744 -0.5580281 -0.3740964 0.86856604 0.72065324 0.6148286 0.8080363 0.3219369
0.40285704 -0.6268606 -0.3441998 0.029041994 0.28037158 -0.19156921 0.64970076 0.362252
-0.07366801 -0.26226294 -0.8608266 0.058065675 -0.083290935 0.21541888 -0.11739007 0.0055578155
-0.48266625 -0.6121254 0.54088646 0.257194 0.8110891 -0.2343049 0.26662797 1.0050815
0.76116544 -0.94861674 -0.20045674 0.56676376 -0.5464419 0.09940569 -0.35614324 0.71066654
0.45493415 0.5594691 0.8113351 0.6581634 -0.04092072 -0.03604317 0.16654482 0.5925896
-0.12747741 -0.13120067 0.6254829 -0.8968971 -0.07409942 -0.71594703 -0.86917305 -0.2767477
0.43937567 0.08105312 -0.2366426 0.5491687 0.6500905 -0.9837167 -0.89516604 -1.0020677
-0.055240955 -0.44515947 0.32359087 -0.19528814 0.6053954 -0.001868921 -0.208147 0.40932235
-0.17291677 -0.7761992 0.7507564 0.34183317 -0.8267342 -0.5510956 -0.51940364 0.88596684
00000000: 5473 45be 8942 07bf ee25 0bbf df7d 503f
00000010: 6969 f63d d014 b2be f9fe 2bbf 04ca 703e
00000020: d0d4 023e 622b 79bf 9bdc fb3e 96ec 83be
00000030: ce1d 383f 8056 573e 108d d5be 7658 bfbe
00000040: 50b3 0ebf c007 fcbc 1790 33be 8bf4 8d3e
00000050: 0473 c93d 41d2 44bf 96dd ac3d ff1f c6be
00000060: 8873 593f 04ad 7dbf dc20 c03e 3c54 0ebf
00000070: 0f52 ea3d 7732 15be 26db 543d 65fd 13bf
00000080: a0c2 32bd 802e e7bc deff 683f b2e7 3abf
00000090: 8991 5dbf d3a2 cabd 9aba 033c 8467 f3be
000000a0: bc22 c5be 1d74 0d3f d9cd 3cbf 5d88 37bf
000000b0: f119 b83e 839f 0abe 812f e33d eff1 a4be
000000c0: a2da 073f 51f9 343f a02f fd3d 6df9 ebbd
000000d0: 78f3 f5be f61b 31bf 0347 243e 17ad 04bf
000000e0: 7241 b73e 3886 14bf dd05 12bf d878 273f
000000f0: ade2 75bf ae2b bb3e 00ec 6abf 29f8 393e
00000100: b291 99bd 049b 16bf 092a 03bf 3897 22be
00000110: 8e35 27bf 81ef e93e 4cc8 e23e 87aa 0c3f
00000120: c018 f93e 356f c43e 5aba 3fbf 17df 6abe
00000130: df8b b93e 1aa4 16bf 8eaf c2bd c085 01bf
00000140: 4984 4b3d b024 833c ec77 b43d 947d 70bf
00000150: 0d51 33bf b835 4a3e fad4 3dbf ae43 c93e
00000160: bfd0 7b3f 4498 2abf 6f50 ce3e 9a8d 7fbf
00000170: d154 f3be a1d6 5b3f a050 0fbf 5f8f 873e
00000180: 9839 6abe e654 5fbf 235f 38bf 96ea d6be
00000190: 1ec1 02bf ef6b e7bd c48a 08bf 35a8 7e3d
000001a0: 67fb 5f3f 2e4d f83e d410 463e 5f6e 653f
000001b0: 2cea 53bf 2a60 913e a3c4 2e3f 5450 c9be
000001c0: 9f64 2abe 004f 1bbc 804c ffbc ec63 2dbf
000001d0: 45b6 523f 00f2 21bd 4860 2abe 37d7 073f
000001e0: b849 63be 49f0 26bf f714 523e 5cf9 313e
000001f0: 98d4 f23e f93c b9bd 0ecf 3cbf ec5b babe
00000200: c99f 4c3f 197e 59bf ef63 cdbb 7845 7ebf
00000210: f45d 96be c00d 6dbf b63a 7b3f 313e 49be
00000220: f713 71bf 5663 56bf d3d6 6bbf 30a2 eb3e
00000230: e078 543f e8b5 f8be e73b 8dba 4006 f9be
00000240: 8f9c 36bf 64f4 80bf 8232 463f c132 17bf
00000250: c772 843f ed74 3e3e 8c73 11bf abcf 523f
00000260: 7828 ffbe b5c1 5f3f cf23 9b3e 9d44 babe
00000270: 2421 5ebf 511e 653f bf4c 943e 098e 323f
00000280: 69d0 563f 008d 75be d64d 3abf b223 3e3f
00000290: b4c1 52bf 7e39 2f3f 0b47 39bf a065 94be
000002a0: 7015 c6be 3db2 013f 304a a0bd bce4 5b3d
000002b0: 2aac 48bf 968b 113c da93 f73e a610 9bbe
000002c0: 02ec 71bf eeda 0ebf 9089 bfbe 585a 5e3f
000002d0: bb7c 383f 6865 1d3f 78db 4e3f ead4 a43e
000002e0: 4743 ce3e f079 20bf f53a b0be 7ae9 ed3c
000002f0: dd8c 8f3e b82a 44be ca52 263f 1879 b93e
00000300: 41df 96bd 5447 86be 225f 5cbf 46d6 6d3d
00000310: 7094 aabd c496 5c3e 346a f0bd 561e b63b
00000320: 0820 f7be 40b4 1cbf 8977 0a3f efae 833e
00000330: 89a3 4f3f a0ed 6fbe 7683 883e 83a6 803f
00000340: bddb 423f 8cd8 72bf 8844 4dbe 6e17 113f
00000350: 9ee3 0bbf 3695 cb3d 6858 b6be 3eee 353f
00000360: 21ed e83e 5e39 0f3f a8b3 4f3f 667d 283f
00000370: 7c9c 27bd 01a2 13bd ba8a 2a3e f4b3 173f
00000380: 7089 02be 7859 06be a61f 203f 0c9b 65bf
00000390: 70c1 97bd 4e48 37bf 2082 5ebf e0b1 8dbe
000003a0: d9f5 e03e 2eff a53d 7052 72be 5296 0c3f
000003b0: 556c 263f dcd4 7bbf 9a29 65bf c143 80bf
000003c0: 5744 62bd f1eb e3be b4ad a53e 9df9 47be
000003d0: 31fb 1a3f 95f6 f4ba 7d24 55be b392 d13e
000003e0: 1811 31be feb4 46bf 9231 403f c204 af3e
000003f0: daa4 53bf 9a14 0dbf a3f7 04bf b9ce 623f

weight f4 [1, 256]
0.001807763 0.022983022 -0.06628711 0.15563767 -0.047538582 -0.03681363 -0.059610482 0.048508763
0.029299904 -0.015465857 0.05767511 0.06931276 0.03807418 0.13884892 -0.041964278 0.055731487
-0.016696349 -0.007636864 0.08469483 -0.04352069 0.056398764 -0.0763479 -0.06159662 0.005933741
-0.056625243 -0.05927409 -0.010949656 0.009315513 -0.061644312 0.03765988 0.048147663 0.021174612
0.004808862 0.06740969 -0.062771976 -0.010075037 -0.033440772 0.05122171 -0.010363017 -0.015512616
0.009256673 0.04052971 0.039347574 -0.0059123915 0.01701111 0.0702786 0.026994564 -0.0037085873
0.057082474 0.075462155 -0.008120529 -0.0053009195 -0.059915792 0.0127766915 0.012273484 -0.034117345
-0.037732117 0.016891869 0.016741766 0.019526294 0.13250077 -0.0029154203 0.13693935 -0.0541045
-0.06938308 -0.04034525 0.024556281 -0.021324795 -0.032932587 0.062166683 0.07822094 -0.01689221
0.002675599 -0.0070789102 -0.0134535255 -0.04006879 0.0890633 0.068161376 -0.034937963 -0.0356496
-0.021492057 0.07054588 0.015974618 -0.04906381 0.0453559 0.00014988278 0.0091506215 0.023681939
0.0013771468 -0.02249734 0.06282069 -0.02143848 -0.0061868145 0.032977693 0.05776453 0.04125411
-0.04459196 0.025124183 0.037751015 0.061019868 -0.035175797 -0.11992891 0.013607652 0.04539457
0.07844715 0.04070824 -0.018849505 0.03354142 -0.039537627 0.015828714 0.0690913 0.033168446
-0.049117196 0.02558405 0.034372363 0.014280929 0.07731183 -0.0057948614 0.100030415 0.041119702
0.020375649 -0.030578777 0.03632588 -0.16298854 0.026425792 0.01975128 0.005858359 0.026881903
0.097096294 0.007980897 0.00836156 -0.012904439 0.019933295 0.051097613 0.065240905 0.017128417
-0.065689616 -0.01546578 0.075740024 0.00929721 -0.021314412 -0.07693974 -0.07299254 -0.06313456
0.027421242 0.039138597 0.031356227 0.012613057 0.11210882 0.0085489815 0.011096101 0.014352214
0.04479385 -0.009060719 0.04570422 -0.034007683 0.011546559 -0.025286255 0.11580271 -0.037391428
-0.028255787 0.07993235 0.06461226 -0.023357177 -0.036702704 0.057185113 0.038852468 -0.021452542
0.027445855 0.021121714 0.02520697 -0.022796037 0.026925556 0.10051202 0.027571166 -0.04749178
0.0073785316 0.010982716 0.06110194 -0.029474966 0.05290533 -0.04652818 0.13676424 -0.030596862
-0.042419396 0.09089986 -0.036299672 -0.034200877 -0.022419903 -0.0005642583 -0.023374913 0.035207234
-0.026084404 0.08480213 -0.07217233 -0.016320603 0.06829402 0.07305933 -0.03290943 -0.01893726
0.047964364 -0.043009993 -0.04320342 0.09793706 0.032831132 -0.11293083 0.099445365 0.067583725
0.04233932 -0.056528274 -0.04937404 0.02256223 -0.038526826 -0.018348366 -0.03518567 -0.061678894
0.047064606 -0.065861635 -0.0050157444 -0.05716036 -0.01670954 -0.10823965 -0.04985736 0.0056126732
0.06548081 -0.042766243 -0.04080786 0.003061838 0.03725223 -0.057349306 -0.02753629 0.09031632
0.0500389 -0.004655308 0.026977943 0.023067772 -0.0037595204 0.0141751645 0.020266507 -0.08505508
0.011226045 -0.026066413 0.0057594967 0.06461742 0.055952672 0.021739056 -0.030600375 0.047552075
-0.05074878 0.003704954 -0.030521374 0.044647995 -0.0018478874 0.07912819 0.049851015 0.018925238
00000000: 76f2 ec3a e446 bc3c 89c1 87bd 7b5f 1f3e
00000010: d1b7 42bd e4c9 16bd 1f2a 74bd 20b1 463d
00000020: 5a06 f03c 8264 7dbc bc3c 6c3d d9f3 8d3d
00000030: acf3 1b3d 692e 0e3e bce2 2bbd b346 643d
00000040: c8c6 88bc a93e fabb 7c74 ad3d c042 32bd
00000050: 6402 673d 4a5c 9cbd bd4c 7cbd d46f c23b
00000060: dfef 67bd 63c9 72bd 3066 33bc 18a0 183c
00000070: bf7e 7cbd 3f41 1a3d 7c36 453d 6176 ad3c
00000080: a993 9d3b 170e 8a3d 988e 80bd c511 25bc
00000090: 31f9 08bd dbcd 513d a5c9 29bc a128 7ebc
000000a0: 4da9 173c 7b02 263d ec2a 213d bcbc c1bb
000000b0: e25a 8b3c 3aee 8f3d b423 dd3c c50b 73bb
000000c0: 50cf 693d e78b 9a3d f80b 05bc 56b3 adbb
000000d0: 436a 75bd 5455 513c b916 493c a1be 0bbd
000000e0: fe8c 1abd d160 8a3c 0726 893c 9bf5 9f3c
000000f0: 48ae 073e a310 3fbb d439 0c3e ae9c 5dbd
00000100: b718 8ebd 1041 25bd 412a c93c 56b1 aebc
00000110: 52e4 06bd 7ea2 7e3d 4d32 a03d 8861 8abc
00000120: 1a59 2f3b 34f6 e7bb 2d6c 5cbc 2c1f 24bd
00000130: d266 b63d 3198 8b3d 1c1b 0fbd 5105 12bd
00000140: 1c10 b0bc 5c7a 903d 34dd 823c 22f7 48bd
00000150: 1cc7 393d da29 1d39 7dec 153c a000 c23c
00000160: 6181 b43a 574c b8bc 22a8 803d c09f afbc
00000170: c3ba cabb 9e13 073d 809a 6c3d 12fa 283d
00000180: 0fa6 36bd 3bd1 cd3c cfa0 1a3d f8ef 793d
00000190: 7f14 10bd 4a9d f5bd a1f2 5e3c a8ef 393d
000001a0: e6a8 a03d afbd 263d 476a 9abc ba62 093d
000001b0: 35f2 21bd 38ab 813c bd7f 8d3d a3db 073d
000001c0: 1d2f 49bd a495 d13c 09ca 0c3d 8ffa 693c
000001d0: aa55 9e3d d2e2 bdbb bfdc cc3d 226d 283d
000001e0: d5ea a63c 5880 fabc 72ca 143d 78e6 26be
000001f0: e77a d83c 70cd a13c 7af7 bf3b 7037 dc3c
00000200: 6cda c63d 4fc2 023c edfe 083c 246d 53bc
00000210: 264b a33c bb4b 513d 069d 853d e550 8c3c
00000220: 4788 86bd 2f64 7dbc 961d 9b3d 5353 183c
00000230: 909b aebc 9592 9dbd 1d7d 95bd b14c 81bd
00000240: 83a2 e03c cb4f 203d 636f 003d ffa6 4e3c
00000250: 4f99 e53d 0711 0c3c 6ccc 353c 8c25 6b3c
00000260: c279 373d 6973 14bc 5934 3b3d a44b 0bbd
00000270: c72d 3d3c 1f25 cfbc f929 ed3d c127 19bd
00000280: ae78 e7bc 92b3 a33d 6f53 843d 8d57 bfbc
00000290: 9355 16bd f03a 6a3d c423 1f3d 3ebd afbc
000002a0: 21d6 e03c 7207 ad3c d97e ce3c c1be babc
000002b0: fc92 dc3c 3fd9 cd3d eddc e13c be86 42bd
000002c0: 9cc7 f13b daf0 333c 0746 7a3d 7c75 f1bc
000002d0: 42b3 583d 5594 3ebd ed0b 0c3e 45a6 fabc
000002e0: f6bf 2dbd b529 ba3d f7ae 14bd 3816 0cbd
000002f0: f2a9 b7bc bcea 13ba bf7c bfbc 7635 103d
00000300: f6ae d5bc bdac ad3d 16cf 93bd c9b2 85bc
00000310: bcdd 8b3d 21a0 953d 0acc 06bd 5022 9bbc
00000320: 4876 443d 3f2b 30bd 12f6 30bd 3a93 c83d
00000330: f079 063d 4748 e7bd 03aa cb3d 5669 8a3d
00000340: ff6b 2d3d 318a 67bd 6f3c 4abd 6dd4 b83c
00000350: 4ece 1dbd 504f 96bc d91e 10bd 02a3 7cbd
00000360: d1c6 403d 77e2 86bd 1d5b a4bb fb20 6abd
00000370: 72e2 88bc c0ac ddbd 3b37 4cbd 84ea b73b
00000380: ce1a 863d a82b 2fbd 2526 27bd 1ea9 483b
00000390: cb95 183d 1be7 6abd c993 e1bc c3f7 b83d
000003a0: 97f5 4c3d 8e8b 98bb d900 dd3c a0f8 bc3c
000003b0: 4962 76bb f33e 683c f205 a63c 5c31 aebd
000003c0: 72ed 373c 3b89 d5bc 29ba bc3b 2356 843d
000003d0: a12e 653d 1b16 b23c a3ad fabc f7c5 423d
000003e0: f4dd 4fbd d0ce 723b f607 fabc d1e0 363d
000003f0: d034 f2ba f60d a23d 9430 4c3d 1a09 9b3c

weight f4 [256, 1]
-0.9102725 0.95158523 0.41832668 -0.11462311 0.09528238 0.39868942 0.6218035 -0.79801345
-0.84994006 0.11597262 -0.05422041 0.25838962 0.065202355 0.107666165 0.8416029 -0.49045023
-0.43483412 -0.48740602 -0.3911373 0.22119108 0.4925379 0.5675784 0.7685617 -0.08284044
0.5784951 -0.78802073 -0.5444565 -0.83136976 -0.6851323 -0.8115429 0.24944681 0.7373699
-0.67028886 0.6301556 -0.35996765 0.9388667 -0.19858778 -0.12756741 -0.52710116 -0.6596879
-0.80986917 -0.5251827 -0.39241648 0.9308085 -0.50558186 -0.8782151 0.7630889 0.7344527
-0.75523615 0.23891592 0.084973566 -0.29209697 0.41192994 0.7634583 -0.33024335 -0.84344304
-0.8242011 -0.25208354 0.013386218 0.6223605 0.42820245 0.17250088 -0.7381376 0.66841745
0.35975748 -0.30618858 -0.102451555 -0.32729506 -0.5417101 -0.60010207 -0.23106354 -0.15854883
-0.74385715 0.7468096 0.15127029 -0.031324983 -0.2405144 0.7910667 0.026458966 0.7309217
-0.19651139 -0.7503922 0.10183472 -0.42214128 0.21372025 0.45418686 -0.5683753 0.18944484
-0.116393335 -0.4364735 -0.80970335 0.26032242 0.32359993 0.5628763 0.5685346 -0.7223016
0.70033073 0.37465227 -0.83598197 -0.21854064 -0.14455235 -0.5558976 0.01241604 -0.7158517
0.6289756 0.039447308 0.2162721 -1.0146012 0.28010523 0.1980522 0.24922673 -0.9918138
0.6951444 -0.98661983 0.6984559 -0.71126676 0.47662994 -0.64477265 -0.973742 0.030909255
0.060158182 0.32056722 -0.105288245 0.17620893 -0.78401494 0.5306504 -0.059202194 0.1792336
-0.19232094 0.5188641 0.96185184 -0.8526075 0.115490116 -0.2758501 0.8612606 0.28816193
0.16616967 0.7715894 0.5318017 0.47057265 0.5510388 -0.059553504 -0.6321533 -0.92147076
-0.41895723 -0.83269334 0.29178327 0.8802265 0.46806976 -0.7099637 -0.0717901 0.008336425
0.55274224 0.9779303 0.8058145 0.9215232 -0.14390403 -1.0544895 -0.7036071 -0.6081495
0.83268404 -0.8868587 0.11096292 0.9158591 -0.7211113 -0.2969451 -0.5104718 -0.63712823
-0.1881553 -0.4005482 -0.40588844 0.8912966 0.8752877 0.76200366 0.07477621 -0.4961946
-0.11686598 0.44322154 0.9909999 0.8308611 -0.8765187 -0.28327543 0.80800223 0.121591695
0.10025334 0.70102423 0.8607253 -0.43126926 -0.13334028 -0.68626887 -0.091359556 0.006787777
0.44553542 -0.27046418 0.7360386 -0.17491496 -0.12969849 0.97734815 0.47911754 0.32751587
0.45767444 0.028315576 -0.04395473 0.4045075 -0.1591934 0.90944105 0.651339 -0.65126
0.2383462 -0.65950847 0.6007357 0.82835734 -0.82111096 0.662964 0.41190478 0.5003767
0.05504775 0.333609 -0.4413613 0.99710554 -0.13655348 0.90909797 -1.0798601 -0.9210154
-1.065228 0.098810166 -0.26552188 0.72897106 0.9204997 0.66752326 0.7365356 0.5273807
0.4873288 -0.2742548 0.966902 -0.43985105 -0.6994537 0.7585179 -0.41535062 0.40471578
-0.7224639 0.58964884 0.8092625 0.18291777 -0.28005877 -0.26530242 0.94274884 0.16064177
0.6912521 0.14860554 0.32234114 0.41334966 0.9719079 0.22149232 0.021991488 0.897634
00000000: 9e07 69bf 179b 733f ea2e d63e 85bf eabd
00000010: 6923 c33d 0521 cc3e 842e 1f3f 9c4a 4cbf
00000020: ac95 59bf 0e83 ed3d 3816 5ebd a54b 843e
00000030: d088 853d 1480 dc3d 4a73 573f 4b1c fbbe
00000040: 94a2 debe 488d f9be 2643 c8be ea7f 623e
00000050: ed2d fc3e d14c 113f 76c0 443f 40a8 a9bd
00000060: 4118 143f babb 49bf 8061 0bbf a6d4 54bf
00000070: d564 2fbf 47c1 4fbf fc6e 7f3e 46c4 3c3f
00000080: 0d98 2bbf e151 213f ae4d b8be 9159 703f
00000090: 985a 4bbe 08a1 02be 1af0 06bf 4ee1 28bf
000000a0: 9653 4fbf 6072 06bf d0ea c8be 7749 6e3f
000000b0: d06d 01bf b4d2 60bf cb59 433f 1805 3c3f
000000c0: 2857 41bf 60a6 743e 9f06 ae3d bc8d 95be
000000d0: 7be8 d23e 0172 433f a815 a9be e2eb 57bf
000000e0: d8fe 52bf 1811 81be de51 5b3c 0553 1f3f
000000f0: 5a3d db3e 12a4 303e 96f6 3cbf 681d 2b3f
00000100: 2232 b83e c0c4 9cbe 1fd2 d1bd 3893 a7be
00000110: 83ad 0abf 4aa0 19bf ec9b 6cbe a05a 22be
00000120: 6c6d 3ebf ea2e 3f3f 99e6 1a3e a04e 00bd
00000130: 6849 76be 5983 4a3f 79c0 d83c af1d 3b3f
00000140: 483a 49be b419 40bf b98e d03d e722 d8be
00000150: 7bd9 5a3e 2e8b e83e 0b81 11bf d4fd 413e
00000160: a15f eebd 7479 dfbe b848 4fbf fb48 853e
00000170: e4ae a53e a918 103f 7c8b 113f c2e8 38bf
00000180: e048 333f 6cd2 bf3e ea02 56bf 1ec9 5fbe
00000190: 8805 14be 4e4f 0ebf a56c 4b3c 0f42 37bf
000001a0: 8b04 213f 8093 213d 6f76 5d3e 74de 81bf
000001b0: f469 8f3e 32ce 4a3e 4b35 7f3e 82e7 7dbf
000001c0: fcf4 313f 1e93 7cbf 02ce 323f 9415 36bf
000001d0: d708 f43e d20f 25bf 2847 79bf 6835 fd3c
000001e0: 6d68 763d 6321 a43e 5da1 d7bd 1d70 343e
000001f0: 34b5 48bf b4d8 073f 007e 72bd 0389 373e
00000200: c8ef 44be 47d4 043f ec3b 763f 7c44 5abf
00000210: 1586 ec3d 393c 8dbe 937b 5c3f f689 933e
00000220: 6228 2a3e e286 453f 2824 083f e6ee f03e
00000230: e110 0d3f 60ee 73bd ccd4 21bf 82e5 6bbf
00000240: 9081 d6be 642b 55bf 9e64 953e 8656 613f
00000250: d7a6 ef3e 2ec0 35bf b006 93bd 8095 083c
00000260: 8480 0d3f a459 7a3f dc49 4e3f f2e8 6b3f
00000270: 945b 13be 83f9 86bf 981f 34bf b0af 1bbf
00000280: c82a 553f 2c09 63bf 8740 e33d be75 6a3f
00000290: c09a 38bf 3009 98be 48ae 02bf d61a 23bf
000002a0: c8ab 40be a714 cdbe 9cd0 cfbe 042c 643f
000002b0: db12 603f ac12 433f 4524 993d 380d febe
000002c0: 6e57 efbd efed e23e 2bb2 7d3f 50b3 543f
000002d0: 8863 60bf 7a09 91be 3cd9 4e3f 1105 f93d
000002e0: a051 cd3d 5376 333f 7e58 5c3f 53cf dcbe
000002f0: 5b8a 08be 51af 2fbf b81a bbbd 006c de3b
00000300: 381d e43e 487a 8abe 076d 3c3f e81c 33be
00000310: aecf 04be 7d33 7a3f e54e f53e 29b0 a73e
00000320: 4e54 ea3e 11f6 e73c e009 34bd 9b1b cf3e
00000330: 9803 23be 21d1 683f 27be 263f fab8 26bf
00000340: 0711 743e 8cd5 28bf d1c9 193f 3a0f 543f
00000350: 5434 52bf 02b8 293f 2fe5 d23e b018 003f
00000360: c079 613d cdce aa3e 1cfa e1be 4f42 7f3f
00000370: add4 0bbe a5ba 683f db38 8abf aac7 6bbf
00000380: 6459 88bf fc5c ca3d 7cf2 87be d99d 3a3f
00000390: dea5 6b3f cee2 2a3f 998d 3c3f 6c02 073f
000003a0: 2983 f93e 206b 8cbe e486 773f 2834 e1be
000003b0: 660f 33bf 3b2e 423f d6a8 d4be e836 cf3e
000003c0: 65f3 38bf 3af3 163f d42b 4f3f cc4e 3b3e
000003d0: dd63 8fbe b8d5 87be fd57 713f 477f 243e
000003e0: e6f5 303f 0d2c 183e e609 a53e 91a2 d33e
000003f0: f5ce 783f e2ce 623e 7e27 b43c 58cb 653f

bias f4 [256]
0.06658921 0.32424325 -0.5851655 1.0352566 0.17045699 -0.61211556 0.2334518 0.085836306
0.7960954 0.63607246 0.851874 0.6615707 -0.80927813 0.9720794 -0.9480559 0.25118443
-0.54854524 0.87965983 0.79547435 -0.24231565 0.031073567 -0.39133164 0.004541616 -0.24818361
-0.33598077 -0.6542038 -0.8966687 -0.9088752 0.38921285 0.23019123 -0.5468207 -0.16932343
0.19828321 -0.24253696 0.6514698 0.37592262 -0.8096436 -0.9518162 -0.36671507 -0.52299964
-0.3437463 -0.00078378536 0.23578879 -0.82440066 -0.70961654 -0.9419223 0.03799369 -0.4538265
-0.57621074 -0.31081933 0.50991 -0.9131912 -0.998482 0.22225915 -0.6880249 -0.5837648
0.838547 -0.84617805 -0.0927864 -0.17835137 -0.05660704 0.49836367 -0.9678637 0.72593516
-0.7125935 -0.27971303 0.6733219 -0.25921392 0.28465563 -0.9508674 0.69401157 -0.887198
-0.9915843 -0.75822383 -0.7170691 -0.6154442 -0.9704001 -0.079153165 0.06573353 -0.53072244
-0.13533282 0.36100292 0.25514108 0.89696795 -0.04856995 0.19189672 0.41926494 -0.17777969
0.86272776 0.9422541 -0.50674057 0.38732404 0.5170069 -0.46624902 -0.3892433 0.047772143
-0.25001204 -0.00048565512 -0.98318934 0.6639259 -0.73104346 -0.34970713 0.25560313 0.42097855
-0.38889408 -0.6440817 0.8801652 0.6929134 -0.60653675 0.43151388 0.063103296 -0.98970735
0.821953 -0.029419065 -0.67596567 0.9337188 0.32309327 -0.099871755 -0.80778694 0.48207656
0.974336 0.45060435 0.22876263 -0.61437505 -0.5023192 0.85983425 -0.61905205 0.59114224
-0.26669216 -0.31043315 0.37025678 -0.9247931 -0.4411052 0.9287013 0.534444 -0.9952297
-0.310502 0.50809693 -0.6447156 -0.7458054 0.5444411 -0.399603 0.10587786 -0.657375
-0.62303686 -0.7222364 0.74241525 0.082653746 0.83629674 -0.4710288 -0.32181704 -0.26223445
0.7008017 0.26021615 -1.0058525 -0.5920878 0.60801774 0.8120996 -0.32342422 -0.09146309
0.5269622 0.7223331 -0.5189783 0.73831785 -0.7880151 -0.7484355 0.40704292 -0.38401675
-0.7185986 -0.00075349153 -0.36522233 -0.35615778 -0.3306035 0.7317824 0.9912626 0.2598138
0.06777427 -0.5116647 0.8446801 -0.10973366 0.45020485 0.8661728 0.13244474 -0.09093454
-0.7200853 0.4592655 -0.04267469 0.21697001 0.58435416 0.17882518 0.58487976 -0.96099377
-0.89766157 -0.66856706 -0.56175184 -0.13753152 0.5587944 -0.676257 -0.5204521 0.6472984
0.6735005 0.83473355 -0.021921992 -0.812542 -0.33925414 0.27376735 0.617385 0.25244457
-0.08692538 -0.26399982 -0.1191946 0.92942744 -0.79966915 -0.90848285 0.8041533 0.6986747
-0.6177045 0.41872385 -0.63263357 -0.9446354 0.33256477 -0.23900609 0.7853439 0.63216615
0.9157843 0.36830765 -0.5203595 0.5321354 -0.81905824 0.81410474 -0.65819657 0.9874403
0.16348766 0.586603 -0.37932643 -0.78572965 0.19738829 -1.0421706 0.13719088 -0.32833183
0.49456695 0.16281395 -0.08392496 0.07607186 0.5884116 -0.77819777 -0.22420025 0.6463366
-0.18756628 0.3780954 0.6722937 -0.9077733 -0.66388834 0.8220612 -0.1603681 -0.5962747
00000000: ec5f 883d 3603 a63e 68cd 15bf 4a83 843f
00000010: 478c 2e3e 9bb3 1cbf fd0d 6f3e f2ca af3d
00000020: e8cc 4b3f a5d5 223f 6a14 5a3f b35c 293f
00000030: da2c 4fbf 32da 783f cbb3 72bf 3f9b 803e
00000040: 766d 0cbf 6331 613f 35a4 4b3f 9821 78be
00000050: fe8d fe3c 9f5c c8be d6d1 943b d823 7ebe
00000060: ac05 acbe e679 27bf 148c 65bf 0cac 68bf
00000070: e846 c73e 40b7 6b3e 71fc 0bbf 1f63 2dbe
00000080: c10a 4b3e 9c5b 78be bac6 263f ee78 c03e
00000090: ce44 4fbf 3aaa 73bf 14c2 bbbe 4ee3 05bf
000000a0: 84ff afbe f276 4dba 9e72 713e ec0b 53bf
000000b0: 6ea9 35bf d221 71bf 469f 1b3d f25b e8be
000000c0: 8c82 13bf b623 9fbe 7689 023f e6c6 69bf
000000d0: 849c 7fbf e797 633e 6622 30bf 9c71 15bf
000000e0: 04ab 563f 209f 58bf cc06 bebd bea1 36be
000000f0: c9dc 67bd 8629 ff3e eac5 77bf e3d6 393f
00000100: 876c 36bf 8c36 8fbe d35e 2c3f b0b7 84be
00000110: 62be 913e 0c6c 73bf beaa 313f 681f 63bf
00000120: 78d8 7dbf f51a 42bf d791 37bf c08d 1dbf
00000130: 246c 78bf 0e1b a2bd 4d9f 863d 6ddd 07bf
00000140: b094 0abe 60d5 b83e daa1 823e b19f 653f
00000150: 49f1 46bd 9380 443e e5a9 d63e e10b 36be
00000160: badb 5c3f 9137 713f c0b9 01bf 564f c63e
00000170: 905a 043f 31b8 eebe e64a c7be b9ac 433d
00000180: 9401 80be 879f feb9 4cb2 7bbf 0cf7 293f
00000190: aa25 3bbf d00c b3be 6ade 823e 808a d73e
000001a0: 201d c7be 8ae2 24bf 8252 613f c662 313f
000001b0: fe45 1bbf 63ef dc3e 4d3c 813d 765d 7dbf
000001c0: 836b 523f 4000 f1bc 160c 2dbf 3208 6f3f
000001d0: 7b6c a53e 9089 ccbd 20cb 4ebf bdd2 f63e
000001e0: 166e 793f 9db5 e63e c040 6a3e af47 1dbf
000001f0: fe97 00bf 191e 5c3f 327a 1ebf 1955 173f
00000200: e08b 88be 18f1 9ebe 4c92 bd3e 3ebf 6cbf
00000210: 8ad8 e1be 5ebf 6d3f 52d1 083f 60c7 7ebf
00000220: 1efa 9ebe a412 023f 150c 25bf 1aed 3ebf
00000230: 7e60 0b3f c498 ccbe 7ed6 d83d ba49 28bf
00000240: 587f 1fbf 7ce4 38bf ed0e 3e3f 5e46 a93d
00000250: 8b17 563f b02a f1be 34c5 a4be 9843 86be
00000260: bd67 333f 0d3b 853e c6bf 80bf 1193 17bf
00000270: 0da7 1b3f c2e5 4f3f dc97 a5be 0051 bbbd
00000280: ffe6 063f d2ea 383f c3db 04bf 6602 3d3f
00000290: 5cbb 49bf 7899 3fbf ee67 d03e d89d c4be
000002a0: 14f6 37bf f685 45ba 6cfe babe 505a b6be
000002b0: dd44 a9be 1756 3b3f 63c3 7d3f 5006 853e
000002c0: 3dcd 8a3d 75fc 02bf f43c 583f 0bbc e0bd
000002d0: 4081 e63e 80bd 5d3f 989f 073e e33b babd
000002e0: 8357 38bf d924 eb3e a8cb 2ebd 632d 5e3e
000002f0: 3c98 153f f31d 373e aeba 153f b003 76bf
00000300: 26cd 65bf 3627 2bbf f8ce 0fbf 10d5 0cbe
00000310: 260d 0f3f 2e1f 2dbf 593c 05bf 59b5 253f
00000320: 876a 2c3f 19b1 553f c095 b3bc c102 50bf
00000330: b8b2 adbe 3c2b 8c3e f20c 1e3f 6a40 813e
00000340: ef05 b2bd fc2a 87be 4c1c f4bd f5ee 6d3f
00000350: 1eb7 4cbf 5592 68bf fedc 4d3f 58dc 323f
00000360: e221 1ebf f962 d63e 46f4 21bf a0d3 71bf
00000370: ee45 aa3e 03be 74be 4c0c 493f a4d5 213f
00000380: d770 6a3f d292 bc3e 4836 05bf 073a 083f
00000390: cdad 51bf 2b69 503f 927f 28bf e3c8 7c3f
000003a0: 4f69 273e 9d2b 163f 1337 c2be 9425 49bf
000003b0: 2820 4a3e d965 85bf c47b 0c3e 1c1b a8be
000003c0: e137 fd3e b3b8 263e d9e0 abbd 90cb 9b3d
000003d0: 25a2 163f f837 47bf c094 65be 5176 253f
000003e0: 6011 40be b895 c13e 711b 2c3f d563 68bf
000003f0: 96f4 29bf 9a72 523f 8937 24be 75a5 18bf
