checkpoints/213552000.ckpt (torch, 122663 bytes, 33 tensors)

weight f4 [256, 18]
00000000: 63b3 23be bb50 963d ceac a93d 48d8 b8bc
00000010: 66f5 51bd f6eb cb3c 6245 3ebe 8ba6 93be
00000020: f2cf 03bd fff3 d6bd bfb0 8dbe 6ce5 11bd
00000030: 0d6b a6bc fb31 8cbe b3db acbe 84e7 9abd
00000040: 7fe0 8dbe e563 853d ce0c 49bb e408 b13b
00000050: dd47 6fbc 6e5b 003c acee 7fbe c71a 143e
00000060: f599 d0bd 9ca9 b73d 60e5 d33d 54f9 f1bd
00000070: 1b27 d83d 3d75 283c 331b ca3b f35c 91bb
00000080: 4f14 79bd 456e b43b 5afe 9ebd 0738 ebbc
00000090: 0b75 b1be f2fa 98bc 3d4c 20bc a77b 06bd
000000a0: 30ca 9dbd d9f7 25be 1351 633d 7080 1b3d
000000b0: c6b0 40be 0a12 32bd 88fc c4bc ec95 223b
000000c0: 3811 f63c c52d 62bd 0998 e4bd 8aff 933a
000000d0: ec69 ca3d af75 73be f31a 9abe c66a 7c3d
000000e0: 6e63 103d 105a b03d ba56 bc3d 40c6 523d
000000f0: 7bf3 a53d de51 063c a184 ad3d dc6e 7fbd
00000100: d415 7abd 1de3 33be b9ae 453e d4e9 33be
00000110: 0c1e 05be 56a5 113d 323a 5f3d a270 4bbe
00000120: 3fea 85bc 74dd 7e3b 4e72 85ba 05a0 82bc
00000130: c114 0e3d 4ee0 55be 2d66 30bb 3b5e 41be
00000140: 6106 413d 7264 443b 3949 98ba 08fc 8c3a
00000150: b11f b73a df7c 4bbd c9dc 103e 2252 edba
00000160: 262d 5fbc 8307 b13c 8abd 423e 9eb4 69bd
00000170: efc7 093d cb3a ebbd 0b74 7fbe 2b0f 3fbe
00000180: 0254 0c3e 8d38 c33d fb5b e53d f171 31be
00000190: 3f38 a4bd ee77 dabd 0262 6abd 926a 043e
000001a0: 64fe 533d 8e86 73bd bf56 d3bd 06d8 98bd
000001b0: fa02 cd3e 5276 a5bd cb25 9f3a c9d9 fe3d
000001c0: 0d5f a23d 2be5 593e 98bf f6bd b0ae 6ebd
000001d0: 2427 aebd 84aa d73c e435 1e3c 3b26 443c
000001e0: fdfd 003d 0bca 873d 9196 cbbd 07d4 e63b
000001f0: adf0 41bd 5e4e 19be cbac 07bd bb89 703b
00000200: f9e3 edbb e729 97bc f91e 593d b279 853d
00000210: 4179 7c3a f9f6 153e bc02 4a3d c20d eb3b
00000220: 3d9f 783b fde9 d139 8022 433b 70de c0bc
00000230: bb16 b93e 066f 76bb 5ccf 9abe 1e1a a23c
00000240: ae09 113d fdc8 e43c e017 28be b73a d23d
00000250: b295 8e3d 00d2 113e 7a40 ed3d 8f5a 643c
00000260: b0f9 a3bd 7b03 563e a0fb 4ebd 7a13 133e
00000270: f956 0a3e ad23 8cbd 7266 23bd 78ce ed3c
00000280: 13ef 0bbd 125d d33d 897d 2bbc 25f0 0fbb
00000290: 1885 83ba 277e e6b8 c622 f43b bf66 56bd
000002a0: 0001 78bb 6074 1e3d 48b7 30bb 553f cf3b
000002b0: 9d21 41bb 8697 9f3a bd5a db3a 9a34 2f3d
000002c0: 1b96 693d b7a5 8c3a 2ee5 f43d 6563 3fbb
000002d0: 97d9 96bd ecb8 7cbd 421e 85bd 986c 62bd
000002e0: 9d16 42be 36ff fcbd cce8 c3bd ff97 cc3b
000002f0: 6233 0abe 1025 63be 28c4 96bd 5db7 b2bc
00000300: 89df a2bd d248 bd3d f407 313c cc8f 96bd
00000310: adef 9ebd fbfd 8d3e 06b5 1b3e 0908 693d
00000320: aac4 f1bc 8590 f43d 1449 1bbd 92f2 04bd
00000330: 5e6b ae3d 862e 64bc 5c1c b63d 6423 ce3d
00000340: 2341 663e 2b40 e93c 91bb c9bd f797 d73d
00000350: 4155 8abe 70e8 80bd d572 ebbd 1e5c a43d
00000360: d404 273d 616f 8e3d 80a0 223d 74e1 e83d
00000370: 4774 e2bb 36a7 00be 5f63 42bd 7a8b c9be
00000380: acc3 a9bb 526b c3bd cf4b 69be dedb 0bbd
00000390: d55b 82bd a767 47be 71ad 99be 89f9 253d
000003a0: d655 3fbe c7db 723d 99f9 973c fdcb 233c
000003b0: b560 8fba 5c89 c539 4ed3 053c 57d3 503c
000003c0: 7144 ccba 1c13 2ebe 7699 803c 6407 8d3c
000003d0: 0507 08bb 907f 12ba fe3a 88bb d4fd ff3d
000003e0: 8ad1 bbbd 527e f33a 659c 923d 7bbe fc3b
000003f0: 6569 d7be c0d7 ae3c 34e5 fabc cd8e 96bc
-0.159864 0.07339617 0.08284913 -0.022564068 -0.05125942 0.024892788 -0.18581155 -0.28838
-0.032180734 -0.10495757 -0.2767391 -0.035619184 -0.020314718 -0.27381882 -0.33761367 -0.07563689
-0.2771034 0.06513194 -0.0030677798 0.005402671 -0.014604536 0.007834299 -0.2499339 0.1446334
-0.10185615 0.08967897 0.10346484 -0.11815134 0.10554334 0.010281858 0.006167793 -0.0044361292
-0.060810383 0.005506309 -0.077633575 -0.02871324 -0.3465961 -0.018674348 -0.009783802 -0.032832768
-0.0770458 -0.16207828 0.05549724 0.037964284 -0.18817434 -0.043474235 -0.024046198 0.0024808599
0.030037507 -0.05521943 -0.11161811 0.0011291367 0.09883484 -0.23775361 -0.30098686 0.061625265
0.035251074 0.08610928 0.09196229 0.051458597 0.08103081 0.00819823 0.084725626 -0.062361583
-0.061055973 -0.17567106 0.19304933 -0.17569667 -0.12999743 0.035558067 0.05449886 -0.19867185
-0.016347049 0.003888932 -0.001018116 -0.015945444 0.03468776 -0.20886347 -0.002691637 -0.18883602
0.047125224 0.0029967097 -0.0011618502 0.0010756264 0.0013971237 -0.049679633 0.14146723 -0.0018106143
-0.013621604 0.021610027 0.19017616 -0.057057016 0.033637937 -0.11485823 -0.2494661 -0.1865813
0.13703921 0.095322706 0.111991845 -0.17328621 -0.080185406 -0.10667406 -0.057222374 0.12931278
0.051756278 -0.059454493 -0.1031928 -0.07463078 0.40041333 -0.080792084 0.0012142 0.12443883
0.07928286 0.21278827 -0.12048262 -0.058272064 -0.08503559 0.026326425 0.009656403 0.0119720055
0.031492222 0.066303335 -0.09940828 0.0070443186 -0.047348667 -0.14971301 -0.033123773 0.0036703188
-0.0072598425 -0.018452598 0.053008053 0.06517352 0.00096311053 0.14644994 0.049319014 0.007173271
0.003793671 0.0004003792 0.0029775202 -0.023543566 0.36150154 -0.0037602796 -0.30236328 0.019787844
0.035409622 0.02792787 -0.16415358 0.10265105 0.06962146 0.14240265 0.115845636 0.0139376065
-0.080066085 0.20899765 -0.050532937 0.14362898 0.1350974 -0.06842742 -0.03989262 0.029029116
-0.034163546 0.10320486 -0.010466942 -0.0021963206 -0.0010034172 -0.00010990752 0.0074504344 -0.05234408
-0.0037842393 0.038685203 -0.0026964713 0.0063246884 -0.0029469498 0.0012175895 0.0016735416 0.042774774
0.057027917 0.0010730539 0.11957775 -0.002920353 -0.07365721 -0.061699793 -0.06499912 -0.055279344
-0.18953939 -0.12353365 -0.09565887 0.0062437053 -0.13496163 -0.22182107 -0.073616326 -0.02181595
-0.07952792 0.09242405 0.010805119 -0.07351646 -0.07760558 0.27732834 0.15205774 0.05689243
-0.029512722 0.119416274 -0.03791149 -0.032457896 0.085165724 -0.013927108 0.08892128 0.10065344
0.22485785 0.02847298 -0.098502286 0.10527032 -0.2701817 -0.06294334 -0.11496512 0.080253825
0.04077609 0.069548376 0.039703846 0.11371127 -0.006910834 -0.12563786 -0.04745805 -0.39364225
-0.0051807966 -0.09541954 -0.22782825 -0.03414523 -0.06365172 -0.19473134 -0.30015138 0.04052118
-0.18685088 0.059291627 0.018551635 0.009997365 -0.0010938855 0.0003767711 0.008168055 0.0127457
-0.0015584362 -0.16999477 0.015698176 0.017215438 -0.0020756137 -0.00055884663 -0.004157423 0.12499586
-0.09170826 0.0018577075 0.07158736 0.0077131367 -0.42072597 0.021343112 -0.03062687 -0.01837864

bias f4 [256]
00000000: 1bb8 80bd ba59 0a3e 5cc7 aebd 6da2 38be
00000010: 8495 40be 197e ba3d 0d46 6dbc 7091 70be
00000020: 2d02 ecbd 44b7 edbd 1b6e 523d ded0 1bbe
00000030: b635 99bd e689 f73c c2c1 7ebe 5d71 aa3d
00000040: c48c 9abe 8915 893d ce07 51be e83b bfbd
00000050: 1482 8cbd 1e9f fabc 52fd e43d c654 e0bc
00000060: db6d 17be 32ac 0dbe 9481 73bc d742 e3bd
00000070: fc83 67be c1a9 93be 99c2 993d 3d7c 6cbe
00000080: df3f babd 70f9 f93d ab18 fe3d 8479 0d3e
00000090: ae71 2a3c dd53 9cbe 186f 1cbd d4ee 20bd
000000a0: c25f 6abd 177e 47be 3d80 0cbe d072 e03d
000000b0: 04f2 2a3e d8d5 61bd 5649 073c b433 b03c
000000c0: eb18 c63d b3cb f63d a6d1 99bb 54f1 2fbe
000000d0: d475 b43b 9daa 1fbe a930 10be d4f4 42be
000000e0: 2a05 56be 5b14 6bbe 276e 6ebe 1d80 b0be
000000f0: a417 32be d574 fb3c d081 aa3c c510 4f3c
00000100: b17b 94bd 2dae 87bd 11fe 5ebd e0f9 ee3d
00000110: d4d0 1c3e 53b5 3b3c 27f6 9b3d d46b d8bd
00000120: 47b1 ebbd cad4 a03c d7f6 073e bdda e6bc
00000130: 4060 f43b 3e99 23be 4927 193d 530b a8be
00000140: 0607 2fbe dc1d c7bd aa7f 1abe a52a 04bd
00000150: 4813 1ebe 9f2a cabd db50 89be 6c9b c13a
00000160: 6327 85bd bb6d 883b bd7e 263e 3f83 d03d
00000170: 21aa f13d ee1d ccbc fc50 5bbd ea56 5bbe
00000180: e544 a7bd aee0 cebd 1034 1abe ad4e 00be
00000190: d940 b03d bcd0 ebbd 114c 95bd a4b9 1b3d
000001a0: b166 0abe 221e 90bd 8122 31be 88ce 85be
000001b0: 7458 c13c fa02 083e 5cf1 36bd f38a 1d3e
000001c0: 01c1 b6bd 62bf 85be 2fb3 3cbb 8850 febd
000001d0: 59de afbd cd06 a3bd 8f81 72bc 54b8 06be
000001e0: 98ef 27be 007d e9bd fa56 7cbe 44a4 66bd
000001f0: 5f5b 4ebe a882 07be 9bfb 7a3c 0904 38be
00000200: 780e 82bd 706c 16bd da75 80bd 5582 2f3d
00000210: db59 99bd 9c18 3fbe 9660 cdbd d68b 7abe
00000220: 2b1c 21be 0c9b daba 13ab 17be d4a1 29be
00000230: f3e4 e3ba beab ae3d 95ab 9dbd 3b0d 81be
00000240: fedb e6bc c2a1 533d 95cf 30be cd9a 113e
00000250: c3fe 8abe 6c99 e23c 38a8 8abc ea8d 6cbd
00000260: fdb8 0bbe 5cfa dd3d 66f9 88be fd84 d9bd
00000270: c443 86bd 3b70 ecbd 7250 b4bd 6acb 2f3d
00000280: dcd3 5cbe 2492 c2bd 3417 953d 2c94 60be
00000290: ff1d b5bd 5733 03be 1974 a0bd 846d 59be
000002a0: 51cd 94be 9378 a0be d591 8cbe ee20 0fbe
000002b0: 8ce6 103e 2667 fe3d 25a8 4a3d d26d 3ebe
000002c0: bafb 463d 5918 70be c4cf 5bbe 9080 82be
000002d0: 005e 0bbd f860 5d3d d13e d03c d3bc 10be
000002e0: 8461 4f3c 6085 093e 49a1 0d3e 1aec 4fbe
000002f0: a387 e93b 25c9 f33d 4a99 50be 87c8 0bbd
00000300: 72b5 4abe 1e0d d6be dd75 f0bd f387 49bc
00000310: 4bde fdbd 2ef3 9e3d f8b4 543d f150 49be
00000320: d33e aabc 82c4 83bc c28e 473c 6bf0 c0bd
00000330: 4c68 09be 8467 b6bd 35a1 00be 841a 5b3e
00000340: e35a 10be 64b5 27bd c100 9e3d 4bea 9bbe
00000350: 7812 ee3b a364 0bbe 21ff c23d f8e7 3cbe
00000360: 5024 9ebe 900c 3c3d 5680 b8bd f416 aa3d
00000370: 4a70 233e 207b b0bd ff79 18bc 5a79 b4be
00000380: 66e4 69be 709e d1bd ddcc 38bc c038 1c3d
00000390: 23af 8cbc 30f8 8bbe d135 803d b6b6 3abe
000003a0: 273b 5fbe 389c 0f3e 7771 b93c 9b3f 8f3d
000003b0: 7e21 9fbd 9cee 04be a95b 69be 66e2 64bd
000003c0: 6ba5 11be fe5f 40bd de2c 39bd b7c9 d4bc
000003d0: 6687 5a3a 0072 15be a861 a73d 5f67 87be
000003e0: 360c 9fbe 6504 a13d 5c4b 89be 6391 8abd
000003f0: fdf6 9fbe 2324 0bbe 94f0 a5bd 3030 ccbe
-0.06285115 0.1351079 -0.085341185 -0.1803071 -0.18807036 0.091060825 -0.014482033 -0.2349298
-0.115238525 -0.11607221 0.051374536 -0.15216395 -0.07480948 0.030217122 -0.248786 0.083224036
-0.3018552 0.06693561 -0.20413134 -0.09337598 -0.06860748 -0.030593451 0.111811295 -0.027384173
-0.14788 -0.13835219 -0.014862437 -0.11096733 -0.22608942 -0.2884045 0.0750782 -0.23094268
-0.09094214 0.122057796 0.12407049 0.13815886 0.01040308 -0.30532733 -0.038191885 -0.039290264
-0.057220228 -0.19481693 -0.13720794 0.10959399 0.16693884 -0.055135578 0.008257231 0.021509029
0.096727215 0.12050571 -0.0046941815 -0.17181903 0.0055072103 -0.15592428 -0.14081062 -0.19038707
-0.20900407 -0.22956984 -0.23284207 -0.34472743 -0.1739183 0.030695358 0.020813853 0.0126382755
-0.07250155 -0.06625018 -0.054441515 0.116687536 0.15314037 0.011456805 0.07615309 -0.105674416
-0.11508422 0.019632716 0.13277756 -0.028180474 0.007457763 -0.15976426 0.03739098 -0.3282114
-0.17092523 -0.09722492 -0.15087762 -0.03226723 -0.15437043 -0.098714106 -0.268195 0.0014771051
-0.06501653 0.0041634715 0.16259284 0.10181283 0.11800028 -0.024916615 -0.05354403 -0.21419874
-0.081674375 -0.10101448 -0.15058923 -0.12530012 0.08606119 -0.11514422 -0.07289899 0.038018838
-0.13515736 -0.070369974 -0.17298318 -0.26134133 0.023601748 0.13282385 -0.044663772 0.15385036
-0.08923531 -0.26122576 -0.0028793325 -0.12417704 -0.08587331 -0.079602815 -0.014801397 -0.13156253
-0.16399992 -0.11400795 -0.24642554 -0.056309 -0.20152043 -0.13233435 0.0153187765 -0.1797029
-0.06350416 -0.036724508 -0.062724784 0.042848904 -0.07487842 -0.18661731 -0.10028188 -0.24467406
-0.15733401 -0.0016678288 -0.14811353 -0.16565639 -0.0017386958 0.08528851 -0.07698742 -0.25205407
-0.028181072 0.051667936 -0.17266686 0.14219208 -0.27147493 0.027661048 -0.016925916 -0.057752527
-0.13644786 0.10838768 -0.26752776 -0.106210686 -0.06555894 -0.11544844 -0.08804406 0.0429186
-0.21565193 -0.0950053 0.07279816 -0.21931523 -0.08843612 -0.12812553 -0.07834644 -0.21233183
-0.29062894 -0.3134199 -0.2745501 -0.13977405 0.14150447 0.12422018 0.04947676 -0.1859658
0.04857991 -0.23446788 -0.21465975 -0.2548871 -0.034025192 0.054047555 0.025420578 -0.1413453
0.012657527 0.13429785 0.13831057 -0.2030491 0.007126765 0.119036 -0.20370975 -0.034126785
-0.19795778 -0.41806883 -0.11741231 -0.012300479 -0.12395915 0.077612266 0.051930398 -0.19659783
-0.02078191 -0.016084913 0.012180032 -0.09420856 -0.13418692 -0.08906463 -0.12561496 0.21396834
-0.1409717 -0.040944472 0.077149875 -0.3045219 0.0072653852 -0.13612609 0.09521318 -0.18447864
-0.3088708 0.045910418 -0.09008853 0.08305159 0.15960804 -0.08617234 -0.00930643 -0.35248834
-0.22841033 -0.10235298 -0.011279312 0.03814006 -0.017173355 -0.2733779 0.06260265 -0.18233761
-0.21799909 0.14024436 0.022637112 0.06994554 -0.0777006 -0.12981647 -0.22788872 -0.055879973
-0.14223258 -0.046966545 -0.045208804 -0.025975091 0.0008336216 -0.14594269 0.08172923 -0.26446053
-0.31064004 0.07862166 -0.26815307 -0.067660116 -0.31243125 -0.13588004 -0.08102527 -0.39880514

weight f4 [1, 256]
00000000: 044d a43b 05c7 213b 3a5e 0c3c 9974 733d
00000010: 6456 35b9 f8e2 1d3d 760f 86bd 829f 56ba
00000020: bca2 b4bc e3f0 f1b9 bbe0 533b f6d8 fabc
00000030: f29b e4bc 080b a4ba bd03 783c e6e3 96b9
00000040: 0c1e 8eb9 043c afbd 2198 99bd 4e45 78bb
00000050: 7f01 0c3a 7b82 3c3d fa11 28bc 9328 0c3b
00000060: 1c4a 863d ca0a 48bd 5ca1 bf3d 1669 83bd
00000070: d241 01bd 40de a1ba 6aeb 7aba 72b4 0cba
00000080: add6 263d c507 35bd df1b bbb8 9e03 60bc
00000090: fd29 96bb a146 dcba 2508 a5bd 2240 ffbb
000000a0: 2cbc b2ba d868 c539 5b53 7dbc c246 e0bc
000000b0: 96d9 2d3b 8ba6 023c 0ca2 7f3b a3ac 43bb
000000c0: 50fd 67b8 2e9b bab9 ce03 c0b8 4475 02bd
000000d0: e9ef a73a 4dcf dabd 663a c4ba 1a6e 9b3d
000000e0: 4654 90bd 3287 78bc db77 273c 3c31 8bb9
000000f0: 6a45 bfbb 3796 10be 5eb8 aaba 5f9b 35bb
00000100: 671e 32bc a67c d8bc b21c 9abc bf7f 223d
00000110: fcea bebd d0c7 afba 213b 643c 76a2 c339
00000120: 827c 4bbc 4d40 85ba 9e1d f93c ac03 3cbd
00000130: 24cc 3d37 a7f3 82b9 22ad 783d a978 6abb
00000140: c5b9 3db9 3cbe 45bb 0046 a8b8 91fd b8bd
00000150: dcfe 8637 a015 00be 7e13 ed3a 8dff 64ba
00000160: a208 f63c c949 2639 48f6 b4bd 6a3d 00bd
00000170: 2163 b5bc 7465 c53d 2627 41bb 46f7 09bb
00000180: e824 a3ba 1487 94bd 38e5 1f3d 6943 46bd
00000190: 6f5e f7ba d865 a83c 274c 34ba 835f 52bc
000001a0: 2a5c 32ba e013 f536 1ab2 ddb9 a9b9 ce3d
000001b0: 08ac 923d f6ed 82bd 98e9 2a38 022f 0bbd
000001c0: a44d 8d3d 22f9 1ebc c854 aeba 890b 493d
000001d0: 0ebf c73c 566b 84b9 4c3c e3b9 10c2 143d
000001e0: 656c 61bb 49bb 413a 23a4 73b8 3a45 2d3c
000001f0: f8d2 39ba 4b7a 36ba 2fb8 82bc 1cf0 be3d
00000200: b863 fdba 88a2 043b d86e 1dba de54 2abc
00000210: e988 433d 868f 6b3d 4bea 2dba 440c ce3c
00000220: 141c efba 9c26 b039 a66e 203b 12c6 993c
00000230: 58a0 d537 3e21 1dbb 96c4 a83d 1808 b43d
00000240: 88fb 3e39 3807 1c38 de56 6739 7343 b6bd
00000250: fe08 7dbb 3a5c 083b f677 96ba 7b6c 5aba
00000260: 449c bd3a 65a1 dbbb a786 9e3d 4324 5d3d
00000270: 3c38 f6bc 6761 eaba 3c69 053a ccc2 47ba
00000280: 946c 28ba 3513 1bbd 0992 9b3a a5a6 8b3c
00000290: 4126 6c3a e6d9 813d ee07 013e 53ab d4bb
000002a0: 63c3 953b df72 3abc a367 9d3b d1a5 5a3a
000002b0: 3adf 05be 6faa f13d 45b8 6bbb f167 1fbd
000002c0: 58c0 5b3d 5d35 92ba 85af 5abd 759c 20ba
000002d0: 4461 82ba dfa8 8dba b8ef a3b9 3575 45ba
000002e0: cc77 30be af28 cd3c 37e3 2ab9 bc7f fdbb
000002f0: fb05 98bb b63d 96bb 6e61 983c bcd9 2438
00000300: aee8 1c3d 61fa febc b127 f33b 3454 28ba
00000310: 2533 273c cc25 783d c7ba d7bb 8fb9 623b
00000320: 7b1c f2bc dea9 9e39 44b9 b6bb fd68 b5ba
00000330: 8700 1f3b 2246 f0b9 b1b7 50ba c4f1 e63c
00000340: 3b20 bc3d bc3b 5cbd dfe8 b63d 3052 95b9
00000350: 3de6 0cbd 54b5 f93a 75f4 b6bc cab9 11bc
00000360: 805d 0437 1e83 773a 42e9 1bb8 0edf 4abc
00000370: 96a0 d3bc 4b9c 53ba 5929 a5bd 9633 7ab9
00000380: 1178 9cba a43f cd3a a325 09bc b6d2 fa39
00000390: eb2e 003e 9a0f 0a3c ef3c aa3d 56d7 28ba
000003a0: 67ab 453d 9030 4739 735e bbba 3881 6fbd
000003b0: d208 2f3d 30fb 4039 1f17 5ebd e88f ecb9
000003c0: 83de 203c 7a1d 2ab9 60f7 eb39 cca7 25b9
000003d0: 09cc 02bd 5909 ef3b 4553 8eba 7a0d a03a
000003e0: 2d50 debc a425 38bd e664 5a3d 7406 a73d
000003f0: d5ce 8b3c 5207 16ba b5e9 36bc 118b 8ab9
0.005014064 0.0024685275 0.008567387 0.059437368 -0.00017293688 0.038546532 -0.06545918 -0.00081872207
-0.022050254 -0.00046146577 0.0032329995 -0.030621033 -0.027906392 -0.0012515495 0.01513761 -0.00028780027
-0.00027106737 -0.08556369 -0.074997194 -0.0037883106 0.0005340799 0.046022873 -0.010258192 0.0021386489
0.06557104 -0.048838414 0.09356949 -0.06416528 -0.03155691 -0.0012349561 -0.00095718226 -0.00053674646
0.040732075 -0.044196863 -8.922046e-05 -0.013672737 -0.004582642 -0.0016805717 -0.08058194 -0.0077896276
-0.0013636402 0.00037652883 -0.015461768 -0.02737749 0.0026527396 0.007974277 0.00390065 -0.0029857538
-5.5310607e-05 -0.00035592302 -9.155982e-05 -0.031850114 0.0012812588 -0.10684071 -0.0014971017 0.075893596
-0.07047324 -0.015168952 0.010221447 -0.00026548828 -0.005837132 -0.14119802 -0.0013024916 -0.0027711017
-0.010871506 -0.026426625 -0.018812511 0.03967261 -0.093221635 -0.0013410989 0.013930113 0.0003731434
-0.012419822 -0.0010166258 0.03040963 -0.04590194 1.1312808e-05 -0.00024977067 0.060711987 -0.0035777485
-0.00018093649 -0.0030173203 -8.023903e-05 -0.09032739 1.6092723e-05 -0.1250825 0.0018087474 -0.000873559
0.030033413 0.00015858481 -0.08836037 -0.03130857 -0.022141995 0.09638491 -0.0029472797 -0.0021051927
-0.0012446912 -0.072523266 0.03903696 -0.04840413 -0.0018872748 0.020556375 -0.00068778027 -0.012840155
-0.00068038946 7.3038827e-06 -0.000422851 0.100940056 0.071617186 -0.06393044 4.074871e-05 -0.033980377
0.068995744 -0.009702953 -0.0013300413 0.049083266 0.024383094 -0.00025256973 -0.0004334174 0.036317885
-0.0034396884 0.00073902734 -5.808858e-05 0.010575587 -0.0007088627 -0.0006960972 -0.015956966 0.09323141
-0.0019332087 0.0020238478 -0.0006005592 -0.0103962105 0.04773799 0.05750992 -0.00066343386 0.025152333
-0.0018242621 0.00033598102 0.0024480014 0.018771205 2.5466245e-05 -0.0023976113 0.08240621 0.08790606
0.00018213515 3.720002e-05 0.00022062237 -0.08899584 -0.0038610096 0.0020806924 -0.0011479843 -0.0008332205
0.0014466126 -0.0067025893 0.07740527 0.05398966 -0.030056112 -0.0017881811 0.00050892285 -0.00076202746
-0.0006424871 -0.037860114 0.0011869083 0.017047236 0.0009008386 0.06340389 0.12600681 -0.00649015
0.004570411 -0.011379926 0.004803614 0.00083407486 -0.13073435 0.11800086 -0.0035967987 -0.038917486
0.05365023 -0.001115482 -0.053390045 -0.00061268295 -0.00099472 -0.0010807774 -0.00031268387 -0.0007532419
-0.17233199 0.025043814 -0.00016297108 -0.0077361744 -0.004639385 -0.0045849932 0.018601146 3.9303428e-05
0.03830784 -0.03112525 0.007420503 -0.00064212386 0.010205065 0.06058292 -0.006583545 0.0034595465
-0.029554596 0.0003026267 -0.0055762846 -0.0013840493 0.002426179 -0.0004582862 -0.00079619425 0.028191455
0.09185835 -0.053767905 0.089311354 -0.0002848073 -0.03439926 0.0019051232 -0.022333363 -0.008894393
7.889583e-06 0.000944184 -3.7172118e-05 -0.012382282 -0.02583341 -0.00080723007 -0.08064527 -0.00023861075
-0.0011937638 0.0015659225 -0.00837079 0.00047840708 0.12517898 0.008426571 0.083124034 -0.0006440779
0.048259165 0.0001899621 -0.0014295116 -0.058472842 0.04273302 0.00018404122 -0.05422127 -0.00045120646
0.009818676 -0.00016223444 0.00045007002 -0.00015798135 -0.031932864 0.0072948155 -0.0010858556 0.0012211048
-0.02713784 -0.044957772 0.05331888 0.08155528 0.017066399 -0.0005723137 -0.011164119 -0.00026425024

weight f4 [256, 1]
00000000: 6773 21be 6323 71bc 0219 25c0 ce35 9d3e
00000010: 9f1b 27bd 78ba 40be 1eeb 61bf 71b4 b7bd
00000020: be39 8d3e b60b 7ebf 7e1c 953d 9994 673e
00000030: c3e2 4b3e 40ea 07bf 5b14 75bc fd81 663e
00000040: eb21 8ebd 5d0d ca3e 41a4 f5bd a510 a23e
00000050: dd5b 6fbd 8eaa 883e ca03 6e3f 7cd9 14bf
00000060: 8867 17bf 0970 f13e a654 ca3e ce8d 493f
00000070: d3e8 9b3e 1dca 04be 3a3c 36bf e2fc 4ebf
00000080: 25b0 1abd e8fe 5dbf c089 e0bc 8537 2e3f
00000090: ea99 55c0 55fb 96c0 f6d7 66be d3cb 1d3e
000000a0: 4a8b 08be cdf8 a2bd d13f 473f c48c e33e
000000b0: 4576 d23c 83ab d33e 0a6f 893e 6c51 d53e
000000c0: 2a8d a5bc b9fc 7bbd 30cf 91bd c4ed aabe
000000d0: 66bc a23d 7a8b 2dbf 6f9f 603c 668b 783e
000000e0: 842f a4c0 f2e2 a73e 7dea 38bd ec27 65bd
000000f0: a278 8abf 7d99 a83e 8ae5 29c0 c5fb 86bd
00000100: 8ad0 5e3e d6c1 563f 3abd 4dbf 189c 503e
00000110: cf0f 813f 0e0c 65be 266f 99c0 009a aabd
00000120: 652d 443e feaf 41bf 633f 123f 3d75 8f3e
00000130: 0936 35bd e015 13be 6e94 d53e 3d1e a9c0
00000140: 5139 69bd 75ff b53e d3ce 10bd 56da 213f
00000150: f0b2 89bd c95f 183f e8c4 09be a0c6 7dbd
00000160: d271 aa3e 8097 ffbe 57d7 183f a798 a13e
00000170: 7ab8 74bf 9c31 3a3e 60dd 2bbf b0e4 903d
00000180: da19 c9bc 20fd 70bf 6827 8bc0 e8ca dc3e
00000190: fc72 b5be 2c41 ea3e 0b21 f7bd 5983 7b3e
000001a0: 1046 c9bd f413 0cbf 87df 443d 565d c03e
000001b0: 3eea a83e 90d0 02be 60ac 83bd a1f2 863e
000001c0: 14cf a8be 653d 9dc0 51a4 bd3d c571 b1bd
000001d0: 5874 1fbf d0f5 70be a0fe b53d 51d0 07be
000001e0: 1086 f3be 226c ab3d d8d1 24bd 621b 10bf
000001f0: c980 38bd 8c4d 103d 50e6 28be dbb7 123f
00000200: b0da a5bd 975d bfbd d461 82be ce57 41bf
00000210: b50a b03e 1572 bbbd d4f1 96bd a09e 27bf
00000220: dd8a 43c0 8018 0f3c 8c6a 0fbc 94ff 8d3d
00000230: 50e0 793c d5e1 433e 24b6 123e 205f ba3d
00000240: 39f7 023b 6065 333d a75b db3d a513 053f
00000250: 8680 d73e 1863 ccbe a48b 9dbe 0c1c f3bd
00000260: f830 eabe f41d 9b3e 9336 463f 8d50 983c
00000270: 4e46 7cbf 1be3 8cbd e02b 04bf ec0d 4bbf
00000280: 23e6 cabd ae31 913e 32b8 72bf 756c 75bd
00000290: 8403 8cbe 2e81 a33e cb07 3a3e e737 0a3f
000002a0: a3e4 c3bd 6c9c d63e 2927 bac0 6d50 51bd
000002b0: 9cee f9bd 77c0 12be 7b30 163d 7b71 773f
000002c0: cec9 c3c0 324b edbd b4ac 9b3d db65 88c0
000002d0: 44dd cebe c6f4 00bf 667a 353f 24be 57bf
000002e0: 6867 3cbf 2e8c 52bf de15 3abf 2fc4 fc3e
000002f0: f62f 32bf 61d6 99bd 9830 46be 96b1 62bf
00000300: 6e8d 4abf 24e6 ac3e 867a 143f 194f 623c
00000310: c1e2 2bbd 087d 623f b1b0 b93e 5879 dfbd
00000320: 364e 87c0 7e2d 0ebf 7c0b e6bf 97ca e1bd
00000330: c16e ee3e 9050 fbbe 238d 90bd 0ae0 fb3e
00000340: bf11 e43e 92da 683f 0963 323f 14ae 53bd
00000350: 136c f73e 207d 2fbe ee75 7abf 2f7d 0a3f
00000360: e1d9 7bbd 20df febd 2ed2 64bd 2ddd b23e
00000370: 8bcc a73e 058d 34bc 0cfb df3e 3b76 96bd
00000380: 57eb fcbc aa6d 14bf 9dc4 e43d 28d5 82be
00000390: 200b cd3c 1846 cdbc 875b ba3e 98ad efbd
000003a0: 8531 8abe ccfe 4abf 09e1 8c3d 6d56 c03e
000003b0: a43f 8dc0 ce9a 833d ac8b 163e 1052 e4bd
000003c0: 3d1d 30be a79c 3fbd 006c cfbd b9d8 aabd
000003d0: 12fe 08bf c2ff 60be c164 bdbd 1cfb 0cbe
000003e0: 4bee 73bf dc27 73be f690 81be e66d b03d
000003f0: 1962 07be 33eb 00be fe94 57be 2589 05bd
-0.15766679 -0.0147179095 -2.5796514 0.30705112 -0.040797826 -0.18821132 -0.88249385 -0.08969963
0.27583116 -0.9923662 0.07280825 0.2261528 0.19910721 -0.5309181 -0.014958466 0.22510524
-0.06940063 0.3946332 -0.119942196 0.31653324 -0.058437217 0.26692623 0.9297453 -0.58144355
-0.5914235 0.4715579 0.39517707 0.78732 0.30451068 -0.12967725 -0.7118565 -0.8085462
-0.03776564 -0.8671708 -0.027409434 0.68053466 -3.3375192 -4.71818 -0.2254332 0.15409784
-0.13334385 -0.07957611 0.7783175 0.44443333 0.025691161 0.4134179 0.2684253 0.41663682
-0.020208914 -0.061520312 -0.07119596 -0.33384526 0.079460904 -0.6779095 0.013709887 0.24271926
-5.1308002 0.32790333 -0.0451455 -0.055946276 -1.0818064 0.32929602 -2.654635 -0.0659099
0.21759239 0.8388952 -0.8036686 0.20372045 1.0082949 -0.2236788 -4.794818 -0.083301544
0.19157942 -0.7565917 0.5712797 0.28019133 -0.044240985 -0.14363813 0.41714805 -5.284941
-0.056939427 0.3554646 -0.035353493 0.6322378 -0.06723583 0.59521157 -0.1345402 -0.061957
0.33289963 -0.49920273 0.5970358 0.31561777 -0.9559399 0.18182987 -0.67134666 0.07074869
-0.02454846 -0.9413624 -4.3485603 0.43123555 -0.3543929 0.45752847 -0.12066849 0.24561824
-0.098278165 -0.54717946 0.048064735 0.3757121 0.32991213 -0.12774873 -0.06429362 0.26356986
-0.32970488 -4.9137444 0.092598565 -0.08664278 -0.622869 -0.2353127 0.088864565 -0.1326306
-0.4756322 0.08370234 -0.040239185 -0.5629178 -0.045044694 0.035230204 -0.16494107 0.5731179
-0.08098352 -0.09344023 -0.25465262 -0.75524604 0.3438317 -0.09152619 -0.07370344 -0.6547642
-3.0553505 0.008733869 -0.00875343 0.06933513 0.015251234 0.19129117 0.14327294 0.09100175
0.0019983782 0.04379785 0.10710841 0.519831 0.42090243 -0.39919353 -0.307706 -0.11870584
-0.45740485 0.3029629 0.77427024 0.018593097 -0.98544776 -0.068792544 -0.5162945 -0.7931812
-0.09907176 0.28358215 -0.9481231 -0.059917886 -0.27346432 0.31934494 0.18167035 0.5399155
-0.09565093 0.41916215 -5.8172803 -0.05110209 -0.12203714 -0.14331232 0.03666733 0.9665753
-6.1183844 -0.11586608 0.076013 -4.2624335 -0.40403187 -0.50373495 0.7088989 -0.84274507
-0.73595285 -0.8224515 -0.72689617 0.49368426 -0.6960443 -0.07511593 -0.19354475 -0.88552225
-0.79122055 0.33769333 0.57999456 0.013812804 -0.041964296 0.8847203 0.36267617 -0.10911816
-4.228297 -0.55538166 -1.7972255 -0.11024969 0.46568874 -0.49084902 -0.0705817 0.49194366
0.4454479 0.9095851 0.69682366 -0.051679686 0.48324642 -0.17137575 -0.97836196 0.54097265
-0.061487082 -0.124449015 -0.055864505 0.3493437 0.3277324 -0.01101995 0.4374622 -0.073467694
-0.030873938 -0.57979834 0.111703135 -0.2555325 0.025029719 -0.025057837 0.36397955 -0.11703032
-0.26990905 -0.7929504 0.068788595 0.37565938 -4.4140186 0.06426011 0.14701718 -0.11148465
-0.17198654 -0.046780255 -0.10128021 -0.08342118 -0.5351268 -0.21972564 -0.09247733 -0.13767666
-0.9528548 -0.23745674 -0.2530591 0.086147115 -0.13221015 -0.12589721 -0.2105293 -0.032601494

bias f4 [256]
00000000: ca5d 253f 72d8 a9ba c6be c43e ade8 afbf
00000010: 11e8 993e 0fea 8a3f b0b9 75bf 1328 923e
00000020: 6f38 9ebf a458 9ebe 80e6 bb3d 371c d13e
00000030: 176d cb3e fc05 6fbf b3b4 a83c f8f0 a7bf
00000040: 7a28 883e 96ce a3ba e294 093f 0124 c53e
00000050: 161c 863e d90c a03e 3dbc 1fbf 3878 a5be
00000060: a8ad 8bbe 7dfd f03e 9038 363f 82ae 22bf
00000070: 7c77 afbf 555d 123f 7605 36bf 88e6 8fbe
00000080: 092a 5c3e 605b d2bd b852 80be 876a 5a3f
00000090: 9c67 e53e 39de 7f3e fc73 803f 025b 35bf
000000a0: 33fa dc3d afc4 0d3f b9a1 44bf 0d73 fdbf
000000b0: 10d1 4ebe 5d2e 09bf d964 403e a07b eebf
000000c0: fd14 673c 8398 d83e 10af f6be 8080 6cbc
000000d0: 2043 10bf cc74 59bf b495 223e cc9c b2bf
000000e0: 4abd 1b3f f79b 183f d5c5 833e de80 f53e
000000f0: 8e19 0c3f f072 023a e761 6c3d 9849 933e
00000100: ba6e 503d 7ba2 30bf cc13 48bf 6349 c63c
00000110: f763 85bf 7c0e ee3d b1d9 1c3e c4f3 bdbe
00000120: cf86 61bf c02b 00bd c00b 443f fcb1 86ba
00000130: 5a46 a23e 56e2 12bf 3371 f93e 9bad 143f
00000140: 1473 fd3e a0f4 24bc 9aec 623e af2a 3f3f
00000150: 401a 30bd da37 7c3e 0123 c03e 0c12 b3be
00000160: 461d 0cbb 40ba 20be 5d48 dbbe f474 3b3f
00000170: d8f5 2ebf 0faf 86bf 80a9 fbbd de49 e23e
00000180: 3903 713d 20f2 e7bd a823 3d3f a0e1 a93e
00000190: 0015 9dbc 28a6 f7bf 0c9a 4a3e c652 b5bf
000001a0: 20fd 39bf a005 f3be e251 df3e 19a0 d6bf
000001b0: bbd9 bdbf 2f1c 6b3f 729d 78bf c762 97bf
000001c0: d464 2bbf d79f d93e 3ccb ac3e 0aca c53e
000001d0: 64a3 a2be 1810 babe a350 14bf 486f 433f
000001e0: c071 c2bc 3898 23bf 37eb 973e 0c92 ebbe
000001f0: 07ea a63e 92a3 a4be a858 c1be cc8c 7f3f
00000200: b600 f43d 6b04 1b3f 0017 7bbe 80ea 27bf
00000210: f826 733e 0ee1 063f 9a90 453e 4c84 3bbf
00000220: 8295 2a3e 8079 d1be 13bc 3b3c 2c96 003f
00000230: 84e3 11be 0cd9 4ebe 0e3b 6e3e b806 52bf
00000240: e7d7 53bd ee57 5abf 5354 48bf 6626 13c0
00000250: f575 423f d660 79bf 88ac c1be 7c06 613e
00000260: c87c a5be 767b aebf 9148 3a3f ad0a 193f
00000270: 201d 53be aab9 613e ecf6 c6be f0e4 5abf
00000280: 1765 a43e abfc a2bf 1072 0ebf fb67 1d3e
00000290: 0000 65bd 6a63 b7bf deb7 383e a1ec b53a
000002a0: c4e3 403f 6af0 263f d67a a83e 6a98 8d3e
000002b0: e69f 0a3f 0151 533f 90e1 1abc 7ce0 25bf
000002c0: fca9 c23e 1ddc cd3e 7a44 ea3e a227 d1b9
000002d0: b03f 9cbe c052 75be 51c4 efbf 0424 cd3e
000002e0: 98af 42be 5080 24bf 200f 60bd 9102 0cc0
000002f0: 8000 4bbc f968 5dba 1cfc 1abf 3418 9ebe
00000300: b85f 56bf 67b7 e33e 1807 ad3e 77d6 983e
00000310: e71b 883d c314 69bf 9ea9 843e 9c80 1f3f
00000320: 90e8 0d3f d07f 8bbe b868 e33e 1e0c f53d
00000330: c98a 093d d0e8 77be 9fd1 1e3e 929e 09c0
00000340: f1f8 ec3e 2457 543f b971 4d3e bf69 f23d
00000350: 7f48 bbba 10e1 76be e0c3 33bd 6e16 32bf
00000360: e00b e13e e060 6dbf ab4d fa3c aaee b83c
00000370: bb4a bcbf 1d66 82ba cb6f f9bf 976f 1c3e
00000380: 3ae5 a23e 2811 3cbe f360 03bf 14de 6dbf
00000390: 6714 043f 61de 103e 3cb0 433f 66c1 2b3f
000003a0: 4214 52b9 4274 10bf 7b46 b2be c905 d7bf
000003b0: e9d7 e03e 81be e6be d6aa 063a a0a7 d5bd
000003c0: 31a8 413f 02d9 b63e 627b 5dbf 8ce4 653e
000003d0: 8696 19bf 6a8a 793f 6801 383e 7a74 493f
000003e0: 28e9 c5ba 24e8 863f d3bc 8f3f 4536 9e3e
000003f0: 772a 153f 8c3e 3b3e f379 6e3f 5a42 fa3d
0.64596236 -0.0012958182 0.384268 -1.3742882 0.30059865 1.0852679 -0.9598646 0.285462
-1.2360972 -0.30927002 0.09174824 0.4084184 0.39731666 -0.93368506 0.020593977 -1.3120413
0.2659338 -0.001249748 0.537428 0.3850403 0.26193303 0.31259802 -0.62396604 -0.32318282
-0.27280927 0.47068396 0.7118006 -0.6354753 -1.3708339 0.57173663 -0.7110208 -0.2810557
0.2150041 -0.10271335 -0.2506311 0.853188 0.4480561 0.24987115 1.0035396 -0.7084199
0.10789909 0.5537824 -0.7680927 -1.9800736 -0.20196939 -0.5358637 0.1878847 -1.8631477
0.014104125 0.42303857 -0.48180437 -0.014434934 -0.56352425 -0.8494384 0.1587742 -1.3954101
0.6083571 0.59612983 0.2573687 0.4794988 0.54726493 0.00049762335 0.057710554 0.28767085
0.050886847 -0.68997926 -0.7815521 0.024204915 -1.0421132 0.116238564 0.15317418 -0.3710004
-0.88096327 -0.031291723 0.7658043 -0.0010276432 0.316943 -0.5737661 0.48719177 0.580774
0.4950186 -0.010068089 0.22160569 0.74674505 -0.042993784 0.2463068 0.37526706 -0.34974706
-0.0021379753 -0.15696049 -0.42828646 0.7322533 -0.6834388 -1.0522174 -0.12288189 0.4419698
0.058840964 -0.113254786 0.7388253 0.3317995 -0.019175053 -1.9347582 0.19785327 -1.4165885
-0.72651863 -0.4746523 0.4361716 -1.6767608 -1.4832071 0.9183988 -0.9711524 -1.182702
-0.66950727 0.4250476 0.33748806 0.38630706 -0.31765282 -0.36340404 -0.5793554 0.76341677
-0.02373588 -0.6390414 0.29671642 -0.46009862 0.32600424 -0.32156044 -0.37762952 0.99824214
0.11914198 0.60553616 -0.24520493 -0.65592194 0.23745334 0.52687156 0.19293442 -0.73248744
0.16658595 -0.4091301 0.011458415 0.50229144 -0.14246947 -0.20199984 0.23264715 -0.820415
-0.051719572 -0.8529042 -0.7825367 -2.2992187 0.7596124 -0.97413385 -0.37826943 0.2197513
-0.32321763 -1.3631427 0.7276698 0.59781915 -0.20616579 0.22043481 -0.3886026 -0.8550558
0.32108375 -1.2733358 -0.55642796 0.15371697 -0.055908203 -1.4327214 0.1803889 0.0013879725
0.7534754 0.6521059 0.32906216 0.27655345 0.54150236 0.8254548 -0.009453192 -0.6479566
0.38020313 0.40206996 0.45755368 -0.00039893115 -0.3051734 -0.23957348 -1.8731786 0.4006654
-0.19012296 -0.6425829 -0.054701924 -2.1876566 -0.012390256 -0.0008446123 -0.6054094 -0.3087784
-0.83739805 0.44475862 0.33794475 0.29851124 0.06645947 -0.91047305 0.25910658 0.6230562
0.5543299 -0.2724595 0.44415832 0.11965202 0.03357962 -0.24209905 0.15509652 -2.1503034
0.46283677 0.82945466 0.20062913 0.11836576 -0.0014288573 -0.24109292 -0.043887973 -0.69565475
0.43954372 -0.92725945 0.030554613 0.022574741 -1.4710306 -0.0009948645 -1.9487242 0.15276943
0.3181551 -0.1836592 -0.5131981 -0.9291699 0.5159363 0.14147331 0.7644079 0.6709198
-0.00020034707 -0.56427395 -0.34819397 -1.679864 0.43914726 -0.45067218 0.0005137151 -0.104323626
0.75647265 0.3571244 -0.8651639 0.22450465 -0.59995306 0.9747683 0.17969286 0.78693354
-0.0015099393 1.0539594 1.12295 0.3090078 0.5826792 0.18285578 0.9315483 0.12219687

weight f4 [1, 256]
00000000: dd9c 323c 37fd 203c f76d 8d3d b5d8 853c
00000010: 89d5 4f39 6b1e 633d 410c 6cbc e24a 07ba
00000020: 10a3 ee3c 7894 0bbb dcb9 293d ec80 e0bb
00000030: a2f1 283d 1e0e a8bb 4749 20bd 13ba 403b
00000040: 1d59 1d3b ec64 4cbc 329f b23d 8356 6a3c
00000050: 3a74 8a39 d338 633c 6c04 513d be01 bab8
00000060: 04d3 803d b5bc ff3b 51c2 48bd 99a9 b43c
00000070: 162e 82bc 0dc4 ad3b 39e9 e53a 51a3 b739
00000080: 88dd 9dbc 38e1 8cbd 896b 1c3b 7487 e83d
00000090: 18cb 29bd 2d49 10b9 a76c 893d b0ed 993c
000000a0: c588 75bb 0ee9 713b 24b9 cebb 079c 4ebd
000000b0: 6c61 21bc cd17 b6bd 6ddd eebc 356f 91bd
000000c0: e2d0 5c3b 2d36 dd3d 8429 2d3b 8756 97bc
000000d0: fa16 783b 9c2e aabc 2dd9 4ab9 ac1b 5ebd
000000e0: 9810 8a3b 2119 bc3d e706 03bd 078d cfb9
000000f0: c071 ad38 0365 fd3b 0644 e039 c75f 833c
00000100: bad3 94bb 4547 b7b9 836e 28bd 23d7 6b3c
00000110: 6e00 56bd 7f51 b3ba a3ec 45bd 5b3c f13c
00000120: 9a48 d33c e463 1b39 c332 c13d 8f93 36bd
00000130: d988 593b 3b40 983a afa7 833d 3562 58bc
00000140: b421 6b3a 0de0 16bd 50d2 d5b8 ce77 61bc
00000150: 226a a23c a98c a43c 20fe 93bb e17b 253b
00000160: b192 99bd 82bf 9cbb 97a0 8a3c 9f82 ac3d
00000170: a86e 4bbd 371d 35bc 02f8 5eba 174a 0b3b
00000180: 917d 7cbb 68ea 063d b050 1abc 4a61 043c
00000190: a250 19bb 2614 963d f457 a4ba 5967 8ebc
000001a0: b6a8 6239 b8ce 903b 12fb d13a 3c09 1dbc
000001b0: 258a e73a af1f 8a3d 0894 453a 61a8 b4bc
000001c0: 325b 0abe f8a2 0f3c dbc1 933b 996d 363c
000001d0: fb23 8cbc 1faf ebbb 2f1d 423b 7fd5 08bd
000001e0: c951 2d3d 36ca 813b 5bb8 003b 596b 953c
000001f0: 18a7 42bb 63cf 7d3a a09f 893b d6bb 4f3d
00000200: 7507 34bb 593e 0e3c dae4 d3ba cbd8 403d
00000210: 3f14 9a3c cd8c d9bd e85e 0bbb 2a7b 1ebd
00000220: e868 6cb7 e111 c53b dd8b edbc 7792 ff3a
00000230: fba1 943b a143 18bc f9ef 12bd 6eef dabc
00000240: 6c55 d03b 4295 76ba 5dbf e53a 378b b439
00000250: dd44 7d3d 7871 4c3a 8de0 5aba 9417 cf3c
00000260: 3751 123b 9e16 68bd bcaf 9cbc b8e7 073b
00000270: be79 32bd cf61 ddba 6713 b23b 79f6 04ba
00000280: 7681 9cb8 e0cd acbd 54f3 f43a d3dc 01bc
00000290: 32d6 62bb df15 3dbb 53a2 b83c 9e02 c4bc
000002a0: e476 1e3d 74d1 793d a259 74bd 052b 06bc
000002b0: 1658 183a 39d2 cb3c 9941 41bb 95cd d6bc
000002c0: 9cb1 433c b85e a8ba 64bc 613d 9852 feba
000002d0: f46d c6bb 3673 93bc a136 5b3d 959e b43b
000002e0: 354b d33d 1cdf 5c3d 019c a2bb d6e5 063d
000002f0: 207c 323d d11c 743d bf71 a8bd efdc a03b
00000300: 16ef 2f3d 2f5a 0ebd fd14 17bd 9f7d 863c
00000310: 93f5 48bd 215f 5a3d c560 463d 5471 f9bb
00000320: 74b0 2d3c d243 083d ccc6 593b 6d05 98bb
00000330: c281 da3c a505 9dbb 8ecd 4bb8 e064 763d
00000340: 7329 a6bc e285 1dbd 9d8f bdbd ad30 0939
00000350: c557 21bd 2ad0 73bb 5612 b93d 3879 efbc
00000360: ea5b b63a e26d 38bd 5ca7 8e3b 1a99 913b
00000370: 71a1 1bbd 9247 aab9 b0f2 36bd fd56 80bc
00000380: 8ab1 893a 9111 92bb e8f7 703b c933 d3bb
00000390: fdec 96bd 7fa4 86bd 285f e13c d053 19bc
000003a0: c1f1 93bb 6170 a4bb 9083 feb7 546e 29bc
000003b0: 4397 6c3d df8b b53b f91b b13b 73d4 51bb
000003c0: a772 bc3c 93d7 513b 6a05 19ba 1808 0139
000003d0: 7a3e 46bc a263 6b3b a8a4 87bb d9ba 58bb
000003e0: 0a72 433c e4fe 2a3d 4c5c 9c3c 0189 bf3c
000003f0: e9a3 193b 00ee 3c3b d94f a9bd 0719 82bb
0.010901657 0.009825996 0.0690574 0.016338686 0.00019820606 0.05544893 -0.014407218 -0.0005161
0.029130489 -0.002129821 0.041437015 -0.006851306 0.041246064 -0.005128636 -0.039132383 0.0029407784
0.0024009414 -0.0124752335 0.0872177 0.014302853 0.00026408007 0.013868528 0.051029608 -8.869496e-05
0.06290248 0.007804478 -0.04901344 0.022053527 -0.015891116 0.005302912 0.0017540819 0.0003502616
-0.019270673 -0.068788946 0.0023867807 0.11353961 -0.04145345 -0.0001376017 0.06710177 0.018790096
-0.0037465554 0.0036912593 -0.0063086916 -0.050441768 -0.009849887 -0.088912584 -0.029158318 -0.07101289
0.003369384 0.10801349 0.002642245 -0.018473877 0.0037855492 -0.020774178 -0.00019345125 -0.05422561
0.004213404 0.091844805 -0.031989004 -0.0003958719 8.2704704e-05 0.007732989 0.0004277529 0.016036881
-0.0045418413 -0.0003495758 -0.041121017 0.014394554 -0.052246504 -0.0013680904 -0.048321377 0.029447725
0.025791455 0.00014819164 0.0943351 -0.044574317 0.003319314 0.0011615822 0.064284675 -0.013207008
0.0008969561 -0.036834765 -0.00010195805 -0.013761474 0.019825999 0.020086603 -0.004516378 0.002525084
-0.07498682 -0.0047835717 0.016922278 0.084233515 -0.049666077 -0.011054329 -0.0008505584 0.0021253878
-0.0038526992 0.03293839 -0.009418651 0.008079836 -0.0023394008 0.07328062 -0.0012538419 -0.017383264
0.0002161589 0.004419174 0.0016020259 -0.009584721 0.0017665072 0.067443244 0.0007537012 -0.022052946
-0.13511351 0.008766882 0.0045091934 0.011134529 -0.017107 -0.007192507 0.0029619446 -0.03340673
0.042314325 0.003960873 0.0019641134 0.018239664 -0.0029701646 0.0009682087 0.004199937 0.050716244
-0.0027470265 0.008681857 -0.0016166226 0.04708175 0.018808482 -0.10622559 -0.0021266285 -0.038691677
-1.4091122e-05 0.006014094 -0.028997356 0.0019498606 0.004535911 -0.009293468 -0.035873387 -0.026725497
0.0063578393 -0.00094063964 0.0017528344 0.00034435999 0.06183325 0.00077988906 -0.0008349501 0.025279798
0.002232624 -0.056662194 -0.019126765 0.002073748 -0.043573134 -0.0016890111 0.005434442 -0.00050721277
-7.462774e-05 -0.08437705 0.001868824 -0.007926184 -0.0034612534 -0.0028852148 0.02253834 -0.02392703
0.0386876 0.060990766 -0.059655793 -0.008188968 0.00058114657 0.024880515 -0.0029488562 -0.026221076
0.011944201 -0.0012845611 0.055111304 -0.0019403277 -0.006055588 -0.017999273 0.053518895 0.0055120685
0.10317079 0.05392371 -0.004962445 0.032934032 0.043575406 0.059597794 -0.0822482 0.00490915
0.04295262 -0.034753975 -0.03688525 0.016417323 -0.049062323 0.05331338 0.04843213 -0.0076123867
0.010601152 0.033267803 0.0033230064 -0.0046393187 0.026673201 -0.0047919326 -4.859041e-05 0.060154796
-0.020283436 -0.03845776 -0.09255908 0.00013083471 -0.039390344 -0.0037202933 0.090367004 -0.029232606
0.001391289 -0.045026667 0.004353447 0.0044433 -0.03799576 -0.0003247825 -0.04466504 -0.01566648
0.0010505181 -0.0044576605 0.0036768857 -0.0064453823 -0.07369421 -0.06574344 0.027511194 -0.009358361
-0.0045149033 -0.0050182794 -3.0340423e-05 -0.010341246 0.057761442 0.0055403556 0.005404946 -0.0032017499
0.02300389 0.0032019361 -0.00058372936 0.00012305414 -0.0120998565 0.003591754 -0.0041395016 -0.0033070354
0.0119290445 0.04174699 0.01908698 0.023380758 0.0023443645 0.0028828382 -0.08267183 -0.0039702686

weight f4 [256, 1]
00000000: ae1b 163f 0047 3bbc ede5 5e3e a04e 08bf
00000010: 450c 65bf 5d71 5a3f 9630 ad3e 87be d2bd
00000020: 8616 8fc0 e2de 2fbc 2f4c 72be e4a3 cdbe
00000030: 564f 073e 5868 88be 49bb 9fbe a4d4 cebe
00000040: 3020 8dbe ca11 c43d a301 8cc0 a1a8 a2ba
00000050: 109e 47be fe67 3dbf fa11 70bf c89a f9be
00000060: 677f b73e 2db0 f6be cb03 3c3f d0f0 bfbd
00000070: 0803 853e 0605 29bf e409 ef3c 0f22 45bd
00000080: 3ea7 eabe bba3 d03e 5c3f 5abf 8013 1f3c
00000090: 6104 c83e 47c7 82bd 2cba 7e3e 2fa8 803e
000000a0: c868 2abf c6ac d43d cca6 babf a0bc adbe
000000b0: 4c3c 013f d3d1 0e3f 74f7 9bbe be25 f03e
000000c0: ae7c 93bf 3755 b33e 0c7d 90be b029 1d3f
000000d0: df63 debf 80fa 18bc 26d8 13bf 97cf b23e
000000e0: ab5a 64bf ee06 ae3e dbc5 babc 7d1e fe3c
000000f0: ddde 983d e66f 083e 4049 7fbf 9021 febe
00000100: e22e 54bf 1b16 473f 49b0 d23e 6856 e8be
00000110: fdc2 3a3f 8216 973c 1b42 0c3f b260 12bf
00000120: 6a24 c73d 9a33 d0bc 02bf 28bf bc4c debe
00000130: 8bf4 013e 8de0 3bbf 53e9 143f f18d 3d3e
00000140: 40ac 0ebd f86f d03e a2dd 853d c812 18bf
00000150: 634e 70bf b0f4 e43e 7f8c 613e fc69 61bf
00000160: 7ece 663f 261a 47bd f037 d3be 6624 b93e
00000170: cec2 d2be 5109 943e b05a cdbe 1a1b 2bbf
00000180: 886e 5fbf f663 20bf 02cf 4e3f 9e03 d83d
00000190: 8c66 25bf 1a82 273f 4d43 c13d e485 fb3e
000001a0: 67c8 29bd 3247 61bf 40b9 8abf c499 b93e
000001b0: eb75 bfbc 51f0 993e 3a07 54bf 24f9 edbe
000001c0: f254 1a3f 5397 bf3d ea8b 1fbf 1ac5 c3bd
000001d0: 9114 1e3f 9560 5e3e f4eb fbbe 703f fd3e
000001e0: 0355 943e d81c 9dbe 4fc0 83bf 8825 ba3e
000001f0: b067 f0be 828b 32bd 2231 8ebf bf83 793f
00000200: d8d9 d8bb 6071 5bbe 1680 28bf b53a ddbc
00000210: 5c9d cfbe 58e3 133f 5846 27be e992 dd3e
00000220: 65ac 81bc 0771 68bf cc3d c5be 5c60 a63e
00000230: ebdf a43c af49 b03e e3ac e93e 5257 563e
00000240: f07c 79bf 0e33 8e3d 32f8 39bf 40c0 5fbf
00000250: cc28 35bf 80e0 acbd 12c0 08bd cd94 033f
00000260: 9437 d6be 6484 27bf 07d6 283f 0717 e93e
00000270: 7b57 633f 02db c63d 5296 37bf e44d 55bf
00000280: a6cd 8ebf b1d7 233f c5b7 0dc0 b2ee 03be
00000290: e23c 1a3e 90c5 68be f52b 6bbf 6048 ce3e
000002a0: f49b 38be e311 61bf 85b1 86be dc4f c9be
000002b0: 8475 72bf 7535 673f 5466 c0be 52cf 753e
000002c0: ad9f 24bd 827d 06bf 624c 0dbc 13fa 57bd
000002d0: f5ad 23bf 8a96 4b3e 5b48 333e d62d 07bf
000002e0: 302d d03e 5bbd d23e c7c4 9abe 38a0 33bf
000002f0: c016 8bbd f220 373d d15e f63e 727c 29bf
00000300: ec5f 18be 4eb5 153f f84a 063d 0032 7abe
00000310: d880 f13e bd45 64be 460a 51bf c46a 513e
00000320: 0942 6cbf 3ebd 81be 00c0 0ebb 7a47 0ebf
00000330: 7dad 053f d4e3 cebe 1290 21bd 187b 54be
00000340: efe7 d5bf ad3f 3a3f 08ef 5a3f 8a70 75bd
00000350: 306b 57bf 82b6 433e f910 a13e 996f 243e
00000360: e751 96bc 6a98 223f 28a7 5abd 90a5 c0bd
00000370: 515c 53bc da4d 38bd dc22 de3e 069a 713d
00000380: de29 72c0 12a3 c4be e03c 61bf ec8e 973d
00000390: 2735 a03e 4152 babd 3959 603f 9329 ac3e
000003a0: 34bd 743f 6051 1ebe 376f bfbc 5a6b 453f
000003b0: aca2 adbd 2e7c 50bf 8d84 c7be c71b 28bf
000003c0: 0bd8 033f e668 a83d 86d1 4cbc cc8a 85bf
000003d0: f519 22bf c4fe c73e a137 793b 58cc 103e
000003e0: 8b97 2c3c c0ed 303d 8f72 933d d904 4dbf
000003f0: 9ea3 6fbf d970 243e 1cd4 b23e 975a 98bd
0.58635986 -0.011430502 0.21767397 -0.5324497 -0.89471847 0.8532923 0.3382613 -0.102902465
-4.4714994 -0.010734292 -0.23661874 -0.401641 0.13213858 -0.26642108 -0.31197575 -0.40396607
-0.2756362 0.095737055 -4.3752 -0.0012409874 -0.1949389 -0.73986804 -0.9377743 -0.487509
0.35839388 -0.48181286 0.7344329 -0.09372103 0.25978875 -0.6602329 0.02917952 -0.048128184
-0.4583072 0.40749916 -0.8525293 0.009709239 0.3906584 -0.063856654 0.24875706 0.25128314
-0.66566133 0.103845164 -1.4582152 -0.33932972 0.5048263 0.55788916 -0.3046223 0.46903795
-1.1522424 0.3502595 -0.28220403 0.61391735 -1.7374228 -0.009337068 -0.5775169 0.34924003
-0.8920085 0.33989662 -0.022799423 0.031020397 0.07464383 0.13323936 -0.99721146 -0.4963498
-0.8288404 0.77768105 0.4115012 -0.45378423 0.7295378 0.01844335 0.5478837 -0.57178795
0.09723742 -0.02541523 -0.65916455 -0.4341792 0.12690942 -0.7338951 0.58168525 0.18511178
-0.03483224 0.40710425 0.06536414 -0.5940366 -0.9386961 0.44717932 0.22026251 -0.88052344
0.9015883 -0.04860892 -0.41253614 0.36160582 -0.4116425 0.28913358 -0.40108252 -0.6683823
-0.8727803 -0.6265253 0.8078462 0.10547565 -0.646096 0.65432894 0.09436665 0.49125588
-0.041450884 -0.8799926 -1.0837784 0.36250126 -0.023371657 0.3006616 -0.82823527 -0.46479142
0.60285866 0.09355035 -0.62322867 -0.095590785 0.6175013 0.2171653 -0.49203455 0.4946246
0.2897111 -0.3068607 -1.0293063 0.3635676 -0.46954107 -0.043590076 -1.1108744 0.97466654
-0.006617766 -0.21429968 -0.65820444 -0.027005533 -0.40549743 0.57768774 -0.16335428 0.43276146
-0.015829274 -0.90797466 -0.3852371 0.3249539 0.020126304 0.34431216 0.45639715 0.20931748
-0.97456264 0.06943332 -0.7264434 -0.87402725 -0.70765376 -0.084412575 -0.033386298 0.51398927
-0.41839278 -0.6543639 0.6595158 0.4552538 0.8880536 0.09709741 -0.71713746 -0.83321977
-1.1156509 0.64000994 -2.2143414 -0.12884024 0.15062287 -0.22731614 -0.9186395 0.40289593
-0.18028241 -0.8791792 -0.26307312 -0.3931874 -0.94710565 0.90315944 -0.3757807 0.24004868
-0.04019134 -0.5253526 -0.008624168 -0.052728724 -0.6393731 0.19881645 0.1750807 -0.52804315
0.40659475 0.41160092 -0.30228254 -0.7016635 -0.067914486 0.044709153 0.48119214 -0.66205513
-0.14880341 0.58479774 0.03278634 -0.24433136 0.47168612 -0.22292228 -0.816563 0.20450884
-0.9228826 -0.25339693 -0.0021781921 -0.55577815 0.5221785 -0.40408194 -0.039444037 -0.20750082
-1.6711406 0.7275341 0.8552098 -0.05992178 -0.8414793 0.1911259 0.31458262 0.16058196
-0.018349601 0.63513815 -0.05338207 -0.094065785 -0.012900428 -0.04499612 0.4338597 0.05898478
-3.7838054 -0.38405663 -0.8798351 0.07400307 0.31290552 -0.0909772 0.8763614 0.3362547
0.956012 -0.1546073 -0.023368461 0.7711693 -0.08478293 -0.81439483 -0.38968316 -0.65667385
0.5150153 0.08223133 -0.012501126 -1.0432982 -0.6332086 0.39061558 0.0038027542 0.14140451
0.0105341775 0.043195486 0.07199585 -0.8008552 -0.93609035 0.16058673 0.34927452 -0.07439154

bias f4 [256]
00000000: 9e46 e8be 9810 adbe 0641 58bf e0d9 b5bd
00000010: e183 30ba 243b c93d 0709 64bf 0a7e 783d
00000020: 6194 fc3d ed14 333d 6dfa 633f a844 36bf
00000030: a920 013f 807b 25bf 83ea 5f3f 0068 83bd
00000040: 300a 57bf 1605 5bbf 81ff 163e d413 363e
00000050: d09f 4fbe 2c3e 2fbf a2ae 2ebf 2ea8 18bf
00000060: bad1 b2bf eaac 96ba 7706 2b3e f493 2abf
00000070: f7e3 5d3f 5097 90be 6a6e 98be 2af8 883e
00000080: 0353 853e 6a21 8dbf 62bf 3fbf c461 19bf
00000090: 7663 76be 208e 8e3e a481 a63e e034 80bf
000000a0: 587c 30bf 2cae 7cbf ccd3 513e da01 6abf
000000b0: 96d8 99bf ddd4 a7bf b443 30bf 344c 8cbd
000000c0: 44d7 063f bf75 aebf 1eb2 63bf 2118 f53e
000000d0: df6a 51ba 7626 4fbf f831 67be d1c5 263f
000000e0: d8ea 203f b2a5 aabf dd33 d43e 3beb 85be
000000f0: c9c4 34bf 9a12 b8be def1 10bf f397 d33d
00000100: e693 1cbf bc07 4ebf 0805 34bf ee3f 8f3f
00000110: b1de 84be bec5 28be 0bd2 3cbf a8b9 3dbe
00000120: 9dc3 c6be 6c7a 073e 9810 4abe 1a26 7f3f
00000130: 8e79 21bf 5c2f 2c3e b290 cdbe 9259 a1bc
00000140: eabf 23bf 48c7 3abd 6cb0 4abe d645 adba
00000150: 5085 d93e 2b24 debf 8008 8a3e 48cb 77bf
00000160: 99a9 82bf 4bc1 02bb 6821 a9be 0ae9 85bf
00000170: 7536 353f 66aa 4cbf c877 cdbe 80b0 c5bd
00000180: 402b 5fbd c87e 07bf 4cc8 d6be 82ad 9ebe
00000190: 4a26 3dbf 962b 593e 4b9d efbe 70f6 8bbf
000001a0: cace 6c3e 1e24 3fbf e129 f93e ea51 b4bf
000001b0: 4f43 163f b829 96bf 7211 a9ba e0cf 36bd
000001c0: de04 4b3f d217 993e b82a 73be 31dc bb3e
000001d0: ec5d c5ba 35e1 e1be b02f c0bd 8642 a8bf
000001e0: e646 90bf f070 2bbf cbe3 413c 7a7b b4bf
000001f0: 6665 42bf 3634 403e 40cf 983e 7079 03bf
00000200: 6c3b 83ba b055 65bf 630f 933c 581f d73d
00000210: bd80 843f a747 c5bf 0026 2fbc 5c15 7e3e
00000220: bedf 9e3d 659b ffb9 b53d 763f 707f 70bf
00000230: a21c 34be db41 7fbf 2c92 b4be 3912 c93d
00000240: 30cc 41bf 2f80 e9be c22d 5fbf 50d2 11bf
00000250: 4cf5 f1be 80d7 70bc 6d05 3c3c 7292 083f
00000260: 5cd0 5ebf efa3 c83e 10c7 dc3e ddc1 5b3e
00000270: b351 11bf 4453 45be 04b2 8fbe 9043 f6be
00000280: ddb0 543c 5fec 7ebe 6f0d 34bb c689 bb3e
00000290: 462b 64bf 90f7 a3be b9af cc3e 8cc1 90bf
000002a0: bb8f 2f3f cfd0 de3e 9b5f 803f ac18 74bf
000002b0: 3090 aebe 5769 073e 8477 2dbf 1c8f 6ebf
000002c0: aa84 2a3f 349c 6cbf a145 fa3e e198 d33e
000002d0: ab9c 7f3c 9970 133d 1b81 2ebf bc41 f83e
000002e0: 9322 cabf 2a42 cdbf 1fd4 80ba a083 97be
000002f0: 90e8 a2bd 8c92 613e c248 abbf 3c9d 58bf
00000300: 6997 103f d032 853e b999 a23e 4439 48bf
00000310: 069c b0be 2beb 593f fe5c 76bf 9be8 16bf
00000320: 229d 533f 8794 753f 504f d5bd 2c9e 79bf
00000330: 9432 b8bf 8e25 11bf ee8c 3d3e 8c5e 53bf
00000340: a8d9 18bb 1101 92be 50e7 febe ef15 983e
00000350: 3234 01bf 7aca 15bf 1cc5 9cbf 6ebc 253e
00000360: 9e37 a63d 4f9d 013e dc37 513e 7699 74bf
00000370: c1c2 cab8 c49e 873e 12a7 a53e 4fd5 e43e
00000380: 8b60 81ba d67b 4f3f 7c3c 98be 69ce f2be
00000390: ce2a 5cbf 9aa5 3a3f d0f4 78bf 91da 913c
000003a0: 1364 d33e c0f5 36bd 2869 cc3d e681 133f
000003b0: 76ba 353f 83d0 0bba dc9b 473f 7e82 973c
000003c0: 1db0 4b3f eac8 d3be e7c6 023e 4dc8 b33e
000003d0: 3753 893e d3e9 633e f4cc 13bd a276 88be
000003e0: 76df 913e 6cd7 18bf f489 133f a31c 4a3f
000003f0: f86b 4bbf 3af1 18bf 8473 adbf 4f8f 223f
-0.45366377 -0.33801723 -0.8447422 -0.08879447 -0.00067335187 0.09825733 -0.89076275 0.060667075
0.123329885 0.04372113 0.89053994 -0.7119851 0.5044046 -0.6464157 0.8746721 -0.06416321
-0.8399992 -0.85554636 0.14745905 0.17781001 -0.20275807 -0.6845424 -0.6823522 -0.5963162
-1.3970253 -0.0011495624 0.16701685 -0.6663201 0.8667597 -0.28240442 -0.2977174 0.26751834
0.26039895 -1.1025822 -0.749014 -0.59914804 -0.24061379 0.27842808 0.32520783 -1.0016136
-0.68939734 -0.98703265 0.2049095 -0.91409075 -1.2019222 -1.3111836 -0.68853307 -0.06850472
0.5267222 -1.3629683 -0.8894366 0.4786997 -0.00079886423 -0.8091806 -0.22577655 0.65145594
0.62858343 -1.3331816 0.4144582 -0.2615603 -0.7061277 -0.35951692 -0.5661906 0.103317164
-0.61163175 -0.8048055 -0.7032018 1.1191385 -0.2595115 -0.16481683 -0.73758 -0.18527853
-0.38821116 0.13230294 -0.19732893 0.99667513 -0.630761 0.16814941 -0.40149456 -0.01969603
-0.6396471 -0.045600206 -0.19793862 -0.0013219665 0.42484522 -1.7354788 0.2695961 -0.9679456
-1.0208007 -0.0019951637 -0.330333 -1.0461743 0.7078622 -0.7994751 -0.40130448 -0.09652805
-0.054484606 -0.5292783 -0.4194969 -0.3099175 -0.7388655 0.21208033 -0.46799693 -1.0934582
0.23125759 -0.74664485 0.48664764 -1.4087498 0.58696455 -1.1731482 -0.0012898876 -0.04463184
0.793043 0.29900986 -0.23746765 0.3669143 -0.0015057898 -0.44117132 -0.09384096 -1.3145301
-1.1271636 -0.66969204 0.011834095 -1.4100182 -0.7593597 0.18769917 0.2984562 -0.51357174
-0.0010012216 -0.89583874 0.017951673 0.10504025 1.0351788 -1.5412492 -0.010690212 0.24812835
0.07757519 -0.00048753168 0.9618791 -0.93944454 -0.17589048 -0.9970986 -0.3526777 0.09817929
-0.7570219 -0.4560561 -0.87179196 -0.56961536 -0.4725746 -0.014699817 0.011475903 0.5334846
-0.8703668 0.3918757 0.43120623 0.21460672 -0.5676529 -0.19270045 -0.28065503 -0.4809842
0.012981621 -0.24894856 -0.0027473827 0.3662855 -0.8912853 -0.32024813 0.39977816 -1.1309066
0.6857869 0.43518683 1.0029176 -0.95350146 -0.3409438 0.13223778 -0.6776049 -0.9318712
0.6660868 -0.9242585 0.48881248 0.41327575 0.015601317 0.035996053 -0.6816575 0.4848765
-1.5791801 -1.6035817 -0.0009828842 -0.2959261 -0.07954514 0.2202856 -1.3381579 -0.8461492
0.56481034 0.2601533 0.31757906 -0.7821238 -0.34494036 0.8512446 -0.96235645 -0.5894868
0.8266164 0.9592976 -0.10415518 -0.97506976 -1.4390435 -0.5669793 0.18510792 -0.8256614
-0.0023323093 -0.2851644 -0.49785852 0.29704234 -0.5047027 -0.5851208 -1.2247653 0.16185161
0.08116077 0.12657665 0.20431465 -0.9554666 -9.668386e-05 0.26488316 0.32354027 0.44693992
-0.0009870691 0.81048334 -0.29733646 -0.47423103 -0.86002815 0.7290894 -0.97248554 0.017804416
0.41287288 -0.04466796 0.099809945 0.57620084 0.7098764 -0.00053335 0.779722 0.01849484
0.795656 -0.41364223 0.12771188 0.35113755 0.268213 0.22257166 -0.03608413 -0.2665301
0.284908 -0.5970371 0.57632375 0.78949946 -0.7946162 -0.5974308 -1.3550878 0.6349992
