checkpoints/215052000.ckpt (torch, 122663 bytes, 33 tensors)

weight f4 [256, 18]
000000 bd e6 06 3e e3 d2 03 be 9c 3f d2 bd 8a 40 93 bd
       0.13173957 -0.12873416 -0.10266039 -0.07190044
000010 76 f0 8a 3e 95 55 cd bd 68 40 4f be b9 1e 4e be
       0.27136582 -0.10026089 -0.20239413 -0.20128907
000020 47 15 8d 3d 43 56 72 3c 7e e5 f2 3d d2 9b 2b 3d
       0.06888824 0.014791074 0.118601784 0.04189665
000030 1a 65 b6 3d 99 50 34 be 31 1d 77 3e 89 d7 4f bd
       0.08906002 -0.1760887 0.2413223 -0.05074266
000040 6d 4a 28 3e 22 a5 10 3e 9c 13 ca 3c 71 38 02 3e
       0.16434641 0.14125493 0.024667554 0.12716843
000050 65 07 25 3d de b2 25 3d 24 75 1c 3e 0b 1b e1 bc
       0.040290255 0.040453784 0.1527906 -0.027478715
000060 85 a2 05 be 06 a8 15 be a1 64 c9 3b f1 f7 25 be
       -0.13050278 -0.14614877 0.006146029 -0.16207863
000070 e3 7a 6c be f5 ab f7 bc 5b 30 56 3d df 92 8b 3d
       -0.23093753 -0.030233363 0.05229221 0.06815123
000080 45 e4 fd 3d 1f 23 82 bc ea d9 61 3e af 42 3a bd
       0.123970546 -0.015885888 0.22055784 -0.04547375
000090 9c 9d bc bd 5c 4a b9 bd b0 be 29 3b c7 7d 74 3d
       -0.09209749 -0.09047386 0.0025901012 0.059690263
0000a0 3b 97 6c be be 50 a1 3c 22 ed 62 bd ab 09 af be
       -0.23104565 0.019691821 -0.05540193 -0.34187064
0000b0 87 0e f5 bd c0 63 80 bd e4 6b 57 3d 5c 7f 22 3c
       -0.119656615 -0.06269026 0.052593127 0.00991806
0000c0 87 15 9c bc e1 5c b4 bd bc a9 4a 3c 10 9f 3c 3d
       -0.019053234 -0.08806778 0.012369569 0.04605013
0000d0 64 76 59 be 37 68 d8 3d 55 65 f1 bd 67 09 b0 3d
       -0.21236569 0.105667524 -0.11786906 0.08595543
0000e0 4e 46 eb 3d ee a6 d2 3d c7 6c cf bc 8f 74 90 bb
       0.11488019 0.102857456 -0.025320424 -0.004408426
0000f0 e2 38 25 be 4e f9 4f 3b ba 9f e4 3c ac 87 29 be
       -0.1613498 0.003173429 0.027908195 -0.16555661
000100 d6 97 87 be 40 20 d7 bd e4 66 02 3e d4 1c 71 3e
       -0.2648303 -0.10504198 0.12734562 0.23546153
000110 c5 82 fc 3d ab 18 36 be d4 ee c4 bd e0 78 5d bd
       0.1232963 -0.17782848 -0.09615865 -0.054070354
000120 81 37 2c be 5e 46 24 be 3d da 21 bd 80 c3 27 3e
       -0.16818048 -0.16042468 -0.03951477 0.16383171
000130 bb 20 5f be a1 5f 43 be 4d 11 07 3d 89 9e ac be
       -0.2178983 -0.19079448 0.032975484 -0.33714703
000140 87 ee 9c bd c5 64 b9 3d 5a 93 01 3e af 51 a0 3c
       -0.07662683 0.090524234 0.12653866 0.0195702
000150 1d 3e fa bb c0 27 06 be 72 9e 9b 3d c9 ac 38 3d
       -0.007636799 -0.13101101 0.075985804 0.045086656
000160 04 fe d7 bc 0b 39 9b be 86 51 10 3b 48 aa c9 bb
       -0.026366241 -0.30316958 0.0022021248 -0.0061543323
000170 3f 63 65 bb 0e f3 7a bb e9 e1 99 bb 15 71 84 3e
       -0.0035001782 -0.0038291845 -0.00469612 0.25867525
000180 10 b5 80 bb ff 9a 08 be c0 d9 d0 3c 37 1f 8a ba
       -0.0039278343 -0.13340376 0.025494456 -0.0010537867
000190 81 ab 9a 3a 9a 47 13 3a 7e f1 17 3b c5 bd 70 bc
       0.001180038 0.00056182744 0.0023184712 -0.014693682
0001a0 30 63 81 bd ae 95 c9 bb 15 cc e7 bd b9 dd 98 3b
       -0.06317747 -0.0061518764 -0.113182224 0.0046651033
0001b0 9b 73 02 be 99 31 ed bd ac 4d f3 bc 60 17 98 3d
       -0.12739412 -0.115817256 -0.029700123 0.074263334
0001c0 90 71 6b be 51 43 a7 bd f3 a2 8f 3c 0c 5e 4e 3d
       -0.2299254 -0.081671365 0.017533755 0.05038266
0001d0 6b 88 22 be c0 07 24 be fc 41 c2 3d 98 22 73 3c
       -0.15872352 -0.16018581 0.09485242 0.014839791
0001e0 7e f0 01 3c 23 5e 09 3e 82 df e2 3c 82 b5 3f 3c
       0.007930873 0.13414817 0.027694467 0.01170099
0001f0 56 30 b4 3d a7 6c 23 3a 3e f9 25 bd 85 da 5e bb
       0.08798282 0.0006234147 -0.0405209 -0.003400476
000200 1e c2 56 3b 21 a5 b8 3a fa 60 2c be 04 8a 96 3d
       0.0032769511 0.0014087298 -0.16833869 0.07350543
000210 92 50 5a 3b 09 67 29 be 25 a8 49 bc 3e 52 a2 bc
       0.0033312184 -0.16543211 -0.012308155 -0.019814607
000220 6b a4 66 3b 23 fb 02 3b 71 bd 6a 3b 18 b4 a5 bc
       0.0035193216 0.0019986115 0.0035818482 -0.020227477
000230 bf 0d 81 bd b3 d6 c0 b9 0e ee 57 be ea b3 15 3a
       -0.0630145 -0.00036781057 -0.21086904 0.0005710708
000240 ab 6c 37 bd f6 be 1a bd 99 73 51 bc 70 98 12 bc
       -0.04478137 -0.03777977 -0.012783908 -0.008947477
000250 1d be 6a 3b 61 2b 6d 3e b3 46 2a 3c fd 01 c3 bd
       0.0035818883 0.23161079 0.010392833 -0.095218636
000260 93 a6 db bd d2 25 15 3d aa 9d 43 bd 80 e1 86 ba
       -0.10725131 0.03641302 -0.047757782 -0.0010290593
000270 e7 1c ca 3b 58 be 54 bb a6 b5 8d 3d 5a b4 1f bd
       0.006167996 -0.0032462087 0.06919412 -0.038990356
000280 12 b3 9e be a3 fb d0 3b 7f 2c 8a be 07 00 2c bc
       -0.30995995 0.0063776537 -0.26987073 -0.010498053
000290 13 cb 30 bb c0 7e 98 bc 42 5a 14 be 25 a0 c6 bb
       -0.002697651 -0.018615127 -0.14487556 -0.006061571
0002a0 2f 17 88 3a ec 63 b2 bd ba 78 b1 bd ee 62 41 bc
       0.0010382886 -0.08710465 -0.08665605 -0.011803372
0002b0 fc c8 7d bd 02 58 e7 ba 06 4a 0a 3c b3 f5 56 bd
       -0.06195925 -0.001765013 0.0084405 -0.05248041
0002c0 a9 a4 5c 3d 16 c7 e3 bc 7d 45 78 be 39 fd a7 bc
       0.05386797 -0.027804893 -0.24245258 -0.020506488
0002d0 c8 fe 9d 3e 87 b9 c9 bb 14 8c 6f 3c ab 5b 5c 3d
       0.30858445 -0.00615615 0.0146208 0.05379836
0002e0 49 ea 6c 3e 5a ba 8b 3e 9a 65 09 bd 2f d8 0e 3e
       0.23136248 0.27290612 -0.03354416 0.13949655
0002f0 ca 9a 8a be 0f 5c 0f be 98 4f c8 bd ed fc 07 bc
       -0.2707122 -0.13999961 -0.09780806 -0.008300048
000300 a4 a9 98 3c 0d 57 05 bd ab 97 39 3e 02 ce 90 3c
       0.018635578 -0.03255372 0.18124263 0.017676357
000310 a1 10 b1 3d 10 90 1c be a7 f8 93 bc 73 66 af b9
       0.0864575 -0.1528933 -0.018062903 -0.00033454932
000320 51 81 13 ba fd 58 35 ba ae 5f 2d 3c ec 5b c4 bd
       -0.00056268746 -0.00069178623 0.010581894 -0.09587845
000330 8d a0 1c bb eb 09 86 bd 4f 22 b1 b8 5a f2 e9 bb
       -0.0023899407 -0.065448605 -8.446408e-05 -0.0071394863
000340 22 6b 4e 3b e5 ab c4 ba 04 43 29 38 d0 e6 37 bc
       0.0031496962 -0.0015004842 4.0355153e-05 -0.011224464
000350 95 15 35 3d db ef 93 3b f4 60 ea bc 87 08 a4 3a
       0.044210035 0.004514677 -0.028610684 0.0012514748
000360 88 cb fc bb d6 b0 d5 bb 41 1e 02 bb 7b b8 0e bc
       -0.0077146925 -0.0065213246 -0.0019854459 -0.008710976
000370 91 4d 87 bc da 93 bc bd 28 58 3f 3a 05 37 90 3d
       -0.016516479 -0.09207888 0.0007299208 0.07041744
000380 e5 f8 29 3d 63 89 a3 3b 82 72 96 ba 64 4d 93 38
       0.04149713 0.004990743 -0.0011478218 7.023921e-05
000390 e5 c5 b8 3a 05 52 7e bc 92 90 34 3e d4 0d de bb
       0.0014097063 -0.015522485 0.17633274 -0.006776551
0003a0 d6 55 d9 bd d9 a1 54 3c 8d 11 22 3e 2e af cb bd
       -0.10612075 0.012978041 0.15827008 -0.09945522
0003b0 7f 2d 97 3c 31 f0 be bc f8 4b 7e bd 16 31 39 be
       0.018454311 -0.023307892 -0.06208417 -0.18085131
0003c0 2d f5 0a 3e 8b 7f 0c be 40 f6 bd 3d c9 3a 21 3e
       0.1357009 -0.13720529 0.09275484 0.15745081
0003d0 4b 40 23 bd 26 ce 01 3d 59 06 69 bd 19 e8 c6 3d
       -0.039856236 0.03169074 -0.05689082 0.09712238
0003e0 5f 45 1f be e6 a9 05 be 74 c3 0d be 57 af 11 be
       -0.15553807 -0.13053092 -0.1384409 -0.14227043
0003f0 66 e1 63 bc aa 02 12 3a 6f bc 55 3b 9d 03 8d 39
       -0.01390872 0.0005569855 0.0032613536 0.00026896308

bias f4 [256]
000000 02 7a 2b 3e 94 f0 0d bd 22 44 82 bd 60 92 81 3d
       0.16745761 -0.03465326 -0.063606516 0.06326747
000010 fd df 91 be 80 35 70 3d 2c 6d 92 be b5 9c ff bb
       -0.28491202 0.05864477 -0.28598917 -0.0078006634
000020 35 9a 19 3d f6 80 38 be d7 b5 da bc b4 aa a2 3d
       0.03750058 -0.18017945 -0.026698036 0.07942715
000030 96 92 85 be 81 7b 67 be 8a f4 7a bc ba 7a a3 be
       -0.260884 -0.22605707 -0.015317092 -0.3192957
000040 0b 5e 81 3d 29 07 e4 3d 5f 07 42 bd ec ac f1 bd
       0.063167654 0.11134178 -0.04737031 -0.1180056
000050 f0 ba 98 3c 96 59 7a bd e9 6f c9 3d 00 b0 04 bd
       0.018643826 -0.061120592 0.09835798 -0.03239441
000060 b9 3f a1 bd 56 8d 90 be 20 2a 7d bd f9 2f 35 bd
       -0.07873482 -0.2823283 -0.06180775 -0.044235203
000070 87 6f b3 bd 59 ee 0a 3e fd 34 06 3e 00 8a 96 be
       -0.087615065 0.13567485 0.13106151 -0.2940216
000080 61 b6 88 bd 2c 19 2e be b0 19 c1 be a9 62 58 be
       -0.06675411 -0.1700179 -0.3771491 -0.21131386
000090 60 6e 54 be e4 15 ae bd 2c b7 32 be 99 cf 7a be
       -0.2074523 -0.08500269 -0.17452687 -0.24493255
0000a0 bf 9e d9 be 38 b7 53 3d b8 b7 ce bd ea 87 82 be
       -0.42503926 0.051688403 -0.10093635 -0.2549432
0000b0 8b 02 6c 3d 94 26 8e 3d b7 9a 16 3e 94 82 82 be
       0.057619613 0.06940952 0.14707457 -0.25490248
0000c0 f8 b4 59 3d df 0e 0a bd 07 a5 93 be d5 62 22 be
       0.0531511 -0.03370559 -0.28836843 -0.15858014
0000d0 db bd 2f be 26 97 9a bc 30 e5 ca bd bb 68 3d 3c
       -0.17162268 -0.018870901 -0.09906995 0.011560614
0000e0 04 2f 0f be 42 48 7f bd 38 0f d8 bc 4a 13 9d bc
       -0.13982779 -0.06232477 -0.026374444 -0.019174237
0000f0 0d b6 91 3b 36 5e 7a be d0 0c 8b be ef 53 0f 3d
       0.004446751 -0.24450001 -0.27158213 0.034992155
000100 74 e0 a8 3c 6c cf 67 be 58 e6 49 be 87 79 29 be
       0.02061484 -0.22637719 -0.19716775 -0.16550265
000110 ad f7 fc bd 75 d8 94 3d 77 a5 1f be 88 00 d3 bc
       -0.12351928 0.072678484 -0.15590464 -0.02575709
000120 b4 77 22 3d 28 06 86 be 4b 59 81 3d f3 de 73 be
       0.03966494 -0.26176572 0.063158594 -0.23815517
000130 81 38 d1 bd 0d 0a d6 ba 76 a7 fd bd 01 80 0d 3d
       -0.102158554 -0.00163299 -0.12385456 0.034545902
000140 70 7f 5b be 82 75 cb 3d 03 b0 ba bd d2 d6 b2 bd
       -0.21435332 0.09934522 -0.09115603 -0.0873238
000150 f2 e5 35 be 66 f0 c8 3d d2 85 3e bb 49 55 8a 3d
       -0.17763498 0.09811477 -0.0029071462 0.06754548
000160 ac e2 96 bd 42 6d 71 be 4e 69 6d bd 42 5a 82 bd
       -0.07367453 -0.23576835 -0.057961755 -0.063648716
000170 40 46 c4 bd 72 93 7b be b6 fa 63 be ce 7b 40 3d
       -0.095837116 -0.24567965 -0.22263607 0.04699307
000180 4c 04 e4 3d 14 c5 14 3d 3d 73 2c 3e 07 67 4d be
       0.11133632 0.03632076 0.16840835 -0.20058833
000190 a7 0c 8b be 43 96 96 3d 96 c6 0f bc 8e ec 66 be
       -0.2715809 0.07352879 -0.008775374 -0.22551176
0001a0 a6 37 80 3d ca 35 0c be f4 86 67 3e c9 d0 a8 3d
       0.06260614 -0.13692394 0.22610074 0.082429476
0001b0 64 aa 56 3d 28 59 13 be b0 b3 8c 3d e1 98 92 be
       0.05240859 -0.14389479 0.0687021 -0.28632262
0001c0 27 12 04 be f3 99 c1 bd 33 f8 cd 3d 2e 21 4d be
       -0.1289755 -0.094531916 0.10057106 -0.20032188
0001d0 5c ff ca 3d ed 66 4e be 9a e0 58 3c 2b 22 84 bd
       0.09911987 -0.2015645 0.013237143 -0.064518295
0001e0 a4 cf ed bd b2 61 3f be db a2 bb bd e6 5b 85 3c
       -0.1161187 -0.18689612 -0.091619216 0.016279172
0001f0 a8 46 9d bd 9e 34 8e bc 58 45 ef bd f0 61 42 be
       -0.07679492 -0.017359074 -0.11683148 -0.18982673
000200 7f bb 84 3d 0c 89 8d bd d4 30 2e 3e 2f bc 82 3d
       0.064810745 -0.06910905 0.17010814 0.063835494
000210 62 76 3e bd 1a 28 35 bd 7f 2b 35 be cc 38 e1 3d
       -0.046499617 -0.044227697 -0.17692374 0.10997161
000220 d9 01 fd bc 4e b1 39 bd 2e a0 7d bd cf c8 35 be
       -0.03088467 -0.045335107 -0.061920337 -0.17752384
000230 39 e4 51 be 7d 88 5e 3d e9 46 33 be 7b 8e 12 be
       -0.20497216 0.054329384 -0.17507519 -0.14312164
000240 ac a5 13 be b5 30 61 bd b0 e5 02 be 77 a4 af bd
       -0.14418668 -0.05497809 -0.12782931 -0.08576291
000250 06 96 00 bd 9c 73 8b be 30 fc 9f 3b e3 63 ce bd
       -0.031393073 -0.2723664 0.004882358 -0.10077646
000260 ad 69 38 be 7d 08 6d be ac 63 47 be b5 4d 38 be
       -0.18009062 -0.2314777 -0.19471616 -0.17998393
000270 bf 22 1b bc 54 d9 00 be ef e3 04 3e 30 66 c5 bc
       -0.009468733 -0.12582904 0.12977575 -0.024096578
000280 f4 1f 51 bd 02 02 4a be 55 08 0b be 13 26 d1 3d
       -0.051055863 -0.19727328 -0.13577397 0.1021234
000290 62 87 32 be 5e 81 04 be 38 d3 09 3d 74 14 a7 bc
       -0.17434457 -0.12939975 0.0336487 -0.020395495
0002a0 6f 97 a6 bd 55 0a d2 3c dc a4 d1 bd 30 5b af be
       -0.081343524 0.025639692 -0.102365226 -0.34249258
0002b0 3b 72 dd bd 03 b4 8a be 1b 75 a5 be 13 d1 10 bd
       -0.10812803 -0.27090463 -0.32315907 -0.03535564
0002c0 01 fb e5 bd 23 49 c8 3d 36 a8 44 be 84 de 86 bd
       -0.11229516 0.09779575 -0.19204792 -0.0658541
0002d0 68 dc ee 3d 4b 6b c2 be b2 d2 ed bc 2f c6 bb be
       0.11663133 -0.37972483 -0.029031131 -0.3667464
0002e0 a4 0e ab 3d 4a 91 40 be 16 0a 20 3e 42 b2 06 be
       0.08352402 -0.18805423 0.15628847 -0.13153937
0002f0 42 fc 16 3d 10 a7 34 be fe 1d 81 be ac 45 92 bd
       0.036861666 -0.17641854 -0.25218195 -0.07142195
000300 29 e6 1e bd 5e 83 d2 bd a2 b2 89 3d 03 3a cf bd
       -0.038793717 -0.102789626 0.06723525 -0.10118487
000310 5c 76 f1 3d b7 3b 48 be 40 3e 26 3d 86 5a db 3c
       0.117901534 -0.1955403 0.04058671 0.026776563
000320 20 f0 8f bd eb 9d 05 bd 43 ca 05 be f3 48 81 3d
       -0.07028222 -0.032621305 -0.13065438 0.06312742
000330 9c 28 96 bd 99 85 62 3d cd a8 9b be d7 5a 55 bd
       -0.073319644 0.05530319 -0.30402222 -0.052088585
000340 1e 3b 2a be 43 04 7a be 8b 8c e2 bd f0 f2 22 3d
       -0.16624114 -0.24415688 -0.11061963 0.039782465
000350 bf 8b 10 3d 0d 74 16 3d 36 35 1e bd 77 47 82 be
       0.035289522 0.03673177 -0.038624965 -0.25445148
000360 9f 7c b4 bc 6e bb 18 bd 09 7a 3f be 77 60 91 be
       -0.02203208 -0.037288122 -0.18698896 -0.2839391
000370 ce 7d 43 3e 23 c3 91 3c 6e 5d 92 3d 38 bb f4 bd
       0.1909096 0.017793244 0.071467265 -0.11949772
000380 82 b9 82 be 0b 2d 6e be 9f 7b 28 3d 5b 85 b3 bc
       -0.25532156 -0.2325937 0.04113352 -0.021914175
000390 c8 50 0f be 08 3f f5 3c 23 d1 88 3d 14 5c 7a 3c
       -0.1399566 0.029937282 0.06680515 0.015280742
0003a0 7f 5e 66 bd 49 ac 83 bc 23 e0 f1 3d ab ee df 3d
       -0.056242462 -0.016073363 0.11810329 0.10934194
0003b0 33 0e 18 bc 87 5a ef 3d f2 8a 72 3c 90 7f 30 be
       -0.009280729 0.116871886 0.014803635 -0.17236161
0003c0 4f 47 f0 bc dc 89 82 be 43 db 43 be 17 f4 cc 3d
       -0.029330878 -0.25495803 -0.1912661 0.10007494
0003d0 1d c3 c4 3d a1 be 7f be 90 4f d1 3c 18 f5 80 bd
       0.096075274 -0.24975063 0.025550634 -0.06296748
0003e0 9d 79 1b be d6 67 83 be fc 4f 24 be 38 39 8b be
       -0.1518311 -0.25665158 -0.16046137 -0.27192092
0003f0 30 1c 15 be 12 70 0d be 10 ee 05 bd e7 a6 f7 bd
       -0.14561534 -0.13812283 -0.032697737 -0.12092381

weight f4 [1, 256]
000000 31 0b 4e bc 95 0e e4 bc e2 17 cd bb 5e e6 4c 3d
       -0.01257591 -0.027838985 -0.0062589506 0.050024383
000010 bb 15 3c bc 1e 57 33 ba 6b 2a ed bb 4e 24 b3 3a
       -0.01147979 -0.00068412896 -0.0072377226 0.0013667436
000020 6a d8 22 3b 82 4a b2 3b 8e 4d 40 bd e5 61 1d 3b
       0.002484823 0.005441011 -0.046948962 0.0024014649
000030 15 13 99 3a 54 5e 20 bc 9d 81 90 3a 54 5c bb 3b
       0.001167866 -0.009788115 0.0011024956 0.0057177935
000040 87 0f b5 bc 49 05 62 bb b4 92 31 b9 30 88 01 ba
       -0.02210213 -0.0034488013 -0.00016934687 -0.0004941253
000050 ed ac 9e 3c 1e df f5 ba f4 e0 0b ba c6 69 de b8
       0.019369567 -0.0018758511 -0.000533595 -0.00010605487
000060 31 72 b6 bc a0 7c eb 3a fe c5 35 ba b3 5a 38 3c
       -0.022271248 0.0017966218 -0.0006934105 0.011252093
000070 27 5a 07 3d cd 03 ec 3b b7 32 82 3b da ed 1c 3d
       0.03304496 0.0072026015 0.003973331 0.03831277
000080 7c 97 7d 39 d5 f5 60 3b 3b 03 3a 3b f6 79 ab 3c
       0.00024184393 0.0034326215 0.0028383273 0.020932179
000090 ef d9 5f 3a cb 49 87 ba 81 62 fc 3a ee ae be 3a
       0.00085392495 -0.0010321675 0.0019255431 0.0014547983
0000a0 e8 65 14 bb d6 81 c0 3d 1c 2f 57 3a 51 53 d7 ba
       -0.0022643749 0.09399764 0.0008208619 -0.0016428028
0000b0 28 90 8f b9 47 e6 53 3c b7 42 f2 bc c3 79 6e 3c
       -0.0002738249 0.01293332 -0.029572828 0.014555397
0000c0 a4 44 e9 3a 85 ae 9a ba 85 c7 be 3d 5a 36 ca ba
       0.0017796946 -0.0011801278 0.09315399 -0.0015427575
0000d0 b8 e7 47 3c 0a d1 09 39 7b 61 91 3d 78 50 16 bd
       0.012201242 0.00013143211 0.07098671 -0.036697835
0000e0 7d 76 22 bb d2 c3 95 38 12 06 92 3a 0c e5 53 39
       -0.0024789863 7.141348e-05 0.0011140725 0.00020207855
0000f0 e7 48 47 bc 22 e2 0b bc 9a 14 bd 3d b5 cc 23 bc
       -0.012163377 -0.008537801 0.09232445 -0.009997536
000100 98 33 ec 3a da b6 11 3b ad 32 b0 bb 90 e5 5f ba
       0.0018020747 0.0022234232 -0.005377135 -0.00085409824
000110 6c 90 5f bb a8 87 86 3d 16 7e 77 3b 2d d1 26 bb
       -0.0034113182 0.06568843 0.0037764362 -0.0025454268
000120 9d ab 80 3d c8 f5 dd 39 f0 e9 ab ba 6c 96 fc ba
       0.06282733 0.00042335526 -0.0013115983 -0.0019270903
000130 ff 26 1e bd 8f 17 9d 3b 5f 4c 3d bd 5f fb 63 3b
       -0.03861141 0.004794068 -0.04621541 0.003478728
000140 9d 9b 6f 3b 5e c6 a4 bb 17 e7 e0 ba 3d 39 69 39
       0.0036561259 -0.00502853 -0.0017158714 0.00022241934
000150 ab 29 b5 3d 0d b0 f1 3c 63 7a 0a bd 80 9f 0b be
       0.08845838 0.029502893 -0.033808123 -0.13635063
000160 de c7 67 bb 62 a4 54 3d 92 88 88 38 36 f2 d1 3b
       -0.0035366933 0.05191458 6.5104236e-05 0.0064070476
000170 85 bd ce bd aa dc c8 bc 14 93 70 3d b9 c3 bc bb
       -0.10094742 -0.024519283 0.058734015 -0.0057606366
000180 3c ab 43 b9 f6 f5 f8 3d 0a f5 0d ba 6e 62 83 3b
       -0.00018660439 0.12156288 -0.0005415237 0.0040095365
000190 4f 1e 47 3d 03 2e 1d bd 8e ea 10 3d 13 e1 18 3c
       0.04861289 -0.03837396 0.03537994 0.009331006
0001a0 b8 98 65 bb 16 e3 57 bc f4 3a ee bc 51 b1 05 bb
       -0.0035033654 -0.0131767 -0.029080845 -0.0020399878
0001b0 e9 b1 a2 39 66 a0 94 bd c9 1c 4f bb b8 f3 e2 3d
       0.000310316 -0.07257156 -0.003160285 0.11081642
0001c0 da b3 86 bc 33 f2 af 3a 6a 88 fd 39 38 41 04 3d
       -0.016443182 0.0013423621 0.00048357557 0.03228876
0001d0 c7 e6 2a 3a 66 a1 e3 bc 5a ac 0c bc b5 5d 82 ba
       0.0006519374 -0.027786922 -0.008586014 -0.000994614
0001e0 b4 21 25 bd 9e 71 e4 3a 54 5a 95 39 75 1d 5e bd
       -0.040315345 0.001742888 0.00028486794 -0.05422731
0001f0 7c 3c 72 3d ee 76 6e 3c 34 28 4b 3b b8 49 d5 3d
       0.059139714 0.014554722 0.0030999305 0.10414451
000200 91 3c df bc 26 7d bd 3a 34 ec 78 bd ea 65 ea 3d
       -0.02725056 0.0014456853 -0.060772136 0.1144522
000210 77 15 9a 3b 32 04 f9 ba 72 29 95 3a 1f a9 78 3a
       0.004702266 -0.0018998443 0.001138015 0.000948565
000220 83 c3 b9 3a 84 d1 62 3d 1f 9a 99 3b f1 a1 b2 3c
       0.0014172647 0.05537559 0.004687562 0.021805735
000230 a4 b1 35 3a d5 2f cd ba 08 03 52 3c 91 64 be bc
       0.00069310726 -0.0015654514 0.0128181055 -0.023241313
000240 32 fa eb ba ec 8c 89 3c 8c cd 3b 3b 78 d3 03 bb
       -0.0018003641 0.01679083 0.002865645 -0.002011506
000250 bf ae 7c bd 54 e8 58 bb d4 ce 00 bb 21 03 23 ba
       -0.06169009 -0.0033097463 -0.001965453 -0.0006218423
000260 dc e1 9b bc a3 19 23 3a 5e 44 5b bb e2 04 31 3c
       -0.019028597 0.0006221777 -0.0033457498 0.010804387
000270 e3 19 41 3d 43 f1 20 bb 7d 8c 87 bc 2c 90 25 bd
       0.047143828 -0.0024557866 -0.016546482 -0.040420696
000280 ec cd ae bd 65 81 82 bd 10 77 38 3d 1b e5 6f 39
       -0.0853537 -0.06372336 0.04503542 0.00022878165
000290 b6 dc 3c 3b 06 f8 a5 3a f6 c5 6b bc c4 ca a7 3a
       0.0028818077 0.0012662418 -0.014390459 0.0012801518
0002a0 f2 36 54 bc 0f 5c ac 39 d3 07 3b 3b f5 89 b4 bc
       -0.012952553 0.00032874985 0.00285386 -0.02203844
0002b0 69 81 2d 3b cb f4 21 3b a5 13 cf 3d 0a 79 92 3c
       0.002647484 0.0024712558 0.10111169 0.017879982
0002c0 46 a3 db bb cb c4 07 3a fd e3 d1 bc 91 7b d3 bd
       -0.0067028133 0.0005179166 -0.025621409 -0.10326303
0002d0 c6 07 71 3c e1 84 ef 3c 0f 01 0f 3e fd d6 89 3d
       0.014711326 0.029238166 0.13965248 0.06730459
0002e0 38 b0 0f bb 8f 48 d7 bc 29 8e 9c 38 1a 37 00 bc
       -0.0021925103 -0.026279716 7.465139e-05 -0.007825637
0002f0 70 1f d0 b9 ad 34 14 3b 81 e8 b8 3a bc c0 97 3b
       -0.00039696274 0.0022614405 0.0014107378 0.00463113
000300 64 c4 35 3d e4 ed a4 3a f9 ff 86 3d 5e b7 39 bc
       0.044376746 0.0012583104 0.06591792 -0.011335222
000310 70 8e 19 bb a1 be 75 bb 71 09 00 3c 25 ac 90 bc
       -0.0023430847 -0.0037497657 0.007814751 -0.01766021
000320 99 e1 c4 b9 53 b4 b9 3a 35 01 bc 3c d5 f2 14 bb
       -0.00037552117 0.0014168121 0.022949794 -0.0022727747
000330 5c cc 1f bd 07 1a da 3c c3 31 36 3b b1 94 0b 3b
       -0.03901325 0.026623739 0.0027800656 0.0021298344
000340 09 1f c3 bb 70 37 46 bb df e3 23 3c 21 d3 6a 3c
       -0.0059546274 -0.0030245446 0.010003059 0.014332564
000350 8a 4a 69 3d 56 90 a3 bc ba d2 74 3d b3 18 ff ba
       0.05695585 -0.019966286 0.059771277 -0.0019462317
000360 db 64 94 3c 87 ff 81 bd 2e d1 43 bd 0a ea 9c 3b
       0.018114498 -0.06347566 -0.04780691 0.004788642
000370 75 81 87 bc 04 67 97 bc af 2c 74 bc 4f 94 1e bd
       -0.016541222 -0.018481739 -0.0149032315 -0.038715657
000380 3d 5f ee 3b 00 5a 7e b6 6e 1d 80 ba 76 30 60 3b
       0.007274537 -3.7901336e-06 -0.0009774396 0.0034208572
000390 08 f0 87 3a 28 aa 77 ba 26 fd 1f be 9d 7a 9d 3a
       0.0010371218 -0.00094476575 -0.15623912 0.0012014691
0003a0 18 bb 9f 3a fb fa 3c 3a 9d 14 9c bb 5b 4b 43 3a
       0.0012186496 0.000720903 -0.0047631995 0.00074498885
0003b0 49 5d 15 ba 3b 16 a9 ba ab 73 21 3c 20 cb fa bd
       -0.00056977995 -0.0012900302 0.009854238 -0.12245774
0003c0 a7 36 bb 3a a9 58 61 bd d2 c2 bc 3b 61 15 df 39
       0.0014283255 -0.055016194 0.005760529 0.00042549803
0003d0 64 b2 74 b9 af 81 3b 3c ee ff a0 bb 07 31 e3 3d
       -0.00023336109 0.011444493 -0.0049133217 0.110933356
0003e0 02 79 44 bd e0 e5 2f 3c 3e 1c 27 bb 6a 54 36 bc
       -0.047966965 0.010735959 -0.0025499011 -0.011128524
0003f0 6a ba ca ba 04 d6 a8 bc 46 39 15 bc c0 f5 df ba
       -0.0015466933 -0.020609863 -0.009107893 -0.0017086789

weight f4 [256, 1]
000000 78 c0 d9 3e 92 74 90 bc f3 55 ea 3e 35 3f 34 3f
       0.42529655 -0.01763371 0.457687 0.70408946
000010 29 3d 4a 3f 79 41 bb bc c0 44 f2 3e 97 dd 59 3b
       0.78999573 -0.022858368 0.47318077 0.003324365
000020 4a 8c 76 bf 0b 97 52 be 20 49 49 3e b4 8d 6c bf
       -0.96307814 -0.20565431 0.19656801 -0.9240372
000030 b0 92 dd bc 12 42 8a bf ea 15 34 bf 43 25 d8 3e
       -0.027047485 -1.0801413 -0.7034594 0.42215928
000040 75 2a c9 3e 80 e2 d6 3d 2e a3 3f bf 18 62 9a be
       0.39290205 0.1049242 -0.7485837 -0.30152965
000050 64 a3 66 bf 2c 7c e7 be 4d 3d 0b 3d af 8c 20 3e
       -0.90093064 -0.45211923 0.033994008 0.15678667
000060 b6 51 ce 3e 59 64 8b bf 93 d2 21 3d b6 22 05 be
       0.40296715 -1.0889999 0.03950746 -0.13001522
000070 38 81 83 bf f9 4c 36 3f 46 3d 05 bf 4a fa 28 be
       -1.027381 0.712112 -0.5204662 -0.16501728
000080 c0 25 45 bd 66 1e ca bc a9 99 64 bd 20 91 8e 3d
       -0.048131704 -0.024672698 -0.055810604 0.06961274
000090 64 67 12 bf 25 56 71 3d a1 06 ac bc f1 03 eb bd
       -0.5718901 0.058920044 -0.020999255 -0.11475361
0000a0 93 cc b3 3e 4a 4a 39 bf 11 4b e3 bc 04 3b 6b 3d
       0.35117015 -0.7237898 -0.027745755 0.05742933
0000b0 c4 27 49 bf 20 bb 9a 3d 7e 0f 9f 3e 21 b7 cb 3d
       -0.785763 0.075552225 0.31066507 0.099470384
0000c0 5e 5d da bf ec 76 26 bf 54 34 84 be 2e a0 28 bf
       -1.7059743 -0.6502521 -0.25821173 -0.65869415
0000d0 28 09 21 3f 68 0e de be 60 1d f9 bd 0b 14 e4 3e
       0.62904596 -0.43370366 -0.12163806 0.44546542
0000e0 13 50 93 3e 90 04 fe be 90 f8 89 3d 04 a6 2a bf
       0.2877203 -0.49612856 0.06736863 -0.6665957
0000f0 77 32 02 bd bd aa be bd b0 3f 41 be 1e 55 a6 3e
       -0.03178641 -0.093099095 -0.18871951 0.32486814
000100 d0 35 b9 be 8e f1 8c 3d 3f e7 c6 3e 95 82 18 3e
       -0.36173868 0.068820104 0.38848302 0.14893563
000110 b0 3c 2d 3e 1b 8f 09 3f 0f 80 6f 3e 8e 84 08 bf
       0.16917682 0.53733987 0.23388694 -0.5332726
000120 07 12 86 bf 77 5c e2 3c 93 a0 e3 3c b0 b1 54 bf
       -1.0474252 0.027631981 0.027786529 -0.8308363
000130 20 2a 45 be a7 2e 70 3e 9d d6 b3 3d fd 28 6d be
       -0.1925435 0.23455296 0.087811686 -0.23160167
000140 66 fe e7 bd 00 9d 75 3c 75 4d a2 3e ba 12 f9 bb
       -0.113278195 0.014991045 0.3169972 -0.0076011093
000150 a4 b6 aa 3e 21 c0 41 3f 15 10 09 3f ba 25 a6 bf
       0.3334247 0.7568379 0.53540164 -1.2980263
000160 3a 08 8c bb 30 52 d7 3e 40 0b 23 3d 32 91 4f 3f
       -0.0042734416 0.42054892 0.03980565 0.81080925
000170 4e 1b 3d bf 65 a4 47 3f c9 6c 5a be 89 b0 36 be
       -0.7386979 0.7798522 -0.2133056 -0.1784078
000180 5c 54 d2 be d2 6f d1 3e 88 75 fe ba 37 b5 42 be
       -0.41079986 0.40905625 -0.0019413689 -0.1901444
000190 aa d5 1e bf 9d 77 ee 3e 32 e4 2d 3f db a3 7e bf
       -0.62044775 0.46575633 0.67926323 -0.99468774
0001a0 f3 05 bb 3e 8e d6 44 3e a2 d5 76 3e c4 57 5a bf
       0.36527976 0.19222471 0.24104932 -0.8529017
0001b0 3a 86 48 bd 9f e0 ba 3e ed 27 7b 3e d3 1d d6 bf
       -0.048956133 0.36499497 0.24526949 -1.6727852
0001c0 3f ae 06 3f 81 99 05 3a 3c dc 1a bf 36 0b 41 bf
       0.5260963 0.0005096421 -0.604923 -0.7540773
0001d0 92 a0 ec be ab 31 fa 3e e7 d3 1f 3e d6 1b 8e bb
       -0.46216255 0.4886602 0.15608178 -0.0043368144
0001e0 a5 bd 2f 3f 31 ea 93 bb fb a7 bd bc 6d 0e a4 bf
       0.6864875 -0.004514002 -0.023151388 -1.2816902
0001f0 00 da 5f bf 29 98 ad 3d 45 77 02 bf 3a ab db 3e
       -0.87442017 0.08476288 -0.5096324 0.42904073
000200 dc e6 f2 3d 50 fd 10 bf 00 02 d8 3c a4 e9 c5 3e
       0.11860439 -0.56636524 0.026368141 0.38654816
000210 18 f4 82 bd b0 93 18 be c1 31 b9 bd c8 e3 38 be
       -0.063942134 -0.14900088 -0.09042693 -0.18055642
000220 0a 69 7b bf 22 db 5a 3f f7 6d 28 bf 5b b1 16 bc
       -0.9820715 0.8549062 -0.65792793 -0.009197558
000230 ab e8 d5 bc 0f f6 cc 3d 00 aa 55 bc 3e ed 54 3f
       -0.026111921 0.100078695 -0.013041019 0.831745
000240 4b 8c ce 3d ac dd 23 3e c0 c4 ee bc 3a 9a 88 3e
       0.100853525 0.1600253 -0.029146552 0.26680166
000250 1b 72 87 3e aa 09 bb 3e bb 8d 48 3e 46 f5 c3 3d
       0.26454243 0.3653081 0.19585316 0.095682666
000260 f5 fb 1f 3f d8 2d 0c be 7a 51 5d 3d 9a 1f 70 bf
       0.6249383 -0.13689363 0.05403278 -0.9379822
000270 24 e1 cc 3e fe ee a9 3e 64 99 b6 3e 7f 56 29 3f
       0.4001552 0.3319015 0.35663903 0.6614761
000280 55 b3 ff 3e 0e 9b 28 be 4c b5 d0 3e 67 00 e2 bc
       0.49941507 -0.16465399 0.4076332 -0.027588082
000290 98 61 53 bf 38 af 56 be 20 68 de 3e 48 9b 87 bc
       -0.8257079 -0.20965278 0.43438816 -0.016553536
0002a0 37 0e 17 3f 10 2b f3 bd 46 50 67 bd 19 70 e1 3e
       0.59006065 -0.11873448 -0.05647304 0.44030836
0002b0 79 9d da bc 4c 81 36 bd 4a 3d 2c 3f a1 d5 08 be
       -0.026686417 -0.0445569 0.6728102 -0.13362743
0002c0 b0 c0 64 3e 80 33 2d 3c 56 35 70 3f 4f 2d 24 3f
       0.2233913 0.010571361 0.93831384 0.64131635
0002d0 dc b1 12 bf 55 ce 8a bf 60 97 8b be b3 b4 62 be
       -0.5730264 -1.0844218 -0.27263927 -0.22139244
0002e0 aa f4 53 bf 09 06 76 be 14 68 13 bf bb d6 64 3e
       -0.827952 -0.2402574 -0.57580686 0.22347538
0002f0 78 2d 28 be 9f b6 e2 bc e5 06 db 3b 3a 62 bc 3a
       -0.16423595 -0.027674971 0.0066841715 0.0014372536
000300 05 3d ad 3e 84 01 e7 be ef b2 be 3e 24 05 a3 3e
       0.33835617 -0.45118344 0.3724589 0.3183986
000310 84 5a b1 be e4 a3 c2 be 99 48 aa bf 1d fb 8f 3e
       -0.3463937 -0.38015664 -1.3303405 0.28121272
000320 58 1d 64 bf 30 9c 1c bf a7 50 d5 bd d2 52 3b bf
       -0.89107275 -0.61175823 -0.10415774 -0.7317325
000330 40 62 67 be 40 3f 01 3f 72 ac 0b bd 4d 11 a3 bc
       -0.22596073 0.50487137 -0.034100004 -0.01990571
000340 fc 05 0b 3f 3c 92 d7 3d e7 e2 75 3e 46 c2 2a bf
       0.54306006 0.10525939 0.24012338 -0.6670269
000350 97 cc aa 3e 49 1a f1 3e 2a 01 6c 3e b0 ca f7 3d
       0.33359215 0.47090366 0.23047319 0.120992064
000360 f1 87 6d bf c1 3e 00 3f ef 7f 0b 3f e8 85 96 bc
       -0.92785555 0.50095755 0.54492086 -0.018374398
000370 12 cc 58 bf a6 64 3a be f0 8c 8a 3e e1 62 56 3f
       -0.84686387 -0.18202457 0.27060652 0.8374463
000380 d6 25 32 3f 6d 80 4d 3e 24 1a 76 bf cb 0c 94 bf
       0.69588983 0.20068522 -0.9613364 -1.1566404
000390 20 9b 6a bd 20 33 f2 bc c4 7d fa 3e 97 e6 85 bc
       -0.057276845 -0.029565394 0.48924077 -0.016345305
0003a0 17 c9 fc bb 6c 3c b4 be af b1 63 3f f4 05 ac be
       -0.0077144015 -0.35202348 0.88943 -0.33598292
0003b0 b9 72 bb be 92 e7 10 bf 55 d0 37 3f d8 70 52 3f
       -0.36610964 -0.5660335 0.71802264 0.82203436
0003c0 df 1d 6b 39 27 64 ff 3e 85 67 14 3e 18 67 8a be
       0.00022422474 0.49881098 0.14492615 -0.2703178
0003d0 c8 c5 19 be 38 fd 68 bf 22 1c a7 3e 4e ab 73 bf
       -0.15016854 -0.9101138 0.3263865 -0.95183265
0003e0 15 99 be 3e 45 c5 b4 bf 40 f7 56 bf 9f e1 ca 3e
       0.37226167 -1.4122702 -0.83971024 0.3962526
0003f0 f4 72 33 bf 3d b1 44 3f 3f f3 56 3e 70 18 98 bd
       -0.7009728 0.76832944 0.20991229 -0.07426536

bias f4 [256]
000000 ad f5 c3 bf 9e 38 78 ba 9e 39 e6 be 6c 25 0e 3d
       -1.5309349 -0.0009468886 -0.44965833 0.034703657
000010 fa 1a d8 3e d1 d9 98 3d 73 41 d7 3e 2a 28 94 3e
       0.4220808 0.0746342 0.4204212 0.28936893
000020 30 82 4c bf d8 7c c3 3d 73 82 8f bb c4 d8 c3 be
       -0.7988615 0.095452964 -0.0043795644 -0.38251317
000030 7b 79 81 3e 42 81 cf 3e 60 09 0e bf 35 ff 15 3f
       0.25287995 0.40528303 -0.55483055 0.5859254
000040 b9 92 d3 bf 24 60 77 bf 82 af 44 bf 1a 0f 0f bf
       -1.6529151 -0.96631074 -0.76830304 -0.5588242
000050 76 30 7e bf 5c dc 83 be 16 4e cb bd c5 b9 3c bf
       -0.99292696 -0.25754058 -0.09927003 -0.7372096
000060 2a 9e b2 bf a1 cb e6 3d 85 35 c1 3c 86 f3 20 3f
       -1.3954518 0.11269308 0.02358509 0.6287159
000070 4d 12 d8 3e da 50 30 bf 8e 87 5b bf bb 53 93 3e
       0.42201462 -0.6887337 -0.85753715 0.2877482
000080 8c de 00 bf 1c 9a a0 3e 6c c1 fd 3e a5 37 04 3f
       -0.5033958 0.31367576 0.49561632 0.51647407
000090 c2 50 0e bf c8 d6 b2 3e 65 9d 7f 3e ce 13 53 3e
       -0.55591977 0.3492949 0.24962385 0.20613024
0000a0 ab b7 e1 3e 2e 13 53 bf 28 6b d4 3c 9a 1b 61 3d
       0.4408544 -0.8245114 0.025930002 0.054957964
0000b0 2a 9d a4 ba 0c a2 77 bf 8a 82 a9 bf c9 62 f4 3e
       -0.0012559046 -0.9673164 -1.3242962 0.47731617
0000c0 e7 9c a9 3d 80 db 65 bf 37 e1 80 3f b8 f7 97 ba
       0.0828188 -0.89788055 1.006873 -0.0011594212
0000d0 7b 2a eb 3e d8 01 47 bf 50 03 0e bf c0 e8 f4 bf
       0.45930848 -0.7773719 -0.55473804 -1.913353
0000e0 6d 0d 88 bf 12 54 64 bf a2 91 1a bf 50 a7 01 bf
       -1.0629097 -0.8919078 -0.6037847 -0.50645924
0000f0 52 b9 37 3e a1 aa 9d 3e 4f 2f 51 3f ec f7 98 be
       0.17941788 0.30794242 0.8171281 -0.2987665
000100 b6 ca 20 bf 7f 5e 1d 3f 0a 9d aa bf 55 8f d0 3e
       -0.6280931 0.61472315 -1.3329175 0.40734354
000110 c4 ef 3e bf 05 6a 58 3f 7b a1 5d 3e 10 b1 9e be
       -0.74584603 0.8453677 0.21643631 -0.30994463
000120 f1 18 f3 3e cf fb 8c 3e 04 23 56 3d e8 d1 12 bf
       0.47479966 0.27535865 0.052279487 -0.5735154
000130 3b 71 48 3f 19 18 83 bf bb 52 91 3e 48 ac 99 3d
       0.78297776 -1.0241729 0.2838343 0.07503563
000140 d9 27 0d 3f 70 19 36 be 6d f9 73 bf 52 01 b7 3c
       0.5513893 -0.17783141 -0.9530247 0.022339497
000150 41 1d 9d 3e cd 12 81 bf 92 8a a8 bd 73 46 0d 3f
       0.3068638 -1.0083863 -0.08229555 0.5518562
000160 12 fd 57 3e 10 7c df bf a8 24 3b bf c0 7c ad 3d
       0.21092632 -1.7459736 -0.7310281 0.0847106
000170 11 ba aa 3e 2a 98 3b bf be ce 68 3f c0 35 45 3f
       0.33345082 -0.7327906 0.90940464 0.7703514
000180 8f 3d 08 3f 32 b2 e2 bf ab b7 37 3a 12 a3 21 3f
       0.5321893 -1.7710631 0.00070082647 0.6313945
000190 f0 e6 1d bf 64 19 0f bc aa d0 9c bf 18 86 d0 3e
       -0.6168051 -0.008734081 -1.2251179 0.40727305
0001a0 41 5c 96 bf b4 75 e4 38 9e b9 b2 bf 7e 0b 5d bf
       -1.1746904 0.00010893811 -1.3962896 -0.8634566
0001b0 da da 86 3c 51 78 bf bf 94 86 78 bf 94 04 59 3f
       0.016461778 -1.4958593 -0.9708035 0.8477261
0001c0 e5 ac b3 be 8b c3 1d 3f 4a eb 3c bf e8 a0 a2 be
       -0.35092846 0.616265 -0.7379652 -0.31763387
0001d0 b3 3a 05 ba fd 93 25 be 7a b5 37 3e b7 72 65 3d
       -0.0005082294 -0.16169734 0.17940322 0.056017604
0001e0 61 cf 3e bc 6a 4f b1 3e 9b 22 d9 3d ba c8 0c 3f
       -0.011646123 0.346309 0.106023036 0.54993784
0001f0 c6 a4 05 bf ce fc 49 3f c8 9d 1a 3e 07 de 54 3f
       -0.5220455 0.78901374 0.15099251 0.83151287
000200 5d ad 33 bf 82 3f 1f bf 0a 18 31 bf 9f 9d d4 bf
       -0.70186406 -0.6220628 -0.69177306 -1.6610602
000210 69 b1 1a 3f 10 44 ec be 5f ed 88 3e c0 3f 04 bf
       0.60426956 -0.46145678 0.267436 -0.51659775
000220 28 66 8e be 0b 75 70 bf 0e 9f 97 3e ca df 20 3f
       -0.27812314 -0.93928593 0.29613537 0.62841475
000230 73 cf 69 3e 67 38 86 bd 10 d2 4e be 8b 55 6e bf
       0.22833042 -0.06553727 -0.2019732 -0.9309928
000240 70 8f e9 be 83 ae 96 bc 38 b1 01 be 88 6e 75 bf
       -0.45617247 -0.01839376 -0.1266526 -0.9587178
000250 05 e5 95 bf 43 89 65 bb 19 2f 68 bf a7 31 cd be
       -1.1710516 -0.0035024441 -0.90696865 -0.40076944
000260 86 8f 0b bf c0 5a 85 be fa 24 91 3d d8 76 70 be
       -0.54515874 -0.260458 0.07087131 -0.23482835
000270 1e 0e d9 bf e5 d7 a0 bf 12 04 aa be 5e 14 27 bd
       -1.6957433 -1.2565886 -0.3320623 -0.040790908
000280 3b 83 03 c0 2a e6 9c 3e f5 ce dd bf 83 7a 92 3d
       -2.0548847 0.3064435 -1.7328783 0.071522735
000290 7c e3 0f bf 74 59 3d bf 09 66 ec bf 36 ce 7d 3e
       -0.5620649 -0.7396462 -1.8468639 0.24785694
0002a0 14 43 49 be 3e f1 09 bf 79 c6 e7 3e ce 91 37 bf
       -0.19654495 -0.5388373 0.4526861 -0.71706855
0002b0 d2 f6 75 3d ed da e0 3e 48 8a 66 3f af c5 bc 3e
       0.06004984 0.43917027 0.9005475 0.3686957
0002c0 0a 22 51 bf e4 86 27 bf 26 b2 31 bf e8 05 a8 bf
       -0.81692564 -0.654402 -0.6941246 -1.3126802
0002d0 58 41 b6 be 02 df 1a 3f f8 6f a1 be 8a a6 7a 3f
       -0.35596728 0.6049653 -0.31530738 0.9791037
0002e0 38 09 f7 be b3 31 4e ba e8 95 c0 be 68 17 42 bf
       -0.4824922 -0.0007865682 -0.3761437 -0.75816965
0002f0 5c 1b 67 bf 7b 30 81 3e 42 be 10 3f 3b f0 5f bc
       -0.9027612 0.252323 0.5654031 -0.013668115
000300 b9 4f b0 3e e2 7b 67 bf aa 8d 5a 3f 59 69 a1 bf
       0.34435824 -0.90423405 0.8537241 -1.2610275
000310 e8 7e 66 bf 44 9a 34 bf 98 06 05 3e 4d a8 96 bf
       -0.90037394 -0.7054789 0.12990797 -1.1770111
000320 30 70 74 be 80 69 2a bd 75 f4 8d 3e 02 a4 3e bf
       -0.23870921 -0.04160452 0.27725568 -0.74469006
000330 f0 8b 17 bf 37 29 09 c0 c5 56 dc 3e 0d ae 48 3e
       -0.591979 -2.1431406 0.4303495 0.19597645
000340 d0 97 20 bc e5 f2 95 bc 60 be 88 bf f0 46 5c bf
       -0.00980182 -0.018304298 -1.0683098 -0.8604574
000350 ab bf b5 bf 09 ca 6f bf 89 eb d7 3d 50 99 f3 3e
       -1.4199117 -0.93667656 0.10542972 0.47577906
000360 c2 df d3 3e 54 93 22 3e 3b f6 06 c0 9f 7a 04 3f
       0.4138165 0.15876514 -2.1087787 0.51749605
000370 c8 b9 7f bf 32 80 ee 3e d5 e0 82 be 65 46 14 bf
       -0.99892855 0.4658218 -0.25562158 -0.57919914
000380 cc be 12 3f 76 1e 16 3f 40 7f 7f be 15 3e 87 3d
       0.5732238 0.5864023 -0.24950886 0.06603638
000390 d6 72 11 bf ea 0d 08 3d a5 c5 18 bc 98 00 25 3e
       -0.5681585 0.033216394 -0.009324466 0.16113508
0003a0 48 26 8c 3e 32 86 11 bf 1c db 44 3f 3e 8b 63 bf
       0.27372956 -0.5684539 0.76896834 -0.8888434
0003b0 af 9c eb b9 98 9a 71 bf 4b 9d 34 3f c0 f5 14 bf
       -0.0004493943 -0.94376516 0.7055251 -0.58187485
0003c0 c6 bc ee bb f3 80 93 bf e6 94 2e be d8 ba bd be
       -0.007285687 -1.1523727 -0.17048988 -0.37056613
0003d0 1c 0b 98 be cc 3c 28 bf 99 60 92 bd 28 24 02 be
       -0.29695976 -0.6571777 -0.07147331 -0.12709105
0003e0 63 da 84 3d 9f 93 ef 3e 30 97 8f bd 51 7c a6 bf
       0.064869665 0.46792313 -0.070112586 -1.3006688
0003f0 88 42 74 bf 01 e4 03 bc f8 c0 70 bf 40 c3 69 be
       -0.9541402 -0.008049966 -0.94044447 -0.22828388

weight f4 [1, 256]
000000 ab 45 16 be d3 0b 26 bd b8 56 ad bc 67 64 da 3b
       -0.14675014 -0.04053862 -0.021159515 0.006664801
000010 d1 b0 78 3c 88 52 26 bb 26 fe f5 bc d3 b6 f4 3a
       0.015178875 -0.0025378782 -0.030028414 0.0018670209
000020 11 5c 57 bc 94 81 9e bb ea 55 4e 3c 56 4f ae 39
       -0.013144509 -0.0048372243 0.012593726 0.00033246976
000030 8c 0c f7 ba 7c 2b 1d bc 95 ab 96 ba a9 03 80 3c
       -0.0018848344 -0.009592887 -0.0011495227 0.015626745
000040 c9 06 6c bd 0c 7e f3 bb 43 a7 99 ba b0 1d a7 3c
       -0.05762366 -0.0074307974 -0.0011722822 0.020399898
000050 42 9a 16 bc 59 5a f8 3c fb aa ca bb 17 ad 8e 3a
       -0.009192051 0.030316519 -0.0061849332 0.0010885325
000060 0e f0 01 be 6c cb ff bb ec 5e 11 bb 74 fd 1c 3d
       -0.1268923 -0.007806232 -0.0022181822 0.03832765
000070 23 71 6d bc 2b f7 08 3d f3 c5 80 3c 60 88 b7 bc
       -0.014492306 0.033438843 0.01571939 -0.022403896
000080 31 ce d4 bb b1 aa 83 3c 56 e9 1e 3b 18 dd 9f bc
       -0.0064943065 0.016072603 0.0024247966 -0.019514605
000090 bd 5e 83 bb a9 a5 24 bb 45 e4 c8 3a 22 27 9e bb
       -0.0040090964 -0.0025123155 0.0015326819 -0.0048264423
0000a0 3e 58 26 39 0c cc 78 3c 29 51 bc ba ff 03 67 bb
       0.00015863866 0.015185367 -0.0014367449 -0.0035250185
0000b0 14 c3 6e bb b1 e0 c2 bd 80 8f 38 bc 1b c6 b4 3b
       -0.0036432194 -0.09515513 -0.011264682 0.00551678
0000c0 17 f5 71 3a 63 8e 9d ba d7 60 7d bd c0 4a 76 39
       0.00092299416 -0.0012020584 -0.06185993 0.00023488235
0000d0 d1 a9 d0 bc 1e 8d 59 bc fb 49 7c bd 6e 89 db 3c
       -0.0254716 -0.013278274 -0.06159399 0.02679893
0000e0 72 85 3d bd 71 e8 c4 bb d8 9f f0 b9 b7 12 82 3b
       -0.04626984 -0.0060091545 -0.0004589546 0.003969516
0000f0 a3 38 c5 bc c2 7f 88 bc 97 55 d7 3c 80 53 6c bc
       -0.024074858 -0.016662482 0.02628593 -0.014424205
000100 9d 9c 59 3a b2 e8 e5 bb fc 2c 93 bd 5d cd c7 ba
       0.000830123 -0.007016265 -0.071863145 -0.0015243698
000110 d0 71 d1 bb 24 96 d8 bd 03 aa a5 bd 1f 1c f3 3a
       -0.0063917413 -0.10575512 -0.08089068 0.001854781
000120 6e b6 ab 3b 4c 50 9d ba 8e 67 63 bb c7 e4 20 3a
       0.005240253 -0.001200208 -0.0034699175 0.0006137606
000130 bb 6c 87 bd ec 79 5c 3c 65 07 b1 bc 2a 2f 58 3b
       -0.066125356 0.013456803 -0.021609971 0.0032987096
000140 4d 89 b8 3a b8 90 2b bd 13 e0 b1 bc a6 2b dc ba
       0.0014079005 -0.04188606 -0.021713292 -0.0016797676
000150 04 bd 5c bc 03 23 18 bc 09 f3 05 bd 8c 78 de 3c
       -0.013472799 -0.009285691 -0.03270248 0.02715709
000160 c4 0c 6e bc 6a 22 4d bd 0c 89 da 3a 0b 07 c5 bc
       -0.014529411 -0.050081648 0.0016672923 -0.02405121
000170 b7 e9 34 3d e2 4e f8 bc 5c 93 2f 3a 99 68 0d 3c
       0.0441682 -0.030311052 0.00066976785 0.008630895
000180 40 11 0b 3d 2e 1c 40 3d 07 a8 de 39 33 c0 4c bc
       0.033951998 0.046901874 0.0004246833 -0.012496996
000190 83 e3 9b 3c 56 20 40 bc 04 d0 26 3d f9 3d 3f 3c
       0.019029384 -0.0117264595 0.040725723 0.01167249
0001a0 2e d4 26 bd 40 6a ab bc 75 e0 3f 3c 18 33 16 ba
       -0.040729694 -0.020924687 0.01171123 -0.00057296595
0001b0 3d 95 4a ba b3 bd d6 bd c7 a0 b9 bc cd 54 09 3d
       -0.0007727927 -0.10485401 -0.022659672 0.033528138
0001c0 fe 3d 59 bc af ac 45 3b bc 4c 0d bb 08 24 02 bd
       -0.013259409 0.0030162742 -0.002156063 -0.031772643
0001d0 28 4f 2b 3b ec f5 a0 bc 85 62 03 3c b4 00 e8 b9
       0.002613971 -0.019648515 0.008019094 -0.00044251012
0001e0 63 4e 07 bd e4 56 71 3b 2c a8 88 3b a6 5f 66 bd
       -0.03303374 0.0036825472 0.0041704383 -0.05624356
0001f0 2b 82 a3 bc 5c 57 97 3d d9 3f c4 bb a3 33 d9 bc
       -0.01995953 0.07389709 -0.0059890565 -0.02651388
000200 0d 14 38 3a a1 87 b3 ba 70 76 38 bd 99 25 19 3a
       0.0007022031 -0.0013697037 -0.045034826 0.00058420893
000210 95 4e b1 bb 62 b9 57 b8 f3 6a 81 bc cc 78 39 3b
       -0.005410979 -5.1432646e-05 -0.015798068 0.002830076
000220 47 3d d7 3a 79 4c 33 bc 65 c7 5c 3b e2 85 53 3b
       0.001642146 -0.0109435255 0.0033688184 0.0032275845
000230 4a db 1e 3a af 72 f0 38 f4 29 82 bd 4d 3f 2c bd
       0.00060598983 0.00011465453 -0.06355658 -0.042052556
000240 1f 69 da b9 ba 02 4a bd 04 5d 08 b7 98 d3 30 bd
       -0.00041658522 -0.049319007 -8.127889e-06 -0.04317054
000250 71 24 67 3d 53 98 7c bc 9f 61 24 3c 77 25 c8 bb
       0.056431238 -0.015417176 0.01003304 -0.006107982
000260 03 46 a7 bb 4f a3 63 bb 46 d6 62 bb 84 13 61 bd
       -0.0051047816 -0.003473479 -0.003461258 -0.054950252
000270 63 cc 3a bd b0 99 15 bd 9f 30 08 3b 8c 03 b0 bb
       -0.045605075 -0.03652352 0.0020780934 -0.0053715166
000280 ad c9 01 be 5a 84 11 3d 78 73 87 bc b4 23 7b b6
       -0.1267459 0.03552661 -0.016534552 -3.7422697e-06
000290 19 22 d0 3b 87 33 11 bd 64 d9 1f 3c 92 aa 64 38
       0.006351721 -0.03544953 0.00975642 5.4518292e-05
0002a0 82 85 23 bd f7 54 2a bb 31 49 9d 3b 6e 01 da bc
       -0.039922245 -0.0025990584 0.004799985 -0.02661201
0002b0 58 e5 19 3b 06 15 62 3b 48 6d 35 bc f3 e0 37 bd
       0.0023482647 0.0034497394 -0.011073418 -0.044892263
0002c0 e1 f6 05 bd 94 69 65 3b 4e 6c 50 3d 47 49 0f be
       -0.032706145 0.0035005556 0.050884537 -0.13992797
0002d0 ec fa 86 bc 87 56 f7 3c b5 c5 a5 bc 0d f2 9f 3d
       -0.01647707 0.030192627 -0.020235876 0.078098394
0002e0 6c 58 11 ba d1 12 50 3c 0f 05 98 b9 71 99 1c bd
       -0.0005544487 0.012699799 -0.00028995468 -0.03823227
0002f0 26 d2 a4 bc b1 f2 2e 3b 87 f2 85 ba 84 35 f3 3c
       -0.020119738 0.0026694948 -0.0010219374 0.029688604
000300 56 0c 30 bd d7 60 0c 3b fd 1f a6 bc 3b b1 4f bd
       -0.042980514 0.0021420026 -0.020278925 -0.05070613
000310 45 e4 8c bc 20 d2 09 3a 1b 46 be bc 9e ec c7 bc
       -0.017198691 0.00052574463 -0.023226788 -0.02440482
000320 6a 74 ca bc 05 42 64 b9 ca f1 81 bd 7f 09 77 3a
       -0.024713714 -0.00021768369 -0.06344946 0.0009423717
000330 8a e8 70 3d a1 2d 2b bd b0 43 1a bb 79 39 2b 3b
       0.058815517 -0.041791562 -0.002353888 0.0026126786
000340 34 98 94 bb f0 11 14 bd df 07 d8 3c 23 e5 77 bd
       -0.0045347456 -0.03614992 0.02637094 -0.060521256
000350 42 a5 ef bc 98 e1 b4 ba 18 0a ac 3b d7 b5 6f bb
       -0.029253606 -0.0013800142 0.0052502267 -0.003657689
000360 13 11 9c 3d b6 c8 16 3d 43 a9 da bd 6e 11 06 bd
       0.07620444 0.036812507 -0.10676815 -0.032731466
000370 d8 23 f7 bb 25 1a a8 bd 43 16 0b 3c ae 8d ad 3c
       -0.0075421147 -0.08208112 0.008489194 0.021185722
000380 53 f9 cf bb bd 6e 0d bb 6c 18 0b bb 58 08 ac 3a
       -0.0063468604 -0.0021580898 -0.0021224273 0.0013125045
000390 dd ad 28 bc 70 fc ef b8 45 91 cb 3d 84 23 16 b8
       -0.0102953585 -0.00011443428 0.09939817 -3.5795863e-05
0003a0 bf f8 ec b9 26 be 76 bb 77 8b 11 bc 2b 9e 90 39
       -0.00045198758 -0.0037649958 -0.008883349 0.00027583665
0003b0 cc 8c d7 b9 46 de d6 ba a8 dc 3c 3d f0 9a 55 bb
       -0.00041112897 -0.0016393147 0.04610887 -0.003259357
0003c0 1b 0d 85 bc 6c a1 80 bd b2 8d d4 bc 27 59 f9 ba
       -0.0162416 -0.06280789 -0.025946472 -0.0019023762
0003d0 b2 ad ae ba 27 5f e1 bd ec 5d 4e 3b 1c f6 2c 3b
       -0.0013326912 -0.11004477 0.0031489087 0.002639181
0003e0 71 9d 4d 3c 7b 89 9e bb 2c 16 6f 38 94 43 9c bd
       0.012549744 -0.0048381663 5.700269e-05 -0.07630077
0003f0 be ec 05 3a 12 eb f4 bd b2 da e1 3c 33 e0 30 bb
       0.00051088247 -0.119588986 0.027570102 -0.0026989102

weight f4 [256, 1]
000000 60 68 52 bf 9c 9f 57 3f e9 37 b6 be b2 3a 7e bf
       -0.82190514 0.8422792 -0.3558953 -0.9930831
000010 54 ee f0 be e0 03 df 3d 5c 86 ff 3e a8 3a ec be
       -0.4705683 0.10889411 0.49907196 -0.461385
000020 12 d4 8e 3e 7a ad 3b 3e 84 8d 17 bf c6 2f 06 bf
       0.27896172 0.18327895 -0.5920031 -0.52416646
000030 bf 85 46 3e bc 0b ef 3e 29 26 83 bf 75 81 d1 be
       0.19386958 0.4668864 -1.024602 -0.4091908
000040 60 1e 9b be 36 48 da 3e d7 37 c5 bf da 2c c9 be
       -0.30296612 0.42633218 -1.5407666 -0.39292032
000050 a1 74 2f 3f 20 75 26 c0 4f 7a 2a 3e 00 4f 2c bf
       0.68537337 -2.6008987 0.1664822 -0.67308044
000060 0a f8 08 bf d5 77 68 bd 00 e5 91 bd 80 f9 53 3d
       -0.5350348 -0.056754906 -0.071237564 0.051751614
000070 5d fb 09 3f 14 f3 69 bf d1 9a 6a be 03 6b a1 3e
       0.53899175 -0.9138653 -0.2291062 0.31526956
000080 65 03 8a be a9 22 18 3f 3f 61 76 3c fe 54 e3 3e
       -0.26955715 0.5942789 0.015037834 0.4440078
000090 a6 f0 71 bf 94 2c 8d be e4 1b 6d bd dc 2d 02 3f
       -0.94507825 -0.27573073 -0.057887927 0.50851226
0000a0 60 eb 2c bd 33 a7 16 3f 7e a1 2d be 74 5f 85 be
       -0.04221666 0.58848876 -0.16956136 -0.26049387
0000b0 30 c3 86 bd cf fb 55 3f 3f df ce be 60 ee 83 3e
       -0.06580198 0.83587354 -0.40404698 0.25767803
0000c0 41 e0 0d 3e 81 43 59 bd 57 ef 10 3f c0 c8 42 be
       0.13855077 -0.053042892 0.56615204 -0.19021893
0000d0 1c a0 6b 3f 1c 8b ed 3e 09 9f b1 be d6 63 4a be
       0.9204118 0.46395195 -0.34691647 -0.19764647
0000e0 fc 86 27 bf 7e d9 8b 3e 08 b6 db be 9f 2e fa be
       -0.65440345 0.2731437 -0.42912316 -0.48863694
0000f0 99 e5 3a 3f b6 0a 70 bf 4c 94 83 be 48 f8 42 bf
       0.7300659 -0.93766344 -0.2569908 -0.761601
000100 28 30 79 be cb 95 8e 3e d6 a0 47 3e fa e5 d7 3e
       -0.24334776 0.27848658 0.19494948 0.42167646
000110 00 d9 82 bc 5f ae 3f 3f ed 1e 67 3f 4e 06 03 bf
       -0.015972614 0.74875444 0.90281564 -0.51181495
000120 70 f6 3a 3e 30 8d 3b bc 40 2e 33 bf de 15 cd be
       0.18258071 -0.011447236 -0.69992447 -0.40055746
000130 b4 0c c2 be 10 f4 bb be 40 c5 bc 3e 48 2c cf be
       -0.37900317 -0.36709642 0.3686924 -0.4046347
000140 0a ae 6f bf f0 cd 2f 3f ff 8f aa 3e d5 2c 5e bd
       -0.9362494 0.6867361 0.33312985 -0.054241974
000150 2d b6 2f 3f c0 03 ee be 3c 95 dc 3e 0e 2a 29 3f
       0.68637353 -0.46487236 0.43082607 0.66079795
000160 bc 73 17 3f 24 9c c0 be 05 65 7a bf d5 ae 3f 3f
       0.5916097 -0.37619126 -0.97810394 0.7487615
000170 e2 3f 66 bf 05 63 98 3e 07 8c 8b c0 72 7d 1b bd
       -0.8994123 0.29763046 -4.360843 -0.03796143
000180 9a 2d 2c 3d 70 21 fd be 90 84 95 3d 5e ff c1 bf
       0.042035677 -0.49439573 0.07300675 -1.5156057
000190 e0 31 85 3e 95 01 0d 3e b1 09 24 3e d4 46 f2 be
       0.26014614 0.13770135 0.16019322 -0.47319663
0001a0 9f 0f 86 3e fd 2c 15 3f f0 a0 11 bf 10 7e 1d be
       0.26183793 0.5827177 -0.56886196 -0.1538012
0001b0 d4 51 30 bf 00 00 17 be 96 ec 03 bf c6 ba 02 3f
       -0.6887486 -0.14746094 -0.51532876 0.51066244
0001c0 2c a8 ac be c7 c8 3c 3e 8d 49 c3 3b 70 8e 74 be
       -0.33722055 0.18435965 0.0059596957 -0.2388246
0001d0 ba fd fe bd 21 12 be 3e b2 1c 62 bf a0 c8 cb be
       -0.12450738 0.37123206 -0.88325036 -0.39801502
0001e0 ac 4b 44 3f 75 ea 07 be 68 6b 43 bf f0 c1 66 be
       0.76677966 -0.13273032 -0.76335764 -0.22534919
0001f0 47 7c a5 bf da f4 66 be f1 71 23 3d 81 11 65 3f
       -1.2928551 -0.22554341 0.039903585 0.89479834
000200 28 11 84 3e a0 30 1d bf 9f ef 97 3e 64 5d c5 3e
       0.2579434 -0.6140232 0.29675004 0.38547814
000210 8e cd e3 bd 80 64 fd bc 3b 5f 96 3e e0 d5 06 3d
       -0.11123191 -0.030931711 0.2936953 0.03291881
000220 60 90 1d bd 6d a0 57 bf 0c 9d dc 3d bb 6d 0b bf
       -0.038467765 -0.84229165 0.10772142 -0.5446431
000230 74 52 c7 3d fb 94 64 bd 7e 8c 3e 3f 20 c2 6c be
       0.097325236 -0.05580614 0.74433124 -0.23120928
000240 b8 7e ba 3d 55 3a 1b 3f 72 99 01 bf 64 f8 c2 3d
       0.09106201 0.6063588 -0.50624764 0.09520033
000250 c8 e9 c6 3e be e6 ff 3e bc 57 55 c0 48 cd e8 3b
       0.38850236 0.4998073 -3.33348 0.0071045496
000260 83 c7 bb 3e 5d af 03 bd 37 4d 10 be 08 52 4c 3f
       0.36675653 -0.03214966 -0.14091955 0.7981267
000270 f7 42 af c0 67 7a 6b 3d 28 95 52 be a0 4b 72 bd
       -5.4769244 0.05748978 -0.20564711 -0.059154153
000280 ac ac c8 3e 43 3e 4d bf 00 68 ca ba c0 e4 5d bf
       0.39194238 -0.8017313 -0.0015442371 -0.8667717
000290 95 ca 86 be ab 7e 04 3f e5 76 bd 3e 85 e2 2b bf
       -0.26326433 0.5175578 0.37004772 -0.67142516
0002a0 d7 0d c5 3e 04 bf 83 bc 50 b4 20 bd 54 9a 0a 3e
       0.3848712 -0.016082294 -0.03923446 0.13535434
0002b0 28 59 be be 9c 2f 73 bf cd 38 a8 3e 9e f0 1f 3f
       -0.37177396 -0.9499452 0.32855836 0.6247653
0002c0 60 47 f7 be ec 08 4b bf d9 0f e2 3d 1f f8 29 3f
       -0.48296642 -0.7931049 0.11038179 0.6639423
0002d0 88 59 ed be 7a e9 53 bf 7a 19 61 3e 8a e8 c9 be
       -0.4635737 -0.8277813 0.21982375 -0.39435226
0002e0 c0 44 5e be b0 b5 2a 3e c6 97 2e ba 46 d7 92 3e
       -0.21705914 0.16670871 -0.0006660189 0.28679866
0002f0 bd 1c b3 bd 7e e0 c3 3d 5a e4 1f bf fb 6f c9 be
       -0.08745716 0.09564303 -0.6245781 -0.39343247
000300 ee 68 f0 3e bd b2 23 3d b8 d2 f4 3e 3c 13 56 bf
       0.46955055 0.03996538 0.47817016 -0.836231
000310 0f 7f ff 3e f0 ce 8d bd fa 3a df 3e b8 45 2d be
       0.49901626 -0.06924236 0.43599683 -0.16921127
000320 13 d2 f5 3e fc d6 4f bf 3d e0 45 3f 29 87 0e bf
       0.48011836 -0.81187415 0.77295285 -0.5567499
000330 02 91 40 be 81 db 2f 3e 7c 46 ce be a6 31 47 bf
       -0.18805316 0.17173578 -0.4028815 -0.7781013
000340 c0 5f df bc cf fe b5 3e 1a 34 1f bf 17 1c 31 3f
       -0.027267337 0.35545966 -0.62188876 0.69183487
000350 4b 5c 6c 3e 32 d2 d4 be 8d 28 35 3f ae fb 19 bf
       0.23082082 -0.41566616 0.70765 -0.6014966
000360 3e a1 dd be e2 c5 01 bf c0 2e dd be 7b 43 26 3f
       -0.4328708 -0.5069257 -0.4319973 0.6494672
000370 c4 9c 0e bf b3 e1 1c bf 6d e8 c8 bd ed ef fa 3d
       -0.55707955 -0.6128189 -0.09809957 0.122527935
000380 5f 0a 44 bc 3b 92 88 3e 25 16 28 3e 61 bb bb 3c
       -0.011965363 0.26674065 0.16414697 0.022916498
000390 62 89 ad 3e e8 69 72 bf 04 9d a8 be 5e 24 68 bf
       0.33893877 -0.9469285 -0.32932293 -0.9068049
0003a0 b6 8f 08 bf 9a 73 a0 bc f6 17 27 bf 75 15 67 bf
       -0.53344285 -0.019586373 -0.65270936 -0.90267116
0003b0 f3 9f 00 3e 65 60 4a c0 6e a5 1a bf c4 04 1a be
       0.12561016 -3.1621335 -0.60408676 -0.1504088
0003c0 b9 2e 48 3e 05 6f da be 0e 79 91 3e 82 b5 61 3e
       0.19549073 -0.42662826 0.2841267 0.22041896
0003d0 8f 37 2f bc 83 99 2b bf 00 58 d8 3a f0 15 48 be
       -0.010694399 -0.67031115 0.0016505718 -0.19539618
0003e0 30 90 a7 3d 48 32 c9 bc 46 84 30 bf c6 d4 c4 be
       0.081817985 -0.024560109 -0.68951833 -0.38443583
0003f0 69 c0 3e 3e b8 50 53 3f 3b 8e bd 3e 22 9d 67 bf
       0.18628086 0.8254504 0.37022576 -0.9047414
