checkpoints/219302400.ckpt (torch, 122663 bytes, 33 tensors)

weight f4 [256, 18]
0	0x3e04dd36	0.1297501
1	0xbe03980f	-0.12850975
2	0xbdd37aef	-0.10326182
3	0xbd912cb1	-0.07088602
4	0x3e892efc	0.2679366
5	0xbdcc2d14	-0.099695355
6	0xbe4f15bb	-0.20223133
7	0xbe5100b4	-0.20410424
8	0x3d86232c	0.06549677
9	0x3c6ac74c	0.014329743
10	0x3df3455a	0.11878462
11	0x3d29e274	0.04147573
12	0x3db39cc7	0.08770137
13	0xbe340de8	-0.1758343
14	0x3e789fc9	0.24279703
15	0xbd4a63b1	-0.04941148
16	0x3e26436b	0.16236655
17	0x3e0ea766	0.13931045
18	0x3cd5fec3	0.026122456
19	0x3e003e3b	0.12523739
20	0x3d256087	0.04037526
21	0x3d1c0f1e	0.038100354
22	0x3e1bceda	0.15215626
23	0xbc8e8608	-0.017397895
24	0xbe03077c	-0.12795824
25	0xbe13d4f0	-0.14436698
26	0x3c128a1e	0.0089440625
27	0xbe26942f	-0.16267465
28	0xbe6e737b	-0.2328624
29	0xbcdca60b	-0.026934644
30	0x3d34e6b1	0.044165317
31	0x3d85ffcf	0.06542932
32	0x3e07bd36	0.13255772
33	0xbc77ec8e	-0.015132083
34	0x3e62c5b3	0.22145729
35	0xbd3df9e5	-0.046380896
36	0xbdc3a759	-0.095534034
37	0xbdaf7d8f	-0.0856887
38	0x3a0f6c90	0.0005471194
39	0x3d84a2a0	0.06476331
40	0xbe6c76db	-0.23092215
41	0x3c9c6451	0.019090803
42	0xbd581099	-0.052750204
43	0xbeb0006b	-0.3437532
44	0xbe001552	-0.12508133
45	0xbd809eb2	-0.06280269
46	0x3d546339	0.05185244
47	0x3be23880	0.006903708
48	0xbc908e59	-0.017646002
49	0xbdaf361a	-0.08555241
50	0x3c70ac73	0.014689553
51	0x3d31413f	0.043275114
52	0xbe5a7ab6	-0.21335873
53	0x3dd40f11	0.10354436
54	0xbde883dc	-0.11353275
55	0x3dafb945	0.08580259
56	0x3deac241	0.11462832
57	0x3dd007bf	0.101577275
58	0xbcf4d547	-0.029886855
59	0x3abbbc16	0.0014323022
60	0xbe20568f	-0.1565802
61	0x3ba4807a	0.0050201984
62	0x3cf9b731	0.03048286
63	0xbe273578	-0.1632899
64	0xbe871746	-0.26384944
65	0xbdd3d3be	-0.10343121
66	0x3e01d4e4	0.12678868
67	0x3e719d8f	0.2359526
68	0x3e055493	0.13020544
69	0xbe32ae74	-0.17449361
70	0xbdc2dcb2	-0.095147505
71	0xbd5c75aa	-0.05382315
72	0xbe37c337	-0.17945562
73	0xbe233110	-0.15936685
74	0xbd052789	-0.032508407
75	0x3e27a796	0.16372523
76	0xbe5e967f	-0.21737097
77	0xbe460da7	-0.19341145
78	0x3cf8bd43	0.030363685
79	0xbeb0df54	-0.34545386
80	0xbdb64c7d	-0.08901308
81	0x3db7622b	0.08954271
82	0x3e013f4a	0.12621799
83	0x3cb17d2c	0.021666132
84	0xbbbee1be	-0.0058252504
85	0xbe044718	-0.12917745
86	0x3d98adcd	0.07455025
87	0x3d2fa796	0.04288443
88	0xbd0ba9d6	-0.034097515
89	0xbe9db782	-0.30804068
90	0x362c8a88	2.5710633e-06
91	0xbb631137	-0.0034647712
92	0x3b8ee165	0.004360365
93	0xbadb2ae4	-0.0016721156
94	0x3b5858d5	0.0033011932
95	0x3e74dbc4	0.23911959
96	0x3aeab162	0.0017905647
97	0xbe0096cc	-0.12557524
98	0x3ce2ddcc	0.027693652
99	0xb9562620	-0.00020422833
100	0x37fb685e	2.9970131e-05
101	0xbb0841e3	-0.0020791225
102	0xbb1b0298	-0.002365267
103	0x3bf5e3db	0.007503969
104	0xbdb76723	-0.08955219
105	0xbbc8e4d3	-0.0061307936
106	0xbdd831c1	-0.10556365
107	0x3c1b78bd	0.0094892355
108	0xbe0800d7	-0.1328157
109	0xbdcd13e8	-0.100135624
110	0xbcfe8cad	-0.031072939
111	0x3d99ede6	0.07516079
112	0xbe66eba4	-0.22550827
113	0xbd95b152	-0.07309212
114	0x3cbbc655	0.02292172
115	0x3d47426a	0.04864732
116	0xbe27afe5	-0.16375692
117	0xbe2417d2	-0.16024712
118	0x3db21cb9	0.08696885
119	0x3c29d806	0.010366445
120	0x3a941d4f	0.0011300239
121	0x3e061c9a	0.13096848
122	0x3d1048ec	0.035225794
123	0x3c0437b3	0.00806992
124	0x3daf7b44	0.08568433
125	0xbb0b7ef3	-0.0021285384
126	0xbd1c8788	-0.03821519
127	0xbbad879f	-0.0052957083
128	0x3b7cea2e	0.003859173
129	0x39cb1bb4	0.00038739818
130	0xbe1ecdb9	-0.15508164
131	0x3dc27349	0.09494645
132	0x3c5c525a	0.0134473685
133	0xbe2ba9ba	-0.16763964
134	0xbbc7d25e	-0.006098076
135	0xbca92375	-0.02064679
136	0xbb16746d	-0.0022957579
137	0xbb877bff	-0.0041346545
138	0xbb9fbef5	-0.004875059
139	0xbc2c0833	-0.010500002
140	0xbd31b8fa	-0.043389298
141	0xbc0c919b	-0.008579637
142	0xbe5ab481	-0.2135792
143	0x3aded053	0.0016999341
144	0xbd0e90a6	-0.034805916
145	0xbc947b42	-0.01812518
146	0xbc732765	-0.014840935
147	0xbc567286	-0.013088828
148	0x3c67c1f2	0.014145361
149	0x3e7ed704	0.2488671
150	0x3cc87a84	0.024472483
151	0xbdb83dfa	-0.08996196
152	0xbdc362e9	-0.0954035
153	0x3d2041ac	0.03912513
154	0xbd4c1a92	-0.049830027
155	0xbbb69187	-0.0055715474
156	0x3bab66e8	0.0052307732
157	0xbb1fdad8	-0.0024391916
158	0x3dac6fde	0.084197745
159	0xbcfeb269	-0.031090932
160	0xbe9c05bf	-0.30473134
161	0x3c5e53cb	0.0135697825
162	0xbe75a155	-0.23987325
163	0xbb54d4af	-0.0032475402
164	0xbaed43a2	-0.0018101821
165	0xbc38295f	-0.011240332
166	0xbe07a752	-0.13247421
167	0x3ca0481f	0.01956564
168	0x3c959f47	0.018264426
169	0xbdad0453	-0.084480904
170	0xbdacc5d4	-0.0843617
171	0xbc13362d	-0.0089850845
172	0xbd633db6	-0.055478774
173	0xbc00cc94	-0.007861275
174	0x3bf3536f	0.0074257175
175	0xbd817376	-0.063208506
176	0x3d9ff6d5	0.07810751
177	0xbcedae88	-0.029013887
178	0xbe75c12d	-0.23999472
179	0xbc50a82f	-0.012735411
180	0x3e9726fa	0.29521924
181	0xbc1e4767	-0.009660578
182	0x3c3520c4	0.011055175
183	0x3d57a347	0.052645948
184	0x3e6f6787	0.23379336
185	0x3e852c49	0.2601035
186	0xbd146c3f	-0.036236044
187	0x3e1141b3	0.14185219
188	0xbe8767a7	-0.26446268
189	0xbe0bf6fc	-0.13668436
190	0xbdc84dd9	-0.09780473
191	0xbbd242c1	-0.006416649
192	0x3c7fb844	0.015607897
193	0xbcc1e49c	-0.02366858
194	0x3e305452	0.17219666
195	0x3cbffe46	0.023436677
196	0x3db4d778	0.0883016
197	0xbe1d5844	-0.15365702
198	0xbc2f37c4	-0.010694448
199	0x3ba33b59	0.00498144
200	0x3b0ae2d2	0.0021192324
201	0x38ab279b	8.1612925e-05
202	0x3c655717	0.013997815
203	0xbda82267	-0.08209687
204	0x3b47f87b	0.0030513096
205	0xbd944416	-0.07239549
206	0xba8b04a9	-0.0010606247
207	0xbb29c369	-0.0025903827
208	0xbab9be3e	-0.0014171076
209	0xbb0466ea	-0.0020202943
210	0xbacb112c	-0.0015492789
211	0xbc6c4f6f	-0.014423235
212	0x3d67c5f4	0.056585267
213	0xbb234802	-0.0024914746
214	0xbd11d68c	-0.035605
215	0xbb3f3f12	-0.002918188
216	0xbc28ccf8	-0.010302775
217	0x3a465946	0.00075664034
218	0xbabc7a66	-0.0014379739
219	0xbc27ef63	-0.010249945
220	0xbc1d0a53	-0.009584981
221	0xbdde4b60	-0.108542204
222	0xbb81bac0	-0.00395903
223	0x3da5b189	0.08090503
224	0x3d0edca6	0.034878395
225	0x3bf39bfa	0.0074343653
226	0xbab0dcae	-0.0013493502
227	0x3a17c898	0.00057900837
228	0x3c220717	0.009889386
229	0xbc782faf	-0.015148087
230	0x3e21660d	0.15761586
231	0x3ad641b0	0.0016346481
232	0xbdc321c9	-0.095279284
233	0x3ca28e5b	0.019843271
234	0x3e2181c7	0.15772162
235	0xbdcb57a4	-0.099288255
236	0x3c82e802	0.01597977
237	0xbcb4b017	-0.022056622
238	0xbd7f9e8a	-0.062407054
239	0xbe3aa246	-0.18225965
240	0x3e0966a9	0.13418068
241	0xbe0ed9a0	-0.13950205
242	0x3dbca75e	0.0921161
243	0x3e2078ff	0.15671156
244	0xbd22322d	-0.039598633
245	0x3cf270a2	0.029594723
246	0xbd60d602	-0.054891594
247	0x3dc3419d	0.09533999
248	0xbe218ae9	-0.15775646
249	0xbe037bbd	-0.12840171
250	0xbe0f34d1	-0.13984992
251	0xbe119cca	-0.14219967
252	0xbbd9fa2a	-0.0066521363
253	0x3b5e6914	0.0033937143
254	0x3a64f710	0.0008734325
255	0x39fd709d	0.00048339824

bias f4 [256]
0	0x3e289809	0.16464247
1	0xbd06a45f	-0.0328716
2	0xbd861ed0	-0.06548846
3	0x3d855aa1	0.06511427
4	0xbe9620c6	-0.2932188
5	0x3d882331	0.06647337
6	0xbe9350a2	-0.28772455
7	0xbc23f99c	-0.010008242
8	0x3d2f222c	0.0427572
9	0xbe35d134	-0.17755586
10	0xbcc76996	-0.02434234
11	0x3d947089	0.07248027
12	0xbe8033f5	-0.2503964
13	0xbe69d594	-0.2283538
14	0xbc9e3ec7	-0.019317044
15	0xbea7355d	-0.326579
16	0x3d7b9cb6	0.061428748
17	0x3de7c1af	0.11316239
18	0xbd3c81d4	-0.04602225
19	0xbe011a3f	-0.12607668
20	0x3ca55659	0.020182775
21	0xbd83cbdd	-0.06435368
22	0x3dc25d0b	0.09490403
23	0xbd1472a3	-0.03624214
24	0xbda37354	-0.079809815
25	0xbe900faf	-0.28136966
26	0xbd7a1a06	-0.061059974
27	0xbd3e385e	-0.046440475
28	0xbdb7d717	-0.08976572
29	0x3e07e7c0	0.13272
30	0x3df84922	0.12123324
31	0xbe999a8c	-0.30000722
32	0xbd81a6e1	-0.06330658
33	0xbe2e9cfe	-0.17052075
34	0xbebf29a1	-0.37336448
35	0xbe5a1c97	-0.21299969
36	0xbe4d4537	-0.20045935
37	0xbdb6231b	-0.088934146
38	0xbe2ec466	-0.17067108
39	0xbe77f107	-0.24213038
40	0xbedde5db	-0.43339428
41	0x3d4e0768	0.050300032
42	0xbdcfb5e5	-0.101421155
43	0xbe83a5fc	-0.25712574
44	0x3d7779ae	0.060418777
45	0x3d87ed38	0.06637043
46	0x3e14ab01	0.14518358
47	0xbe830166	-0.25587004
48	0x3d67780c	0.05651097
49	0xbcff9524	-0.031199045
50	0xbe95b02c	-0.2923597
51	0xbe1f4111	-0.15552165
52	0xbe2fc625	-0.1716543
53	0xbc43bd4e	-0.011946989
54	0xbdcc00c3	-0.09961083
55	0x3c21c421	0.009873421
56	0xbe11a6b3	-0.14223747
57	0xbd8210f7	-0.06350892
58	0xbce6b550	-0.028162628
59	0xbcbb89ec	-0.022892915
60	0x3bb6472a	0.0055626826
61	0xbe783d99	-0.24242248
62	0xbe8c7983	-0.27436456
63	0x3d1c4255	0.038149197
64	0x3c90f65c	0.017695598
65	0xbe6366f7	-0.22207247
66	0xbe4a8385	-0.19776733
67	0xbe2a7f3b	-0.16650097
68	0xbe013db2	-0.12621191
69	0x3d90cab6	0.07069914
70	0xbe1e916c	-0.15485162
71	0xbcf444e3	-0.029818004
72	0x3d13fab6	0.03612777
73	0xbe85b61d	-0.26115504
74	0x3d81bb8d	0.063346006
75	0xbe75976d	-0.23983546
76	0xbdd52bb3	-0.104087256
77	0xbb65fa2e	-0.0035091746
78	0xbe0295d4	-0.12752467
79	0x3d03ac35	0.03214665
80	0xbe634562	-0.22194436
81	0x3dccf6be	0.10008
82	0xbdb86c39	-0.09005017
83	0xbda60d4f	-0.08108007
84	0xbe36232d	-0.17786856
85	0x3dc32d56	0.095301315
86	0xbb8cd5fd	-0.0042979703
87	0x3d85d9cb	0.06535681
88	0xbd9aa9ff	-0.075519554
89	0xbe733bdd	-0.23753305
90	0xbd79129d	-0.060808767
91	0xbd8666d3	-0.06562581
92	0xbdc880ec	-0.09790215
93	0xbe7bd784	-0.24593931
94	0xbe68c1d8	-0.22730196
95	0x3d1b4448	0.037906915
96	0x3dd19f2a	0.10235436
97	0x3d104843	0.035225164
98	0x3e30e963	0.1727653
99	0xbe4bbee5	-0.19897039
100	0xbe8b1256	-0.27162427
101	0x3d9dfe04	0.07714465
102	0xbc555f64	-0.013023231
103	0xbe6b23f0	-0.22962928
104	0x3d81f126	0.063448235
105	0xbe0e762c	-0.13912266
106	0x3e6919f9	0.22763814
107	0x3db57257	0.08859699
108	0x3d588d99	0.052869413
109	0xbe14a30d	-0.14515324
110	0x3d83e477	0.064400606
111	0xbe93bc2d	-0.28854504
112	0xbe0314d5	-0.12800916
113	0xbdcbff43	-0.09960797
114	0x3dd44f78	0.1036672
115	0xbe50db10	-0.20396066
116	0x3dd5c2fd	0.10437582
117	0xbe4c1bf9	-0.19932546
118	0x3bfe651e	0.007763519
119	0xbd711e0e	-0.058866553
120	0xbdf27097	-0.11837881
121	0xbe40923a	-0.18805781
122	0xbdaf4380	-0.085577965
123	0x3c5e62f3	0.013573396
124	0xbd9d391d	-0.07676909
125	0xbc9619cc	-0.018322848
126	0xbded20b9	-0.11578507
127	0xbe438e3c	-0.19097227
128	0x3d84dbcb	0.06487235
129	0xbd95fa7f	-0.07323169
130	0x3e2cc829	0.1687323
131	0x3d804ead	0.06265006
132	0xbd56b283	-0.052416336
133	0xbd1d2c5f	-0.038372394
134	0xbe2e7621	-0.1703725
135	0x3dd9eb2f	0.10640561
136	0xbd12e111	-0.03585917
137	0xbd47e0a9	-0.048798237
138	0xbd8c55cc	-0.06852302
139	0xbe39cbdb	-0.18144171
140	0xbe49a734	-0.19692689
141	0x3d3d8ef4	0.04627891
142	0xbe310b8b	-0.1728956
143	0xbe156d81	-0.14592554
144	0xbe11150e	-0.14168188
145	0xbd73ccf7	-0.05952164
146	0xbe091341	-0.13386251
147	0xbdb0c6be	-0.08631657
148	0xbd074c48	-0.03303173
149	0xbe8a28ba	-0.26984197
150	0xb935f221	-0.00017351705
151	0xbdc83d84	-0.09777358
152	0xbe3851d7	-0.1799997
153	0xbe633271	-0.2218721
154	0xbe40e4e0	-0.18837309
155	0xbe382cbd	-0.17985816
156	0xbc3bf764	-0.011472557
157	0xbe03bc4b	-0.12864797
158	0x3e0190c9	0.12652887
159	0xbcc02984	-0.023457296
160	0xbd5a054d	-0.05322771
161	0xbe4a3e61	-0.19750358
162	0xbe0c51e8	-0.1370312
163	0x3ddb83ad	0.107184745
164	0xbe34a286	-0.17640123
165	0xbe03275b	-0.12807982
166	0x3d052754	0.03250821
167	0xbc929c2a	-0.01789673
168	0xbda4b11c	-0.080415934
169	0x3cf9f8d7	0.030514164
170	0xbdcb8cf7	-0.09938996
171	0xbeaf1485	-0.34195343
172	0xbdda56f5	-0.10661117
173	0xbe86b9b7	-0.26313564
174	0xbea5cec8	-0.32384324
175	0xbd298975	-0.041390855
176	0xbde01746	-0.10941939
177	0x3dc22658	0.0947997
178	0xbe464642	-0.19362739
179	0xbd89f84f	-0.06736814
180	0x3dec4d2b	0.11538156
181	0xbec3c78d	-0.38238183
182	0xbcf7999b	-0.030224612
183	0xbebdfc34	-0.37106478
184	0x3db3e439	0.087837644
185	0xbe385ebc	-0.18004888
186	0x3e22d297	0.15900646
187	0xbe0601e5	-0.1308666
188	0x3cbc0dca	0.022955794
189	0xbe31ef50	-0.17376447
190	0xbe8122c7	-0.25221846
191	0xbd9ff50b	-0.0781041
192	0xbd333a0e	-0.043756537
193	0xbdcec1e2	-0.10095574
194	0x3d8616ed	0.065473415
195	0xbdd51267	-0.104039006
196	0x3df8885e	0.12135385
197	0xbe4b900f	-0.19879173
198	0x3d342637	0.043981757
199	0x3ce1f0ab	0.02758058
200	0xbd87b683	-0.06626608
201	0xbd157411	-0.036487643
202	0xbe051e33	-0.12999801
203	0x3d8f1997	0.06987303
204	0xbd9853b1	-0.07437838
205	0x3d5ac2c5	0.053408403
206	0xbe9ab4c5	-0.3021604
207	0xbd4b8a27	-0.0496923
208	0xbe32e7e6	-0.17471275
209	0xbe778399	-0.24171294
210	0xbde30892	-0.11085619
211	0x3d2a026b	0.041506212
212	0x3d092624	0.03348364
213	0x3d0356c5	0.03206517
214	0xbd1dc1e8	-0.038515
215	0xbe8539b8	-0.26020598
216	0xbcc94d8b	-0.024573108
217	0xbd1c75a4	-0.03819813
218	0xbe40a314	-0.1881221
219	0xbe9026ad	-0.28154507
220	0x3e456cd0	0.1927979
221	0x3c6745c1	0.014115752
222	0x3d917200	0.07101822
223	0xbdf8dd0f	-0.121515386
224	0xbe892d25	-0.26792255
225	0xbe764095	-0.24048074
226	0x3d3ab88e	0.04558616
227	0xbcc0eaac	-0.0235494
228	0xbe074fe0	-0.13214064
229	0x3d0ef4b0	0.03490132
230	0x3d862656	0.06550281
231	0x3ca0c47d	0.019624943
232	0xbd4d8839	-0.05017874
233	0xbc56482a	-0.013078729
234	0x3deef4d6	0.116677925
235	0x3deda173	0.116030596
236	0xbb9de3da	-0.004818422
237	0x3dee98fd	0.11650274
238	0x3c451096	0.01202788
239	0xbe33716b	-0.17523734
240	0xbcc2207d	-0.023697132
241	0xbe82b6f1	-0.25530198
242	0xbe3f7758	-0.1869787
243	0x3dd5eaf8	0.10445207
244	0x3dc709e4	0.09718683
245	0xbe81149b	-0.25211033
246	0x3cb43b21	0.022000851
247	0xbd844b1d	-0.06459639
248	0xbe1ad275	-0.15119345
249	0xbe859160	-0.26087475
250	0xbe211ccf	-0.15733646
251	0xbe8bf5d3	-0.27335986
252	0xbe0b20a2	-0.13586667
253	0xbe120d26	-0.14262828
254	0xbd076afe	-0.03306102
255	0xbded5785	-0.11588959

weight f4 [1, 256]
0	0xbc28e961	-0.010309548
1	0xbcc1bb73	-0.023648953
2	0xbc104694	-0.00880589
3	0x3d58e32d	0.052951027
4	0xbc5c3556	-0.013440451
5	0x3ad0b5a1	0.001592327
6	0xbc1bd069	-0.009510138
7	0x3aa34fe6	0.0012459725
8	0x3a4b0ff2	0.00077462115
9	0x3b1c145c	0.0023815846
10	0xbd2f369e	-0.042776696
11	0x3ac4982f	0.0014998968
12	0x38dcd248	0.000105295854
13	0xbc35c107	-0.011093385
14	0x39a50439	0.000314744
15	0x3ba64c93	0.0050750463
16	0xbc9b3982	-0.01894832
17	0xb9ace4f1	-0.0003297697
18	0x3950009d	0.00019836654
19	0x39f25c22	0.0004622648
20	0x3c8ac2ae	0.016938534
21	0xb99d5f63	-0.00030016442
22	0xb8ca34b6	-9.641929e-05
23	0xb9ce291d	-0.00039322014
24	0xbcbfe333	-0.023423767
25	0x3a8aa9cb	0.0010579167
26	0xb95ab2b8	-0.00020856678
27	0x3c3fb673	0.011701214
28	0x3ce57557	0.028010054
29	0x3c1a90d4	0.009433944
30	0x3b296870	0.0025849603
31	0x3d16db26	0.03683009
32	0xba3a106b	-0.00070977834
33	0x3b7f2761	0.0038933384
34	0x3ab386e9	0.0013696823
35	0x3c942f96	0.018089097
36	0xbaf173e2	-0.0018421377
37	0xb9ee05e2	-0.0004539928
38	0x3ab08265	0.0013466595
39	0x3b18d60c	0.0023320941
40	0xbb3e8f23	-0.0029077015
41	0x3dc551ce	0.09634744
42	0x3a477c1c	0.00076097413
43	0xbac34be8	-0.0014899941
44	0x398ddc28	0.00027057645
45	0x3c716656	0.014733871
46	0xbd07aa0c	-0.033121154
47	0x3c1d4097	0.009597919
48	0x3b379ce1	0.002801709
49	0xbad6042b	-0.0016328146
50	0x3dbda3fc	0.09259793
51	0xbaf20a38	-0.001846618
52	0x3c528b56	0.012850603
53	0xbb2427b9	-0.002504809
54	0x3d9a6bb4	0.07540074
55	0xbd119139	-0.035538886
56	0xbc34589c	-0.011007454
57	0xba63de53	-0.00086924917
58	0x3ae0a19b	0.0017138006
59	0xbb16d574	-0.0023015412
60	0xbb7d8ed0	-0.003868986
61	0xbb7d4108	-0.0038643498
62	0x3db8cee6	0.09023838
63	0xbc1a4964	-0.009416912
64	0x3a4eb15a	0.0007884704
65	0x3a8df590	0.001083063
66	0xbbf77fb6	-0.007553066
67	0xba32a9f9	-0.0006815489
68	0x399ac4db	0.00029519838
69	0x3d8e9fd2	0.06964077
70	0x3baf7b8e	0.005355305
71	0xbafca899	-0.001927632
72	0x3d77636e	0.060397558
73	0x39d38879	0.00040346736
74	0x3ae47dfd	0.0017432567
75	0xbb06c52b	-0.0020564299
76	0xbd2b9b96	-0.041896425
77	0x3c273251	0.010204867
78	0xbd350a4f	-0.044199284
79	0x3aeaedff	0.0017923712
80	0x3b685c9d	0.0035455592
81	0xbb8bac0d	-0.0042624534
82	0xbaed2dee	-0.0018095353
83	0x394a3c68	0.00019286724
84	0x3db02a8a	0.08601864
85	0x3cdf5901	0.02726412
86	0xbd069920	-0.032860875
87	0xbe094edf	-0.13408993
88	0xbb559b64	-0.003259384
89	0x3d5340b8	0.051575392
90	0x3aae5798	0.0013301251
91	0x3ba47961	0.0050193523
92	0xbdd2c788	-0.10291964
93	0xbcc91161	-0.02454442
94	0x3d65c714	0.05609806
95	0xbb448174	-0.0029984387
96	0xbb09cbc9	-0.0021026006
97	0x3dfb59f5	0.12273017
98	0xbb1d213d	-0.002397611
99	0x3b2f2b2e	0.0026728618
100	0x3d390ce8	0.045178324
101	0xbd1f9da0	-0.038968682
102	0x3d14c34d	0.036319066
103	0x3c328c14	0.010897655
104	0xbb9fada7	-0.004872996
105	0xbc608193	-0.013702768
106	0xbcf3cf30	-0.02976188
107	0xba969301	-0.0011487902
108	0x3b0c6981	0.002142519
109	0xbda0c902	-0.07850839
110	0xbb6afd9e	-0.0035856734
111	0x3de01aa3	0.109425806
112	0xbc94d064	-0.018165775
113	0x3a9c8e7f	0.0011944323
114	0x39ec6f0c	0.00045096164
115	0x3d126d88	0.03574899
116	0xb7b96ac4	-2.2103435e-05
117	0xbcd9e9e6	-0.02660079
118	0xbbc738bb	-0.006079761
119	0xba00aacc	-0.0004908263
120	0xbd25402f	-0.040344413
121	0x3ac2c1d9	0.0014858796
122	0x39c51c29	0.0003759575
123	0xbd6245f5	-0.055242497
124	0x3d715ea8	0.05892816
125	0x3c9c9c86	0.019117605
126	0x3b24502c	0.00250722
127	0x3dd7255e	0.10505174
128	0xbca02169	-0.019547181
129	0x3a47130f	0.00075940875
130	0xbd6bfb67	-0.057612803
131	0x3de9ec77	0.11422055
132	0xb798eb03	-1.8229248e-05
133	0xbb1223f6	-0.0022299266
134	0x3acee346	0.0015784285
135	0x39a74b0b	0.00031908634
136	0x3a8d7302	0.0010791721
137	0x3d6d7c4c	0.057979867
138	0x3b4da85e	0.0031380872
139	0x3c763449	0.015027114
140	0xb7c18d9c	-2.3073335e-05
141	0xba7ce193	-0.000964665
142	0x3c69c9ac	0.014269274
143	0xbcd54d88	-0.026037946
144	0x3aa3126d	0.0012441404
145	0x3c3db18e	0.011577977
146	0x3a830fff	0.0009999274
147	0xbbd1a895	-0.0063982704
148	0xbd86d73f	-0.06584024
149	0xbb660a6f	-0.0035101434
150	0xbb01c6bb	-0.001980229
151	0x399b9e68	0.00029681926
152	0xbc96675b	-0.01835983
153	0x3977dc5e	0.00023637849
154	0xbb4f6b4f	-0.0031649654
155	0x3c483855	0.012220462
156	0x3d50d91f	0.050988313
157	0xbb5e5962	-0.0033927788
158	0xbc6ba6a4	-0.014382992
159	0xbd26ccf9	-0.04072282
160	0xbda6cea6	-0.08144884
161	0xbd7c3bf5	-0.061580617
162	0x3d48d68f	0.049032744
163	0x3a6c3370	0.00090103503
164	0x3abec08a	0.0014553231
165	0x3a9f3518	0.001214656
166	0xbc616623	-0.013757261
167	0x3a026f21	0.0004975666
168	0xbc5653a8	-0.013081469
169	0x39a7d48e	0.00032011088
170	0x3aab0dbf	0.0013050361
171	0xbca876e3	-0.020564502
172	0x3ad0d5b0	0.0015932824
173	0x3ab09f2c	0.0013475171
174	0x3ddadb5a	0.10686369
175	0x3ca676c1	0.020320298
176	0xbbafad58	-0.0053612404
177	0x3a34e73d	0.0006900912
178	0xbcefad32	-0.02925739
179	0xbdd3e06e	-0.10345541
180	0x3c98db1b	0.018659165
181	0x3d0c037a	0.034183003
182	0x3e109e3c	0.14122862
183	0x3d83c6b3	0.06434383
184	0xb919d092	-0.00014668916
185	0xbca651b5	-0.020302633
186	0x3ab0f653	0.0013501145
187	0xbbb978f5	-0.005660171
188	0xbb626e81	-0.0034550729
189	0xb75c7338	-1.3139848e-05
190	0x3ac16d92	0.0014757386
191	0x3b8b6681	0.004254163
192	0x3d32d916	0.04366406
193	0x39a96509	0.0003230947
194	0x3d82c2bd	0.063848
195	0xbc41c56a	-0.011826852
196	0xba8b7d26	-0.0010642156
197	0xbaa502c4	-0.0012589325
198	0x3a2acc7a	0.0006515455
199	0xbcafc115	-0.021454373
200	0xbae513c2	-0.0017477202
201	0xb8348b9c	-4.3045366e-05
202	0x3c9d6b2f	0.019216148
203	0x3886c9de	6.4272186e-05
204	0xbd115dbb	-0.03548978
205	0x3ce15d6f	0.027510373
206	0x3b0ef881	0.00218156
207	0x3a389028	0.0007040524
208	0xbbe85c33	-0.007091069
209	0xbb53390b	-0.0032230045
210	0x3c1b9c6b	0.009497742
211	0x3c70bd09	0.014693507
212	0x3d670be0	0.05640781
213	0xbca4bf38	-0.020110711
214	0x3d61b0de	0.055100314
215	0xba8e9ecd	-0.0010881067
216	0x3c950970	0.018192977
217	0xbd7c1244	-0.061540857
218	0xbd371f37	-0.044707503
219	0x3bbbdef7	0.0057333666
220	0xbc5b0385	-0.013367538
221	0xbc578bf7	-0.013155929
222	0xbc437017	-0.01192858
223	0xbd2fffb4	-0.042968467
224	0x3b9988f9	0.004685518
225	0x3979277a	0.00023761197
226	0xba84d47b	-0.0010134125
227	0x3b1a4333	0.002353859
228	0xbadf4d45	-0.0017036578
229	0x395f0f88	0.00021272723
230	0xbe1f5cc4	-0.15562731
231	0x3996d684	0.00028770056
232	0x3ab80062	0.00140382
233	0x3a2ff2ca	0.00067118986
234	0xbbc51c54	-0.00601534
235	0xbae1170b	-0.0017173005
236	0xba687082	-0.00088668626
237	0xba83ec82	-0.0010064992
238	0x3c11956b	0.008885722
239	0xbdfe726f	-0.1242417
240	0x39b41312	0.00034346484
241	0xbd5ef593	-0.054433417
242	0x3b398c52	0.0028312397
243	0x3b03ab95	0.0020091285
244	0x37f33c64	2.8995979e-05
245	0x3c011ea1	0.007880838
246	0xbbbf8eb2	-0.005845868
247	0x3de87948	0.113512576
248	0xbd423a83	-0.047419082
249	0x3c71dc99	0.014762067
250	0xbab13e7d	-0.0013522651
251	0xbc3ab9b9	-0.011396819
252	0xb845598e	-4.7051864e-05
253	0xbcab5d6b	-0.020918569
254	0xbb91159b	-0.0044276244
255	0xba3cd010	-0.00072026346

weight f4 [256, 1]
0	0x3ed976d9	0.42473486
1	0xbc907492	-0.01763371
2	0x3ee62ebc	0.4495753
3	0x3f33f7b7	0.7029986
4	0x3f48b3cb	0.7839934
5	0xbc3dd67a	-0.01158678
6	0x3eedc6cb	0.4644073
7	0xbbca7347	-0.006178293
8	0xbf768c4a	-0.96307814
9	0xbe508720	-0.20364046
10	0x3e50ff31	0.20409848
11	0xbf6c8db4	-0.9240372
12	0xbcbfce36	-0.023413759
13	0xbf8b8023	-1.0898479
14	0xbf3415ea	-0.7034594
15	0x3ed02588	0.40653634
16	0x3ec9407f	0.3930702
17	0x3dd6e280	0.1049242
18	0xbf3fa32e	-0.7485837
19	0xbe9a6218	-0.30152965
20	0xbf66a364	-0.90093064
21	0xbee77c2c	-0.45211923
22	0x3ce3c3d7	0.027803345
23	0x3e1d81d4	0.15381557
24	0x3ecfad16	0.40561742
25	0xbf8a5db5	-1.0809847
26	0x3cd8d484	0.026468523
27	0xbe041ee0	-0.12902403
28	0xbf865e63	-1.0497555
29	0x3f341384	0.7034228
30	0xbf053d46	-0.5204662
31	0xbe21c05b	-0.15796034
32	0xbd4525c0	-0.048131704
33	0xbcccfe70	-0.025023669
34	0xbd4dbc6b	-0.050228518
35	0x3d8358f3	0.0641345
36	0xbf126764	-0.5718901
37	0x3d4fcbdb	0.05073152
38	0xbce194df	-0.027536808
39	0xbdd97e75	-0.10619823
40	0x3ea81fbb	0.32836708
41	0xbf394a4a	-0.7237898
42	0xbcd17b60	-0.025571525
43	0x3d5a8a79	0.053354714
44	0xbf4927c4	-0.785763
45	0x3d9abb20	0.075552225
46	0x3e9ee224	0.31031907
47	0x3da17f5b	0.07885619
48	0xbfd8fb03	-1.6951603
49	0xbf2676ec	-0.6502521
50	0xbe86fbf3	-0.26364097
51	0xbf28a02e	-0.65869415
52	0x3f214fbf	0.6301231
53	0xbede0e68	-0.43370366
54	0xbdf91d60	-0.12163806
55	0x3ee3804e	0.44433826
56	0x3e9295fb	0.2863005
57	0xbefe0490	-0.49612856
58	0x3d89f890	0.06736863
59	0xbf2aa604	-0.6665957
60	0xbcfef99f	-0.031124888
61	0xbdb9a460	-0.09064555
62	0xbe4002ba	-0.1875104
63	0x3e9eda17	0.31025764
64	0xbeb935d0	-0.36173868
65	0x3d6b1aec	0.05739872
66	0x3ec822c5	0.39089027
67	0x3e0c6827	0.13711606
68	0x3e266a64	0.16251522
69	0x3f09cbd3	0.53826636
70	0x3e70cfa1	0.23516704
71	0xbf08848e	-0.5332726
72	0xbf87272c	-1.0558829
73	0x3c7d4834	0.015459109
74	0x3c93c973	0.018040394
75	0xbf54b1b0	-0.8308363
76	0xbe47daf0	-0.19517112
77	0x3e6c172e	0.23055717
78	0x3dc021c5	0.09381441
79	0xbe51c70f	-0.20486091
80	0xbde9a266	-0.11407928
81	0x3c759d00	0.014991045
82	0x3ea0caef	0.31404826
83	0xbb24a62c	-0.002512346
84	0x3ea96a96	0.3308913
85	0x3f3ffae3	0.749922
86	0x3f07b316	0.5300764
87	0xbfa78bf8	-1.308959
88	0x3b45f403	0.0030205257
89	0x3ed6cb5a	0.4195202
90	0x3d230b40	0.03980565
91	0x3f4e4004	0.8056643
92	0xbf3f1075	-0.74634486
93	0x3f454856	0.770635
94	0xbe5950a1	-0.21222164
95	0xbe338c45	-0.17533977
96	0xbed8fb1c	-0.4237908
97	0x3ed0f016	0.4080817
98	0xbb00a461	-0.0019629227
99	0xbe4bdf39	-0.19909371
100	0xbf1ed5aa	-0.62044775
101	0x3ee9c980	0.45661545
102	0x3f2d51fc	0.67703223
103	0xbf7b1f64	-0.98094773
104	0x3eb7a336	0.35866708
105	0x3e46d66d	0.19417734
106	0x3e7a73d5	0.24458249
107	0xbf5a57c4	-0.8529017
108	0xbd3f96e2	-0.046774752
109	0x3ebb3955	0.36567178
110	0x3e740529	0.23830093
111	0xbfd6ac79	-1.6771384
112	0x3f06706d	0.525153
113	0xbc0d653a	-0.008630091
114	0xbf1adc3c	-0.604923
115	0xbf410b36	-0.7540773
116	0xbeeca092	-0.46216255
117	0x3efa15ca	0.4884475
118	0x3e1d95b5	0.1538914
119	0x3ac5b6c4	0.0015084376
120	0x3f2e1bf0	0.6801138
121	0xbcf9fa79	-0.030514942
122	0xbc5b8ba6	-0.013399994
123	0xbfa62a2b	-1.2981619
124	0xbf5fda00	-0.87442017
125	0x3daf3687	0.08555322
126	0xbef57f2d	-0.4794859
127	0x3edb4d46	0.42832392
128	0x3dfe0c51	0.12404693
129	0xbf10fd50	-0.56636524
130	0x3cd80200	0.026368141
131	0x3ec57ce4	0.38571846
132	0xbd8171af	-0.063205115
133	0xbe1893b0	-0.14900088
134	0xbdc1c9b8	-0.09462303
135	0xbe38e3c8	-0.18055642
136	0xbf7b690a	-0.9820715
137	0x3f592c5a	0.848333
138	0xbf232bfc	-0.6373899
139	0xbc96899d	-0.018376166
140	0xbca07fb1	-0.019592138
141	0x3db67f28	0.08910972
142	0xbc55aa00	-0.013041019
143	0x3f5442d6	0.82914484
144	0x3dc560a3	0.096375726
145	0x3e2139e4	0.1574474
146	0xbceec4c0	-0.029146552
147	0x3e8808c6	0.26569194
148	0x3e87be5a	0.26512414
149	0x3eb86636	0.3601548
150	0x3e438b94	0.19096214
151	0x3dba7c2d	0.09105716
152	0x3f1d3d06	0.6142124
153	0xbe0c2dd8	-0.13689363
154	0x3d4e1981	0.05031729
155	0xbf701f9a	-0.9379822
156	0x3eccb82c	0.39984262
157	0x3ea970bb	0.3309382
158	0x3eb0e3be	0.34548753
159	0x3f26ab68	0.65105295
160	0x3effc345	0.49953666
161	0xbe1a5db2	-0.15074804
162	0x3ed040e6	0.40674514
163	0xbcce1ee4	-0.025161214
164	0xbf536198	-0.8257079
165	0xbe56af38	-0.20965278
166	0x3edd6c1b	0.4324654
167	0xbccb82e2	-0.024842683
168	0x3f133d9b	0.5751588
169	0xbdf32b10	-0.11873448
170	0xbd710553	-0.05884297
171	0x3edebd91	0.43504003
172	0xbd2d414c	-0.0422986
173	0xbd214821	-0.039375428
174	0x3f2bc24c	0.6709335
175	0xbe0b46c6	-0.13601217
176	0x3e6642f5	0.2248648
177	0x3c2d3380	0.010571361
178	0x3f6f9fee	0.9360341
179	0x3f2500fa	0.64454615
180	0xbf12b1dc	-0.5730264
181	0xbf8b9a41	-1.090645
182	0xbe8b9760	-0.27263927
183	0xbe5f96f2	-0.21834925
184	0xbf53f4aa	-0.827952
185	0xbe760609	-0.2402574
186	0xbf136814	-0.57580686
187	0x3e698590	0.22804856
188	0xbe282d78	-0.16423595
189	0xbcbf2701	-0.023334028
190	0xbb08d1a9	-0.002087692
191	0x3abc623a	0.0014372536
192	0x3ead6e70	0.3387332
193	0xbee70184	-0.45118344
194	0x3ebef017	0.3729255
195	0x3ea3264c	0.31865156
196	0xbeb15a84	-0.3463937
197	0xbec2a3e4	-0.38015664
198	0xbfae4228	-1.3613939
199	0x3e900662	0.2812987
200	0xbf641d58	-0.89107275
201	0xbf1c9c30	-0.61175823
202	0xbdd5ca01	-0.1043892
203	0xbf3b52d2	-0.7317325
204	0xbe676240	-0.22596073
205	0x3f010f60	0.50414085
206	0xbd350d55	-0.044202168
207	0xbc814314	-0.015779056
208	0x3f0565e6	0.5210861
209	0x3ddd1fdb	0.107970916
210	0x3e750d35	0.2393082
211	0xbf2ac246	-0.6670269
212	0x3eaa53f1	0.33267167
213	0x3eead320	0.458642
214	0x3e61d5e5	0.2205425
215	0x3de1c3c7	0.1102367
216	0xbf6d2166	-0.92629087
217	0x3efd3226	0.49452323
218	0x3f0b528e	0.54422843
219	0xbc93ce6e	-0.01804277
220	0xbf58cc12	-0.84686387
221	0xbe3834f5	-0.17988952
222	0x3e85e69a	0.26152498
223	0x3f557b5f	0.83391374
224	0x3f2e558f	0.680993
225	0x3e37e4a0	0.17958307
226	0xbf761a24	-0.9613364
227	0xbf938be0	-1.1527061
228	0xbd6a9b20	-0.057276845
229	0xbcbefe1f	-0.023314534
230	0x3efa444b	0.48880228
231	0xbccd3d09	-0.025053518
232	0xbc7bb695	-0.015363355
233	0xbeb43c6c	-0.35202348
234	0x3f63a348	0.8892102
235	0xbeac05f4	-0.33598292
236	0xbebb72b9	-0.36610964
237	0xbf10e792	-0.5660335
238	0x3f367fa8	0.7128854
239	0x3f523140	0.821064
240	0x396b1ddf	0.00022422474
241	0x3efe4099	0.4965866
242	0x3e09108c	0.13385218
243	0xbe8a6718	-0.2703178
244	0xbe19c5c8	-0.15016854
245	0xbf68fd38	-0.9101138
246	0x3e9d2805	0.30694595
247	0xbf73ab4e	-0.95183265
248	0x3ebd7507	0.37003347
249	0xbfb49d95	-1.411059
250	0xbf56f740	-0.83971024
251	0x3ecac1d9	0.3960102
252	0xbf3372f4	-0.7009728
253	0x3f44bda6	0.7685188
254	0x3e57aa65	0.21061094
255	0xbd981870	-0.07426536

bias f4 [256]
0	0xbfc5abf5	-1.5443102
1	0xba78389e	-0.0009468886
2	0xbeebc1b0	-0.4604621
3	0x3d17c2ef	0.037051138
4	0x3ed3271b	0.41240773
5	0x3da28ea5	0.079373635
6	0x3ed5e1c6	0.41773814
7	0x3e8fd6de	0.28093618
8	0xbf4c8230	-0.7988615
9	0x3dc8320d	0.097751714
10	0x3c1816b1	0.009282754
11	0xbec3d8c4	-0.38251317
12	0x3e8458e7	0.25849077
13	0x3ed0572b	0.40691504
14	0xbf0e0960	-0.55483055
15	0x3f1386ed	0.57627755
16	0xbfd4e741	-1.6633073
17	0xbf776024	-0.96631074
18	0xbf44af82	-0.76830304
19	0xbf0f0f1a	-0.5588242
20	0xbf7e3076	-0.99292696
21	0xbe83dc5c	-0.25754058
22	0xbdda1392	-0.10648264
23	0xbf3daeb3	-0.74094695
24	0xbfb41547	-1.4068993
25	0x3de96371	0.1139592
26	0x3c960c59	0.018316435
27	0x3f203491	0.6258021
28	0x3ed8590d	0.4225544
29	0xbf316167	-0.6928925
30	0xbf5b878e	-0.85753715
31	0x3e8ffe9d	0.28123942
32	0xbf00de8c	-0.5033958
33	0x3e9f2fb7	0.3109109
34	0x3efca773	0.49346504
35	0x3f03089b	0.51185006
36	0xbf0e50c2	-0.55591977
37	0x3eadd19d	0.33948985
38	0x3e7d8034	0.24755937
39	0x3e52a589	0.20570959
40	0x3edb1f05	0.42797104
41	0xbf53132e	-0.8245114
42	0x3cdbf72d	0.026851261
43	0x3d49f7ea	0.049308695
44	0xbaa49d2a	-0.0012559046
45	0xbf77a20c	-0.9673164
46	0xbfaade98	-1.334918
47	0x3ef2587e	0.4733314
48	0x3dafc197	0.08581846
49	0xbf65db80	-0.89788055
50	0x3f8093b9	1.0045081
51	0xba97f7b8	-0.0011594212
52	0x3eeb1505	0.45914474
53	0xbf4701d8	-0.7773719
54	0xbf0e0350	-0.55473804
55	0xbff65cb9	-1.9247047
56	0xbf89796c	-1.074018
57	0xbf645412	-0.8919078
58	0xbf1a91a2	-0.6037847
59	0xbf01a750	-0.50645924
60	0x3e38a4d3	0.18031625
61	0x3e9cbef1	0.30614427
62	0x3f50f36f	0.8162145
63	0xbea00b21	-0.3125849
64	0xbf20cab6	-0.6280931
65	0x3f1d5b39	0.6146732
66	0xbfac0453	-1.343882
67	0x3ece528d	0.40297356
68	0xbf4130c5	-0.7546504
69	0x3f57f506	0.8435825
70	0x3e5e92d6	0.21735701
71	0xbe9eb110	-0.30994463
72	0x3ef2f594	0.47452986
73	0x3e89d25f	0.26918313
74	0x3d42ddbc	0.047574744
75	0xbf12d1e8	-0.5735154
76	0x3f483607	0.7820744
77	0xbf847bd5	-1.035029
78	0x3e8e42a9	0.27785233
79	0x3da0540b	0.0782853
80	0x3f09c100	0.5381012
81	0xbe361970	-0.17783141
82	0xbf78015b	-0.9687707
83	0x3cdcd779	0.026958214
84	0x3e9ce597	0.30643913
85	0xbf823163	-1.0171322
86	0xbdb1a0e0	-0.086732626
87	0x3f0d82e4	0.5527785
88	0x3e545805	0.20736702
89	0xbfe0fda2	-1.7577403
90	0xbf3b24a8	-0.7310281
91	0x3da8f4a9	0.0824979
92	0x3eaaec70	0.33383512
93	0xbf3f3d7f	-0.7470321
94	0x3f681023	0.9064962
95	0x3f433247	0.7624859
96	0x3f059070	0.5217352
97	0xbfe412bd	-1.7818218
98	0xba34a211	-0.0006890605
99	0x3f214aee	0.6300496
100	0xbf1de6f0	-0.6168051
101	0xbbceaace	-0.0063069826
102	0xbf9d2a58	-1.2278547
103	0x3ed0775b	0.4071606
104	0xbf98f678	-1.1950216
105	0xbb175c0b	-0.0023095633
106	0xbfb2923d	-1.3950878
107	0xbf5d0b7e	-0.8634566
108	0x3c9c1fec	0.01905819
109	0xbfc0b8d5	-1.5056406
110	0xbf7b9fda	-0.9829079
111	0x3f597aa6	0.8495277
112	0xbeb932c1	-0.36171535
113	0x3f1b04e8	0.6055436
114	0xbf3ceb4a	-0.7379652
115	0xbea2a0e8	-0.31763387
116	0xba053ab3	-0.0005082294
117	0xbe2031a0	-0.1564393
118	0x3e2e9e8b	0.17052667
119	0x3d7030d7	0.058640327
120	0xbc2336d3	-0.009961802
121	0x3eaddfac	0.3395971
122	0x3dde19e9	0.10844786
123	0x3f0cd2d7	0.55009216
124	0xbf05a4c6	-0.5220455
125	0x3f49c2b7	0.78812736
126	0x3e1f4d1c	0.15556759
127	0x3f5485e2	0.8301679
128	0xbf32ffa2	-0.69921315
129	0xbf1f3f82	-0.6220628
130	0xbf31180a	-0.69177306
131	0xbfd60a0e	-1.6721818
132	0x3f18ffec	0.59765506
133	0xbeec4410	-0.46145678
134	0x3e8b8d11	0.27256063
135	0xbf043fc0	-0.51659775
136	0xbe8e6628	-0.27812314
137	0xbf733e58	-0.95017004
138	0x3e96df65	0.29467312
139	0x3f1e9a71	0.6195441
140	0x3e6cdb7a	0.23130599
141	0xbd89657b	-0.06708809
142	0xbe4ed210	-0.2019732
143	0xbf6f7cd6	-0.9354986
144	0xbeec76d2	-0.46184403
145	0xbcc105b8	-0.023562297
146	0xbe01b138	-0.1266526
147	0xbf77c380	-0.96782684
148	0xbf97001b	-1.1796907
149	0xbca27475	-0.019830922
150	0xbf6a0d6e	-0.9142674
151	0xbecf8e1e	-0.40538114
152	0xbf0da51e	-0.55330074
153	0xbe855ac0	-0.260458
154	0x3d9657a3	0.07340934
155	0xbe7076d8	-0.23482835
156	0xbfda5fa5	-1.7060438
157	0xbfa21ddc	-1.2665362
158	0xbeae9319	-0.34096602
159	0xbd577d41	-0.052609686
160	0xc00432b4	-2.0655947
161	0x3e9c34cf	0.3050904
162	0xbfdf3fa6	-1.7441299
163	0x3d995e47	0.07488685
164	0xbf0fe37c	-0.5620649
165	0xbf3d5974	-0.7396462
166	0xbfee026e	-1.8594491
167	0x3e796bae	0.24357483
168	0xbe57f169	-0.21088184
169	0xbf09f13e	-0.5388373
170	0x3ee65f5a	0.44994622
171	0xbf3bb42d	-0.733218
172	0x3d6cd0c9	0.0578163
173	0x3ee24096	0.441899
174	0x3f667338	0.9001956
175	0x3ebb2132	0.36548764
176	0xbf5200dc	-0.8203256
177	0xbf2786e4	-0.654402
178	0xbf342247	-0.70364803
179	0xbfa8eff8	-1.3198233
180	0xbeb64158	-0.35596728
181	0x3f1ae860	0.60510826
182	0xbea16ff8	-0.31530738
183	0x3f7a0759	0.9766746
184	0xbef70938	-0.4824922
185	0xba4e31b3	-0.0007865682
186	0xbec095e8	-0.3761437
187	0xbf426eb3	-0.75950164
188	0xbf671b5c	-0.9027612
189	0x3e7e8469	0.24855198
190	0x3f0f0e19	0.55880886
191	0xbc5ff03b	-0.013668115
192	0x3ead2e3a	0.3382433
193	0xbf677be2	-0.90423405
194	0x3f5a1769	0.8519197
195	0xbfa280a7	-1.2695512
196	0xbf667ee8	-0.90037394
197	0xbf349a44	-0.7054789
198	0x3e0b6d0b	0.13615815
199	0xbf980142	-1.1875384
200	0xbe747030	-0.23870921
201	0xbd2a6980	-0.04160452
202	0x3e8e48c2	0.27789885
203	0xbf3ea402	-0.74469006
204	0xbf178bf0	-0.591979
205	0xc009dd8c	-2.1541471
206	0x3eda6655	0.42656198
207	0x3e44c8b6	0.1921719
208	0xbd1b01d8	-0.037843555
209	0xbc8aa2c1	-0.01692331
210	0xbf89e11b	-1.0771822
211	0xbf5c46f0	-0.8604574
212	0xbfb72e5e	-1.4311025
213	0xbf73d590	-0.95247746
214	0x3dd82135	0.10553209
215	0x3eede556	0.46464032
216	0x3ed462a0	0.41481495
217	0x3e1fdf05	0.15612419
218	0xc007c206	-2.1212173
219	0x3f04cd97	0.51876205
220	0xbf7fb9c8	-0.99892855
221	0x3eeca5d7	0.46220276
222	0xbe8507c1	-0.25982478
223	0xbf180e9c	-0.5939729
224	0x3f0e9862	0.5570127
225	0x3f12dadb	0.57365197
226	0xbe7f7f40	-0.24950886
227	0x3d846f25	0.06466512
228	0xbf1172d6	-0.5681585
229	0x3d1f814a	0.03894166
230	0x3b465882	0.0030265157
231	0x3e23c296	0.15992197
232	0x3e8c5c53	0.27414188
233	0xbf118632	-0.5684539
234	0x3f446f87	0.7673268
235	0xbf638b3e	-0.8888434
236	0xb9eb9caf	-0.0004493943
237	0xbf719a98	-0.94376516
238	0x3f33dbf4	0.70257497
239	0xbf177cfc	-0.59175086
240	0xbbeebcc6	-0.007285687
241	0xbf95563b	-1.166694
242	0xbe403b48	-0.18772614
243	0xbebdbad8	-0.37056613
244	0xbe980b1c	-0.29695976
245	0xbf283ccc	-0.6571777
246	0xbda790ba	-0.08181901
247	0xbe022428	-0.12709105
248	0x3d808953	0.062761925
249	0x3eef4f73	0.46740302
250	0xbd8f9730	-0.070112586
251	0xbfa7e375	-1.3116289
252	0xbf744288	-0.9541402
253	0xbc3510d8	-0.011051379
254	0xbf727797	-0.9471373
255	0xbe69c340	-0.22828388

weight f4 [1, 256]
0	0xbe179168	-0.14801562
1	0xbd2dfe86	-0.04247906
2	0xbca77900	-0.02044344
3	0x3c0aeaa1	0.008478791
4	0x3c962e89	0.018332737
5	0xb90392b3	-0.00012547783
6	0xbceaa83d	-0.028644675
7	0xba0dac4c	-0.00054043974
8	0xbc4617bd	-0.012090621
9	0xbbaf3285	-0.0053465986
10	0x3c3087d3	0.0107745705
11	0x3ad6f0c5	0.0016398659
12	0xb7ba581d	-2.2213959e-05
13	0xbbf56e5d	-0.007489963
14	0xb84df978	-4.9108145e-05
15	0x3c4513ca	0.012028644
16	0xbd7a68fa	-0.06113527
17	0xbbb31e16	-0.005466233
18	0xbad23c55	-0.0016039709
19	0x3c8ce9db	0.017201355
20	0xbc234a0e	-0.0099663865
21	0x3cb1f5a6	0.02172358
22	0xbb275540	-0.002553299
23	0xbad45943	-0.0016200918
24	0xbe074315	-0.13209184
25	0xbc11173e	-0.008855639
26	0xbb51aabf	-0.0031992642
27	0x3d0a29d3	0.033731293
28	0xbc76c211	-0.0150609175
29	0x3d018c36	0.031627856
30	0x3c4af53d	0.012387571
31	0xbcbabc76	-0.022794943
32	0xbb941e99	-0.004520249
33	0x3c71c48f	0.014756336
34	0xba091eef	-0.0005230745
35	0xbc9d8c0b	-0.019231817
36	0xbb074414	-0.0020639943
37	0xba69db9b	-0.00089209684
38	0x3aa98c7d	0.0012935546
39	0xbbc4b208	-0.0060026683
40	0x3a0492ba	0.00050572644
41	0x3c855558	0.016276047
42	0xbb5e2b08	-0.003390016
43	0xbb5705fe	-0.0032809968
44	0x39b688c4	0.00034815643
45	0xbdc6797d	-0.09691141
46	0xbc5ca794	-0.013467688
47	0x3be7ef1c	0.0070780646
48	0x3b00d3d2	0.0019657505
49	0xbb437a18	-0.0029827412
50	0xbd80ee5c	-0.062954634
51	0xbbba5f32	-0.0056876177
52	0xbce00749	-0.027347224
53	0xbc57c439	-0.013169342
54	0xbd78d3ba	-0.060748793
55	0x3d01f4fb	0.031727772
56	0xbd363e9f	-0.044493314
57	0xbb409f88	-0.0029391963
58	0x3a91c0d7	0.0011120093
59	0x3bb29953	0.0054504066
60	0xbcda3a57	-0.026639147
61	0xbc42333d	-0.0118530365
62	0x3cce2a30	0.025166601
63	0xbc59662f	-0.013268991
64	0x3a839480	0.0010038763
65	0xbb9df1fa	-0.0048201056
66	0xbd970f4c	-0.073759645
67	0xbb94b884	-0.0045385975
68	0xbb40ac49	-0.0029399565
69	0xbdd790e5	-0.10525683
70	0xbdab3495	-0.083596386
71	0xba679c7f	-0.00088352704
72	0x3b8c0035	0.0042724856
73	0xbada3c43	-0.001665004
74	0xb8af467e	-8.3577805e-05
75	0xbadb5763	-0.0016734417
76	0xbd8ae77e	-0.06782435
77	0x3c4ca488	0.012490399
78	0xbcd0ad2b	-0.025473198
79	0xbaaffae3	-0.001342621
80	0x3b57a24a	0.0032903128
81	0xbd2e0fa8	-0.0424954
82	0xbcbe20be	-0.023208972
83	0xbac1f749	-0.0014798428
84	0xbc4a7835	-0.012357761
85	0xbbf3bf80	-0.0074386
86	0xbd0c20a8	-0.03421083
87	0x3cf21525	0.029551098
88	0xbc760d5c	-0.015017834
89	0xbd53d3aa	-0.05171553
90	0x3a8cfdbf	0.0010756775
91	0xbcdc1339	-0.026864635
92	0x3d32a5dc	0.043615207
93	0xbd002b28	-0.031291157
94	0x3b27f383	0.0025627322
95	0x3c4d260c	0.012521278
96	0x3d075043	0.033035528
97	0x3d39d20d	0.045366336
98	0xb9b47f85	-0.00034427285
99	0xbc1c7f03	-0.009551766
100	0x3c922f85	0.017844925
101	0xbc356e97	-0.01107373
102	0x3d329d9e	0.043607347
103	0x3b6b38bb	0.0035891968
104	0xbd321569	-0.04347745
105	0xbcce0f9f	-0.025153933
106	0x3c134721	0.008989126
107	0x3b3f10f0	0.0029154383
108	0xbb27a78b	-0.002558204
109	0xbdda1c8b	-0.106499754
110	0xbc745ccf	-0.014914705
111	0x3d091b9b	0.033473592
112	0xbc72cf03	-0.014819863
113	0x3b19c009	0.002346041
114	0x3938e66a	0.00017633443
115	0xbd01021b	-0.03149615
116	0x3ad023d4	0.0015879818
117	0xbcabc237	-0.020966632
118	0x3ba50297	0.005035709
119	0xba92f047	-0.0011210524
120	0xbd1063ee	-0.03525155
121	0x3a56c536	0.0008192839
122	0x3aa35f93	0.0012464396
123	0xbd680998	-0.056649774
124	0xbcb235f5	-0.021754244
125	0x3d9799c5	0.07402376
126	0xbbda7bbe	-0.0066675832
127	0xbcc95328	-0.024575785
128	0xbba343e9	-0.0049824608
129	0xbab65634	-0.0013911189
130	0xbd394afc	-0.045237526
131	0x3ac2b3ff	0.0014854668
132	0xbba66954	-0.005078474
133	0xba60f3b2	-0.00085812353
134	0xbc40ab8f	-0.011759653
135	0x3b71fd97	0.0036924833
136	0xbb21f57a	-0.0024712966
137	0xbc45b51f	-0.012067108
138	0xba25f9ad	-0.0006331455
139	0x3be9fb89	0.007140581
140	0xbb171397	-0.0023052448
141	0xba22dbf9	-0.0006212588
142	0xbd8735d9	-0.066020675
143	0xbd3476bc	-0.044058546
144	0x3a9d50e9	0.0012002263
145	0xbd4670ab	-0.048447292
146	0xbaeb315e	-0.001794379
147	0xbd302029	-0.04299942
148	0x3d6bdb50	0.0575822
149	0xbc855751	-0.016276987
150	0x3bac510c	0.005258685
151	0xbbd09048	-0.006364856
152	0xbc017d77	-0.007903448
153	0xbb91e989	-0.0044528884
154	0xbb457a37	-0.003013266
155	0xbd6272e1	-0.05528534
156	0xbd3a1e6d	-0.045439173
157	0xbd1cb805	-0.038261432
158	0xba101e99	-0.00054977235
159	0xbc0b0141	-0.008484186
160	0xbe04dbec	-0.12974519
161	0x3d1ce95e	0.038308494
162	0xbc8c350e	-0.017115142
163	0xba723f47	-0.00092409964
164	0x3ba3dbce	0.005000568
165	0xbd1113eb	-0.035419386
166	0x3c4c5569	0.012471535
167	0xb9505af7	-0.00019870313
168	0xbd2324b2	-0.039829917
169	0xbb57fe8d	-0.003295812
170	0x39e1fd44	0.00043104042
171	0xbce64692	-0.028109822
172	0xba25d170	-0.0006325459
173	0x3adeb635	0.0016991558
174	0xbbfc5ca7	-0.0077014747
175	0xbd3e3b6a	-0.04644338
176	0xbcd59095	-0.026069919
177	0x3acac5da	0.0015470341
178	0x3d420d74	0.04737611
179	0xbe12f439	-0.14350976
180	0xbc84aa5e	-0.016194519
181	0x3cb808e4	0.022465177
182	0xbca01cce	-0.019544985
183	0x3da84b8b	0.08217534
184	0x39d35b4d	0.0004031308
185	0x3ba4f908	0.0050345697
186	0x3b2e0cd0	0.002655793
187	0xbd176bea	-0.03696815
188	0xbc879579	-0.016550766
189	0x3ae73a9d	0.001764137
190	0xbae91811	-0.0017783662
191	0x3cd79a4a	0.026318688
192	0xbd2de77b	-0.042457085
193	0x3a5086ca	0.00079546554
194	0xbc9e5677	-0.019328339
195	0xbd4b2e59	-0.049604747
196	0xbc790019	-0.015197777
197	0xbb079152	-0.0020685983
198	0xbcb7be3e	-0.022429582
199	0xbce87dab	-0.028380236
200	0xbcb582ff	-0.02215719
201	0xba264a96	-0.00063435116
202	0xbd887f24	-0.06664875
203	0x3af19d22	0.001843367
204	0x3d61fc46	0.055172227
205	0xbd391145	-0.045182485
206	0xbb3b5d6a	-0.0028589615
207	0x3b3443e6	0.002750629
208	0xbba930df	-0.0051632966
209	0xbd11cbd9	-0.035594795
210	0x3cabc601	0.020968439
211	0xbd800c33	-0.06252327
212	0xbce6c506	-0.02817012
213	0xbb55f649	-0.0032648018
214	0x3b698b25	0.0035635915
215	0xba859fcb	-0.0010194717
216	0x3d9cf70d	0.07664309
217	0x3d0f72ab	0.035021465
218	0xbdd88e47	-0.10574012
219	0xbd0a48c2	-0.033760794
220	0xbb71fc01	-0.0036923888
221	0xbdaaf2f9	-0.083471246
222	0x3b79179b	0.0038008455
223	0x3cb1e117	0.021713777
224	0xbbc1b919	-0.005911958
225	0xbb301142	-0.0026865755
226	0x3aa871ba	0.0012851276
227	0xbab4bd62	-0.0013789351
228	0xbc0f5428	-0.008748092
229	0xba12636c	-0.0005584273
230	0x3dcea390	0.10089791
231	0xb832aea1	-4.2601143e-05
232	0xba50ea6c	-0.0007969502
233	0xbb939141	-0.0045033996
234	0xbbb5e5c2	-0.005551071
235	0x3a1e938c	0.0006049208
236	0x3a216a2b	0.0006157483
237	0xbb7c0168	-0.0038452987
238	0x3d421054	0.047378853
239	0xbc118ea7	-0.008884109
240	0xbc808594	-0.015688695
241	0xbd8a6674	-0.06757823
242	0xbcd05e61	-0.025435628
243	0x3aa32e13	0.0012449644
244	0xba4a81ac	-0.0007725011
245	0xbde1df5e	-0.11028932
246	0x3b827076	0.0039806915
247	0x3afb4086	0.001916901
248	0x3c15f805	0.009153371
249	0xbc3e130d	-0.011601222
250	0xbb746b9e	-0.003729559
251	0xbda52523	-0.08063724
252	0xbb09ca0b	-0.0021024968
253	0xbdf6e6ff	-0.12055778
254	0x3d006639	0.031347487
255	0xbabbee9b	-0.0014338078

weight f4 [256, 1]
0	0xbf526860	-0.82190514
1	0x3f57aaf7	0.84245247
2	0xbeb6423e	-0.35597414
3	0xbf7e3ab2	-0.9930831
4	0xbef10b51	-0.47078946
5	0x3dee032c	0.11621699
6	0x3f010953	0.5040485
7	0xbeec3aa8	-0.461385
8	0x3e854fa3	0.2603732
9	0x3e2b832d	0.16749258
10	0xbf178d84	-0.5920031
11	0xbf062fc6	-0.52416646
12	0x3e3fa154	0.18713886
13	0x3ef27b98	0.4735992
14	0xbf832629	-1.024602
15	0xbed38d75	-0.4131886
16	0xbe9b1e60	-0.30296612
17	0x3ed8baf6	0.4233014
18	0xbfc2d81a	-1.5222199
19	0xbec7b775	-0.39007154
20	0x3f2ee1c9	0.6831327
21	0xc0276e77	-2.6161172
22	0x3e20eb33	0.15714721
23	0xbf2c4f00	-0.67308044
24	0xbf08f80a	-0.5350348
25	0xbd5ca00b	-0.053863566
26	0xbd92f907	-0.071764044
27	0x3d53f980	0.051751614
28	0x3f07d296	0.53055704
29	0xbf69f314	-0.9138653
30	0xbe678798	-0.22610319
31	0x3ea5124e	0.32240528
32	0xbe8778e5	-0.26459423
33	0x3f16920c	0.588166
34	0x3c76613f	0.015037834
35	0x3edf14e7	0.43570635
36	0xbf7566e6	-0.95860136
37	0xbe8d2c94	-0.27573073
38	0xbd6d1be4	-0.057887927
39	0x3ef5eed1	0.48033765
40	0xbd2ceb60	-0.04221666
41	0x3f164f99	0.58715206
42	0xbe2fb1a9	-0.17157616
43	0xbe855f74	-0.26049387
44	0xbd86c330	-0.06580198
45	0x3f558c24	0.8341696
46	0xbecf892b	-0.40534338
47	0x3e8031e6	0.2503807
48	0x3e1a19f5	0.15048964
49	0xbcffa517	-0.03120665
50	0x3f10aecc	0.5651672
51	0xbe42c8c0	-0.19021893
52	0x3f6b6528	0.9195123
53	0x3ee3115e	0.44349188
54	0xbeb57686	-0.3544199
55	0xbe4bb3eb	-0.19892852
56	0xbf2786fc	-0.65440345
57	0x3e8340a9	0.2563527
58	0xbedbb608	-0.42912316
59	0xbef7f17f	-0.48426434
60	0x3f3b717f	0.73220056
61	0xbf6f7909	-0.9354406
62	0xbe847844	-0.25873005
63	0xbf443f76	-0.76659334
64	0xbe793028	-0.24334776
65	0x3e87450d	0.2641987
66	0x3e31501c	0.17315716
67	0x3ecf72a0	0.4051714
68	0xbc82d900	-0.015972614
69	0x3f409852	0.7523242
70	0x3f67781e	0.9041766
71	0xbf028f01	-0.50999457
72	0x3e39c212	0.18140438
73	0xbc8f249a	-0.017473508
74	0xbf332e40	-0.69992447
75	0xbeceb64c	-0.40373456
76	0xbec20cb4	-0.37900317
77	0xbebbf410	-0.36709642
78	0x3ebc31f7	0.3675687
79	0xbecf2c48	-0.4046347
80	0xbf6fae0a	-0.9362494
81	0x3f30402e	0.6884793
82	0x3e9c156a	0.30485088
83	0xbd70f971	-0.058831636
84	0x3f2eaf8d	0.6823662
85	0xbeee03c0	-0.46487236
86	0x3ed92e09	0.42417935
87	0x3f29d093	0.66333884
88	0x3f15a0fc	0.5844877
89	0xbec14637	-0.37748882
90	0xbf8012d3	-1.0005745
91	0x3f3f5b03	0.7474825
92	0xbf663fe2	-0.8994123
93	0x3e8e5959	0.27802542
94	0xc08cce38	-4.400173
95	0xbd1f2e23	-0.03886236
96	0x3ccf57c0	0.025310397
97	0xbefd2170	-0.49439573
98	0x3d958490	0.07300675
99	0xbfc1ff5e	-1.5156057
100	0x3e7edd82	0.24889186
101	0x3dffed21	0.124964006
102	0x3e20b3e6	0.15693626
103	0xbef246d4	-0.47319663
104	0x3e7fcc60	0.24980307
105	0x3f154519	0.5830856
106	0xbf10d30c	-0.5657203
107	0xbe1d7e10	-0.1538012
108	0xbf3051d4	-0.6887486
109	0xbe170000	-0.14746094
110	0xbf03ec96	-0.51532876
111	0x3f01fff1	0.5078116
112	0xbeaca82c	-0.33722055
113	0x3e2fdef1	0.17174889
114	0xbba78ede	-0.0051134666
115	0xbe6fb91a	-0.23410454
116	0xbdf4b427	-0.11948424
117	0x3eb88a37	0.3604295
118	0xbf621cb2	-0.88325036
119	0xbecbc8a0	-0.39801502
120	0x3f421a7e	0.75821674
121	0xbe04c918	-0.12967336
122	0xbf436b68	-0.76335764
123	0xbe66c1f0	-0.22534919
124	0xbfa65a44	-1.2996297
125	0xbe69d2fd	-0.22834392
126	0x3d0df6fc	0.03465937
127	0x3f64e7ea	0.8941637
128	0x3e80257d	0.250286
129	0xbf1d30a0	-0.6140232
130	0x3e94c7e8	0.29058766
131	0x3ec6e5cb	0.38847193
132	0xbdde54c0	-0.108560085
133	0xbcfd6480	-0.030931711
134	0x3e934f64	0.28771508
135	0x3d06d5e0	0.03291881
136	0xbd1d9060	-0.038467765
137	0xbf5802b6	-0.84379137
138	0x3dc99fc8	0.09844929
139	0xbf0b6dbb	-0.5446431
140	0x3dd8b5ba	0.105815366
141	0xbd84c2a7	-0.064824395
142	0x3f3d938a	0.7405325
143	0xbe6d34e3	-0.23164706
144	0x3dd63baa	0.10460599
145	0x3f1a18ca	0.60194075
146	0xbf019972	-0.50624764
147	0x3da6d751	0.08146537
148	0x3ec5ae0b	0.38609347
149	0x3ef7a339	0.48366717
150	0xc0569699	-3.3529418
151	0x3bfdc605	0.007744553
152	0x3eafab7c	0.3431052
153	0xbce7228f	-0.028214721
154	0xbe1627d3	-0.14663629
155	0x3f4b41c3	0.7939722
156	0xc0b107a4	-5.5321827
157	0x3d3c0587	0.04590371
158	0xbe529528	-0.20564711
159	0xbd724ba0	-0.059154153
160	0x3ec7f8ff	0.39057156
161	0xbf4c79d5	-0.798734
162	0xbaca6800	-0.0015442371
163	0xbf5de4c0	-0.8667717
164	0xbe853890	-0.26019716
165	0x3f01abf6	0.50653017
166	0x3ebeb5a5	0.3724796
167	0xbf2be285	-0.67142516
168	0x3ec26cb3	0.37973556
169	0xbc8d4b66	-0.017247867
170	0xbd4d62f0	-0.050143182
171	0x3dfd2b87	0.12361818
172	0xbebe5928	-0.37177396
173	0xbf732f9c	-0.9499452
174	0x3ea855c0	0.32877922
175	0x3f1eea79	0.62076527
176	0xbef74760	-0.48296642
177	0xbf4b08ec	-0.7931049
178	0x3ddc3f45	0.10754255
179	0x3f2952a2	0.6614171
180	0xbeed5d94	-0.46360457
181	0xbf53e97a	-0.8277813
182	0x3e6245d8	0.22096956
183	0xbeca82b8	-0.39552855
184	0xbe5e44c0	-0.21705914
185	0x3e21f7c5	0.15817173
186	0x3b631e9a	0.003465569
187	0x3e8f267c	0.2795905
188	0xbdb45205	-0.088047065
189	0x3dc3e07e	0.09564303
190	0xbf1fe45a	-0.6245781
191	0xbec8aaaa	-0.39192706
192	0x3eef4dfc	0.46739185
193	0x3cbdaa1b	0.023152402
194	0x3ef47b98	0.47750545
195	0xbf56133c	-0.836231
196	0x3effd847	0.49969694
197	0xbd8dcef0	-0.06924236
198	0x3ed91ffe	0.4240722
199	0xbe2d45b8	-0.16921127
200	0x3ef45d6b	0.47727522
201	0xbf4fd6fc	-0.81187415
202	0x3f4654b0	0.7747297
203	0xbf0c3c7b	-0.54779786
204	0xbe3b4a12	-0.18289974
205	0x3e2f3a75	0.17112143
206	0xbece467c	-0.4028815
207	0xbf4a1d7d	-0.78951246
208	0xbcdf5fc0	-0.027267337
209	0x3eb10475	0.34573713
210	0xbf1f341a	-0.62188876
211	0x3f31b6b7	0.69419426
212	0x3e704d89	0.23467077
213	0xbed3fe44	-0.41404927
214	0x3f320b91	0.695489
215	0xbf19fbae	-0.6014966
216	0xbede0af3	-0.4336773
217	0xbf01c5e2	-0.5069257
218	0xbedd2ec0	-0.4319973
219	0x3f266534	0.64998174
220	0xbf0e9cc4	-0.55707955
221	0xbf1bcd98	-0.60860586
222	0xbdce802d	-0.10083041
223	0x3df2e5ae	0.11860214
224	0xbcaf02cd	-0.02136364
225	0x3e8a9b11	0.2707143
226	0x3e264985	0.16238983
227	0x3cbbbb61	0.022916498
228	0x3ea2477e	0.3169517
229	0xbf7269e8	-0.9469285
230	0xbeabb1f1	-0.33534196
231	0xbf68245e	-0.9068049
232	0xbf088fb6	-0.53344285
233	0xbc92df89	-0.017928855
234	0xbf2717f6	-0.65270936
235	0xbf675a7a	-0.9037243
236	0x3e01aac4	0.12662798
237	0xc04a6065	-3.1621335
238	0xbf1aa56e	-0.60408676
239	0xbe19082d	-0.14944525
240	0x3e3a1f22	0.18175939
241	0xbedb89ec	-0.42878664
242	0x3e8db68e	0.2767834
243	0x3e63a707	0.22231685
244	0xbcc3ac0c	-0.02388575
245	0xbf2c6820	-0.6734638
246	0x3ad85800	0.0016505718
247	0xbe49b5e5	-0.19698294
248	0x3da79030	0.081817985
249	0xbcc4cebe	-0.024024364
250	0xbf308446	-0.68951833
251	0xbec1fa29	-0.3788617
252	0x3e2efe72	0.1708925
253	0x3f52b4ed	0.8230732
254	0x3ebc47ca	0.3677352
255	0xbf679d22	-0.9047414
