checkpoints/24050400.ckpt (torch, 122663 bytes, 33 tensors)

weight f4 [256, 18]
-0.009402125 0.07450332 0.14076324 -0.101993315 0.09355055 0.16868989 -0.179802 -0.02979691
0.18539077 0.09314891 -0.12751977 -0.21942574 -0.01809973 -0.16583522 -0.20637555 -0.14050998
-0.019579226 0.18076004 0.09582185 -0.05066711 -0.06956143 -0.18666965 -0.18104126 0.1343625
-0.1945604 0.17789805 0.23534264 -0.11804398 0.21648219 -0.056100477 -0.010629028 0.07206662
-0.034508422 -0.058897734 0.011325807 -0.029755276 -0.13913709 -0.02249931 -0.18961397 -0.09386676
-0.08475407 -0.11330194 0.0957754 0.10344456 -0.17674334 0.03657547 -0.08800934 -0.17177524
0.21181636 -0.025144545 -0.08487147 0.10933858 0.16285768 -0.11609916 -0.24404031 0.060435046
0.011602255 0.11342237 0.11162419 0.06954943 0.07759376 0.020105653 0.07955177 -0.06445328
-0.028393557 -0.22103578 0.22399075 -0.14803289 -0.13762955 0.036085505 0.064385004 -0.19406615
0.09598351 -0.19712634 0.01388096 0.21034099 -0.15388869 -0.23711382 0.112926275 -0.184702
-0.08403314 -0.16181155 -0.1522301 -0.12367463 0.098300755 -0.09322215 0.11401344 0.1000464
-0.0065921787 0.1225025 0.19466248 -0.06316275 0.018446643 -0.13112886 -0.23951149 -0.17603494
0.16189359 0.10866735 0.13319826 -0.14638676 -0.09447568 -0.1359791 -0.06339468 0.11907655
0.09145177 -0.037714373 -0.08785066 -0.047961857 0.2905487 -0.1305686 -0.0067072874 0.19733086
0.018564824 0.19089302 -0.13666353 0.063387655 -0.008607888 0.14449862 -0.018771714 0.039353244
0.17778586 0.025758471 -0.11636264 -0.029335393 0.07599526 -0.0073914416 0.1506411 0.053066865
0.09569605 0.10988325 -0.089087404 -0.14887038 0.16323134 0.20438318 0.09589392 0.019179454
-0.20082793 -0.15912147 0.10753089 -0.110894755 0.13915128 0.13341446 -0.24277773 -0.23323606
0.071472116 0.02976596 -0.18351921 0.13134871 0.080427766 0.16663292 0.11673241 0.04335012
-0.06925631 0.22555533 -0.06628436 0.17425351 0.16726556 -0.053206414 -0.042203784 0.027434174
-0.006723644 0.11837021 -0.09088902 -0.18866313 -0.18198967 0.18002751 -0.115765326 -0.16802874
-0.06760177 -0.0061368984 -0.011642944 0.12677063 -0.10354887 -0.10365006 0.13530907 -0.088318564
-0.07500677 -0.1698702 0.07388219 0.09580338 -0.047113586 -0.08037641 -0.19542879 -0.1874253
-0.18345141 -0.09774057 -0.113774545 0.041250437 -0.10615158 -0.21593155 -0.059116732 -0.1582765
-0.15475306 0.15890776 0.018169995 -0.14570858 -0.04395156 0.23471558 0.15255272 0.027107475
0.006458436 0.16339701 0.05186061 0.10951656 0.23605667 0.13050985 0.21135594 0.21924876
0.20991045 0.089626014 -0.1715116 0.12943341 -0.112733215 -0.040892176 0.031186612 0.13658313
0.14988756 0.025448367 0.09531712 0.23312253 0.21180357 0.078589566 0.034832884 -0.16873734
0.16352087 0.10616014 -0.1710032 -0.041694637 -0.05880097 -0.14823541 -0.095279224 0.20310652
0.038553588 0.19228932 0.09767343 0.15676065 0.05058225 0.013031228 0.011386159 0.065411575
-0.0074498355 -0.20777467 0.19376284 -0.09570652 -0.22578321 -0.05238948 0.14940265 0.22053543
-0.053281818 -0.2207366 0.03400423 0.19181356 -0.37970057 0.046065465 0.11021077 0.06356082
00000000: 5f0b 1abc 3295 983d 3d24 103e dfe1 d0bd
00000010: 6e97 bf3d 0bbd 2c3e 041e 38be a618 f4bc
00000020: 14d7 3d3e dbc4 be3d 8b94 02be 24b1 60be
00000030: e345 94bc b5d0 29be 1d54 53be d9e1 0fbe
00000040: 9d64 a0bc 2919 393e 3f3e c43d 5188 4fbd
00000050: 3976 8ebd 5426 3fbe e162 39be 5396 093e
00000060: d73a 47be e82a 363e a9fd 703e 0bc1 f1bd
00000070: 82ad 5d3e 9dc9 65bd 6025 2ebc aa97 933d
00000080: b458 0dbd c03e 71bd e18f 393c 56c1 f3bc
00000090: f479 0ebe 7950 b8bc 2a2a 42be 373d c0bd
000000a0: 8b93 adbd d90a e8bd e525 c43d beda d33d
000000b0: 35fc 34be 29d0 153d 3e3e b4bd d9e5 2fbe
000000c0: 63e6 583e effb cdbc 18d1 adbd e8ec df3d
000000d0: 2ac4 263e 65c5 edbd b4e5 79be bd8a 773d
000000e0: 6217 3e3c fd49 e83d 399b e43d ee6f 8e3d
000000f0: 7ae9 9e3d 9cb4 a43c 0aec a23d 1500 84bd
00000100: 9b99 e8bc 3457 62be d55d 653e ef95 17be
00000110: c3ee 0cbe 65ce 133d 49dc 833d 47b9 46be
00000120: 0193 c43d 7ddb 49be f76c 633c a163 573e
00000130: ff94 1dbe f7cd 72be e445 e73d 8522 3dbe
00000140: 9119 acbd edb1 25be 35e2 1bbe 2049 fdbd
00000150: e851 c93d 41eb bebd e17f e93d 21e5 cc3d
00000160: 3403 d8bb 97e2 fa3d 9a55 473e 795b 81bd
00000170: 6a1d 973c a546 06be 8042 75be 8142 34be
00000180: 6fc7 253e fd8c de3d 2065 083e 69e6 15be
00000190: 777c c1bd 1b3e 0bbe 12d5 81bd 68de f33d
000001a0: 114b bb3d 637a 1abd 0ceb b3bd a773 44bd
000001b0: cdc2 943e c6b3 05be cec8 dbbb 1a11 4a3e
000001c0: 4215 983c 7679 433e 86f1 0bbe 63d1 813d
000001d0: 1908 0dbc 72f7 133e 23c7 99bc de30 213d
000001e0: 7f0d 363e 6e03 d33c 894f eebd c750 f0bc
000001f0: 67a3 9b3d e833 f2bb a941 1a3e a45c 593d
00000200: 4afc c33d 780a e13d 7573 b6bd 7a71 18be
00000210: 1e26 273e d349 513e 0864 c43d 3b1e 9d3c
00000220: d6a5 4dbe bdf0 22be 2839 dc3d ca1c e3bd
00000230: ac7d 0e3e cd9d 083e ba9a 78be 6fd5 6ebe
00000240: f95f 923d bed7 f33c 76ec 3bbe 4780 063e
00000250: 50b7 a43d d2a1 2a3e 6711 ef3d e58f 313d
00000260: 41d6 8dbd faf7 663e 18c0 87bd 836f 323e
00000270: aa47 2b3e f8ee 59bd e0dd 2cbd a2bd e03c
00000280: 0452 dcbb 156c f23d 0624 babd e830 41be
00000290: 805b 3abe 2259 383e 5f16 edbd ba0f 2cbe
000002a0: cc72 8abd 0918 c9bb 0cc2 3ebc 29d0 013e
000002b0: 6e11 d4bd 7c46 d4bd 768e 0a3e 5de0 b4bd
000002c0: 269d 99bd 74f2 2dbe 8c4f 973d 9034 c43d
000002d0: 2dfa 40bd 639c a4bd 7c1e 48be 6bec 3fbe
000002e0: b0da 3bbe 352c c8bd a102 e9bd 38f6 283d
000002f0: 0066 d9bd 291d 5dbe 6324 72bd 3c13 22be
00000300: 9677 1ebe b7b8 223e 3ed9 943c a134 15be
00000310: 8d06 34bd 4859 703e c836 1c3e 7f10 de3c
00000320: 4aa1 d33b 8c51 273e ca6b 543d 384a e03d
00000330: d7b8 713e 60a4 053e b16d 583e bf82 603e
00000340: c4f2 563e d88d b73d bda0 2fbe 318a 043e
00000350: ace0 e6bd 8e7e 27bd 117b ff3c 73dc 0b3e
00000360: 207c 193e 1879 d03c 9f35 c33d acb7 6e3e
00000370: 09e3 583e 91f3 a03d edac 0e3d 7bc9 2cbe
00000380: 0472 273e 7d6a d93d 761b 2fbe ffc7 2abd
00000390: 49d9 70bd 06cb 17be c121 c3bd 28fb 4f3e
000003a0: 5eea 1d3d 7ee7 443e 0209 c83d dd85 203e
000003b0: 552f 4f3d ef80 553c 038d 3a3c 81f6 853d
000003c0: c01d f4bb e2c2 54be c469 463e c801 c4bd
000003d0: b733 67be 5a96 56bd 02fd 183e 0ad4 613e
000003e0: 093e 5abd c608 62be 0548 0b3d c66a 443e
000003f0: 1d68 c2be 24af 3c3d 2fb6 e13d 2d2c 823d

bias f4 [256]
0.19572873 0.22332634 -0.01986114 -0.1684021 -0.18393628 0.1044053 0.10717756 -0.1769955
-0.08582423 -0.16089387 0.08638193 -0.007725148 0.15009306 -0.0075616715 -0.2391049 0.21142799
-0.1428151 0.20047852 -0.14231588 0.020659285 0.045726262 -0.038494 0.14134718 -0.18067008
-0.19123487 -0.0043420913 0.124717265 -0.042509016 -0.14035335 -0.1380468 0.10714668 -0.087577224
-0.12990691 0.13078114 0.11735655 0.18015228 0.12940829 -0.09993821 0.05076594 -0.08440491
-0.016154012 -0.10644592 -0.15835103 0.2058613 0.14359465 -0.07033426 0.061262663 0.07190001
0.23804165 0.17383476 0.08007307 -0.16196568 0.09922968 -0.045035988 -0.21076712 -0.16174419
-0.08555713 -0.14630651 -0.13231595 -0.2074522 -0.11065719 0.17576325 0.004096391 0.14951433
-0.08929986 0.050318774 -0.012126669 0.14804092 0.21998379 0.055735376 0.16127898 -0.14176162
-0.11255146 -0.0093056895 0.1850116 0.10832654 0.18578205 -0.15990189 0.047121514 -0.14757681
-0.023310404 0.009039366 -0.17819464 0.06422946 -0.14469329 -0.022403933 0.036250435 -0.1156863
-0.031386875 -0.049012225 0.2858077 0.24630564 0.2001651 -0.04588682 -0.08670675 -0.0017960884
-0.06575518 -0.012774403 -0.11457743 0.0015455914 0.23402654 -0.082231075 -0.07945054 0.027125588
-0.077063136 -0.06338113 -0.023039779 -0.2703365 0.04806038 0.20834024 -0.048606586 0.18091236
-0.033334643 -0.20158713 0.15928005 -0.06383736 -0.058670826 -0.22472322 0.047583867 -0.1048398
-0.16658889 -0.094937295 -0.17111546 -0.06431497 -0.09586444 -0.045398574 0.14180347 -0.17081873
-0.1809748 0.20072237 -0.05071802 0.05297891 -0.043001495 -0.05744112 -0.13707389 -0.17823452
-0.22806065 -0.07404293 0.051973928 -0.17050666 0.030451514 0.22751892 -0.15266012 -0.25098893
-0.007307076 0.16166422 -0.20455353 0.20053224 -0.15012191 -0.09340993 -0.00045174133 0.060001165
-0.17850879 0.17077012 -0.2212054 -0.07322312 -0.023001896 0.003254891 -0.18353814 0.049406264
-0.1346405 -0.035599507 0.012264282 -0.16727774 -0.030185446 -0.14521353 -0.14316116 -0.1479849
-0.064184576 -0.2171469 -0.21110897 -0.028038666 0.20260233 0.18209209 0.21831043 -0.16543691
0.120179616 -0.14186844 -0.038728822 -0.19667919 -0.022531098 0.15469018 0.039793793 0.07150123
0.050275058 0.15385492 0.109407954 -0.18993501 -0.08717632 0.124545574 -0.21203642 -0.13239059
-0.26903176 -0.17532632 0.010168634 0.18678384 0.07072534 0.13436505 0.11391314 -0.15786071
0.106671266 0.06024862 0.18451259 -0.17247866 -0.16875876 -0.10719697 -0.07222246 0.22496854
-0.10608903 0.0058062235 0.09855956 -0.21826783 0.025515798 -0.06382686 0.108604 -0.028715774
-0.2742606 0.15158653 -0.023642344 0.0568647 0.17322189 -0.086253434 0.059359204 -0.1751038
-0.057150707 0.0003543867 0.17910758 0.03187363 -0.0039988095 -0.09994912 0.083610356 0.05461839
-0.2251495 0.041285887 0.018522931 0.15057264 -0.0047486345 -0.12123245 -0.14074959 -0.11982607
0.033897936 0.13076058 0.01501945 -0.0058181155 0.12398139 -0.09194025 0.18361582 -0.13981046
-0.16205458 0.13877611 -0.22718944 -0.13446873 -0.1673375 -0.074384965 -0.031266738 -0.22698452
00000000: 1d6d 483e a9af 643e d4b3 a2bc 9a71 2cbe
00000010: cb59 3cbe 72d2 d53d e97f db3d 4f3e 35be
00000020: 9dc4 afbd 5dc1 24be 02e9 b03d 3d23 fdbb
00000030: ffb1 193e e6c7 f7bb ead7 74be 9480 583e
00000040: 1f3e 12be 3e4a 4d3e 41bb 11be a93d a93c
00000050: 764b 3b3d e2ab 1dbd 51bd 103e 9401 39be
00000060: 13d3 43be 1a48 8ebb c46b ff3d ef1d 2ebd
00000070: cab8 0fbe 245c 0dbe b86f db3d b05b b3bd
00000080: 5106 05be 7eeb 053e a258 f03d d779 383e
00000090: 9b83 043e 67ac ccbd f2ef 4f3d 7bdc acbd
000000a0: 6b55 84bc 5200 dabd c626 22be 4ecd 523e
000000b0: 7a0a 133e 690b 90bd 8fee 7a3d 5040 933d
000000c0: 31c1 733e bd01 323e 5afd a33d 55da 25be
000000d0: ee38 cb3d a877 38bd 56d3 57be 45a0 25be
000000e0: 9438 afbd 60d1 15be d57d 07be 596e 54be
000000f0: 3da0 e2bd 48fb 333e 053b 863b 491a 193e
00000100: d8e2 b6bd 0f1b 4e3d f0ae 46bc 0a98 173e
00000110: 6e43 613e c74a 643d 5126 253e f529 11be
00000120: 6181 e6bd e476 18bc ae73 3d3e 4eda dd3d
00000130: a63d 3e3e 52bd 23be 7d02 413d 601e 17be
00000140: 76f5 bebc d919 143c a878 36be bc8a 833d
00000150: 7a2a 14be 7488 b7bc 567b 143d f0ec ecbd
00000160: 868f 00bd 0bc1 48bd 6355 923e 8c37 7c3e
00000170: 14f8 4c3e d1f3 3bbd 4f93 b1bd ba6a ebba
00000180: a7aa 86bd bb4b 51bc 92a7 eabd 7195 ca3a
00000190: a7a4 6f3e c468 a8bd f7b6 a2bd 7b36 de3c
000001a0: 47d3 9dbd f7cd 81bd ebbd bcbc 8c69 8abe
000001b0: f6da 443d 2557 553e b317 47bd 1741 393e
000001c0: e889 08bd db6c 4ebe 4f1a 233e 29bd 82bd
000001d0: d250 70bd d81d 66be 4de7 423d 40b6 d6bd
000001e0: 4796 2abe 7c6e c2bd e438 2fbe 91b7 83bd
000001f0: 9354 c4bd dbf3 39bd ee34 113e 1beb 2ebe
00000200: 7551 39be 2a8a 4d3e b3bd 4fbd 6a00 593d
00000210: 5622 30bd 6147 6bbd 195d 0cbe 1c83 36be
00000220: bb88 69be d2a3 97bd 9de2 543d 4c99 2ebe
00000230: 7475 f93c b8fa 683e ef52 1cbe 9f81 80be
00000240: 3270 efbb 4e8b 253e 7b76 51be 5358 4d3e
00000250: 8fb9 19be b54d bfbd b2d7 ecb9 c8c3 753d
00000260: 02cb 36be 5dde 2e3e ab83 62be 01f6 95bd
00000270: 796e bcbc 0250 553b 6cf1 3bbe 395e 4a3d
00000280: 33df 09be cad0 11bd 21f0 483c db4a 2bbe
00000290: 7847 f7bc dbb2 14be d798 12be 5b89 17be
000002a0: 3473 83bd c25b 5ebe f32c 58be 58b1 e5bc
000002b0: fc76 4f3e 5976 3a3e c58c 5f3e 4b68 29be
000002c0: bb20 f63d f645 11be 1da2 1ebd 4566 49be
000002d0: 2393 b8bc 1a67 1e3e d1fe 223d 3d6f 923d
000002e0: 38ed 4d3d 258c 1d3e 4711 e03d 537e 42be
000002f0: 8089 b2bd c011 ff3d 1320 59be 6691 07be
00000300: 88be 89be be88 33be 589a 263c 4344 3f3e
00000310: 72d8 903d fe96 093e 4b4b e93d 3da6 21be
00000320: 7776 da3d 42c7 763d def0 3c3e 3f9e 30be
00000330: 19cf 2cbe 168a dbbd 5ee9 93bd 275e 663e
00000340: 3545 d9bd 2242 be3b 98d9 c93d 9a81 5fbe
00000350: 8206 d13c a8b7 82bd c66b de3d 583d ebbc
00000360: e36b 8cbe 8039 1b3e 97ad c1bc f6ea 683d
00000370: 1461 313e a4a5 b0bd a322 733d 694e 33be
00000380: dc16 6abd facc b939 fa67 373e ec8d 023d
00000390: 7208 83bb 20b2 ccbd e83b ab3d 88b7 5f3d
000003a0: 978d 66be 641b 293d 67bd 973c b72f 1a3e
000003b0: 6f9a 9bbb b848 f8bd a920 10be 5f67 f5bd
000003c0: 90d8 0a3d 1ae6 053e 2414 763c e4a5 bebb
000003d0: f4e9 fd3d 2b4b bcbd c905 3c3e 792a 0fbe
000003e0: a3f1 25be 531b 0e3e 59a4 68be 2cb2 09be
000003f0: 865a 2bbe 2557 98bd 8d11 00bd a16e 68be

weight f4 [1, 256]
-0.025337666 -0.005242663 0.039570108 0.08347656 0.008179949 -0.018405775 -0.086673655 -0.02169521
0.035820317 0.001561248 -0.021813773 -0.049821418 0.0027008583 -0.10004476 0.052987535 -0.080935255
-0.07166558 -0.08126095 -0.022250177 -0.03113709 0.027307909 0.07649303 0.024609381 0.015743276
0.10364534 -0.06414428 0.09033098 -0.077773355 0.007642894 -0.05494446 0.0073926756 0.021646367
0.06869899 -0.061636742 -0.013237925 0.017749278 0.013406708 -0.008388202 -0.100437015 0.05885608
0.00066459493 0.078747205 0.02228757 -0.05753085 0.04528851 0.04680034 0.025361182 -0.003778849
-0.039259613 -0.039664567 -0.033941824 -0.056619722 -0.0035553724 -0.10542114 -0.0019057086 0.080468416
-0.046903554 0.021581713 1.1556e-05 0.009054747 0.022683866 -0.1296966 -0.06173807 0.0080516795
-0.041583285 -0.05058834 -0.040435165 -0.00066571526 -0.09594037 -0.009808625 0.06312711 -0.0048645963
0.016665336 0.005403045 0.09798178 -0.06913002 -0.016932953 -0.04201763 0.022671571 -0.017003734
-0.03550447 -0.0443593 0.040609125 -0.1023293 0.014650338 -0.077424236 0.0074000764 0.08388525
0.020832768 0.021433186 -0.08438241 -0.072471105 -0.06648397 0.05734562 -0.07511861 -0.0613985
-0.048113756 -0.1379774 0.023750454 -0.058863245 -0.036360733 0.049271874 -0.024302006 -0.031222053
0.03655648 0.011210369 0.018229086 0.10869816 0.06483939 -0.079786144 -0.0075564315 0.0038270818
0.04122682 0.01750615 -0.02283607 0.07235957 0.023991676 0.058555584 -0.03400915 0.03766296
0.028434735 0.04068325 0.032964714 0.05892826 0.060562056 0.010833494 -0.0796112 0.058371656
0.08173893 0.029777538 0.039202824 -0.02450003 0.019747298 -0.00029078292 0.019579973 0.06093587
-0.00021765065 0.024580987 -0.05551598 0.080784045 0.0034313619 -0.03900932 0.1398331 0.11238381
-0.0030594147 0.005538192 0.066704795 -0.09074558 -0.047826704 0.052477974 -0.006273639 -0.042917315
-0.009180729 -0.0023758793 0.054320645 0.04466494 0.0029071243 0.02107695 0.04391515 0.022511248
0.034655094 -0.02937296 0.027067646 0.051210172 0.016411642 0.07399909 0.12124078 -0.041733086
0.021868546 0.030325223 0.018911773 0.058326162 -0.10424698 0.102489725 -0.114435315 -0.021685977
0.053765833 0.034817316 -0.0433531 0.03519052 0.039341424 -0.009996339 0.014856626 0.03603313
-0.11487776 0.01724683 -0.01573887 -0.021016631 0.04791772 0.00022713069 0.021729615 0.010185873
0.101405285 -0.046198335 0.0251193 -0.06494659 0.018447062 0.047396317 -0.014129428 0.08870002
-0.034704123 -0.0066568884 -0.011314652 0.026071832 -0.005960184 -0.030045025 0.014170645 0.029672658
0.09228307 -0.030567907 0.07402519 0.06682511 -0.036394265 -0.07200756 0.0042910776 0.003468127
0.037677106 -0.026497403 0.039514698 -0.015483007 -0.03662297 0.06161193 0.0032723865 -0.031181447
-0.02826438 -0.00034075568 -0.0835223 0.038079754 0.082097545 -0.006948134 0.07122547 -0.057844054
0.011994752 0.06603907 0.06578742 -0.050342523 0.062477145 0.03411944 -0.069102496 -0.003978137
0.0005091671 -0.016000003 -0.008353244 0.027800199 -0.08996276 0.029389791 0.03441062 0.034170352
-0.051121004 -0.035265226 0.10812158 0.12037166 0.031741586 -0.032647084 0.014006623 0.01540712
00000000: f090 cfbc a5ca abbb 4414 223d c2f5 aa3d
00000010: 3105 063c b5c7 96bc f581 b1bd 27ba b1bc
00000020: 53b8 123d caa2 cc3a ccb2 b2bc 8b11 4cbd
00000030: e200 313b 44e4 ccbd 7509 593d 62c1 a5bd
00000040: 67c5 92bd 246c a6bd 0146 b6bc 3613 ffbc
00000050: d6b4 df3c 61a8 9c3d 9d99 c93c 0bf8 803c
00000060: 0244 d43d 145e 83bd 73ff b83d a347 9fbd
00000070: 3e71 fa3b 710d 61bd 423e f23b b953 b13c
00000080: 0eb2 8c3d cf76 7cbd e2e3 58bc ef66 913c
00000090: cfa7 5b3c ab6e 09bc ecb1 cdbd 1313 713d
000000a0: 3638 2e3a 3746 a13d 6c94 b63c 78a5 6bbd
000000b0: 7280 393d b7b1 3f3d 41c2 cf3c 91a6 77bb
000000c0: b0ce 20bd 5077 22bd 9506 0bbd 15ea 67bd
000000d0: 4001 69bb 0ae7 d7bd f8c8 f9ba a0cc a43d
000000e0: f11d 40bd 22cc b03c a4e0 4137 5d5a 143c
000000f0: 84d3 b93c 2fcf 04be 0fe1 7cbd 31eb 033c
00000100: 3c53 2abd b835 4fbd 589f 25bd 6583 2eba
00000110: 627c c4bd 5bb4 20bc c948 813d 3167 9fbb
00000120: be85 883c 070c b13b acaa c83d 0a94 8dbd
00000130: fab6 8abc ae1a 2cbd bbb9 b93c 6a4b 8bbc
00000140: 236d 11bd 19b2 35bd c155 263d 0692 d1bd
00000150: f907 703c 9990 9ebd 577c f23b 08cc ab3d
00000160: 7ba9 aa3c a694 af3c afd0 acbd bb6b 94bd
00000170: bf28 88bd 3ee3 6a3d c9d7 99bd fe7c 7bbd
00000180: ee12 45bd f349 0dbe 5090 c23c 961a 71bd
00000190: feee 14bd 4ed1 493d 0015 c7bc 64c5 ffbc
000001a0: 3fbc 153d b2ab 373c 2a55 953c 249d de3d
000001b0: 84ca 843d eb66 a3bd f19b f7bb c7cf 7a3b
000001c0: 74dd 283d 0f69 8f3c b612 bbbc 4131 943d
000001d0: 318a c43c fbd7 6f3d 2e4d 0bbd 7a44 1a3d
000001e0: f6ef e83c 7ba3 263d 0206 073d c25e 713d
000001f0: eb0f 783d f87e 313c 320b a3bd 1e17 6f3d
00000200: bd66 a73d 06f0 f33c 2493 203d 49b4 c8bc
00000210: 16c5 a13c 3974 98b9 2e66 a03c e497 793d
00000220: 2739 64b9 115e c93c b964 63bd 1b72 a53d
00000230: b3e0 603b 3dc8 1fbd 6830 0f3e 7c29 e63d
00000240: 7680 48bb b979 b53b 869c 883d d2d8 b9bd
00000250: efe5 43bd 25f3 563d 1993 cdbb 11ca 2fbd
00000260: c56a 16bc a4b4 1bbb 537f 5e3d 96f2 363d
00000270: 7485 3e3b 91a9 ac3c 5fe0 333d 8269 b83c
00000280: 80f2 0d3d 909f f0bc f8bc dd3c c2c1 513d
00000290: b571 863c d68c 973d 164d f83d 50f0 2abd
000002a0: aa25 b33c 9a6c f83c ddec 9a3c 6ae7 6e3d
000002b0: 717f d5bd 22e6 d13d 105d eabd caa6 b1bc
000002c0: 9039 5c3d 9a9c 0e3d 0593 31bd ef23 103d
000002d0: 7924 213d afc7 23bc 3569 733c 7a97 133d
000002e0: 0845 ebbd 3949 8d3c cdee 80bc 122b acbc
000002f0: 5f45 443d ee29 6e39 4e02 b23c a6e2 263c
00000300: 93ad cf3d 773a 3dbd fdc6 cd3c b802 85bd
00000310: 4b1e 973c a422 423d 1e7f 67bc 5ba8 b53d
00000320: e925 0ebd 0722 dabb 1761 39bc 9894 d53c
00000330: a64d c3bb fc20 f6bc fe2b 683c 1314 f33c
00000340: e8fe bc3d 8c69 fabc 859a 973d 9adb 883d
00000350: 2712 15bd b378 93bd 2b9c 8c3b 8449 633b
00000360: 4f53 1a3d 1511 d9bc 2ada 213d 70ac 7dbc
00000370: f801 16bd cb5c 7c3d 8975 563b 3c70 ffbc
00000380: b38a e7bc 74a7 b2b9 bd0d abbd 84f9 1b3d
00000390: c222 a83d 2cad e3bb a9de 913d e3ed 6cbd
000003a0: a385 443c 7e3f 873d 8ebb 863d f633 4ebd
000003b0: 09e8 7f3d d3c0 0b3d 9c85 8dbd 085b 82bb
000003c0: a079 053a 7012 83bc 0bdc 08bc 3ebd e33c
000003d0: 653e b8bd dcc2 f03c 26f2 0c3d 36f6 0b3d
000003e0: 4264 51bd 4572 10bd d96e dd3d 6b85 f63d
000003f0: 7703 023d f3b8 05bd 097c 653c 256e 7c3c

weight f4 [256, 1]
-0.91021234 0.12464696 -0.629435 0.41295996 0.11535424 -0.4390073 -0.88249385 0.1382624
0.34274855 -0.9923662 0.17596574 0.22108316 0.23614821 -0.5309181 -0.4886502 0.38592133
-0.21717378 -0.11605929 -0.5264672 0.7365959 -0.010936445 0.9778946 0.92715955 -0.58144355
-0.5914235 0.75834614 0.5466381 0.8423456 0.52514356 -0.26318347 -0.7118565 -0.8085462
-0.060204975 -0.8671708 -0.027409434 0.80324817 -0.63870156 -0.79629064 -1.1365008 0.53915346
0.008693883 0.13899994 0.8256307 0.8214079 0.035220742 0.645585 0.45905852 0.695739
-0.04232311 -0.022809256 -0.07119596 -0.33384526 0.12005127 -0.6779095 0.7044047 0.40071476
-1.0638024 0.39489254 -0.06536091 0.39340127 -0.7895368 0.27624545 -0.70804715 -0.15877303
0.20302786 1.0000973 -0.8036686 0.20297243 1.010254 -0.41190985 -0.69462967 -0.083301544
0.22647364 -0.7565917 0.7268095 0.25133407 0.5962605 -0.14363813 0.4150865 -1.3141538
0.80217147 0.4503111 0.42002237 0.6651627 -0.06723583 0.643783 -0.14724955 -0.061957
0.37141666 -0.49920273 0.7077647 0.48478225 -0.9559399 0.27741605 -0.67134666 0.6902529
0.14132865 -0.9413624 -0.9890468 0.6166812 -0.3543929 0.83616346 0.18646425 0.40672705
-0.098278165 -0.54717946 0.3496019 0.58993506 0.4779963 -0.3017731 -0.06429362 0.32080796
-0.32970488 -0.7282775 0.25088853 0.10451129 -0.622869 -0.2353127 0.9130848 -0.31606838
-0.4756322 0.17294142 0.10679904 -0.5629178 0.22291078 0.054721594 -0.16494107 0.5983485
-0.4710981 -0.12475451 -0.25465262 -0.75524604 0.39232618 -0.5499065 0.4915384 -0.6547642
-0.80589896 0.008733869 -1.2508144 0.22580822 0.16880502 0.6820832 0.3434629 0.09100175
0.016091922 0.04379785 0.20540982 0.9299132 0.6442662 -0.39919353 -0.307706 -0.8165763
-0.45740485 0.4137666 0.8632257 0.0055642556 -0.98544776 0.11206912 -0.5162945 -0.7931812
-0.21444057 0.37050655 -0.9481231 0.36132607 -0.27346432 0.44518563 0.79432577 0.70872027
0.01992178 0.55451053 -0.72528094 -0.14284286 -0.54423624 -0.3544242 0.121695705 0.96458393
-0.84667563 -0.55390555 0.037113942 -0.5361516 -0.40403187 -0.50373495 0.96710056 -0.8020384
-0.73595285 -0.8224515 -0.72689617 0.8395683 -0.6960443 -0.075341955 -0.19354475 -0.88552225
-0.79122055 0.437286 0.75343084 0.09837376 -0.40927443 0.9528694 0.6414729 0.43769974
-0.83935255 -0.55538166 -0.75474876 0.32032338 0.44311148 -0.49084902 0.11762549 0.90133023
0.7873687 0.9121709 0.7131945 -0.009012275 0.47627443 -0.17137575 -0.97836196 0.9023882
0.19718383 -0.124449015 0.4809593 0.9521043 0.48101684 -0.58908445 0.7328659 -0.13051254
0.2414138 -0.57979834 0.42884535 -0.2555325 0.032525826 -0.10579906 0.4559415 -0.34537455
-0.42685872 -0.7929504 0.64604974 0.5556305 -0.49690893 0.8574262 0.10916401 -0.11148465
-1.0335823 0.07839445 -0.10128021 -0.102298155 -0.5351268 -1.0877386 -0.09365847 -0.39651725
-0.9528548 -1.0225518 -1.2095697 0.93336856 0.007841918 -0.1991611 -0.9882752 0.38118854
00000000: ad03 69bf e846 ff3d a722 21bf 7d6f d33e
00000010: d83e ec3d 91c5 e0be 1eeb 61bf a994 0d3e
00000020: bd7c af3e b60b 7ebf 5d30 343e a063 623e
00000030: d6d0 713e 40ea 07bf 5c30 fabe 7b97 c53e
00000040: ce62 5ebe 7eb0 edbd 8ec6 06bf 8d91 3c3f
00000050: c62e 33bc 4d57 7a3f 545a 6d3f 7cd9 14bf
00000060: 8867 17bf f922 423f 79f0 0b3f f6a3 573f
00000070: cf6f 063f fcbf 86be 3a3c 36bf e2fc 4ebf
00000080: 7e99 76bd e8fe 5dbf c089 e0bc aca1 4d3f
00000090: f281 23bf b4d9 4bbf dc78 91bf f605 0a3f
000000a0: ca70 0e3c 0056 0e3e 895c 533f ca47 523f
000000b0: a043 103d 0f45 253f b809 eb3e f31b 323f
000000c0: ff5a 2dbd 7ada babc 30cf 91bd c4ed aabe
000000d0: 71dd f53d 7a8b 2dbf de53 343f 7c2a cd3e
000000e0: ad2a 88bf 5b2f ca3e f1db 85bd e46b c93e
000000f0: 151f 4abf 0b70 8d3e 9442 35bf 6695 22be
00000100: 89e6 4f3e 3003 803f 3abd 4dbf 01d8 4f3e
00000110: 0150 813f d9e5 d2be 40d3 31bf 009a aabd
00000120: b5e8 673e feaf 41bf 3010 3a3f dcae 803e
00000130: 87a4 183f e015 13be 3886 d43e 3136 a8bf
00000140: 1c5b 4d3f 2d8f e63e 2c0d d73e 1a48 2a3f
00000150: f0b2 89bd f6ce 243f 96c8 16be a0c6 7dbd
00000160: 532a be3e 8097 ffbe 1130 353f 6135 f83e
00000170: 7ab8 74bf 7a09 8e3e 60dd 2bbf 6ab4 303f
00000180: 75b8 103e 20fd 70bf 2c32 7dbf d2de 1d3f
00000190: fc72 b5be cf0e 563f 7cf0 3e3e 873e d03e
000001a0: 1046 c9bd f413 0cbf 05ff b23e fc05 173f
000001b0: eebb f43e 0182 9abe 60ac 83bd f140 a43e
000001c0: 14cf a8be 6570 3abf 7674 803e 040a d63d
000001d0: 5874 1fbf d0f5 70be edbf 693f b7d3 a1be
000001e0: 1086 f3be 8e17 313e 75b9 da3d 621b 10bf
000001f0: b942 643e c023 603d 50e6 28be 5e2d 193f
00000200: c533 f1be 4b7f ffbd d461 82be ce57 41bf
00000210: fade c83e acc6 0cbf ecaa fb3e a09e 27bf
00000220: 654f 4ebf 8018 0f3c b01a a0bf 453a 673e
00000230: 39db 2c3e 019d 2e3f 5fda af3e 205f ba3d
00000240: 35d3 833c 6065 333d f456 523e cb0e 6e3f
00000250: a1ee 243f 1863 ccbe a48b 9dbe 250b 51bf
00000260: f830 eabe 37d9 d33e 5cfc 5c3f 5c54 b63b
00000270: 4e46 7cbf 7f84 e53d e02b 04bf ec0d 4bbf
00000280: 4f96 5bbe 09b3 bd3e 32b8 72bf bbff b83e
00000290: 8403 8cbe 5fef e33e ef58 4b3f b16e 353f
000002a0: 0033 a33c 67f4 0d3f 03ac 39bf 6645 12be
000002b0: 1153 0bbf 1777 b5be 993b f93d f9ee 763f
000002c0: bcbf 58bf c1cc 0dbf ca04 183d 3b41 09bf
000002d0: 44dd cebe c6f4 00bf e793 773f 6352 4dbf
000002e0: 6867 3cbf 2e8c 52bf de15 3abf f3ed 563f
000002f0: f62f 32bf e24c 9abd 9830 46be 96b1 62bf
00000300: 6e8d 4abf f3e3 df3e d8e0 403f 2f78 c93d
00000310: 6b8c d1be 40ef 733f 9137 243f 2e1a e03e
00000320: cfdf 56bf 7e2d 0ebf 3737 41bf 6d01 a43e
00000330: 82df e23e 9050 fbbe a2e5 f03d 94bd 663f
00000340: ff90 493f 0884 693f ea93 363f 39a8 13bc
00000350: 3eda f33e 207d 2fbe ee75 7abf ea02 673f
00000360: 8fea 493e 20df febd 4c40 f63e 1bbd 733f
00000370: d747 f63e 3dce 16bf 1a9d 3b3f 14a5 05be
00000380: 2e35 773e aa6d 14bf 9e91 db3e 28d5 82be
00000390: cd39 053d 2dad d8bd 2a71 e93e efd4 b0be
000003a0: 3a8d dabe ccfe 4abf 8463 253f cd3d 0e3f
000003b0: d96a febe 4980 5b3f 6191 df3d 1052 e4bd
000003c0: 6d4c 84bf 458d a03d 006c cfbd b281 d1bd
000003d0: 12fe 08bf 053b 8bbf 03d0 bfbd 4f04 cbbe
000003e0: 4bee 73bf fae2 82bf 2ed3 9abf 3ef1 6e3f
000003f0: 637b 003c e3f0 4bbe 9aff 7cbf 252b c33e

bias f4 [256]
0.72461355 0.047045298 0.23833388 -0.44481665 0.5102795 1.0380027 -0.9598646 0.5399886
-0.36945948 -0.30927002 0.12791881 0.6220214 0.67051023 -0.93368506 0.13643053 -0.9195266
0.5181909 0.89882624 0.4274017 0.5425613 0.435615 0.2363876 -0.31553176 -0.32318282
-0.27280927 0.8139554 0.9001191 -0.41508394 -0.3853549 0.7031023 -0.7110208 -0.2810557
0.14555943 -0.10271335 -0.2506311 0.9189793 0.44262895 0.43182766 0.91580933 -0.5285187
0.23333436 0.8794685 -0.6213505 -0.9245718 -0.19244063 -0.49876854 0.24792013 -0.6950564
0.10284431 0.47379628 -0.48180437 -0.014434934 -0.49580458 -0.8494384 0.23618817 -0.9525906
0.56128484 0.7040712 0.3531136 0.82513154 0.7348473 -0.00019975645 0.13354294 0.38155958
0.08742554 -0.23494954 -0.7815521 0.06995038 -0.86158097 0.2354761 0.18322065 -0.3710004
-0.54336816 -0.031291723 0.8488575 -0.15579681 0.72434336 -0.5737661 0.49873647 0.6115377
0.90901715 0.0035259388 0.34670287 0.8534839 -0.042993784 0.3274772 0.9198612 -0.34974706
-0.0322257 -0.15696049 0.044926595 0.855667 -0.6834388 -0.66474354 -0.12288189 0.72327614
0.32143638 -0.113254786 0.58146554 0.5784807 -0.019175053 -0.76463836 0.35249737 -0.96487653
-0.72651863 -0.4746523 0.68665063 -0.57182235 -0.5086732 0.9762604 -0.9711524 -0.32438937
-0.66950727 0.3533969 0.70000374 0.44927952 -0.31765282 -0.36340404 0.010477615 0.7524145
-0.02373588 -0.41659573 0.5415966 -0.46009862 0.6172253 -0.30199683 -0.37762952 1.0066105
0.118811704 0.9369437 -0.24520493 -0.65592194 0.2656589 0.6377616 0.3459923 -0.73248744
0.17646019 -0.4091301 0.312262 0.5915155 0.020366576 -0.11012935 0.1763762 -0.820415
0.0141006075 -0.8529042 -0.4943084 -0.9585638 0.8829441 -0.97413385 -0.37826943 0.34660932
-0.32321763 -0.44142094 0.7835534 0.62930876 -0.20616579 0.33273384 -0.3886026 -0.8550558
0.5132641 -0.40066507 -0.55642796 0.19678691 -0.055908203 -0.47776997 0.059307236 -0.18438292
0.97529656 0.7679494 0.20999356 0.3432038 0.44568452 0.8399186 0.43854788 -0.3614578
0.26143342 0.43110082 0.6710091 0.08204872 -0.3051734 -0.23957348 -0.9426662 0.7187224
-0.19012296 -0.6425829 -0.054701924 -0.9143632 -0.012390256 0.0018951433 -0.6054094 -0.3087784
-0.83739805 0.7934274 0.49212345 0.5228662 0.2759984 -0.69218844 0.33156267 0.90091354
0.5257769 -0.2724595 0.5118458 0.1947336 0.0045132455 -0.24209905 0.38531247 -0.8715087
0.4996966 0.8735459 0.22265275 0.41387296 0.0037045828 -0.24109292 -0.043887973 -0.6457112
0.9573144 -0.92725945 0.118599996 0.074466094 -0.4839885 0.14448304 -0.7556452 0.31547642
0.6380044 -0.1836592 0.040972594 -0.9291699 0.52882874 0.2550205 0.7923024 0.8204683
0.020842278 -0.56427395 -0.06984375 -0.6545946 0.32151747 0.06492998 0.0007966101 -0.104323626
0.7888789 0.81230396 -0.8651639 0.24752796 -0.59995306 0.8753617 0.3947921 0.93698275
-0.0015099393 0.935918 0.9971028 0.24409084 0.85805964 0.18846399 0.82340896 0.4296341
00000000: 4680 393f 92b2 403d cc0d 743e 02bf e3be
00000010: ada1 023f 46dd 843f b0b9 75bf b13c 0a3f
00000020: cb29 bdbe a458 9ebe 26fd 023e cb3c 1f3f
00000030: 8fa6 2b3f fc05 6fbf 72b4 0b3e 1866 6bbf
00000040: 29a8 043f 7a19 663f 65d4 da3e 4ce5 0a3f
00000050: ee08 df3e 970f 723e 618d a1be 3878 a5be
00000060: a8ad 8bbe 625f 503f 356e 663f e285 d4be
00000070: 3d4d c5be 83fe 333f 7605 36bf 88e6 8fbe
00000080: 880d 153e 605b d2bd b852 80be 3a42 6b3f
00000090: 43a0 e23e 8418 dd3e 7b72 6a3f 004d 07bf
000000a0: 34ef 6e3e d924 613f d410 1fbf bdb0 6cbf
000000b0: 280f 45be 975e ffbe c6de 7d3e 37ef 31bf
000000c0: 0aa0 d23d 6d95 f23e 10af f6be 8080 6cbc
000000d0: 19da fdbe cc74 59bf 50db 713e fadc 73bf
000000e0: 5db0 0f3f 033e 343f 4ecb b43e d23b 533f
000000f0: f41e 3c3f b775 51b9 7bbf 083e c75b c33e
00000100: 290c b33d 9d96 70be cc13 48bf 2542 8f3d
00000110: 9290 5cbf a620 713e 329e 3b3e c4f3 bdbe
00000120: 2d1a 0bbf c02b 00bd ba4e 593f 3389 1fbe
00000130: 916e 393f 56e2 12bf 635a ff3e bc8d 1c3f
00000140: 59b5 683f 7013 673b 0a83 b13e ec7d 5a3f
00000150: 401a 30bd 17ab a73e 067c 6b3f 0c12 b3be
00000160: 18ff 03bd 40ba 20be f304 383d fe0c 5b3f
00000170: d8f5 2ebf a22c 2abf 80a9 fbbd a028 393f
00000180: 4f93 a43e 20f2 e7bd edda 143f 5017 143f
00000190: 0015 9dbc 57bf 43bf 897a b43e 2602 77bf
000001a0: 20fd 39bf a005 f3be 56c8 2f3f f362 12bf
000001b0: 6838 02bf 34ec 793f 729d 78bf 5d16 a6be
000001c0: d464 2bbf 70f0 b43e 7233 333f f707 e63e
000001d0: 64a3 a2be 1810 babe 4daa 2b3c 3d9e 403f
000001e0: c071 c2bc 094c d5be 13a6 0a3f 0c92 ebbe
000001f0: 7a02 1e3f 549f 9abe a858 c1be 9dd8 803f
00000200: 8d53 f33d 8bdb 6f3f 0017 7bbe 80ea 27bf
00000210: 7104 883e 5844 233f e725 b13e 4c84 3bbf
00000220: fbb1 343e 8079 d1be cee0 9f3e 8f6d 173f
00000230: ced7 a63c 7f8b e1bd f69b 343e b806 52bf
00000240: 3c06 673c ee57 5abf fe15 fdbe 7064 75bf
00000250: a008 623f d660 79bf 88ac c1be c776 b13e
00000260: c87c a5be ed01 e2be f596 483f 611a 213f
00000270: 201d 53be 175c aa3e ecf6 c6be f0e4 5abf
00000280: 4765 033f f923 cdbe 1072 0ebf 8282 493e
00000290: 0000 65bd 449e f4be 25ec 723d e0ce 3cbe
000002a0: 09ad 793f 5598 443f 8d08 573e 69b8 af3e
000002b0: c330 e43e e804 573f 5989 e03e ff10 b9be
000002c0: 9ada 853e 3fb9 dc3e 41c7 2b3f 2909 a83d
000002d0: b03f 9cbe c052 75be 9252 71bf 31fe 373f
000002e0: 98af 42be 5080 24bf 200f 60bd b513 6abf
000002f0: 8000 4bbc 7566 f83a 1cfc 1abf 3418 9ebe
00000300: b85f 56bf 0f1e 4b3f 9bf7 fb3e 8fda 053f
00000310: aa4f 8d3e 4333 31bf 95c2 a93e 45a2 663f
00000320: 5199 063f d07f 8bbe 5408 033f 3f68 473e
00000330: d9e3 933b d0e8 77be ad47 c53e 321b 5fbf
00000340: 3cd8 ff3e b4a0 5f3f 15ff 633e 28e7 d33e
00000350: 96c8 723b 10e1 76be e0c3 33bd 544d 25bf
00000360: 8e12 753f e060 6dbf 8ee4 f23d ae81 983d
00000370: 57cd f7be 5df3 133e f771 41bf 2086 a13e
00000380: 4254 233f 2811 3cbe e1d2 273d 14de 6dbf
00000390: 5261 073f 0c92 823e 55d4 4a3f 360a 523f
000003a0: 6dbd aa3c 4274 10bf 3d0a 8fbd 8393 27bf
000003b0: f09d a43e 02fa 843d 99d3 503a a0a7 d5bd
000003c0: f8f3 493f 27f3 4f3f 627b 5dbf f877 7d3e
000003d0: 8696 19bf b417 603f 3122 ca3e 1ade 6f3f
000003e0: 28e9 c5ba 5298 6f3f 2142 7f3f f3f2 793e
000003f0: cca9 5b3f b4fc 403e eeca 523f 00f9 db3e

weight f4 [1, 256]
0.023861472 0.064005695 0.020384459 0.004361596 0.041453492 0.035474163 0.054661166 -0.0020901284
0.004880646 -0.035427872 -0.034677543 -4.5633e-05 0.053209428 -0.029731715 -0.031455554 -0.0039469767
-0.03788785 -0.009400198 0.04758341 0.05626387 0.07790066 -0.008161557 0.0075503513 -0.03391946
0.024205841 0.012289197 -0.020718109 0.014933895 -0.02241472 0.030999308 0.01247039 0.00819653
-0.041675024 -0.0065867594 -0.0013763318 0.06765003 -0.05883989 -0.007365107 0.018685585 -0.016749771
0.04777026 0.018511226 -0.05409786 -0.003429368 -0.027724529 -0.08209696 -0.056932498 -0.056017563
-0.002120388 0.05611446 -0.0061140265 0.0042012716 -0.019566018 -0.04005515 -0.03234189 -0.00310911
-0.02223316 0.048034415 -0.0101679955 -0.026470384 -0.04650662 0.03544746 -0.036559552 0.023678917
-0.06450182 -0.009520934 -0.028924627 0.047743686 -0.07763019 -0.027937567 -0.06566642 0.03774742
0.017252607 -0.044836856 0.0736659 -0.057617184 -0.032824434 -0.041569177 0.06447759 -0.03971924
0.0157058 -0.008104983 0.0019063092 -0.04529632 0.04876149 -0.00918204 -0.03687059 0.014916438
-0.03568775 0.01094307 0.017189559 0.077978246 0.0220366 -0.0012485309 0.027139349 -0.038149834
0.013144711 0.051465455 -0.03032217 0.02247922 -0.008123628 0.045873124 0.016165437 -0.02640715
0.005841087 -0.037377555 -0.038800023 -0.009989965 0.030165868 -0.0048987227 0.053960104 -0.0054700887
-0.06441063 0.020655395 -0.009254561 0.04189558 0.04871914 0.0046592746 -0.015000734 0.017140906
-0.043781076 0.027258249 0.0564116 -0.0066007567 0.015711661 0.07125322 -0.036772206 0.0701707
0.03749942 0.06969465 0.04731349 0.06632074 0.045245215 -0.018748552 0.05921258 0.027249532
-0.058752414 -0.042367637 -0.03560935 0.025735432 -0.0049142893 0.010352931 -0.020362645 -0.02168859
0.037860706 0.028952759 0.053202145 0.024153795 0.041861814 -0.021985255 -0.040257297 0.040749963
0.032796446 -0.04624758 -0.004813004 0.04900909 -0.014572791 -0.062890865 0.010050604 -0.023472317
0.03407106 -0.06357248 -0.040599637 0.0006601696 0.028803548 0.033386186 0.02347072 0.032074604
0.04019958 0.04033768 -0.053646825 -0.024249764 -0.034746584 0.063208856 -0.019523256 -0.027913913
0.015642386 0.017176803 0.06942555 -0.024536567 0.06659286 0.0312726 0.010791804 -0.042064298
0.03132098 0.01323082 0.02241944 0.036196563 0.038646284 0.073781334 0.0062339935 0.014449659
0.042481367 -0.060514305 -0.048004057 0.075445466 -0.033932675 0.03626731 0.027994802 -0.023442578
-0.044466615 -0.034813873 -0.06032577 -0.017438468 0.042928554 -0.050184567 0.02962061 0.010634047
-0.037011027 -0.0036309166 -0.04734639 0.038599294 -0.004472976 0.030110825 0.010728758 -0.058782868
-0.021590015 0.006446185 0.04439797 0.020105923 -0.04328334 -0.034330133 0.0069391965 0.0020629761
0.052789953 0.03304739 0.04269172 0.0056885113 0.01827307 -0.050969515 0.044691566 0.016813686
0.0065305536 -0.040858254 0.022204533 -0.017139297 0.011344042 -0.045382038 0.03048606 0.051475096
-0.057106934 0.0007654169 0.031095825 8.546517e-05 -0.05455921 -0.040653627 -0.024821535 -0.004565126
0.05942339 -0.00020175114 -0.023009911 -0.0012539987 -0.0037867513 0.05562446 -0.0748608 -0.026478559
00000000: 2279 c33c 6b15 833d 4ffd a63c b8eb 8e3b
00000010: 23cb 293d 5b4d 113d 63e4 5f3d 89fa 08bb
00000020: d3ed 9f3b d11c 11bd 0a0a 0ebd 1066 3fb8
00000030: 21f2 593d ed8f f3bc 8ad7 00bd a455 81bb
00000040: 4a30 1bbd 4a03 1abc d2e6 423d f274 663d
00000050: 628a 9f3d 0db8 05bc f068 f73b 22ef 0abd
00000060: 544b c63c a158 493c 06b9 a9bc 4cad 743c
00000070: 139f b7bc 43f2 fd3c 9b50 4c3c bd4a 063c
00000080: 6eb3 2abd bed5 d7bb 0866 b4ba 198c 8a3d
00000090: 1902 71bd ff56 f1bb 8312 993c d136 89bc
000000a0: c0aa 433d dba4 973c b895 5dbd 3fbf 60bb
000000b0: 8d1e e3bc 7322 a8bd 0d32 69bd ac72 65bd
000000c0: 35f6 0abb 47d8 653d 2c58 c8bb d2aa 893b
000000d0: ea48 a0bc de10 24bd ee78 04bd 36c2 4bbb
000000e0: 5122 b6bc bcbf 443d aa97 26bc 6bd8 d8bc
000000f0: ba7d 3ebd 5b31 113d 78bf 15bd 4afa c13c
00000100: 8819 84bd b1fd 1bbc 57f3 ecbc e28e 433d
00000110: 94fc 9ebd 53dd e4bc 1e7c 86bd 0a9d 1a3d
00000120: 5755 8d3c daa6 37bd 26de 963d ffff 6bbd
00000130: ea72 06bd 7144 2abd d40c 843d a4b0 22bd
00000140: 73a9 803c c3ca 04bc 1fdd f93a a288 39bd
00000150: 21ba 473d 4470 16bc 9e05 17bd 1364 743c
00000160: 512d 12bd 904a 333c 1ed1 8c3c 0fb3 9f3d
00000170: 1a86 b43c bfa5 a3ba 5753 de3c 0043 1cbd
00000180: ea5c 573c 71cd 523d 3366 f8bc 5726 b83c
00000190: f718 05bc 75e5 3b3d 616d 843c cf53 d8bc
000001a0: 9766 bf3b 3519 19bd c6ec 1ebd f3ac 23bc
000001b0: 691e f73c 7785 a0bb 4505 5d3d 6e3e b3bb
000001c0: b8e9 83bd 8135 a93c 71a0 17bc b39a 2b3d
000001d0: b98d 473d d4ac 983b a3c5 75bc 166b 8c3c
000001e0: c953 33bd b14c df3c da0f 673d 294b d8bb
000001f0: beb5 803c 35ed 913d 749e 16bd a8b5 8f3d
00000200: fe98 193d 12bc 8e3d cacb 413d 2bd3 873d
00000210: 0c53 393d 9096 99bc e488 723d 693a df3c
00000220: 5fa6 70bd b089 2dbd 1cdb 11bd 1dd3 d23c
00000230: 0c08 a1bb 579f 293c 90cf a6bc 45ac b1bc
00000240: d413 1b3d 562e ed3c 7eea 593d 2ede c53c
00000250: 4b77 2b3d 6c1a b4bc d6e4 24bd 6fe9 263d
00000260: 9155 063d 1a6e 3dbd 67b6 9dbb c1bd 483d
00000270: b7c2 6ebc edcc 80bd 4aab 243c 0449 c0bc
00000280: 198e 0b3d 4a32 82bd ce4b 26bd 3b0f 2d3a
00000290: 6bf5 eb3c f4bf 083d ab45 c03c a960 033d
000002a0: 51a8 243d 2039 253d c6bc 5bbd 71a7 c6bc
000002b0: 6f52 0ebd a573 813d 3cef 9fbc b8ab e4bc
000002c0: 7624 803c 5eb6 8c3c fc2e 8e3d e900 c9bc
000002d0: d661 883d b317 003d 1bd0 303c 9d4b 2cbd
000002e0: 6e4a 003d 15c6 583c f9a8 b73c d942 143d
000002f0: 914b 1e3d ab1a 973d 8746 cc3b 43be 6c3c
00000300: f100 2e3d d9dd 77bd e79f 44bd 2783 9a3d
00000310: fdfc 0abd 088d 143d 5b55 e53c a60a c0bc
00000320: a022 36bd fe98 0ebd 2818 77bd 1edb 8ebc
00000330: dad5 2f3d 558e 4dbd eca6 f23c 6d3a 2e3c
00000340: e098 17bd acf4 6dbb 4aee 41bd 4b1a 1e3d
00000350: 0b92 92bb faaa f63c acc7 2f3c 4ec6 70bd
00000360: 8bdd b0bc 853a d33b a5da 353d 2db5 a43c
00000370: df49 31bd c19d 0cbd 3362 e33b ff32 073b
00000380: 473a 583d b35c 073d 83dd 2e3d b166 ba3b
00000390: 68b1 953c 69c5 50bd 810e 373d dbbc 893c
000003a0: 41fe d53b fc5a 27bd 48e6 b53c b667 8cbc
000003b0: 5cdc 393c 84e2 39bd e7bd f93c 8dd7 523d
000003c0: f6e8 69bd 42a6 483a acbc fe3c c43b b338
000003d0: 7a79 5fbd 6b84 26bd 8856 cbbc 0d97 95bb
000003e0: f165 733d 298d 53b9 487f bcbc 375d a4ba
000003f0: 252b 78bb 79d6 633d 9e50 99bd 90e9 d8bc

weight f4 [256, 1]
0.8195775 -0.011430502 0.07233547 -0.5324497 -0.64054495 0.86012834 0.78000176 -0.24965216
-0.96980745 0.4196965 -0.22940052 -0.401641 0.42021665 -0.26642108 -0.47962716 -0.40396607
-0.2756362 0.11436721 -1.5193858 0.4158421 -0.1949389 -0.73986804 -0.9377743 -0.487509
0.28250563 -0.5721733 0.82925826 -0.09372103 0.378439 -0.6602329 0.038708523 -0.028316855
-0.4084758 0.43543124 -0.8525293 0.009709239 0.45778203 0.16608147 0.32986712 0.74484926
-0.66566133 0.1393172 -1.0574374 -0.33932972 0.919959 0.6869606 -0.3046223 0.52826595
-0.95888585 0.27313048 -0.28220403 0.63998467 -1.0185316 -0.009337068 -0.5775169 0.38630453
-1.0402521 0.26690623 -0.072645254 0.4379236 0.093700945 0.5066647 -0.99721146 -0.32636398
-0.8288404 0.9451874 0.52650726 -0.5937541 0.78811824 0.15404071 0.62586635 -0.57178795
0.55296737 -0.11749112 -0.65916455 -0.6179367 0.7494683 -0.6430636 0.61098933 0.33977944
-0.03483224 0.48253793 0.7990344 -0.5940366 -1.0007275 0.38209203 0.7336574 -0.88052344
0.9296565 0.010413332 -0.41253614 0.71423835 -0.59444064 0.28957707 -0.40108252 -0.6683823
-0.8727803 -0.6265253 0.87742996 0.58994675 -0.646096 0.72693604 0.7841075 0.6109291
0.02629404 -0.8799926 -0.8289203 0.28274408 -0.012523118 0.21924119 -0.68934107 -0.46479142
0.5979041 0.16740298 -0.62322867 -0.07872717 0.6394851 0.8765496 -0.49203455 0.5467118
0.20501289 -0.3068607 -0.7509686 0.28580916 -0.46954107 0.30482048 -0.71540403 1.0022589
0.9097723 -0.21429968 -0.68004745 0.013489769 -0.4938131 0.9834585 -0.16335428 0.4253856
-0.27373618 -0.90797466 -0.6364522 0.7276508 0.28243098 0.71042764 0.46299163 0.21815063
-0.97456264 0.29570603 -0.7264434 -0.87402725 -0.70765376 -0.084412575 0.6221334 0.6833691
-0.41839278 -0.7645676 0.6941957 0.4560149 0.9323549 0.2816788 -0.71713746 -0.83321977
-0.6990349 0.6412118 -1.263859 -0.21016724 0.5605606 -0.22731614 -0.8912895 0.4435645
-0.04214036 -0.9142701 -0.30238912 -0.3931874 -0.94710565 1.008389 -0.3757807 0.14629336
-0.010807788 -0.5253526 0.41732073 0.112159416 -0.5138381 0.22899859 0.073126614 -0.706609
0.33466277 0.34110928 -0.18163575 -0.7016635 -0.067914486 0.35222083 0.53726536 -0.66205513
-0.08224572 0.9177993 -0.013144543 -0.24433136 0.50470716 -0.10718932 -0.816563 0.7387308
-0.9015015 -0.28592655 -0.0021781921 -0.55577815 0.6530599 -0.40408194 0.41755113 -0.20750082
-0.9681191 0.71823525 0.8309227 -0.12245846 -0.8414793 0.55767995 0.23378965 0.7564232
0.1667285 0.76334786 -0.018683221 -0.094065785 0.002516459 -0.13601626 0.58562315 0.29524672
-1.0376463 -0.5110792 -0.8798351 0.32850075 0.3130207 -0.111390226 0.94825685 0.5591108
0.97802204 -0.1546073 0.19485843 0.8739572 -0.004288421 -0.81439483 -0.4000851 -0.48784825
0.6826367 0.66364086 0.19916886 -0.95343935 -0.6556553 0.47460607 0.19739604 0.28390172
0.43318966 0.043195486 0.118387826 -0.90813756 -0.93609035 0.5728481 0.26700637 0.107036814
00000000: d5cf 513f 0047 3bbc 9e24 943d a04e 08bf
00000010: c1fa 23bf 5f31 5c3f 32ae 473f d1a4 7fbe
00000020: 4d45 78bf 76e2 d63e f8e7 6abe e4a3 cdbe
00000030: a326 d73e 5868 88be b191 f5be a4d4 cebe
00000040: 3020 8dbe 5b39 ea3d 3c7b c2bf 41e9 d43e
00000050: 109e 47be fe67 3dbf fa11 70bf c89a f9be
00000060: 94a4 903e f379 12bf 454a 543f d0f0 bfbd
00000070: c2c2 c13e 0605 29bf d48c 1e3d c0f8 e7bc
00000080: bd23 d1be d8f0 de3e 5c3f 5abf 8013 1f3c
00000090: 6862 ea3e 4311 2a3e 58e4 a83e 71ae 3e3f
000000a0: c868 2abf 2ba9 0e3e 1c5a 87bf a0bc adbe
000000b0: 6f82 6b3f a6dc 2f3f 74f7 9bbe 703c 073f
000000c0: 8b79 75bf c2d7 8b3e 0c7d 90be 09d6 233f
000000d0: 3e5f 82bf 80fa 18bc 26d8 13bf b5c9 c53e
000000e0: fb26 85bf efa7 883e 09c7 94bd 8637 e03e
000000f0: 48e6 bf3d c7b4 013f 4049 7fbf 2e19 a7be
00000100: e22e 54bf cdf7 713f 2ec9 063f 4500 18bf
00000110: 1ec2 493f d9bc 1d3e c738 203f b260 12bf
00000120: 458f 0d3f 2f9f f0bd 02bf 28bf 1931 1ebf
00000130: 28dd 3f3f d19f 24bf cc69 1c3f 92f7 ad3e
00000140: 40ac 0ebd 360f f73e 858d 4c3f c812 18bf
00000150: d717 80bf 91a1 c33e f9d0 3b3f fc69 61bf
00000160: f8fd 6d3f ae9c 2a3c f037 d3be 53d8 363f
00000170: 432d 18bf 7243 943e b05a cdbe 1a1b 2bbf
00000180: 886e 5fbf f663 20bf 409f 603f c006 173f
00000190: 8c66 25bf 7b18 3a3f 45bb 483f d965 1c3f
000001a0: 9966 d73c 3247 61bf 1f34 54bf d5c3 903e
000001b0: c42d 4dbc c380 603e a878 30bf 24f9 edbe
000001c0: 3e10 193f b06b 2b3e ea8b 1fbf b63b a1bd
000001d0: 4cb5 233f 8e65 603f f4eb fbbe 4ef5 0b3f
000001e0: e6ee 513e d81c 9dbe 7a3f 40bf 9455 923e
000001f0: b067 f0be 6e11 9c3e b824 37bf 054a 803f
00000200: d6e6 683f 6071 5bbe 9717 2ebf 3104 5d3c
00000210: 12d5 fcbe f0c3 7b3f 5846 27be 24cc d93e
00000220: 2627 8cbe 0771 68bf 88ee 22bf 5347 3a3f
00000230: cb9a 903e 96de 353f 3d0d ed3e e162 5f3e
00000240: f07c 79bf c866 973e 32f8 39bf 40c0 5fbf
00000250: cc28 35bf 80e0 acbd 2244 1f3f 47f1 2e3f
00000260: 9437 d6be b4ba 43bf cfb6 313f c97a e93e
00000270: d0ae 6e3f 3438 903e 5296 37bf e44d 55bf
00000280: f4f3 32bf 7526 243f 22c6 a1bf 1536 57be
00000290: e680 0f3f 90c5 68be 8c2b 64bf e31a e33e
000002a0: 5f9b 2cbd 9b0d 6abf bfd2 9abe dc4f c9be
000002b0: 8475 72bf e412 813f 5466 c0be edcd 153e
000002c0: 2613 31bc 827d 06bf 10ab d53e d6b3 e53d
000002d0: e58a 03bf 9b7e 6a3e 68c3 953d 54e4 34bf
000002e0: eb58 ab3e e0a5 ae3e b9fe 39be 38a0 33bf
000002f0: c016 8bbd 4a56 b43e 398a 093f 727c 29bf
00000300: 7270 a8bd e5f4 6a3f 365c 57bc 0032 7abe
00000310: 7d34 013f 1386 dbbd 460a 51bf 761d 3d3f
00000320: cdc8 66bf f764 92be 00c0 0ebb 7a47 0ebf
00000330: ef2e 273f d4e3 cebe 43c9 d53e 187b 54be
00000340: a7d6 77bf 44de 373f 5ab7 543f 80cb fabd
00000350: 306b 57bf 1dc4 0e3f 8e66 6f3e f3a4 413f
00000360: e0ba 2a3e c46a 433f 8e0d 99bc 90a5 c0bd
00000370: 2deb 243b d947 0bbe 66eb 153f 942a 973e
00000380: 98d1 84bf 16d6 02bf e03c 61bf 4031 a83e
00000390: 4044 a03e 8f20 e4bd f6c0 723f e321 0f3f
000003a0: a75f 7a3f 6051 1ebe f888 473e a9bb 5f3f
000003b0: e285 8cbb 2e7c 50bf f4d7 ccbe 3fc7 f9be
000003c0: 47c1 2e3f 5ee4 293f ecf2 4b3e 9a14 74bf
000003d0: 07d9 27bf 91ff f23e 3022 4a3e 915b 913e
000003e0: 09cb dd3e c0ed 303d 5175 f23d b47b 68bf
000003f0: 9ea3 6fbf 2ca6 123f 0fb5 883e 1e36 db3d

bias f4 [256]
-0.24054985 -0.33801723 -0.53972405 -0.08879447 0.22216389 0.11115811 -0.33061182 0.48197252
0.04606353 0.381098 0.8171137 -0.7119851 0.91153944 -0.6464157 0.85824335 -0.06416321
-0.8399992 -0.8370272 0.15872209 0.56964844 -0.20275807 -0.6845424 -0.6823522 -0.5963162
-0.94549054 0.2905487 0.29632074 -0.6663201 0.9504305 -0.28240442 -0.28819248 0.8196132
0.19408397 -0.82752365 -0.749014 -0.59914804 -0.1335594 0.69954973 0.40503407 -0.5617804
-0.68939734 -0.95302325 0.29842132 -0.91409075 -0.82613623 -0.97609967 -0.68853307 -0.10422829
0.79475117 -0.91422147 -0.8894366 0.49231353 0.06180262 -0.8091806 -0.22577655 0.68086684
0.7198212 -0.8949495 0.50893444 0.074848756 -0.6870718 0.18850473 -0.5661906 0.13461573
-0.61163175 -0.63997525 -0.534886 1.0513103 -0.2384221 0.022514967 -0.6647504 -0.18527853
-0.001486978 0.39003873 -0.19732893 0.9470398 -0.08940972 0.5330652 -0.3893804 0.24546014
-0.6396471 0.0039568604 0.08362279 -0.0013219665 0.49813762 -1.2686186 0.90389854 -0.9679456
-0.96668744 0.33331636 -0.330333 -0.788713 0.6941319 -0.56806827 -0.40130448 -0.09652805
-0.054484606 -0.5292783 -0.3894476 0.18640904 -0.7388655 0.2478501 0.008279851 -0.79640627
0.7330448 -0.74664485 0.8560286 -0.9484819 0.62198204 -0.73733324 0.19360977 -0.04463184
0.8192555 0.40162513 -0.23746765 0.4992652 0.035633165 -0.2688994 -0.09384096 -1.0099745
-0.6902012 -0.66969204 0.41900596 -0.95574605 -0.7593597 0.6854754 0.6537649 -0.46410298
0.44768864 -0.89583874 0.37132093 0.10234796 0.9541172 -1.074679 -0.010690212 0.35156533
0.09501948 -0.00048753168 1.0240024 -0.5686145 0.004819164 -0.6558119 -0.41194516 -0.021352665
-0.7570219 -0.28990445 -0.87179196 -0.56961536 -0.4725746 -0.014699817 0.39656585 0.685518
-0.8703668 0.4460709 0.48200658 0.24934213 -0.5173189 -0.049014892 -0.28065503 -0.4809842
0.5764436 -0.26176193 0.11052998 0.42102265 -0.550118 -0.32024813 0.4171173 -0.8715593
0.92082983 0.57762855 0.97834986 -0.95350146 -0.3409438 0.24158975 -0.6776049 -0.49721038
0.7442893 -0.9242585 0.844908 0.9504314 0.15941489 0.11281109 -0.25476202 0.87215835
-1.1165149 -1.1402602 0.07431502 -0.2959261 -0.07954514 0.3810776 -1.0504285 -0.8461492
0.45245638 0.7575618 0.4070123 -0.7821238 -0.34713018 0.87525076 -0.96235645 -0.14924198
0.9142555 0.9277371 -0.10415518 -0.97506976 -1.0645678 -0.5669793 0.91170067 -0.8256614
0.27061886 -0.2362812 -0.5116975 0.8465437 -0.5047027 -0.31420717 -0.78421193 0.5113985
0.7978148 0.2170111 0.3952135 -0.9554666 0.010243373 0.688628 0.3929112 0.7018425
0.06517052 0.9305182 -0.29733646 -0.2796611 -0.6248728 0.8217232 -0.8943368 0.22203204
0.40512282 -0.04466796 0.2990345 0.65402836 0.775396 -0.00053335 0.76060075 0.1259822
0.97459537 -0.0032022777 0.32331854 0.41158387 0.38430578 0.2795514 0.091442384 -0.13658778
0.7703994 -0.5970371 0.6216956 0.71415514 -0.7946162 -0.25018007 -0.8948831 0.96159357
00000000: b352 76be 9810 adbe 5b2b 0abf e0d9 b5bd
00000010: ee7e 633e dda6 e33d f445 a9be 1ac5 f63e
00000020: 1dad 3c3d 471f c33e 5d2e 513f a844 36bf
00000030: a65a 693f 807b 25bf d6b5 5b3f 0068 83bd
00000040: 300a 57bf 6a47 56bf 0b88 223e 7bd4 113f
00000050: d09f 4fbe 2c3e 2fbf a2ae 2ebf 2ea8 18bf
00000060: ab0b 72bf cdc2 943e 5ab7 973e f493 2abf
00000070: 6a4f 733f 5097 90be f78d 93be 2cd2 513f
00000080: f3bd 463e 97d8 53bf 62bf 3fbf c461 19bf
00000090: ccc3 08be b115 333f a060 cf3e d7d0 0fbf
000000a0: 587c 30bf 55f9 73bf aeca 983e da01 6abf
000000b0: aa7d 53bf abe1 79bf b443 30bf a475 d5bd
000000c0: d074 4b3f 6b0a 6abf 1eb2 63bf 8510 fc3e
000000d0: be24 7d3d 7626 4fbf f831 67be 4a4d 2e3f
000000e0: 3446 383f 691b 65bf 8749 023f 4e4a 993d
000000f0: f0e3 2fbf 6207 413e def1 10bf b5d8 093e
00000100: e693 1cbf 6bd5 23bf 4aee 08bf 5691 863f
00000110: ec24 74be 4f71 b83c 152d 2abf a8b9 3dbe
00000120: b4e6 c2ba 28b3 c73e 9810 4abe 3371 723f
00000130: 711c b7bd f676 083f de5c c7be e759 7b3e
00000140: eabf 23bf 8da8 813b 6d42 ab3d d645 adba
00000150: e50b ff3e 1862 a2bf e565 673f 48cb 77bf
00000160: d478 77bf 71a8 aa3e 6821 a9be 18e9 49bf
00000170: a1b2 313f ec6c 11bf c877 cdbe 80b0 c5bd
00000180: 402b 5fbd c87e 07bf ad65 c7be 03e2 3e3e
00000190: 4a26 3dbf 6bcc 7d3e 36a8 073c 48e1 4bbf
000001a0: d3a8 3b3f 1e24 3fbf b124 5b3f b6cf 72bf
000001b0: 373a 1f3f dfc1 3cbf a441 463e e0cf 36bd
000001c0: baba 513f cfa1 cd3e b82a 73be b09f ff3e
000001d0: 15f4 113d 2fad 89be b02f c0bd d846 81bf
000001e0: 07b1 30bf f070 2bbf f387 d63e c6ab 74bf
000001f0: 6665 42bf 517b 2f3f 235d 273f e89e edbe
00000200: 7237 e53e b055 65bf c71d be3e cf9b d13d
00000210: 0641 743f 158f 89bf 0026 2fbc 5f00 b43e
00000220: 9399 c23d 659b ffb9 8312 833f b890 11bf
00000230: 14ea 9d3b 4ae3 27bf 7aea d2be c9eb aebc
00000240: 30cc 41bf 5b6e 94be c22d 5fbf 50d2 11bf
00000250: 4cf5 f1be 80d7 70bc ae0a cb3e 1c7e 2f3f
00000260: 5cd0 5ebf 6863 e43e 91c9 f63e 8b53 7f3e
00000270: 036f 04bf d7c3 48bd 04b2 8fbe 9043 f6be
00000280: cf91 133f a905 86be 8b5d e23d 4890 d73e
00000290: 89d4 0cbf 90f7 a3be 6690 d53e 831e 5fbf
000002a0: 81bb 6b3f 77df 133f 2375 7a3f ac18 74bf
000002b0: 3090 aebe 4e63 773e 8477 2dbf 5c92 febe
000002c0: be89 3e3f 349c 6cbf e44b 583f 794f 733f
000002d0: a83d 233e 8009 e73d 2b70 82be c545 5f3f
000002e0: f6e9 8ebf 0cf4 91bf 7932 983d a083 97be
000002f0: 90e8 a2bd 9a1c c33e 7174 86bf 3c9d 58bf
00000300: 5da8 e73e 92ef 413f eb63 d03e 4439 48bf
00000310: 0cbb b1be 6f10 603f fe5c 76bf e4d2 18be
00000320: a60c 6a3f 2e80 6d3f 504f d5bd 2c9e 79bf
00000330: c243 88bf 8e25 11bf 3765 693f 8c5e 53bf
00000340: 8e8e 8a3e b3f3 71be 9bfe 02bf 17b7 583f
00000350: 3234 01bf c3df a0be 1dc2 48bf 03eb 023f
00000360: 973d 4c3f 2838 5e3e 6d59 ca3e 7699 74bf
00000370: d2d3 273c ed49 303f a82b c93e f3ab 333f
00000380: 1f78 853d 7136 6e3f 7c3c 98be bd2f 8fbe
00000390: aaf7 1fbf 745c 523f 42f3 64bf 5e5c 633e
000003a0: 426c cf3e c0f5 36bd 0d1b 993e 676e 273f
000003b0: 5a80 463f 83d0 0bba bbb6 423f 7a01 013e
000003c0: 157f 793f 4edd 51bb 028a a53e 1fbb d23e
000003d0: bac3 c43e 5c21 8f3e 2546 bb3d abdd 0bbe
000003e0: e538 453f 6cd7 18bf 7127 1f3f dfd2 363f
000003f0: f86b 4bbf 9a17 80be 0f17 65bf ff2a 763f
