checkpoints/42801600.ckpt (torch, 122663 bytes, 33 tensors)

weight f4 [256, 18]
000000 35 17 34 bb 12 97 9d 3d 67 c7 12 3e 96 1d ad bd
       -0.0027479653 0.0769483 0.14333878 -0.08452909
000010 05 d3 bc 3d a9 ea 21 3e 20 b5 38 be a0 62 2d bd
       0.09219936 0.15812172 -0.18037844 -0.042330384
000020 88 03 34 3e 0f 44 b0 3d e4 9c 0c be 8e 46 56 be
       0.17579472 0.08606731 -0.13731724 -0.20925352
000030 0f c5 ab bc cc 38 26 be 39 ad 5b be 97 22 0f be
       -0.020967988 -0.16232604 -0.21452798 -0.13978039
000040 42 5f 03 bd ef c9 2f 3e e5 ab c7 3d d5 a0 55 bd
       -0.032073267 0.17166875 0.09749583 -0.052155335
000050 99 d8 89 bd f7 3d 39 be 28 02 37 be 88 b9 09 3e
       -0.06730766 -0.18090044 -0.17871916 0.13449681
000060 7a e1 48 be 5d 68 37 3e ee 1b 70 3e 83 25 f3 bd
       -0.19617262 0.17910905 0.23448154 -0.11872389
000070 04 6b 60 3e 81 d3 55 bd 43 ed 18 bc e2 6e 9f 3d
       0.21915823 -0.05220366 -0.009333911 0.07784821
000080 2d 78 0e bd 9d 05 72 bd 71 fd 4c 3c da 77 f0 bc
       -0.034782577 -0.059087384 0.012511597 -0.029354025
000090 17 fb 77 be 1c fd fe bc 0d 52 20 be 4d 02 bd bd
       -0.24216877 -0.031126551 -0.156563 -0.092289545
0000a0 3c c5 57 bd 6e f0 f7 bd d0 d7 c4 3d 4e 9e b1 3d
       -0.05267833 -0.12106405 0.096114755 0.08672772
0000b0 88 5c 44 be 32 86 d2 3c 93 38 96 bd 34 30 03 be
       -0.19175923 0.025698755 -0.073350094 -0.12811357
0000c0 00 96 40 3e a1 34 ce bc 8c 4d b1 bd 25 7b b9 3d
       0.1880722 -0.02517158 -0.08657369 0.09056691
0000d0 55 ac 15 3e 70 c2 0f be e8 3e 85 be 11 53 7a 3d
       0.1461652 -0.14039016 -0.26024556 0.061114375
0000e0 d0 d8 6b 3c aa fb e2 3d 34 90 e6 3d 6e cb 8e 3d
       0.014394954 0.11083157 0.11257973 0.06972395
0000f0 6e 0c a5 3d 11 73 88 3c a7 44 9c 3d ec 89 82 bd
       0.080590114 0.01665643 0.07630282 -0.06373963
000100 8c 82 06 bd 81 2f 5e be 37 e5 61 3e 14 6b 1c be
       -0.032839343 -0.21697809 0.22060095 -0.15275222
000110 c3 dc 0b be 4d ac 13 3d 82 b8 79 3d ca 1c 49 be
       -0.13658433 0.03605299 0.060966976 -0.19639888
000120 25 a3 b8 3d 44 87 48 be c2 0d 9c 3c dc f6 45 3e
       0.09015492 -0.1958285 0.019049529 0.1933245
000130 4a 1e 1c be c9 d3 77 be 92 9d df 3d 53 75 3e be
       -0.1524593 -0.24201883 0.10918726 -0.18599443
000140 02 9c ae bd 50 64 27 be 76 84 1a be 47 9d e8 bd
       -0.0852585 -0.1634686 -0.15089592 -0.11358123
000150 0a 17 c3 3d d3 e9 af bd b0 ca e0 3d 8a aa bf 3d
       0.09525879 -0.0858952 0.109761596 0.093586996
000160 bf 84 01 bc f3 01 ef 3d 0c 49 49 3e 39 ae 83 bd
       -0.007905184 0.11670294 0.19656771 -0.06429715
000170 3e b4 a6 3c f5 d3 03 be f6 b6 75 be 2a 30 36 be
       0.020349618 -0.12873824 -0.23995575 -0.1779181
000180 16 bb 21 3e 49 14 dd 3d ed b4 06 3e 8c b9 18 be
       0.15794024 0.10794885 0.13154955 -0.1491453
000190 4a 6d b9 bd 53 f9 07 be c7 cb 7e bd a9 89 fa 3d
       -0.09054048 -0.13278703 -0.062206056 0.12233288
0001a0 98 5d b6 3d 35 be 20 bd 92 73 b5 bd 66 06 47 bd
       0.0890457 -0.039243896 -0.08859934 -0.048590086
0001b0 3c 46 b1 3e cb 82 03 be 71 e4 77 bb 1d f2 46 3e
       0.34623897 -0.12842862 -0.003782537 0.19428296
0001c0 ff 6e b3 3c 30 aa 3a 3e 9a 9c 0e be 02 b5 83 3d
       0.021903513 0.18228984 -0.13926926 0.06431009
0001d0 ae c8 39 bb 29 d6 0f 3e ac a3 6c bc 77 58 1d 3d
       -0.0028348374 0.1404654 -0.014443319 0.038414445
0001e0 16 aa 2c 3e 25 1c 45 3d e9 29 fa bd 62 c0 fd bc
       0.16861758 0.048122544 -0.12215025 -0.030975524
0001f0 a0 7c 9d 3d 80 9a b3 bc 6a 59 27 3e d0 7e 5c 3d
       0.07689786 -0.021924257 0.16342703 0.053831875
000200 e5 4a c1 3d a2 ad ce 3d 29 32 d7 bd e5 6b 2a be
       0.09438113 0.100917116 -0.10507614 -0.16642721
000210 c3 01 16 3e 19 a7 42 3e 7c eb b7 3d ef de 76 3b
       0.1464911 0.19009055 0.08980462 0.00376695
000220 cc c1 54 be f8 0c 11 be cb 65 c8 3d 4f 22 e6 bd
       -0.20777053 -0.14165103 0.097850405 -0.112370126
000230 5c 18 f3 3d ec 4e ef 3d 64 a4 83 be 12 ab 7e be
       0.118698806 0.11684975 -0.25711358 -0.24869946
000240 06 ed 82 3d b0 b5 fa 3c b4 8c 39 be a1 8a 03 3e
       0.06392865 0.030604213 -0.1812008 0.12845851
000250 cb 3a a5 3d cf cf 28 3e 17 68 f2 3d 4e be 21 3d
       0.080678545 0.16485523 0.1183626 0.03948813
000260 0b 8a 92 bd b6 53 66 3e 70 a6 87 bd 47 05 2f 3e
       -0.07155236 0.2249287 -0.06623542 0.17091857
000270 21 ba 27 3e e4 cc 61 bd a1 99 30 bd 96 9a dc 3c
       0.16379596 -0.05512704 -0.043115262 0.026929181
000280 ab e8 2c bc 9d 6f ea 3d 15 8c c1 bd 7c bf 3e be
       -0.010553519 0.1144707 -0.09450547 -0.18627733
000290 f2 3c 2e be 72 7b 32 3e 37 68 f2 bd c2 70 2c be
       -0.17015436 0.17429903 -0.11836284 -0.16839889
0002a0 0a bf 87 bd 98 b6 28 bc 87 ad 51 bc ca a0 ff 3d
       -0.06628235 -0.01029744 -0.01279772 0.1248184
0002b0 0b 16 d3 bd 7f 54 c6 bd 5a 1c 06 3e 8c e0 c3 bd
       -0.10306939 -0.09684085 0.13096753 -0.09564313
0002c0 99 f3 9a bd bd af 2a be 49 d4 8e 3d 6d 1d bc 3d
       -0.07565994 -0.16668601 0.06974084 0.091853
0002d0 40 e1 33 bd dd 9a a1 bd c9 f2 3f be 42 22 3a be
       -0.043915987 -0.07890866 -0.18744959 -0.18177131
0002e0 7e 27 3d be a9 1a ca bd f1 43 e5 bd 10 77 1f 3d
       -0.18472096 -0.09868366 -0.111945994 0.038931906
0002f0 b1 bf d9 bd 41 a0 5c be 62 51 7c bd 2a fe 1b be
       -0.10632265 -0.21545507 -0.06160105 -0.15233675
000300 2e e7 1d be 43 8c 1c 3e f8 36 8c 3c c3 0b 12 be
       -0.1542022 0.1528788 0.017116055 -0.14262299
000310 96 6c 3d bd b7 96 70 3e 52 43 25 3e d0 c1 de 3c
       -0.046246134 0.23494993 0.16138962 0.027192026
000320 bc a6 8f 3b 0f 0c 25 3e aa 45 42 3d c0 84 d7 3d
       0.00438389 0.16117881 0.047429718 0.10523367
000330 34 1a 6b 3e bb 7c 04 3e e8 03 58 3e dd 49 5c 3e
       0.22959214 0.12938206 0.2109524 0.21512552
000340 09 58 5a 3e ee 66 b3 3d e6 cb 2c be ff 46 07 3e
       0.21322645 0.08759867 -0.16874656 0.13210677
000350 7c fa f0 bd a8 09 2f bd 81 f9 f5 3c 9b 27 0b 3e
       -0.11766526 -0.04273382 0.0300262 0.13589327
000360 d0 08 13 3e f6 41 e5 3c 88 04 c0 3d 95 06 68 3e
       0.1435883 0.027985554 0.09375864 0.22658761
000370 2c 17 57 3e 3d e4 89 3d 11 a1 07 3d 16 18 37 be
       0.21004933 0.06732986 0.03311259 -0.17880282
000380 1d 1a 20 3e 85 7d d0 3d d2 cf 33 be 3f d0 31 bd
       0.15634961 0.10180191 -0.17559746 -0.04341149
000390 4d d6 77 bd 6e 9f 13 be 5c 79 d4 bd 81 23 49 3e
       -0.060507108 -0.14416286 -0.1037471 0.1964245
0003a0 8c c0 e9 3c 78 9c 3c 3e d6 67 ed 3d 16 76 20 3e
       0.028534196 0.18419063 0.11592071 0.15670046
0003b0 09 a4 50 3d 29 83 7a 3c f9 90 3e 3c c8 2c 8a 3d
       0.050937686 0.01529006 0.011631244 0.067468226
0003c0 07 f9 84 bb 5a c4 52 be f6 1a 4c 3e 8c 01 bf bd
       -0.0040580067 -0.20582715 0.1993216 -0.09326467
0003d0 5d ed 6a be fb 5e 55 bd b9 f9 13 3e 54 e3 61 3e
       -0.2294211 -0.052092534 0.1445073 0.22059375
0003e0 62 a5 4f bd bc da 5a be 77 52 13 3d a3 05 42 3e
       -0.05069483 -0.21372503 0.035967316 0.18947463
0003f0 09 4d fa be aa 4d 4a 3d 24 5c ae 3d f4 68 65 3d
       -0.48886898 0.049390472 0.08513668 0.056008294

bias f4 [256]
000000 a9 97 3b 3e 26 ed 65 3e 21 d3 15 bd bc f9 2f be
       0.18319573 0.22453746 -0.0365783 -0.1718511
000010 95 ac 3d be c2 59 d4 3d 88 63 dd 3d 01 e1 43 be
       -0.18522866 0.103686824 0.1081 -0.19128801
000020 58 ad b7 bd 13 04 29 be 83 29 ac 3d 94 0d 11 bc
       -0.089686096 -0.1650546 0.08406355 -0.008853335
000030 5e 63 0f 3e f7 f7 b7 bb 28 23 82 be 3a 47 5b 3e
       0.1400275 -0.0056142765 -0.25417447 0.2141389
000040 65 a5 11 be 98 ff 49 3e 68 3b 16 be 2c 00 64 3c
       -0.1422325 0.19726408 -0.14671099 0.013916057
000050 2d e9 14 3d 62 dc 32 bd f9 2b 0d 3e fb f5 32 be
       0.036355186 -0.043667205 0.13786305 -0.17476647
000060 7b ea 48 be 1c 36 60 bb 1b 1d bd 3d ed 64 2a bd
       -0.19620697 -0.003421194 0.09234067 -0.041600157
000070 2f 65 17 be 5c 11 11 be 49 08 b2 3d 51 c7 bc bd
       -0.14784692 -0.14166778 0.086929865 -0.09217704
000080 4d f8 03 be d0 41 09 3e 28 a0 f0 3d a8 c5 32 3e
       -0.12887688 0.13404012 0.117492974 0.17458212
000090 fa 34 fb 3d 30 0f 08 be e3 ce 3d 3d 1f 08 ad bd
       0.12265964 -0.13287044 0.04633988 -0.084488146
0000a0 d0 31 80 bc 5e 2c e8 bd 55 99 24 be 10 cc 4f 3e
       -0.015648752 -0.11336587 -0.16074117 0.20292687
0000b0 80 cc 0e 3e 8e 02 a1 bd 9c 84 6d 3d f4 59 87 3d
       0.13945198 -0.078618154 0.057987794 0.06608954
0000c0 50 85 72 3e a3 a4 2e 3e 75 1d a5 3d 88 cc 22 be
       0.23683667 0.17054991 0.08062259 -0.15898335
0000d0 1d 9a ba 3d 6d 48 18 bd 16 b1 54 be 84 dd 2f be
       0.09111426 -0.037178446 -0.20770678 -0.17174345
0000e0 e2 17 c8 bd 45 05 24 be e0 e6 07 be b6 3e 6c be
       -0.0977018 -0.16017635 -0.13271666 -0.23070797
0000f0 70 e7 f6 bd 13 c0 34 3e 0e bc a0 3c d7 df 17 3e
       -0.12055862 0.17651395 0.019620921 0.14831482
000100 ae 1d b1 bd c8 ad 38 3d 52 70 60 bc c0 96 14 3e
       -0.08648239 0.045087606 -0.013698654 0.14510632
000110 f0 f0 5d 3e 11 3a 3d 3d e5 5d 1b 3e 2b 63 10 be
       0.21673942 0.046197955 0.15172537 -0.1410033
000120 f8 86 04 be c8 4f 86 bc d7 39 34 3e 5d 04 da 3d
       -0.12942111 -0.016395465 0.17600189 0.106453635
000130 97 12 30 3e bd 37 26 be 3e e3 3c 3d 2b 46 2c be
       0.17194591 -0.162322 0.046115153 -0.16823642
000140 30 91 00 bd 35 9b 1b 3c 45 b3 45 be 49 be 81 3d
       -0.03138846 0.009497453 -0.19306667 0.06335122
000150 c6 bb 15 be 8f e6 d0 bc c0 6b dc 3c 0a 1d cf bd
       -0.14622411 -0.025500564 0.026906848 -0.10112961
000160 f2 87 01 bd cf c1 49 bd cd 9c 93 3e 17 75 74 3e
       -0.03162379 -0.049257096 0.28830567 0.23872791
000170 ff d3 4d 3e d5 62 3a bd 53 16 9f bd 7b e8 60 bc
       0.20100401 -0.04550441 -0.0776793 -0.013727303
000180 78 e2 94 bd 5c 0a 46 bc ba 27 f4 bd 72 95 81 bb
       -0.07269758 -0.012087431 -0.1192164 -0.003954583
000190 58 86 6a 3e 06 87 b3 bd 18 93 bb bd b5 d9 ef 3c
       0.2290281 -0.08765988 -0.09158915 0.029278615
0001a0 c3 e6 be bd 6a 41 87 bd 30 1a 07 bd c9 9c 8b be
       -0.09321358 -0.066042736 -0.03298396 -0.27268055
0001b0 c7 6d 2b 3d df b5 53 3e 2c 3c 68 bd fd ce 36 3e
       0.04185274 0.20674847 -0.05669801 0.17852397
0001c0 91 95 16 bd f8 3b 54 be 6a 8f 20 3e 18 eb 8d bd
       -0.03676373 -0.20726001 0.15679708 -0.06929606
0001d0 6b f2 6f bd 17 06 68 be be 5a 30 3d 6c 91 df bd
       -0.058580797 -0.22658573 0.04305529 -0.10916409
0001e0 39 64 2c be 1c 76 b4 bd 56 09 35 be c4 d3 8b bd
       -0.16835107 -0.0881159 -0.17679343 -0.068275005
0001f0 5a c5 d4 bd 3c 10 79 bd 72 58 0d 3e 6e 25 32 be
       -0.10389204 -0.060806498 0.1380327 -0.17397091
000200 55 9d 4b be 37 dd 46 3e 96 8a 64 bd 85 4c 5e 3d
       -0.19884236 0.19420324 -0.05579623 0.054272193
000210 27 1e 40 bd c6 e4 b9 bd 55 79 0f be 59 8a 37 be
       -0.046903756 -0.09076838 -0.14011128 -0.17923869
000220 b4 0a 6e be 78 4e a1 bd c7 6e 05 3d 45 0b 3a be
       -0.2324627 -0.07876295 0.03257635 -0.18168361
000230 51 cc 02 3d e0 18 66 3e e2 59 21 be b5 13 84 be
       0.031933133 0.22470427 -0.15756944 -0.25796285
000240 f9 d6 3f bb f4 83 21 3e 54 02 4f be 86 b0 49 3e
       -0.002927242 0.15772992 -0.20215732 0.19696245
000250 10 a1 1e be 40 ac bf bd 8f af 57 bc b6 75 6a 3d
       -0.15491128 -0.09359026 -0.013164415 0.057241164
000260 37 21 32 be 63 fb 28 3e 52 5a 6d be 8a 88 9b bd
       -0.17395483 0.16502146 -0.23178986 -0.07594402
000270 62 67 c1 bc b3 14 3f bc 52 a2 34 be 02 82 3a 3d
       -0.023608867 -0.01166265 -0.17640045 0.04553414
000280 3b 8b 15 be 30 d2 1d bd 9a ff a8 3b 71 d7 39 be
       -0.14603893 -0.03853053 0.005157423 -0.1814859
000290 49 33 13 bd e7 d3 17 be d9 ea 20 be 91 28 1d be
       -0.03593758 -0.14826928 -0.15714587 -0.15347506
0002a0 a6 b8 95 bd 6d 90 64 be 1b ae 5e be 0c dc 09 bd
       -0.073106095 -0.22320719 -0.21746103 -0.03365712
0002b0 5f 26 4d 3e 2f f7 2c 3e d9 a4 5a 3e 9e 46 2b be
       0.20034169 0.16891168 0.21351947 -0.16726157
0002c0 a1 d9 e8 3d 78 07 16 be 99 c2 53 bd 52 ea 52 be
       0.113696344 -0.14651287 -0.051699255 -0.20597199
0002d0 2d 3b b2 bc c4 49 1e 3e c2 4d 19 3d 90 56 29 3d
       -0.021756733 0.15457827 0.03742767 0.041342318
0002e0 66 80 4d 3d f7 7f 15 3e c5 a9 ed 3d 5a 0a 43 be
       0.05017128 0.14599596 0.116046466 -0.19046918
0002f0 3a 70 b6 bd 92 ae ff 3d e9 d5 58 be 96 f4 a9 bd
       -0.08908124 0.124844685 -0.2117535 -0.08298604
000300 4a 3d 8d be 0c c5 3c be b5 75 ed 3a 0a c4 33 3e
       -0.27585822 -0.18434542 0.0018116744 0.17555252
000310 53 2b 7f 3d 59 93 f2 3d b5 0e e1 3d f7 4c 32 be
       0.062297177 0.118445106 0.10989133 -0.17412172
000320 78 61 cb 3d 45 95 5c 3d 8c 31 30 3e 66 b7 30 be
       0.099307 0.053853292 0.172064 -0.17257461
000330 c6 51 29 be 1d 72 d2 bd e0 c9 da bd 2c d4 63 3e
       -0.165351 -0.10275672 -0.10683036 0.22248906
000340 6e 92 e6 bd e2 bc 80 3b 90 5b c2 3d d9 96 6b be
       -0.11258398 0.0039287666 0.094901204 -0.23006763
000350 c6 f1 e9 3c e3 f0 90 bd 1f 95 d9 3d fb 14 3e bd
       0.02855767 -0.070771955 0.10624146 -0.046406727
000360 ab 42 95 be b3 2b 1b 3e a9 18 0c bd 03 a1 66 3d
       -0.29152426 0.15153389 -0.034203205 0.056305896
000370 0c 3a 31 3e ce c9 ea bd 96 3c 30 3d 72 3f 39 be
       0.173073 -0.114642724 0.04302653 -0.18090609
000380 2c db 62 bd 28 86 49 bb 91 e3 35 3e 17 99 e0 3c
       -0.0553848 -0.003075013 0.17762591 0.027416749
000390 a2 43 cf bb 3f 1c d6 bd 70 45 9c 3d c0 cb 46 3d
       -0.006325201 -0.10454606 0.07630432 0.048534155
0003a0 96 b0 65 be e7 3b 1d 3d c8 e3 84 3c f4 f7 13 3e
       -0.22430643 0.038387205 0.016221896 0.14450055
0003b0 b6 01 4d bc 12 a1 13 be df 60 10 be 84 4a f3 bd
       -0.012512615 -0.14416912 -0.14099453 -0.11879447
0003c0 42 e5 c1 3c fa 83 a4 3d 17 63 77 3c ac 05 ad bb
       0.023668889 0.08032985 0.015099308 -0.005280217
0003d0 4f b5 fb 3d a8 52 c8 bd cf 20 23 3e bc cd 19 be
       0.12290441 -0.097813904 0.15930484 -0.15019888
0003e0 16 a1 2d be dd c2 07 3e e1 57 6f be d8 e0 11 be
       -0.1695598 0.13257928 -0.23373367 -0.14245927
0003f0 4e d5 31 be 63 67 a1 bd e4 72 19 bd 3d 91 74 be
       -0.17366526 -0.078810476 -0.037463084 -0.23883529

weight f4 [1, 256]
000000 b3 97 d4 bc 9b 8b 9a bb 6a df 1e 3d 22 29 ab 3d
       -0.025951242 -0.0047163493 0.038787283 0.08357455
000010 2c 80 03 3c a1 63 95 bc 36 00 ba bd 1b 36 b3 bc
       0.008026164 -0.018235983 -0.090820715 -0.021876385
000020 d6 4b fb 3c 84 7b aa 3a 64 61 a4 bc 2e 02 60 bd
       0.03067581 0.0013006781 -0.02006597 -0.05468958
000030 2c 7a d5 bb 18 96 d5 bd fa 30 6e 3d 29 ab a4 bd
       -0.006514808 -0.10429019 0.058152176 -0.08040459
000040 21 79 96 bd 9c 2d b5 bd 57 b8 12 bd 5a a8 ec bc
       -0.07347322 -0.0884659 -0.03582033 -0.02888887
000050 23 f4 e2 3c d8 57 a0 3d 98 17 ab 3c 2f c0 a3 3c
       0.027704304 0.07829255 0.020885274 0.019989101
000060 c6 67 d9 3d a5 4b 83 bd 28 23 c4 3d 70 18 ac bd
       0.10615496 -0.064109124 0.09577018 -0.084030986
000070 35 8c 05 3c 6e 67 58 bd 69 f2 10 3c 5d 4e b6 3c
       0.008151104 -0.052833013 0.008846858 0.022254163
000080 eb 3b 95 3d a4 f3 7d bd 91 11 1d bc 28 c2 81 3c
       0.07286819 -0.061999932 -0.009586708 0.015839651
000090 97 d4 4b 3c c6 d9 53 bc 1e 59 d8 bd 6e bb 6d 3d
       0.012440822 -0.012930339 -0.10563873 0.058040075
0000a0 b0 3c b5 ba 80 62 ac 3d 32 76 b0 3c d8 0a 62 bd
       -0.001382729 0.08417225 0.021540735 -0.055186123
0000b0 98 41 36 3d 97 28 41 3d 8a 68 e9 3c ff d7 df bb
       0.04449615 0.04715785 0.02849223 -0.0068311687
0000c0 a0 eb 27 bd 69 e1 2f bd a5 9d 11 bd 91 1e 68 bd
       -0.040996194 -0.042939577 -0.035550732 -0.056669775
0000d0 86 16 5d bb 90 77 f2 bd 21 e9 1f 3b 7f ba ad 3d
       -0.003373535 -0.11839211 0.002440043 0.08482837
0000e0 8d c6 60 bd 65 c6 8c 3c 8c 2c 57 3b 34 34 57 3c
       -0.054876853 0.017184446 0.0032832948 0.013135005
0000f0 3e d0 b2 3c f2 3c 16 be 91 07 80 bd da 79 a4 3b
       0.021827813 -0.14671686 -0.06251443 0.0050194087
000100 24 65 2c bd 51 08 56 bd 96 c5 43 bd f6 f4 03 3b
       -0.042088643 -0.052254025 -0.047795855 0.0020135022
000110 b1 39 cc bd cb e8 c7 ba 96 14 80 3d 5b 0e 81 bc
       -0.09971941 -0.0015251873 0.062539265 -0.015753916
000120 17 d9 8e 3c eb ad 72 3b e2 38 cf 3d fc 96 91 bd
       0.0174375 0.0037029933 0.101182714 -0.07108876
000130 bb 55 c8 bc 6d 32 2f bd 73 7c f4 3c 04 4f 92 bc
       -0.024454942 -0.0427727 0.029844498 -0.017859943
000140 e5 e5 f0 bc 4d 96 39 bd d5 a6 39 3d 5c 47 da bd
       -0.029406497 -0.045309354 0.04532512 -0.10658142
000150 e9 ca 4e 3c 9e 01 aa bd 0b b3 23 3b 97 96 b3 3d
       0.01262162 -0.0830109 0.0024978544 0.08768957
000160 91 c4 c1 3c b5 40 fc 3c ed 8e b9 bd 34 5a 96 bd
       0.0236533 0.030792573 -0.09060464 -0.07341424
000170 a5 77 87 bd 8b 06 7b 3d fa 73 98 bd 9c cc 79 bd
       -0.06614617 0.061285537 -0.07443996 -0.060986146
000180 6e c7 6b bd c2 56 1c be 02 41 da 3c 19 35 7c bd
       -0.057563238 -0.1526747 0.026642326 -0.061574075
000190 28 ba 2b bd 45 ce 3e 3d ec 8a 83 bc 1c 63 f8 bc
       -0.04192558 0.046583433 -0.016057454 -0.030320697
0001a0 d2 68 2c 3d 28 5f d1 3b 3e fd b2 3c a6 b6 e9 3d
       0.042092152 0.0063895173 0.02184927 0.114117905
0001b0 51 4c 86 3d 12 35 a8 bd ba ef 74 bc d8 77 89 3a
       0.06557525 -0.08213247 -0.014949733 0.0010487987
0001c0 5f e4 36 3d 0a 4e 63 3c 9a 5a b8 bc 3c b7 9b 3d
       0.044651385 0.013873586 -0.02250414 0.076033086
0001d0 cf fe df 3c 21 7c 71 3d 38 00 fd bc 95 18 25 3d
       0.027343182 0.05895627 -0.030883893 0.040306646
0001e0 d8 fc d6 3c 85 7c 25 3d 18 12 f7 3c 20 50 81 3d
       0.026243612 0.040401954 0.030159995 0.06314111
0001f0 b3 11 81 3d 14 43 54 3c 2e 89 aa bd 76 56 84 3d
       0.06302204 0.012955446 -0.08326946 0.064618036
000200 61 c5 a8 3d f0 d3 fa 3c f7 b7 13 3d 06 f5 c9 bc
       0.08240772 0.030618638 0.036064114 -0.02465297
000210 bb 97 b1 3c 24 0b b7 3b 17 f4 9a 3c a1 95 7f 3d
       0.021678796 0.005586045 0.01891522 0.062398557
000220 0e d3 c5 ba cb fc e0 3c 6b 5c 62 bd 6c cf aa 3d
       -0.0015092806 0.027464291 -0.055263918 0.08340344
000230 c2 4a 2a 3b 50 20 20 bd 87 7d 17 3e 35 8e e9 3d
       0.00259845 -0.039093316 0.14793979 0.11404077
000240 d3 70 9b bb c1 82 20 3a b9 0d 8b 3d 38 34 c2 bd
       -0.0047436743 0.00061229995 0.06789727 -0.09482616
000250 6b d5 43 bd 44 58 6e 3d 21 2e 08 bc 3d 3c 38 bd
       -0.047810953 0.058189645 -0.008311779 -0.044979323
000260 26 47 fa bb 59 c9 9a bb e5 ae 71 3d 63 f6 42 3d
       -0.007637876 -0.0047237095 0.059004683 0.047598254
000270 60 6d 4c ba 47 9b a0 3c 84 35 33 3d 91 50 9e 3c
       -0.00077982806 0.019605292 0.04375221 0.019325526
000280 68 fe 1f 3d 45 d1 02 bd 51 f0 99 3c ad 68 63 3d
       0.03906098 -0.031937856 0.01879135 0.05551975
000290 e3 87 35 3c dd 2a 99 3d ac 3d 18 3e 03 fe 25 bd
       0.011079761 0.07478879 0.14867276 -0.040525448
0002a0 86 39 9d 3c fa 4f 01 3d 2e 11 a7 3c ee bc 74 3d
       0.019192468 0.031570412 0.020393934 0.05975049
0002b0 33 33 e4 bd 2d 93 e1 3d 9d ec 0a be 46 1a ce bc
       -0.11142578 0.110144 -0.13566823 -0.025159013
0002c0 9e 2c 60 3d 92 58 07 3d 92 e6 38 bd d2 ab f0 3c
       0.05473005 0.03304345 -0.045141764 0.029378805
0002d0 5f 52 2d 3d 5e 76 08 bc c6 1f 4c 3c 49 44 18 3d
       0.042314883 -0.008329002 0.012458747 0.037174497
0002e0 b3 00 03 be 10 06 a4 3c 7a e9 0f bc 70 af a8 bc
       -0.12793235 0.020022422 -0.0087836925 -0.020591468
0002f0 6e cd 39 3d 00 52 80 3a 9f 24 c7 3c 41 af fa ba
       0.04536193 0.0009790063 0.024309454 -0.0019125716
000300 31 4c d4 3d b7 80 48 bd 00 e9 f2 3c dc 2b 8a bd
       0.10366095 -0.048950877 0.029652119 -0.06746647
000310 c1 65 9f 3c 51 ed 54 3d d3 42 84 bc 39 f2 c0 3d
       0.0194577 0.051984135 -0.016145146 0.094212
000320 10 24 1d bd 00 70 a8 bb 25 0a 51 bc 1b e1 e3 3c
       -0.03836447 -0.0051403046 -0.012758766 0.0278173
000330 0c 96 ae bb f8 bd f2 bc f4 2b 6d 3c 6e d0 e8 3c
       -0.0053279456 -0.0296316 0.014475811 0.0284197
000340 f4 86 c1 3d 0b 50 05 bd 60 1c 9e 3d e6 70 92 3d
       0.094495684 -0.032547038 0.07720256 0.0715044
000350 e6 fa 0e bd f6 f1 ba bd c7 88 87 3b 7a 36 99 b9
       -0.034907244 -0.09128182 0.004136178 -0.00029223022
000360 7f b8 17 3d 69 35 c8 bc 65 5f 2d 3d 9a 4c 9c bc
       0.037041184 -0.02443953 0.042327303 -0.019079495
000370 99 fb 17 bd 7f 8f 6e 3d 34 43 5a 3b c7 b9 d5 bc
       -0.037105177 0.058242317 0.0033304216 -0.026089562
000380 3b 1b e0 bc 3b d8 46 3b 40 97 b2 bd fb b5 00 3d
       -0.027356734 0.0030341286 -0.08720255 0.03142355
000390 9a 74 b2 3d 6c b0 1a ba 18 e3 9a 3d a3 cc 60 bd
       0.08713646 -0.00059009227 0.07562846 -0.054882657
0003a0 09 6a 95 3c 82 51 7e 3d 37 b2 89 3d 24 f5 56 bd
       0.018239038 0.06208945 0.06723445 -0.052479878
0003b0 e8 d1 80 3d 5c fd 06 3d e2 35 92 bd 78 53 a3 ba
       0.062900364 0.032956466 -0.071391836 -0.0012460789
0003c0 1c d8 f6 b9 46 64 48 bc 04 56 1c bc 17 40 ea 3c
       -0.0004708179 -0.012230938 -0.009541992 0.028595014
0003d0 36 d6 c0 bd 35 f1 e2 3c 1f 90 0c 3d 42 d9 25 3d
       -0.094158575 0.027702907 0.034317132 0.040490396
0003e0 94 88 6b bd ea 0a 1f bd c4 5f f0 3d f0 9c 00 3e
       -0.057503298 -0.038828768 0.11737016 0.12559867
0003f0 64 74 0e 3d 45 48 f9 bc 98 c2 61 3c 4f e0 7f 3c
       0.034778967 -0.030429969 0.013779305 0.015617444

weight f4 [256, 1]
000000 76 1f 43 bf a0 41 01 3e 65 3b d4 be dc e6 c7 3e
       -0.7621988 0.1262269 -0.41451564 0.3904332
000010 34 ae 01 3e 71 04 bd be 1e eb 61 bf 90 dd 11 3e
       0.1266411 -0.3691745 -0.88249385 0.14244676
000020 b4 61 a5 3e b6 0b 7e bf 23 d3 2b 3e 3b 78 67 3e
       0.32301104 -0.9923662 0.16779761 0.22604458
000030 f9 17 6c 3e 40 ea 07 bf c1 e5 0c be 75 b3 b3 3e
       0.2305602 -0.5309181 -0.13759519 0.35097852
000040 25 b2 3a be bc 08 ac bd 11 d5 93 be 8b f1 39 3f
       -0.18232019 -0.084001034 -0.28873494 0.7263419
000050 49 a2 7d bc 6b d2 77 3f 4e e2 6d 3f 7c d9 14 bf
       -0.015480586 0.9680545 0.9292344 -0.58144355
000060 88 67 17 bf 0b a6 42 3f c8 e7 08 3f 6f 40 57 3f
       -0.5914235 0.7603461 0.5347867 0.8408269
000070 9a ee 02 3f 4b 1d 78 be 3a 3c 36 bf e2 fc 4e bf
       0.5114533 -0.24229924 -0.7118565 -0.8085462
000080 07 88 5a bd e8 fe 5d bf c0 89 e0 bc 42 e3 4b 3f
       -0.053352382 -0.8671708 -0.027409434 0.7964364
000090 bb 22 65 bf a1 81 c5 bf ea cd 6b bf 9c 57 0c 3f
       -0.8950612 -1.5430185 -0.92111075 0.5482118
0000a0 71 49 6d bb 7f 12 11 3e 2b d2 51 3f c3 5b 51 3f
       -0.0036207105 0.14167212 0.81961316 0.8178064
0000b0 a0 43 10 3d f2 54 1f 3f c6 38 ea 3e f8 62 29 3f
       0.035220742 0.6223899 0.4574644 0.6616664
0000c0 d0 5c 11 bd d4 79 f4 bc 30 cf 91 bd c4 ed aa be
       -0.035488904 -0.029843248 -0.07119596 -0.33384526
0000d0 71 dd f5 3d 7a 8b 2d bf 21 1a 35 3f c6 71 ba 3e
       0.12005127 -0.6779095 0.70742995 0.36414927
0000e0 cf 5b f7 bf 25 d6 c7 3e 24 08 7b bd 3d aa c5 3e
       -1.9324893 0.39030567 -0.06128706 0.38606444
0000f0 c8 0a 58 bf ca 48 8d 3e ba 47 0e bf 36 b2 08 be
       -0.8439145 0.27594596 -0.55578196 -0.13349232
000100 56 ce 4f 3e 2c 6a 7e 3f 3a bd 4d bf 52 f7 53 3e
       0.20293555 0.99380755 -0.8036686 0.20699814
000110 b6 e1 7d 3f ff 07 a0 be 0f 15 ca bf 00 9a aa bd
       0.9917253 -0.312561 -1.5787677 -0.083301544
000120 20 b5 52 3e fe af 41 bf e7 21 38 3f 4b 67 82 3e
       0.20576906 -0.7565917 0.7192673 0.2546943
000130 8f a3 14 3f e0 15 13 be 3d 5b d6 3e c3 9a 0a c0
       0.5806207 -0.14363813 0.41866484 -2.165696
000140 88 17 4b 3f b0 94 e8 3e eb 04 d2 3e 64 b5 2a 3f
       0.7933278 0.4542594 0.41019377 0.6668303
000150 f0 b2 89 bd 97 6f 23 3f 01 24 1e be a0 c6 7d bd
       -0.06723583 0.6384215 -0.15443422 -0.061957
000160 63 f9 bf 3e 80 97 ff be 8c 5f 33 3f 41 ba f0 3e
       0.37494954 -0.49920273 0.7006767 0.470171
000170 7a b8 74 bf e5 22 82 3e 60 dd 2b bf 77 af 2a 3f
       -0.9559399 0.25417247 -0.67134666 0.6667399
000180 18 4d ed 3d 20 fd 70 bf cc c3 cc bf f1 c0 1d 3f
       0.1158697 -0.9413624 -1.5997252 0.6162253
000190 fc 72 b5 be 6a 70 50 3f 73 04 1f 3e f7 3f bd 3e
       -0.3543929 0.8142153 0.15529041 0.36962864
0001a0 10 46 c9 bd f4 13 0c bf 9f df b4 3e ed c1 0f 3f
       -0.098278165 -0.54717946 0.3532686 0.5615528
0001b0 d5 fe e6 3e 6d 59 95 be 60 ac 83 bd 0b c4 98 3e
       0.45116296 -0.2916979 -0.06429362 0.2983707
0001c0 14 cf a8 be 88 db c6 bf 6e b3 83 3e ea 8e d8 3d
       -0.32970488 -1.5535746 0.2572283 0.10574134
0001d0 58 74 1f bf d0 f5 70 be fd 70 67 3f 00 20 87 be
       -0.622869 -0.2353127 0.9040678 -0.26391602
0001e0 10 86 f3 be 7c 33 24 3e 93 dd ed 3d 62 1b 10 bf
       -0.4756322 0.16035265 0.116145276 -0.5629178
0001f0 7b 4b 66 3e c0 23 60 3d 50 e6 28 be d7 53 19 3f
       0.22489731 0.054721594 -0.16494107 0.59893554
000200 a6 9c 12 be f8 6b f4 bd d4 61 82 be ce 57 41 bf
       -0.14317569 -0.11934656 -0.25465262 -0.75524604
000210 9a 2e c8 3e 57 4f 09 bf 0f 73 fd 3e a0 9e 27 bf
       0.39098054 -0.5363669 0.49501845 -0.6547642
000220 f9 8d b0 bf 80 18 0f 3c 90 cd 69 bf 80 86 60 3e
       -1.3793327 0.008733869 -0.9132929 0.21926308
000230 a0 5d 36 3e 0b 59 2e 3f 91 c7 b0 3e 20 5f ba 3d
       0.17809153 0.6810462 0.34527257 0.09100175
000240 18 38 c1 3c 60 65 33 3d 63 06 42 3e 9e ab 66 3f
       0.023586318 0.04379785 0.18947749 0.9010562
000250 98 74 22 3f 18 63 cc be a4 8b 9d be cc 9e ed be
       0.6345916 -0.39919353 -0.307706 -0.46410215
000260 f8 30 ea be 7c 4c c5 3e ad ae 5b 3f 9d ba 1a 3c
       -0.45740485 0.38534915 0.8581341 0.009443906
000270 4e 46 7c bf 97 18 c2 3d e0 2b 04 bf ec 0d 4b bf
       -0.98544776 0.094773464 -0.5162945 -0.7931812
000280 74 5c 33 be e6 27 b0 3e 32 b8 72 bf b6 bd b1 3e
       -0.17515737 0.3440544 -0.9481231 0.3471505
000290 84 03 8c be 70 12 d9 3e 8f 46 42 3f d3 fa 30 3f
       -0.27346432 0.4239688 0.75888914 0.6913273
0002a0 d8 17 45 3c 12 46 0c 3f 3a 83 cc bf 77 c2 f4 bd
       0.012029611 0.5479442 -1.5977547 -0.11951154
0002b0 b3 a0 96 be 62 ef 95 be 8d 45 b4 3d d7 b3 76 3f
       -0.2941948 -0.29284197 0.08802328 0.96368164
0002c0 f5 cc dd bf 39 3b b7 be bc 54 06 3d ca 92 b5 bf
       -1.7328173 -0.3578737 0.032795653 -1.4185421
0002d0 44 dd ce be c6 f4 00 bf d4 72 71 3f 42 39 49 bf
       -0.40403187 -0.50373495 0.9431584 -0.78602993
0002e0 68 67 3c bf 2e 8c 52 bf de 15 3a bf d4 2f 50 3f
       -0.73595285 -0.8224515 -0.72689617 0.8132298
0002f0 f6 2f 32 bf 61 d6 99 bd 98 30 46 be 96 b1 62 bf
       -0.6960443 -0.07511593 -0.19354475 -0.88552225
000300 6e 8d 4a bf c1 ed db 3e 82 da 40 3f 28 e8 b7 3d
       -0.79122055 0.4295483 0.75333416 0.08979827
000310 9e e7 ab be a2 63 6f 3f 5a 36 21 3f f2 36 d8 3e
       -0.33575147 0.935114 0.6297356 0.4222942
000320 2b d8 a9 bf 7e 2d 0e bf c5 9b 53 bf b9 2a a4 3e
       -1.3269094 -0.55538166 -0.8265956 0.32063845
000330 a7 71 e5 3e 90 50 fb be 8d 67 f0 3d 36 6c 60 3f
       0.44813272 -0.49084902 0.11738501 0.87665117
000340 c4 5e 47 3f c5 46 6a 3f 13 f0 36 3f 77 07 f2 bb
       0.77878976 0.91514236 0.71460074 -0.007386144
000350 d2 35 f7 3e 20 7d 2f be ee 75 7a bf ca df 63 3f
       0.4828325 -0.17137575 -0.97836196 0.8901335
000360 ef 40 44 3e 20 df fe bd 1f 98 e6 3e 2d df 72 3f
       0.19165395 -0.124449015 0.45037934 0.9487179
000370 7f f7 e3 3e 3f 2d 0c be 34 67 2f 3f 32 07 e0 bd
       0.44524762 -0.13689135 0.6851685 -0.109388724
000380 33 dc 79 3e aa 6d 14 bf db 6b c9 3e 28 d5 82 be
       0.24400406 -0.57979834 0.393401 -0.2555325
000390 a4 a0 0e 3d b0 a3 b5 bd 19 b2 e7 3e e9 95 92 be
       0.034821168 -0.088691115 0.45253065 -0.28629997
0003a0 85 31 8a be cc fe 4a bf a8 f4 25 3f 65 ee 07 3f
       -0.26990905 -0.7929504 0.6482644 0.53098136
0003b0 5b cf 7e bf b6 cf 55 3f 29 6c ea 3d 10 52 e4 bd
       -0.9953515 0.83520067 0.11446411 -0.11148465
0003c0 0f 32 5f bf c2 78 7d 3d 00 6c cf bd cc 87 b2 bd
       -0.8718576 0.06188274 -0.10128021 -0.087173074
0003d0 12 fe 08 bf f4 d5 41 bf bd 0f ba bd c8 59 aa be
       -0.5351268 -0.7571709 -0.09085033 -0.33271623
0003e0 4b ee 73 bf 86 52 26 bf 2e fe 62 bf b3 28 6b 3f
       -0.9528548 -0.6496967 -0.886691 0.9185898
0003f0 4e 6d e6 3b 17 62 0c be 8e a6 10 bf ae cd c2 3e
       0.007032073 -0.13709293 -0.5650414 0.38047546

bias f4 [256]
000000 2a 52 3b 3f 2b d6 46 3d 0b cc 71 3e 97 f1 11 bf
       0.7317225 0.04854409 0.23612992 -0.5700926
000010 3f 21 02 3f 04 36 86 3f b0 b9 75 bf 6f 7c 04 3f
       0.5083198 1.0485234 -0.9598646 0.5175237
000020 2c 6a fa be a4 58 9e be f3 11 00 3e f5 67 1e 3f
       -0.48909128 -0.30927002 0.12506847 0.61877376
000030 59 d6 28 3f fc 05 6f bf 87 07 e7 3d 9f b9 7d bf
       0.6595207 -0.93368506 0.112807326 -0.9911136
000040 ad ce 05 3f a4 f0 44 3f ad c6 e3 3e bc bd 08 3f
       0.5226849 0.7692969 0.44487515 0.5341451
000050 14 bf da 3e 62 bd 6f 3e af 41 b8 be 38 78 a5 be
       0.42723906 0.23412088 -0.35987613 -0.32318282
000060 a8 ad 8b be 9b 61 4e 3f 1a 86 60 3f 01 c4 ee be
       -0.27280927 0.80617684 0.8770462 -0.46633914
000070 54 42 f1 be 58 11 33 3f 76 05 36 bf 88 e6 8f be
       -0.47120917 0.6994834 -0.7110208 -0.2810557
000080 cf 9b 1d 3e 60 5b d2 bd b8 52 80 be 46 d5 69 3f
       0.15391468 -0.10271335 -0.2506311 0.91341054
000090 33 77 e3 3e e7 c0 d1 3e 95 28 6d 3f f7 9c e0 be
       0.4442688 0.40967485 0.9264005 -0.43869755
0000a0 e4 f3 70 3e f2 ba 60 3f 25 e6 31 bf fa 14 59 bf
       0.23530537 0.87785256 -0.694918 -0.8479763
0000b0 28 0f 45 be 2c 5b f8 be 67 cd 7c 3e 9d b3 54 bf
       -0.19244063 -0.4850706 0.2468773 -0.8308657
0000c0 da 36 d9 3d 70 25 f0 3e 10 af f6 be 80 80 6c bc
       0.10606165 0.46903563 -0.48180437 -0.014434934
0000d0 19 da fd be cc 74 59 bf 5f 70 74 3e 8c 6e 83 bf
       -0.49580458 -0.8494384 0.23870991 -1.0268111
0000e0 b4 72 0c 3f 1b a5 30 3f 2e b4 b4 3e ef 06 4e 3f
       0.54862523 0.6900193 0.35293716 0.8047933
0000f0 1d 9f 34 3f 4d 71 8b 3b 2e fc f9 3d 03 27 c6 3e
       0.7055529 0.00425545 0.122063026 0.3870164
000100 e1 e0 b2 3d f6 37 97 be cc 13 48 bf 0f b1 87 3d
       0.087342985 -0.29534882 -0.7815521 0.06625568
000110 1a ac 76 bf 9e 22 55 3e ce b3 40 3e c4 f3 bd be
       -0.96356356 0.20813987 0.1881859 -0.3710004
000120 03 83 18 bf c0 2b 00 bd ab b7 57 3f 31 dd c5 bd
       -0.5957491 -0.031291723 0.8426463 -0.096613295
000130 be d1 35 3f 56 e2 12 bf f5 2a ff 3e 83 ee 17 3f
       0.71023166 -0.5737661 0.4983746 0.59348315
000140 41 19 66 3f dd 7d 00 3b 94 84 ae 3e 95 f8 58 3f
       0.89882284 0.001960627 0.34085524 0.84754306
000150 40 1a 30 bd 6d ea a3 3e 55 22 69 3f 0c 12 b3 be
       -0.042993784 0.3201479 0.9106801 -0.34974706
000160 fe 71 59 3b 40 ba 20 be 92 d9 55 3c 5f 68 56 3f
       0.0033179517 -0.15696049 0.013052361 0.8375301
000170 d8 f5 2e bf f2 d0 39 bf 80 a9 fb bd 4b 47 31 3f
       -0.6834388 -0.7258445 -0.12288189 0.6924941
000180 8c 7c 80 3e 20 f2 e7 bd 16 17 16 3f 07 d0 0f 3f
       0.25095022 -0.113254786 0.58628976 0.561768
000190 00 15 9d bc c0 35 62 bf 12 26 a8 3e 8f 1b 85 bf
       -0.019175053 -0.88363266 0.32841545 -1.0399035
0001a0 20 fd 39 bf a0 05 f3 be bc 54 2d 3f 73 7c 35 bf
       -0.72651863 -0.4746523 0.6770742 -0.7089302
0001b0 80 94 23 bf c2 dc 78 3f 72 9d 78 bf 3a e3 e5 be
       -0.6389847 0.9721185 -0.9711524 -0.44899923
0001c0 d4 64 2b bf 9d cb b6 3e b4 d6 31 3f 70 16 e5 3e
       -0.66950727 0.3570222 0.69468236 0.4474368
0001d0 64 a3 a2 be 18 10 ba be 08 e7 bc b8 a2 25 42 3f
       -0.31765282 -0.36340404 -9.0075715e-05 0.75838673
0001e0 c0 71 c2 bc 92 8a ed be 9e 85 09 3f 0c 92 eb be
       -0.02373588 -0.46394783 0.5371951 -0.46009862
0001f0 a4 b9 1c 3f 54 9f 9a be a8 58 c1 be 76 be 80 3f
       0.61220765 -0.30199683 -0.37762952 1.0058124
000200 a6 3f d2 3d 3c 90 6e 3f 00 17 7b be 80 ea 27 bf
       0.10266046 0.93188834 -0.24520493 -0.65592194
000210 62 f5 86 3e 59 e4 18 3f b9 c8 af 3e 4c 84 3b bf
       0.26359087 0.5972343 0.34332827 -0.73248744
000220 ad 08 2b 3e 80 79 d1 be f1 35 81 3e 8f a5 15 3f
       0.16702528 -0.4091301 0.25236467 0.5845575
000230 9b 6c ac 3c 98 09 c0 bb 02 2f 3b 3e b8 06 52 bf
       0.02104788 -0.0058605187 0.18279651 -0.820415
000240 46 0b 92 3c ee 57 5a bf a7 b6 0b bf dc e9 8b bf
       0.017827641 -0.8529042 -0.5457558 -1.0930743
000250 66 71 60 3f d6 60 79 bf 88 ac c1 be df 25 ab 3e
       0.8767303 -0.97413385 -0.37826943 0.3342733
000260 c8 7c a5 be 64 e7 11 bf 18 2a 47 3f f9 c2 20 3f
       -0.32321763 -0.569937 0.77798605 0.62797505
000270 20 1d 53 be b8 5d a4 3e ec f6 c6 be f0 e4 5a bf
       -0.20616579 0.32102752 -0.3886026 -0.8550558
000280 19 ea 02 3f 39 e7 05 bf 10 72 0e bf e4 f3 45 3e
       0.51138455 -0.5230594 -0.55642796 0.19331318
000290 00 00 65 bd 8c 12 1a bf 94 e0 77 3d 71 c6 1c be
       -0.055908203 -0.6018455 0.06051691 -0.15310074
0002a0 8b ae 77 3f ed 40 43 3f 43 e5 5e 3e f1 cd b1 3e
       0.96750706 0.76270944 0.21767144 0.34727433
0002b0 00 4f ec 3e bb d5 57 3f 2c b8 aa 3e 7a d8 ce be
       0.46154022 0.843105 0.33343637 -0.40399534
0002c0 9a 98 8a 3e 41 3d e6 3e b2 70 26 3f 20 06 c5 3d
       0.2706955 0.44968608 0.6501571 0.09620309
0002d0 b0 3f 9c be c0 52 75 be 0d db 88 bf c7 18 2e 3f
       -0.3051734 -0.23957348 -1.0691849 0.6800656
0002e0 98 af 42 be 50 80 24 bf 20 0f 60 bd 84 05 86 bf
       -0.19012296 -0.6425829 -0.054701924 -1.0470433
0002f0 80 00 4b bc f9 68 5d ba 1c fc 1a bf 34 18 9e be
       -0.012390256 -0.0008446123 -0.6054094 -0.3087784
000300 b8 5f 56 bf f4 f5 47 3f 3d c8 f8 3e 4b cd 01 3f
       -0.83739805 0.7810967 0.4859027 0.5070388
000310 e9 4c 83 3e 9c cc 48 bf 8c b4 a7 3e 95 8e 63 3f
       0.25644615 -0.7843721 0.32754934 0.8888944
000320 19 be 05 3f d0 7f 8b be aa fe fe 3e 39 e9 49 3e
       0.5224319 -0.2724595 0.49803668 0.19717874
000330 05 53 f3 3b d0 e8 77 be 90 be b2 3e 1b 51 7f bf
       0.007425668 -0.24209905 0.34911013 -0.9973313
000340 cb ef fd 3e d1 dd 5e 3f 04 d8 62 3e 6b 8a d0 3e
       0.4959701 0.87057215 0.22152716 0.40730605
000350 94 2b cc 3b 10 e1 76 be e0 c3 33 bd 6e e6 17 bf
       0.006230781 -0.24109292 -0.043887973 -0.5933598
000360 25 c4 70 3f e0 60 6d bf 29 8f f1 3d cf 7d 94 3d
       0.9404929 -0.92725945 0.11794884 0.072505586
000370 b7 51 1f bf 1f 38 dc 3d df c8 68 bf 51 ce a1 3e
       -0.6223406 0.10752892 -0.90931505 0.3160272
000380 99 a4 21 3f 28 11 3c be b1 ef a6 3c 14 de 6d bf
       0.6314178 -0.1836592 0.020377966 -0.9291699
000390 13 53 07 3f 2f b5 83 3e 3f 2d 4a 3f f3 55 52 3f
       0.52861136 0.2572417 0.7897529 0.821624
0003a0 42 14 52 b9 42 74 10 bf 41 6f 39 3b a2 42 47 bf
       -0.00020034707 -0.56427395 0.0028295072 -0.7783605
0003b0 c1 c1 a6 3e 2f 69 3a 3d aa c6 0c b9 a0 a7 d5 bd
       0.32569697 0.045510467 -0.00013425449 -0.104323626
0003c0 1d 36 4b 3f e1 7a 3e 3f 62 7b 5d bf a8 f7 81 3e
       0.79379445 0.7440625 -0.8651639 0.2538426
0003d0 86 96 19 bf 81 96 63 3f 99 83 bf 3e d0 14 71 3f
       -0.59995306 0.88901526 0.3740509 0.9417238
0003e0 28 e9 c5 ba 50 3a 74 3f f1 9f 81 3f 1b 1f 7a 3e
       -0.0015099393 0.9540148 1.0126935 0.24425928
0003f0 ad b0 5a 3f 26 e6 51 3e 65 c5 56 3f 15 77 d6 3e
       0.85425836 0.20497951 0.8389495 0.41887727

weight f4 [1, 256]
000000 49 fd df 3c 5a 60 79 3d 42 34 aa 3c 29 55 ea 3b
       0.027342455 0.060882904 0.020776872 0.007151265
000010 42 3c 15 3d 43 69 12 3d 65 f3 55 3d b8 40 b1 bb
       0.03643442 0.035744917 0.052234072 -0.0054093264
000020 a0 81 14 3c e5 93 ed bc 2b 54 f7 bc b6 d9 e3 ba
       0.009064108 -0.029001186 -0.030191502 -0.0017383609
000030 e1 28 6a 3d 3a 84 b4 bc 92 a4 07 bd 8c f1 c5 bb
       0.05716789 -0.022035707 -0.03311593 -0.0060407575
000040 68 a8 19 bd 13 b3 0d bc bf 7e 59 3d cf 86 78 3d
       -0.03751412 -0.008648652 0.05309939 0.06067544
000050 f8 9e a9 3d be 2d 75 bb fa 26 65 3c e7 12 1a bd
       0.08282274 -0.0037411298 0.0139863435 -0.037615683
000060 fe 92 db 3c 76 62 12 3c 73 68 9e bc 41 fd 9f 3c
       0.02680349 0.008934608 -0.019336915 0.01952994
000070 5a 0a 9b bc 13 3e e7 3c 1c f7 c3 3b e0 00 3b 3b
       -0.018925834 0.028227841 0.0059803855 0.0028534457
000080 3c 9d 2d bd 0d 96 26 bc 89 e4 a9 bb c8 3c 97 3d
       -0.04238628 -0.010167611 -0.005184714 0.0738464
000090 71 43 6d bd 5c d8 34 ba 5d 18 bd 3c db 67 a9 bc
       -0.057925645 -0.0006898695 0.023082906 -0.020679405
0000a0 59 0d 3c 3d 39 cf 6a 3c 4c 59 40 bd 8c d2 bd bb
       0.045911167 0.014331632 -0.04696016 -0.0057929214
0000b0 7f 9d b0 bc 66 52 a3 bd 01 46 80 bd 6d ef 5d bd
       -0.021559475 -0.07974701 -0.06263352 -0.054183412
0000c0 b1 fd c7 bb 6a d0 7d 3d 3c 2c b7 bb f8 ef c1 3a
       -0.0061032404 0.061966337 -0.00558999 0.0014796248
0000d0 d0 a4 8c bc ce 99 1a bd 59 7e 15 bd 62 75 d1 bb
       -0.017168432 -0.037744336 -0.036497448 -0.006392167
0000e0 25 db 99 bc bb 19 53 3d 2b 17 85 bc cd 94 c9 bc
       -0.018781254 0.05153821 -0.016246399 -0.024607087
0000f0 7a b4 46 bd 70 a9 f8 3c 0f 44 15 bd 47 30 bf 3c
       -0.04851196 0.030354232 -0.03644186 0.02333845
000100 aa 33 72 bd 0e ef ce bb 4e 6e d7 bc 0f 31 28 3d
       -0.059131302 -0.0063151186 -0.026297715 0.04106241
000110 66 ab 94 bd a2 ab a4 bc cd 97 87 bd c9 e9 29 3d
       -0.07259254 -0.020101372 -0.066207506 0.04148272
000120 d4 a9 40 3c 15 bc 2a bd e3 ed a9 3d 9a f4 5d bd
       0.01175924 -0.041683275 0.082973264 -0.05418835
000130 c5 9a e1 bc 1c 33 1c bd e5 61 85 3d 98 9a 11 bd
       -0.02753962 -0.03813468 0.065128125 -0.035547823
000140 92 e6 64 3c 80 6a 40 bc 61 ef 08 3b 77 00 35 bd
       0.013970988 -0.011744142 0.0020894634 -0.044189896
000150 1b 06 5a 3d 8e 10 96 bb 6b e6 00 bd 8c f1 19 3c
       0.05322848 -0.00457961 -0.031469744 0.009395968
000160 2d fd 24 bd 6d 07 02 3c fb b6 9a 3c 02 9b a0 3d
       -0.04028051 0.007936341 0.01888608 0.078420654
000170 c4 b5 7f 3c d1 03 c4 ba ba 28 9c 3c 05 a1 11 bd
       0.015607301 -0.0014954751 0.019062389 -0.03555395
000180 4f 57 2d 3c 15 fd 61 3d 39 dc dc bc 63 db af 3c
       0.010579898 0.055173 -0.02696048 0.021466916
000190 e3 62 23 bc be 16 44 3d f0 6b 8b 3c 35 06 df bc
       -0.009972307 0.04787325 0.017019242 -0.02722464
0001a0 a2 56 98 3b 7f 91 00 bd c2 eb 1f bd 28 79 93 bb
       0.0046489993 -0.031388756 -0.039043196 -0.004500527
0001b0 4f 41 e7 3c 9a 6f bc b9 00 b1 55 3d 9c 1f aa bb
       0.028229384 -0.00035941304 0.052170753 -0.0051917564
0001c0 52 42 8a bd a0 07 a7 3c cc 39 51 bc 08 97 15 3d
       -0.06750931 0.020389378 -0.0127701275 0.036520988
0001d0 5c 66 3a 3d f8 87 53 3b 4f 83 97 bc 0a 91 63 3c
       0.045507774 0.0032277089 -0.01849523 0.0138895605
0001e0 a6 b8 1a bd f9 ba b9 3c 2e e6 4f 3d 77 88 15 bb
       -0.03777375 0.022672163 0.050756626 -0.0022816935
0001f0 50 fa 73 3c 4a 07 83 3d 06 f0 00 bd 00 e9 89 3d
       0.014891222 0.06397875 -0.031478904 0.06733894
000200 03 cb 04 3d f1 34 81 3d 34 8e 45 3d 3b 1a 7c 3d
       0.03242017 0.06308926 0.04823132 0.061548453
000210 e3 b6 33 3d 2b 59 84 bc 4f 65 5d 3d 50 b4 bd 3c
       0.043875586 -0.0161558 0.054051694 0.023157269
000220 13 ac 61 bd 7f 6a 41 bd fb 4b 1a bd d9 a1 02 3d
       -0.055095743 -0.047220703 -0.037670117 0.03189263
000230 75 44 24 bc 55 f9 d1 3b 94 58 c8 bc 13 c9 a1 bc
       -0.010026087 0.0064078965 -0.0244563 -0.0197492
000240 04 41 f5 3c b4 6e 07 3d 91 cc 43 3d cd b3 e9 3c
       0.029938228 0.03306456 0.04780251 0.028528119
000250 cd d4 43 3d 04 ec 84 bc b9 1c 10 bd 98 51 1c 3d
       0.047810365 -0.016225822 -0.035183642 0.03816375
000260 98 af e7 3c 31 d6 30 bd 0a d5 e9 bb 86 ee 3d 3d
       0.028281972 -0.04317302 -0.007135992 0.04637005
000270 f0 07 93 bc 6f 0f 68 bd 83 ce 3e 3c e2 c0 90 bc
       -0.01794812 -0.056655344 0.011645916 -0.017670099
000280 c6 bd f5 3c 49 10 81 bd ea 8e 15 bd 64 b4 08 bb
       0.029997718 -0.06301934 -0.036513247 -0.0020859474
000290 fd fc 00 3d 6c ff 03 3d 6b f3 b7 3c 37 45 d6 3c
       0.03149127 0.03222601 0.022454938 0.026156051
0002a0 80 c1 36 3d 8e b0 35 3d e3 cb 58 bd d3 da f4 bc
       0.04461813 0.04435783 -0.052928817 -0.0298895
0002b0 23 74 ff bc c5 c9 80 3d 26 49 87 bc 23 88 ca bc
       -0.031183308 0.062884845 -0.016514372 -0.024723118
0002c0 d1 1b 9b 3c d0 9d b3 3c 4f 44 8f 3d 6c 35 8d bc
       0.018934162 0.021925837 0.06995451 -0.017237388
0002d0 d7 56 7e 3d 9b 89 ea 3c f1 6d 68 3c 83 30 25 bd
       0.062094536 0.028630069 0.014186368 -0.040329468
0002e0 c6 60 19 3d 5b 05 b0 3c 3c a7 90 3c ff 9c 1f 3d
       0.037445806 0.021486929 0.017657869 0.038968083
0002f0 70 58 2c 3d 4c bf 8e 3d bf 48 5f 3a b8 44 cd 3b
       0.042076528 0.06970081 0.0008517615 0.0062642954
000300 6d d3 39 3d 39 6d 62 bd 1c 99 4e bd 19 f8 9e 3d
       0.045367647 -0.055279944 -0.050438985 0.077621646
000310 3c f3 14 bd 57 83 26 3d bf 26 04 3d bf cd 89 bc
       -0.03636478 0.0406526 0.032263514 -0.01682174
000320 9c ef 17 bd e5 a5 fe bc 61 c4 6a bd 37 8c bc bc
       -0.037093744 -0.031084964 -0.057316188 -0.023016078
000330 67 d8 25 3d 8a f2 46 bd 13 64 be 3c 25 e6 89 3c
       0.04048958 -0.048571147 0.023241078 0.016833374
000340 85 bf 03 bd 2d 0b c0 bb cf 1c 51 bd 99 d1 f3 3c
       -0.03216507 -0.0058607073 -0.051052865 0.02976303
000350 5c 0d 05 bc 6a 93 d5 3c 9c 04 84 3c dc 6f 70 bd
       -0.008120861 0.026071269 0.01611548 -0.058700427
000360 b6 e3 83 bc 36 29 f5 3a d3 0b 33 3d dc 0e f5 3c
       -0.016099792 0.0018704298 0.04371245 0.029914312
000370 82 5f 22 bd 82 05 fb bc da b8 e7 3b 4f 40 2a bb
       -0.039641865 -0.030642275 0.0070715966 -0.0025978272
000380 3d d5 4b 3d fb 3b b7 3c 92 fc 26 3d d1 fe 34 3c
       0.049763907 0.022367468 0.040768214 0.011047081
000390 fe 83 3e 3c 7b cc 61 bd 9e e4 28 3d d9 27 91 3c
       0.011628149 -0.05512665 0.04123365 0.017719196
0003a0 4a d6 cc 3b f0 d2 1e bd f2 4a 9c 3c 39 0c 72 bc
       0.006251131 -0.038775384 0.019078705 -0.014773422
0003b0 d1 64 7b 3c 36 1c 1b bd 5b 6a dc 3c 08 a1 3e 3d
       0.015343861 -0.0378687 0.026906183 0.04654029
0003c0 f4 6b 3f bd 04 cb 7d bb 4d f2 cf 3c ff 30 56 bb
       -0.04673381 -0.0038725743 0.025384093 -0.0032683013
0003d0 38 c2 47 bd 33 47 12 bd 46 40 d0 bc 04 c9 b8 bb
       -0.048769206 -0.035712432 -0.025421273 -0.0056391973
0003e0 8a da 76 3d 0b b2 63 3b ca f1 a9 bc 68 c2 57 3b
       0.06026701 0.0034743573 -0.020745177 0.0032922272
0003f0 a1 02 8e bb 8f 59 62 3d 1e 2c 9b bd cd 49 ea bc
       -0.0043338095 0.05526119 -0.07576774 -0.028599644

weight f4 [256, 1]
000000 9d e0 4e 3f 00 47 3b bc a3 bb 0c 3e a0 4e 08 bf
       0.8081148 -0.011430502 0.13743453 -0.5324497
000010 8f b6 2b bf 76 d3 5b 3f 7f 37 3a 3f 6e 76 62 be
       -0.6707544 0.8586954 0.7274093 -0.2211549
000020 fd cc b9 bf b7 a7 d1 3e 46 d9 6d be e4 a3 cd be
       -1.4515682 0.4094827 -0.23227414 -0.401641
000030 a8 00 d4 3e 58 68 88 be bd 5b c9 be a4 d4 ce be
       0.4140675 -0.26642108 -0.39327803 -0.40396607
000040 30 20 8d be 6f 7a d7 3d dd bd ec bf db 78 d0 3e
       -0.2756362 0.10521399 -1.8495442 0.40717205
000050 10 9e 47 be fe 67 3d bf fa 11 70 bf c8 9a f9 be
       -0.1949389 -0.73986804 -0.9377743 -0.487509
000060 61 9c 93 3e 8e bb 0f bf 8c 69 51 3f d0 f0 bf bd
       0.28830245 -0.5614556 0.81801677 -0.09372103
000070 5b 55 bd 3e 06 05 29 bf e4 09 ef 3c 27 15 d6 bc
       0.36979184 -0.6602329 0.02917952 -0.026133133
000080 73 0f c7 be 7b a1 cf 3e 5c 3f 5a bf 80 13 1f 3c
       -0.38878974 0.40552887 -0.8525293 0.009709239
000090 9e 14 ea 3e 4f ec 15 3e d2 5d a5 3e 9c 45 3d 3f
       0.45718855 0.14640926 0.32298142 0.7393434
0000a0 c8 68 2a bf 0a 49 fe 3d 2e 78 88 bf a0 bc ad be
       -0.66566133 0.12416275 -1.0661676 -0.33932972
0000b0 9d 49 69 3f a7 f0 25 3f 74 f7 9b be 6c ea 05 3f
       0.9112795 0.6482033 -0.3046223 0.52310824
0000c0 4b 13 77 bf ec 03 8f 3e 0c 7d 90 be 0a 8c 23 3f
       -0.96513814 0.2793268 -0.28220403 0.6388556
0000d0 31 7d b4 bf 80 fa 18 bc 26 d8 13 bf 56 5a c3 3e
       -1.4100705 -0.009337068 -0.5775169 0.38154858
0000e0 09 bc 88 bf 3d c0 8b 3e c1 53 86 bd 82 c2 d8 3e
       -1.0682384 0.27295104 -0.065589435 0.42335898
0000f0 2b 63 ac 3d aa da a5 3e 40 49 7f bf 77 73 b1 be
       0.08417352 0.3239339 -0.99721146 -0.34658405
000100 e2 2e 54 bf 9e af 70 3f 29 9c 05 3f e3 3f 02 bf
       -0.8288404 0.9401797 0.52191406 -0.50878733
000110 89 a1 48 3f 01 07 13 3e d3 3e 20 3f b2 60 12 bf
       0.78371483 0.1435814 0.6259586 -0.57178795
000120 68 e1 0b 3f f0 b2 e2 bd 02 bf 28 bf 3b 38 ff be
       0.5464082 -0.11069286 -0.65916455 -0.49847588
000130 1e 86 3c 3f 3c 2a 25 bf 2e 3e 1b 3f 6f 4c a7 3e
       0.73642147 -0.6451757 0.60641754 0.32675502
000140 40 ac 0e bd 57 b3 f6 3e cb 83 44 3f c8 12 18 bf
       -0.03483224 0.481837 0.767636 -0.5940366
000150 c7 97 83 bf f1 ae c2 3e c9 34 3a 3f fc 69 61 bf
       -1.0280694 0.38024095 0.72736794 -0.88052344
000160 52 e8 6e 3f 28 73 d9 3b f0 37 d3 be a5 9e 30 3f
       0.9332324 0.006636042 -0.41253614 0.6899207
000170 04 69 11 bf a0 2f 8c 3e b0 5a cd be 1a 1b 2b bf
       -0.56800866 0.27380085 -0.40108252 -0.6683823
000180 88 6e 5f bf f6 63 20 bf 5c 78 5f 3f 0b 90 11 3f
       -0.8727803 -0.6265253 0.8729303 0.5686042
000190 8c 66 25 bf 06 ae 38 3f 0a 7e 3b 3f 67 ce 14 3f
       -0.646096 0.7214054 0.73239195 0.58127445
0001a0 41 2d 43 3c 32 47 61 bf e6 43 5a bf 98 17 94 3e
       0.011912645 -0.8799926 -0.85259855 0.2892425
0001b0 63 e5 4a bc 3b 05 6a 3e 23 6d 32 bf 24 f9 ed be
       -0.012383792 0.22853558 -0.6969778 -0.46479142
0001c0 18 1c 19 3f de 00 29 3e ea 8b 1f bf 86 22 85 bd
       0.5980849 0.16504237 -0.62322867 -0.065007254
0001d0 7d 9a 23 3f d2 7a 52 3f f4 eb fb be f5 0f 02 3f
       0.63907605 0.8221866 -0.49203455 0.508056
0001e0 78 98 5c 3e d8 1c 9d be 58 74 3e bf 33 6d 95 3e
       0.21542537 -0.3068607 -0.74396276 0.29184875
0001f0 b0 67 f0 be 82 aa 90 3e 73 03 38 bf eb 7d 7f 3f
       -0.46954107 0.28255087 -0.71880263 0.9980151
000200 45 a7 58 3f 60 71 5b be f3 3d 35 bf 79 f2 52 3c
       0.84630233 -0.21429968 -0.7079765 0.012875193
000210 cd 9c e2 be 10 2e 70 3f 58 46 27 be f5 76 db 3e
       -0.44260255 0.93820286 -0.16335428 0.42864195
000220 78 ff 8f be 07 71 68 bf 57 fc 06 bf fd 2b 36 3f
       -0.28124595 -0.90797466 -0.5272879 0.7116087
000230 e6 cc 90 3e 6b da 36 3f 36 ed ed 3e 3b 6b 5e 3e
       0.28281325 0.7142703 0.4647004 0.21720593
000240 f0 7c 79 bf 7d 65 92 3e 32 f8 39 bf 40 c0 5f bf
       -0.97456264 0.28593054 -0.7264434 -0.87402725
000250 cc 28 35 bf 80 e0 ac bd 3c 4c 10 3f 12 55 2d 3f
       -0.70765376 -0.084412575 0.56366324 0.6770793
000260 94 37 d6 be 0f 40 4c bf 80 9a 30 3f 1a 5a e9 3e
       -0.41839278 -0.79785246 0.6898575 0.45576555
000270 84 85 6d 3f 91 b4 88 3e 52 96 37 bf e4 4d 55 bf
       0.92781854 0.2670026 -0.71713746 -0.83321977
000280 a9 7b 3a bf 3a 77 24 3f ec e0 cf bf 54 91 44 be
       -0.7284494 0.64244425 -1.6240516 -0.19196063
000290 46 b4 0e 3f 90 c5 68 be 18 5f 6f bf 45 36 d4 3e
       0.55743825 -0.22731614 -0.93504477 0.41447654
0002a0 44 24 3a bd 2d 30 70 bf 2b 5f 8e be dc 4f c9 be
       -0.04544474 -0.9382351 -0.27806982 -0.3931874
0002b0 84 75 72 bf 16 f7 7e 3f 54 66 c0 be da b7 24 3e
       -0.94710565 0.99595773 -0.3757807 0.16085759
0002c0 82 b5 4c bc 82 7d 06 bf c3 33 ce 3e 30 19 db 3d
       -0.012494447 -0.5253526 0.40273866 0.106981635
0002d0 98 b9 07 bf 42 99 6c 3e ce 3a be 3d bd 5d 27 bf
       -0.5301757 0.23105338 0.0928856 -0.6537741
0002e0 6d b5 ac 3e 45 4f b0 3e 4c 64 52 be 38 a0 33 bf
       0.33732167 0.34435478 -0.20546073 -0.7016635
0002f0 c0 16 8b bd 8c a9 b2 3e 80 f3 00 3f 72 7c 29 bf
       -0.067914486 0.3489498 0.5037155 -0.66205513
000300 fd b1 01 be 66 dc 67 3f 13 77 2b bc 00 32 7a be
       -0.12665553 0.90570676 -0.010465401 -0.24433136
000310 6c dd 00 3f 8a 78 f2 bd 46 0a 51 bf 2a b1 37 3f
       0.5033786 -0.11839397 -0.816563 0.71754706
000320 e6 8d 65 bf f0 5a 87 be 00 c0 0e bb 7a 47 0e bf
       -0.89669645 -0.26436567 -0.0021781921 -0.55577815
000330 1e e3 18 3f d4 e3 ce be be 0d 6f 3e 18 7b 54 be
       0.59721553 -0.40408194 0.23345086 -0.20750082
000340 65 c5 7c bf 9e 16 38 3f 5f 8c 54 3f a2 96 e3 bd
       -0.987387 0.7190951 0.8302669 -0.11112715
000350 30 6b 57 bf 1b 47 fd 3e 08 db 77 3e 18 5b 3e 3f
       -0.8414793 0.49468312 0.24204648 0.7435775
000360 a8 28 1b 3e f8 44 42 3f 33 a3 a8 bc 90 a5 c0 bd
       0.15152228 0.7588649 -0.020585632 -0.094065785
000370 bf bf 8b 3a f3 c6 d8 bd 67 37 0d 3f 4f ca 95 3e
       0.0010662003 -0.105848216 0.5516266 0.29255912
000380 c0 39 bb bf 56 57 e0 be e0 3c 61 bf 7a 17 a6 3e
       -1.4626999 -0.43816632 -0.8798351 0.32439786
000390 41 17 99 3e eb e3 dd bd 3e f6 71 3f 07 75 0c 3f
       0.29900554 -0.108344875 0.9451636 0.5486607
0003a0 d8 d5 79 3f 60 51 1e be 67 68 42 3e 7c 2a 5d 3f
       0.97591925 -0.1546073 0.18985139 0.8639295
0003b0 c3 79 22 bc 2e 7c 50 bf c0 43 b5 be b3 03 eb be
       -0.009916726 -0.81439483 -0.35403252 -0.4590126
0003c0 61 6c 2c 3f c1 13 23 3f 12 28 4b 3e 49 f2 73 bf
       0.67352873 0.6370202 0.19839504 -0.9529157
0003d0 79 99 2f bf ce 55 ef 3e a1 52 3f 3e 7f 04 91 3e
       -0.68593556 0.4674515 0.18683864 0.28323743
0003e0 02 53 da 3e c0 ed 30 3d f8 0c eb 3d 8f f3 67 bf
       0.42641455 0.043195486 0.11477083 -0.90606016
0003f0 9e a3 6f bf a0 3d 11 3f b1 ac 8c 3e 39 eb d3 3d
       -0.93609035 0.5673466 0.27475503 0.103475995
