checkpoints/50052000.ckpt (torch, 122663 bytes, 33 tensors)

weight f4 [256, 18]
000000 9f eb 8c bb 49 6e 9f 3d 13 2c 13 3e 45 e3 9f bd
       -0.004300549 0.07784707 0.14372282 -0.0780702
000010 02 48 b5 3d 31 67 22 3e a8 e8 3a be e2 1e 40 bd
       0.08851625 0.15859677 -0.18252814 -0.046904452
000020 4d ff 2d 3e 40 f0 a2 3d 5d ba 11 be 04 f3 51 be
       0.16991921 0.0795598 -0.14231248 -0.2050286
000030 21 c7 ba bc 55 b9 2a be b0 2f 5b be ff 38 0e be
       -0.02280003 -0.16672261 -0.2140491 -0.1388893
000040 2f 51 15 bd 05 a0 2f 3e 8f 66 c3 3d 1e 91 4d bd
       -0.036454376 0.17150886 0.09541046 -0.050187223
000050 e8 f4 88 bd c0 94 36 be 1d cf 34 be c4 6c 0b 3e
       -0.06687337 -0.17830181 -0.17657132 0.1361571
000060 8a 89 48 be 1a 6c 37 3e 7f 06 71 3e 67 5b f2 bd
       -0.19583717 0.17912331 0.23537634 -0.1183384
000070 54 a6 60 3e d4 42 50 bd 45 be 16 bc e8 86 9e 3d
       0.21938449 -0.050844982 -0.009200637 0.07740575
000080 77 6d 0a bd dd 18 72 bd eb 56 4a 3c d0 e0 f5 bc
       -0.0337958 -0.059105743 0.012349824 -0.030014426
000090 56 59 91 be 4a 01 02 bd f7 fc 13 be 81 87 bb bd
       -0.2838847 -0.03173951 -0.14451967 -0.09156705
0000a0 d6 45 2f bd b6 32 dd bd 5d 77 b3 3d 0a 5e a9 3d
       -0.04279121 -0.10800688 0.08763001 0.0826989
0000b0 62 db 46 be e3 7f 83 3c 62 5f 88 bd df 42 e6 bd
       -0.19419625 0.016052192 -0.06658818 -0.112432234
0000c0 ff f8 32 3e e7 da d6 bc c0 05 97 bd b5 28 a9 3d
       0.17477797 -0.026227428 -0.073741436 0.082597174
0000d0 34 77 11 3e 34 71 1e be e2 de 86 be d7 25 75 3d
       0.14205629 -0.15472871 -0.2634192 0.05985054
0000e0 03 45 7d 3c 93 11 e1 3d d9 3d e3 3d 8e 19 91 3d
       0.015458348 0.1098968 0.11095781 0.07084952
0000f0 30 19 a3 3d bb 04 86 3c 46 3d 99 3d 8a 55 86 bd
       0.079637885 0.016359678 0.0748239 -0.06559284
000100 46 38 0c bd e6 85 5c be f0 7a 60 3e 6c b9 1c be
       -0.034233354 -0.21535453 0.21921897 -0.15305108
000110 76 79 0a be 5a 30 14 3d 75 27 79 3d 2e 52 49 be
       -0.13522896 0.036178924 0.060828645 -0.19660255
000120 bf ee aa 3d 2d b6 43 be a4 ca a8 3c 16 1b 3c 3e
       0.083463185 -0.19112463 0.02060444 0.18369707
000130 4a a7 1b be c5 ea 76 be 19 69 db 3d be 61 40 be
       -0.15200534 -0.24112995 0.10713405 -0.18787286
000140 ca dd ad bd 86 c7 29 be 86 69 1b be 90 11 df bd
       -0.084895685 -0.16580018 -0.15176973 -0.10892022
000150 c7 02 bd 3d 25 43 b2 bd 50 1c e1 3d 51 04 b9 3d
       0.09229045 -0.08704213 0.10991728 0.090340264
000160 a9 20 23 bc fa 5a e6 3d ed ea 47 3e 67 8f 80 bd
       -0.009956517 0.11247821 0.19523211 -0.06277352
000170 c7 8f ab 3c c4 e9 02 be c0 29 74 be 70 cc 36 be
       0.020942582 -0.12784487 -0.23844051 -0.17851424
000180 21 5f 21 3e 06 36 db 3d d9 0e 07 3e 3b 71 18 be
       0.15758945 0.107036635 0.13189258 -0.14886944
000190 06 fe b6 bd 1c de 06 be d9 b5 7d bd 6a 97 fa 3d
       -0.0893517 -0.13170666 -0.061941 0.12235911
0001a0 0f 50 b4 3d 57 84 23 bd d4 af b7 bd d3 e0 4c bd
       0.088043325 -0.03992113 -0.089690834 -0.050019097
0001b0 1f 84 b4 3e cc 71 fc bd 49 6f 67 bb b6 a3 45 3e
       0.3525705 -0.123263925 -0.0035314134 0.19300732
0001c0 15 7a a8 3c ab 11 3f 3e d9 e5 0c be 28 80 7e 3d
       0.020566026 0.18659084 -0.13759555 0.062133938
0001d0 ba 17 0e bb 81 09 0b 3e be 42 75 bc 26 01 1b 3d
       -0.0021681623 0.13577844 -0.014969526 0.037842892
0001e0 31 99 25 3e 64 c8 33 3d c9 62 f3 bd 66 82 f6 bc
       0.16171719 0.04389228 -0.11884076 -0.030091476
0001f0 2f f0 98 3d 48 4a c2 bc 40 89 28 3e e1 a1 5f 3d
       0.074676864 -0.02371706 0.16458607 0.05459774
000200 fd e2 c0 3d 47 1d c6 3d e5 af e1 bd 7a a1 35 be
       0.094182946 0.09673553 -0.11019877 -0.1773738
000210 62 64 0f 3e 64 d5 39 3e 5a 61 af 3d ea 7f 18 ba
       0.14003137 0.18147808 0.0856349 -0.00058174005
000220 c0 32 58 be 60 58 09 be f4 6b bf 3d 7c 68 ea bd
       -0.2111311 -0.13412619 0.09346762 -0.1144571
000230 e7 da da 3d 43 27 e1 3d 71 1d 88 be 88 2e 83 be
       0.106862836 0.10993817 -0.26584962 -0.25621438
000240 e0 47 80 3d 79 5d f0 3c 23 a5 38 be e0 54 02 3e
       0.06263709 0.029341446 -0.18031745 0.1272769
000250 d9 25 a1 3d 31 47 29 3e b6 fd f0 3d b9 c2 1e 3d
       0.07868547 0.16531064 0.117671415 0.03875992
000260 a5 a7 95 bd 3b f8 63 3e 91 f7 86 bd 32 ad 2d 3e
       -0.07307366 0.22262661 -0.06590188 0.169606
000270 bc 1e 26 3e 52 25 64 bd 0b cf 2d bd a4 89 dc 3c
       0.16222662 -0.055699654 -0.04243378 0.0269211
000280 18 01 36 bc 7c c8 e9 3d c6 70 bf bd 76 62 40 be
       -0.011108659 0.114151925 -0.09347682 -0.1878756
000290 55 56 28 be 0c dd 2f 3e af 9d f6 bd d0 5f 2e be
       -0.16439183 0.17174166 -0.120417945 -0.17028737
0002a0 5c 17 89 bd d0 84 43 bc ff e0 77 bc d5 e5 fb 3d
       -0.066939086 -0.01193352 -0.015129327 0.12299696
0002b0 97 cd cf bd 45 67 bf bd d5 13 04 3e 5b 33 c4 bd
       -0.10146635 -0.09345869 0.1289819 -0.09580108
0002c0 a1 eb 9d bd db 43 29 be 3f d5 8b 3d 3b 51 b9 3d
       -0.07710958 -0.16529791 0.06827783 0.090486966
0002d0 ff e1 2a bd 21 89 a4 bd 65 54 3c be 97 e9 37 be
       -0.041719433 -0.08033968 -0.18391569 -0.17960201
0002e0 15 09 3f be e8 5d cc bd 83 62 e6 bd 02 64 1c 3d
       -0.18655808 -0.09978849 -0.11249258 0.038181312
0002f0 ae ee dd bd 3a bb 5d be 70 07 7f bd 14 54 19 be
       -0.1083654 -0.21653453 -0.062262952 -0.1497348
000300 04 77 1d be b4 82 1b 3e 18 09 86 3c c5 e3 10 be
       -0.15377432 0.15186578 0.016361758 -0.14149387
000310 74 b7 3f bd 9b 13 72 3e 27 74 26 3e 4a 80 eb 3c
       -0.046805814 0.23640291 0.16255246 0.028747696
000320 2b ee 6e 3b 14 1c 24 3e 2d 80 42 3d 63 70 d1 3d
       0.0036457877 0.16026336 0.04748552 0.10226514
000330 0d 4f 6a 3e 0f e5 02 3e a8 29 58 3e ec 6b 5c 3e
       0.22881718 0.12782691 0.2110964 0.21525544
000340 64 5b 5b 3e 7f a8 b1 3d 51 94 2b be fe ff 06 3e
       0.21421582 0.08674716 -0.16755797 0.13183591
000350 7a 7d f7 bd 82 ad 32 bd a4 e6 e7 3c 2f e4 09 3e
       -0.1208448 -0.0436225 0.02830822 0.13465951
000360 8f 61 0e 3e aa d9 ef 3c ea 68 bd 3d d5 46 65 3e
       0.13904403 0.029278595 0.092485264 0.22390302
000370 e2 a2 52 3e c0 cf 8a 3d 58 89 f8 3c 7e 93 3a be
       0.20569947 0.067779064 0.030338928 -0.18220326
000380 45 6f 1c 3e 9d 21 c4 3d aa cb 36 be 48 1d 35 bd
       0.15276821 0.09576724 -0.17851129 -0.044217378
000390 47 35 7d bd 14 0e 17 be c7 80 d3 bd 2f aa 46 3e
       -0.061818387 -0.14751464 -0.10327297 0.19400857
0003a0 66 5a cf 3c dd 21 3c 3e cb 43 fa 3d 49 52 1e 3e
       0.02531166 0.18372293 0.12219962 0.15461077
0003b0 e2 f0 50 3d 34 70 86 3c 33 dd 25 3c b1 d4 8a 3d
       0.051010974 0.016410924 0.010123539 0.06778849
0003c0 6b e5 60 bb dc 52 52 be 45 8e 4b 3e b9 54 bf bd
       -0.0034316431 -0.20539421 0.1987849 -0.093423314
0003d0 b4 c5 6c be 2e 9c 52 bd 0d 9d 11 3e bb e3 60 3e
       -0.23122293 -0.051418476 0.14220066 0.21961872
0003e0 fe ae 4c bd bd 4f 57 be 1a ee 15 3d b8 66 43 3e
       -0.049971573 -0.21026511 0.036604024 0.19082153
0003f0 e6 2f fe be 05 b2 42 3d db e9 9c 3d 0f b8 55 3d
       -0.4964592 0.047533054 0.07661792 0.052177485

bias f4 [256]
000000 92 e8 36 3e e4 f0 65 3e 9d 53 26 bd 87 47 30 be
       0.17862156 0.22455174 -0.040607084 -0.17214786
000010 03 99 3f be 83 7b d2 3d 92 ee d8 3d bb b2 4c be
       -0.18710713 0.10277464 0.10592379 -0.19990055
000020 45 2b b9 bd 0a b1 2a be e8 9f aa 3d 62 89 2a bc
       -0.09041456 -0.16669098 0.08331281 -0.010408731
000030 f7 e7 0b 3e a8 c9 a9 bb 75 fd 82 be 40 47 5a 3e
       0.13662706 -0.00518151 -0.25583997 0.21316242
000040 7a 9b 13 be 0f b6 44 3e 20 58 17 be 93 57 3a 3c
       -0.14414778 0.19210075 -0.14779711 0.011373418
000050 b9 85 09 3d 0c 18 36 bd 77 65 0c 3e bd 1a 31 be
       0.033574793 -0.044456527 0.13710581 -0.17295356
000060 20 36 48 be 9e 7c a6 bb cb 09 aa 3d bd 5e 2d bd
       -0.19551897 -0.0050807735 0.08302649 -0.042326678
000070 58 e2 19 be 8b a1 14 be 1e 83 98 3d 01 f9 c1 bd
       -0.1502775 -0.14514749 0.074468836 -0.09471322
000080 7a d6 03 be 18 51 09 3e 45 53 ef 3d 1a 4c 31 3e
       -0.12874785 0.13409841 0.11685804 0.17314187
000090 9d bc f6 3d 74 8b 17 be 24 f6 34 3d 41 1c ad bd
       0.12047694 -0.14799291 0.04418005 -0.08452655
0000a0 45 5d 7c bc 26 06 ec bd 83 0f 25 be 64 d6 49 3e
       -0.015403097 -0.1152461 -0.16119199 0.1971069
0000b0 49 d6 0d 3e a8 0a a4 bd 04 f2 66 3d 77 bf 83 3d
       0.13851275 -0.08009845 0.056383148 0.064330034
0000c0 73 04 71 3e e8 d7 2d 3e e4 83 a1 3d 87 d2 22 be
       0.23536853 0.16976893 0.07886484 -0.15900622
0000d0 67 05 b4 3d 6c 96 1d bd 67 f0 53 be 06 61 32 be
       0.08790093 -0.03847353 -0.20697175 -0.17419824
0000e0 e2 49 d2 bd 4f c4 27 be 91 a3 08 be 86 15 77 be
       -0.10267998 -0.1638348 -0.13343646 -0.24129304
0000f0 cc 4d 01 be 45 7d 31 3e 7f 3a b0 3c d9 c6 16 3e
       -0.12627333 0.17332943 0.021512268 0.14724292
000100 19 6c af bd 18 93 30 3d 4b 00 6c bc c9 03 13 3e
       -0.0856554 0.04310903 -0.014404367 0.14356913
000110 93 a7 5c 3e 76 23 2e 3d 3c c4 18 3e 4e 76 0f be
       0.215483 0.042514287 0.14918607 -0.14009973
000120 58 7c 0b be a7 25 98 bc 65 3e 32 3e b6 c8 cf 3d
       -0.13621652 -0.018572642 0.17406614 0.101457044
000130 4c 49 29 3e 53 35 27 be 42 08 3a 3d 7b 98 34 be
       0.16531867 -0.16328935 0.04541803 -0.17636292
000140 a9 8e 13 bd b5 bf 0b 3c 93 74 4a be 02 73 7a 3d
       -0.036024723 0.008529593 -0.19771032 0.061144836
000150 10 a1 15 be 6e 82 dc bc ec 1b c1 3c 7c c5 bc bd
       -0.14612222 -0.026917662 0.023572885 -0.09217355
000160 00 dd 04 bd 4d 10 4d bd da c1 91 3e 6b f9 6f 3e
       -0.032437325 -0.050064374 0.2846821 0.23434989
000170 fc 3e 4d 3e 5f c5 3a bd 68 24 9a bd 01 b6 aa bc
       0.20043558 -0.045598384 -0.07526475 -0.02083874
000180 a0 13 a1 bd 4e fb 55 bc a0 65 f6 bd 77 a9 0a bc
       -0.07865071 -0.013060404 -0.12031102 -0.008463255
000190 c1 9c 65 3e 3c b4 b5 bd 3c ae d2 bd 79 44 ef 3c
       0.22423078 -0.088722676 -0.10287139 0.029207455
0001a0 e7 0d cc bd c7 cf 88 bd 88 6f 1a bd a7 35 8b be
       -0.09963589 -0.066802554 -0.03770402 -0.2718937
0001b0 f4 1a 28 3d 1b 40 52 3e 95 8e 77 bd 6b 76 36 3e
       0.04104133 0.20532267 -0.06043871 0.1781861
0001c0 c2 ff 1d bd 29 ae 55 be f0 57 1e 3e e8 71 91 bd
       -0.038573988 -0.20867218 0.15463233 -0.07101804
0001d0 b7 9b 71 bd 58 e6 64 be fc cd 1d 3d 02 7a e2 bd
       -0.058986392 -0.22353494 0.03852652 -0.110584274
0001e0 5f 8e 2c be a4 ec ad bd 50 e9 37 be 84 c4 8b bd
       -0.16851185 -0.08492401 -0.17960095 -0.06824592
0001f0 17 76 db bd 8c 18 85 bd 7a 47 0a 3e b8 54 33 be
       -0.10715883 -0.064988226 0.13503829 -0.17512786
000200 95 38 50 be 2c 4b 44 3e 1d b5 64 bd 6c 31 5e 3d
       -0.20334084 0.19169301 -0.055836786 0.05424635
000210 62 4d 46 bd 03 5f e5 bd a0 ab 10 be 96 1c 38 be
       -0.04841364 -0.11199763 -0.1412797 -0.17979655
000220 a7 9a 6f be 20 f4 a3 bd ca 8c b7 3c f7 a0 3c be
       -0.23398839 -0.080055475 0.022406 -0.18420778
000230 fa 2c 00 3d 07 07 62 3e 9b 4f 21 be c0 a3 84 be
       0.031292893 0.22072993 -0.15753023 -0.2590618
000240 9c 2e e9 ba 4f 89 20 3e 78 ce 4d be 31 4b 48 3e
       -0.001779038 0.15677379 -0.20098293 0.19559933
000250 39 7a 20 be 55 73 bd bd da b7 a7 bc 9a b4 61 3d
       -0.15671624 -0.092505135 -0.02047341 0.055103876
000260 10 a2 30 be 25 3a 27 3e f2 10 71 be 98 14 9e bd
       -0.17249322 0.16330774 -0.2354162 -0.07718772
000270 38 16 ca bc ae 80 92 bc 92 32 2c be 9e bf 36 3d
       -0.024668798 -0.017883625 -0.16816166 0.044616334
000280 b9 f6 19 be bb a5 22 bd 0e 56 4e 3b ed 62 3d be
       -0.15035523 -0.039708834 0.0031484398 -0.18494768
000290 9b d5 19 bd 22 ee 16 be f0 89 21 be 12 d4 1f be
       -0.037557226 -0.14739278 -0.15775275 -0.15608242
0002a0 00 f0 9a bd 67 f2 65 be 31 5c 60 be 50 81 13 bd
       -0.075653076 -0.2245575 -0.21910168 -0.036011994
0002b0 9d 13 4c 3e 44 17 29 3e 23 6c 55 3e a4 8f 2b be
       0.19929357 0.16512781 0.20842032 -0.16754013
0002c0 dc c9 e5 3d 22 b0 16 be 95 ad 6b bd 64 33 56 be
       0.11220142 -0.14715627 -0.057538588 -0.20918041
0002d0 d4 0f b1 bc 6f b2 1d 3e 64 16 18 3d 46 5c f7 3c
       -0.021613993 0.15400098 0.03713073 0.030195367
0002e0 9e f0 4b 3d 03 ba 14 3e 14 60 f1 3d 0d dd 42 be
       0.049790017 0.14524083 0.117859036 -0.19029637
0002f0 0a 6f b5 bd 76 ee fe 3d 50 d7 58 be e4 8e 76 bd
       -0.0885907 0.124478266 -0.21175885 -0.060194865
000300 5a 22 8d be 90 95 41 be 60 82 ff ba 34 98 2e 3e
       -0.2756527 -0.1890471 -0.0019493811 0.17050248
000310 56 58 6d 3d 61 dd ea 3d e0 eb de 3d 0c 5a 37 be
       0.05794557 0.11468006 0.10884833 -0.17905444
000320 cd 9e c4 3d b9 2a 55 3d 44 81 2a 3e 6a c9 30 be
       0.09600601 0.052042697 0.16650873 -0.17264333
000330 85 a4 28 be 32 db d3 bd 47 48 f2 bd 1e 8d 63 3e
       -0.16469009 -0.103445426 -0.11830192 0.222218
000340 dd 3e e9 bd 45 37 1e 3b b3 58 bf 3d 14 15 70 be
       -0.11388943 0.002414183 0.0934309 -0.2344554
000350 60 94 ec 3c 3b dd 9c bd 81 dc d8 3d 90 df 65 bd
       0.028879344 -0.07659384 0.10588933 -0.05612141
000360 46 2a 99 be 53 04 1a 3e 97 25 0d bd 64 f8 66 3d
       -0.29915065 0.15040712 -0.034459677 0.056389228
000370 9a 3c 31 3e 91 b4 00 be e6 b7 1b 3d 32 0d 3d be
       0.17308274 -0.1256888 0.038017176 -0.18462065
000380 e1 ba 63 bd c4 3b 9d bb 8e c7 32 3e 1a 36 da 3c
       -0.055598143 -0.0047983844 0.17458937 0.026637126
000390 5b f7 ec bb 14 7f db bd b2 bf 97 3d ab fe 36 3d
       -0.0072316355 -0.107175976 0.0740961 0.044676464
0003a0 97 f8 65 be 72 82 1d 3d 3d 39 7c 3c 10 55 11 3e
       -0.22458111 0.03845448 0.015394506 0.14192605
0003b0 e6 72 6d bc fa fd 1b be f3 4d 12 be 62 c7 f2 bd
       -0.014492726 -0.15233603 -0.14287548 -0.118544355
0003c0 50 5c a3 3c ee 2d 3a 3d 1f d7 6c 3c 67 3e b3 bb
       0.019941479 0.04545396 0.014455586 -0.0054700854
0003d0 fd c4 f9 3d d9 eb cb bd b2 a1 16 3e fa f1 1d be
       0.12195776 -0.09957094 0.1471012 -0.15424338
0003e0 76 fb 30 be a3 d8 05 3e 25 d5 70 be 72 68 12 be
       -0.17283425 0.13070922 -0.23518808 -0.14297655
0003f0 d8 b3 34 be da 40 a4 bd 21 14 20 bd 0b 1f 7a be
       -0.1764673 -0.08020182 -0.039081696 -0.24425904

weight f4 [1, 256]
000000 39 b9 cf bc ab 93 44 bb a0 59 1d 3d 31 dd aa 3d
       -0.025356876 -0.0029995244 0.03841555 0.0834297
000010 4f ff f7 3b 05 5e 89 bc 49 cc ba bd 5e 26 af bc
       0.007568277 -0.016768465 -0.091209956 -0.0213806
000020 fa 37 e5 3c 12 ba 86 3a c8 ec 9d bc f6 2a 65 bd
       0.027980793 0.0010278842 -0.019277945 -0.055949174
000030 a8 c0 25 bc e9 d6 d4 bd b0 3f 6f 3d 69 13 a2 bd
       -0.010116734 -0.10392553 0.058410347 -0.079138584
000040 58 75 95 bd a0 93 b8 bd 7d 08 29 bd c0 b5 e3 bc
       -0.07297772 -0.09012532 -0.04126786 -0.027796626
000050 25 92 e1 3c 14 d5 a1 3d 6b d7 a2 3c 95 80 b8 3c
       0.027535507 0.079019696 0.01987811 0.02252225
000060 96 b1 d9 3d 29 7d 83 bd 9f c6 c6 3d 39 bc ab bd
       0.10629575 -0.06420357 0.09705853 -0.0838551
000070 e8 0b f3 3b 88 ee 52 bd 11 41 02 3c f7 03 b7 3c
       0.007417191 -0.051497012 0.007950083 0.022340758
000080 58 6a 98 3d 6a f7 7a bd 84 3a 04 bc 50 b5 6f 3c
       0.074421585 -0.06127111 -0.008070592 0.014630631
000090 d3 2a 37 3c 79 4b 51 bc 51 60 da bd f1 a9 6a 3d
       0.011179644 -0.012774342 -0.10662902 0.057290975
0000a0 67 51 d1 ba 49 30 af 3d 7d 29 a9 3c dd 4d 57 bd
       -0.0015969694 0.085541315 0.020649666 -0.05256449
0000b0 91 42 32 3d ab 70 40 3d 56 47 f0 3c 6f 65 f5 bb
       0.043520514 0.04698245 0.02933089 -0.0074888985
0000c0 e3 22 24 bd 82 99 30 bd f9 a0 0b bd a3 a4 65 bd
       -0.040072333 -0.043115146 -0.034089062 -0.056065213
0000d0 07 05 61 bb 35 fe f9 bd 96 1f 79 3b 40 8c b0 3d
       -0.0034335272 -0.12206689 0.0038013211 0.086205006
0000e0 7c ef 6c bd df c9 78 3c 5b e2 8e 3b 04 a7 65 3c
       -0.057845578 0.015184849 0.00436048 0.01401687
0000f0 ff 1f a9 3c 45 0b 1a be d3 ca 7e bd 6a b5 8a 3b
       0.02064514 -0.15043361 -0.062205147 0.004233052
000100 56 67 2d bd b0 2f 58 bd 98 63 4d bd 12 d0 83 3b
       -0.042334877 -0.052779853 -0.050143808 0.0040226066
000110 78 dd cd bd c5 78 12 3b 52 69 78 3d 42 7b 9f bc
       -0.100520074 0.0022349816 0.060647316 -0.019467954
000120 c7 6e 81 3c 32 34 39 3b d2 ba cd 3d 18 ef 90 bd
       0.015799893 0.002825987 0.10045399 -0.070768535
000130 a9 39 d7 bc a2 5d 31 bd 00 f0 05 3d fd a4 94 bc
       -0.026272612 -0.043302186 0.032699585 -0.018145079
000140 53 4b da bc dd 2a 39 bd 44 7b 40 3d 45 37 dc bd
       -0.026647246 -0.045206893 0.046992555 -0.10752729
000150 13 37 3b 3c 0e 1c ae bd 9d 5e 37 3a 73 ec b2 3d
       0.011426705 -0.08501445 0.00069949945 0.08736505
000160 c6 7c cf 3c 85 92 05 3d c8 bd bb bd 75 1b 95 bd
       0.025328051 0.032610435 -0.09167057 -0.07280628
000170 b6 6e 85 bd fe 8c 81 3d 87 3c 95 bd 49 c7 76 bd
       -0.06515257 0.0632572 -0.07286935 -0.060248647
000180 d9 cd 76 bd 87 f0 1e be a4 d4 de 3c ef eb 7f bd
       -0.060254905 -0.15521441 0.027201004 -0.062480863
000190 ad 8a 2b bd c5 b5 3b 3d e0 8e 39 bc 11 c4 f4 bc
       -0.0418803 0.045827646 -0.011325568 -0.029878648
0001a0 da f8 33 3d 3c 35 c1 3b db d0 ba 3c 40 e7 eb 3d
       0.043938495 0.0058962386 0.022804668 0.11518717
0001b0 e4 4e 86 3d a2 0f a9 bd 0e 14 8b bc 84 16 13 ba
       0.06558016 -0.08254935 -0.016977336 -0.000561096
0001c0 3e a7 3e 3d 28 f2 42 3c 32 d4 b9 bc 7c 1f 9c 3d
       0.046546213 0.011898555 -0.02268419 0.07623193
0001d0 58 81 e9 3c 3e 37 6f 3d cf 39 eb bc 3a aa 26 3d
       0.028504059 0.058402292 -0.028714089 0.040689684
0001e0 f6 aa cf 3c 53 fc 22 3d 8c 23 ef 3c 6f 17 81 3d
       0.025350075 0.039791416 0.029191755 0.06303298
0001f0 84 4d 80 3d 8b b5 49 3c 49 38 ac bd ad 34 89 3d
       0.06264785 0.01231135 -0.08409173 0.066995
000200 80 7d a6 3d 76 c3 f7 3c 0d 41 0e 3d 3b a5 d0 bc
       0.08129406 0.03024457 0.034730006 -0.025469413
000210 8b 81 be 3c 9c d8 d9 3b 37 70 8e 3c 68 89 80 3d
       0.02325513 0.0066481363 0.017387493 0.06276208
000220 97 08 44 bb fa 51 e1 3c 23 66 5a bd a5 f1 aa 3d
       -0.0029912347 0.02750491 -0.05332006 0.08346871
000230 58 7e 20 3b dd d4 1d bd 11 08 18 3e d6 34 e9 3d
       0.002448937 -0.03853308 0.14846827 0.11387031
000240 f7 f6 ad bb 9c d8 2e ba b8 00 8d 3d 4f 4f c4 bd
       -0.0053089815 -0.00066698506 0.06884903 -0.095854394
000250 0a 07 43 bd 14 c0 73 3d 43 69 09 bc 4b ba 36 bd
       -0.047614135 0.05950935 -0.008386913 -0.044611257
000260 7a 73 ec bb f6 d2 b9 bb 4d 90 78 3d 14 bc 44 3d
       -0.0072159143 -0.0056709005 0.06068449 0.048030928
000270 48 fd 07 bb b7 66 9e 3c fa 3d 32 3d ef 00 9a 3c
       -0.0020750333 0.019336088 0.043516137 0.018799273
000280 d8 6b 28 3d 39 46 06 bd c9 9e 7d 3c 47 03 68 3d
       0.041118473 -0.032781813 0.015479752 0.05664375
000290 2d 4f 11 3c 56 02 98 3d ec da 1b 3e 2b ee 20 bd
       0.008868975 0.074223205 0.15220231 -0.039289635
0002a0 2e f1 96 3c b0 66 f5 3c c0 d1 a6 3c 85 f7 76 3d
       0.01842555 0.029956192 0.020363688 0.060294647
0002b0 bc fa e7 bd 46 48 e5 3d 7d be 0e be 4c 64 d3 bc
       -0.11327121 0.11195426 -0.13939853 -0.025804661
0002c0 3e 7f 61 3d 4f 7d 06 3d 51 15 3e bd 8d 04 d7 3c
       0.05505299 0.032834347 -0.046407048 0.026247287
0002d0 20 b8 30 3d 5d f1 fb bb 1d fc 44 3c 8b 8e 17 3d
       0.043144345 -0.007688685 0.012022999 0.037001174
0002e0 b4 35 06 be 0b 0a ad 3c 03 92 b0 bb 5e e4 a2 bc
       -0.13106424 0.021122953 -0.0053884997 -0.019884285
0002f0 8f 1a 34 3d 10 0b 91 3a 7a 53 d2 3c 0d 16 7f bb
       0.04397064 0.0011065919 0.02567457 -0.0038923055
000300 8b a7 d4 3d 18 a8 4b bd 41 c8 fc 3c 22 4a 8e bd
       0.10383519 -0.049720854 0.030857207 -0.069477335
000310 40 59 a7 3c dd c3 5b 3d b5 2c 89 bc 6a f9 c1 3d
       0.0204283 0.053653587 -0.01674495 0.094714
000320 02 eb 1f bd 5f 5e b6 bb 0e d8 60 bc 8f a9 e2 3c
       -0.03904248 -0.005565449 -0.013723386 0.027668742
000330 ca 47 9c bb 1d 15 ee bc 9d 8d 66 3c fb 1c e9 3c
       -0.0047693 -0.029062802 0.014071849 0.028456202
000340 3f 5f c2 3d e4 14 09 bd d4 64 9f 3d 2a 02 93 3d
       0.09490823 -0.03346719 0.07782903 0.07178147
000350 13 a8 0e bd 40 99 bf bd 62 a8 6a 3b df 75 38 ba
       -0.034828257 -0.09355402 0.003580593 -0.0007036607
000360 d6 d5 13 3d 7e 44 c0 bc a2 59 31 3d 5b 8c a3 bc
       0.0360926 -0.02347016 0.04329837 -0.019964388
000370 18 fe 16 bd 9d 81 66 3d 0e d3 24 3b 51 02 c0 bc
       -0.036863416 0.056275953 0.0025150212 -0.023438605
000380 f4 a5 db bc f9 9f 85 3b 67 e3 b2 bd c7 d0 df 3c
       -0.026812531 0.004077908 -0.0873478 0.027321232
000390 57 dd b6 3d 68 51 9e 3a cb 50 9e 3d 17 14 5a bd
       0.08928936 0.0012078704 0.07730254 -0.053241815
0003a0 42 90 a7 3c 8a 3a 73 3d 01 09 8a 3d 8a 06 58 bd
       0.02045453 0.059382 0.067399986 -0.05274061
0003b0 14 14 80 3d f3 87 fb 3c 59 32 93 bd d1 42 2c ba
       0.062538296 0.030704474 -0.071873374 -0.0006571236
0003c0 d0 0e 75 37 24 fc 1e bc 79 2f 23 bc 2a 4c e6 3c
       1.4606587e-05 -0.00970367 -0.009960049 0.02811249
0003d0 31 28 c2 bd 0e 1f e0 3c 73 02 fe 3c 50 19 2d 3d
       -0.09480322 0.027358558 0.031007027 0.042260468
0003e0 b0 07 76 bd 9a 03 21 bd 88 0f ef 3d 50 57 01 3e
       -0.060065925 -0.039310075 0.11672884 0.12630963
0003f0 5d b7 14 3d ea 9e f6 bc f6 dc 52 3c da 82 77 3c
       0.03630768 -0.030105073 0.012870064 0.015106881

weight f4 [256, 1]
000000 a3 20 27 bf 70 5b 01 3e 3d 66 03 bf fc 72 c2 3e
       -0.65284175 0.12632537 -0.5132788 0.3797835
000010 28 96 05 3e c0 65 b1 be 1e eb 61 bf 69 7a 15 3e
       0.13045561 -0.34647942 -0.88249385 0.14597477
000020 d2 41 a1 3e b6 0b 7e bf 66 59 28 3e 7a 39 6a 3e
       0.3149553 -0.9923662 0.16440353 0.22873488
000030 16 ae 67 3e 40 ea 07 bf 95 4a ec bd f2 1a ac 3e
       0.22625002 -0.5309181 -0.11537663 0.33614308
000040 76 08 31 be e3 f1 7a bd a0 a0 88 be da 1f 38 3f
       -0.17288384 -0.061265837 -0.26685047 0.719236
000050 11 61 b5 bc cd 9b 76 3f 3f 97 6d 3f 7c d9 14 bf
       -0.022141011 0.96331483 0.9280891 -0.58144355
000060 88 67 17 bf d9 dc 42 3f a4 52 08 3f 82 68 56 3f
       -0.5914235 0.76118237 0.532511 0.83753216
000070 45 3f 01 3f 16 a3 68 be 3a 3c 36 bf e2 fc 4e bf
       0.50487167 -0.22718462 -0.7118565 -0.8085462
000080 d9 01 51 bd e8 fe 5d bf c0 89 e0 bc bc a0 4a 3f
       -0.051027153 -0.8671708 -0.027409434 0.7915151
000090 9a 7c 92 bf 4c 4d ef bf e9 74 46 bf 88 98 0c 3f
       -1.1444275 -1.8695464 -0.7752214 0.54920244
0000a0 05 1d 83 bc bd c8 11 3e ed 5a 51 3f 25 c3 49 3f
       -0.016005049 0.14236732 0.81779367 0.7881339
0000b0 a0 43 10 3d 09 fb 1e 3f d2 40 eb 3e d0 bb 25 3f
       0.035220742 0.621018 0.4594789 0.64739704
0000c0 19 67 0c bd a1 16 0e bd 30 cf 91 bd c4 ed aa be
       -0.03427801 -0.03468955 -0.07119596 -0.33384526
0000d0 71 dd f5 3d 7a 8b 2d bf da ed 35 3f ee 90 b2 3e
       0.12005127 -0.6779095 0.7106606 0.34876198
0000e0 c6 32 14 c0 3c 4f c5 3e 1a 4a 70 bd 1c 4f c5 3e
       -2.315599 0.38537014 -0.05866442 0.38536918
0000f0 6c 02 4e bf 1b 5b 8b 3e 6f c9 20 bf 8e ed 01 be
       -0.80472445 0.27217945 -0.62807363 -0.12688276
000100 5e 52 51 3e 98 87 7d 3f 3a bd 4d bf ab 00 55 3e
       0.20441577 0.99035025 -0.8036686 0.20801036
000110 a5 36 7c 3f 1f 50 8a be 22 12 f2 bf 00 9a aa bd
       0.9852088 -0.27014253 -1.8911784 -0.083301544
000120 dc 50 4b 3e fe af 41 bf ae b5 36 3f 3b 7a 85 3e
       0.19855064 -0.7565917 0.7137097 0.26069817
000130 06 2c 13 3f e0 15 13 be ba be d6 3e 6f cf 22 c0
       0.5748905 -0.14363813 0.41942388 -2.5439107
000140 c8 ea 49 3f 63 cb e9 3e 92 14 cf 3e b5 5a 2b 3f
       0.7887387 0.45662984 0.4044538 0.6693528
000150 f0 b2 89 bd 3e c8 22 3f 1b d7 20 be a0 c6 7d bd
       -0.06723583 0.63586795 -0.15707056 -0.061957
000160 7f 4b c1 3e 80 97 ff be de 59 31 3f 31 16 ea 3e
       0.3775291 -0.49920273 0.6927775 0.45720056
000170 7a b8 74 bf f5 4f 7c 3e 60 dd 2b bf 50 cb 29 3f
       -0.9559399 0.24639876 -0.67134666 0.66325855
000180 59 1c cf 3d 20 fd 70 bf fc 17 f8 bf a8 6a 1d 3f
       0.10112829 -0.9413624 -1.938232 0.6149087
000190 fc 72 b5 be 16 da 4d 3f 88 cd 07 3e ed 7d b5 3e
       -0.3543929 0.804109 0.13261998 0.35447636
0001a0 10 46 c9 bd f4 13 0c bf 9c b8 b6 3e 7f 40 0c 3f
       -0.098278165 -0.54717946 0.3568772 0.54785913
0001b0 eb 33 e0 3e bb fb 8c be 60 ac 83 bd a9 a1 94 3e
       0.4378961 -0.27535805 -0.06429362 0.29029587
0001c0 14 cf a8 be b7 01 f1 bf 35 e5 85 3e fd 57 d9 3d
       -0.32970488 -1.8828648 0.26151434 0.106124856
0001d0 58 74 1f bf d0 f5 70 be 19 d0 66 3f 37 ad 7f be
       -0.622869 -0.2353127 0.9016128 -0.2496842
0001e0 10 86 f3 be 5e 3d 20 3e 68 03 ef 3d 62 1b 10 bf
       -0.4756322 0.1564841 0.116705716 -0.5629178
0001f0 0f 4d 67 3e c0 23 60 3d 50 e6 28 be 00 3d 19 3f
       0.2258799 0.054721594 -0.16494107 0.59858704
000200 b2 c0 0a be ae 32 f3 bd d4 61 82 be ce 57 41 bf
       -0.1355007 -0.11874901 -0.25465262 -0.75524604
000210 85 aa c7 3e a9 ce e3 be 26 1c fc 3e a0 9e 27 bf
       0.38997284 -0.44493607 0.49240226 -0.6547642
000220 e3 f8 c6 bf 80 18 0f 3c e9 1d 41 bf d2 84 59 3e
       -1.5544704 0.008733869 -0.75436264 0.21242073
000230 4f 27 3b 3e cf df 2d 3f 55 de b1 3e 20 5f ba 3d
       0.18276714 0.6791963 0.34739938 0.09100175
000240 d7 33 da 3c 60 65 33 3d bc 5e 3c 3e e1 3b 63 3f
       0.026636047 0.04379785 0.18395513 0.8876324
000250 5c ea 20 3f 18 63 cc be a4 8b 9d be a5 5b dc be
       0.62857604 -0.39919353 -0.307706 -0.4303867
000260 f8 30 ea be b1 99 bf 3e c8 66 5b 3f d2 27 35 3c
       -0.45740485 0.37421945 0.85703707 0.011056857
000270 4e 46 7c bf 9d 86 ba 3d e0 2b 04 bf ec 0d 4b bf
       -0.98544776 0.09107707 -0.5162945 -0.7931812
000280 4d 76 28 be c2 9d ab 3e 32 b8 72 bf 89 f3 ae 3e
       -0.16451378 0.33518797 -0.9481231 0.34170178
000290 84 03 8c be 6b e9 d2 3e 44 8c 3d 3f 15 95 2f 3f
       -0.27346432 0.4119371 0.74042153 0.68586856
0002a0 2c f2 f3 3b 7e 42 0b 3f e7 51 fd bf 74 43 e9 bd
       0.0074446406 0.54398334 -1.979062 -0.11389819
0002b0 a6 e0 8a be 75 85 8c be 4a 19 aa 3d 77 4a 76 3f
       -0.27124518 -0.2744557 0.08305605 0.96207374
0002c0 38 88 0a c0 f0 aa 8c be e0 36 d6 3c c4 2a ea bf
       -2.1645641 -0.27474165 0.026149213 -1.8294301
0002d0 44 dd ce be c6 f4 00 bf 90 c1 6e 3f 3f 82 3d bf
       -0.40403187 -0.50373495 0.932641 -0.74026865
0002e0 68 67 3c bf 2e 8c 52 bf de 15 3a bf c1 9b 4c 3f
       -0.73595285 -0.8224515 -0.72689617 0.7992516
0002f0 f6 2f 32 bf 61 d6 99 bd 98 30 46 be 96 b1 62 bf
       -0.6960443 -0.07511593 -0.19354475 -0.88552225
000300 6e 8d 4a bf 40 37 db 3e 09 80 41 3f 05 2d a9 3d
       -0.79122055 0.4281559 0.7558599 0.0826054
000310 12 ed 99 be 13 b0 6c 3f d4 7b 1f 3f f6 7b d4 3e
       -0.30063683 0.9245617 0.6229832 0.41500825
000320 4f e2 d2 bf 7e 2d 0e bf d3 df 65 bf 37 df a4 3e
       -1.6475314 -0.55538166 -0.89794654 0.3220155
000330 a3 52 e6 3e 90 50 fb be 59 d4 e5 3d e5 a3 5d 3f
       0.44984922 -0.49084902 0.11222143 0.8657821
000340 4a 74 46 3f d8 d2 6a 3f a4 7a 37 3f 84 5b fb bb
       0.77521193 0.9172797 0.7167151 -0.0076708216
000350 f9 fb f8 3e 20 7d 2f be ee 75 7a bf 66 ba 63 3f
       0.4862974 -0.17137575 -0.97836196 0.88956296
000360 25 6b 42 3e 20 df fe bd 05 06 db 3e 35 15 72 3f
       0.18986185 -0.124449015 0.4277803 0.9456361
000370 09 4a dc 3e 3c 02 b0 bd d6 f0 29 3f d9 83 d3 bd
       0.43025234 -0.08594176 0.6638311 -0.10327882
000380 f6 02 73 3e aa 6d 14 bf 03 d8 bc 3e 28 d5 82 be
       0.23731598 -0.57979834 0.36883554 -0.2555325
000390 f9 97 14 3d 72 44 ac bd 59 96 e6 3e 48 c6 89 be
       0.036277745 -0.084114924 0.4503658 -0.2690909
0003a0 85 31 8a be cc fe 4a bf 5f 2d 26 3f 25 b7 04 3f
       -0.26990905 -0.7929504 0.6491298 0.51841956
0003b0 d7 a2 a8 bf 11 cf 53 3f 3c ff ed 3d 10 52 e4 bd
       -1.3174695 0.82737833 0.11620948 -0.11148465
0003c0 c1 6d 44 bf f3 2a 61 3d 00 6c cf bd b1 fd aa bd
       -0.7672997 0.0549726 -0.10128021 -0.08349169
0003d0 12 fe 08 bf e9 df 11 bf b6 fc b0 bd 72 43 9f be
       -0.5351268 -0.56982285 -0.08641951 -0.31106144
0003e0 4b ee 73 bf 7a 97 12 bf 9a 58 32 bf c5 7c 68 3f
       -0.9528548 -0.57262385 -0.69666445 0.90815383
0003f0 16 5c eb 3b 98 49 04 be fe b9 f9 be b6 bf c3 3e
       0.0071826084 -0.12918699 -0.48774713 0.382322

bias f4 [256]
000000 34 63 3c 3f ee 90 47 3d 2e 07 74 3e 7b 3d 1e bf
       0.7358887 0.0487222 0.23830864 -0.6181256
000010 22 82 01 3f 66 95 86 3f b0 b9 75 bf cb 92 01 3f
       0.5058919 1.0514343 -0.9598646 0.50614613
000020 f8 51 08 bf a4 58 9e be bd 9c fe 3d df e2 1d 3f
       -0.53250074 -0.30927002 0.12432239 0.616743
000030 85 dd 27 3f fc 05 6f bf 33 92 d6 3d 36 62 82 bf
       0.65572387 -0.93368506 0.10477104 -1.0186222
000040 a2 a8 05 3f 35 e6 35 3f 44 26 e7 3e 3c 08 08 3f
       0.5221044 0.71054393 0.45146382 0.53137565
000050 8f 3d d9 3e c4 86 6f 3e c9 16 c0 be 38 78 a5 be
       0.42429778 0.23391253 -0.37517384 -0.32318282
000060 a8 ad 8b be ef 72 4d 3f c1 4f 5e 3f d5 68 f8 be
       -0.27280927 0.802535 0.86840445 -0.4851748
000070 66 f3 00 bf a7 b7 32 3f 76 05 36 bf 88 e6 8f be
       -0.50371397 0.6981148 -0.7110208 -0.2810557
000080 c7 9e 1f 3e 60 5b d2 bd b8 52 80 be 10 6d 69 3f
       0.15587912 -0.10271335 -0.2506311 0.9118204
000090 df 2f e3 3e 19 ee cc 3e 0b 9c 6e 3f 62 ff d5 be
       0.4437246 0.40025404 0.9320685 -0.41796404
0000a0 2b e3 71 3e f3 77 60 3f 99 c4 37 bf 02 93 5d bf
       0.23621814 0.8768303 -0.7178436 -0.8655244
0000b0 28 0f 45 be 1a 6e f1 be a9 c4 7b 3e 1a 1d 62 bf
       -0.19244063 -0.47154313 0.24586739 -0.88325655
0000c0 e0 93 d9 3d c0 b5 ef 3e 10 af f6 be 80 80 6c bc
       0.10623908 0.46818352 -0.48180437 -0.014434934
0000d0 19 da fd be cc 74 59 bf 71 ee 74 3e d3 13 87 bf
       -0.49580458 -0.8494384 0.23919083 -1.0552925
0000e0 b1 af 0b 3f 86 96 2f 3f 56 63 b4 3e ab 88 4b 3f
       0.5456496 0.68589056 0.35232037 0.79505414
0000f0 50 35 31 3f c0 de 2f bb 2b 67 ed 3d 39 9e c6 3e
       0.69221973 -0.002683565 0.11591943 0.3879259
000100 2f 15 b3 3d 1a d0 a0 be cc 13 48 bf c0 0f 84 3d
       0.08744275 -0.3140877 -0.7815521 0.064483166
000110 2e 5c 7f bf 6f 26 4b 3e bf 8c 43 3e c4 f3 bd be
       -0.9975003 0.1983888 0.19096659 -0.3710004
000120 16 f2 1c bf c0 2b 00 bd 23 50 57 3f f5 59 8d bd
       -0.61306894 -0.031291723 0.84106654 -0.069019236
000130 80 34 34 3f 56 e2 12 bf 69 d9 fe 3e 3c 55 16 3f
       0.7039261 -0.5737661 0.49775246 0.5872381
000140 ad e4 64 3f 33 bd 0f 3a ef 9f ac 3e 86 24 58 3f
       0.8941143 0.000548321 0.3371577 0.8443073
000150 40 1a 30 bd 7f da a2 3e fe 48 68 3f 0c 12 b3 be
       -0.042993784 0.31807324 0.9073638 -0.34974706
000160 08 85 23 3b 40 ba 20 be c1 b0 a2 bb a5 e2 54 3f
       0.002495112 -0.15696049 -0.0049649184 0.8315833
000170 d8 f5 2e bf 13 2a 3f bf 80 a9 fb bd 8e 56 2e 3f
       -0.6834388 -0.74673575 -0.12288189 0.6810082
000180 af fc 5b 3e 20 f2 e7 bd b4 b5 16 3f 6d d2 0d 3f
       0.2148311 -0.113254786 0.58871007 0.5539921
000190 00 15 9d bc 1f 2f 6d bf ca 99 a1 3e f5 bd 88 bf
       -0.019175053 -0.92650026 0.31562644 -1.068297
0001a0 20 fd 39 bf a0 05 f3 be 65 12 2c 3f 65 37 43 bf
       -0.72651863 -0.4746523 0.6721557 -0.762564
0001b0 8a a3 30 bf f0 13 79 3f 72 9d 78 bf 77 46 fc be
       -0.6899954 0.9729605 -0.9711524 -0.4927251
0001c0 d4 64 2b bf 08 74 b8 3e 15 19 31 3f 4f 93 e4 3e
       -0.66950727 0.36026025 0.691789 0.44643638
0001d0 64 a3 a2 be 18 10 ba be 0c 87 3c ba 72 75 42 3f
       -0.31765282 -0.36340404 -0.00071917544 0.7596046
0001e0 c0 71 c2 bc a4 87 f5 be 1f bc 08 3f 0c 92 eb be
       -0.02373588 -0.47955048 0.5341205 -0.46009862
0001f0 7e 04 1c 3f 54 9f 9a be a8 58 c1 be 69 a8 80 3f
       0.60944355 -0.30199683 -0.37762952 1.0051395
000200 08 85 c6 3d 6a f4 6d 3f 00 17 7b be 80 ea 27 bf
       0.096933424 0.9295107 -0.24520493 -0.65592194
000210 eb 67 86 3e da 0c 14 3f 13 f8 ae 3e 4c 84 3b bf
       0.26251158 0.5783211 0.3417364 -0.73248744
000220 16 f1 25 3e 80 79 d1 be 92 b8 6b 3e 58 e6 14 3f
       0.16205248 -0.4091301 0.23019627 0.58163977
000230 49 91 a3 3c c3 2f 74 b9 97 3a 3d 3e b8 06 52 bf
       0.019966738 -0.00023287446 0.18479382 -0.820415
000240 ea 6f 99 3c ee 57 5a bf 5e 3d 10 bf 4b 66 92 bf
       0.018730123 -0.8529042 -0.5634364 -1.1437467
000250 4f f5 5f 3f d6 60 79 bf 88 ac c1 be a5 51 a8 3e
       0.87483686 -0.97413385 -0.37826943 0.3287479
000260 c8 7c a5 be c5 2f 1e bf ea 7f 46 3f d4 82 20 3f
       -0.32321763 -0.6179164 0.7753893 0.6269963
000270 20 1d 53 be b8 a8 a1 3e ec f6 c6 be f0 e4 5a bf
       -0.20616579 0.31574035 -0.3886026 -0.8550558
000280 c9 5f 02 3f 76 38 11 bf 10 72 0e bf f5 93 44 3e
       0.50927407 -0.5672678 -0.55642796 0.19197066
000290 00 00 65 bd 65 ae 26 bf 82 14 83 3d de ca 0e be
       -0.055908203 -0.65109855 0.06400396 -0.13944575
0002a0 39 19 77 3f 2b ee 42 3f 20 b1 63 3e df e0 b1 3e
       0.9652286 0.76144665 0.22235537 0.34741876
0002b0 ca 15 ef 3e 34 01 58 3f 91 36 95 3e 67 6a d6 be
       0.4669631 0.84376836 0.29143193 -0.41878054
0002c0 de 6a 8d 3e dc b3 ea 3e 73 80 24 3f 95 07 d1 3d
       0.27620596 0.45840347 0.642585 0.10206524
0002d0 b0 3f 9c be c0 52 75 be fc a9 8e bf f0 03 2a 3f
       -0.3051734 -0.23957348 -1.1145625 0.6641226
0002e0 98 af 42 be 50 80 24 bf 20 0f 60 bd 6b c8 8c bf
       -0.19012296 -0.6425829 -0.054701924 -1.0998663
0002f0 80 00 4b bc f9 68 5d ba 1c fc 1a bf 34 18 9e be
       -0.012390256 -0.0008446123 -0.6054094 -0.3087784
000300 b8 5f 56 bf 2b 91 46 3f 57 11 f7 3e f2 62 00 3f
       -0.83739805 0.7756526 0.48255417 0.5015098
000310 07 0b 7e 3e 58 3c 51 bf ee 4a a7 3e f4 1f 62 3f
       0.24808894 -0.817327 0.32674354 0.88330007
000320 3f 4d 05 3f d0 7f 8b be 32 17 fb 3e 6c 89 4a 3e
       0.52070993 -0.2724595 0.49041134 0.19778985
000330 68 e0 01 3c d0 e8 77 be 43 c0 ab 3e ec 81 85 bf
       0.007927038 -0.24209905 0.33545122 -1.0430274
000340 2d 85 fd 3e cb 6e 5e 3f b4 d2 61 3e 9a d0 ce 3e
       0.49515668 0.86887807 0.22053033 0.40393525
000350 93 ea cb 3b 10 e1 76 be e0 c3 33 bd 6c 7a 13 bf
       0.006223032 -0.24109292 -0.043887973 -0.57608676
000360 e4 79 6e 3f e0 60 6d bf aa ad f7 3d 60 9a 93 3d
       0.9315474 -0.92725945 0.12093671 0.07207179
000370 68 1a 2d bf 05 b8 b3 3d b9 1c 78 bf 5f 3d a1 3e
       -0.6761842 0.08775333 -0.9691883 0.31492135
000380 ff 17 21 3f 28 11 3c be 93 46 50 3c 14 de 6d bf
       0.6292724 -0.1836592 0.012712139 -0.9291699
000390 49 30 07 3f b2 5d 83 3e 84 da 49 3f c2 21 52 3f
       0.5280805 0.2565742 0.78849053 0.8208276
0003a0 42 14 52 b9 42 74 10 bf 42 74 1a 3b 5e 36 54 bf
       -0.00020034707 -0.56427395 0.002356783 -0.8289546
0003b0 1a 09 a8 3e 37 8e 15 3d b8 d5 03 3b a0 a7 d5 bd
       0.32819444 0.03651258 0.00201164 -0.104323626
0003c0 af ce 4b 3f 04 15 31 3f 62 7b 5d bf 8d 9e 82 3e
       0.7961225 0.6917269 -0.8651639 0.2551159
0003d0 86 96 19 bf 99 88 65 3f fd 40 b9 3e 3a 2e 71 3f
       -0.59995306 0.89661556 0.36182395 0.9421116
0003e0 28 e9 c5 ba 09 ff 75 3f ef b5 82 3f fc 7f 7b 3e
       -0.0015099393 0.9609228 1.0211772 0.24560541
0003f0 66 24 5a 3f f7 02 59 3e 09 45 58 3f a0 b5 d3 3e
       0.8521179 0.21192537 0.8448034 0.41349506

weight f4 [1, 256]
000000 35 82 ee 3c a8 a3 75 3d 4e f6 b7 3c 59 d2 11 3c
       0.029114822 0.059970528 0.022456314 0.008900248
000010 35 a6 0c 3d 53 58 16 3d 3b 65 43 3d cd 1a fc bb
       0.034338195 0.036705326 0.047703963 -0.0076936246
000020 4b e2 29 3c 6a a6 cf bc 0a a6 d5 bc 2b 2e 7f bb
       0.010368894 -0.025347907 -0.02608015 -0.003893743
000030 ac 39 6f 3d 10 be 9b bc 59 66 0a bd 56 fa 0f bc
       0.05840461 -0.019011527 -0.033789013 -0.008787712
000040 3d bf 11 bd cf b0 21 bc 56 36 5a 3d 3c 4c 80 3d
       -0.03558277 -0.009868815 0.053274475 0.062645406
000050 e7 a1 b0 3d 51 cc 2f bb 54 01 84 3c 4b c9 29 bd
       0.086246304 -0.0026824663 0.016113915 -0.041451734
000060 16 76 ea 3c 3d a3 b4 3b 46 7a b1 bc 61 cd 9e 3c
       0.02862076 0.0055126236 -0.02166475 0.019385042
000070 02 9e 8d bc ea 74 c6 3c 71 ea 77 3b 1a ae fe 39
       -0.017287258 0.02422567 0.0037828947 0.0004857637
000080 47 fb 26 bd a9 11 56 bc 07 4d 16 bc 06 c5 9f 3d
       -0.04076698 -0.013065734 -0.009173638 0.07801251
000090 23 b7 6b bd 53 69 99 b7 19 ca d4 3c cb 7f a0 bc
       -0.0575477 -1.8288067e-05 0.025975274 -0.019592186
0000a0 63 28 3e 3d a5 22 3c 3c 05 69 39 bd ca 63 12 bc
       0.046425235 0.011482869 -0.04526617 -0.008934924
0000b0 35 ae 85 bc 03 cb a4 bd c0 cf 8a bd ab 06 5b bd
       -0.01631842 -0.08046534 -0.067779064 -0.053473156
0000c0 4b ae 19 bc 72 02 80 3d fd 6a c3 bb c7 1a 0c 3b
       -0.009379934 0.062504664 -0.0059636817 0.0021378265
0000d0 8e af 8f bc d8 89 21 bd f8 21 27 bd 13 98 03 bc
       -0.017539766 -0.0394381 -0.04080388 -0.008031863
0000e0 3e ae 92 bc a9 5a 61 3d 54 18 9f bc 68 75 c5 bc
       -0.01790535 0.0550181 -0.01942078 -0.024103835
0000f0 b8 dc 41 bd 82 e8 c4 3c 3e c2 09 bd 35 63 c6 3c
       -0.047329634 0.02403665 -0.03363251 0.024217227
000100 86 f4 6c bd 84 ab f6 bb 5e 7c da bc b0 c7 27 3d
       -0.057850383 -0.0075277705 -0.026670631 0.04096192
000110 46 55 97 bd 32 60 61 bc 6a 01 87 bd 2a 7c 3f 3d
       -0.073893115 -0.013755845 -0.065920666 0.04674927
000120 5b d1 2c 3c f1 d5 31 bd 61 82 aa 3d 2d 7f 59 bd
       0.010547961 -0.04341692 0.08325649 -0.0530998
000130 3e 17 cf bc bd 01 21 bd 1a 1b 86 3d 90 b4 0d bd
       -0.025279637 -0.0393083 0.06548138 -0.034596026
000140 4f 3c 2c 3c 1a 28 80 bc cf 15 1a 3b 72 c8 35 bd
       0.010512426 -0.015644122 0.0023511534 -0.044380613
000150 a9 90 6e 3d 85 2d f5 bb 5b d9 f5 bc d2 d5 61 3c
       0.058243427 -0.007482233 -0.03001087 0.013783889
000160 b7 cb 2f bd 3a 23 c0 3b 48 e7 80 3c a8 29 a0 3d
       -0.042918887 0.0058635743 0.015735283 0.07820445
000170 45 10 1a 3c f1 9b a2 ba 1e f3 80 3c 4d 13 13 bd
       0.009403293 -0.0012406093 0.015740927 -0.03590708
000180 c9 e5 91 3b 40 4f 5b 3d ed c3 c9 bc f4 2c 9d 3c
       0.0044524414 0.053542376 -0.024629558 0.019186474
000190 d5 bd 33 bc 2c fb 47 3d 90 ad 81 3c 9a d6 d3 bc
       -0.010970552 0.04882352 0.015829831 -0.025859166
0001a0 05 a2 74 3b bf f3 f9 bc 22 94 26 bd 5d 80 83 ba
       0.0037328016 -0.030511735 -0.040668614 -0.0010032762
0001b0 45 39 e3 3c c5 55 4c 3b 62 1e 4f 3d 2e f9 ac bb
       0.02773727 0.0031179052 0.050566085 -0.005278728
0001c0 57 53 94 bd 2f 32 a7 3c d0 ed 78 bc d6 38 10 3d
       -0.07242458 0.020409672 -0.015193418 0.035210453
0001d0 21 d4 2f 3d bc c4 33 3b 91 d5 b8 bc 36 21 4f 3c
       0.04292691 0.0027430495 -0.022562774 0.012642195
0001e0 9a de 0a bd ff 2e c6 3c f6 17 49 3d 3e f8 dc ba
       -0.033903696 0.024192331 0.049095117 -0.001685865
0001f0 4e d5 67 3c eb 4e 7f 3d c1 be e1 bc 69 9e 87 3d
       0.014149977 0.06233112 -0.027556779 0.06622011
000200 62 00 fc 3c 4d 85 77 3d 4f 7e 49 3d 9b 66 7b 3d
       0.030761901 0.06042986 0.049192723 0.06137715
000210 e4 13 2c 3d ec 94 19 bc 96 3b 4e 3d cc ab 9f 3c
       0.042011157 -0.009373885 0.050349794 0.019491099
000220 f9 b6 5f bd 45 1b 47 bd 3f b0 2e bd 20 ee 15 3d
       -0.054617856 -0.04860999 -0.04264855 0.036604047
000230 b5 cf 46 bc ac 1c dd 3a 8f 51 cb bc 34 d2 9e bc
       -0.012134482 0.0016869507 -0.024819164 -0.019387342
000240 f9 cf f8 3c 3f b4 12 3d f7 74 43 3d 87 12 d4 3c
       0.030372607 0.035816427 0.04771897 0.02588774
000250 44 8c 4e 3d b7 d7 35 bc f0 e1 04 bd c0 99 1d 3d
       0.050426736 -0.011098794 -0.032442033 0.038476706
000260 8b 48 e0 3c 12 25 36 bd d9 7b 11 bc 10 bc 31 3d
       0.027378341 -0.044468947 -0.008879625 0.04339224
000270 84 26 91 bc 30 49 64 bd e4 a7 4e 3c 78 a1 86 bc
       -0.017718561 -0.05573386 0.01261327 -0.016434416
000280 bd 11 04 3d 5a 2e 84 bd bd a4 0e bd 23 64 8a bb
       0.03224348 -0.06454153 -0.034825075 -0.004223363
000290 fb 88 f3 3c 30 47 fe 3c af 39 ce 3c 51 af ab 3c
       0.029728403 0.031039804 0.02517399 0.02095762
0002a0 d9 35 33 3d 12 08 36 3d 8d 71 5e bd b2 02 0c bd
       0.043752525 0.04444129 -0.05430751 -0.034182258
0002b0 e3 2f f6 bc 1c 07 7f 3d 87 c0 88 bc 56 9d d7 bc
       -0.030052131 0.06226264 -0.016693367 -0.02632014
0002c0 40 25 95 3c 2c 8f c8 3c 5f a4 90 3d be 1d 93 bc
       0.018206239 0.024482332 0.07062601 -0.017958518
0002d0 50 85 7c 3d da 33 cc 3c e9 3b 7a 3c 0d 73 21 bd
       0.061650574 0.024927069 0.015273073 -0.03941636
0002e0 c1 8b 1a 3d e5 f3 b1 3c 08 88 7c 3c c4 3d 20 3d
       0.037730936 0.021722743 0.015413292 0.039121404
0002f0 50 dc 38 3d 8e 07 93 3d 2e a5 a8 ba e5 68 89 3a
       0.04513198 0.07179175 -0.001286661 0.0010483532
000300 6f 43 45 3d 12 81 5c bd 9b e5 5b bd 3b 5d a0 3d
       0.048160013 -0.05383403 -0.053685766 0.07830282
000310 d0 4a 22 bd 9b e1 27 3d a4 60 0f 3d b3 dc 53 bc
       -0.039622128 0.04098664 0.035004273 -0.012931037
000320 f8 7b 0b bd e3 20 e8 bc ac 4c 6c bd a6 a2 db bc
       -0.034053773 -0.028335994 -0.057690307 -0.026810955
000330 22 9f 26 3d 60 7b 41 bd 0f 80 cd 3c 1a dd 9a 3c
       0.040679105 -0.0472368 0.025085477 0.018904258
000340 1f ef 08 bd 84 7c 2c bc 62 31 5f bd ec ce c0 3c
       -0.03343117 -0.010527734 -0.054490454 0.023536168
000350 27 65 43 bc 1d 1b b9 3c c7 9b ac 3c 91 5b 70 bd
       -0.011925972 0.022595936 0.021070374 -0.058681075
000360 05 48 44 bc 4c d7 aa 3a 93 1f 33 3d 50 dd f5 3c
       -0.011980061 0.0013034134 0.043731283 0.030012757
000370 f3 f4 20 bd ca f8 d9 bc 3a 46 24 3c 28 20 01 bc
       -0.0392961 -0.02660789 0.010026509 -0.007881202
000380 04 51 41 3d ce 01 aa 3c 17 e3 0c 3d 3c bb 53 3c
       0.047196403 0.020752814 0.034396257 0.012923058
000390 f2 cd ce 3b 5c f2 70 bd fe a0 21 3d 1d 58 8b 3c
       0.0063111717 -0.058824882 0.039460175 0.01700979
0003a0 a6 26 f6 3b ec cc 1d bd 90 51 a2 3c a9 42 5b bc
       0.0075119315 -0.038525507 0.019814283 -0.013382592
0003b0 e6 7b 96 3c 10 03 0e bd 26 72 cc 3c 3e 5c 30 3d
       0.018369626 -0.03467089 0.024956774 0.04305672
0003c0 b9 58 20 bd 9c d2 b4 bb c2 db c5 3c e1 f2 5b bb
       -0.039147113 -0.0055182707 0.02415264 -0.0033561515
0003d0 11 60 3e bd f2 c3 07 bd d9 4c ca bc b0 55 f4 bb
       -0.046478335 -0.033145852 -0.024694847 -0.007456504
0003e0 d1 0c 74 3d 70 b0 85 3b d8 85 8b bc d1 e7 e4 3b
       0.059582535 0.004079871 -0.017031595 0.0069856425
0003f0 06 44 ae bb 89 b9 63 3d 3e 77 9b bd 14 0f ee bc
       -0.0053181676 0.055596862 -0.07591103 -0.029059924

weight f4 [256, 1]
000000 31 e0 4d 3f 00 47 3b bc 8b 7e 0f 3e a0 4e 08 bf
       0.80420214 -0.011430502 0.14013116 -0.5324497
000010 9f 0f 2f bf a9 73 5b 3f d3 c9 2f 3f ad 6d 62 be
       -0.6838321 0.8572336 0.68667334 -0.2211215
000020 c4 67 d2 bf 9f 95 cf 3e 5a de 69 be e4 a3 cd be
       -1.6437917 0.4054384 -0.22838727 -0.401641
000030 81 0b d3 3e 58 68 88 be 9f c0 c5 be a4 d4 ce be
       0.41219714 -0.26642108 -0.3862352 -0.40396607
000040 30 20 8d be ca 11 c4 3d c2 88 fe bf eb d4 ce 3e
       -0.2756362 0.095737055 -1.9885485 0.4039682
000050 10 9e 47 be fe 67 3d bf fa 11 70 bf c8 9a f9 be
       -0.1949389 -0.73986804 -0.9377743 -0.487509
000060 e0 04 94 3e 12 24 14 bf c2 14 50 3f d0 f0 bf bd
       0.2890997 -0.5786754 0.81281674 -0.09372103
000070 f9 d0 bb 3e 06 05 29 bf e4 09 ef 3c 35 d6 d3 bc
       0.3668287 -0.6602329 0.02917952 -0.025858978
000080 12 df cc be b4 e5 cd 3e 5c 3f 5a bf 80 13 1f 3c
       -0.4001394 0.40214312 -0.8525293 0.009709239
000090 79 8b ea 3e e3 d8 0d 3e 3f 69 a4 3e 48 06 3c 3f
       0.45809534 0.13852267 0.32111546 0.73447084
0000a0 c8 68 2a bf 11 31 e8 3d de f2 87 bf a0 bc ad be
       -0.66566133 0.11337484 -1.0620992 -0.33932972
0000b0 6d ac 68 3f 54 ef 23 3f 74 f7 9b be 0e 8b 05 3f
       0.908881 0.6403706 -0.3046223 0.52165306
0000c0 c8 d0 75 bf b5 8c 8f 3e 0c 7d 90 be b5 28 23 3f
       -0.960217 0.28037038 -0.28220403 0.6373399
0000d0 74 3e c8 bf 80 fa 18 bc 26 d8 13 bf 7d 21 c2 3e
       -1.5644059 -0.009337068 -0.5775169 0.37916175
0000e0 7c fb 88 bf e4 59 8c 3e 85 43 82 bd e3 ef d4 3e
       -1.0701747 0.2741233 -0.063605346 0.4158927
0000f0 2b 63 ac 3d 39 96 94 3e 40 49 7f bf e1 1e b8 be
       0.08417352 0.2902086 -0.99721146 -0.3596106
000100 e2 2e 54 bf e8 36 70 3f e9 a1 05 3f b0 93 00 bf
       -0.8288404 0.9383378 0.5220018 -0.50225353
000110 cc 68 48 3f ce 66 07 3e a1 05 21 3f b2 60 12 bf
       0.7828491 0.1322281 0.62899214 -0.57178795
000120 ec 4c 09 3f 65 df dc bd 02 bf 28 bf 3a 89 f9 be
       0.53633 -0.107847966 -0.65916455 -0.48737508
000130 51 de 3a 3f 47 1b 27 bf 07 b2 1a 3f f4 92 a5 3e
       0.7299548 -0.65275997 0.604279 0.3233868
000140 40 ac 0e bd a3 21 f6 3e 07 55 40 3f c8 12 18 bf
       -0.03483224 0.48072538 0.7512974 -0.5940366
000150 73 4c 82 bf 77 43 c2 3e 57 b9 39 3f fc 69 61 bf
       -1.017958 0.37942097 0.7254843 -0.88052344
000160 04 a5 6e 3f b0 80 65 3b f0 37 d3 be d3 71 2e 3f
       0.93220544 0.003501933 -0.41253614 0.6814243
000170 65 3c 0f bf d9 98 8b 3e b0 5a cd be 1a 1b 2b bf
       -0.5595153 0.2726505 -0.40108252 -0.6683823
000180 88 6e 5f bf f6 63 20 bf 3a 0a 5f 3f 5a dc 0e 3f
       -0.8727803 -0.6265253 0.8712498 0.5580498
000190 8c 66 25 bf fa 4c 38 3f 96 85 34 3f c1 2d 13 3f
       -0.646096 0.71992457 0.70516336 0.5749169
0001a0 4c 17 8e 3b 32 47 61 bf 82 67 5b bf e7 7a 94 3e
       0.0043362733 -0.8799926 -0.85704815 0.29000017
0001b0 ae a9 38 bc 91 f7 6b 3e b1 97 31 bf 24 f9 ed be
       -0.011270924 0.23043658 -0.6937209 -0.46479142
0001c0 5e e8 18 3f 99 d0 28 3e ea 8b 1f bf f3 96 80 bd
       0.59729564 0.16485824 -0.62322867 -0.06278791
0001d0 39 4d 23 3f 1f 9d 45 3f f4 eb fb be e2 06 01 3f
       0.6378971 0.7719287 -0.49203455 0.5040113
0001e0 71 05 5f 3e d8 1c 9d be b4 e5 42 bf 8d e0 95 3e
       0.2177942 -0.3068607 -0.7613175 0.2927288
0001f0 b0 67 f0 be 53 f0 8b 3e bf 12 3a bf 5d 00 7f 3f
       -0.46954107 0.2733179 -0.72684854 0.9960993
000200 3a 2d 4d 3f 60 71 5b be 63 ff 32 bf 97 e1 3f 3c
       0.80147135 -0.21429968 -0.6992094 0.0117115
000210 40 af df be f6 85 63 3f 58 46 27 be 2e c0 db 3e
       -0.43688393 0.88876283 -0.16335428 0.4292006
000220 97 9c 8c be 07 71 68 bf 53 9d 03 bf 5a 60 34 3f
       -0.2746322 -0.90797466 -0.5141193 0.7045952
000230 5b 29 90 3e b8 a2 36 3f d9 48 ed 3e 24 dc 5e 3e
       0.28156552 0.7134204 0.4634464 0.21763664
000240 f0 7c 79 bf 0f a9 91 3e 32 f8 39 bf 40 c0 5f bf
       -0.97456264 0.28449294 -0.7264434 -0.87402725
000250 cc 28 35 bf 80 e0 ac bd 94 b5 03 3f 41 66 2c 3f
       -0.70765376 -0.084412575 0.5144894 0.6734353
000260 94 37 d6 be 3b aa 4a bf 52 f7 2f 3f fc e5 e8 3e
       -0.41839278 -0.79166 0.68736756 0.45487964
000270 e3 18 6d 3f ad 8d 82 3e 52 96 37 bf e4 4d 55 bf
       0.926161 0.25498715 -0.71713746 -0.83321977
000280 2d 87 3d bf 5d c4 24 3f 5c 93 e3 bf 0d e7 43 be
       -0.74034387 0.64362127 -1.7779346 -0.19131108
000290 0c eb 0e 3f 90 c5 68 be a1 9a 70 bf 0b 6a d2 3e
       0.55827403 -0.22731614 -0.93985945 0.4109653
0002a0 1d aa 3b bd ee 52 6e bf 92 a1 8b be dc 4f c9 be
       -0.04581653 -0.9309529 -0.27271706 -0.3931874
0002b0 84 75 72 bf 9f 76 7d 3f 54 66 c0 be ff b2 28 3e
       -0.94710565 0.99009126 -0.3757807 0.16474532
0002c0 16 83 47 bc 82 7d 06 bf bc 34 cb 3e 30 31 d8 3d
       -0.012177249 -0.5253526 0.3968867 0.10556257
0002d0 5f 1c 09 bf 72 d4 6c 3e 12 da c8 3d aa 46 26 bf
       -0.53558916 0.23127916 0.098072186 -0.64951575
0002e0 63 a7 ac 3e 5c 38 b0 3e 02 a7 5b be 38 a0 33 bf
       0.33721456 0.34418 -0.21450427 -0.7016635
0002f0 c0 16 8b bd d3 64 b1 3e 9a 13 ff 3e 72 7c 29 bf
       -0.067914486 0.34647235 0.49819642 -0.66205513
000300 a3 12 00 be 67 81 66 3f 2a c5 24 bc 00 32 7a be
       -0.1250711 0.900412 -0.010056773 -0.24433136
000310 f4 8b 00 3f 63 3d 08 be 46 0a 51 bf ec bf 34 3f
       0.5021355 -0.13304667 -0.816563 0.7060535
000320 b7 80 66 bf f3 da 84 be 00 c0 0e bb 7a 47 0e bf
       -0.90040153 -0.25948295 -0.0021781921 -0.55577815
000330 5b 89 16 3f d4 e3 ce be 4c be 25 3e 18 7b 54 be
       0.5880334 -0.40408194 0.16185874 -0.20750082
000340 8b f4 7d bf 17 fb 37 3f b2 8b 54 3f c9 1c d9 bd
       -0.9920127 0.7186751 0.8302566 -0.106011935
000350 30 6b 57 bf aa 47 f2 3e 63 bc 79 3e 4e 56 3c 3f
       -0.8414793 0.473203 0.2438827 0.7356919
000360 3c f7 12 3e cc 81 41 3f 2f 6d a4 bc 90 a5 c0 bd
       0.14352125 0.7558868 -0.020071594 -0.094065785
000370 97 78 aa 3a aa af d2 bd 7e 19 0a 3f fc e9 94 3e
       0.0013005909 -0.102874115 0.5394515 0.29084766
000380 cf aa d2 bf ac 72 dd be e0 3c 61 bf a8 d0 a5 3e
       -1.6458377 -0.4325155 -0.8798351 0.32385755
000390 b9 a7 98 3e ef 71 d5 bd 8a 2a 71 3f 02 27 0b 3f
       0.29815462 -0.10422122 0.94205534 0.54356396
0003a0 e7 5d 79 3f 60 51 1e be cb f4 3e 3e 9c 50 5c 3f
       0.9740891 -0.1546073 0.18648069 0.860605
0003b0 41 75 3a bc 2e 7c 50 bf 1a f4 b3 be 7d 3e e8 be
       -0.011380495 -0.81439483 -0.35147172 -0.45360175
0003c0 47 b0 2b 3f 46 8b 1d 3f b0 f0 49 3e 3e 2d 78 bf
       0.6706585 0.6154064 0.19720721 -0.96944034
0003d0 03 af 2d bf 60 3d ee 3e 1d c5 38 3e 1d 0c 91 3e
       -0.6784517 0.465312 0.18043943 0.28329554
0003e0 1b 25 d9 3e c0 ed 30 3d 61 ee e9 3d d0 4e 69 bf
       0.42411122 0.043195486 0.1142242 -0.91135883
0003f0 9e a3 6f bf 48 9a 10 3f 1b 68 8d 3e 8f 68 cf 3d
       -0.93609035 0.56485415 0.2761849 0.10127365
