checkpoints/6751200.ckpt (torch, 122663 bytes, 33 tensors)

weight f4 [256, 18]
0	0x3e45ca49	0.19315447
1	0xbd7efc34	-0.06225224
2	0x3e5eaa0c	0.21744555
3	0xba0c428e	-0.00053504936
4	0x3e592df4	0.21208936
5	0xbe47acd5	-0.19499524
6	0x3e020059	0.12695445
7	0x3e1bdaff	0.15220259
8	0xbdaacf9b	-0.08340379
9	0xbe83db2a	-0.25753146
10	0xbc9ae68a	-0.018908758
11	0x3d930f19	0.07180614
12	0xbd99e772	-0.07514848
13	0xbe2150c5	-0.15753467
14	0xbe088818	-0.13333166
15	0x3e3a8a35	0.18216784
16	0xbe528d26	-0.20561656
17	0xbe074a02	-0.13211825
18	0x3e65e7ef	0.22451757
19	0x3d083f6a	0.0332636
20	0x3e422bad	0.18961973
21	0xbe3e50fc	-0.1858558
22	0xbd8fc298	-0.07019538
23	0xbe64d38a	-0.22346321
24	0x3d085f85	0.03329422
25	0x3e6219b3	0.22080116
26	0xbe199739	-0.14999093
27	0xbed95ce9	-0.42453697
28	0x3e1a190e	0.1504862
29	0x3de78bda	0.113059714
30	0xbc035c85	-0.008017664
31	0x3e22e10b	0.1590616
32	0x3ccf95c5	0.02533997
33	0x3e557a38	0.20847404
34	0xbd3db9ef	-0.0463199
35	0xbded08ca	-0.11573942
36	0x3e1cea31	0.15323712
37	0xbe2a375c	-0.1662268
38	0x3e7b613b	0.24548809
39	0xbd2f7b3e	-0.042842142
40	0xbce9e71a	-0.02855258
41	0x3daefbee	0.085441455
42	0x3e7741f0	0.24146247
43	0x3e2cc76a	0.16872945
44	0x3cc2e50d	0.02379086
45	0x3f094170	0.53615475
46	0xbcae0495	-0.02124242
47	0x3d2e01d6	0.04248222
48	0xbb01a8f8	-0.001978455
49	0xbe33f0ae	-0.17572281
50	0x3e60aba1	0.21940471
51	0x3e46b2af	0.194041
52	0x3cc51530	0.024057955
53	0xbe1f4300	-0.15552902
54	0xbe3c39a1	-0.18381359
55	0xbd4a4b61	-0.049388293
56	0x3df3237d	0.11872003
57	0x3b05eb6d	0.0020434514
58	0x3e4f2186	0.20227632
59	0x3e609ee1	0.21935607
60	0xbe1ee9ef	-0.15518926
61	0x3d3e4871	0.046455804
62	0xbdf10faa	-0.11770566
63	0xbe821078	-0.2540319
64	0x3ccc6ae6	0.024953317
65	0x3bd6109a	0.006532741
66	0xbe32a943	-0.1744738
67	0x3b06e9cf	0.0020586138
68	0xbe4e26c0	-0.2013197
69	0x3d2e4785	0.042548675
70	0xbe8494f0	-0.2589488
71	0x3d1d589c	0.038414583
72	0x3c962d98	0.018332288
73	0xbd06b902	-0.03289128
74	0x3c45ff00	0.0120847225
75	0x3ddaf11c	0.10690519
76	0x3ddb66f2	0.10712995
77	0xbd2ee15b	-0.042695384
78	0xbdc36747	-0.09541183
79	0xbd998628	-0.074962914
80	0xbe336a86	-0.17521104
81	0x3ed0bb17	0.40767738
82	0xbdce9afc	-0.10088155
83	0x3e061ae8	0.13096201
84	0xbe13c054	-0.14428836
85	0xbdd53c7b	-0.10411926
86	0x3d9b7a17	0.07591646
87	0x3e552ab1	0.20817067
88	0x3ceb797c	0.028744452
89	0x3d8f8979	0.07008643
90	0x3e083cef	0.13304494
91	0xbcd9958a	-0.026560564
92	0x3e10bf8c	0.1413557
93	0x3e4040ed	0.18774767
94	0x3e62179c	0.22079319
95	0x3e1013a1	0.14069988
96	0x3d651abb	0.055933695
97	0x3d08f9c8	0.033441335
98	0xbe3de6ef	-0.18545125
99	0x3e950871	0.29108003
100	0xbe3ebc17	-0.18626438
101	0x3dd0093c	0.10158011
102	0xbd504d68	-0.05085507
103	0xbc694af3	-0.014239061
104	0xbe3c65e9	-0.1839825
105	0x3e2800d0	0.1640656
106	0x3e13d401	0.14436342
107	0xbe8717f5	-0.26385465
108	0x3e3b3fe7	0.18286096
109	0x3d10bd60	0.035336852
110	0x3e36e9d5	0.17862637
111	0xbcfc09a7	-0.030766321
112	0xbd7994c1	-0.06093288
113	0x3da9fe1d	0.083004214
114	0xbe49d80b	-0.1971132
115	0xbdf632e4	-0.12021425
116	0xbe145acf	-0.14487766
117	0x3ef81e64	0.48460686
118	0x3db9a570	0.09064758
119	0x3d94c64c	0.072643846
120	0xbe5fb47d	-0.21846195
121	0x3e14f0c2	0.14544967
122	0xbd5152ba	-0.051104285
123	0x3d7d91fa	0.061906792
124	0x3dba593e	0.09099053
125	0xbe449305	-0.19196709
126	0x3e01b251	0.12665679
127	0xbd8482f6	-0.06470291
128	0x3d49dcf7	0.049282994
129	0x3c163ab1	0.009169267
130	0xbe4b39fb	-0.19846337
131	0xbbbf52be	-0.005838721
132	0xbe1a2847	-0.15054427
133	0x3d9b0601	0.075695045
134	0xbb9e2649	-0.0048263413
135	0x3ee081ab	0.4384893
136	0xbe2e0724	-0.16994911
137	0xbe5d3e4c	-0.21605796
138	0xbcaa4cea	-0.020788629
139	0xbe6edb10	-0.23325753
140	0x3dab495f	0.08363604
141	0x3e176804	0.14785773
142	0x3dd929db	0.106036864
143	0x3c91d7a8	0.017803028
144	0xbd6fa478	-0.05850646
145	0xbe5811ca	-0.21100536
146	0x3d6ae7a0	0.0573498
147	0x3e41b16e	0.1891534
148	0x3c8fb3b9	0.017541753
149	0x3a85b566	0.0010201156
150	0xbd11aec4	-0.03556706
151	0xbdb0e5d8	-0.08637589
152	0x3ddb99a4	0.10722664
153	0xbe209ecb	-0.15685575
154	0xbe681090	-0.22662568
155	0xbe36b751	-0.17843367
156	0x3e358068	0.17724764
157	0xbd9ecd3a	-0.077539876
158	0x3c12fad1	0.008970932
159	0xbd9413a0	-0.07230306
160	0xbe37de08	-0.17955792
161	0x3df5fd79	0.12011237
162	0x3e1f8877	0.15579401
163	0x3d0bd8d5	0.034142334
164	0x3c86e281	0.016465427
165	0x3e454dcf	0.19267963
166	0x3dced623	0.10099437
167	0x3e3543f4	0.17701703
168	0xbe4418bd	-0.19150062
169	0xbe8c5a25	-0.27412525
170	0x3cc5ac13	0.024129903
171	0x3e070ace	0.13187715
172	0x3dcfecd7	0.101525955
173	0xbdece12d	-0.11566386
174	0x3db2ba65	0.08726958
175	0x3e165e46	0.146844
176	0x3dc91f6b	0.098204456
177	0x3ce0b80a	0.027431507
178	0xbda0be18	-0.078487575
179	0xbe32d2c4	-0.17463213
180	0xbda12f52	-0.07870354
181	0xbc13842c	-0.00900368
182	0x3e5aaef3	0.213558
183	0xbd11b79a	-0.035575487
184	0x3d129b7d	0.035792816
185	0x3e02f4e4	0.12788731
186	0x3e4f3163	0.20233683
187	0xbc32f67f	-0.010923027
188	0xbdee6c6e	-0.11641775
189	0xbde98bbc	-0.11403605
190	0xbe0fa69d	-0.14028402
191	0x3d9f9536	0.077921316
192	0x3e5ce702	0.21572497
193	0x3e5584a4	0.2085138
194	0xbe1ea7c3	-0.15493684
195	0x3d66ab18	0.05631551
196	0xbdb1cd5c	-0.08681747
197	0x3db28995	0.08717648
198	0x3bafab80	0.0053610206
199	0x3dcf7512	0.10129751
200	0xbcdabf6d	-0.026702607
201	0xbe4646b9	-0.19362916
202	0x3b8dd53a	0.004328397
203	0x3dbd0111	0.09228719
204	0x3c36a276	0.011147132
205	0xbe7b420d	-0.24536915
206	0xbdd4a64b	-0.1038328
207	0x3e415341	0.18879415
208	0xbe33c0a4	-0.17553955
209	0x3e2ba1f8	0.16761005
210	0x3dad7cd9	0.084710784
211	0xbe7cc0d8	-0.24682939
212	0x3e69c404	0.2282868
213	0x3b182fe6	0.002322191
214	0xbe05546f	-0.1302049
215	0x3e09a40d	0.13441487
216	0x3e21a4e3	0.15785556
217	0xbcbaf794	-0.022823133
218	0xbe162e25	-0.1466604
219	0xbcb462e8	-0.022019818
220	0x3e1f3060	0.15545797
221	0x3e41098e	0.18851301
222	0x3c84c3e6	0.016206693
223	0xbd43f27c	-0.047838673
224	0x3c48a6d3	0.012246805
225	0x3de1dfc4	0.11029008
226	0xbe81cec1	-0.25353053
227	0x3c26c8b6	0.010179689
228	0xbc9ad121	-0.018898549
229	0x3de5a8e1	0.11213852
230	0x3e78de3a	0.24303523
231	0x3e0c27c4	0.13687044
232	0x3e527292	0.20551518
233	0x3d2ec84d	0.04267149
234	0xbd923fe0	-0.071410894
235	0x3d3a5065	0.045486826
236	0xbe40fc22	-0.18846181
237	0xbbd3de3b	-0.006465701
238	0x3e17cecc	0.1482498
239	0x3bd0422b	0.006355544
240	0xbd595841	-0.05306268
241	0xbe3c5b08	-0.183941
242	0x3d1edbcd	0.038783837
243	0x3ec6a9d6	0.3880145
244	0x3e32b1fe	0.17450711
245	0xbd4e3d47	-0.050351407
246	0xbe448fdf	-0.19195507
247	0x3d46c9bd	0.048532236
248	0xbe086ad2	-0.13321999
249	0x3e33ba0c	0.1755144
250	0x3e23451a	0.15944329
251	0xbe22bad1	-0.15891577
252	0x3dfad8da	0.122483924
253	0xbe1161d8	-0.1419748
254	0x3e03303f	0.12811373
255	0xbe0875bb	-0.1332616

bias f4 [256]
0	0xbe7243e4	-0.2365871
1	0x3d9db61f	0.077007525
2	0x3e53f661	0.20699455
3	0xbd27646b	-0.04086725
4	0x3d2c50e1	0.04206932
5	0xbe54815d	-0.20752473
6	0xbc89e64d	-0.016833449
7	0x3d8c066a	0.06837161
8	0xbe4f53d0	-0.20246816
9	0xbe45d492	-0.1931937
10	0x3da24a8d	0.07924376
11	0xbe815d80	-0.25266647
12	0x3e45d2ab	0.19318645
13	0x3dc20c00	0.09474945
14	0xbe923ccb	-0.28562006
15	0x3dda4069	0.106568165
16	0xbe41a79e	-0.18911597
17	0xbe0977af	-0.13424562
18	0xbd2a6114	-0.041596487
19	0x3c9ac282	0.018891577
20	0x3d6ff91c	0.05858718
21	0xbe101bbd	-0.14073081
22	0x3d483d44	0.048886552
23	0xbdf05b2c	-0.1173614
24	0xbded76c1	-0.11594916
25	0xbdfb5507	-0.12272077
26	0xbe42bf4d	-0.19018288
27	0x3e10f16f	0.141546
28	0xbe4f0244	-0.20215708
29	0x3daab243	0.08334782
30	0x3d9e683f	0.07734727
31	0xbe63119f	-0.2217469
32	0xbdafbbde	-0.08580755
33	0x3e1701f7	0.14746843
34	0x3d71819e	0.058961503
35	0x3d9a6538	0.07538837
36	0x3c5a35cb	0.013318489
37	0x3d4c6539	0.04990122
38	0x3cf637d5	0.03005592
39	0x3bafabda	0.0053610625
40	0x3dc60db5	0.09670583
41	0x3dee9e26	0.11651258
42	0x3e2e154c	0.17000312
43	0xbe226590	-0.15859056
44	0x3db50ed4	0.08840719
45	0x3dbd42a5	0.09241227
46	0xbe227ad7	-0.15867172
47	0x3e432857	0.19058357
48	0x3e2aa9f1	0.1666639
49	0x3e53678e	0.20644972
50	0xbde73e1a	-0.11291142
51	0x3d466718	0.04843816
52	0xbe2b96c0	-0.16756725
53	0x3e049da8	0.12950766
54	0xbd959770	-0.07304275
55	0xbd3179a0	-0.04332888
56	0xbd9fe3dd	-0.07807133
57	0xbcd0c0de	-0.025482591
58	0xbd49d9cd	-0.049279977
59	0xbe21a0b3	-0.15783958
60	0x3d69eede	0.057112567
61	0x3cb0571b	0.02152591
62	0x3e87aa75	0.26497236
63	0xbd173111	-0.036912028
64	0xbe492193	-0.19641714
65	0x3dce25c4	0.10065797
66	0x3e19fba9	0.15037407
67	0xbddd43a7	-0.10803919
68	0xbd3d54cd	-0.04622345
69	0xbdd2183f	-0.10258531
70	0x3dd0e102	0.10199167
71	0x3db14406	0.086555526
72	0xbded5d8a	-0.11590107
73	0x3e053748	0.1300937
74	0xbe308497	-0.17238079
75	0x3df38e17	0.11892336
76	0xbe33f63c	-0.175744
77	0xbdcfa9c1	-0.101398
78	0x3e02ba0c	0.12766284
79	0xbe406b86	-0.18791017
80	0x3e4824d3	0.19545297
81	0xbe5afc28	-0.21385252
82	0xbe97d15c	-0.29651916
83	0xbe22e56a	-0.15907827
84	0xbd0d1a76	-0.034449063
85	0xbdc12db0	-0.09432542
86	0xbe2789e1	-0.1636119
87	0xbe1217ef	-0.14266942
88	0xbe2b7f01	-0.16747667
89	0x3ced469c	0.028964333
90	0xbe50d2ed	-0.20392962
91	0xbdb2722a	-0.08713181
92	0xbe52c681	-0.20583536
93	0xbdc9113a	-0.09817739
94	0xbd1df57e	-0.038564198
95	0x3e55e906	0.20889673
96	0x3dd28269	0.1027878
97	0x3e0b0ced	0.1357915
98	0xbdd9bae3	-0.10631349
99	0xbe50094f	-0.20316051
100	0xbe8e8ed5	-0.27843347
101	0xbe75db18	-0.24009359
102	0xbe7d02ee	-0.24708149
103	0x3e06dc14	0.1316989
104	0xbd1f59d9	-0.038904045
105	0x3df5c117	0.119997196
106	0xbe17ca4e	-0.14823267
107	0xbd6cb67b	-0.057791214
108	0xb9ab9fd8	-0.00032734754
109	0x3c9cb1a7	0.01912768
110	0xbdc41c3d	-0.095756985
111	0xbe012e08	-0.12615216
112	0x3e24b7cc	0.16085738
113	0xbcd8f8c7	-0.026485814
114	0x3e458681	0.1928959
115	0x3e57af5c	0.21062988
116	0x3d888cd2	0.06667484
117	0x3d98a104	0.07452586
118	0xbe2e85d5	-0.1704324
119	0xbd9c2666	-0.076245114
120	0xbd50c1d9	-0.050966118
121	0x3df9cda0	0.12197423
122	0xbde25e18	-0.11053103
123	0x3c9dd82c	0.019268118
124	0x3d597ac2	0.053095587
125	0x3da73a4e	0.081654176
126	0xbd1b15d1	-0.037862603
127	0x3e7ac722	0.24490026
128	0xbd0bc3a3	-0.03412212
129	0xbdf83fd9	-0.12121553
130	0xbbaee284	-0.0053370614
131	0xbda6b756	-0.08140437
132	0xbdc15696	-0.09440343
133	0x3e76b64e	0.24092981
134	0x3e6de721	0.232327
135	0xbd69a8af	-0.057045635
136	0xbb2c9728	-0.0026335213
137	0xbe446351	-0.19178511
138	0x3ccb2477	0.024797661
139	0xbdf26713	-0.11836066
140	0x3ce137f6	0.027492505
141	0xbda5a473	-0.08088007
142	0x3e084d28	0.13310683
143	0xbe42fea0	-0.19042444
144	0xbc189cbe	-0.009314714
145	0x3de82c96	0.11336629
146	0xbd9fa524	-0.0779517
147	0xbe393551	-0.18086745
148	0x3ded45e0	0.11585593
149	0x3e1a3d36	0.15062413
150	0x3e43d17d	0.19122882
151	0x3e1d5fa8	0.15368521
152	0xbd9235c1	-0.07139159
153	0xbcb18331	-0.021669002
154	0x3d7726f0	0.060339868
155	0xbe423701	-0.18966295
156	0x3cdc9114	0.026924647
157	0xbe4b94a7	-0.19880925
158	0xbda513b6	-0.080604
159	0x3e3f0508	0.18654263
160	0x3dff18c0	0.124558926
161	0xbc3e5818	-0.011617683
162	0xbd8c1b0a	-0.06841095
163	0xbdedd482	-0.11612798
164	0x3dde2416	0.108467266
165	0xbdea9582	-0.114542976
166	0x3d904a23	0.070453905
167	0x3cdc998b	0.026928684
168	0xbd02e854	-0.031959847
169	0xbcb2141f	-0.02173811
170	0xbcfc8432	-0.030824754
171	0x3e46f12d	0.19427939
172	0x3d360e3b	0.044447165
173	0x3e0c2176	0.1368464
174	0xbe562ad4	-0.20914775
175	0x3e351894	0.17685157
176	0xbe4374eb	-0.1908757
177	0x3e47298e	0.19449446
178	0x3e70caf7	0.23514925
179	0xbe0008a1	-0.12503292
180	0xbc62a9f5	-0.013834466
181	0x3c9124b3	0.017717695
182	0x3e08ce42	0.13359931
183	0xbe93613f	-0.2878513
184	0xbd662b0a	-0.05619339
185	0xbcb8a817	-0.022541089
186	0xbe090b3b	-0.1338319
187	0x3d17fc39	0.037105773
188	0xbd55a8a5	-0.052162785
189	0x3e195d21	0.14976932
190	0xbdeda88a	-0.11604412
191	0xbd94c102	-0.07263376
192	0xbcc5aad7	-0.024129314
193	0xbd9ebb80	-0.077506065
194	0xbe0e5703	-0.1390038
195	0x3e0afc94	0.13572913
196	0x3e729680	0.23690224
197	0xbe730a18	-0.23734319
198	0xbc8b4acf	-0.017003445
199	0xbe1c81d6	-0.15283903
200	0x3e064df1	0.1311567
201	0x3e148fe9	0.14508022
202	0x3def0565	0.11670951
203	0x3e0660c5	0.13122852
204	0xbbef650b	-0.0073057464
205	0xbd0fb021	-0.03508008
206	0x3cc08f11	0.02350572
207	0xbe0e7c7a	-0.13914672
208	0xbd05fa25	-0.03270926
209	0xbd7ae8ff	-0.06125736
210	0xbe56b38c	-0.20966929
211	0x3ddb8659	0.10718984
212	0xbc99a8b3	-0.0187572
213	0xbe2b438b	-0.16724984
214	0xbdcddd6d	-0.10051999
215	0xbd73e58e	-0.059545092
216	0xbd4f7330	-0.05064696
217	0x3e6680fa	0.22510138
218	0xbd8da0a5	-0.06915406
219	0x3c023469	0.007947066
220	0x3d85fb47	0.06542068
221	0xbda232c9	-0.07919843
222	0xbe41963f	-0.1890497
223	0x3df2a8f2	0.1184863
224	0x3d71d26a	0.059038557
225	0xbc69dd4e	-0.014273955
226	0x3e274ac8	0.1633712
227	0x3e28294f	0.16422008
228	0xbe09afb2	-0.13445929
229	0xbd195dba	-0.0374429
230	0x3e460e3f	0.19341372
231	0x3e162623	0.14662986
232	0x3e3f91b9	0.18707933
233	0x3d021608	0.031759292
234	0x3e2438f7	0.16037355
235	0x3d03d36e	0.032184057
236	0xbc1a8355	-0.009430726
237	0x3da1efe3	0.07907083
238	0x3e48024e	0.19532129
239	0xbdaa0436	-0.083015844
240	0x3d24331f	0.040087815
241	0xbbad18a0	-0.0052824765
242	0x3e7a3a4d	0.24436302
243	0x3e06245e	0.1309981
244	0x3a9f6ddc	0.0012163478
245	0xbdfd954a	-0.1238199
246	0x3e16ff6c	0.14745873
247	0xbd9b703a	-0.07589765
248	0xbd80388f	-0.06260788
249	0xbe017094	-0.12640601
250	0xbe17bcf6	-0.14818177
251	0xbdeedd9c	-0.116633624
252	0x3cb5dda5	0.022200415
253	0x3db21f5f	0.0869739
254	0xbe4068f1	-0.18790032
255	0x3e2c74fc	0.16841501

weight f4 [1, 256]
0	0xbcade554	-0.021227516
1	0xbd968ac7	-0.073506884
2	0x3e023a7e	0.12717625
3	0xbda24f81	-0.079253204
4	0x3d115832	0.0354845
5	0x3db95b92	0.09050669
6	0x3d8a09c3	0.06740143
7	0x3cf08674	0.029360987
8	0xbd3922ed	-0.045199323
9	0x3c99b6cd	0.018763924
10	0xbd7c3840	-0.06157708
11	0x3c8bfe42	0.017089013
12	0x3d40f9b4	0.047113135
13	0x3cef9ced	0.029249633
14	0x3d853b95	0.06505505
15	0x3c23f86f	0.010007962
16	0xbca46f18	-0.020072505
17	0xbc0e79f1	-0.008696065
18	0x3cc6964d	0.02424159
19	0x3c16e298	0.009209298
20	0xbcf13cf3	-0.029448008
21	0xbd90430d	-0.07044039
22	0xbd946df1	-0.07247532
23	0xbd29d5e5	-0.04146375
24	0x3d9266cd	0.07148514
25	0xbd47fddf	-0.048826095
26	0x3d83fecb	0.06445082
27	0x3de08a96	0.10963933
28	0x3cd4036a	0.025880534
29	0xbcac4e1f	-0.021033345
30	0x3d2abfa3	0.041686665
31	0xbcf84e0a	-0.03031065
32	0x3cbe44c8	0.023226157
33	0xbd9e4e82	-0.07729818
34	0x3dcfd497	0.1014797
35	0xbddf0a0d	-0.10890589
36	0xbd1c7caf	-0.038204845
37	0x3c92140c	0.017831825
38	0x3db0b2cf	0.08627855
39	0xbdd5ca24	-0.10438946
40	0xbd4009d3	-0.04688437
41	0x3d8145e8	0.06312162
42	0x3dd9f866	0.10643081
43	0x3cadbc7e	0.021208044
44	0xbd6877b9	-0.0567548
45	0x3d8605d9	0.06544084
46	0x3d396947	0.045266416
47	0x3c486591	0.012231247
48	0xbe17a287	-0.14808093
49	0x3d757bfe	0.0599327
50	0x3cd15c4d	0.025556708
51	0xbcc65572	-0.024210665
52	0x3d231e1f	0.039823648
53	0x3d8842e4	0.066533834
54	0x3c3de293	0.011589664
55	0xbc787206	-0.015163904
56	0xbd30bd4a	-0.04314927
57	0xbd9d97f1	-0.07694996
58	0x3e0923f1	0.13392617
59	0x3c94ff83	0.018188244
60	0xbd17209a	-0.036896326
61	0xbd55f5c7	-0.052236345
62	0xbd846a99	-0.064656444
63	0x3d93b602	0.072124496
64	0x3d8175f4	0.06321326
65	0xbd850791	-0.06495584
66	0x3cc76537	0.024340255
67	0xbd8e37ef	-0.06944262
68	0x3cceee36	0.025260072
69	0x3d343f70	0.04400581
70	0x3da81fde	0.08209203
71	0xbcb15356	-0.021646183
72	0x3dbe99a7	0.093066506
73	0xbc9c45d2	-0.019076262
74	0x3dad2a81	0.084553726
75	0x3bb64953	0.00556294
76	0xbd5df1e8	-0.054185778
77	0xbd8ad38f	-0.06778633
78	0x3bf1009f	0.0073548104
79	0x3d155d23	0.036465775
80	0xbdaa8c0a	-0.083274916
81	0xbd905c4d	-0.07048855
82	0xbc20caa2	-0.009813936
83	0x3c99459c	0.01870995
84	0x3d204b71	0.039134447
85	0xbd39fd64	-0.045407668
86	0x3d2335f4	0.039846376
87	0x3dc878df	0.09788679
88	0x3dd0ad7c	0.101893395
89	0x3ce86122	0.028366629
90	0xbd2879c8	-0.041131765
91	0x3d22b1a2	0.039720185
92	0x3ccd1a83	0.025037056
93	0x3d7ef60d	0.06224637
94	0x3dc86835	0.09785501
95	0xbd797587	-0.0609031
96	0x3b2464e5	0.0025084552
97	0xbd5b87cf	-0.053596314
98	0x3d6a26d6	0.057165943
99	0x3daa95d8	0.08329362
100	0xbc486bcc	-0.012232732
101	0x3d00028d	0.031252433
102	0x3d1128d6	0.035439335
103	0xbdaeb81c	-0.0853121
104	0x3b40eac9	0.0029436818
105	0x3dccea5b	0.10005637
106	0xbdaa76e0	-0.08323455
107	0xbd1c4946	-0.038155816
108	0xbdc8b47e	-0.09800051
109	0x3ca92b0e	0.020650413
110	0x3d454f18	0.048171133
111	0xbd0ec42a	-0.034855045
112	0x3d187e19	0.03722963
113	0x3de3bed6	0.111203834
114	0xbdcf40b5	-0.10119764
115	0xbd9aab1c	-0.07552168
116	0xbce48d79	-0.02789949
117	0x3da718a0	0.08158994
118	0xbd7afc11	-0.061275546
119	0xbd2085a3	-0.039189946
120	0x3d99d292	0.07510866
121	0x3ca428bd	0.020038957
122	0x3d906ffb	0.070526086
123	0x3d7f6ca8	0.062359482
124	0xbd068fdf	-0.03285205
125	0x3d84615f	0.064638846
126	0xbc3a0bd6	-0.011355361
127	0xbdf5736d	-0.11984906
128	0xbd711f43	-0.058867704
129	0x3cfed1c5	0.031105885
130	0xbda08bd0	-0.07839167
131	0xbd3808a0	-0.0449301
132	0x3d84aee1	0.06478668
133	0x3da67224	0.08127239
134	0x3d86fe40	0.06591463
135	0x3d7d8770	0.06189674
136	0xbdb06b4d	-0.08614216
137	0xbd210cff	-0.039319035
138	0xbd5c6a49	-0.0538123
139	0xbbec43e8	-0.0072102435
140	0xbd53eb01	-0.05173779
141	0x3d98ab76	0.074545786
142	0x3d959c70	0.07305229
143	0x3d4c464a	0.04987172
144	0xbd8a18a6	-0.067429826
145	0x3be49439	0.0069756773
146	0xbd5e49e9	-0.054269705
147	0x3da361a0	0.07977605
148	0xbba99065	-0.005174684
149	0x3d8fe148	0.07025391
150	0x3ce2e623	0.027697628
151	0x3d7d126f	0.061785158
152	0xbc04f7e9	-0.008115747
153	0xbd44495c	-0.047921523
154	0xbca5c9cf	-0.020237831
155	0x3d3468b6	0.044045173
156	0x3cd834e7	0.026392413
157	0x3d6374fb	0.055531483
158	0xbd28e569	-0.041234408
159	0x3b71de5f	0.0036906225
160	0x3dc3ee76	0.09566967
161	0x3d150e17	0.03639039
162	0xbd8507eb	-0.06495651
163	0x3cc25933	0.023724174
164	0x3d843002	0.06454469
165	0xbde0ab17	-0.10970133
166	0xbd883033	-0.06649818
167	0x3de50de7	0.11184292
168	0xbd3c6283	-0.045992386
169	0xbd645776	-0.05574747
170	0x3d3d0950	0.04615146
171	0x3d884e39	0.06655545
172	0x3dc939e7	0.09825497
173	0xbd27b7ce	-0.040946774
174	0x3cb3b053	0.021934664
175	0x3d83a2d7	0.064275436
176	0xbd949870	-0.07255638
177	0xbc2ef1f7	-0.010677806
178	0xbd15aaf0	-0.03653997
179	0xbdcaf54e	-0.099100694
180	0x3d00e7bd	0.031471003
181	0x3e06a249	0.13147844
182	0x3cb12d43	0.021628028
183	0x3c0318da	0.008001531
184	0xbdebad18	-0.115076244
185	0x3d08f465	0.033436198
186	0x3cce8157	0.025208158
187	0xbdeb2a77	-0.11482709
188	0xbda6aab9	-0.081380315
189	0x3da9bdbf	0.08288144
190	0xbdcf8e16	-0.101345226
191	0xbd5d129c	-0.053972825
192	0xbd10891d	-0.03528701
193	0xbd6b2892	-0.057411738
194	0x3e065d7b	0.13121597
195	0xbd3a3ef3	-0.04547019
196	0xbcea6b5a	-0.028615642
197	0x3cfe2e2d	0.031027878
198	0x3d929e1b	0.071590625
199	0x3d36fbc1	0.044673685
200	0x3d551603	0.052022945
201	0xbdc0f0c6	-0.09420924
202	0xbcbdd821	-0.023174347
203	0x3d3d588c	0.046227023
204	0xbd7b4a80	-0.061350346
205	0xbdb45587	-0.088053755
206	0xbc994c98	-0.01871328
207	0x3b7c2a24	0.0038477266
208	0xbd3e1fc5	-0.046417017
209	0xbd7e3578	-0.06206271
210	0x3ce81c19	0.02833371
211	0xbd473e16	-0.048643194
212	0xbd241966	-0.040063284
213	0x3db7e1b1	0.08978594
214	0xbbac5621	-0.005259291
215	0x3c8afe99	0.016967105
216	0x3be975ef	0.0071246545
217	0x3d90d3f1	0.070716746
218	0x3cae07d4	0.021243967
219	0xbb7092dd	-0.003670863
220	0x3cdce878	0.026966318
221	0x3cc72fe6	0.024314832
222	0x3d7f5d6b	0.06234495
223	0x3dc92205	0.09820942
224	0xbd978d49	-0.07399995
225	0x3dbc75ff	0.092021935
226	0x3de93656	0.11387317
227	0x3ddffce9	0.10936911
228	0x3d1286ac	0.035772964
229	0x3c1e6011	0.009666459
230	0x3d3aefb9	0.045638774
231	0x3d940537	0.07227557
232	0x3d9571e5	0.07297114
233	0x3e007e9c	0.12548298
234	0x3dced73c	0.100996464
235	0x3e04fa08	0.12986004
236	0x3d76f6d2	0.06029398
237	0x3dd35c74	0.103203684
238	0xbd8f4e18	-0.06997317
239	0xbcfbd4cb	-0.030741116
240	0x3d97aae2	0.0740564
241	0x3d7e5e36	0.062101565
242	0x3d43a59a	0.04776535
243	0xbd0a6158	-0.03378424
244	0xbdb2a059	-0.0872199
245	0x3d40b2bf	0.047045466
246	0x3da90d54	0.08254495
247	0xbc418a19	-0.01181271
248	0x3cc59b8f	0.024122028
249	0x3da4bdcc	0.080440134
250	0xbe238955	-0.15970357
251	0xbb4ac374	-0.0030939253
252	0xbd3e64b8	-0.04648277
253	0x3dbc4ee2	0.09194733
254	0xbd7ec408	-0.06219867
255	0x3d141a17	0.036157694

weight f4 [256, 1]
0	0x3e15e5b4	0.14638406
1	0x3f554a0c	0.8331611
2	0x3ea5b1f1	0.3236232
3	0x3ee82751	0.45342496
4	0x3ecaa158	0.3957622
5	0xbf1b2a06	-0.60611
6	0xbf24184e	-0.64099586
7	0x3ec31c4b	0.38107523
8	0xbe981704	-0.2970506
9	0x3f37ec50	0.7184496
10	0xbe4b4088	-0.19848835
11	0x3f823a0d	1.0173966
12	0xbe8ba5cc	-0.2727493
13	0x3d3f48e9	0.046700392
14	0x3f1a4b7e	0.6027144
15	0x3e0baa9f	0.13639306
16	0xbefa0126	-0.48829
17	0xbf735dbe	-0.95064914
18	0x3f42a299	0.76029354
19	0xbd97662c	-0.073925346
20	0x3ec06265	0.3757507
21	0xbd842170	-0.0645169
22	0xbe5f0208	-0.21778119
23	0x3f3e94c4	0.7444575
24	0x3ee74663	0.45170888
25	0xbeae06f8	-0.33989692
26	0xbf37ebe2	-0.71844304
27	0x3d4669b6	0.048440658
28	0xbf5149be	-0.81753147
29	0x3f106026	0.5639671
30	0x3f5c5f02	0.8608247
31	0xbe223b44	-0.1584292
32	0x3e8a0212	0.26954705
33	0xbe26a7e3	-0.16274981
34	0x3d523105	0.05131628
35	0x3f6b992c	0.92030597
36	0xbeb87bb7	-0.36031887
37	0x3f7d6dd1	0.9899569
38	0x3f49ecb8	0.7887683
39	0x3f584860	0.84485435
40	0xbd6c4700	-0.0576849
41	0x3f734255	0.9502309
42	0xbeab08a0	-0.33405018
43	0x3f819788	1.0124369
44	0xbeaf7654	-0.34269965
45	0xbe794c45	-0.24345501
46	0xbea4d7e8	-0.32195973
47	0xbf0c1498	-0.54718924
48	0xbf010f6d	-0.5041416
49	0x3eeae039	0.45874193
50	0x3ef49fd2	0.47778183
51	0xbdb04eb0	-0.086087584
52	0x3f0d74dd	0.55256444
53	0xbf743598	-0.9539428
54	0x3f07d7cf	0.5306367
55	0x3e004f4d	0.12530251
56	0xbf19b9c4	-0.6004908
57	0x3f54e7d5	0.8316625
58	0xbe9a8791	-0.30181554
59	0xbf0b221e	-0.54348934
60	0xbe7b198f	-0.24521469
61	0x3f1ab22f	0.60428137
62	0x3eca5079	0.3951452
63	0x3f5d860d	0.8653267
64	0x3f6490cc	0.8928344
65	0xbde27410	-0.110572934
66	0x3f4e6a93	0.8063137
67	0xbda288df	-0.07936262
68	0xbf20d6ad	-0.6282757
69	0x3f85b71b	1.0446504
70	0x3eef68e6	0.4675972
71	0x3f3bc40c	0.7334602
72	0x3f6f4079	0.9345775
73	0xbebb4b64	-0.36580956
74	0xbed8188c	-0.42206228
75	0xbf45ee00	-0.77316284
76	0x3f4dab03	0.8033907
77	0x3f3f8d3b	0.74824876
78	0x3ef3f195	0.4764525
79	0x3e03e903	0.12881856
80	0x3daf138d	0.08548651
81	0x3f875115	1.0571619
82	0xbf59d10b	-0.850846
83	0xbd89d000	-0.06729126
84	0x3b97cb00	0.004632354
85	0x3ee17f7b	0.44042572
86	0x3e4150b1	0.18878438
87	0x3ecabd4b	0.39597544
88	0x3f607caa	0.8769022
89	0x3e8e0adf	0.2774267
90	0xbf37117a	-0.7151104
91	0x3dc2e8b9	0.095170446
92	0x3f55c5ce	0.8350495
93	0x3f340c7b	0.70331544
94	0x3c2645d8	0.010148488
95	0xbf03c60c	-0.5147407
96	0x3f7bd1d5	0.98367053
97	0xbcd8e2ce	-0.026475336
98	0xbf31300c	-0.6921394
99	0x3deae8eb	0.11470207
100	0x3e2e697e	0.1703243
101	0x3f743d18	0.9540572
102	0xbf2f894c	-0.68568873
103	0x3dc87764	0.09788397
104	0x3ebf8e14	0.37413085
105	0xbf2698ca	-0.6507689
106	0xbf1f4ee4	-0.6222975
107	0x3f5481f0	0.8301077
108	0x3e48242d	0.1954505
109	0x3eb78047	0.35840055
110	0x3f7abbf3	0.9794304
111	0x3ef3d67f	0.47624585
112	0xbf3d1732	-0.7386352
113	0x3f4db083	0.8034746
114	0x3f34029c	0.7031648
115	0xbe99875c	-0.29986084
116	0x3d3cc8df	0.046090003
117	0x3edbf0bc	0.42957103
118	0x3e9e2823	0.30889997
119	0xbe999c57	-0.3000209
120	0x3f4198a8	0.7562356
121	0x3f132366	0.5747589
122	0x3f861984	1.0476537
123	0x3ce7b71a	0.028285552
124	0x3caa5dcd	0.02079668
125	0xbf6cbfe6	-0.92480314
126	0x3f251f89	0.64501244
127	0xbee22177	-0.44166157
128	0x3f479669	0.7796388
129	0xbe12ec10	-0.14347863
130	0xbf520798	-0.8204284
131	0xbe0c7256	-0.1371549
132	0x3ee68451	0.45022824
133	0xbe9cd0c4	-0.30628026
134	0x3f74c150	0.9560747
135	0x3f56c145	0.83888656
136	0xbefd2300	-0.49440765
137	0x3f468283	0.77542895
138	0x3ee7f4b4	0.4530388
139	0xbe107f2c	-0.14111012
140	0x3f3dc718	0.7413192
141	0x3f2df537	0.67952293
142	0xbf0f1648	-0.55893373
143	0x3e16c724	0.14724404
144	0x3f04a185	0.5180896
145	0x3ecb0f56	0.39660138
146	0xbf3a4192	-0.727563
147	0x3e705cae	0.23472854
148	0xbd4e2540	-0.050328493
149	0xbe8213b6	-0.25405663
150	0xbe9b7e51	-0.3036981
151	0xbf3e98dd	-0.74452
152	0xbf3b7d65	-0.7323821
153	0x3e03d33b	0.12873547
154	0xbea169a4	-0.3152591
155	0x3e3d2bd6	0.18473753
156	0x3d7d2737	0.061804976
157	0xbf3fc886	-0.7491535
158	0x3e6ae3dc	0.22938484
159	0x3f4a5f2c	0.7905147
160	0xbe7bff10	-0.24609017
161	0x3e171e56	0.14757666
162	0xbe1efd01	-0.15526201
163	0xbf59fa61	-0.8514767
164	0xbec8276c	-0.39092577
165	0x3f43a793	0.7642757
166	0xbeb8b8fa	-0.36078626
167	0x3f85ba01	1.0447389
168	0xbeac2e58	-0.33629107
169	0xbeaf4ccc	-0.3423828
170	0x3f30b441	0.69025046
171	0x3f5dc601	0.86630255
172	0xbf3185ec	-0.69344974
173	0x3f87015a	1.0547287
174	0x3f837ba1	1.0272104
175	0xbf3ebe5a	-0.74509203
176	0x3f818630	1.0119076
177	0x3f526641	0.8218728
178	0x3f5a2628	0.8521447
179	0x3e0b75f9	0.13619222
180	0x3f846296	1.0342586
181	0xbf73057a	-0.9493023
182	0xbe17e698	-0.14834058
183	0x3f21283d	0.62952024
184	0xbef2be68	-0.47410893
185	0xbe7921d8	-0.24329317
186	0x3f4c74b1	0.79865557
187	0x3f3d828c	0.74027324
188	0xbe96601d	-0.29370204
189	0xbf6c8348	-0.9238782
190	0xbba6c700	-0.0050896406
191	0xbf1b77c8	-0.60729647
192	0xbf53b3c0	-0.8269615
193	0x3f7b9390	0.9827204
194	0x3e9dee9f	0.30846116
195	0xbedffccc	-0.43747556
196	0xbec1e41c	-0.37869346
197	0x3ec55279	0.38539484
198	0xbf354132	-0.70802605
199	0x3f2d0c35	0.6759675
200	0xbef9ede9	-0.48814324
201	0xbe707d15	-0.23485215
202	0xbf50f3a5	-0.8162177
203	0xbed6f33b	-0.41982445
204	0x3df35330	0.11881101
205	0x3e6fdef3	0.23424892
206	0xbda16ec0	-0.07882452
207	0x3ee09c21	0.43869117
208	0xbf4876c2	-0.7830621
209	0xbecd935c	-0.4015149
210	0x3f35d410	0.71026707
211	0x3f7da8c5	0.99085647
212	0xbc49ba80	-0.0123125315
213	0x3c9242c0	0.017854095
214	0x3e2c0875	0.16800101
215	0xbe90f098	-0.28308558
216	0xbf7e6df8	-0.9938655
217	0x3e846b7b	0.2586325
218	0xbed68cc8	-0.41904283
219	0xbe93b6a4	-0.2885028
220	0xbe275330	-0.16340327
221	0x3e01bba3	0.12669234
222	0xbf39bd8e	-0.7255486
223	0x3df9ddd7	0.12200516
224	0x3f199ce9	0.6000505
225	0xbf04a930	-0.5182066
226	0xbf4c0daf	-0.7970838
227	0x3f87e333	1.0616211
228	0x3f60ab42	0.8776132
229	0xbf5fc8a4	-0.8741553
230	0xbcf665f1	-0.030077906
231	0xbf429a34	-0.76016545
232	0x3ddebbde	0.108756766
233	0xbf51a824	-0.8189719
234	0x3f5735ce	0.84066474
235	0xbe8b360c	-0.27189672
236	0x3eb27b1f	0.3485956
237	0xbee1388b	-0.4398845
238	0x3e83fdc9	0.2577956
239	0x3e991cfa	0.2990492
240	0xbf034d44	-0.51289773
241	0x3f2628a3	0.64905757
242	0xbe280d68	-0.16411364
243	0xbe9aaeec	-0.3021158
244	0xbf107b20	-0.56437874
245	0x3f4171c3	0.7556421
246	0xbf655c01	-0.8959351
247	0x3f2f183e	0.68396366
248	0xbf22afd0	-0.6354952
249	0x3ac5f6fb	0.0015103513
250	0x3ef9ed82	0.48814017
251	0x3cbabf00	0.022796154
252	0xbf61612e	-0.8803891
253	0x3f3c4da7	0.7355599
254	0x3ef64efe	0.4810714
255	0x3f80700e	1.0034196

bias f4 [256]
0	0xbdcc4fb3	-0.09976139
1	0xbf225f0d	-0.63426286
2	0xbf725e7e	-0.94675434
3	0xbd35f62f	-0.044424232
4	0x3e285b7e	0.16441151
5	0xbf1d5e38	-0.6147189
6	0xbf40d764	-0.7532866
7	0x3eeba64f	0.4602532
8	0x3f4c8dbe	0.7990378
9	0xbcfa1ea0	-0.030532181
10	0xbf0d0a36	-0.55093706
11	0x3f3aab38	0.7291751
12	0xbf4f1de6	-0.80904996
13	0xbe2e13c8	-0.16999733
14	0xbf19c258	-0.6006217
15	0xbe4fb80b	-0.2028505
16	0x3f1e05e8	0.6172776
17	0xbdda4770	-0.10658157
18	0xbf646917	-0.89222854
19	0x3e5dd9f4	0.21665174
20	0x3f04e697	0.5191435
21	0xbf6336de	-0.88755596
22	0xbda56b50	-0.08077109
23	0x3ebeab7f	0.37240216
24	0xbdfcd26e	-0.12344824
25	0xbecb24a0	-0.3967638
26	0x3d7b8612	0.061407156
27	0x3f4e348f	0.8054895
28	0xbeb63910	-0.3559041
29	0xbf4a3789	-0.7899099
30	0xbeef55d6	-0.46745175
31	0x3ee2536a	0.44204265
32	0x3f3f4d80	0.7472763
33	0x3eef1a7c	0.46699893
34	0x3f41bcca	0.75678694
35	0x3ef412a8	0.47670484
36	0x3ee0f398	0.43935847
37	0x3ed1355c	0.40861022
38	0xbe1be85d	-0.15225358
39	0xbf75a0f8	-0.95948744
40	0xbf63c836	-0.8897737
41	0xbe1ef824	-0.15524346
42	0xbd22a0c0	-0.039704084
43	0x3f1b554a	0.60677016
44	0xbee157ac	-0.440122
45	0x3e746580	0.23866844
46	0xbd6b2a60	-0.05741346
47	0xbf737c1c	-0.9511125
48	0x3f34502d	0.7043484
49	0xbf359da4	-0.70943666
50	0xbf31b650	-0.6941881
51	0xbf08feca	-0.5351378
52	0xbe559de0	-0.20861006
53	0x3f2fe853	0.68713874
54	0xbf136dac	-0.5758922
55	0x3f5a3b3a	0.8524662
56	0x3f651943	0.8949167
57	0xbe7aea6c	-0.24503487
58	0x3f53d3ac	0.8274486
59	0xbf02af5a	-0.51048815
60	0x3ecc4320	0.39894962
61	0x3f220c9f	0.6330051
62	0xbf890b1d	-1.0706517
63	0xbf2ae409	-0.66754204
64	0xbdda3fcb	-0.10656699
65	0xbdcce230	-0.10004079
66	0xbce221b8	-0.027603969
67	0x3f7dd33f	0.9915046
68	0x3f3a0173	0.7265846
69	0xbf3213b8	-0.6956134
70	0xbd9b0bce	-0.07570611
71	0x3dde79cc	0.10863075
72	0xbef1fe11	-0.4726415
73	0xbf03823e	-0.5137061
74	0xbf4ae8f6	-0.7926172
75	0xbf2bf896	-0.6717619
76	0x3ed59ee5	0.4172279
77	0xbf760451	-0.96100336
78	0xbe5f1246	-0.21784315
79	0x3f3898d1	0.7210818
80	0xbf2cec36	-0.6754793
81	0x3dc72791	0.097243436
82	0x3e080ee8	0.13286936
83	0xbf3f6220	-0.747591
84	0xbf1b3e34	-0.6064179
85	0x3ec82040	0.39087105
86	0x3e7b7163	0.24554972
87	0x3e8ff6c6	0.2811796
88	0x3f5e4ea7	0.86838764
89	0xbe1d9d91	-0.15392138
90	0x3efb55cb	0.49088892
91	0x3f251c77	0.6449656
92	0xbe5fe791	-0.2186568
93	0xbe09b2df	-0.1344714
94	0x3e7ed270	0.24884963
95	0x3f7a1777	0.97692055
96	0xbf374ccf	-0.71601576
97	0x3f6be51f	0.92146486
98	0x3daff20c	0.08591089
99	0x3f06ccc3	0.5265619
100	0xbd4b4e2f	-0.04963511
101	0xbf148e36	-0.58029497
102	0xbf46802c	-0.77539325
103	0x3ef12094	0.47095168
104	0x3ec4fd20	0.3847437
105	0x3f02b223	0.51053065
106	0xbe885ab8	-0.26631713
107	0x3c4b32d0	0.012402251
108	0xbeb0c60b	-0.34526095
109	0x3e806db0	0.25083685
110	0xbd9175ba	-0.07102533
111	0xbeddedd9	-0.43345526
112	0xbf2978ea	-0.66200125
113	0x3df6a393	0.12042918
114	0xbef4969c	-0.47771156
115	0xbef97f74	-0.48730052
116	0x3f4bbb14	0.79582334
117	0x3ce64fb1	0.028114172
118	0x3f3a54ba	0.7278553
119	0x3f52f318	0.8240218
120	0xbf29dad9	-0.6634956
121	0xbe20e5d0	-0.15712667
122	0x3f26054e	0.64851844
123	0x3ef2fb81	0.47457507
124	0x3f82d19b	1.0220217
125	0xbf281aa4	-0.6566565
126	0x3f4f4d67	0.8097748
127	0x3d10f5aa	0.035390534
128	0xbe3dba9d	-0.18528219
129	0xbe8cc7d4	-0.27496207
130	0xbe8aa424	-0.27078354
131	0x3e4f1d0e	0.20225927
132	0xbe6b25a9	-0.22963585
133	0xbf745a2c	-0.9545009
134	0x3e097c53	0.13426332
135	0xbed1cb03	-0.40975198
136	0xbe7f9ff8	-0.24963367
137	0x3f02aef5	0.51048213
138	0x3eb7e60c	0.359177
139	0x3e1ef46d	0.15522929
140	0xbf2d5e63	-0.6772215
141	0x3c7e7756	0.015531382
142	0xbeb274d4	-0.34854758
143	0x3f5b5043	0.85669345
144	0x3f1e9660	0.61948204
145	0x3ef2f9d1	0.4745622
146	0x3f01a20e	0.506379
147	0x3ddff7f9	0.10935969
148	0xbd884eb0	-0.066556334
149	0x3e20334e	0.15644571
150	0x3ea006ae	0.31255096
151	0x3f0103bd	0.5039633
152	0x3ef3933e	0.47573274
153	0x3f6cb4c2	0.92463315
154	0xbf264f86	-0.64965093
155	0x3f086b18	0.5328841
156	0xbefb7f9d	-0.491208
157	0xbe87857c	-0.26469028
158	0xbee405cf	-0.44535682
159	0xbf5332a5	-0.8249915
160	0xbe1e1028	-0.1543585
161	0x3ed9c794	0.4253508
162	0x3eb59d1b	0.35471424
163	0x3f48fa1f	0.78506655
164	0xbf7d1e38	-0.98874235
165	0x3f2c475c	0.67296386
166	0x3f171ed2	0.59031403
167	0x3ef050d5	0.4693667
168	0xbf1a0526	-0.60164106
169	0xbf477b60	-0.7792263
170	0x3f1e2c3f	0.61786264
171	0x3f20022e	0.62503326
172	0x3ed31332	0.41225582
173	0xbf24f9fe	-0.6444396
174	0x3e406e59	0.18792094
175	0x3eb80724	0.35942948
176	0xbf0b2071	-0.54346377
177	0x3f5ac2ea	0.85453665
178	0x3eecdfca	0.46264488
179	0x3e53a2b0	0.20667529
180	0xbf253742	-0.6453744
181	0x3ef66cd0	0.48129892
182	0xbe9b0c54	-0.30282843
183	0xbe287628	-0.16451323
184	0xbe1656b8	-0.14681518
185	0xbf23f328	-0.640429
186	0x3ed12046	0.40844935
187	0xbe9a5c03	-0.30148324
188	0x3e9d6d3b	0.307474
189	0xbe250bb0	-0.1611774
190	0xbdf50910	-0.11964619
191	0x3efe78a5	0.4970142
192	0x3e5159d4	0.20444423
193	0xbf1781b0	-0.5918226
194	0x3f1fa7bc	0.6236532
195	0xbf5fa4b8	-0.87360716
196	0xbf6acff6	-0.91723573
197	0x3f092c67	0.5358338
198	0xbecf7f54	-0.4052683
199	0x3e83bd25	0.25730243
200	0x3f39ad6e	0.7253026
201	0x3f22678b	0.63439244
202	0xb9c61d48	-0.0003778732
203	0x3f34aa86	0.705727
204	0x3f33a61d	0.70175344
205	0xbe2c4b71	-0.16825654
206	0xbeb5fdc8	-0.35545182
207	0xbe223ea1	-0.15844204
208	0xbe940c60	-0.2891569
209	0x3ed87f1d	0.4228448
210	0xbe94d845	-0.2907125
211	0xbf5a4e55	-0.85275775
212	0xbed3822c	-0.4131025
213	0xbe9b5ee0	-0.3034582
214	0x3f5d60e4	0.8647597
215	0x3e6c5653	0.23079805
216	0xbed57f58	-0.41698718
217	0xbf3619aa	-0.7113291
218	0xbf4cddd8	-0.80026007
219	0xbe341860	-0.17587423
220	0x3ee318e6	0.44354934
221	0xbe4fb4c7	-0.20283805
222	0xbf03726e	-0.5134648
223	0x3ecc0ce2	0.3985358
224	0xbef40f33	-0.47667846
225	0xbf78fe1a	-0.9726273
226	0x3f414796	0.75499856
227	0xbbc5ce8c	-0.006036585
228	0x3f59ce3a	0.850803
229	0xbf79be68	-0.9755616
230	0x3f7d90e9	0.9904924
231	0xbf7634e0	-0.9617443
232	0xbf75bc93	-0.95990866
233	0x3f24ca0b	0.64370793
234	0x3e6248f7	0.22098146
235	0x3f3c4d6b	0.7355563
236	0xbf7a1438	-0.976871
237	0x3e463aa0	0.19358301
238	0x3ec52eae	0.38512176
239	0xbee1101d	-0.43957606
240	0xbead01c4	-0.3379041
241	0xbf123feb	-0.5712878
242	0xbf35d9cc	-0.71035457
243	0xbf6f3752	-0.9344379
244	0x3f485b5c	0.78264403
245	0x3f0429cc	0.51626277
246	0x3f1a2b6e	0.6022252
247	0xbefae763	-0.4900466
248	0xbe968438	-0.2939775
249	0x3e8a357c	0.2699393
250	0xbf5c2fbc	-0.86010337
251	0xbefca930	-0.4934783
252	0xbf5b5644	-0.85678506
253	0xbf67434c	-0.9033706
254	0x3d4f9aa2	0.05068458
255	0x3f6494f2	0.8928977

weight f4 [1, 256]
0	0xbd500863	-0.05078925
1	0x3c7ab5c9	0.01530213
2	0x3dc338ac	0.09532294
3	0x3dcc3d60	0.09972644
4	0x3de17a3e	0.11009644
5	0x3d8ea62c	0.069652885
6	0x3d9dd0b5	0.07705823
7	0x3d8ac376	0.067755625
8	0x3d5a0ff3	0.053237867
9	0x3d078679	0.033087227
10	0xbd799be4	-0.060939685
11	0x3d78b818	0.06072244
12	0x3d843fca	0.06457479
13	0x3da098ab	0.07841619
14	0x3da70a84	0.081563026
15	0xbd761487	-0.06007817
16	0xbd93859f	-0.072032206
17	0xbcfd43ef	-0.030916182
18	0x3da330a5	0.079682626
19	0xbc8f5c23	-0.017499989
20	0x3d7a1070	0.061050832
21	0x3c265711	0.010152594
22	0xbdc010f9	-0.09378237
23	0x3c4ac751	0.012376622
24	0x3dd6c875	0.10487453
25	0x3d5ce365	0.053927798
26	0x3ca203ef	0.019777266
27	0x3da22855	0.07917849
28	0xbd2ca006	-0.042144798
29	0x3dbd776c	0.092512935
30	0x3d833ecf	0.06408464
31	0x3cfc826c	0.030823909
32	0x3be1f63e	0.0068958094
33	0x3af9c9dc	0.0019057351
34	0x3cc06307	0.02348472
35	0x3d89b20e	0.06723414
36	0xb8f7ad28	-0.00011810131
37	0x3de041d5	0.109500565
38	0x3de35844	0.1110082
39	0xbc822bc3	-0.015890008
40	0xbd3fd879	-0.046837304
41	0x3d4c3e4a	0.04986409
42	0x3d5216b6	0.05129119
43	0x3dd38499	0.10328025
44	0xbd29bed2	-0.041441746
45	0xbcb19a3b	-0.021679988
46	0x3d3a4ade	0.045481555
47	0xbc9284dc	-0.017885618
48	0xbe05f741	-0.13082601
49	0x3dd91245	0.10599188
50	0x3bd5de3a	0.0065267356
51	0xbc8f78a5	-0.017513582
52	0x3d4fbee3	0.050719153
53	0x3d38af4d	0.045089055
54	0x3dc43be2	0.09581734
55	0x3dac02b3	0.08398952
56	0xbd8fb514	-0.0701696
57	0x3c1ef5f2	0.009702193
58	0x3df7376a	0.12071116
59	0x3d49fcea	0.049313463
60	0xbd33c63d	-0.043890227
61	0x3dc4025c	0.095707625
62	0x3c84797d	0.016171211
63	0x3d9bc53d	0.076059796
64	0x3cdc3f51	0.02688566
65	0xbda4266e	-0.080151424
66	0x3c09c7f0	0.008409485
67	0xbd5942b3	-0.053042125
68	0xbd6c84f8	-0.057743996
69	0x3d838d10	0.0642339
70	0x3d8228a4	0.06355408
71	0x3d7ee71b	0.062232118
72	0x3d29d1cb	0.04145984
73	0xbca7f085	-0.02050043
74	0x3e13b60e	0.14424917
75	0xbcf78045	-0.03021253
76	0x3cc4559d	0.023966605
77	0x3c241f81	0.010017277
78	0xbaedb1a6	-0.0018134608
79	0x3da6e50a	0.081491545
80	0xbd4d76d0	-0.050162137
81	0x3dc39dd5	0.095515884
82	0x3d223b47	0.039607313
83	0x3cf28900	0.029606342
84	0x3d20b570	0.039235532
85	0xbc59c9fb	-0.013292785
86	0x3d1a36b2	0.037649818
87	0x3e0fe15f	0.14050816
88	0x3d787ae9	0.06066409
89	0x3dd78838	0.105240285
90	0x3cba520d	0.022744203
91	0xbd0fd90c	-0.0351191
92	0x3d9b45ad	0.07581649
93	0x3dc0f2a1	0.09421278
94	0x3db3c7d8	0.087783515
95	0xbd5c1f81	-0.053740982
96	0x3d80a6da	0.062818244
97	0x3c646ab6	0.0139414575
98	0x3b84c5d8	0.004051905
99	0x3d2cee84	0.042219654
100	0x3cfe9fdd	0.031082088
101	0x3d36085a	0.04444156
102	0x3d03e055	0.03219636
103	0xbd3e31df	-0.04643428
104	0xbc5a0e54	-0.01330908
105	0x3ca00e62	0.019538108
106	0xbd8a7ee8	-0.06762487
107	0x3d368ad7	0.044566
108	0xbc72fb2c	-0.014830392
109	0xbcac6155	-0.021042505
110	0x3d25034f	0.04028636
111	0xbc5ed466	-0.013600444
112	0x3d8ee9d5	0.06978194
113	0x3ced2885	0.028949985
114	0xbcbc474f	-0.022983221
115	0xbd84a28c	-0.06476316
116	0x3ca35fe1	0.01994318
117	0x3de274f4	0.11057463
118	0x3d14f068	0.03636208
119	0x3c8f0ace	0.017461207
120	0x3d947aed	0.07250009
121	0x3dc4fe8b	0.09618863
122	0x3c88e685	0.016711483
123	0x3d2f4d18	0.04279813
124	0xbd398801	-0.04529572
125	0x3d840c88	0.06447703
126	0x3d1d6fdf	0.038436767
127	0xbce45aba	-0.027875293
128	0x3d934f9e	0.0719292
129	0x3d45474e	0.048163705
130	0xbdaafa78	-0.083485544
131	0xbd80c8e0	-0.06288314
132	0x3db02033	0.085998915
133	0x3dacf045	0.08444265
134	0x3daf3fc0	0.08557081
135	0x3d65a22d	0.056062866
136	0xbd9fd8d7	-0.07805031
137	0x3d825d5c	0.06365463
138	0xbb3d0e80	-0.0028847754
139	0xbd6b61b1	-0.057466213
140	0x3c749257	0.014927468
141	0x3d1e6793	0.038672995
142	0x3db9ee30	0.09078634
143	0x3dd0b81f	0.10191368
144	0x3ca314db	0.019907406
145	0x3c6cf7fe	0.014463423
146	0xbd2041f1	-0.039125387
147	0x3d0b36f8	0.03398797
148	0x3c27b947	0.010237045
149	0x3d4063f4	0.046970323
150	0xbcc4fbde	-0.02404588
151	0x3db879fd	0.090076424
152	0x3d955c16	0.072929546
153	0x3d13d6fa	0.03609369
154	0xbd0cb489	-0.03435186
155	0x3d944e8a	0.07241543
156	0xbd36ce2b	-0.04463021
157	0x3b7393a4	0.0037166858
158	0xbd56aa4a	-0.052408494
159	0x3cc267b4	0.02373109
160	0x3d6fc911	0.05854136
161	0x3d621334	0.055194095
162	0xbc638450	-0.013886526
163	0xbcdf3d88	-0.02725102
164	0xbcc2aaf1	-0.023763152
165	0x3d34fc4e	0.04418593
166	0xbd926087	-0.071473174
167	0x3dae36ae	0.08506523
168	0x3b562615	0.0032676507
169	0x3bde8781	0.0067910557
170	0x3de0d504	0.109781295
171	0x3c64507c	0.013935205
172	0x3d190ca1	0.03736556
173	0x3e11227b	0.1417331
174	0x3de99f50	0.114073396
175	0x3cc8bdfa	0.02450465
176	0x3d963817	0.07334917
177	0x3dd31b68	0.10307962
178	0x3c1f1d08	0.009711511
179	0xbbb3f6a5	-0.005492049
180	0x3da173e8	0.078834355
181	0x3d58fb1c	0.05297385
182	0x3caf7c95	0.02142171
183	0x3dea0954	0.114275604
184	0xbe0f6943	-0.14004998
185	0x3cd1612c	0.02555903
186	0x3d95420c	0.07287988
187	0x3d10ca8d	0.035349417
188	0xbca6b818	-0.020351455
189	0xbc1d8786	-0.009614831
190	0xbd531821	-0.051536683
191	0xbd2281c7	-0.039674547
192	0x3cdb57f0	0.02677533
193	0x3d58da4b	0.052942555
194	0x3dcf1c00	0.101127625
195	0xbd165450	-0.0367015
196	0xbd6e84d9	-0.058232162
197	0x3d1c17f5	0.038108785
198	0xbca629b7	-0.020283563
199	0x3d86afc0	0.065764904
200	0x3d8724c4	0.06598809
201	0xbcd54edb	-0.026038578
202	0x3d59c920	0.053170323
203	0x3d538e9b	0.05164967
204	0x3bea4ea6	0.007150489
205	0x3b4bcf46	0.0031098886
206	0x3d4da894	0.050209597
207	0x3d1965cb	0.037450593
208	0xbd4e685e	-0.0503925
209	0xbd79be40	-0.060972452
210	0x3df6aead	0.120450355
211	0x3d08841d	0.033329118
212	0xbd1b4e0e	-0.037916236
213	0xbd1dca0a	-0.038522758
214	0x3c5bd835	0.013418247
215	0x3d88249c	0.06647608
216	0xbd84aa41	-0.06477786
217	0x3d858aa4	0.06520584
218	0xbc5d5200	-0.01350832
219	0xbd5540ff	-0.05206394
220	0x3a9fad40	0.001218237
221	0xbb39b1c5	-0.0028334719
222	0x3c2ac68b	0.010423313
223	0x3cd074ca	0.025446314
224	0xbbc6c118	-0.006065499
225	0xbb15e722	-0.0022873362
226	0xbd00f624	-0.031484738
227	0x3e0a19ce	0.13486406
228	0x3db55116	0.088533565
229	0x3cf0a4a1	0.029375376
230	0xbd0571f7	-0.03257939
231	0xbd12d23c	-0.035845026
232	0xbc372bee	-0.011179907
233	0x3c115e35	0.008872558
234	0x3d95f6ae	0.07322441
235	0x3d4a0e49	0.04933003
236	0x3df48991	0.11940301
237	0x3e246ca6	0.16057071
238	0x3abd2d10	0.0014432985
239	0xbc7067e7	-0.01467321
240	0x3d80984c	0.06279048
241	0x3d2f257f	0.04276037
242	0x3d1743d1	0.03692991
243	0xbd34efb7	-0.044173922
244	0xbd942696	-0.07233922
245	0x3ce12503	0.027483469
246	0x3ced91a7	0.029000117
247	0x3d36ba85	0.044611473
248	0x3d3b305f	0.045700427
249	0x3d57caa7	0.0526835
250	0x3b5ba2bb	0.0033513743
251	0xbd0f680a	-0.03501133
252	0xbc15c7f7	-0.009141914
253	0x3e0a0736	0.13479313
254	0x3d4f766c	0.050650045
255	0x3d1dcfc0	0.038528204

weight f4 [256, 1]
0	0x3f1e780a	0.61901915
1	0x3f849e0b	1.0360731
2	0xbe5e6573	-0.21718387
3	0xbf52f1a4	-0.82399964
4	0x3e04bbb3	0.12962227
5	0xbf2ee529	-0.6831842
6	0xbe97c5af	-0.29643008
7	0xbf43b90e	-0.76454246
8	0x3ec6d67d	0.38835517
9	0x3e377f32	0.17919615
10	0xbf6f7d78	-0.93550825
11	0x3e0cce19	0.13750495
12	0x3f1a6a00	0.60317993
13	0xbf6ec7c6	-0.9327358
14	0x3e4a0acf	0.19730686
15	0x3ea3a59a	0.3196228
16	0xbe872240	-0.26393318
17	0x3f8179a6	1.0115249
18	0x3f5a2adf	0.85221666
19	0x3f811cd1	1.0086919
20	0xbf556460	-0.83356285
21	0xbf601300	-0.8752899
22	0xbf1fe170	-0.62453365
23	0xbf25d6b0	-0.6478071
24	0xbef71971	-0.48261598
25	0x3ec9e14a	0.39429694
26	0x3f546d40	0.829792
27	0x3f1ba68a	0.60800993
28	0xbf1d555a	-0.6145836
29	0x3f046809	0.51721245
30	0x3f4d32dc	0.8015573
31	0x3ec9ed44	0.39438832
32	0xbf3667a6	-0.71251905
33	0xbd5612e0	-0.052264094
34	0xbf07e210	-0.5307932
35	0xbf70de5e	-0.94089305
36	0xbebca2b4	-0.36842883
37	0x3f1cf477	0.61310524
38	0x3e82d8ca	0.25556022
39	0x3d597aaf	0.053095516
40	0x3f6e4a5e	0.93082225
41	0x3f66cabc	0.901531
42	0x3f6888ad	0.9083355
43	0x3f70735c	0.93926024
44	0xbf661834	-0.8988068
45	0x3e45bde3	0.19310717
46	0x3f5c93b9	0.86162907
47	0x3e81eb4a	0.25374824
48	0x3f6fa929	0.9361749
49	0x3f073888	0.52820635
50	0xbe90b12e	-0.28260177
51	0x3f7e9b41	0.9945565
52	0x3dc46370	0.09589279
53	0x3f2e4006	0.6806644
54	0xbf2af8ea	-0.6678606
55	0x3f73a75b	0.9517724
56	0xbe60d260	-0.21955252
57	0x3e46de5e	0.19420764
58	0xbed397d0	-0.4132676
59	0x3f15c941	0.58510214
60	0xbeec038c	-0.46096456
61	0xbf00e3ba	-0.50347483
62	0x3f79b9b2	0.97548974
63	0xbf44ea96	-0.7692045
64	0xbf79eada	-0.9762398
65	0xbd43e180	-0.047822475
66	0xbf3b0178	-0.73049116
67	0xbf49e3d6	-0.78863275
68	0x3f81cf6d	1.0141426
69	0xbe804e88	-0.25059915
70	0xbf33817c	-0.7011945
71	0x3f3152cb	0.6926696
72	0xbf17cf64	-0.5930083
73	0x3effa485	0.49930206
74	0xbe357058	-0.17718637
75	0x3f39f9f8	0.7264705
76	0x3e7fb353	0.2497075
77	0xbe8df9b4	-0.2772957
78	0x3e2ed115	0.17071946
79	0x3f4ef29b	0.80838937
80	0xbe70b2e0	-0.23505735
81	0xbe8d03e8	-0.27542043
82	0x3eb89fe2	0.3605948
83	0x3f2ba8a5	0.67054206
84	0xbf63da6e	-0.8900517
85	0xbdbb378c	-0.09141454
86	0xbf5552a4	-0.83329225
87	0xbe776a00	-0.2416153
88	0xbd0db5e0	-0.034597278
89	0xbe299518	-0.16560781
90	0xbd491aa0	-0.049097657
91	0x3e07a9a4	0.13248307
92	0xbf20ad4c	-0.6276443
93	0x3f6835a1	0.9070683
94	0x3d20fd84	0.03930427
95	0x3ec211e0	0.37904263
96	0x3f7bd998	0.98378897
97	0x3e146a5f	0.14493702
98	0xbf4f9afc	-0.8109586
99	0xbe415a30	-0.1888206
100	0x3f036f41	0.51341635
101	0x3f63a889	0.8892904
102	0xbe23628c	-0.15955561
103	0x3efc97e0	0.4933462
104	0x3e63a092	0.22229221
105	0xbf59b988	-0.85048723
106	0x3c9d067e	0.019168135
107	0x3d21c48f	0.039494094
108	0x3f1dab58	0.61589575
109	0x3e174f95	0.14776452
110	0xbdd284b0	-0.102792144
111	0x3e0f29d9	0.13980807
112	0xbf69c664	-0.91318345
113	0x3f2068d9	0.62659985
114	0xbf54ec81	-0.83173376
115	0x3f5ea3be	0.869686
116	0x3f7fdab0	0.99943066
117	0xbf645c74	-0.8920357
118	0x3f0bd234	0.5461762
119	0x3f5b79ff	0.85733026
120	0xbeeab9d7	-0.4584491
121	0x3f5c6bda	0.8610207
122	0xbf7575ce	-0.9588288
123	0xbf17e9e4	-0.59341264
124	0xbf3bb6d3	-0.7332584
125	0xbebcf4af	-0.3690543
126	0xbe26f140	-0.16302967
127	0x3f75bafb	0.95988435
128	0xbf78bac8	-0.97160006
129	0xbf090c00	-0.53533936
130	0x3f640b98	0.8908019
131	0x3e8ae4d4	0.27127707
132	0xbef18a71	-0.47175935
133	0x3f2f7ed5	0.68552905
134	0x3f871ca1	1.0555612
135	0xbef0ed24	-0.47055924
136	0xbe1b8e30	-0.15190959
137	0xbf33e860	-0.7027645
138	0xbf8028d8	-1.0012465
139	0xbe74b6fd	-0.2389793
140	0xbee20123	-0.44141492
141	0xbe74cf88	-0.23907292
142	0x3f076ce5	0.52900535
143	0x3f8051e8	1.0024996
144	0xbef043c4	-0.469267
145	0x3e453671	0.19259049
146	0x3e73eaf7	0.238201
147	0xbefec351	-0.4975839
148	0xbf4b4aa6	-0.7941078
149	0x3f727e0c	0.9472358
150	0x3f33aaad	0.70182306
151	0x3ef5c9df	0.48005578
152	0xbf63c0e6	-0.88966215
153	0xbf20ff6e	-0.62889755
154	0xbf7a5c68	-0.9779725
155	0x3e1cc78e	0.15310499
156	0xbf2f77a4	-0.6854193
157	0xbcee6440	-0.029100537
158	0x3f6b0f63	0.91820353
159	0xbf153e32	-0.5829803
160	0x3bb70800	0.0055856705
161	0x3f1d741b	0.6150529
162	0xbec91bc4	-0.39278996
163	0xbde9aa8b	-0.114094816
164	0x3f1dff8b	0.6171805
165	0xbf620698	-0.8829131
166	0xbf664692	-0.8995143
167	0xbf41f8c6	-0.75770223
168	0x3f2b76eb	0.6697833
169	0x3ed26279	0.41090754
170	0xbdfc2c04	-0.12313083
171	0x3eb576f6	0.35442322
172	0xbf801261	-1.0005609
173	0xbebfe016	-0.37475652
174	0xbf556d7a	-0.8337017
175	0x3ec5f369	0.3866227
176	0x3e917c0b	0.2841495
177	0xbf5cdb5d	-0.8627222
178	0x3e80e427	0.25174066
179	0xbf1c1649	-0.60971504
180	0x3f1cd4c7	0.6126217
181	0xbf6e2430	-0.9302397
182	0x3e41f764	0.18942028
183	0xbd939280	-0.07205677
184	0xbf442de7	-0.7663254
185	0x3ef5ddb7	0.48020718
186	0x3ea39bb7	0.31954738
187	0x3f7a14dd	0.97688085
188	0x3e58d69b	0.21175615
189	0x3f5e16d6	0.86753595
190	0x3de93d17	0.11388605
191	0xbf582dba	-0.84444773
192	0xbf3088e6	-0.6895889
193	0xbee96e00	-0.45591736
194	0xbea94e94	-0.33067763
195	0xbf6905a6	-0.91024244
196	0xbe92fa2a	-0.28706485
197	0x3f5fce98	0.8742461
198	0xbf384dbd	-0.7199362
199	0xbf723902	-0.94618237
200	0xbf79aee5	-0.9753249
201	0x3f38d506	0.7220005
202	0x3b6fe857	0.0036606991
203	0xbe1396c0	-0.14412975
204	0xbf6e8bc4	-0.93182015
205	0x3ec6e1d3	0.38844165
206	0xbc8f856c	-0.017519675
207	0x3ed51193	0.4161497
208	0xbcf14b3a	-0.029454816
209	0xbe9e91ac	-0.30970514
210	0xbb319ef4	-0.00271028
211	0x3d3b208c	0.045685336
212	0x3f2d3bde	0.67669475
213	0x3e0a919f	0.13532113
214	0xbe981134	-0.29700625
215	0x3f3498d6	0.7054571
216	0xbe1ed8be	-0.15512368
217	0xbf7bb384	-0.98320794
218	0x3f2fb43e	0.686344
219	0x3ede0913	0.43366298
220	0x3e20e376	0.1571177
221	0xbe0abaa4	-0.1354776
222	0x3ebd50a0	0.36975574
223	0x3e582435	0.21107562
224	0x3ec25cd4	0.37961447
225	0xbf3923b4	-0.72320104
226	0xbf5ea65e	-0.86972606
227	0xbf7672a6	-0.9626869
228	0xbf7d8244	-0.99026895
229	0xbf623ce7	-0.8837418
230	0x3f5e4e0f	0.8683786
231	0xbf49a3b8	-0.7876544
232	0xbf3d4867	-0.739386
233	0x3f1e53b0	0.61846447
234	0x3f4f6507	0.8101353
235	0x3ea4582a	0.32098514
236	0xbf70f50e	-0.94123924
237	0xbf508f35	-0.81468517
238	0x3ee5214e	0.44751972
239	0x3f5456a2	0.8294469
240	0x3eb67cc1	0.35642055
241	0xbe14d3e8	-0.14533961
242	0x3e35655c	0.17714447
243	0xbf39a89a	-0.7252289
244	0xbf6c93f1	-0.9241324
245	0x3e55c97a	0.20877638
246	0xbd3ded80	-0.046369076
247	0x3f601793	0.8753597
248	0x3f263102	0.6491853
249	0xbe874fd8	-0.26428103
250	0xbe771e98	-0.24132764
251	0xbf24f924	-0.6444266
252	0x3f5c862c	0.8614223
253	0xbc94d340	-0.018167138
254	0x3f1e200a	0.6176764
255	0xbf0b66e2	-0.5445386
