checkpoints/79550400.ckpt (torch, 122663 bytes, 33 tensors)

weight f4 [256, 18]
000000 4f cb 0b bc c4 20 a7 3d 93 ef 14 3e c6 d7 6b bd
       -0.008532359 0.081605464 0.14544515 -0.057578824
000010 09 fe a2 3d 52 81 0b 3e ea 36 3c be 0b 57 94 bd
       0.079586096 0.1362355 -0.18380323 -0.07243165
000020 ed 68 16 3e 2b 3c 83 3d b1 c2 1f be e0 83 41 be
       0.14688464 0.064079605 -0.15601613 -0.18897963
000030 46 da e1 bc 6f df 35 be 8f 61 6a be d8 6f 0e be
       -0.027569901 -0.17761014 -0.22888778 -0.13909853
000040 16 15 7e bd be 7f 21 3e 09 6a cd 3d 28 38 52 bd
       -0.062031828 0.15771386 0.1002999 -0.051323086
000050 b4 31 80 bd c6 6e 2a be a6 a5 32 be ea 87 0b 3e
       -0.0625948 -0.16643819 -0.17446002 0.13626066
000060 bc dd 49 be 99 92 38 3e f0 f4 6e 3e f0 62 f8 bd
       -0.19713491 0.18024673 0.23335624 -0.12128246
000070 d8 5b 60 3e f5 be 2f bd 90 fe 0c bc 11 7a a1 3d
       0.21910036 -0.04290672 -0.008605614 0.078846104
000080 be 8f 28 bd 76 90 72 bd bc dc 5f 3c 74 27 e9 bc
       -0.04115271 -0.0592198 0.013663467 -0.028461196
000090 ef 08 a8 be 4b f6 f5 bc 46 f9 ca bd 04 fb b2 bd
       -0.32819316 -0.030024668 -0.099108264 -0.08739284
0000a0 63 b1 f3 bc 49 53 06 be c7 09 99 3d dd 00 9d 3d
       -0.02974767 -0.13117708 0.07472568 0.0766618
0000b0 f8 40 44 be 45 15 80 3b 34 cd 61 bd 08 58 65 bd
       -0.19165409 0.0039087855 -0.055127338 -0.055992156
0000c0 b6 6b 04 3e 29 54 29 bd f3 3e b5 bd ff 12 53 3d
       0.12931713 -0.041340027 -0.08849897 0.051531788
0000d0 12 03 0b 3e da 43 3e be cd b8 8c be 5e 0f 81 3d
       0.1357539 -0.18580571 -0.27484742 0.06301759
0000e0 1e 4a a0 3c 9a 55 d9 3d 32 98 e3 3d c1 18 8c 3d
       0.019566592 0.1061203 0.11113013 0.06840659
0000f0 95 4d a6 3d 4b c5 80 3c a9 ed 9d 3d e5 de 81 bd
       0.08120266 0.015719077 0.07711346 -0.06341342
000100 65 ad 22 bd f3 3c 56 be 04 4c 5b 3e 81 5a 22 be
       -0.039716143 -0.20921688 0.21415716 -0.15854837
000110 0a a7 05 be 8a 61 10 3d a9 9b 75 3d 09 0e 4d be
       -0.13052002 0.03524927 0.059962902 -0.20024885
000120 ac 33 8c 3d eb 73 29 be eb 0c 0a 3d a3 33 cb 3d
       0.06845793 -0.16548125 0.033703726 0.09921958
000130 86 21 2c be 22 b7 8a be 99 15 b3 3d f3 98 59 be
       -0.16809663 -0.27092844 0.08744354 -0.21249752
000140 a1 2c c7 bd 64 d8 3d be 8a 97 2e be f6 d1 83 bd
       -0.09725309 -0.18539578 -0.17049995 -0.06436531
000150 be 03 7a 3d 90 14 bc bd d9 14 99 3d 42 a4 56 3d
       0.061038725 -0.091836095 0.074746795 0.052402742
000160 74 ff 0c bd 2a e5 99 3d ef 9e 4a 3e ed 47 84 bd
       -0.034423307 0.07514413 0.19787191 -0.06459031
000170 2f b6 c4 3c 9d a8 ff bd a5 99 75 be d2 c9 38 be
       0.024012653 -0.12483332 -0.23984392 -0.18045738
000180 e6 36 1c 3e 51 c2 d5 3d 3f 96 02 3e 91 4c 1e be
       0.15255317 0.104374535 0.12752627 -0.15458895
000190 cc e9 b0 bd 5e fc 00 be 7d 69 7b bd b7 b5 fc 3d
       -0.08638343 -0.1259627 -0.0613799 0.12339347
0001a0 48 94 a1 3d b0 3e 30 bd 21 c3 bc bd c1 db 51 bd
       0.078896105 -0.043028533 -0.092169054 -0.051234964
0001b0 b6 47 ce 3e f7 83 f7 bd 6e b6 a3 ba 9f 09 3c 3e
       0.40289086 -0.12085717 -0.0012490281 0.18363045
0001c0 a6 c6 2f ba b4 e5 22 3e 49 75 0e be 0c c5 0a 3d
       -0.0006705321 0.15907937 -0.13911928 0.033879325
0001d0 2f f3 ad bc 75 c0 e2 3d 38 8e 09 bc eb 7f 06 3d
       -0.021234123 0.110718645 -0.008395724 0.032836836
0001e0 ff 4d 08 3e a1 c2 63 3d 88 64 1a be ea 85 d2 bc
       0.13311003 0.055605534 -0.15077412 -0.02569862
0001f0 34 75 40 3d c6 d9 63 bd ff 2b 09 3e 34 70 4e 3d
       0.046986774 -0.055627607 0.1339569 0.050399974
000200 4c f7 a2 3d 6f c6 97 3d 79 64 24 be 58 81 65 be
       0.079573244 0.07410895 -0.16053952 -0.22412622
000210 aa 8b b5 3d ca 15 eb 3d dd c9 39 3d 5f 6c 42 bd
       0.088645294 0.11478765 0.045358527 -0.047466632
000220 83 5e 7a be a3 24 b2 bd 54 e9 75 3d de 3a 0d be
       -0.24450116 -0.08698394 0.060036972 -0.13791987
000230 2f 9c 50 3d 16 d6 4f 3d ca 12 aa be 0b b4 9e be
       0.0509302 0.050741278 -0.3321746 -0.30996737
000240 5b d8 62 3d 7b 16 02 3d 56 9c 35 be af 32 fb 3d
       0.055382114 0.03175972 -0.17735419 0.122655265
000250 35 8b 9f 3d 98 20 24 3e 3f 12 f2 3d 05 cc 0b 3d
       0.077902235 0.16028059 0.118198864 0.034130115
000260 ec 00 98 bd c7 99 62 3e 7e e0 80 bd 6d e6 26 3e
       -0.07422051 0.22128974 -0.062928185 0.16298838
000270 83 b3 20 3e d6 bb 6c bd bc 97 25 bd ed a6 dc 3c
       0.15693478 -0.05779632 -0.04042791 0.026935065
000280 ac 5e 82 bc 94 df dd 3d dc 1c d2 bd 9d 3a 3c be
       -0.015914284 0.1083366 -0.10259411 -0.18381734
000290 ca 41 0d be 16 81 1f 3e 7b e0 fe bd b2 62 2f be
       -0.13794628 0.15576586 -0.1244516 -0.17127493
0002a0 94 9a 89 bd 90 79 a5 bc 2e 99 9b bc 63 b6 f5 3d
       -0.067189366 -0.020199567 -0.01899394 0.11997678
0002b0 64 79 c2 bd 69 49 9e bd 15 b4 f6 3d c0 11 cd bd
       -0.0949581 -0.077288456 0.12046067 -0.10013151
0002c0 d8 5f 93 bd f8 7c 24 be c0 09 75 3d b9 b1 a5 3d
       -0.07196015 -0.16063297 0.05982375 0.080905385
0002d0 c6 9b 35 bd 0e bf a0 bd a3 eb 2f be b3 35 2f be
       -0.04433801 -0.07848941 -0.17179732 -0.17110328
0002e0 68 f1 3e be 58 25 d0 bd ee 10 df bd a6 00 0d 3d
       -0.18646777 -0.10163373 -0.10891901 0.034424447
0002f0 c6 28 e2 bd c3 b5 5a be 69 8e 82 bd ab d2 0f be
       -0.11042933 -0.21358399 -0.06374819 -0.14045207
000300 cb 6a 1a be b3 e8 16 3e 3e fc ad 3c 02 18 0d be
       -0.15079801 0.14737205 0.021238443 -0.1377869
000310 d0 c5 4f bd d5 36 73 3e 8c b4 2b 3e af 94 e4 3c
       -0.050725758 0.23751386 0.16768092 0.02790293
000320 52 54 cf b8 c5 c3 1f 3e e0 5d 23 3d e5 80 c4 3d
       -9.886235e-05 0.15602024 0.039884448 0.09594897
000330 39 c8 61 3e 04 b9 f4 3d ba 3e 4f 3e 41 a9 52 3e
       0.22049035 0.119493514 0.20238772 0.20572378
000340 fb 7a 5e 3e 84 75 aa 3d 3c b3 27 be 99 98 09 3e
       0.21726601 0.083231956 -0.16376966 0.13437118
000350 11 41 09 be 4d 43 3f bd 55 6f a5 3c 69 21 07 3e
       -0.13403727 -0.046695042 0.020194689 0.13196339
000360 f5 0f 06 3e e0 46 16 3d 1b c8 b4 3d c3 a7 56 3e
       0.13092025 0.036688685 0.088272296 0.20962434
000370 34 02 47 3e 57 d8 1c 3d 3f 4c c4 3c c1 30 52 be
       0.19434434 0.038292255 0.023962138 -0.2052641
000380 b7 87 0b 3e 53 2a a3 3d 6b 45 3d be 86 63 41 bd
       0.1362599 0.07967057 -0.18483512 -0.047214054
000390 59 e7 88 bd f9 4a 1c be 8f 6c 00 be 4b eb 38 3e
       -0.06684751 -0.15262975 -0.12541412 0.18058507
0003a0 da b3 0f 3b 5a 52 2c 3e fe 9f 08 3e ff 0d 19 3e
       0.0021927268 0.1682829 0.13342282 0.14946745
0003b0 54 5c 4e 3d f0 1a 86 3c 2a 2b 37 3c a7 ec 8f 3d
       0.05038102 0.016370267 0.011179725 0.0702756
0003c0 74 06 31 3b 77 43 56 be e7 e4 46 3e 51 2d b7 bd
       0.0027011903 -0.20924173 0.19423257 -0.0894419
0003d0 29 46 6e be b0 c3 4e bd fd 27 09 3e 2c 02 62 3e
       -0.23268951 -0.05047959 0.1339416 0.22071141
0003e0 1f 1e 25 bd 6d 16 46 be f2 07 06 3d e2 93 3e 3e
       -0.04031193 -0.19344492 0.03272242 0.186111
0003f0 ae d2 06 bf db 20 4e 3d f4 ed 2c 3d c5 8b 17 3d
       -0.5266522 0.050324302 0.042219117 0.03699853

bias f4 [256]
000000 eb c4 1c 3e 67 17 67 3e 1b 0e 3f bd 60 ef 30 be
       0.15309493 0.22567521 -0.04664431 -0.17278814
000010 36 d0 58 be cb 07 cd 3d 1d 11 9f 3d a0 7e 88 be
       -0.21173176 0.10011252 0.07766936 -0.26659107
000020 bf a6 c2 bd f4 27 33 be fb ed a2 3d 8b 88 99 bc
       -0.095044605 -0.1749571 0.079555474 -0.018741867
000030 35 95 e8 3d 83 ed 13 bc 27 85 7f be 78 58 4c 3e
       0.11356584 -0.009028795 -0.24953137 0.19955623
000040 5f 4c 21 be 39 bf 1e 3e 84 a5 21 be 20 e1 2e bc
       -0.1575179 0.15502633 -0.15785795 -0.010673791
000050 05 1f 8b 3c 0c 2b 3a bd d8 89 07 3e 2e 7a 1d be
       0.016982565 -0.04545121 0.13236177 -0.15378639
000060 c9 e9 41 be 99 82 d6 bc 6e 1f 6b 3d e0 20 78 bd
       -0.18936838 -0.02618532 0.05740302 -0.060578227
000070 18 28 26 be 5f f5 3d be 29 35 1b 3d dd 80 e0 bd
       -0.16226232 -0.18550633 0.037892494 -0.10962079
000080 2a d2 f4 bd a5 01 09 3e 23 3c e5 3d 9b d6 27 3e
       -0.11954148 0.13379534 0.11193111 0.16390459
000090 c4 89 e0 3d c9 a8 7d be d2 c3 e3 3c a5 0c 88 bd
       0.10963777 -0.24771418 0.027803335 -0.06643037
0000a0 f8 e1 b9 bc 01 83 f1 bd 5d d4 27 be 16 f7 1c 3e
       -0.022690758 -0.11792565 -0.16389604 0.15328631
0000b0 15 c6 0b 3e 19 e0 94 bd d1 be 57 3d fa 83 65 3d
       0.13649781 -0.07269306 0.05267221 0.056034066
0000c0 78 bb 67 3e fb 6c 24 3e 82 75 73 3d bd ba 22 be
       0.22630107 0.16057198 0.059438236 -0.15891548
0000d0 7b d4 52 3d 78 0a 76 bd 5c 9a 4d be 95 0b 35 be
       0.05147217 -0.060068578 -0.20078415 -0.176802
0000e0 6f 5e 04 be 51 cd 39 be aa da 0a be 38 0e 95 be
       -0.12926649 -0.18144728 -0.13559976 -0.2911241
0000f0 48 d5 1a be dc 06 0f 3e 88 46 c2 3c 8f d2 12 3e
       -0.15120423 0.1396746 0.023715273 0.14338134
000100 e8 e6 a8 bd e9 8c e6 3c 4a db c8 bc 26 cf 0e 3e
       -0.08247167 0.028143363 -0.024518628 0.13946208
000110 1e 00 53 3e 9f 68 11 3d 51 3c 11 3e 0c 1a 0c be
       0.20605513 0.035500165 0.14183165 -0.13681811
000120 5e bc 10 be 4c b3 04 bd b1 0a 29 3e 5c 50 a1 3d
       -0.14134356 -0.032397553 0.16507985 0.078766555
000130 0a 62 d8 3d e2 f6 32 be 3c 89 35 3d a6 ec 5f be
       0.105655745 -0.17476991 0.04432033 -0.21867618
000140 f2 43 8b bd c5 01 04 3b 06 8b 4f be e0 91 44 3d
       -0.06800069 0.0020142656 -0.20267877 0.04799068
000150 41 44 15 be 44 bd 24 bd ca c8 b0 3b 2f 93 f3 bc
       -0.14576818 -0.04021956 0.0053950297 -0.029733269
000160 7e c2 04 bd f9 07 4c bd 48 86 7c 3e f8 92 4c 3e
       -0.032412045 -0.04981229 0.24660599 0.19977939
000170 db 94 47 3e 8e 6a 2d bd 38 1d 85 bd 96 75 7e bd
       0.19490378 -0.042337947 -0.06499714 -0.062123857
000180 05 29 f6 bd b6 9a 14 bd 20 40 00 be b9 8a 2d bd
       -0.120195426 -0.036280356 -0.12524462 -0.042368624
000190 77 9b 28 3e e2 48 c0 bd 06 a8 1e be 4d 7b fb 3c
       0.16465555 -0.09388901 -0.15493783 0.030698443
0001a0 11 f8 fc bd b3 79 92 bd 64 b1 71 bd 4a 8d 88 be
       -0.123520024 -0.071521185 -0.059007064 -0.26670295
0001b0 51 81 1a 3d 14 a7 46 3e 93 86 c2 bd 72 dd 32 3e
       0.037720982 0.19399673 -0.09498324 0.17467287
0001c0 e5 85 2e bd fe c4 5f be cc d4 0c 3e 2f ed 9a bd
       -0.04260816 -0.2185249 0.1375305 -0.075647704
0001d0 69 0e 73 bd 04 6a 46 be 05 02 63 3a b5 54 e7 bd
       -0.059339914 -0.19376379 0.0008659664 -0.112954535
0001e0 39 e4 2c be fd c2 49 bd 9e 79 44 be 93 da 8c bd
       -0.16883935 -0.04925822 -0.19187018 -0.06877627
0001f0 68 5b f6 bd 17 51 af bd ba 62 d7 3d 57 08 35 be
       -0.12029153 -0.085603885 0.105168775 -0.17678963
000200 ae 63 4f be 62 5e 34 3e ec af 59 bd 41 b4 5b 3d
       -0.20252869 0.17614129 -0.053146288 0.0536387
000210 63 1d 56 bd 1a 3d 2d be 81 eb 1b be ef 73 38 be
       -0.05227412 -0.1691784 -0.15226556 -0.18012975
000220 f5 9f 71 be 6d 16 9c bd dd 10 b7 bc 14 74 3a be
       -0.23596175 -0.07621465 -0.022346908 -0.18208343
000230 34 98 ef 3c f4 8a 2d 3e 1b 39 0b be 40 44 85 be
       0.02924738 0.16947538 -0.13596003 -0.26028633
000240 ec b4 cc 3b 0a 1d 19 3e 5d 7c 40 be 20 d2 3b 3e
       0.0062471535 0.14952484 -0.18797441 0.18341875
000250 aa 6f 31 be df 6c aa bd 5a a7 84 bd b4 bb 2e 3d
       -0.17327753 -0.08321547 -0.06477232 0.042659476
000260 e2 99 23 be 01 fd 1c 3e 45 56 79 be 3c 59 a5 bd
       -0.1597667 0.15330888 -0.24349315 -0.08073661
000270 1f 7a e1 bc f6 9f 3f bd 47 9c f1 bd 17 cf 25 3d
       -0.027524052 -0.04678341 -0.11797386 0.0404807
000280 0b 60 22 be 9f 1e 43 bd 73 f5 ff bb d7 48 40 be
       -0.1585695 -0.047636624 -0.0078112422 -0.18777786
000290 0a ed 68 bd e7 23 11 be ab c1 10 be 69 08 2d be
       -0.056866683 -0.14173852 -0.14136378 -0.1689774
0002a0 20 b0 bb bd 1c 2b 6f be f1 01 69 be af e5 36 bd
       -0.091644526 -0.23356289 -0.22754647 -0.044652637
0002b0 cb 97 42 3e 50 b5 1f 3e a9 92 30 3e ae e7 2e be
       0.19003217 0.15596509 0.17243446 -0.17080566
0002c0 4f 79 d5 3d cf 10 16 be 11 a3 cb bd fb 4a 6c be
       0.104235284 -0.1465485 -0.09943212 -0.23075478
0002d0 85 35 96 bc 7e 58 1a 3e 66 61 0e 3d 55 84 76 bc
       -0.018336067 0.1507282 0.034760855 -0.015046199
0002e0 28 42 29 3d 97 40 10 3e c0 97 e5 3d 6c ea 44 be
       0.041322857 0.14087139 0.11210585 -0.1923005
0002f0 6d 5e af bd 94 9d fd 3d 48 81 52 be b9 c7 df bc
       -0.08562932 0.12383571 -0.2055713 -0.027316915
000300 8a ea 87 be 52 e7 61 be e6 ef 80 bc d0 03 07 3e
       -0.26546127 -0.22060898 -0.015739392 0.13185048
000310 e3 e7 0f 3d b4 17 d2 3d 98 11 ce 3d f3 68 3f be
       0.035133254 0.10258427 0.100619495 -0.18692379
000320 9e 93 a0 3d 8c 64 2e 3d 97 c5 09 3e e3 7b 27 be
       0.07840656 0.042576358 0.13454281 -0.16355853
000330 85 84 23 be 47 3d d7 bd 4d ec 19 be 51 ae 61 3e
       -0.15968521 -0.105097346 -0.15031548 0.22039153
000340 4f 10 f2 bd 72 bd 96 bb f0 a3 bb 3d 3b d7 82 be
       -0.11819517 -0.0046002204 0.09162128 -0.25554833
000350 03 4e ee 3c 84 7b f7 bd ce 8d d2 3d 4d bb c4 bd
       0.029089933 -0.120841056 0.10280953 -0.09606037
000360 21 77 b2 be b2 fc 14 3e fd 0d e4 bc 37 c3 4d 3d
       -0.34856513 0.1454952 -0.027838701 0.050235
000370 c7 cb 2f 3e 91 58 14 be 4f b0 b5 3c aa 14 5a be
       0.17167579 -0.1448691 0.022178797 -0.21296945
000380 19 af 9b bd a1 8e 25 bc 18 5e 0c 3e d2 2f be 3c
       -0.076017566 -0.010104806 0.13707769 0.023216162
000390 44 00 f7 bb 1d 35 f2 bd fb 5c 90 3d 39 fd b9 3c
       -0.0075378735 -0.11826537 0.070489846 0.022703754
0003a0 17 53 64 be 9a 7b 27 3d af a8 8f 3c 29 94 02 3e
       -0.22297321 0.04088936 0.01753649 0.12751831
0003b0 ea c0 c1 bc 89 3a 27 be cb de 1f be 34 d7 f5 bd
       -0.023651559 -0.16330923 -0.15612333 -0.12003937
0003c0 cc 6d 15 3b 7f d2 75 bd 64 65 33 3c c2 5a 72 bb
       0.002280104 -0.060015198 0.010949466 -0.0036980365
0003d0 88 2d e6 3d 29 1a da bd 2f fa 9e 3d 53 c2 2f be
       0.11239153 -0.10649521 0.077625625 -0.17163973
0003e0 4f 9e 50 be 3a 0d f6 3d eb 89 76 be 83 8e fe bd
       -0.2037289 0.120142415 -0.24076049 -0.12429526
0003f0 b9 82 3f be fe b2 ca bd 39 80 3e bd fc b6 88 be
       -0.1870221 -0.09897421 -0.046509 -0.26702106

weight f4 [1, 256]
000000 8a 20 9b bc 62 39 b4 3b e0 d8 02 3d 6b 6a a1 3d
       -0.018936414 0.0055000046 0.03194511 0.07881626
000010 34 52 92 3a 9e 93 0a bc db b7 b8 bd 15 45 9d bc
       0.0011163414 -0.008458046 -0.09019443 -0.01919798
000020 34 a8 91 3c 0b a6 57 ba e8 9e 84 bc ee 0c 58 bd
       0.0177804 -0.00082263415 -0.016189054 -0.052746706
000030 2a d6 9f bc d6 a8 b0 bd 46 9e 62 3d ae 06 8d bd
       -0.019511301 -0.08625953 0.055326723 -0.0688604
000040 89 1e 81 bd 82 5c ba bd f8 dd 84 bd cc 47 e4 bc
       -0.06304652 -0.09099676 -0.0648765 -0.027866267
000050 a3 62 eb 3c 8d 26 9d 3d e9 a7 84 3c 73 31 d2 3c
       0.028733557 0.076733686 0.016193347 0.025658345
000060 f2 c8 cf 3d 4f f7 7d bd 6b f4 c2 3d c2 b6 a9 bd
       0.10145749 -0.06200343 0.09519275 -0.082868114
000070 83 8d 7a bb 32 ce 3d bd da b8 01 3c bb da cf 3c
       -0.003823132 -0.04633922 0.007917607 0.025372854
000080 ad f0 9e 3d 79 57 6f bd 5b 08 67 bb 52 31 22 3c
       0.07760749 -0.05843303 -0.0035252783 0.009899454
000090 e0 7e f6 3b 2d 28 82 bc 77 45 d0 bd e3 8a 5b 3d
       0.007522449 -0.015888298 -0.10169499 0.05359925
0000a0 71 74 72 bb 6e c6 a9 3d e7 68 58 3c 3f 68 29 bd
       -0.0036995674 0.082898006 0.013208604 -0.041359182
0000b0 e9 e2 23 3d 63 34 2f 3d 74 90 f8 3c ec 05 0a bc
       0.04001132 0.04277457 0.030342318 -0.008424263
0000c0 9e ae 12 bd 1c e2 27 bd d5 b1 ad bc 4f 30 4e bd
       -0.03581106 -0.04098712 -0.021202961 -0.05033904
0000d0 e5 d2 dd 39 a1 28 fd bd 3c 68 87 3b 98 36 ae 3d
       0.00042309533 -0.12361265 0.0041322988 0.08506507
0000e0 e2 d0 86 bd fa 5b 0a 3c 23 52 29 3c 47 1b 5e 3c
       -0.0658281 0.0084447805 0.010334524 0.013556308
0000f0 80 84 37 3c 89 8c 1d be dd ae 75 bd 99 fb 8a 3b
       0.011201024 -0.15385641 -0.059981216 0.0042414186
000100 7f b0 25 bd 3e e9 59 bd 97 e8 63 bd 6a f3 9a 3c
       -0.040451523 -0.053200953 -0.055641737 0.018914897
000110 85 7c d5 bd 6f af 29 3a 43 12 60 3d 1e 68 e4 bc
       -0.10424141 0.000647298 0.054704916 -0.027881678
000120 76 ac 73 3a 34 d5 ee ba c6 07 c6 3d db 60 88 bd
       0.0009295413 -0.0018221498 0.096694514 -0.06659099
000130 5d b7 ba bc 83 4c 4a bd b9 a4 30 3d 5c 05 a1 bc
       -0.022792513 -0.049389374 0.04312584 -0.019655876
000140 e3 e3 53 bc ed c2 17 bd 41 be 0f 3d 61 dd de bd
       -0.01293275 -0.03705113 0.03509355 -0.108820684
000150 de 0b fd 3b 22 ea c0 bd 6b 71 0f bc 3b 3e a6 3d
       0.007722362 -0.09419657 -0.008755068 0.08117338
000160 d1 fb 11 3d 0b 57 87 3c 04 d1 be bd 7d 0a 8e bd
       0.03564054 0.016520998 -0.0931721 -0.06935594
000170 a6 6a 81 bd b6 7e 8e 3d d9 d3 7e bd c6 09 69 bd
       -0.0631917 0.06957762 -0.062213752 -0.056894086
000180 9a 9c 78 bd 74 d9 23 be 95 4a e9 3c 66 d7 82 bd
       -0.060696222 -0.1600092 0.028477946 -0.0638874
000190 7b c7 e9 bc af 7c 1d 3d a4 da ea ba c4 ae e3 bc
       -0.028537503 0.038448986 -0.0017917943 -0.027793296
0001a0 14 76 1e 3d 03 d5 0f 3b 80 e2 9d 3c 29 50 e4 3d
       0.038686827 0.0021947033 0.019273043 0.11148102
0001b0 56 9e 87 3d bb 6e a6 bd 38 fb 9f bc a3 89 a4 bb
       0.06621997 -0.08126589 -0.01952897 -0.0050212904
0001c0 37 0a 49 3d ae 17 ec 3a e1 a1 b1 bc 77 2b 9b 3d
       0.049082007 0.0018012428 -0.021683635 0.0757665
0001d0 fa 54 f1 3c a6 af 41 3d 76 91 90 bc 86 82 2a 3d
       0.029459465 0.047286652 -0.017647486 0.041628383
0001e0 31 6b ab 3c 5d 74 17 3d 0f c6 b8 3c ae 47 5f 3d
       0.020925136 0.036976207 0.02255538 0.05451172
0001f0 65 fc 52 3d 14 1d 2f ba 1b 3c a0 bd d1 53 93 3d
       0.051510233 -0.0006680053 -0.07823964 0.07193721
000200 ec 43 93 3d 93 fd e6 3c 51 b9 97 3c 7d ae c4 bc
       0.071906894 0.028197085 0.018520983 -0.024008984
000210 9f bc e2 3c 17 26 f6 3b 3d ea 52 3b 5b 59 7f 3d
       0.027677832 0.007511865 0.0032183074 0.062341075
000220 72 6f 6f bc ac 32 cb 3c 8c 7c 21 bd 70 9c a3 3d
       -0.014613973 0.024804436 -0.039425418 0.079888225
000230 c5 90 8a 3b e5 ca f0 bc 53 81 10 3e f6 9a e3 3d
       0.0042286837 -0.029393623 0.14111833 0.11113541
000240 05 9c 2c ba b1 82 0a bc 93 c0 90 3d a3 fb c6 bd
       -0.0006584528 -0.008454011 0.070679806 -0.09715965
000250 10 d6 31 bd d5 37 77 3d ed ff f9 bb 59 93 21 bd
       -0.043417037 0.06035598 -0.0076293857 -0.039447162
000260 6d 76 74 bb 33 23 12 bc e6 8a 88 3d 91 43 4b 3d
       -0.0037302033 -0.008919525 0.06667118 0.049624983
000270 f6 f0 8c bb 83 51 9a 3c f5 67 17 3d 64 f1 7c 3c
       -0.0043011857 0.018837696 0.036964376 0.015438411
000280 1c a0 f5 3c c6 7c 0b bd 49 1f 00 3b 51 1f 69 3d
       0.029983573 -0.03405454 0.0019549897 0.05691463
000290 92 3c c4 3a f4 50 95 3d eb 27 28 3e 5e 00 0c bd
       0.0014971665 0.07290831 0.16421477 -0.034180038
0002a0 57 bb 3d 3c b2 9f 8c 3c ca 30 74 3c c5 8c 77 3d
       0.01158031 0.017165992 0.01490421 0.060436983
0002b0 2b dd f2 bd 06 45 e5 3d cc ee 07 be 1a af f7 bc
       -0.11858591 0.11194806 -0.13274688 -0.030234862
0002c0 c5 ea 60 3d db 40 dd 3c 4f ec 4c bd 63 2c 07 bc
       0.054911394 0.027008465 -0.05003005 -0.008250329
0002d0 9f 37 2b 3d d0 da 25 bb 03 cd 0d 3c 44 27 01 3d
       0.04180109 -0.0025307424 0.008654836 0.031531587
0002e0 db c0 1d be 64 b8 aa 3c 0e f6 6e bb 19 d3 af bc
       -0.154056 0.020839877 -0.0036462578 -0.021462964
0002f0 9c 0e 19 3d a7 f0 8f 3b 03 88 00 3d 06 a6 ca 3a
       0.03736745 0.0043927017 0.03137971 0.0015460856
000300 32 29 ca 3d c6 a1 46 bd 0f 1c 02 3d 01 8f 5a bd
       0.09871139 -0.048494123 0.03176504 -0.053359035
000310 62 af b3 3c 34 44 5f 3d 99 b2 7c bc a8 c8 b4 3d
       0.021934215 0.054508403 -0.01542344 0.08827335
000320 00 69 25 bd 1c a4 c3 bb f4 32 87 bc 3b 8c 85 3c
       -0.04038334 -0.005970491 -0.016503789 0.016302219
000330 66 29 53 ba 36 be d7 bc e7 36 2c 3c 57 66 e3 3c
       -0.000805518 -0.026335817 0.010511137 0.02775876
000340 df 72 bf 3d 6d 0f 1c bd 98 2f a5 3d d9 a4 89 3d
       0.09348082 -0.03810065 0.080657184 0.06720895
000350 e0 cb 0f bd 72 15 95 bd d3 a0 97 3a b4 5a 80 bb
       -0.03510654 -0.07279481 0.0011568315 -0.0039170627
000360 a3 e7 f9 3c 91 01 96 bc 14 25 3c 3d f8 1f cb bc
       0.03050596 -0.018311294 0.045933798 -0.024795517
000370 dd 88 15 bd 80 a1 17 3d 3a fa 5a bc 03 03 7a bc
       -0.036507476 0.037019253 -0.013365323 -0.015259507
000380 89 76 b4 bc 75 64 29 3c 20 5b aa bd 6a 07 5c 3c
       -0.022029178 0.010338892 -0.08318162 0.013429502
000390 e8 5b c7 3d b8 73 c5 3b 23 d7 a4 3d 37 91 46 bd
       0.097343266 0.0060257576 0.080488466 -0.04847833
0003a0 09 85 d5 3c 62 0f 1b 3d 3b 55 86 3d 67 e5 59 bd
       0.026064413 0.037856467 0.06559225 -0.05319729
0003b0 27 14 6b 3d a9 2f b3 3c b1 c9 97 bd 08 1e 0f 3b
       0.057392266 0.021873312 -0.074115165 0.0021837968
0003c0 ec 00 4e 3b 48 ef 0d bb de a8 19 bc f3 63 d6 3c
       0.0031433655 -0.0021657515 -0.00937864 0.026170706
0003d0 cc d5 bd bd 9e ba c2 3c 84 fc 94 3b d8 85 1b 3d
       -0.09269294 0.023770627 0.004546704 0.03796944
0003e0 d1 13 79 bd 88 11 2e bd f9 e5 d3 3d 3c 4d fe 3d
       -0.060809914 -0.042497188 0.10346598 0.12417075
0003f0 ae 03 2f 3d 36 bc c4 bc 4e 7f 19 3c d5 4d 91 3c
       0.04272812 -0.024015527 0.009368731 0.017737309

weight f4 [256, 1]
000000 72 dd 9e be 28 48 fd 3d a7 95 d3 bf ff a5 af 3e
       -0.31028324 0.12367278 -1.6530045 0.34306332
000010 8a ee 24 3e 89 37 8a be 1e eb 61 bf a3 45 15 3e
       0.1610662 -0.26995495 -0.88249385 0.14577346
000020 33 10 95 3e b6 0b 7e bf 3c fa 1d 3e 7d c3 6e 3e
       0.29113922 -0.9923662 0.15427488 0.2331676
000030 7c e7 5e 3e 40 ea 07 bf 5e 15 b9 bd 96 52 90 3e
       0.21767992 -0.5309181 -0.090372786 0.28188008
000040 fe 42 07 be cd 0f 5a 3d 3c 9c 45 be bb b5 32 3f
       -0.13209149 0.053237725 -0.1929788 0.6980855
000050 17 64 ef bc 38 1f 72 3f 7c 95 6d 3f 7c d9 14 bf
       -0.029222531 0.94578886 0.9280622 -0.58144355
000060 88 67 17 bf 13 a3 40 3f 1f 36 02 3f 2a 60 53 3f
       -0.5914235 0.7524883 0.5086383 0.8256861
000070 1d 3a f0 3e 22 6d 2b be 3a 3c 36 bf e2 fc 4e bf
       0.46919337 -0.1674085 -0.7118565 -0.8085462
000080 15 10 2e bd e8 fe 5d bf c0 89 e0 bc c3 78 47 3f
       -0.042495806 -0.8671708 -0.027409434 0.7791864
000090 59 a3 23 c0 6f 1e 52 c0 63 4c c8 be cd 8f 09 3f
       -2.556845 -3.2831075 -0.39120778 0.5373505
0000a0 fe da 3d bd 93 75 0e 3e 95 ff 4f 3f 59 b3 1d 3f
       -0.046351425 0.13912039 0.8124936 0.6160179
0000b0 a0 43 10 3d 0e 50 17 3f 02 60 e6 3e 17 6e 12 3f
       0.035220742 0.5910653 0.44995123 0.57199234
0000c0 7d 84 db bc 64 d5 34 bd 30 cf 91 bd c4 ed aa be
       -0.026796574 -0.044148818 -0.07119596 -0.33384526
0000d0 46 e4 ce 3d 7a 8b 2d bf 23 f6 33 3f d1 b4 95 3e
       0.101021335 -0.6779095 0.7029745 0.29239514
0000e0 4b 55 82 c0 d9 6a c1 3e d8 65 64 bd 73 a5 b9 3e
       -4.0729117 0.3777683 -0.05576119 0.3625904
0000f0 71 19 1c bf 1d 6a 87 3e c8 cf bb bf 7a 44 c9 bd
       -0.6097632 0.26448146 -1.4672785 -0.09827514
000100 d0 61 5b 3e a3 ee 79 3f 3a bd 4d bf ca 52 57 3e
       0.21424031 0.97629756 -0.8036686 0.21027675
000110 00 03 76 3f 4f 02 8b be 3a 8b 51 c0 00 9a aa bd
       0.9609833 -0.271502 -3.2741227 -0.083301544
000120 b0 d4 20 3e fe af 41 bf 96 1c 33 3f 7d 3b 89 3e
       0.15706134 -0.7565917 0.69965494 0.26803198
000130 8e a1 03 3f e0 15 13 be f7 ba d7 3e 33 e1 86 c0
       0.5141839 -0.14363813 0.4213483 -4.21499
000140 ec a5 40 3f 96 df ea 3e 5e ce ba 3e 8d 29 2b 3f
       0.75253177 0.45873708 0.3648557 0.66860276
000150 f0 b2 89 bd 66 dc 20 3f e4 cb 2a be a0 c6 7d bd
       -0.06723583 0.628363 -0.1667934 -0.061957
000160 9b 38 c2 3e 80 97 ff be 76 51 29 3f 0c 8c d9 3e
       0.37933812 -0.49920273 0.66139925 0.4248966
000170 7a b8 74 bf 87 e2 55 3e 60 dd 2b bf 7c 6d 1f 3f
       -0.9559399 0.20887195 -0.67134666 0.62276435
000180 e5 e9 68 3d 20 fd 70 bf 63 51 64 c0 e1 80 1a 3f
       0.056863684 -0.9413624 -3.5674675 0.60352904
000190 fc 72 b5 be 83 86 43 3f 2e 7a f6 3a 1c d6 97 3e
       -0.3543929 0.76377124 0.0018804723 0.2965554
0001a0 10 46 c9 bd f4 13 0c bf d6 38 b7 3e 46 08 f7 3e
       -0.098278165 -0.54717946 0.3578555 0.482485
0001b0 7e 5c c6 3e 1b 1d 5e be 60 ac 83 bd fb 2d 8a 3e
       0.3874244 -0.2169079 -0.06429362 0.26988205
0001c0 14 cf a8 be 4e fa 5b c0 93 d2 88 3e f1 fc d1 3d
       -0.32970488 -3.4371524 0.26723155 0.10253323
0001d0 58 74 1f bf d0 f5 70 be 0b 14 58 3f fc 81 46 be
       -0.622869 -0.2353127 0.84405583 -0.19385523
0001e0 10 86 f3 be b0 3f 08 3e 60 98 05 3e 62 1b 10 bf
       -0.4756322 0.13305545 0.13046408 -0.5629178
0001f0 65 2e 63 3e c0 23 60 3d 50 e6 28 be de 74 18 3f
       0.22185667 0.054721594 -0.16494107 0.59553325
000200 48 e6 be bd 00 62 ed bd d4 61 82 be ce 57 41 bf
       -0.093212664 -0.11590958 -0.25465262 -0.75524604
000210 2f f6 c4 3e ca cc 07 be 5a 8c f2 3e a0 9e 27 bf
       0.38469073 -0.13261715 0.47372705 -0.6547642
000220 2e 0e 11 c0 80 18 0f 3c 4f aa 37 be 19 9a 4d 3e
       -2.2664905 0.008733869 -0.17936061 0.20078315
000230 cd 46 4d 3e 63 c9 1f 3f 9c df ae 3e 20 5f ba 3d
       0.2004654 0.62416667 0.34154975 0.09100175
000240 5a c7 1a 3d 60 65 33 3d c4 90 20 3e 2c 42 54 3f
       0.037787773 0.04379785 0.15680224 0.8291347
000250 ad 32 1c 3f 18 63 cc be a4 8b 9d be 40 58 ae be
       0.61014825 -0.39919353 -0.307706 -0.34051704
000260 f8 30 ea be d2 7d ab 3e e5 41 58 3f ef e9 64 3c
       -0.45740485 0.3349443 0.8447555 0.01397179
000270 4e 46 7c bf a8 4d 49 3d e0 2b 04 bf ec 0d 4b bf
       -0.98544776 0.049146324 -0.5162945 -0.7931812
000280 38 18 fb bd 65 4d 9b 3e 32 b8 72 bf d8 de 9b 3e
       -0.12260479 0.30332485 -0.9481231 0.30443454
000290 84 03 8c be 11 a9 bc 3e 09 fc 2b 3f 5c 52 2a 3f
       -0.27346432 0.36847737 0.6718145 0.6653192
0002a0 f2 66 9e bb 9d a9 08 3f cb 53 68 c0 31 f3 b3 bd
       -0.0048340494 0.5338381 -3.6301143 -0.087866195
0002b0 a6 4f 48 be 2e dd 59 be ca d4 23 3d a7 26 75 3f
       -0.19561633 -0.2127578 0.039997853 0.95762104
0002c0 82 fb 7a c0 2a a5 4d be 94 70 97 3c 0d 81 52 c0
       -3.9216008 -0.20082536 0.018486299 -3.2891266
0002d0 44 dd ce be c6 f4 00 bf f5 fe 63 3f 58 8b 14 bf
       -0.40403187 -0.50373495 0.8906091 -0.5802512
0002e0 68 67 3c bf 2e 8c 52 bf de 15 3a bf de d1 3c 3f
       -0.73595285 -0.8224515 -0.72689617 0.7375773
0002f0 f6 2f 32 bf 61 d6 99 bd 98 30 46 be 96 b1 62 bf
       -0.6960443 -0.07511593 -0.19354475 -0.88552225
000300 6e 8d 4a bf d6 27 d4 3e 1a ac 3f 3f d1 4a 88 3d
       -0.79122055 0.41436642 0.7487198 0.06654895
000310 80 06 66 be 2e 4f 64 3f 40 56 19 3f fc 10 a9 3e
       -0.22463417 0.8918332 0.5989723 0.3302077
000320 13 69 50 c0 7e 2d 0e bf 18 02 c8 bf c2 df 9d 3e
       -3.2564132 -0.55538166 -1.5625639 0.30834776
000330 1f e3 e8 3e 90 50 fb be e2 02 f3 3d c7 e8 51 3f
       0.4548578 -0.49084902 0.11865784 0.81995815
000340 ca f3 42 3f da 17 6b 3f 9a 45 37 3f 1c 62 89 bc
       0.7615324 0.9183327 0.7159058 -0.016770415
000350 5a 95 fc 3e 20 7d 2f be ee 75 7a bf e2 e3 5a 3f
       0.49332696 -0.17137575 -0.97836196 0.8550397
000360 3e a8 41 3e 20 df fe bd 8d ce ad 3e f4 ff 6f 3f
       0.18911836 -0.124449015 0.33946648 0.9374993
000370 cc f8 bf 3e e2 99 e1 bc 93 6d 13 3f 07 dd 9c bd
       0.37494504 -0.027539197 0.5758907 -0.07659345
000380 bd d9 6c 3e aa 6d 14 bf f5 ad 8c 3e 28 d5 82 be
       0.23129936 -0.57979834 0.2747647 -0.2555325
000390 32 16 18 3d 28 d9 83 bd 57 a4 e0 3e c0 68 53 be
       0.037130542 -0.06437904 0.4387538 -0.20645428
0003a0 85 31 8a be cc fe 4a bf 61 9e 25 3f db 74 ec 3e
       -0.26990905 -0.7929504 0.6469479 0.46182904
0003b0 11 ea 3b c0 82 75 3c 3f d3 40 f8 3d 10 52 e4 bd
       -2.9361613 0.736168 0.12121739 -0.11148465
0003c0 21 23 a7 be d8 99 b9 bc 00 6c cf bd b7 a4 86 bd
       -0.3264399 -0.022656366 -0.10128021 -0.065743856
0003d0 12 fe 08 bf d1 f2 bd be 3a b6 94 bd 1f 71 74 be
       -0.5351268 -0.37099317 -0.072613195 -0.23871277
0003e0 4b ee 73 bf ef 41 cd be b3 0e da be fb 05 4d 3f
       -0.9528548 -0.40089366 -0.4258934 0.8008725
0003f0 af ec 35 38 38 f1 cd bd d1 71 b1 be de 38 bf 3e
       4.337419e-05 -0.100557745 -0.34657148 0.37348074

bias f4 [256]
000000 2e 2a 40 3f e2 45 4f 3d 7a 9f 80 3e fe ed 4f bf
       0.7506436 0.050603755 0.2512167 -0.8122252
000010 e4 d8 f2 3e 13 e5 87 3f b0 b9 75 bf c6 87 d7 3e
       0.474311 1.0616783 -0.9598646 0.42095774
000020 a1 68 34 bf a4 58 9e be 72 6d f8 3d ec ca 1b 3f
       -0.7047215 -0.30927002 0.1213025 0.6085651
000030 61 c7 21 3f fc 05 6f bf 7b 44 aa 3d 8e 19 8e bf
       0.63194853 -0.93368506 0.08313843 -1.1101549
000040 3a 27 05 3f 33 b3 e2 3e 66 58 f2 3e 88 de 02 3f
       0.5201298 0.44277343 0.47333068 0.51120806
000050 f9 02 ce 3e 75 23 6d 3e a7 e9 d7 be 38 78 a5 be
       0.40236643 0.23158057 -0.4217045 -0.32318282
000060 a8 ad 8b be 17 aa 47 3f e6 27 55 3f e7 8c 0c bf
       -0.27280927 0.7799391 0.83264005 -0.549025
000070 e7 3f 27 bf 3e f9 2a 3f 76 05 36 bf 88 e6 8f be
       -0.6533188 0.66786563 -0.7110208 -0.2810557
000080 26 dc 2b 3e 60 5b d2 bd b8 52 80 be 3d a5 66 3f
       0.16783199 -0.10271335 -0.2506311 0.90095884
000090 15 3c e2 3e 70 30 aa 3e cf 33 74 3f b5 1b bd be
       0.44186464 0.3324008 0.95391554 -0.369352
0000a0 aa a4 6e 3e bf 84 5e 3f 68 57 4a bf a1 db 9a bf
       0.23305002 0.86921304 -0.7903962 -1.2098275
0000b0 28 0f 45 be 15 d1 dd be 8a 3f 78 3e 2f eb 90 bf
       -0.19244063 -0.4332358 0.24242988 -1.1321772
0000c0 7d be d7 3d eb e6 eb 3e 10 af f6 be 80 80 6c bc
       0.1053438 0.46074614 -0.48180437 -0.014434934
0000d0 4a c9 03 bf cc 74 59 bf bb 98 78 3e 18 5f 93 bf
       -0.5147902 -0.8494384 0.24277012 -1.1513395
0000e0 33 08 0a 3f be 55 2a 3f e7 5d b3 3e b9 d2 3e 3f
       0.5391876 0.6653708 0.3503258 0.7454029
0000f0 80 61 23 3f b7 19 3e bd df 58 f4 3d ec 0e c8 3e
       0.6382065 -0.046411242 0.11931013 0.39073884
000100 87 41 ba 3d fd dd c0 be cc 13 48 bf f0 c5 71 3d
       0.090945296 -0.37669364 -0.7815521 0.05902666
000110 1c 2c 8f bf 7f bd 39 3e ae c1 4d 3e c4 f3 bd be
       -1.1185336 0.18138693 0.20093414 -0.3710004
000120 cc 80 2c bf c0 2b 00 bd 6d 01 54 3f b6 c7 85 ba
       -0.6738403 -0.031291723 0.82814676 -0.0010206613
000130 c0 21 26 3f 56 e2 12 bf da c8 fd 3e 27 b3 0f 3f
       0.6489525 -0.5737661 0.495673 0.5613274
000140 38 90 5d 3f 6b 29 27 ba 3d 58 a5 3e ee 17 55 3f
       0.86548185 -0.0006376716 0.32293883 0.8323964
000150 40 1a 30 bd be df 9c 3e 9a b3 63 3f 0c 12 b3 be
       -0.042993784 0.30639452 0.88945925 -0.34974706
000160 40 65 8f 3a 40 ba 20 be 47 5f f7 bd 47 fd 4c 3f
       0.0010940209 -0.15696049 -0.120787196 0.8007397
000170 d8 f5 2e bf dc 22 53 bf 80 a9 fb bd c7 84 22 3f
       -0.6834388 -0.82475066 -0.12288189 0.6348385
000180 f1 c5 83 3d 20 f2 e7 bd e6 8b 19 3f 9f 2c 03 3f
       0.06434239 -0.113254786 0.59979093 0.5123996
000190 00 15 9d bc 3d 22 8d bf 5c c2 82 3e e9 52 95 bf
       -0.019175053 -1.1026074 0.2553891 -1.1665927
0001a0 20 fd 39 bf a0 05 f3 be 00 d5 25 3f ba ed 80 bf
       -0.72651863 -0.4746523 0.6477814 -1.0072548
0001b0 0e a5 66 bf ee 25 79 3f 72 9d 78 bf 03 de 28 bf
       -0.90095603 0.973235 -0.9711524 -0.65963763
0001c0 d4 64 2b bf f4 9d bd 3e 38 79 2c 3f a4 b3 e1 3e
       -0.66950727 0.3703457 0.67372465 0.44082367
0001d0 64 a3 a2 be 18 10 ba be 28 fd 85 bb ab b6 43 3f
       -0.31765282 -0.36340404 -0.0040890165 0.76450604
0001e0 c0 71 c2 bc b6 98 09 bf 5f 80 03 3f 0c 92 eb be
       -0.02373588 -0.53748643 0.51367754 -0.46009862
0001f0 9c 1a 18 3f 54 9f 9a be a8 58 c1 be 53 61 80 3f
       0.594156 -0.30199683 -0.37762952 1.0029701
000200 9e 39 a1 3d 94 67 69 3f 00 17 7b be 80 ea 27 bf
       0.07872318 0.9117367 -0.24520493 -0.65592194
000210 2a 9d 84 3e da 60 06 3f a4 58 a6 3e 4c 84 3b bf
       0.25901157 0.52491534 0.32489502 -0.73248744
000220 75 92 19 3e 80 79 d1 be ba eb 29 3e 3a c6 10 3f
       0.14997275 -0.4091301 0.16593829 0.5655247
000230 04 8d 66 3c 49 52 b8 bb 9e 1b 50 3e b8 06 52 bf
       0.014071707 -0.0056250435 0.20323035 -0.820415
000240 ef df d1 3c ee 57 5a bf 8a ca 20 bf ab 6e ae bf
       0.025619475 -0.8529042 -0.6280905 -1.3627523
000250 98 7d 5c 3f d6 60 79 bf 88 ac c1 be ef 06 9e 3e
       0.8612914 -0.97413385 -0.37826943 0.30864665
000260 c8 7c a5 be 68 45 4f bf 1e 39 44 3f 80 89 1f 3f
       -0.32321763 -0.8096528 0.76649654 0.62319183
000270 20 1d 53 be 5f 94 93 3e ec f6 c6 be f0 e4 5a bf
       -0.20616579 0.28824136 -0.3886026 -0.8550558
000280 95 5b fa 3e eb 67 3e bf 10 72 0e bf 33 49 3f 3e
       0.48897997 -0.74377316 -0.55642796 0.18680267
000290 00 00 65 bd c7 a2 5a bf ac e4 ac 3d 00 ea 88 bd
       -0.055908203 -0.8540463 0.08442053 -0.06685257
0002a0 da 1b 73 3f 2f 6d 40 3f 0a 8d 75 3e 37 39 b1 3e
       0.94964373 0.751666 0.23979583 0.34613964
0002b0 08 15 f9 3e 98 84 57 3f 45 38 d7 3d 4e 94 ed be
       0.48648858 0.84186697 0.105087794 -0.4640221
0002c0 88 0e 97 3e cc b7 f8 3e f7 bc 19 3f 49 09 e8 3d
       0.29503274 0.48577726 0.6005396 0.11329896
0002d0 b0 3f 9c be c0 52 75 be 30 5f a6 bf fc 9b 18 3f
       -0.3051734 -0.23957348 -1.2997799 0.59613013
0002e0 98 af 42 be 50 80 24 bf 20 0f 60 bd fb 87 aa bf
       -0.19012296 -0.6425829 -0.054701924 -1.3322748
0002f0 80 00 4b bc f9 68 5d ba 1c fc 1a bf 34 18 9e be
       -0.012390256 -0.0008446123 -0.6054094 -0.3087784
000300 b8 5f 56 bf a2 b1 3e 3f 8d 39 ef 3e 2e 2e ef 3e
       -0.83739805 0.74489796 0.46723595 0.4671492
000310 69 c5 58 3e 48 81 6f bf c1 9d a4 3e a1 4a 56 3f
       0.21169056 -0.9355664 0.32151607 0.83707625
000320 b5 22 04 3f d0 7f 8b be de 42 e7 3e 32 dd 52 3e
       0.5161546 -0.2724595 0.45168203 0.20592192
000330 33 15 4b 3c d0 e8 77 be de 1e 8f 3e 33 0e 9e bf
       0.012395191 -0.24209905 0.27953237 -1.2348083
000340 77 80 fa 3e a5 c9 5c 3f 2a 52 5f 3e c1 8c c1 3e
       0.48926136 0.86245185 0.21808687 0.378027
000350 26 c7 da 3b 10 e1 76 be e0 c3 33 bd 16 5d 0a bf
       0.0066765724 -0.24109292 -0.043887973 -0.5404829
000360 be 02 4e 3f e0 60 6d bf 37 71 04 3e 0b 74 85 3d
       0.80472934 -0.92725945 0.12933813 0.06516274
000370 99 8a 64 bf 5c 83 c5 3c 24 b4 9d bf 8c 3c 9a 3e
       -0.89273983 0.024110489 -1.23206 0.3012432
000380 1a 37 1b 3f 28 11 3c be 1f 51 b0 bd 14 de 6d bf
       0.60630953 -0.1836592 -0.086092226 -0.9291699
000390 16 f4 06 3f 1b bf 81 3e 97 96 48 3f 6a 49 50 3f
       0.52716196 0.25341114 0.7835478 0.8136202
0003a0 42 14 52 b9 42 74 10 bf c8 bd b7 3a 7f 8c 86 bf
       -0.00020034707 -0.56427395 0.0014018351 -1.0511626
0003b0 7e 04 ae 3e ce 88 20 3c 6f 89 d5 b9 a0 a7 d5 bd
       0.33987802 0.009798242 -0.00040728922 -0.104323626
0003c0 3a 7c 4f 3f 1a ab 07 3f 62 7b 5d bf 58 85 85 3e
       0.8104893 0.52995455 -0.8651639 0.26078296
0003d0 86 96 19 bf 84 15 6b 3f da d7 90 3e b9 08 6f 3f
       -0.59995306 0.91829705 0.28289682 0.93372685
0003e0 28 e9 c5 ba 4e cb 7b 3f 17 02 86 3f 4e 91 91 3e
       -0.0015099393 0.98357093 1.0469388 0.2843117
0003f0 08 7d 57 3f 14 87 6a 3e 96 73 5d 3f ee 90 c6 3e
       0.8417516 0.2290309 0.86504495 0.38782448

weight f4 [1, 256]
000000 7e e4 01 3d 5d a4 5f 3d 23 53 ca 3c ea 48 1f 3c
       0.031712048 0.05460011 0.024697846 0.009721974
000010 ee 49 bf 3c e1 f3 1a 3d d0 56 26 3d 01 af 3c bc
       0.023350682 0.037830237 0.040610135 -0.011516334
000020 6b 0d 5f 3c cf 0e 8a bc 39 5f 88 bc ae a6 08 bc
       0.013614039 -0.016852764 -0.016646968 -0.008340521
000030 ee 34 86 3d 5f 5e fd bb b2 91 2c bd 50 12 2b bc
       0.06553064 -0.007732197 -0.042131133 -0.010441378
000040 1c 9a 02 bd 9a 24 0d bb be 1f 72 3d b7 4a 8a 3d
       -0.03188525 -0.0021536709 0.059112303 0.06752532
000050 31 b2 a8 3d 7f f2 6b 3b a2 4e c7 3c aa 2d 47 bd
       0.08237112 0.0036002693 0.024329487 -0.048627533
000060 e7 da 06 3d 06 18 b6 3a e2 28 f9 bc e3 24 da 3c
       0.032923605 0.0013892658 -0.030415002 0.026628917
000070 33 50 28 bc 7e f1 91 3c 54 d9 4a bb 3d 8e 02 bc
       -0.010273027 0.017815348 -0.0030952292 -0.007968483
000080 ac fa 2a bd 16 24 ab bc 4c 6e 9d bc 4e d6 b4 3d
       -0.041742966 -0.02089123 -0.019217633 0.08829938
000090 93 f5 5f bd 8b 43 04 3c 4d 36 ff 3c 36 bb a9 bc
       -0.054677557 0.008072744 0.031153822 -0.020719152
0000a0 1f 88 25 3d 5d 11 89 3a af 37 0f bd c3 6c 7b bb
       0.04041302 0.0010457445 -0.034965213 -0.0038364388
0000b0 9b b1 d6 bb c2 57 9f bd 63 d6 97 bd fa d1 44 bd
       -0.006551934 -0.0778041 -0.07413938 -0.04805181
0000c0 b6 d7 7a bc 93 76 97 3d 46 ea fe bb ab b6 9d ba
       -0.015310219 0.07395663 -0.0077793924 -0.0012032589
0000d0 94 d5 18 bc 04 a8 00 bd f7 f7 3a bd 14 78 85 bc
       -0.009328265 -0.031410232 -0.045646634 -0.01629261
0000e0 d7 3e a0 bb 9b 0e 80 3d 07 55 e9 bc e3 9f c0 bc
       -0.0048903036 0.06252786 -0.028482927 -0.02351374
0000f0 c3 d7 1d bd 13 ee d8 3c e1 7a a3 bc 40 93 bd 3c
       -0.038535845 0.02648071 -0.019956054 0.023141503
000100 60 08 48 bd 7e 68 ca ba 00 e9 9c bc db 8d 01 3d
       -0.048836112 -0.0015442518 -0.019154072 0.031629425
000110 d1 14 88 bd c4 d6 aa 3b 72 5d 83 bd 2f b6 71 3d
       -0.066445954 0.0052135903 -0.06414308 0.059011634
000120 21 23 0a 3b 46 d5 1d bd f2 b9 b4 3d c6 7f 4c bd
       0.0021078067 -0.03853347 0.08824529 -0.04992654
000130 19 2a 26 bc 38 da 0a bd aa b6 7f 3d 6b b1 c4 bc
       -0.010141873 -0.033899516 0.06243006 -0.02401038
000140 5f a1 8c 3b e7 2b c8 bc 8f e7 17 bb 58 b0 2d bd
       0.004291698 -0.024434997 -0.002317879 -0.042404503
000150 0c c3 89 3d fe 97 cb ba a2 38 aa bc ba bd da 3b
       0.06726655 -0.0015532968 -0.020778958 0.006675449
000160 05 f6 51 bd 34 14 83 bb b9 3b a2 3c 77 60 a0 3d
       -0.051260013 -0.004000211 0.019803869 0.07830899
000170 c0 ce 97 ba f9 f1 a3 bb fc 6a 0a 3c dc 66 03 bd
       -0.0011582002 -0.0050032106 0.008448359 -0.032080516
000180 10 a3 02 3c 30 69 6d 3d 31 26 9e bc 43 10 81 3c
       0.007973447 0.057961643 -0.01930532 0.015754825
000190 29 14 24 bc c0 58 5e 3d 53 24 a9 39 17 b9 d3 bc
       -0.010014572 0.054283857 0.00032261256 -0.025845094
0001a0 d7 7c 7a bb b1 ac c2 bc 04 1d 37 bd f7 f0 09 3a
       -0.0038221383 -0.023763986 -0.044705406 0.0005262042
0001b0 55 47 d0 3c e3 73 4a 3c fc 50 25 3d ec d7 a5 bb
       0.025424639 0.012356731 0.040360436 -0.0050611403
0001c0 da ec a5 bd 33 3b c1 3c c4 32 a0 bc 1a 66 da 3c
       -0.081018165 0.023587799 -0.019555457 0.026660014
0001d0 90 60 0a 3d fa 20 8d bb 12 c3 be bc 01 ea a1 3b
       0.033783495 -0.0043069096 -0.023286376 0.0049412255
0001e0 63 bb bb bc 30 2f 8f 3c 63 49 22 3d b7 bd 7f 3a
       -0.022916501 0.017478555 0.03962077 0.0009755748
0001f0 3e f1 0f 3c fe 82 54 3d a2 b7 6a bc 87 10 77 3d
       0.008785544 0.051882736 -0.014326008 0.060318496
000200 f5 91 a5 3c c3 e6 48 3d 5a 07 3a 3d fb 94 6a 3d
       0.0202112 0.049048197 0.045417167 0.057270985
000210 68 e5 1b 3d 89 b2 af bb 4d dd 1b 3d 0b 34 2f 3c
       0.038060576 -0.005361859 0.038052846 0.01069356
000220 ee e8 2f bd 51 63 45 bd 87 52 1a bd e1 68 19 3d
       -0.04294675 -0.04819042 -0.03767636 0.037453536
000230 b3 81 8d bc 0f 8a 75 bb f0 03 f4 bc e2 dc 87 bc
       -0.01727376 -0.0037466323 -0.029787034 -0.016584817
000240 d4 a7 c1 3c 45 0c 31 3d 90 a2 14 3d 3f 8d f5 3c
       0.023639597 0.04322459 0.036287844 0.029974578
000250 12 3e 6d 3d ff a8 09 bb 1d 73 b7 bc 18 61 14 3d
       0.057920523 -0.002100527 -0.022393757 0.03622541
000260 a4 34 a3 3c 6a 5c 34 bd f6 41 55 bc 3b d2 11 3d
       0.019922562 -0.044033445 -0.013016215 0.035600882
000270 75 c8 b0 bc 9f 37 3c bd 92 c2 13 3b 94 5e 18 bc
       -0.02157996 -0.045951482 0.0022546393 -0.009299893
000280 f8 26 99 3c c4 66 84 bd ce 9d b7 bc 4a d7 40 bc
       0.01869534 -0.064649135 -0.022414114 -0.011770079
000290 2b 96 fa 3c 30 ba e6 3c 05 ef 82 3c 74 ff 33 3c
       0.030589184 0.028164953 0.015983114 0.010986198
0002a0 d1 f2 50 3d 45 0c 4a 3d 08 a6 5b bd ab 03 3f bd
       0.051012818 0.049328107 -0.053625137 -0.046634357
0002b0 1b f2 d2 bc 20 99 5a 3d 42 5a d9 bb b9 43 a0 bc
       -0.02575021 0.053368688 -0.006633074 -0.019563543
0002c0 31 39 92 3c 4b 8f eb 3c d6 33 90 3d ae c0 a9 bb
       0.017849537 0.02875485 0.07041137 -0.00518044
0002d0 6a 21 5d 3d de 3f 87 3c 0c db a1 3c cb c3 02 bd
       0.053986944 0.016509946 0.01975777 -0.031925004
0002e0 20 c8 5c 3d 16 aa e3 3c 9d 43 80 3b 88 f0 28 3d
       0.05390179 0.027791064 0.00391431 0.041245013
0002f0 e0 6f 4d 3d 82 34 89 3d b0 3d 44 bc ab 6c 4f 3b
       0.05015552 0.06699468 -0.011977598 0.0031650465
000300 96 96 49 3d f5 dd 2a bd 64 d2 6e bd 75 51 a4 3d
       0.049215876 -0.04171558 -0.058306113 0.08023349
000310 41 d4 35 bd 0c 17 34 3d b1 97 30 3d 76 15 ce bb
       -0.044391874 0.04396729 0.043113414 -0.0062891794
000320 a0 d4 c0 bc 65 86 a0 bc 60 3a 57 bd 99 a8 f3 bc
       -0.023538888 -0.019595334 -0.052545905 -0.02974348
000330 8a e4 16 3d 80 e7 35 bd 2d 5e 2a 3c 76 69 e2 3c
       0.036839046 -0.04441023 0.01039843 0.027638178
000340 8b e2 f2 bc 3f 98 78 bc ca 45 7d bd f9 21 6a 3b
       -0.02964904 -0.015173017 -0.061834134 0.0035725816
000350 c6 04 9f bc 9f 14 be 3c ec 55 f0 3c 62 96 48 bd
       -0.019411456 0.023203192 0.029337846 -0.04897154
000360 7d 47 91 bb 8b 24 28 bc 08 5c 12 3d 94 88 15 3d
       -0.004433571 -0.010262619 0.0357323 0.036507204
000370 6e 7e 0a bd b4 ae 9c bc 1c d9 2b 3c 9a 32 8c bc
       -0.03381198 -0.019126274 0.010488775 -0.017113972
000380 c1 52 2f 3d 61 89 e2 3b 5a 65 07 3d 1d 76 a9 3c
       0.04280353 0.0069133495 0.03305564 0.020686204
000390 49 e5 3e bc 67 09 8b bd ef 0d 04 3d 4b f3 7e 3c
       -0.0116513455 -0.06788903 0.03223985 0.015560935
0003a0 2a 3e 83 3b bb 27 0b bd 79 35 72 3c f4 57 2e bc
       0.0040052133 -0.033973437 0.014783257 -0.010641087
0003b0 e6 ce c4 3c a7 49 db bc ed b9 a6 3c 15 fa 04 3d
       0.024024438 -0.026768519 0.020352328 0.03246506
0003c0 dc 3b e7 bc 36 5b 08 bb a1 1c 74 3c 6c 2f 01 bc
       -0.028226785 -0.002080632 0.014899404 -0.007884841
0003d0 14 aa 1c bd ed 9a eb bc 76 47 84 bc e2 cc 5d bc
       -0.038248137 -0.028760398 -0.016147356 -0.013537617
0003e0 af a1 79 3d ba 37 11 3c 3f b6 7a bc dd 77 15 3c
       0.06094521 0.008863384 -0.01530224 0.009122816
0003f0 1d d9 16 bc 82 13 5b 3d d6 36 9d bd 55 36 fa bc
       -0.009207037 0.0534854 -0.07676475 -0.030543486

weight f4 [256, 1]
000000 66 f6 48 3f 00 47 3b bc 40 0d 24 3e a0 4e 08 bf
       0.78500974 -0.011430502 0.1602068 -0.5324497
000010 9f 26 34 bf c7 c4 5a 3f 14 72 e9 3e e6 f8 55 be
       -0.7037143 0.8545651 0.45594847 -0.20895728
000020 24 c2 17 c0 06 c0 c3 3e 63 93 60 be e4 a3 cd be
       -2.3712244 0.3823244 -0.21931224 -0.401641
000030 14 a9 cc 3e 58 68 88 be cb ff b1 be a4 d4 ce be
       0.39972746 -0.26642108 -0.34765467 -0.40396607
000040 30 20 8d be ca 11 c4 3d 4f 94 26 c0 d8 f3 c4 3e
       -0.2756362 0.095737055 -2.602802 0.38467288
000050 10 9e 47 be fe 67 3d bf fa 11 70 bf c8 9a f9 be
       -0.1949389 -0.73986804 -0.9377743 -0.487509
000060 30 80 9a 3e 0a 0d 27 bf 96 3f 4b 3f d0 f0 bf bd
       0.30175924 -0.6525427 0.793939 -0.09372103
000070 03 ca b3 3e 06 05 29 bf e4 09 ef 3c aa 58 c7 bc
       0.3511506 -0.6602329 0.02917952 -0.02433427
000080 a5 83 db be 0f 7c c4 3e 5c 3f 5a bf 80 13 1f 3c
       -0.42873874 0.383759 -0.8525293 0.009709239
000090 e7 f3 e9 3e 13 79 b2 3d 66 1d 9f 3e 25 fa 36 3f
       0.45693895 0.08714499 0.31077117 0.7147544
0000a0 c8 68 2a bf 11 31 e8 3d 83 a9 89 bf a0 bc ad be
       -0.66566133 0.11337484 -1.0754856 -0.33932972
0000b0 20 04 65 3f b3 ea 16 3f 74 f7 9b be bb 64 03 3f
       0.8945942 0.5895187 -0.3046223 0.5132558
0000c0 4c be 74 bf d3 34 96 3e 0c 7d 90 be 46 5a 22 3f
       -0.9560287 0.29337177 -0.28220403 0.63418996
0000d0 df 63 de bf 80 fa 18 bc 26 d8 13 bf ec 86 be 3e
       -1.7374228 -0.009337068 -0.5775169 0.37212312
0000e0 9e 09 89 bf 50 b1 92 3e 58 0a 66 bd 08 36 c4 3e
       -1.070606 0.28650904 -0.05616221 0.38322473
0000f0 dd de 98 3d f9 6b 5d 3e 40 49 7f bf a6 6d d5 be
       0.07464383 0.2162322 -0.99721146 -0.41685218
000100 e2 2e 54 bf 15 57 6d 3f 3c b1 03 3f aa 53 e8 be
       -0.8288404 0.92711 0.51442313 -0.4537633
000110 da 90 46 3f 5d 41 25 3d 90 43 22 3f b2 60 12 bf
       0.77564776 0.04034554 0.6338434 -0.57178795
000120 f8 4a 9c 3e 91 c6 d0 bd 02 bf 28 bf 18 83 db be
       0.30525947 -0.101941235 -0.65916455 -0.42873454
000130 8c 62 23 3f 7a b6 2a bf c8 3c 19 3f 76 d7 98 3e
       0.63822246 -0.6668469 0.5985837 0.29851884
000140 40 ac 0e bd bd e3 f4 3e 4f 2d 2e 3f c8 12 18 bf
       -0.03483224 0.4783 0.68037885 -0.5940366
000150 7f 0c 7c bf d4 ad c6 3e 52 7c 36 3f fc 69 61 bf
       -0.9845657 0.38804495 0.7128345 -0.88052344
000160 64 4d 6e 3f 83 9e 95 bc f0 37 d3 be a5 9a 24 3f
       0.9308684 -0.01826406 -0.41253614 0.6429847
000170 30 7d 05 bf c8 7e 87 3e b0 5a cd be 1a 1b 2b bf
       -0.52144146 0.26463914 -0.40108252 -0.6683823
000180 88 6e 5f bf f6 63 20 bf bb e0 5c 3f 60 c5 01 3f
       -0.8727803 -0.6265253 0.8628041 0.50691795
000190 8c 66 25 bf dc 0b 36 3f 60 31 e1 3e 12 c3 09 3f
       -0.646096 0.71111846 0.43982983 0.5381328
0001a0 54 84 20 bd 32 47 61 bf 4c f4 5e bf b9 23 9b 3e
       -0.039188698 -0.8799926 -0.8709152 0.30300692
0001b0 51 c7 2b bc 83 fe 7a 3e a4 f5 34 bf 24 f9 ed be
       -0.010484532 0.24511151 -0.7068732 -0.46479142
0001c0 4f c0 18 3f fb f9 22 3e ea 8b 1f bf ba f7 6d bd
       0.5966844 0.15915672 -0.62322867 -0.05809758
0001d0 33 b2 22 3f e6 15 2d 3f f4 eb fb be 9c 4d f5 3e
       0.6355316 0.6761154 -0.49203455 0.47910774
0001e0 b3 7d 6e 3e d8 1c 9d be 5b 93 5d bf c8 70 9c 3e
       0.23290138 -0.3068607 -0.8655297 0.30554795
0001f0 b0 67 f0 be fd f9 64 3e 53 9f 44 bf bc ab 7d 3f
       -0.46954107 0.22360988 -0.7680561 0.9909017
000200 d4 03 fc 3e 60 71 5b be 43 6c 27 bf b6 b0 1e 3c
       0.4922167 -0.21429968 -0.6539957 0.009685686
000210 17 33 cf be f8 0e 21 3f 58 46 27 be 3f df dd 3e
       -0.40468666 0.62913465 -0.16335428 0.43334386
000220 d3 81 64 be 07 71 68 bf 21 ec e2 be 10 5f 27 3f
       -0.22315149 -0.90797466 -0.44320777 0.6537943
000230 e7 24 8d 3e 7a b5 2f 3f e8 9c ec 3e d7 29 5d 3e
       0.27567217 0.68636286 0.4621346 0.21597992
000240 f0 7c 79 bf 10 44 8b 3e 32 f8 39 bf 40 c0 5f bf
       -0.97456264 0.27200365 -0.7264434 -0.87402725
000250 cc 28 35 bf 80 e0 ac bd 02 0e 5b 3e ad f6 28 3f
       -0.70765376 -0.084412575 0.21392062 0.660014
000260 94 37 d6 be b9 3d 42 bf 3c 3e 2e 3f 68 6e e8 3e
       -0.41839278 -0.7587543 0.6806371 0.45396733
000270 06 06 6c 3f e0 46 5d 3e 52 96 37 bf e4 4d 55 bf
       0.9219669 0.21609068 -0.71713746 -0.83321977
000280 fe 5c 4c bf 4d 29 25 3f a6 fa 17 c0 b9 55 32 be
       -0.79829395 0.64516145 -2.3746734 -0.17415513
000290 60 89 0e 3f 90 c5 68 be 84 ee 7d bf 59 ae c8 3e
       0.5567837 -0.22731614 -0.9919207 0.39195517
0002a0 6b b1 53 bd 23 2d 6a bf 43 4b 84 be dc 4f c9 be
       -0.05168287 -0.91475123 -0.2583867 -0.3931874
0002b0 84 75 72 bf de 24 78 3f 54 66 c0 be b4 9c 3a 3e
       -0.94710565 0.96931255 -0.3757807 0.1822384
0002c0 49 d1 73 bc 82 7d 06 bf 2e 79 bb 3e 3c 54 bb 3d
       -0.01488144 -0.5253526 0.3661589 0.09146926
0002d0 a0 1d 10 bf 15 18 70 3e fe be f1 3d 6b 51 22 bf
       -0.56295204 0.23446687 0.11804007 -0.63405484
0002e0 77 1c b2 3e 19 a8 b5 3e 6a da 7f be 38 a0 33 bf
       0.34787342 0.3547981 -0.24985662 -0.7016635
0002f0 c0 16 8b bd e8 7e ad 3e 44 48 f1 3e 72 7c 29 bf
       -0.067914486 0.33885884 0.47125447 -0.66205513
000300 2b d7 fe bd a4 43 5b 3f 89 44 e0 bb 00 32 7a be
       -0.12443384 0.85650086 -0.0068441075 -0.24433136
000310 cf 7c fe 3e e5 f6 5a be 46 0a 51 bf 22 93 0b 3f
       0.49704596 -0.21383245 -0.816563 0.5452138
000320 3f 07 6b bf a1 95 7c be 00 c0 0e bb 7a 47 0e bf
       -0.9180793 -0.24666454 -0.0021781921 -0.55577815
000330 69 af 0a 3f d4 e3 ce be 37 86 3b bd 18 7b 54 be
       0.54173905 -0.40408194 -0.045782294 -0.20750082
000340 ef 36 87 bf 5e 24 38 3f 5a 1d 55 3f 7b 4a c7 bd
       -1.0563639 0.7193049 0.8324791 -0.09731003
000350 30 6b 57 bf 6b 56 c7 3e 77 03 84 3e f9 ac 32 3f
       -0.8414793 0.3893312 0.25783893 0.69795185
000360 d8 21 a9 3c 88 f9 3e 3f 94 0e d7 bc 90 a5 c0 bd
       0.02064602 0.74599504 -0.026252069 -0.094065785
000370 94 e6 fa b8 8c bd bc bd 65 1a 00 3f d5 1d 90 3e
       -0.000119638775 -0.09215841 0.50040275 0.2814776
000380 9c 93 14 c0 38 f0 cb be e0 3c 61 bf f2 d3 a2 3e
       -2.3215094 -0.3983171 -0.8798351 0.31802326
000390 7a a1 93 3e c7 5c c6 bd 68 ae 6e 3f 89 52 06 3f
       0.28834134 -0.096856646 0.9323487 0.5246969
0003a0 34 54 78 3f 60 51 1e be 9c ae 32 3e 45 4e 58 3f
       0.97003484 -0.1546073 0.1744942 0.8449443
0003b0 68 37 aa bc 2e 7c 50 bf 8a 97 a7 be 0f 17 e1 be
       -0.020778373 -0.81439483 -0.32732803 -0.43962905
0003c0 06 c9 27 3f fb 3f cf 3e 6b 16 47 3e 42 21 83 bf
       0.6554111 0.404785 0.19442146 -1.0244524
0003d0 8d 19 25 bf 30 97 e8 3e 9e 03 0b 3e d2 70 90 3e
       -0.6449211 0.45427847 0.13575599 0.28211075
0003e0 af f1 d0 3e c0 ed 30 3d 83 ef de 3d ff 27 63 bf
       0.4080939 0.043195486 0.10885527 -0.88732904
0003f0 9e a3 6f bf fe 10 0c 3f 6d 65 94 3e 23 77 be 3d
       -0.93609035 0.5471343 0.28983632 0.09300067
