checkpoints/81302400.ckpt (torch, 122663 bytes, 33 tensors)

weight f4 [256, 18]
0.13965173 -0.12380408 -0.1185191 -0.12997478 0.2718814 -0.13707651 -0.22364669 -0.15622842
0.1164862 0.029715031 0.10711908 0.042582355 0.14340736 -0.16159312 0.21206781 -0.07806748
0.20997187 0.17308971 0.008419266 0.13568267 0.15184373 0.07099376 0.14776507 -0.06932346
-0.17293786 -0.13577437 0.006983828 -0.16545969 -0.17723553 0.0006346669 0.10668126 0.07016111
0.0755697 0.053320594 0.23052949 -0.01158768 -0.086912975 -0.11692111 -0.05614471 -0.053227596
-0.21731065 0.056319736 -0.09694287 -0.29788914 -0.08464117 -0.059323743 0.026869275 -0.0127910245
-0.02583595 -0.104020484 0.048138317 0.06510972 -0.16800874 0.116623566 -0.10518583 0.09971723
0.112689294 0.10303599 -0.015594015 -0.014293048 -0.17810318 -0.016962055 -0.003068565 -0.18291625
-0.2331465 -0.1612461 0.16250426 0.22291352 0.09589437 -0.22157545 -0.11688017 -0.04687089
-0.12781043 -0.19318704 -0.09850011 0.18697007 -0.15307014 -0.11754331 0.075446226 -0.21224056
0.054055873 0.19869152 0.09637509 -0.00028683775 0.052298184 -0.12619036 0.15775524 0.08677111
0.09897989 -0.22664648 0.02710128 0.03808357 -0.005447628 0.012362175 -0.03230172 0.22849573
-0.11179694 -0.1262775 -0.15410139 -0.014379201 0.06518391 0.00232706 0.0053752665 -0.11796138
-0.08175928 -0.025758285 -0.10641449 -0.1411206 -0.12551142 -0.221588 -0.14681822 -0.03584901
-0.21144345 -0.054128427 0.020797458 0.13813516 -0.07623503 -0.12101806 0.14483877 -0.07316911
0.032498512 0.13294226 0.052992467 0.14878605 0.17512564 0.026885735 -0.087047935 0.05822011
0.063450426 -0.09845371 -0.21097042 0.12795922 -0.08290133 0.013928062 0.07514259 -0.07313866
0.012712254 -0.14162274 -0.020623215 0.1140474 -0.006127451 -0.0672838 -0.032156706 0.055913508
-0.051362474 -0.13952409 -0.077362545 0.10862813 0.054843165 0.20801027 -0.1150574 -0.0041693165
-0.22525032 0.089050464 -0.17397848 -0.0061362893 -0.070533045 -0.046987075 0.0142857665 0.14646032
-0.21871237 -0.0318362 -0.25685605 0.09598364 0.1313039 -0.079063386 0.023233427 0.059167538
-0.09606597 0.16966526 -0.018058814 0.1181933 0.04268659 -0.1584976 -0.112307385 0.040652294
0.10936157 0.048651658 0.014096753 -0.0038605856 0.33693242 -0.037951156 0.039627418 0.067055024
0.24515496 0.1896588 -0.105929025 0.21563606 -0.24223101 -0.09364007 -0.18425551 0.06167474
0.12722129 0.03915473 0.09449235 0.022185767 0.16324922 -0.042117253 0.12945695 0.10599474
-0.030346295 -0.011881893 -0.035959408 -0.1597092 -0.15638457 0.02858017 0.14980493 -0.13693377
-0.031501144 -0.034973808 0.06327087 0.026094215 0.020301744 -0.13720958 0.0651837 0.01700627
0.06729951 0.13581045 0.08287987 -0.1138593 -0.24164441 -0.16101451 -0.079609916 0.08636363
0.06237154 -0.006419801 -0.11343547 0.013415619 0.014543406 -0.0045190114 0.09203167 -0.03077964
-0.09038159 0.032794148 0.16275173 -0.11704967 0.12384529 -0.041027214 -0.05638545 -0.19091439
0.15983842 -0.122355886 0.13961382 0.15436043 -0.038575787 0.13390797 -0.10394301 0.104981855
-0.1593708 -0.20206411 -0.122981034 -0.19012679 0.061012805 -0.011287466 -0.0001797068 0.0037951223
00000000: dd00 0f3e fe8c fdbd 24ba f2bd 1c18 05be
00000010: 0a34 8b3e c95d 0cbe a303 65be 58fa 1fbe
00000020: 5190 ee3d f06c f33c 4061 db3d d66a 2e3d
00000030: 61d9 123e ab78 25be 4e28 593e d8e1 9fbd
00000040: de02 573e 6e3e 313e f6f0 093c 66f0 0a3e
00000050: ec7c 1b3e 2d65 913d ba4f 173e 75f9 8dbd
00000060: 9f16 31be 7008 0bbe 98d8 e43b 446e 29be
00000070: 3b7d 35be c65f 263a b47b da3d a1b0 8f3d
00000080: 49c4 9a3d b266 5a3d ec0f 6c3e 41da 3dbc
00000090: 6eff b1bd 5674 efbd fff7 65bd 2e05 5abd
000000a0: af86 5ebe 86af 663d fc89 c6bd ed84 98be
000000b0: 5a58 adbd 74fd 72bd f41c dc3c 7291 51bc
000000c0: eaa5 d3bc b108 d5bd af2c 453d 3f58 853d
000000d0: 7c0a 2cbe 56d8 ee3d ab6b d7bd 8c38 cc3d
000000e0: a5c9 e63d 8804 d33d 0a7e 7fbc 632d 6abc
000000f0: ae60 36be 02f4 8abc fa19 49bb 664e 3bbe
00000100: f5bd 6ebe b31d 25be 8467 263e 7143 643e
00000110: 4464 c43d ade4 62be df5e efbd b1fb 3fbd
00000120: bde0 02be d3d2 45be 6dba c9bd 1575 3f3e
00000130: 6bbe 1cbe 8cba f0bd 8d83 9a3d 9755 59be
00000140: b169 5d3d ca75 4b3e 4e60 c53d b662 96b9
00000150: 9f36 563d 0c38 01be 978a 213e 0db5 b13d
00000160: f8b5 ca3d 0416 68be 8103 de3c 84fd 1b3d
00000170: 0482 b2bb b88a 4a3c cf4e 04bd c9fa 693e
00000180: cbf5 e4bd e44e 01be c1cc 1dbe be96 6bbc
00000190: 247f 853d 9781 183b 0123 b03b bc95 f1bd
000001a0: 6971 a7bd 0a03 d3bc d7ef d9bd eb81 10be
000001b0: 1186 00be f7e7 62be 8457 16be 69d6 12bd
000001c0: a284 58be c5b5 5dbd 6e5f aa3c 4e73 0d3e
000001d0: 1d21 9cbd 51d8 f7bd 9d50 143e b0d9 95bd
000001e0: 291d 053d 0422 083e a10e 593d 5f5b 183e
000001f0: 2354 333e 793f dc3c 3046 b2bd 3678 6e3d
00000200: 4cf2 813d 19a2 c9bd a108 58be be07 033e
00000210: 2cc8 a9bd 8732 643c 5ce4 993d b9c9 95bd
00000220: 0f47 503c 8d05 11be 04f2 a8bc af91 e93d
00000230: c9c8 c8bb 17cc 89bd c0b6 03bd 9005 653d
00000240: 7561 52bd 67df 0ebe 4170 9ebd 6d78 de3d
00000250: 3aa3 603d a500 553e 37a3 ebbd c39e 88bb
00000260: 05a8 66be 1760 b63d 6a27 32be ed12 c9bb
00000270: a173 90bd 8575 40bd d90e 6a3c b2f9 153e
00000280: 23f6 5fbe ad66 02bd a382 83be 1293 c43d
00000290: 8874 063e fceb a1bd 0754 be3c a959 723d
000002a0: 3cbe c4bd bbbc 2d3e 14f0 93bc 540f f23d
000002b0: 22d8 2e3d 324d 22be 6a01 e6bd 0583 263d
000002c0: f5f8 df3d f646 473d 11f6 663c e101 7dbb
000002d0: 6882 ac3e ac72 1bbd 5c50 223d 2554 893d
000002e0: e709 7b3e eb35 423e 51f1 d8bd b3cf 5c3e
000002f0: 680b 78be 5dc6 bfbd 7aad 3cbe a79e 7c3d
00000300: 4c46 023e b660 203d 3585 c13d edbe b53c
00000310: ce2a 273e 2483 2cbd 5d90 043e c513 d93d
00000320: cb98 f8bc 45ac 42bc 2c4a 13bd cf8a 23be
00000330: 4723 20be f620 ea3c 7766 193e 5e38 0cbe
00000340: 5807 01bd b240 0fbd 2894 813d 89c3 d53c
00000350: d84f a63c ab80 0cbe 087f 853d bc50 8b3c
00000360: 53d4 893d e511 0b3e ecbc a93d 112f e9bd
00000370: a271 77be fde0 24be 860a a3bd 6adf b03d
00000380: 4d79 7f3d 325d d2bb db50 e8bd 2fcd 5b3c
00000390: 7747 6e3c 3714 94bb 1a7b bc3d 9525 fcbc
000003a0: fc19 b9bd 2853 063d 64a8 263e bdb7 efbd
000003b0: 99a2 fd3d 270c 28bd 6ef4 66bd 107f 43be
000003c0: afac 233e b995 fabd edf6 0e3e a910 1e3e
000003d0: a501 1ebd 2c1f 093e 13e0 d4bd ba00 d73d
000003e0: 1932 23be e5e9 4ebe 7bdd fbbd 99b0 42be
000003f0: 90e8 793d 10ef 38bc ad6f 3cb9 96b7 783b

bias f4 [256]
0.21251796 -0.024278857 -0.019630162 0.043132123 -0.16000473 0.06577023 -0.1982353 0.1715604
0.12854998 0.07658906 0.04944146 0.17345676 -0.24493681 -0.21120845 -0.045306705 -0.06537474
0.08541368 0.16158953 -0.038096007 0.034122877 -0.03350182 0.006175416 0.09592681 0.015842816
-0.10066939 -0.29798362 -0.007089441 0.040498286 -0.032277558 0.13620798 0.16103506 -0.1439529
-0.17502536 -0.17354812 -0.22049299 -0.0012215631 -0.25465205 -0.051966097 -0.31416637 -0.08170936
-0.25734714 0.11178147 -0.111699484 -0.21859172 0.08278968 0.18588316 0.16753162 -0.27794337
0.10003831 -0.045213297 -0.22009113 -0.13551301 -0.13765503 0.06888771 -0.06996033 0.03707241
-0.13334312 -0.0755878 0.06389497 -0.025345696 0.0068016555 -0.24546534 -0.23873495 0.07906752
0.11527745 -0.034908976 -0.16037434 0.014377014 -0.09425014 0.14102647 -0.13696395 0.11428782
0.114295155 -0.19426201 0.07762546 -0.15540504 -0.08197321 0.0048794253 0.01401474 0.19556764
-0.039995056 0.14180599 0.014927656 -0.051006537 -0.11426957 0.123467036 0.062801175 0.10949073
0.046501227 -0.21381685 -0.038298473 -0.033593204 -0.077436484 -0.22037584 -0.16339597 0.1565788
0.20778793 0.03727721 0.1990036 -0.16361436 -0.2462884 0.16732974 0.06292577 -0.1807172
0.06466042 -0.13157259 0.2095225 0.15717614 -0.006179561 -0.14497596 0.13690583 -0.2596671
-0.16529013 0.1405168 0.00933526 -0.091111735 0.1840015 -0.14397213 0.14194424 -0.1707413
-0.024081096 -0.054643538 -0.12405023 0.054807752 -0.11768059 0.035112515 -0.0679178 -0.11584216
0.11712775 -0.096100606 0.23088315 0.06569668 0.0411332 -0.08811514 -0.21775647 -0.0007750203
-0.043917585 0.030005755 0.02832863 -0.049439836 -0.24935168 0.08802526 -0.15911204 -0.083732165
-0.2165537 0.12978254 -0.1849901 -0.02347368 -0.0076329447 -0.2018311 0.0727089 -0.11536551
-0.13302845 -0.30939394 -0.038722795 -0.12031272 0.022142956 -0.06367327 0.19731346 0.013741006
-0.017730143 -0.14629714 -0.12883748 0.1824048 -0.058238395 -0.04812596 0.03883789 0.14954692
-0.09573071 0.1343439 -0.006352833 -0.24711914 -0.11915274 -0.21669395 -0.26916254 0.16103487
-0.1972331 0.14126125 -0.18056035 0.05236399 0.18131366 -0.30637383 0.057482585 -0.2965113
0.060199283 -0.20663285 0.2128137 -0.1621484 0.16666964 -0.24601254 -0.2090331 0.05571409
0.08100994 -0.07786822 0.13261425 -0.09075899 0.09706435 -0.2015353 0.113888025 -0.0235539
-0.109433144 -0.054785732 -0.06451333 0.03055367 -0.048137955 0.07563373 -0.30066738 0.013990283
-0.1308649 -0.14353836 -0.096587785 0.0761268 0.05017955 0.16662487 -0.064139605 -0.0775813
0.08160096 0.062375665 -0.1839538 -0.247902 0.19870366 0.1060452 0.16537187 -0.09063948
-0.077399254 -0.08944144 0.112578645 -0.061892185 -0.039525326 0.027823964 0.14735457 0.08305873
0.024516582 0.08617475 0.15141617 0.103296414 0.094221346 0.19396447 0.093912415 -0.08501785
0.08015451 -0.20311081 -0.09209259 0.039600946 0.18598783 -0.21393396 0.03890102 -0.040100247
-0.14073405 -0.12956145 -0.16491085 -0.2367666 -0.22938919 -0.010916816 -0.03229943 -0.1941755
00000000: 4f9e 593e 74e4 c6bc 6fcf a0bc 4fab 303d
00000010: 48d8 23be 8bb2 863d 32fe 4abe 88ad 2f3e
00000020: 9ba2 033e bada 9c3d 2183 4a3d a69e 313e
00000030: b7d0 7abe 0747 58be 8693 39bd 31e3 85bd
00000040: 5eed ae3d ba77 253e 8f0a 1cbd 6ec4 0b3d
00000050: 3439 09bd 255b ca3b 4675 c43d cbc8 813c
00000060: c12b cebd 4f91 98be 8b4e e8bb 88e1 253d
00000070: 7935 04bd 1b7a 0b3e 60e6 243e 6468 13be
00000080: d939 33be 99b6 31be eac8 61be db1c a0ba
00000090: c161 82be 67da 54bd 6ada a0be 3d57 a7bd
000000a0: 01c3 83be afed e43d b3c2 e4bd 82d6 5fbe
000000b0: a38d a93d 2858 3e3e 698d 2b3e 984e 8ebe
000000c0: e3e0 cc3d 9431 39bd 925f 61be ecc3 0abe
000000d0: 71f5 0cbe 0015 8d3d 5d47 8fbd 3dd9 173d
000000e0: 198b 08be c7cd 9abd 5edb 823d c7a1 cfbc
000000f0: 6ce0 de3b 445b 7bbe ef76 74be 27ee a13d
00000100: 9516 ec3d b7fc 0ebd 2c39 24be 918d 6b3c
00000110: 3806 c1bd 3e69 103e 4740 0cbe bc0f ea3d
00000120: 9413 ea3d 9fec 46be 19fa 9e3d 8022 1fbe
00000130: 92e1 a7bd 96e3 9f3b 149e 653c e242 483e
00000140: dbd1 23bd 9735 113e 2193 743c 3bec 50bd
00000150: 2a06 eabd 49dc fc3d e79d 803d ad3c e03d
00000160: 1278 3e3d cef2 5abe dcde 1cbd 0799 09bd
00000170: 0597 9ebd 34aa 61be 4651 27be 3156 203e
00000180: 5cc6 543e fdaf 183d 9ac7 4b3e 868a 27be
00000190: 0733 7cbe 7d58 2b3e 3adf 803d ee0d 39be
000001a0: af6c 843d f7ba 06be 118d 563e c8f2 203e
000001b0: ea7d cabb 9474 14be 0b31 0c3e 16f3 84be
000001c0: d141 29be a3e3 0f3e ebf2 183c ca98 babd
000001d0: e46a 3c3e 6e6d 13be d559 113e cfd6 2ebe
000001e0: b845 c5bc e7d1 5fbd 0c0e febd 187e 603d
000001f0: 8502 f1bd 24d2 0f3d 7d18 8bbd a83e edbd
00000200: ace0 ef3d 65d0 c4bd a26c 6c3e fb8b 863d
00000210: 497b 283d b675 b4bd 8dfb 5ebe bb2a 4bba
00000220: ede2 33bd a1ce f53c 7111 e83c 6d81 4abd
00000230: 0c56 7fbe 9646 b43d 44ee 22be c57b abbd
00000240: 41c0 5dbe b7e5 043e 0b6e 3dbe e04b c0bc
00000250: c81d fabb d0ac 4ebe 67e8 943d c144 ecbd
00000260: 9c38 08be e268 9ebe cb9b 1ebd 8466 f6bd
00000270: 2565 b53c 2267 82bd 8a0c 4a3e f521 613c
00000280: ce3e 91bc ebce 15be f9ed 03be 53c8 3a3e
00000290: 628b 6ebd ba1f 45bd 7b14 1f3d d422 193e
000002a0: 760e c4bd 7391 093e 6d2b d0bb cd0c 7dbe
000002b0: 5a06 f4bd 05e5 5dbe accf 89be 53e6 243e
000002c0: 79f7 49be caa6 103e d0e4 38be a07b 563d
000002d0: 4aaa 393e 08dd 9cbe dc72 6b3d 54d0 97be
000002e0: 8693 763d 9097 53be d6eb 593e 3b0a 26be
000002f0: 72ab 2a3e b6ea 7bbe c60c 56be 7534 643d
00000300: 8ae8 a53d 6079 9fbd 08cc 073e d9df b9bd
00000310: adc9 c63d 455f 4ebe 203e e93d 1cf4 c0bc
00000320: 7c1e e0bd 0167 60bd 911f 84bd b14b fa3c
00000330: 4e2c 45bd dbe5 9a3d 13f1 99be 8037 653c
00000340: 7301 06be b8fb 12be d1cf c5bd 5ee8 9b3d
00000350: 1289 4d3d b69f 2a3e a05b 83bd f2e2 9ebd
00000360: 671e a73d a07d 7f3d 635e 3cbe 06da 7dbe
00000370: f978 4b3e 3a2e d93d 3e57 293e 31a1 b9bd
00000380: 8083 9ebd 132d b7bd a28f e63d a982 7dbd
00000390: 4fe5 21bd 15ef e33c 1ee4 163e b21a aa3d
000003a0: 00d7 c83c 637c b03d d70c 1b3e 128d d33d
000003b0: 1ff7 c03d 9f9e 463e 2755 c03d d71d aebd
000003c0: 0c28 a43d 48fc 4fbe 0a9b bcbd 9a34 223d
000003d0: 9873 3e3e 8111 5bbe ad56 1f3d 2840 24bd
000003e0: 961c 10be c2ab 04be 64de 28be f272 72be
000003f0: 00e5 6abe 72dc 32bc 684c 04bd f1d5 46be

weight f4 [1, 256]
-0.0445616 -0.020194521 0.01634679 0.058362834 0.017557265 0.004186334 -0.023186598 0.008057041
-0.021641174 0.012994967 -0.08430437 0.0031247837 0.035872903 -0.029771749 -0.001190522 -0.0006251357
-0.01309292 -0.090503536 -0.026695266 -0.016152196 -0.01064986 -0.027251251 -0.009272465 -0.020150622
-0.019852446 0.032796204 0.021631518 0.002147575 0.06951002 0.04284084 0.05335591 0.04363945
0.04177642 -0.030077646 -0.0041644387 0.022363773 -0.041555002 0.0059773605 0.0044348873 -0.04161399
0.017018214 0.06551043 0.011227004 0.018999692 -0.022673324 -0.021452751 -0.03395018 0.08178448
-0.001398682 -0.026795298 0.046140913 0.0013900275 -0.0074784057 0.023809468 0.09255151 -0.010479277
0.013323731 -0.00450948 -0.021989118 -0.011663526 -0.043937236 -0.09125272 0.07171539 0.004846876
0.021160077 -0.0020227071 0.0025994128 0.012712831 -0.02588554 0.04551982 -0.018029138 -0.024808792
0.07254683 -0.031423714 0.028379142 -0.028535752 -0.035308175 -0.0006349849 -0.05731338 0.010187659
0.0066268854 -0.06507161 0.026426222 -0.026151136 0.08729983 0.07001337 -0.068014294 -0.1085744
-0.05305998 0.07875834 0.038956143 0.021441756 -0.095626056 -0.010407134 0.059862446 -0.016097113
0.00012182133 0.083245926 0.012490571 0.044770833 0.0661855 -0.047193483 0.051703468 0.0033357653
0.047950532 -0.01316339 -0.036346104 -0.027609257 0.024133002 -0.039390173 0.013014744 0.07926851
-0.007150847 -0.0026825913 -0.04310695 0.0155858835 0.015212953 -0.047625896 -0.082700424 -0.005758806
-0.055417176 0.046676047 0.0018695554 -0.057724886 0.063649364 -0.021092273 -0.014759299 0.10214641
-0.085465975 -0.009287708 -0.08509747 0.08258903 0.035347532 -0.047068093 -0.014093859 0.026418235
-0.006211857 0.05894083 0.021803267 0.06727643 0.027098266 -0.044139538 -0.02790798 0.0041674734
0.0028227277 -0.003942097 0.033764165 0.0068481932 -0.045923114 0.016316557 0.018703151 0.031898215
-0.011548321 0.010056333 -0.042837095 0.031578705 0.012530523 0.024793962 -0.034729358 -0.047205724
-0.05806779 -0.054657992 0.0454358 -0.011762617 0.002779451 -0.0057856496 0.0139765125 0.022163283
0.008399179 0.002781734 0.010306103 -0.04658839 -0.025770485 -0.03873844 0.09630853 0.0077898093
-0.044256482 0.004803147 0.012463019 -0.10749737 0.02537885 0.0027126526 0.1027098 0.058316264
0.014838601 -0.048677977 0.011133964 -0.040846307 0.01432179 0.00051939604 0.0062711593 0.011106948
0.03792261 -0.026213573 0.048904397 -0.0011958245 0.0033634715 -0.04577753 0.03828759 -0.019106876
0.0072189053 0.003674089 0.0148533685 -0.029848272 -0.053871047 -0.0068873568 0.06392681 0.017590418
0.021022081 -0.015292706 0.0077579618 0.013109238 0.052444365 -0.028541388 0.080356635 -0.05146182
0.0025669981 -0.06520186 -0.034070138 -0.0095946975 -0.060019523 -0.040138148 -0.04481646 -0.025564384
0.0028118617 -0.014720219 -0.007427614 -0.011305863 -0.022751348 0.010042453 -0.13133973 0.0048185023
0.045834377 -0.019529922 -0.01957686 0.0037291958 0.0047975285 -0.055118762 0.008102136 -0.09674251
-0.007178788 -0.070710965 0.05776206 0.047069095 -0.009368357 -0.0021454673 -0.024417728 0.09004699
-0.051975563 -0.023511697 0.025299145 0.033752117 0.052923545 -0.0039554304 -0.020473806 -0.035193454
00000000: 3986 36bd fb6e a5bc b4e9 853c de0d 6f3d
00000010: 41d4 8f3c 842d 893b d2f1 bdbc ae01 043c
00000020: d548 b1bc d8e8 543c c5a7 acbd 2cc9 4c3b
00000030: 77ef 123d e2e3 f3bc 4a0b 9cba 26e0 23ba
00000040: b083 56bc eb59 b9bd 08b0 dabc 9c51 84bc
00000050: c07c 2ebc 043e dfbc 89eb 17bc eb12 a5bc
00000060: 99a1 a2bc 5055 063d 9534 b13c 54be 0c3b
00000070: 455b 8e3d e079 2f3d ba8b 5a3d 48bf 323d
00000080: c01d 2b3d 6565 f6bc d875 88bb 3b34 b73c
00000090: 9435 2abd bcdd c33b 8852 913b 6e73 2abd
000000a0: c869 8b3c 552a 863d 78f1 373c 3ea5 9b3c
000000b0: 68bd b9bc aebd afbc 580f 0bbd 9f7e a73d
000000c0: fb53 b7ba d081 dbbc 41fe 3c3d 9531 b63a
000000d0: 6a0d f5bb 130c c33c a58b bd3d 46b1 2bbc
000000e0: c74b 5a3c 43c4 93bb 8622 b4bc 6018 3fbc
000000f0: 88f7 33bd b5e2 babd 85df 923d 8bd2 9e3b
00000100: e657 ad3c 658f 04bb e95a 2a3b 7a49 503c
00000110: e90d d4bc fe72 3a3d d8b1 93bc cf3b cbbc
00000120: 6f93 943d 27b6 00bd 607b e83c cfc3 e9bc
00000130: 4e9f 10bd 1e75 26ba 6fc1 6abd 24ea 263c
00000140: 5826 d93b 4444 85bd ce7b d83c e83a d6bc
00000150: 41ca b23d 2b63 8f3d 144b 8bbd 415c debd
00000160: 6c55 59bd 0d4c a13d 7a90 1f3d 9fa6 af3c
00000170: 98d7 c3bd af82 2abc 5332 753d 18de 83bc
00000180: 547a ff38 d77c aa3d 40a5 4c3c 9f61 373d
00000190: 438c 873d f44d 41bd 04c7 533d db9c 5a3b
000001a0: c767 443d 42ab 57bc a7df 14bd cf2c e2bc
000001b0: 93b2 c53c 9757 21bd cb3b 553c 8757 a23d
000001c0: a751 eabb 6ace 2fbb ea90 30bd ef5b 7f3c
000001d0: c03f 793c 5f13 43bd d75e a9bd 5eb4 bcbb
000001e0: 1ffd 62bd 622f 3f3d df0b f53a ee70 6cbd
000001f0: 995a 823d b4c9 acbc fdd0 71bc 2332 d13d
00000200: c908 afbd 792b 18bc 9547 aebd 7024 a93d
00000210: 93c8 103d 79ca 40bd eee9 66bc 0e6b d83c
00000220: d58c cbbb f16b 713d c49c b23c 3ac8 893d
00000230: 2ffd dd3c a9cb 34bd 479f e4bc 4d8f 883b
00000240: 83fd 383b b52c 81bb 4b4c 0a3d cf66 e03b
00000250: e019 3cbd 4daa 853c 5a37 993c b4a7 023d
00000260: 2b35 3dbc 51c3 243c f375 2fbd ac58 013d
00000270: d34c 4d3c b51c cb3c 5f40 0ebd ca5a 41bd
00000280: 7ed8 6dbd 0fe1 5fbd e41a 3a3d feb7 40bc
00000290: 7327 363b 8c95 bdbb befd 643c c68f b53c
000002a0: b69c 093c c14d 363b eeda 283c 78d3 3ebd
000002b0: a01c d3bc 33ac 1ebd 683d c53d a841 ff3b
000002c0: 4946 35bd b863 9d3b b131 4c3c 9527 dcbd
000002d0: 4ee7 cf3c c2c6 313b 8459 d23d 09dd 6e3d
000002e0: 9b1d 733c 8f62 47bd 3b6b 363c 754e 27bd
000002f0: f1a5 6a3c 1428 083a 4c7e cd3b ebf9 353c
00000300: bd54 1b3d d9bd d6bc fa4f 483d 36bd 9cba
00000310: b06d 5c3b 3881 3bbd 73d3 1c3d 0686 9cbc
00000320: 918c ec3b fcc8 703b 8b5b 733c 5d84 f4bc
00000330: e3a7 5cbd 56af e1bb 0fec 823d c819 903c
00000340: 8036 ac3c 428e 7abc 8036 fe3b 21c8 563c
00000350: e7cf 563d a1cf e9bc 0592 a43d a1c9 52bd
00000360: 153b 283b 8e88 85bd 218d 0bbd 1433 1dbc
00000370: 08d7 75bd e667 24bd 7791 37bd 666c d1bc
00000380: 3647 383b 132d 71bc 5863 f3bb 3a3c 39bc
00000390: 0961 babc 1a89 243c ec7d 06be 87e4 9d3b
000003a0: d4bc 3b3d 37fd 9fbc a75f a0bc 8665 743b
000003b0: 9634 9d3b 36c4 61bd d2be 043c f020 c6bd
000003c0: 0a3c ebbb e9d0 90bd e997 6c3d 86cb 403d
000003d0: bd7d 19bc f89a 0cbb b007 c8bc 8e6a b83d
000003e0: 54e4 54bd 9a9b c0bc 2740 cf3c a93f 0a3d
000003f0: 5cc6 583d 8e9c 81bb afb8 a7bc 0327 10bd

weight f4 [256, 1]
0.5694666 -0.01763371 0.58770376 0.7606374 0.8936736 0.045323845 0.67332333 0.3640756
-0.96307814 -0.5500223 0.20169073 -0.9240372 -0.07408389 -0.94455963 -0.7034594 0.6778109
0.36540538 0.1049242 -0.7485837 -0.30152965 -0.90093064 -0.45211923 0.57989824 0.54157704
0.686199 -0.79609895 0.39495644 -0.19216539 -0.80613935 0.80555403 -0.5204662 -0.37586528
-0.048131704 0.043539744 -0.15772486 0.36806452 -0.5718901 0.6378321 0.2917054 0.008359903
0.80044174 -0.7237898 0.16981259 0.24771197 -0.785763 0.075552225 0.26992014 0.46133354
-1.4519423 -0.6502521 -0.2912192 -0.65869415 0.6641804 -0.43370366 -0.12163806 0.43885508
0.3727347 -0.49612856 0.06736863 -0.6665957 -0.03278574 -0.096273735 -0.21868216 0.59553546
-0.36173868 0.32757866 0.65520823 0.33899915 0.41985878 0.5913474 0.3247737 -0.5332726
-0.6744312 0.25478008 0.69348603 -0.8308363 -0.21355228 0.19633722 0.06877199 -0.2575401
-0.14795923 0.014991045 0.65439993 0.24914321 0.41542235 0.78899026 0.87880284 -1.0683005
-0.11164124 0.5857475 0.03980565 0.91031843 -0.5938235 0.9626658 -0.25994372 -0.24081792
-0.5315683 0.3960672 0.26852053 -0.13196665 -0.62044775 0.62496156 0.69637686 -1.1242827
0.8088562 0.13070284 0.24215934 -0.8529017 0.22372712 0.32140905 0.7151929 -1.1657197
0.44636008 0.052866813 -0.604923 -0.7540773 -0.46216255 0.7230076 0.29539776 0.64658475
0.82406473 0.18073596 -0.011581105 -0.8260214 -0.87442017 0.15572684 -0.48926783 0.5011276
0.11351658 -0.56636524 0.026368141 0.36536774 -0.09584873 -0.14900088 -0.07439955 -0.18055642
-0.9820715 0.9015183 -0.496178 0.22123331 0.2486549 0.28828967 -0.013041019 0.8946388
0.50490195 0.30879736 -0.029146552 0.39601254 0.23160568 0.8526908 0.17351224 0.375351
0.8057887 -0.13689363 0.26731446 -0.9379822 0.37510625 0.5367676 0.6278745 0.9309745
0.48303768 -0.28217575 0.389206 -0.035488423 -0.8257079 -0.20965278 0.60192287 0.126658
0.907159 -0.11873448 0.09821604 0.72514915 0.15407336 0.04917968 0.7375829 -0.13783276
0.39806157 0.010571361 0.922441 0.7280664 -0.5730264 -0.620168 -0.27263927 -0.27470773
-0.827952 -0.2402574 -0.57580686 0.39993104 -0.16423595 -0.0048260344 0.550517 0.03181607
0.42782894 -0.45118344 0.41176504 0.5318475 -0.3463937 -0.38015664 -0.92776746 0.23351735
-0.89107275 -0.61175823 -0.5219105 -0.7317325 -0.22596073 0.50472414 0.11340047 0.3197908
0.847464 0.2216982 0.20797586 -0.6670269 0.29431015 0.6498087 0.5745681 0.6597068
-0.98085725 0.6387528 0.7075557 0.1137116 -0.84686387 -0.4079355 0.33100608 0.859118
0.9498951 0.5659222 -0.9613364 -0.9429298 -0.057276845 -0.00966445 0.55691713 0.059779942
0.1061425 -0.35202348 0.963053 -0.33598292 -0.36610964 -0.5660335 0.83169633 0.85005474
0.03675454 0.7165127 0.45833394 -0.2703178 -0.15016854 -0.9101138 0.63118225 -0.95183265
0.563849 -1.2529267 -0.83971024 0.62647367 -0.7009728 0.8183748 0.17665426 -0.07426536
00000000: 90c8 113f 9274 90bc c173 163f 22b9 423f
00000010: cbc7 643f 7fa5 393d eb5e 2c3f 1e68 ba3e
00000020: 4a8c 76bf 43ce 0cbf 0488 4e3e b48d 6cbf
00000030: 4bb9 97bd a9ce 71bf ea15 34bf 0485 2d3f
00000040: 6a16 bb3e 80e2 d63d 2ea3 3fbf 1862 9abe
00000050: 64a3 66bf 2c7c e7be 3674 143f cba4 0a3f
00000060: bdaa 2f3f 24cd 4bbf bb37 ca3e 01c7 44be
00000070: 265f 4ebf ca38 4e3f 463d 05bf 6a71 c0be
00000080: c025 45bd bb56 323d a082 21be f472 bc3e
00000090: 6467 12bf f748 233f 695a 953e f9f7 083c
000000a0: c0e9 4c3f 4a4a 39bf 5ae3 2d3e 35a8 7d3e
000000b0: c427 49bf 20bb 9a3d f932 8a3e e933 ec3e
000000c0: 3fd9 b9bf ec76 26bf af1a 95be 2ea0 28bf
000000d0: ba07 2a3f 680e debe 601d f9bd 9db1 e03e
000000e0: 15d7 be3e 9004 febe 90f8 893d 04a6 2abf
000000f0: 574a 06bd 2a2b c5bd 37ee 5fbe 0375 183f
00000100: d035 b9be 64b8 a73e babb 273f 4c91 ad3e
00000110: bbf7 d63e 8b62 173f bd48 a63e 8e84 08bf
00000120: 86a7 2cbf 8972 823e 4d88 313f b0b1 54bf
00000130: 73ad 5abe a00c 493e 54d8 8c3d 4cdc 83be
00000140: a082 17be 009d 753c c186 273f 661f 7f3e
00000150: 3db2 d43e 44fb 493f 39f9 603f 12be 88bf
00000160: 2aa4 e4bd 8cf3 153f 400b 233d a10a 693f
00000170: d104 18bf 4471 763f 5817 85be f998 76be
00000180: dc14 08bf 52c9 ca3e 867b 893e 4422 07be
00000190: aad5 1ebf 7bfd 1f3f c145 323f 7fe8 8fbf
000001a0: 3311 4f3f f7d6 053e 9ef8 773e c457 5abf
000001b0: b918 653e ba8f a43e e216 373f 4e36 95bf
000001c0: 4f89 e43e df8a 583d 3cdc 1abf 360b 41bf
000001d0: 92a0 ecbe 0717 393f 603e 973e 9486 253f
000001e0: e8f5 523f d912 393e adbe 3dbc 2376 53bf
000001f0: 00da 5fbf db76 1f3e 5081 fabe e649 003f
00000200: 617b e83d 50fd 10bf 0002 d83c 7b11 bb3e
00000210: 574c c4bd b093 18be cb5e 98bd c8e3 38be
00000220: 0a69 7bbf e7c9 663f 0b0b febe fc8a 623e
00000230: 649f 7e3e b49a 933e 00aa 55bc 0c07 653f
00000240: 4141 013f b01a 9e3e c0c4 eebc 28c2 ca3e
00000250: 0a2a 6d3e f249 5a3f 31ad 313e 022e c03e
00000260: 2b48 4e3f d82d 0cbe 71dd 883e 9a1f 70bf
00000270: ed0d c03e 9a69 093f 62bc 203f 5854 6e3f
00000280: b750 f73e 5779 90be 0246 c73e 4f5c 11bd
00000290: 9861 53bf 38af 56be 9e17 1a3f a2b2 013e
000002a0: 923b 683f 102b f3bd 7e25 c93d 60a3 393f
000002b0: 68c5 1d3e a270 493d 3cd2 3c3f 0824 0dbe
000002c0: bace cb3e 8033 2d3c 1825 6c3f 8f62 3a3f
000002d0: dcb1 12bf 54c3 1ebf 6097 8bbe 7ea6 8cbe
000002e0: aaf4 53bf 0906 76be 1468 13bf c3c3 cc3e
000002f0: 782d 28be b623 9ebb afee 0c3f 9151 023d
00000300: 650c db3e 8401 e7be ded2 d23e 2827 083f
00000310: 845a b1be e4a3 c2be 2b82 6dbf 2c1f 6f3e
00000320: 581d 64bf 309c 1cbf ed9b 05bf d252 3bbf
00000330: 4062 67be 9a35 013f 813e e83d 9fbb a33e
00000340: 67f3 583f da04 633e a0f7 543e 46c2 2abf
00000350: d2af 963e dd59 263f e516 133f 8be2 283f
00000360: 7619 7bbf 4e85 233f 5f22 353f a1e1 e83d
00000370: 12cc 58bf ecdc d0be a179 a93e 28ef 5b3f
00000380: 532c 733f 47e0 103f 241a 76bf d963 71bf
00000390: 209b 6abd a457 1ebc 1f92 0e3f d0db 743d
000003a0: 3d61 d93d 6c3c b4be a48a 763f f405 acbe
000003b0: b972 bbbe 92e7 10bf 0dea 543f 309d 593f
000003c0: ee8b 163d 606d 373f bfaa ea3e 1867 8abe
000003d0: c8c5 19be 38fd 68bf 2995 213f 4eab 73bf
000003e0: 6858 103f e75f a0bf 40f7 56bf 9460 203f
000003f0: f472 33bf 0381 513f dbe4 343e 7018 98bd

bias f4 [256]
-0.9708548 -0.0009468886 -0.3821387 0.007915157 0.55682766 0.24469516 0.5261188 0.5473335
-0.7988615 0.38866222 0.07174862 -0.38251317 0.37315464 0.3114607 -0.55483055 0.87300503
-1.2594565 -0.96631074 -0.76830304 -0.5588242 -0.99292696 -0.25754058 0.041942116 -0.38294673
-0.8020464 0.14610936 0.19247589 0.6900082 0.41310555 -0.61167777 -0.85753715 0.4033031
-0.5033958 0.34379423 0.7834548 0.8360567 -0.55591977 0.4657615 0.31736842 0.40634772
0.6700349 -0.8245114 0.1363724 0.11028942 -0.0012559046 -0.9673164 -0.959903 0.4796617
0.13878575 -0.89788055 1.0020503 -0.0011594212 0.49802896 -0.7773719 -0.55473804 -1.5029482
-0.7254879 -0.8919078 -0.6037847 -0.50645924 0.17070512 0.31100807 0.78308725 -0.16004737
-0.6280931 0.8730416 -0.7288226 0.628063 -0.3285661 0.90906245 0.23241614 -0.30994463
0.49558386 0.4768862 0.15808083 -0.5735154 0.7476494 -0.7061048 0.47587782 0.29516768
0.74357235 -0.17783141 -0.51274234 0.16063724 0.41556892 -0.9843894 0.059291586 0.4980552
0.39632097 -1.1407859 -0.7310281 0.11288446 0.27448836 -0.47216377 0.90411854 0.8255741
0.65842426 -1.3948063 0.045374732 0.71674323 -0.6168051 0.00013779891 -1.1297445 0.44505888
-0.6743928 0.010568295 -1.2163982 -0.8634566 0.046489347 -1.1081637 -0.47737592 0.80954623
-0.31601593 0.93276596 -0.7379652 -0.31763387 -0.0005082294 -0.17872447 0.3821535 0.06699619
-0.1013391 0.5483362 0.24736533 0.5082123 -0.5220455 0.84134746 0.31259036 0.92508566
-0.56043637 -0.6220628 -0.69177306 -1.2780885 0.6966918 -0.46145678 0.24826 -0.51659775
-0.27812314 -0.93333286 0.3601433 0.9060573 0.3290558 0.11716259 -0.2019732 -0.8879617
-0.045590624 0.16632035 -0.1266526 -0.61492026 -0.83195025 0.1625447 -0.62968653 -0.132206
-0.23885682 -0.260458 0.2742958 -0.23482835 -1.3180046 -0.8413014 -0.16672634 0.08737068
-1.6298317 0.39039248 -1.3394018 0.21729998 -0.5620649 -0.7396462 -1.2208594 0.5315888
-0.06824671 -0.5388373 0.6372026 -0.33282056 0.1748822 0.6213433 0.9519035 0.4770955
-0.5008779 -0.654402 -0.645854 -0.83272743 -0.35596728 0.7081243 -0.31530738 0.9813545
-0.4824922 -0.0007865682 -0.3761437 -0.42796782 -0.9027612 0.37702262 0.76798093 0.08804044
0.4798293 -0.90423405 0.9196487 -0.7658768 -0.90037394 -0.7054789 0.2321039 -0.82011396
-0.23870921 -0.04160452 0.35011497 -0.74469006 -0.591979 -1.7219712 0.49515644 0.3810341
0.073922016 0.03919505 -0.7539404 -0.8604574 -1.0604428 -0.76033777 0.06547207 0.7817901
0.39061987 0.28809977 -1.4435663 0.5946831 -0.99892855 0.5479706 -0.29592687 -0.35876104
0.7923573 0.7584794 -0.24950886 0.037646405 -0.5681585 0.12252871 0.14466633 0.32900023
0.3972091 -0.5684539 0.80859876 -0.8888434 -0.0004493943 -0.94376516 0.7835606 -0.41984084
0.081100196 -0.69610405 -0.012010412 -0.37056613 -0.29695976 -0.6571777 -0.0050783893 -0.12709105
0.17171293 0.54631597 -0.070112586 -0.7472676 -0.9541402 -0.001397265 -0.6096782 -0.22828388
00000000: f189 78bf 9e38 78ba afa7 c3be 93ae 013c
00000010: 428c 0e3f 5e91 7a3e b9af 063f 0c1e 0c3f
00000020: 3082 4cbf bcfe c63e f1f0 923d c4d8 c3be
00000030: 200e bf3e c777 9f3e 6009 0ebf 427d 5f3f
00000040: df35 a1bf 2460 77bf 82af 44bf 1a0f 0fbf
00000050: 7630 7ebf 5cdc 83be 7fcb 2b3d 9811 c4be
00000060: ea52 4dbf b19d 153e 6618 453e 61a4 303f
00000070: 9282 d33e ea96 1cbf 8e87 5bbf be7d ce3e
00000080: 8cde 00bf cc05 b03e 7e90 483f d007 563f
00000090: c250 0ebf 4b78 ee3e 1d7e a23e cf0c d03e
000000a0: 6887 2b3f 2e13 53bf 35a5 0b3e 6bdf e13d
000000b0: 2a9d a4ba 0ca2 77bf 34bc 75bf 3896 f53e
000000c0: da1d 0e3e 80db 65bf 2f43 803f b8f7 97ba
000000d0: a7fd fe3e d801 47bf 5003 0ebf 9b60 c0bf
000000e0: 93b9 39bf 1254 64bf a291 1abf 50a7 01bf
000000f0: 53cd 2e3e 733c 9f3e 6878 483f 75e3 23be
00000100: b6ca 20bf a87f 5f3f 1e94 3abf bdc8 203f
00000110: d139 a8be 51b8 683f 7ffe 6d3e 10b1 9ebe
00000120: 2bbd fd3e 6e2a f43e f1df 213e e8d1 12bf
00000130: f365 3f3f 49c3 34bf 42a6 f33e 3820 973e
00000140: c25a 3e3f 7019 36be 1543 03bf 177e 243e
00000150: 73c5 d43e f200 7cbf bcdb 723d 1701 ff3e
00000160: 95ea ca3e 4605 92bf a824 3bbf f82f e73d
00000170: bd89 8c3e 73bf f1be 5074 673f d358 533f
00000180: 7e8e 283f 0389 b2bf dbda 393d 7c7c 373f
00000190: f0e6 1dbf 1d7e 1039 789b 90bf c2de e33e
000001a0: 02a5 2cbf a426 2d3c f0b2 9bbf 7e0b 5dbf
000001b0: 9d6b 3e3d 4fd8 8dbf 9e6a f4be 6c3e 4f3f
000001c0: d7cc a1be c0c9 6e3f 4aeb 3cbf e8a0 a2be
000001d0: b33a 05ba 8c03 37be a0a9 c33e 4c35 893d
000001e0: e08a cfbd c35f 0c3f 564d 7d3e 341a 023f
000001f0: c6a4 05bf 8c62 573f d80b a03e 6ad2 6c3f
00000200: c278 0fbf 823f 1fbf 0a18 31bf 6798 a3bf
00000210: 655a 323f 1044 ecbe df37 7e3e c03f 04bf
00000220: 2866 8ebe e7ee 6ebf b464 b83e 5ff3 673f
00000230: 007a a83e f1f2 ef3d 10d2 4ebe 7551 63bf
00000240: 3cbd 3abd e24f 2a3e 38b1 01be 6a6b 1dbf
00000250: b1fa 54bf 1e72 263e 2333 21bf 0261 07be
00000260: e296 74be c05a 85be 8070 8c3e d876 70be
00000270: 60b4 a8bf 875f 57bf 4fba 2abe 66ef b23d
00000280: 539e d0bf 86e1 c73e 8571 abbf e383 5e3e
00000290: 7ce3 0fbf 7459 3dbf 1f45 9cbf 3416 083f
000002a0: eec4 8bbd 3ef1 09bf b61f 233f 7567 aabe
000002b0: 5214 333e 5b10 1f3f f3af 733f dd45 f43e
000002c0: 8939 00bf e486 27bf b056 25bf a02d 55bf
000002d0: 5841 b6be a247 353f f86f a1be 0c3a 7b3f
000002e0: 3809 f7be b331 4eba e895 c0be 991e dbbe
000002f0: 5c1b 67bf 1c09 c13e 669a 443f 8c4e b43d
00000300: 30ac f53e e27b 67bf 196e 6b3f 8110 44bf
00000310: e87e 66bf 449a 34bf a5ac 6d3e fdf2 51bf
00000320: 3070 74be 8069 2abd 4542 b33e 02a4 3ebf
00000330: f08b 17bf 8d69 dcbf 2585 fd3e e716 c33e
00000340: 6d64 973d fd8a 203d 3d02 41bf f046 5cbf
00000350: 97bc 87bf 7fa5 42bf 3816 863d 6523 483f
00000360: 54ff c73e d081 933e c8c6 b8bf 273d 183f
00000370: c8b9 7fbf cd47 0c3f ba83 97be 87af b7be
00000380: eed7 4a3f b52b 423f 407f 7fbe 1e33 1a3d
00000390: d672 11bf 55f0 fa3d 6923 143e b872 a83e
000003a0: fe5e cb3e 3286 11bf 5400 4f3f 3e8b 63bf
000003b0: af9c ebb9 989a 71bf 6d97 483f 61f5 d6be
000003c0: dc17 a63d e033 32bf 52c7 44bc d8ba bdbe
000003d0: 1c0b 98be cc3c 28bf 9e68 a6bb 2824 02be
000003e0: 84d5 2f3e 5ddb 0b3f 3097 8fbd ee4c 3fbf
000003f0: 8842 74bf 6f24 b7ba df13 1cbf 40c3 69be

weight f4 [1, 256]
-0.04266215 -0.044121318 -0.047471624 -0.006738319 -0.0116170095 0.010825175 -0.014977889 0.011368799
-0.016778363 0.013891339 0.038772486 0.06681863 -0.02536323 -0.038737826 0.0069894562 -0.021453945
-0.02776064 0.03518641 0.0052624797 -0.0036658205 -0.025396617 0.07098255 -0.03261771 -0.018254114
0.008594051 -0.013940289 -0.014764178 0.08126221 0.006195395 -0.01976776 0.00087737874 0.027543375
-0.051830843 0.006656064 -0.032685366 -0.031236462 0.054670095 0.02101912 0.006262161 0.02232611
-0.031532705 0.029713959 0.020243369 -0.013419681 0.0033554148 -0.06426101 0.022403637 0.034522366
-0.024076097 0.016492046 -0.00916868 0.00125298 -0.022800444 -0.01666369 -0.044710882 0.022091521
0.026070438 -0.01433151 0.0019138043 0.017500978 -0.0045862705 -0.029662205 0.04084836 -0.082921594
0.021400632 -0.03808228 -0.04038901 0.0009452275 -0.036877856 -0.07140821 -0.07405265 -0.0005580742
-0.00096156244 0.0045823534 -0.028694296 -0.042726934 -0.05041957 -0.0066426736 -0.025444085 0.0021274851
-0.039237395 -0.011150575 0.006726575 -0.0075871646 -0.018141411 -0.013332707 -0.05272883 -0.0072254837
0.046115305 0.008853705 -0.05098208 0.032955732 0.02161942 -0.041340735 -0.028479982 -0.0396576
0.040670667 0.06597713 0.050958775 0.019181184 0.05027195 -0.027089357 0.046519455 0.005189679
0.03307029 0.029021781 0.04140328 -0.010950259 0.011984943 -0.036631823 -0.02271639 0.037147045
-0.015875418 0.0064542745 -0.011669055 -0.034103915 -0.027543768 -0.0058395364 -0.004449899 -0.025353756
-0.027961398 0.028379606 0.0030577797 -0.047219437 -0.047661524 0.0554277 0.02535783 -0.037815496
0.024055578 0.008693764 -0.045927167 -0.006765541 -0.018251639 0.045335125 0.017600857 0.00021634951
-0.0198617 -0.02877982 0.023379218 0.0033684312 0.013901505 0.005128136 -0.025369547 -0.049992267
-0.00017540727 -0.04488742 -0.029494727 -0.04002827 0.05062747 -0.010630587 -0.025202274 0.009048402
0.007928184 0.014939463 -0.014116193 -0.05086168 0.03227224 0.0047120866 -0.055290908 -0.024359928
-0.08006665 0.037095867 0.0010966107 -0.008920907 0.036991112 -0.051536016 0.013752515 -0.03973345
-0.041070912 0.027245473 0.05363249 -0.047473036 -0.011807273 0.020182602 -0.02151711 -0.037272386
0.0057949037 0.0148044815 0.05555646 -0.06692885 -0.042972744 -0.026689563 -0.005508262 0.04607918
0.0022842523 0.021212924 0.019340685 0.038528815 -0.034985926 -0.013189189 -0.005966085 0.052144952
-0.025700103 0.039137214 -0.011121506 -0.021739539 0.020977179 0.0338609 -0.015007536 -0.0144808665
0.0023055088 -0.0074136085 -0.008659224 0.028086744 0.058750346 0.007560539 -0.037939228 -0.04226148
-0.0449317 -0.059006043 0.05332792 -0.028755916 0.01947172 -0.024173837 0.033687074 -0.03486624
0.049292617 0.046873707 -0.060696274 -0.022187205 -0.045678586 -0.054015417 0.048340585 0.0027712416
0.004511015 -0.04323463 -0.0060789436 -0.032576624 -0.0353683 -0.008437703 0.057794597 0.04697612
-0.040159944 0.00507881 -0.04537635 0.050246626 0.034244884 0.03083798 0.039313875 0.0010618492
-0.039880123 -0.059214704 -0.021510841 0.01497109 -0.044047367 -0.06815793 -0.0004078851 0.0074969656
0.009817577 -0.017246028 -0.007778786 -0.049040828 0.05064871 -0.08753246 0.0073606037 0.024152175
00000000: 82be 2ebd 8eb8 34bd 9b71 42bd 1ecd dcbb
00000010: 4555 3ebc 135c 313c d265 75bc 3344 3a3c
00000020: c772 89bc 8098 633c e6cf 1e3d 35d8 883d
00000030: 8cc6 cfbc 8eab 1ebd cf07 e53b 2fc0 afbc
00000040: 486a e3bc a01f 103d e170 ac3b 433e 70bb
00000050: 910c d0bc 4d5f 913d 269a 05bd a789 95bc
00000060: 10ce 0c3c cf65 64bc 73e5 71bc cd6c a63d
00000070: bd02 cb3b ffef a1bc e4ff 653a a5a2 e13c
00000080: 944c 54bd 1d1b da3b 17e1 05bd 9ce3 ffbc
00000090: c0ed 5f3d 4a30 ac3c d032 cd3b 3fe5 b63c
000000a0: 7028 01bd b06a f33c 6cd5 a53c 39de 5bbc
000000b0: 85e6 5b3b 479b 83bd d587 b73c 5367 0d3d
000000c0: 3c3b c5bc 541a 873c 3b38 16bc 083b a43a
000000d0: ffc7 babc 4a82 88bc c222 37bd 47f9 b43c
000000e0: ac91 d53c b6ce 6abc 9ed8 fa3a 365e 8f3c
000000f0: 6d48 96bb 27fe f2bc 9c50 273d ccd2 a9bd
00000100: 6150 af3c 2afc 1bbd f26e 25bd 25c9 773a
00000110: 3c0d 17bd 783e 92bd eaa8 97bd ba4b 12ba
00000120: 5d11 7cba 9127 963b 4d10 ebbc 7002 2fbd
00000130: c084 4ebd c9aa d9bb 1d70 d0bc 476d 0b3b
00000140: 64b7 20bd e7b0 36bc 9a6a dc3b c09d f8bb
00000150: 4c9d 94bc 6d71 5abc 30fa 57bd c0c3 ecbb
00000160: 67e3 3c3d 210f 113c 96d2 50bd 97fc 063d
00000170: 361b b13c e754 29bd da4e e9bc 0270 22bd
00000180: 4996 263d 041f 873d 26ba 503d dc21 9d3c
00000190: f6e9 4d3d 80ea ddbc 2f8b 3e3d 2f0e aa3b
000001a0: b674 073d 16bf ed3c 7c96 293d b768 33bc
000001b0: 7f5c 443c 400b 16bd b917 babc 8027 183d
000001c0: 2a0d 82bc 617e d33b 902f 3fbc 8cb0 0bbd
000001d0: 78a3 e1bc 9559 bfbb 75d0 91bb aeb2 cfbc
000001e0: 4d0f e5bc 597c e83c 0865 483b 2b69 41bd
000001f0: bb38 43bd 2808 633d 39bb cf3c 6ce4 1abd
00000200: 3410 c53c 4a70 0e3c 201e 3cbd 79b1 ddbb
00000210: 7684 95bc 53b1 393d ac2f 903c e1db 6239
00000220: 01b5 a2bc a8c3 ebbc c685 bf3c e6c0 5c3b
00000230: 23c3 633c ec09 a83b ccd3 cfbc b1c4 4cbd
00000240: 88ed 37b9 dfdb 37bd ed9e f1bc aff4 23bd
00000250: c05e 4f3d ea2b 2ebc 0075 cebc c03f 143c
00000260: 37e5 013c a6c4 743c 9b47 67bc 5654 50bd
00000270: e52f 043d d967 9a3b b878 62bd 798e c7bc
00000280: fcf9 a3bd d6f1 173d 26bc 8f3a ff28 12bc
00000290: fe83 173d 6e17 53bd 3b52 613c 8bbf 22bd
000002a0: f939 28bd e631 df3c bead 5b3d 1673 42bd
000002b0: 4b73 41bc fc55 a53c a644 b0bc eeaa 18bd
000002c0: 2de3 bd3b 7f8e 723c 2c8f 633d fe11 89bd
000002d0: 3004 30bd 12a4 dabc a77e b4bb 86bd 3c3d
000002e0: 65b3 153b bac6 ad3c 5b70 9e3c 64d0 1d3d
000002f0: 674d 0fbd 7817 58bc 267f c3bb f295 553d
00000300: 0689 d2bc 584e 203d fa36 36bc 1e17 b2bc
00000310: 55d8 ab3c bab1 0a3d 2be2 75bc 2841 6dbc
00000320: 0518 173b dbed f2bb 6bdf 0dbc 2c16 e63c
00000330: 34a4 703d 66be f73b 2a66 1bbd 601a 2dbd
00000340: 4d0a 38bd 52b0 71bd 616e 5a3d 8791 ebbc
00000350: 2883 9f3c 3608 c6bc 75fb 093d e7cf 0ebd
00000360: 0ee7 493d a5fe 3f3d a89c 78bd f1c1 b5bc
00000370: 7819 3bbd 453f 5dbd c700 463d b89d 353b
00000380: 23d1 933b cc16 31bd e031 c7bb 116f 05bd
00000390: 5ade 10bd 4b3e 0abc 07ba 6c3d 086a 403d
000003a0: c17e 24bd 256c a63b 8ddc 39bd 68cf 4d3d
000003b0: 5d44 0c3d ee9f fc3c 9607 213d bf2d 8b3a
000003c0: 5759 23bd 1e8b 72bd 8137 b0bc 4d49 753c
000003d0: 036b 34bd 6396 8bbd 69d9 d5b9 1ba9 f53b
000003e0: e7d9 203c 8b47 8dbc 30e5 febb 09df 48bd
000003f0: 0675 4f3d 3844 b3bd 3831 f13b c8da c53c

weight f4 [256, 1]
-0.82190514 0.894742 -0.42251754 -0.9930831 -0.53168476 0.17234905 0.5013237 -0.461385
0.71790856 0.53506315 -0.5920031 -0.52416646 0.15456294 0.40840855 -0.98169893 -0.4941527
-0.30296612 0.7082051 -1.3463928 -0.48991135 0.62931377 -1.9249068 0.14030007 -0.67308044
-0.5350348 -0.08447449 -0.09958845 0.051751614 0.8238959 -0.9138653 -0.2756224 0.38498813
-0.49219298 0.62263805 0.015037834 0.58631456 -0.7725451 -0.27573073 -0.06180025 0.88665813
-0.04221666 0.59161735 -0.1320701 -0.26049387 -0.06580198 0.8369886 -0.4217537 0.19993643
0.35270604 -0.034285713 0.62609285 -0.19021893 0.912668 0.6809313 -0.44823122 -0.19550964
-0.65440345 0.2289147 -0.42912316 -0.43462414 0.75660837 -0.95661485 -0.2667018 -0.67887706
-0.24334776 0.5735962 0.4524132 0.6626838 -0.015972614 0.7155377 0.729612 -0.69378954
0.22252402 0.18352756 -0.69992447 -0.502736 -0.37900317 -0.36709642 0.46054095 -0.4046347
-0.9362494 0.6808384 0.8335985 0.0017829022 0.73300785 -0.46487236 0.5531086 0.61960447
0.8619122 -0.3984909 -1.0646003 0.7710568 -0.8994123 0.32763594 -2.3961751 0.019663896
0.21478212 -0.49439573 0.07300675 -0.8382327 0.29135776 0.31244108 0.26056919 -0.47319663
0.40594807 0.55568755 -0.77704734 -0.1538012 -0.6887486 -0.14746094 -0.51532876 0.56626856
-0.33722055 0.4096264 0.37041554 -0.2492416 -0.12578158 0.7406381 -0.8514483 -0.39801502
0.89643437 -0.2232036 -0.76335764 -0.22534919 -1.3636341 -0.24974912 0.51321733 0.91449904
0.20877263 -0.6140232 0.23217288 0.32353818 -0.05275841 -0.030931711 0.5625808 0.03291881
-0.038467765 -0.72818553 0.28107783 -0.47584447 0.49245152 0.11672238 0.89068407 -0.27027363
0.4597327 0.68592376 -0.50624764 0.21335322 0.4769847 0.8260686 -2.0869071 0.35360372
0.63863164 0.12824026 0.02410244 0.9002501 -2.9973018 0.242541 -0.20564711 -0.059154153
0.4466574 -0.9589768 -0.0015442371 -0.8667717 -0.3276631 0.7895678 0.31318843 -0.67142516
0.2851685 0.2719586 0.23149173 0.5694942 -0.37177396 -0.9499452 0.2950229 0.78825396
-0.48296642 -0.7931049 0.18285717 0.8072781 -0.57160276 -0.8277813 0.19898275 -0.41747656
-0.21705914 0.120735794 0.4108864 0.39992848 -0.061554555 0.16782622 -0.6245781 -0.50352186
0.4490655 0.152373 0.4805073 -0.836231 0.5416904 -0.06924236 0.6944988 -0.16921127
0.60919726 -0.81187415 0.83484095 -0.49195537 -0.19603007 0.21761686 -0.4028815 -0.58967435
-0.027267337 0.5763202 -0.62188876 0.6763247 0.16307269 -0.5444187 0.8645613 -0.6014966
-0.4939182 -0.5069257 -0.4319973 0.63220704 -0.55707955 -0.75891966 -0.13649799 0.22339152
0.010017783 0.25195006 0.16039197 0.11841809 0.83992034 -0.9469285 -0.37357146 -0.9068049
-0.53344285 0.39004415 -0.65270936 -0.7539939 0.16813122 -2.4964743 -0.60408676 -0.10568083
0.6639528 -0.66759384 0.40180388 0.49841565 0.20349643 -0.75842315 0.0016505718 -0.23199901
0.081817985 0.012829747 -0.68951833 -0.45334283 0.229271 0.856994 0.31870508 -0.9047414
00000000: 6068 52bf d00d 653f 3854 d8be b23a 7ebf
00000010: 7e1c 08bf 457c 303e c056 003f a83a ecbe
00000020: dbc8 373f e6f9 083f 848d 17bf c62f 06bf
00000030: bf45 1e3e ed1a d13e 9f50 7bbf 9501 fdbe
00000040: 601e 9bbe ee4c 353f 9956 acbf a9d5 fabe
00000050: b51a 213f 5963 f6bf d2aa 0f3e 004f 2cbf
00000060: 0af8 08bf f600 adbd 07f5 cbbd 80f9 533d
00000070: d7ea 523f 14f3 69bf 611e 8dbe 2a1d c53e
00000080: b800 fcbe 3565 1f3f 3f61 763c b618 163f
00000090: 84c5 45bf 942c 8dbe 4222 7dbd 07fc 623f
000000a0: 60eb 2cbd 3c74 173f 623d 07be 745f 85be
000000b0: 30c3 86bd e344 563f 1af0 d7be 23bc 4c3e
000000c0: e395 b43e 2d6f 0cbd 9f47 203f c0c8 42be
000000d0: 9ca4 693f 8451 2e3f 907e e5be ae33 48be
000000e0: fc86 27bf 9d68 6a3e 08b6 dbbe 0e87 debe
000000f0: 16b1 413f b6e4 74bf 238d 88be e3ca 2dbf
00000100: 2830 79be 33d7 123f b4a2 e73e a5a5 293f
00000110: 00d9 82bc 7b2d 373f dac7 3a3f 319c 31bf
00000120: 56dd 633e a6ee 3b3e 402e 33bf 4eb3 00bf
00000130: b40c c2be 10f4 bbbe 06cc eb3e 482c cfbe
00000140: 0aae 6fbf 6d4b 2e3f b666 553f 45b0 e93a
00000150: 67a6 3b3f c003 eebe 8698 0d3f 669e 1e3f
00000160: 47a6 5c3f 0007 ccbe d344 88bf fa63 453f
00000170: e23f 66bf e6bf a73e ef5a 19c0 2e16 a13c
00000180: d8ef 5b3e 7021 fdbe 9084 953d 6b96 56bf
00000190: d82c 953e 47f8 9f3e 5369 853e d446 f2be
000001a0: 6dd8 cf3e 8a41 0e3f 93ec 46bf 107e 1dbe
000001b0: d451 30bf 0000 17be 96ec 03bf faf6 103f
000001c0: 2ca8 acbe 8dba d13e 1ba7 bd3e 3139 7fbe
000001d0: e3cc 00be 759a 3d3f 84f8 59bf a0c8 cbbe
000001e0: b97c 653f 7c8f 64be 686b 43bf f0c1 66be
000001f0: 908b aebf 3cbe 7fbe 3662 033f 9c1c 6a3f
00000200: 7ec8 553e a030 1dbf babe 6d3e cca6 a53e
00000210: 3419 58bd 8064 fdbc 4c05 103f e0d5 063d
00000220: 6090 1dbd 5e6a 3abf 6fe9 8f3e e3a1 f3be
00000230: 9b22 fc3e 250c ef3d df03 643f 4e61 8abe
00000240: 1662 eb3e b398 2f3f 7299 01bf 4479 5a3e
00000250: 5737 f43e 3b79 533f e38f 05c0 8c0b b53e
00000260: 5d7d 233f 6a51 033e 7b72 c53c ca76 663f
00000270: cbd3 3fc0 ab5c 783e 2895 52be a04b 72bd
00000280: 47b0 e43e 817f 75bf 0068 caba c0e4 5dbf
00000290: 75c3 a7be 1e21 4a3f 3c5a a03e 85e2 2bbf
000002a0: 9b01 923e 283e 8b3e 2b0c 6d3e 5fca 113f
000002b0: 2859 bebe 9c2f 73bf 3e0d 973e 03cb 493f
000002c0: 6047 f7be ec08 4bbf e93e 3b3e c7a9 4e3f
000002d0: 8f54 12bf 7ae9 53bf 22c2 4b3e 7dbf d5be
000002e0: c044 5ebe 5444 f73d b45f d23e 6dc3 cc3e
000002f0: a120 7cbd a3da 2b3e 5ae4 1fbf cfe6 00bf
00000300: eaeb e53e ab07 1c3e 0e05 f63e 3c13 56bf
00000310: 39ac 0a3f f0ce 8dbd acca 313f b845 2dbe
00000320: 5af4 1b3f fcd6 4fbf 23b8 553f 93e1 fbbe
00000330: 1bbc 48be f4d6 5e3e 7c46 cebe e6f4 16bf
00000340: c05f dfbc b889 133f 1a34 1fbf 9e23 2d3f
00000350: 87fc 263e 065f 0bbf e453 5d3f aefb 19bf
00000360: d9e2 fcbe e2c5 01bf c02e ddbe 52d8 213f
00000370: c49c 0ebf 8f48 42bf 21c6 0bbe bfc0 643e
00000380: a121 243c 99ff 803e cb3d 243e 2f85 f23d
00000390: 0505 573f e869 72bf c244 bfbe 5e24 68bf
000003a0: b68f 08bf deb3 c73e f617 27bf bf05 41bf
000003b0: 972a 2c3e 3cc6 1fc0 6ea5 1abf 316f d8bd
000003c0: d0f8 293f 6ee7 2abf 3db9 cd3e 5630 ff3e
000003d0: 5e61 503e 0528 42bf 0058 d83a 2691 6dbe
000003e0: 3090 a73d dc33 523c 4684 30bf 8d1c e8be
000003f0: 04c6 6a3e f563 5b3f 502d a33e 229d 67bf

bias f4 [256]
-0.35073757 -0.47859177 0.7522761 -0.5543269 0.96536946 -0.30139506 -0.5528854 -0.17125535
0.28483438 0.8137512 -0.083865404 -0.5720775 -0.60525274 -0.81436366 0.049936753 0.8754662
-0.9645672 -0.40620965 0.04870254 0.8830542 -1.2256294 0.09676047 -0.5934678 -0.6898699
-0.31435788 0.6855849 0.78246504 -0.7146199 0.09368928 -0.01963985 0.52070457 0.61594486
0.2669431 -1.2115273 -0.14624983 0.5649643 0.43126473 -0.20885289 0.19233243 0.42853704
-0.18652153 0.85463333 0.23828954 -0.7489604 -0.76693785 -0.19013306 0.7932673 -0.45004842
-0.07671644 0.2863639 0.37240338 -0.41988647 0.90848553 -0.31157702 0.40889096 0.37256193
-0.07814133 -0.94726443 -0.122505546 0.18777464 -0.6206728 0.17556441 0.5148046 0.3895003
-0.77110434 -0.010707527 0.47146246 0.11101568 -0.97424126 -0.726083 -1.2342908 0.7566877
0.33697313 0.49022397 -0.17506719 0.58007085 -0.15410757 -0.26700938 0.35755032 -0.6712251
-0.2091825 -0.7326757 0.6716799 0.46029317 0.6957233 -0.32477057 0.025568957 -1.2188125
0.031452175 0.74859154 0.1875567 -0.21882738 -0.2313075 0.21571782 0.061726257 0.276602
0.42838222 -0.5747317 -0.6122058 0.02534552 0.7234691 0.1716707 0.5601738 -0.4404719
-0.07140649 -0.61053723 0.45283118 -0.79766107 -0.7658088 -0.5435178 -0.97468936 -0.24564931
-0.8295096 -0.03994358 0.06174398 0.9778176 0.49401876 0.15652545 0.22100164 -0.5947578
0.80254924 0.42286718 -0.5626768 -0.5824925 0.16705258 0.20009255 0.4369237 -0.002184593
-0.8281879 -0.16947937 -0.90289104 -0.653894 0.61842287 -0.5144377 -0.22036354 -0.64512634
-0.4328586 0.36943707 -0.013117853 0.049471546 0.0077783526 0.53979933 -0.6377267 0.5133517
0.02356343 0.4459257 -0.2948476 0.36354133 0.27482915 0.66484654 0.08961293 0.48698336
0.37445024 0.7294328 0.8643191 -0.0071791094 0.047794793 0.7638313 -0.052482843 -0.03091693
-0.02188909 0.89629793 -0.63264585 -0.06507552 0.5975481 0.36681965 -0.6347759 -0.00022324755
-0.2759997 0.59914917 0.4104922 0.68924123 -0.869035 -0.76916564 -0.06337861 0.25441977
-0.69928503 -0.1454302 0.34272197 -0.44133106 0.3488607 -0.4309653 0.8033248 0.7790833
-0.61317456 -0.13399458 0.28749144 -0.31675577 0.6011471 -0.5926425 -0.58941185 0.8644426
0.87594855 0.68786573 0.9763858 -0.49027693 -0.6247912 -0.48847926 -0.15683886 -0.45011103
-0.54189205 -0.035583496 -0.8762765 0.1411744 0.38921586 0.18572864 -0.9863745 0.3261511
-0.4617411 0.4240585 -0.28156257 -0.71562123 -0.32537335 0.9323879 0.08572963 -0.30172992
0.89187187 -0.8410107 -0.86811864 -0.867769 -0.009847403 0.6305681 0.25682187 0.22701898
0.9560769 -0.28360757 -0.5491385 -0.016299894 0.053362872 -0.7640263 0.69553185 -0.237692
-0.98763883 0.7401279 -0.52242506 0.4731471 -0.41722533 0.049883932 -0.86335075 0.8572206
0.5370394 0.60898787 0.65671116 -0.12451973 0.3275856 0.80888516 -0.49146628 0.45470053
-0.88578176 0.44490948 -0.2621374 0.47974345 -0.45490873 0.80789775 -0.6823632 -0.27517688
00000000: e093 b3be fb09 f5be 2b95 403f 5ee8 0dbf
00000010: 7422 773f 7450 9abe e689 0dbf 905d 2fbe
00000020: d0d5 913e 0052 503f a0c1 abbd ac73 12bf
00000030: d8f1 1abf 237a 50bf 7b8a 4c3d 8e1e 603f
00000040: e0ed 76bf b6fa cfbe 517c 473d d70f 623f
00000050: 6de1 9cbf 5a2a c63d 81ed 17bf 509b 30bf
00000060: 84f3 a0be 7e82 2f3f a14f 483f 54f1 36bf
00000070: 2ae0 bf3d c0e3 a0bc e54c 053f 90ae 1d3f
00000080: c4ac 883e 5413 9bbf 84c2 15be 80a1 103f
00000090: bbce dc3e 88dd 55be cbf2 443e 3569 db3e
000000a0: 80ff 3ebe 40c9 5a3f 2c02 743e debb 3fbf
000000b0: 0a56 44bf 3eb2 42be 9113 4b3f bf6c e6be
000000c0: 821d 9dbd 4a9e 923e a8ab be3e 5cfb d6be
000000d0: 8292 683f 0687 9fbe 285a d13e 70c0 be3e
000000e0: 9008 a0bd ec7f 72bf 30e4 fabd ff47 403e
000000f0: 6ae4 1ebf 28c7 333e 3cca 033f 956c c73e
00000100: 1867 45bf a06e 2fbc 8763 f13e 305c e33d
00000110: e067 79bf 93e0 39bf 3efd 9dbf 49b6 413f
00000120: be87 ac3e a3fe fa3e d044 33be 867f 143f
00000130: 60ce 1dbe 74b5 88be d610 b73e 68d5 2bbf
00000140: f033 56be a290 3bbf 37f3 2b3f 8cab eb3e
00000150: ec1a 323f 5448 a6be fd75 d13c 0c02 9cbf
00000160: ffd3 003d b2a3 3f3f dd0e 403e 4914 60be
00000170: e0db 6cbe 22e5 5c3e acd4 7c3d c79e 8d3e
00000180: ea54 db3e 9e21 13bf 85b9 1cbf 68a1 cf3c
00000190: 4535 393f 72ca 2f3e 8d67 0f3f 8885 e1be
000001a0: 913d 92bd 2b4c 1cbf 7dd9 e73e 8433 4cbf
000001b0: 0c0c 44bf fc23 0bbf 3e85 79bf 7e8b 7bbe
000001c0: be5a 54bf e19b 23bd 41e7 7c3d 4152 7a3f
000001d0: 07f0 fc3e 3548 203e 414e 623e 0c42 18bf
000001e0: de73 4d3f 0c82 d83e 960b 10bf 3a1e 15bf
000001f0: d50f 2b3e 10e5 4c3e 77b4 df3e 632b 0fbb
00000200: 1f04 54bf 008c 2dbe de23 67bf 9965 27bf
00000210: f650 1e3f 30b2 03bf fba6 61be 0027 25bf
00000220: a49f ddbe db26 bd3e 43ec 56bc ada2 4a3d
00000230: 8de1 fe3b 4a30 0a3f 0f42 23bf 046b 033f
00000240: 1808 c13c 6050 e43e 44f6 96be 1722 ba3e
00000250: 68b6 8c3e 6233 2a3f fc86 b73d e255 f93e
00000260: f1b7 bf3e 1cbc 3a3f 0444 5d3f bc3e ebbb
00000270: 79c4 433d 738a 433f 40f8 56bd 8045 fdbc
00000280: c050 b3bc c873 653f 14f5 21bf 5046 85bd
00000290: eaf8 183f c9cf bb3e ac80 22bf 8f17 6ab9
000002a0: d54f 8dbe d761 193f 092c d23e 1d72 303f
000002b0: 1479 5ebf 0ae8 44bf a5cc 81bd 4f43 823e
000002c0: 5804 33bf a8eb 14be 4179 af3e 25f6 e1be
000002d0: df9d b23e 7ca7 dcbe b2a6 4d3f 0172 473f
000002e0: 02f9 1cbf e035 09be 1432 933e d02d a2be
000002f0: c7e4 193f 6bb7 17bf b2e3 16bf 1c4c 5d3f
00000300: 2a3e 603f f817 303f 6bf4 793f 9405 fbbe
00000310: 51f2 1fbf f419 fabe 5e9a 20be f474 e6be
00000320: 70b9 0abf 00c0 11bd a853 60bf 0690 103e
00000330: 4d47 c73e a62f 3e3e 0a83 7cbf 47fd a63e
00000340: 5469 ecbe 321e d93e f828 90be f432 37bf
00000350: 5697 a6be f9b0 6e3f 0493 af3d 587c 9abe
00000360: b751 643f 7a4c 57bf 063d 5ebf 1c26 5ebf
00000370: 0057 21bc e96c 213f 287e 833e aa77 683e
00000380: 75c1 743f 0335 91be 5794 0cbf 5b87 85bc
00000390: 0793 5a3d 3a97 43bf 600e 323f 8865 73be
000003a0: e6d5 7cbf 0679 3d3f a6bd 05bf 5640 f23e
000003b0: 8f9e d5be 1853 4c3d 8e04 5dbf cf72 5b3f
000003c0: 6a7b 093f a1e6 1b3f 391e 283f 3304 ffbd
000003d0: 4db9 a73e 1913 4f3f 78a1 fbbe 82ce e83e
000003e0: 98c2 62bf 2dcb e33e e036 86be efa0 f53e
000003f0: cce9 e8be 63d2 4e3f 5baf 2ebf fce3 8cbe
