checkpoints/8500800.ckpt (torch, 122663 bytes, 33 tensors)

weight f4 [256, 18]
0	0x3e45ca49	0.19315447
1	0xbd82436a	-0.063605145
2	0x3e5e1f10	0.21691537
3	0xba4ff58a	-0.00079330115
4	0x3e58dae4	0.2117725
5	0xbe4516f4	-0.19247037
6	0x3e06a1cb	0.13147657
7	0x3e1abf3a	0.1511201
8	0xbdac0091	-0.083985455
9	0xbe86d355	-0.2633311
10	0xbcb26ba8	-0.02177985
11	0x3d926596	0.07148282
12	0xbd9ba32c	-0.07599482
13	0xbe25e0ca	-0.16199031
14	0xbe054ba6	-0.13017139
15	0x3e3a84c2	0.18214706
16	0xbe53a8eb	-0.20669906
17	0xbe109c29	-0.1412207
18	0x3e65e7ef	0.22451757
19	0x3d022cf9	0.03178117
20	0x3e41d3a1	0.18928386
21	0xbe3e5dad	-0.18590422
22	0xbd906590	-0.070506215
23	0xbe61891e	-0.22024962
24	0x3d1a6fa2	0.037704118
25	0x3e5f38e8	0.21799052
26	0xbe1a9055	-0.15094121
27	0xbedc5e03	-0.43040475
28	0x3e159c6d	0.14610453
29	0x3de8a04c	0.11358699
30	0xbc31f6c2	-0.010862054
31	0x3e1c414e	0.15259287
32	0x3cee8df2	0.02912042
33	0x3e559d3c	0.20860761
34	0xbd493d17	-0.049130525
35	0xbe00f770	-0.1259439
36	0x3e1cea31	0.15323712
37	0xbe28dc26	-0.1649023
38	0x3e7b3fbc	0.24536031
39	0xbd2f2efa	-0.04276941
40	0xbce71826	-0.028209757
41	0x3daa715c	0.08322403
42	0x3e732ca4	0.23747498
43	0x3e2e2715	0.17007096
44	0x3cca8df6	0.024725895
45	0x3f0ac532	0.54207146
46	0xbc964f89	-0.018348472
47	0x3d2f4870	0.04279369
48	0xb9ec4d93	-0.00045071225
49	0xbe2ef622	-0.1708608
50	0x3e5dbdbe	0.21654412
51	0x3e46cc23	0.1941381
52	0x3cd012b7	0.025399549
53	0xbe15e370	-0.14637542
54	0xbe3c39a1	-0.18381359
55	0xbd4ffe4b	-0.050779622
56	0x3df24f99	0.11831588
57	0x3afca9d6	0.0019276689
58	0x3e4ea9ac	0.20181912
59	0x3e641b18	0.2227596
60	0xbe1a4152	-0.1506398
61	0x3d31711e	0.043320768
62	0xbdf30886	-0.1186686
63	0xbe84f8ea	-0.25971156
64	0x3ca428d5	0.020039001
65	0x3bf20df9	0.0073869196
66	0xbe360173	-0.1777399
67	0xbba64d91	-0.0050751646
68	0xbe4a0bd8	-0.1973108
69	0x3d2f167d	0.042746056
70	0xbe862fcd	-0.26208344
71	0x3ce84e7f	0.028357742
72	0x3c962d98	0.018332288
73	0xbd01ab7b	-0.031657677
74	0x3c42c156	0.011886915
75	0x3dda45b2	0.106578246
76	0x3ddbf30c	0.10739717
77	0xbd3495a5	-0.044088025
78	0xbdcad655	-0.09904162
79	0xbd9a302f	-0.075287215
80	0xbe32d192	-0.17462757
81	0x3ed39e2c	0.41331613
82	0xbdcb5c57	-0.09929722
83	0x3e072947	0.1319934
84	0xbe135ef8	-0.14391696
85	0xbdceb02d	-0.100921966
86	0x3d974452	0.07386078
87	0x3e555c75	0.20836051
88	0x3ce8d18f	0.028420238
89	0x3d9ff3b4	0.078101546
90	0x3e083cef	0.13304494
91	0xbccf2a14	-0.02528862
92	0x3e10b2ad	0.1413066
93	0x3e4046f8	0.18777072
94	0x3e626f7c	0.2211284
95	0x3e0dd361	0.13850166
96	0x3d5596b6	0.052145682
97	0x3d0f5e76	0.035002194
98	0xbe3ce8ba	-0.18448153
99	0x3e97e554	0.2966715
100	0xbe3b760f	-0.18306755
101	0x3dd00c6d	0.1015862
102	0xbd498d2a	-0.04920689
103	0xbc16b9c4	-0.009199563
104	0xbe3f4562	-0.18678811
105	0x3e280fd7	0.16412292
106	0x3e156d2b	0.14592426
107	0xbe824eab	-0.25450644
108	0x3e3b3fe7	0.18286096
109	0x3d15e96f	0.036599573
110	0x3e36abd4	0.17838985
111	0xbcfb0645	-0.030642638
112	0xbd77c187	-0.060487296
113	0x3da6735b	0.08127471
114	0xbe4dcf67	-0.20098649
115	0xbdf3d26c	-0.11905369
116	0xbe134b43	-0.14384179
117	0x3efb2e1e	0.49058622
118	0x3dbed68c	0.09318265
119	0x3d95bbf8	0.07311243
120	0xbe5e4bb8	-0.21708572
121	0x3e199cf2	0.15001276
122	0xbd5b1a69	-0.053491984
123	0x3d7e3454	0.062061623
124	0x3dbcb9b6	0.09215109
125	0xbe3b42e4	-0.18287235
126	0x3e01b251	0.12665679
127	0xbd821270	-0.06351173
128	0x3d495dd3	0.049161743
129	0x3c154ac9	0.009112068
130	0xbe4af48b	-0.19819848
131	0xbbeb770c	-0.0071858224
132	0xbe1e6135	-0.15466769
133	0x3d9c26c0	0.076245785
134	0xbb85905a	-0.004076046
135	0x3ee3b065	0.44470516
136	0xbe2beac6	-0.16788778
137	0xbe5c2de5	-0.21501882
138	0xbca35b26	-0.019940924
139	0xbe6aa154	-0.22913104
140	0x3da74b0f	0.08168613
141	0x3e179d8a	0.1480619
142	0x3dda4a9a	0.1065876
143	0x3cda0bff	0.026617048
144	0xbd6fa478	-0.05850646
145	0xbe5945cd	-0.21218033
146	0x3d687ab8	0.05675766
147	0x3e409285	0.18805893
148	0x3c886baa	0.0166529
149	0x3ba41909	0.0050078672
150	0xbcfcce1c	-0.03086
151	0xbdbb1c27	-0.09136229
152	0x3dd8ad69	0.1057995
153	0xbe262510	-0.16225076
154	0xbe6ec934	-0.2331894
155	0xbe345c41	-0.17613317
156	0x3e313fad	0.17309447
157	0xbdb0b337	-0.086279325
158	0x3c5c9769	0.013463833
159	0xbd9320f3	-0.07184019
160	0xbe3cf927	-0.18454419
161	0x3ddd4eec	0.10806069
162	0x3e1f8877	0.15579401
163	0x3d118f56	0.035537086
164	0x3c84a779	0.016193138
165	0x3e44c2d6	0.19214949
166	0x3dcf38b4	0.10118237
167	0x3e33f34f	0.17573284
168	0xbe483070	-0.19549727
169	0xbe8bed2f	-0.27329394
170	0x3ccd956c	0.025095664
171	0x3e0d129e	0.13776633
172	0x3dd45dee	0.10369478
173	0xbdeb5051	-0.114899285
174	0x3db4ad67	0.08822136
175	0x3e1a6d83	0.15080838
176	0x3dc5261d	0.0962641
177	0x3ce25e8b	0.027632972
178	0xbd9f0a53	-0.07765641
179	0xbe2a0ba3	-0.16606002
180	0xbda12f52	-0.07870354
181	0xbc28dcca	-0.010306546
182	0x3e5a9cfb	0.21348946
183	0xbd117a11	-0.035516802
184	0x3d1160c3	0.03549267
185	0x3e04aa49	0.12955584
186	0x3e5317eb	0.20614593
187	0xbc44fbd0	-0.012022927
188	0xbdf01d06	-0.11724286
189	0xbdf4d9ef	-0.1195563
190	0xbe1243d8	-0.14283693
191	0x3d9e9561	0.077433355
192	0x3e5b7281	0.21430399
193	0x3e50eefa	0.20403662
194	0xbe1c4fb1	-0.15264775
195	0x3d661fe6	0.056182764
196	0xbdb40e0a	-0.0879174
197	0x3da050c6	0.07827906
198	0x3bafab80	0.0053610206
199	0x3dd1f8f8	0.10252565
200	0xbcdcfba7	-0.026975466
201	0xbe45ebde	-0.19328257
202	0x3ba11976	0.0049163653
203	0x3dbae032	0.09124793
204	0x3c0262f5	0.0079581635
205	0xbe7adf8f	-0.24499343
206	0xbdd25a35	-0.10271112
207	0x3e46e7be	0.1942434
208	0xbe318628	-0.17336333
209	0x3e2bf9b9	0.1679448
210	0x3dae6e58	0.0851714
211	0xbe791faa	-0.24328485
212	0x3e68115e	0.22662875
213	0x3b2bb954	0.0026202993
214	0xbe04f1f3	-0.12982921
215	0x3e122335	0.14271243
216	0x3e21a4e3	0.15785556
217	0xbcb103b5	-0.021608213
218	0xbe16108b	-0.14654748
219	0xbcb4f39c	-0.022088818
220	0x3e1f79fc	0.15573877
221	0x3e3f3049	0.18670763
222	0x3c4caca2	0.012492331
223	0xbd41a5df	-0.047277328
224	0x3c52a115	0.012855788
225	0x3dec91dc	0.11551258
226	0xbe808b78	-0.25106406
227	0x3c2f1e24	0.010688338
228	0xbc92b2b3	-0.017907476
229	0x3dedf27e	0.11618517
230	0x3e765ddc	0.24059242
231	0x3e0c3ebd	0.13695808
232	0x3e5305bb	0.20607655
233	0x3d51effb	0.051254254
234	0xbd923fe0	-0.071410894
235	0x3d3fd09a	0.046829797
236	0xbe40ef35	-0.1884125
237	0xbbdb6bfd	-0.006696223
238	0x3e1816dc	0.1485247
239	0x3ba5c03b	0.005058316
240	0xbd698b41	-0.05701757
241	0xbe3c4e59	-0.18389262
242	0x3d2184c7	0.039433267
243	0x3ec9b6f0	0.39397383
244	0x3e34633a	0.17615977
245	0xbd49a942	-0.049233682
246	0xbe43daa7	-0.19126378
247	0x3d54e4a9	0.05197588
248	0xbe0a6bfa	-0.13517752
249	0x3e33e27a	0.17566863
250	0x3e2351c9	0.15949167
251	0xbe1a337a	-0.15058699
252	0x3dfad8da	0.122483924
253	0xbe100853	-0.14065675
254	0x3e0308ca	0.12796322
255	0xbe08221f	-0.13294266

bias f4 [256]
0	0xbe735faa	-0.23766962
1	0x3d97f484	0.074196845
2	0x3e55560d	0.20833607
3	0xbd343bbd	-0.044002283
4	0x3d2afce2	0.041745074
5	0xbe52e831	-0.20596386
6	0xbc80646b	-0.015672883
7	0x3d8d2726	0.068922326
8	0xbe546eec	-0.20745438
9	0xbe44faaf	-0.19236253
10	0x3da009dd	0.07814381
11	0xbe812c34	-0.25229037
12	0x3e4665d4	0.19374782
13	0x3dc2256f	0.09479796
14	0xbe919044	-0.28430378
15	0x3de69207	0.11258321
16	0xbe41b37f	-0.18916129
17	0xbe0c3022	-0.13690236
18	0xbd2c85f1	-0.042119924
19	0x3c91a859	0.01778047
20	0x3d5a544c	0.053303048
21	0xbe123ed9	-0.14281787
22	0x3d446a44	0.047952905
23	0xbdf73f4b	-0.12072619
24	0xbdeb9c13	-0.11504378
25	0xbe013c41	-0.12620641
26	0xbe40a3e2	-0.18812516
27	0x3e123c23	0.14280753
28	0xbe48d489	-0.19612326
29	0x3d97eb97	0.07417982
30	0x3d9f0e2d	0.07766376
31	0xbe67b763	-0.2262855
32	0xbdaed0d1	-0.08535922
33	0x3e14ee68	0.1454407
34	0x3d789f91	0.06069905
35	0x3d94904d	0.07254086
36	0x3c36f816	0.011167547
37	0x3d48cb42	0.049021967
38	0x3cfe9e72	0.031081412
39	0x3b5a999e	0.0033355723
40	0x3dc2817f	0.09497356
41	0x3df0ab86	0.117514655
42	0x3e2f7b38	0.17136848
43	0xbe22b094	-0.15887672
44	0x3db29e1d	0.08721564
45	0x3dc186fa	0.09449573
46	0xbe21e9fd	-0.15811916
47	0x3e46e174	0.19421941
48	0x3e292550	0.1651814
49	0x3e53f612	0.20699337
50	0xbde3416e	-0.11096464
51	0x3d3ecda3	0.04658283
52	0xbe2a9f7d	-0.16662402
53	0x3e05d64e	0.13070032
54	0xbd973e83	-0.0738497
55	0xbd47f007	-0.048812892
56	0xbda109c6	-0.07863192
57	0xbce3e627	-0.027819706
58	0xbd449803	-0.047996532
59	0xbe225a26	-0.15854701
60	0x3d62d736	0.055381022
61	0x3c8681cf	0.01641932
62	0x3e85fb33	0.26168212
63	0xbd1320ad	-0.035919834
64	0xbe477fbc	-0.1948232
65	0x3dcc782b	0.09983858
66	0x3e1b3420	0.15156603
67	0xbde0a244	-0.1096845
68	0xbd36b742	-0.044608362
69	0xbdd17402	-0.10227205
70	0x3dd33804	0.103134185
71	0x3d9e489d	0.07728694
72	0xbdea104f	-0.11428892
73	0x3e0428c5	0.12906177
74	0xbe2fd26b	-0.17170112
75	0x3dfd1f36	0.12359469
76	0xbe37171b	-0.17879908
77	0xbdd3d745	-0.10343794
78	0x3e02bd83	0.12767605
79	0xbe401697	-0.18758617
80	0x3e46cbc3	0.19413666
81	0xbe5f19a6	-0.21787128
82	0xbe999fa5	-0.30004612
83	0xbe23882a	-0.15969911
84	0xbd097131	-0.033555213
85	0xbdc439ef	-0.095813625
86	0xbe26841d	-0.16261335
87	0xbe1138a8	-0.14181769
88	0xbe2a2b2a	-0.16618028
89	0x3ceaf16c	0.028679572
90	0xbe52af28	-0.2057463
91	0xbdab8a47	-0.08375984
92	0xbe5294cb	-0.20564573
93	0xbdc73c90	-0.09728348
94	0xbd17e8e9	-0.037087355
95	0x3e543b9d	0.20725866
96	0x3dcd2748	0.10017258
97	0x3e0914f8	0.13386905
98	0xbdd562de	-0.10419248
99	0xbe4e53bd	-0.20149131
100	0xbe9163d0	-0.28396463
101	0xbe75a65b	-0.23989241
102	0xbe7b56d9	-0.24544849
103	0x3e04c1b4	0.12964517
104	0xbd25489f	-0.04035246
105	0x3df939ca	0.121692255
106	0xbe1963bb	-0.1497945
107	0xbd7db92b	-0.061944168
108	0xbb2a6e59	-0.0026005714
109	0x3cbb04f9	0.02282952
110	0xbdc102ab	-0.09424337
111	0xbe03c60f	-0.12868522
112	0x3e2545d9	0.16139926
113	0xbcca94c5	-0.024729142
114	0x3e431b3a	0.19053355
115	0x3e5607a5	0.20901354
116	0x3d801038	0.062530935
117	0x3d9a07d8	0.07521027
118	0xbe31e850	-0.17373776
119	0xbda26516	-0.07929437
120	0xbd4b2e4f	-0.04960471
121	0x3df8cfe3	0.12149026
122	0xbddf5949	-0.10905702
123	0x3ca5db82	0.020246271
124	0x3d547592	0.051869936
125	0x3da93cd1	0.08263553
126	0xbd34c722	-0.04413522
127	0x3e78b1cb	0.24286573
128	0xbd1a6fe7	-0.037704375
129	0xbdf59f36	-0.11993258
130	0xbbe477c4	-0.006972285
131	0xbdaa09ea	-0.08302672
132	0xbdbfc04b	-0.09362849
133	0x3e779366	0.24177322
134	0x3e6e7546	0.23286924
135	0xbd64ee70	-0.055891454
136	0xbb785503	-0.0037892468
137	0xbe48bd50	-0.19603467
138	0x3cbba73a	0.022906888
139	0xbdefda6e	-0.11711584
140	0x3ccf1b4c	0.02528157
141	0xbda2c07e	-0.07946871
142	0x3e091730	0.13387752
143	0xbe42a65c	-0.19008774
144	0xbc4a2383	-0.012337568
145	0x3de783ce	0.113044366
146	0xbda4501d	-0.08023093
147	0xbe37d692	-0.17952946
148	0x3deba3b5	0.11505834
149	0x3e1bd167	0.152166
150	0x3e45a1d3	0.19300012
151	0x3e1e1d61	0.15440895
152	0xbd986c76	-0.07442562
153	0xbccd96fc	-0.025096409
154	0x3d71e324	0.05905451
155	0xbe41287a	-0.18863097
156	0x3cf28c20	0.029607832
157	0xbe496104	-0.19665915
158	0xbda8c1a6	-0.082400605
159	0x3e3c9832	0.18417433
160	0x3e010987	0.1260129
161	0xbc38f666	-0.011289215
162	0xbd8fddba	-0.07024713
163	0xbde86875	-0.113480486
164	0x3de338b3	0.11094799
165	0xbdf01f44	-0.117247134
166	0x3d8deac7	0.06929546
167	0x3ce5b08d	0.028038288
168	0xbd0b2135	-0.033967216
169	0xbcc9f3af	-0.02465233
170	0xbcf6d423	-0.030130452
171	0x3e4826da	0.1954607
172	0x3d3c4e83	0.045973312
173	0x3e038c93	0.12846594
174	0xbe56e510	-0.20985818
175	0x3e366419	0.17811622
176	0xbe46f53b	-0.19429485
177	0x3e43431a	0.19068566
178	0x3e6ca625	0.23110254
179	0xbe0217dc	-0.12704414
180	0xbc5b61c7	-0.013390011
181	0x3c9ef9b6	0.01940618
182	0x3e08d983	0.13364224
183	0xbe94084f	-0.2891259
184	0xbd6aa224	-0.057283536
185	0xbcae0494	-0.021242417
186	0xbe08f874	-0.13376027
187	0x3d0cfb83	0.034419548
188	0xbd5e021f	-0.05420124
189	0x3e1bb86b	0.15207069
190	0xbdf0dd65	-0.11760978
191	0xbd989d1f	-0.074518435
192	0xbce4605e	-0.027877983
193	0xbda6a29d	-0.08136485
194	0xbe0cfa9c	-0.13767475
195	0x3e09c06a	0.13452306
196	0x3e70e6af	0.23525499
197	0xbe7208db	-0.2363619
198	0xbc6ce41c	-0.014458682
199	0xbe1b2e83	-0.15154462
200	0x3e07997e	0.13242146
201	0x3e1209da	0.1426157
202	0x3de526f3	0.111890696
203	0x3e07b1ee	0.13251469
204	0xbc247305	-0.010037188
205	0xbd17f076	-0.037094556
206	0x3ca25d8c	0.019819997
207	0xbe108656	-0.14113745
208	0xbd08e82e	-0.03342455
209	0xbd7f3227	-0.06230369
210	0xbe568f15	-0.20953019
211	0x3dd2587d	0.10270784
212	0xbcab4603	-0.020907408
213	0xbe289cd5	-0.16466077
214	0xbddce217	-0.10785311
215	0xbd729a88	-0.059229404
216	0xbd36fb0f	-0.044673022
217	0x3e6795f0	0.2261579
218	0xbd8d043f	-0.068855755
219	0x3bfa8ecb	0.007646417
220	0x3d8a9ebc	0.067685574
221	0xbd9c7c3b	-0.076408826
222	0xbe406f77	-0.1879252
223	0x3df5ce9b	0.120022975
224	0x3d66816c	0.05627577
225	0xbc4c2f4d	-0.012462449
226	0x3e29e348	0.16590607
227	0x3e293509	0.16524138
228	0xbe0961fd	-0.13416286
229	0xbd129175	-0.03578325
230	0x3e47a7ea	0.19497648
231	0x3e185e5d	0.14879747
232	0x3e41ac35	0.18913348
233	0x3d0ac023	0.033874642
234	0x3e256fbf	0.16155909
235	0x3d09c70a	0.033637084
236	0xbc0f8ec5	-0.008762066
237	0x3da3fabf	0.080068104
238	0x3e45b44e	0.19307062
239	0xbdad60f0	-0.08465755
240	0x3d296486	0.041355632
241	0xbb71bc04	-0.0036885748
242	0x3e7b5204	0.24543005
243	0x3e058ed9	0.13042773
244	0xb814c2ec	-3.5467485e-05
245	0xbdfbc8da	-0.12294169
246	0x3e189481	0.149004
247	0xbdae4a24	-0.08510235
248	0xbd80ae7f	-0.062832825
249	0xbe002e82	-0.12517741
250	0xbe19e875	-0.15030082
251	0xbdeea3e7	-0.11652356
252	0x3c9981ab	0.018738588
253	0x3db390ea	0.087678745
254	0xbe440cc6	-0.19145498
255	0x3e2cffa8	0.168944

weight f4 [1, 256]
0	0xbcbab091	-0.022789272
1	0xbd973bdf	-0.073844664
2	0x3e03375c	0.12814087
3	0xbda5868f	-0.08082306
4	0x3d112e47	0.035444524
5	0x3db6e25e	0.08929895
6	0x3d89a75f	0.06721377
7	0x3cf57ae0	0.029965818
8	0xbd3b3afa	-0.04571054
9	0x3c96a107	0.01838733
10	0xbd79efe8	-0.061019808
11	0x3c858a7d	0.016301388
12	0x3d3fd27e	0.0468316
13	0x3cf33df6	0.029692631
14	0x3d83dee5	0.06438998
15	0x3c3d17be	0.011541305
16	0xbca9f71b	-0.020747712
17	0xbc06ba07	-0.008223063
18	0x3cc3a814	0.023883857
19	0x3b8ebcf5	0.0043560215
20	0xbceb00ae	-0.028686848
21	0xbd918507	-0.07105451
22	0xbd947fd1	-0.072509415
23	0xbd2f5f51	-0.04281551
24	0x3d8eed33	0.06978836
25	0xbd4dffc4	-0.050292745
26	0x3d83dd50	0.064386964
27	0x3de20efd	0.11038015
28	0x3ccdac0c	0.025106452
29	0xbcb1193d	-0.02161848
30	0x3d2bfc99	0.041988943
31	0xbcffa1c8	-0.031205073
32	0x3cbb9880	0.022899866
33	0xbda1adb5	-0.0789446
34	0x3dd5883e	0.10426377
35	0xbde1483f	-0.11000108
36	0xbd1b4aa6	-0.037912987
37	0x3c8d6d16	0.01726393
38	0x3db19460	0.086708784
39	0xbdd8abc0	-0.10579634
40	0xbd3d3679	-0.046194527
41	0x3d834b3d	0.06410835
42	0x3dda3ebf	0.10656499
43	0x3cadba65	0.021207044
44	0xbd686385	-0.056735534
45	0x3d89ed51	0.06734718
46	0x3d3f0c5e	0.046642654
47	0x3c439053	0.011936265
48	0xbe188ac2	-0.14896682
49	0x3d783d52	0.060605355
50	0x3ccc4770	0.024936408
51	0xbcbd1865	-0.023082921
52	0x3d1f21df	0.03885066
53	0x3d876c48	0.0661245
54	0x3c249ec5	0.010047619
55	0xbc89acb4	-0.016805984
56	0xbd3491da	-0.044084407
57	0xbd9e84d3	-0.07740178
58	0x3e0837b5	0.133025
59	0x3c8dc9de	0.017308172
60	0xbd1e998b	-0.03872065
61	0xbd544f7d	-0.05183362
62	0xbd8867b4	-0.06660405
63	0x3d93acd0	0.07210696
64	0x3d7bdfab	0.061492603
65	0xbd85e27e	-0.065373406
66	0x3cc97f21	0.024596753
67	0xbd8fc614	-0.07020202
68	0x3cd8648f	0.026415138
69	0x3d33368d	0.043753196
70	0x3dab2f03	0.08358576
71	0xbcaabd3f	-0.020842193
72	0x3dc1a468	0.09455186
73	0xbca3280f	-0.019916562
74	0x3da92add	0.08260129
75	0x3bbd091b	0.0057689077
76	0xbd62407a	-0.05523727
77	0xbd8f7a37	-0.070057325
78	0x3bf5a14e	0.0074960357
79	0x3d13cf00	0.036086082
80	0xbda9c67b	-0.0828981
81	0xbd91db94	-0.07121959
82	0xbc215aa2	-0.009848269
83	0x3c9be838	0.019031629
84	0x3d1f7874	0.038933232
85	0xbd3c7527	-0.046010163
86	0x3d26732b	0.040637176
87	0x3dc8e879	0.09809966
88	0x3dd7be8e	0.10534392
89	0x3cdfd2d3	0.027322209
90	0xbd2bc4ee	-0.041935854
91	0x3d26276d	0.040564943
92	0x3ccb3845	0.024807105
93	0x3d81928a	0.06326778
94	0x3dcb8157	0.09936779
95	0xbd799688	-0.060934573
96	0x3b357db6	0.0027693338
97	0xbd633566	-0.055470847
98	0x3d684b6c	0.056712553
99	0x3da84016	0.082153484
100	0xbc60a33a	-0.013710791
101	0x3cf49ff0	0.02986142
102	0x3d129de1	0.035795096
103	0xbdafc51e	-0.08582519
104	0x3b1ea4c1	0.0024207088
105	0x3dcda82b	0.10041841
106	0xbdad5083	-0.08462622
107	0xbd1ded09	-0.038556132
108	0xbdcd4bbb	-0.1002421
109	0x3cae4ad9	0.021275925
110	0x3d46fbac	0.048579857
111	0xbd11a529	-0.0355579
112	0x3d162a87	0.03666165
113	0x3de608b7	0.11232131
114	0xbdd24310	-0.102666974
115	0xbda2d9d0	-0.07951701
116	0xbce83029	-0.028343277
117	0x3da62175	0.0811185
118	0xbd7da20c	-0.061922118
119	0xbd201dc0	-0.03909087
120	0x3d99b92f	0.07506024
121	0x3ca3701a	0.019950915
122	0x3d93235c	0.07184479
123	0x3d802601	0.06257249
124	0xbd05d5ec	-0.032674715
125	0x3d897316	0.06711404
126	0xbc2c6c01	-0.010523797
127	0xbdf73df5	-0.12072364
128	0xbd6c8c61	-0.057751063
129	0x3cf61509	0.030039327
130	0xbda0d4dc	-0.078531
131	0xbd3bb059	-0.045822475
132	0x3d8557c9	0.06510884
133	0x3da8cd3f	0.082422726
134	0x3d849333	0.064733885
135	0x3d78a60b	0.060705226
136	0xbdb03748	-0.08604294
137	0xbd2da526	-0.042393826
138	0xbd5d9e8f	-0.05410629
139	0xbbf6cd97	-0.0075318324
140	0xbd58689c	-0.05283414
141	0x3d99def4	0.07513228
142	0x3d950c6f	0.07277762
143	0x3d4c6594	0.04990156
144	0xbd8a89c6	-0.067645594
145	0x3be6809d	0.007034375
146	0xbd61387a	-0.0549855
147	0x3da18da8	0.07888347
148	0xbb86ba3f	-0.0041115577
149	0x3d91b184	0.071139365
150	0x3ceba1a5	0.028763602
151	0x3d80e93b	0.06294485
152	0xbc18df7d	-0.0093306275
153	0xbd46429e	-0.048403375
154	0xbca6556f	-0.02030441
155	0x3d3448df	0.044014808
156	0x3ce0de49	0.027449744
157	0x3d5e1843	0.054222357
158	0xbd27ed21	-0.040997628
159	0x3b687955	0.003547271
160	0x3dc49c5b	0.09600135
161	0x3d15dee0	0.036589503
162	0xbd8630f0	-0.06552303
163	0x3cc7b2a7	0.02437718
164	0x3d865732	0.065596
165	0xbddef496	-0.10886495
166	0xbd8d0596	-0.06885831
167	0x3de799d2	0.11308636
168	0xbd3f21c4	-0.04666306
169	0xbd637f27	-0.055541184
170	0x3d371b4f	0.044703778
171	0x3d86ae6b	0.06576236
172	0x3dc7b5b2	0.097514525
173	0xbd272294	-0.04080446
174	0x3cb0b3fc	0.021570198
175	0x3d83c08b	0.06433209
176	0xbd93ec53	-0.0722281
177	0xbc3626b5	-0.011117627
178	0xbd1863d3	-0.037204575
179	0xbdd1f945	-0.102526225
180	0x3cfbb321	0.030725064
181	0x3e08831f	0.13331269
182	0x3cb74be0	0.022375047
183	0x3bc91b83	0.006137313
184	0xbde7309a	-0.11288567
185	0x3d09007c	0.033447728
186	0x3cd946bb	0.026522985
187	0xbdead668	-0.11466676
188	0xbda78b33	-0.08180847
189	0x3dab61bc	0.08368251
190	0xbdcf20bb	-0.10113665
191	0xbd68579d	-0.05672418
192	0xbd0d3833	-0.034477424
193	0xbd6f8115	-0.05847271
194	0x3e06bc5f	0.13157795
195	0xbd34db74	-0.0441546
196	0xbcfb3592	-0.030665193
197	0x3cf3782d	0.02972039
198	0x3d96ef72	0.07369889
199	0x3d3636ad	0.044485737
200	0x3d526063	0.051361453
201	0xbdc57fb0	-0.09643495
202	0xbcb3bc55	-0.02194039
203	0x3d4286ad	0.047491718
204	0xbd7ab170	-0.061204374
205	0xbdb73552	-0.08945717
206	0xbc9f1a25	-0.019421646
207	0x3b1b84d2	0.002373029
208	0xbd41f0e0	-0.047348857
209	0xbd81ae81	-0.06332112
210	0x3ce34954	0.027744927
211	0xbd42ae3b	-0.04752944
212	0xbd25cadd	-0.04047667
213	0x3dba0a48	0.09083992
214	0xbbe2a696	-0.0069168312
215	0x3c7d9ee8	0.015479781
216	0x3bfe64dd	0.0077634887
217	0x3d91f272	0.07126321
218	0x3ca7f6ac	0.020503365
219	0xbb876e11	-0.004132994
220	0x3cdb42f5	0.026765326
221	0x3cc6068b	0.024173042
222	0x3d804f98	0.06265181
223	0x3dc8d03f	0.09805345
224	0xbd986bfe	-0.07442473
225	0x3dbda65f	0.092602484
226	0x3de9deff	0.11419486
227	0x3de5652b	0.11200937
228	0x3d15fbc4	0.036617056
229	0x3c151522	0.009099277
230	0x3d3b2fe9	0.045699988
231	0x3d94883e	0.07252549
232	0x3d98d8f2	0.07463254
233	0x3e02bcde	0.1276736
234	0x3dce9cbc	0.100884885
235	0x3e0675ed	0.13130923
236	0x3d70dea1	0.058806065
237	0x3dd65e27	0.10467177
238	0xbd942c42	-0.07235004
239	0xbcfd7563	-0.030939763
240	0x3d9cab60	0.07649875
241	0x3d8104b6	0.06299727
242	0x3d44613e	0.0479443
243	0xbd0bcba6	-0.03412976
244	0xbdb1f626	-0.08689527
245	0x3d3ea971	0.04654831
246	0x3dac3035	0.08407632
247	0xbc591c30	-0.013251349
248	0x3cc5525b	0.024087122
249	0x3da4edac	0.08053145
250	0xbe250199	-0.1611389
251	0xbb6a2542	-0.0035727774
252	0xbd3c33a3	-0.045947682
253	0x3dc0d2e4	0.09415224
254	0xbd817d46	-0.06322722
255	0x3d13d429	0.036091004

weight f4 [256, 1]
0	0x3e13dba3	0.14439254
1	0x3f55dfd3	0.83544654
2	0x3e9e675e	0.30938238
3	0x3ee89cee	0.45432228
4	0x3ecb064f	0.3965325
5	0xbf1b2a06	-0.60611
6	0xbf24184e	-0.64099586
7	0x3ec37282	0.381733
8	0xbe951beb	-0.29122862
9	0x3f37fa4f	0.71866316
10	0xbe4b4088	-0.19848835
11	0x3f824b7c	1.0179286
12	0xbe8ba5cc	-0.2727493
13	0x3d33df77	0.043914285
14	0x3f1ac00c	0.6044929
15	0x3e0ec576	0.13942513
16	0xbefcdc59	-0.49386862
17	0xbf735dbe	-0.95064914
18	0x3f42d76e	0.7610997
19	0xbd8e1f78	-0.06939596
20	0x3ec0ad04	0.37632
21	0xbd842170	-0.0645169
22	0xbe5f0208	-0.21778119
23	0x3f3ea922	0.74476826
24	0x3ee7d1d4	0.45277274
25	0xbeae06f8	-0.33989692
26	0xbf37f700	-0.7186127
27	0x3d498f0c	0.049208686
28	0xbf5149be	-0.81753147
29	0x3f0fd319	0.56181484
30	0x3f5d1526	0.86360395
31	0xbe15ef8d	-0.14642163
32	0x3e8a0cca	0.26962882
33	0xbe281112	-0.16412762
34	0x3d54308d	0.051804114
35	0x3f6bc0d1	0.9209109
36	0xbeb883a1	-0.36037925
37	0x3f7da32b	0.990771
38	0x3f4a224b	0.78958577
39	0x3f5804dd	0.8438242
40	0xbd6c4700	-0.0576849
41	0x3f736cbe	0.950878
42	0xbeab08a0	-0.33405018
43	0x3f81ade3	1.0131191
44	0xbeaf7654	-0.34269965
45	0xbe7470da	-0.23871174
46	0xbea4d7e8	-0.32195973
47	0xbf0c1498	-0.54718924
48	0xbf03cfb9	-0.51488835
49	0x3ee94bb6	0.45565575
50	0x3ef46d8d	0.4773983
51	0xbdb04eb0	-0.086087584
52	0x3f0dce53	0.5539295
53	0xbf76eb2d	-0.964526
54	0x3f081f26	0.5317253
55	0x3e0114d3	0.126056
56	0xbf1c8112	-0.61134446
57	0x3f54eea1	0.8317662
58	0xbe979081	-0.29602435
59	0xbf0b221e	-0.54348934
60	0xbe845fb7	-0.25854275
61	0x3f1ae856	0.60510767
62	0x3ec65a64	0.38740838
63	0x3f5e1a74	0.86759114
64	0x3f64b3c2	0.8933679
65	0xbde27410	-0.110572934
66	0x3f4e7325	0.80644447
67	0xbda4a8d9	-0.08040018
68	0xbf21dc6e	-0.63226974
69	0x3f860b46	1.047219
70	0x3eefc331	0.46828607
71	0x3f3bf9f9	0.73428303
72	0x3f700190	0.93752384
73	0xbebb4b64	-0.36580956
74	0xbed8188c	-0.42206228
75	0xbf45ee00	-0.77316284
76	0x3f4dc495	0.80378085
77	0x3f3f3517	0.74690384
78	0x3ef54d05	0.47910324
79	0x3e04bbc9	0.1296226
80	0x3daf138d	0.08548651
81	0x3f876a3a	1.0579293
82	0xbf5a21ff	-0.85208124
83	0xbd89d000	-0.06729126
84	0x3b97cb00	0.004632354
85	0x3ee0eee2	0.43932253
86	0x3e41b24a	0.18915668
87	0x3ecb376b	0.39690718
88	0x3f60aaf9	0.87760884
89	0x3e8f94c8	0.280432
90	0xbf377347	-0.71660274
91	0x3dc003e2	0.093757406
92	0x3f560ccf	0.83613294
93	0x3f343e41	0.7040749
94	0x3c30507f	0.010761379
95	0xbf0766fd	-0.5289152
96	0x3f7c7cc7	0.98627895
97	0xbcde5f26	-0.02714498
98	0xbf314f92	-0.6926204
99	0x3dec1a66	0.115284726
100	0x3e2fc8ea	0.17166486
101	0x3f74f9f3	0.9569389
102	0xbf2f894c	-0.68568873
103	0x3dc60778	0.09669393
104	0x3ebf2f39	0.37340716
105	0xbf27fb75	-0.6561807
106	0xbf1f4ee4	-0.6222975
107	0x3f54b41a	0.83087313
108	0x3e491907	0.19638453
109	0x3eb70ec4	0.35753453
110	0x3f7ad6ac	0.97983813
111	0x3ef4427c	0.47706974
112	0xbf3d1732	-0.7386352
113	0x3f4dd71b	0.8040635
114	0x3f343462	0.7039243
115	0xbe99875c	-0.29986084
116	0x3d3e7599	0.04649887
117	0x3edc57d4	0.43035758
118	0x3e9e77fe	0.30950922
119	0xbe97dc67	-0.2966034
120	0x3f422b6c	0.75847507
121	0x3f135ab2	0.57560265
122	0x3f86249d	1.0479923
123	0x3ced65e5	0.028979251
124	0x3c9e62b8	0.019334182
125	0xbf6cbfe6	-0.92480314
126	0x3f253272	0.645301
127	0xbee1b247	-0.44081327
128	0x3f47d627	0.78061146
129	0xbe12ec10	-0.14347863
130	0xbf520798	-0.8204284
131	0xbe14bc63	-0.14524989
132	0x3ee83d3a	0.45359212
133	0xbe9cd0c4	-0.30628026
134	0x3f74f2e7	0.9568314
135	0x3f578dfb	0.8420102
136	0xbefd2300	-0.49440765
137	0x3f46a1f0	0.77590847
138	0x3ee7b855	0.45257822
139	0xbe111025	-0.14166315
140	0x3f3d9357	0.7405295
141	0x3f2e300f	0.6804208
142	0xbf0f1648	-0.55893373
143	0x3e1799d9	0.14804782
144	0x3f04af34	0.5182984
145	0x3ecb0c90	0.39658022
146	0xbf3594cc	-0.7093017
147	0x3e71134b	0.23542516
148	0xbd4e2540	-0.050328493
149	0xbe85ae59	-0.2610958
150	0xbe9b69b6	-0.3035409
151	0xbf421597	-0.75814193
152	0xbf3f8490	-0.7481165
153	0x3e040ed3	0.1289628
154	0xbea169a4	-0.3152591
155	0x3e3dea68	0.1854645
156	0x3d7d2737	0.061804976
157	0xbf3fc886	-0.7491535
158	0x3e6e7d0a	0.23289886
159	0x3f4aa3f5	0.7915643
160	0xbe7bff10	-0.24609017
161	0x3e17db69	0.14829792
162	0xbe3016b8	-0.17196167
163	0xbf56ba6d	-0.83878213
164	0xbec8276c	-0.39092577
165	0x3f43c85c	0.764776
166	0xbec0daa6	-0.37666816
167	0x3f85d39d	1.0455204
168	0xbeac2e58	-0.33629107
169	0xbeaf4ccc	-0.3423828
170	0x3f30ea88	0.69107866
171	0x3f5de005	0.8666995
172	0xbf35e4cc	-0.7105224
173	0x3f8758d1	1.057398
174	0x3f8392e3	1.0279201
175	0xbf452e0c	-0.77023387
176	0x3f81e444	1.0147786
177	0x3f5299a3	0.8226568
178	0x3f5a34e6	0.85236967
179	0x3e091658	0.1338743
180	0x3f84b867	1.0368775
181	0xbf78485e	-0.96985424
182	0xbe17e698	-0.14834058
183	0x3f21694d	0.630513
184	0xbef2be68	-0.47410893
185	0xbe7921d8	-0.24329317
186	0x3f4ca537	0.799396
187	0x3f3dfd5c	0.7421472
188	0xbe95e8b9	-0.29279116
189	0xbf6c8348	-0.9238782
190	0xbba6c700	-0.0050896406
191	0xbf196d58	-0.5993247
192	0xbf554f8d	-0.8332451
193	0x3f7c65e5	0.9859298
194	0x3e9e606c	0.3093294
195	0xbedffccc	-0.43747556
196	0xbec1e41c	-0.37869346
197	0x3ec5a9ee	0.3860621
198	0xbf354132	-0.70802605
199	0x3f2d45a0	0.67684364
200	0xbef4ab1d	-0.477868
201	0xbe708ed6	-0.23491988
202	0xbf50f3a5	-0.8162177
203	0xbed29a53	-0.41133365
204	0x3df2be2f	0.11852681
205	0x3e6f0380	0.23341179
206	0xbda16ec0	-0.07882452
207	0x3ee156cc	0.44011533
208	0xbf4876c2	-0.7830621
209	0xbecbb557	-0.3978679
210	0x3f364eab	0.7121379
211	0x3f7e29e9	0.992827
212	0xbc49ba80	-0.0123125315
213	0x3c9242c0	0.017854095
214	0x3e2c78e9	0.16842999
215	0xbe93efab	-0.2889379
216	0xbf7e6df8	-0.9938655
217	0x3e7e062b	0.2480704
218	0xbed68cc8	-0.41904283
219	0xbe93b6a4	-0.2885028
220	0xbe26a8c8	-0.16275322
221	0x3e034ca3	0.12822203
222	0xbf39bd8e	-0.7255486
223	0x3dfa9911	0.12236226
224	0x3f1a2ecc	0.60227656
225	0xbf04a930	-0.5182066
226	0xbf49be1f	-0.78805727
227	0x3f87fc6e	1.062391
228	0x3f60dd14	0.8783734
229	0xbf5fc8a4	-0.8741553
230	0xbcffe52f	-0.031237213
231	0xbf429a34	-0.76016545
232	0x3ddebbde	0.108756766
233	0xbf524fb6	-0.8215288
234	0x3f5768b8	0.84144163
235	0xbe88cd30	-0.26719046
236	0x3ea99ce0	0.331275
237	0xbeeb3da4	-0.45945466
238	0x3e827fbd	0.25488082
239	0x3e9990f4	0.29993403
240	0xbf034d44	-0.51289773
241	0x3f26b469	0.65119034
242	0xbe280d68	-0.16411364
243	0xbe9aaeec	-0.3021158
244	0xbf136691	-0.5757838
245	0x3f419e8d	0.75632554
246	0xbf68e541	-0.90974814
247	0x3f2fc3c0	0.68658066
248	0xbf22afd0	-0.6354952
249	0x3b195318	0.0023395475
250	0x3ef9d5a9	0.48795822
251	0x3cbabf00	0.022796154
252	0xbf61612e	-0.8803891
253	0x3f3c5fbb	0.73583573
254	0x3ef6b3e4	0.4818412
255	0x3f808852	1.0041602

bias f4 [256]
0	0xbddb9e30	-0.10723531
1	0xbf201afa	-0.6254116
2	0xbf75e2b3	-0.9604904
3	0xbd3a261c	-0.0454465
4	0x3e25ad91	0.16179492
5	0xbf1d5e38	-0.6147189
6	0xbf40d764	-0.7532866
7	0x3eeaacfa	0.45835096
8	0x3f4c7c1a	0.79876864
9	0xbd0538f8	-0.032525033
10	0xbf0d0a36	-0.55093706
11	0x3f3a246a	0.72711813
12	0xbf4f1de6	-0.80904996
13	0xbe30c146	-0.17261228
14	0xbf17c291	-0.5928126
15	0xbe4fb711	-0.20284678
16	0x3f205a4a	0.6263777
17	0xbdda4770	-0.10658157
18	0xbf62f4b3	-0.8865463
19	0x3e5a9765	0.21346815
20	0x3f0470fd	0.51734906
21	0xbf6336de	-0.88755596
22	0xbda56b50	-0.08077109
23	0x3ebccbe9	0.3687432
24	0xbdfbaa7d	-0.122883774
25	0xbecb24a0	-0.3967638
26	0x3d797080	0.060898304
27	0x3f4d9300	0.8030243
28	0xbeb63910	-0.3559041
29	0xbf49f39a	-0.7888733
30	0xbeea3100	-0.4574051
31	0x3ee3cbda	0.44491464
32	0x3f3e9c97	0.7445769
33	0x3eef3095	0.46716753
34	0x3f4123a0	0.75444984
35	0x3ef30bda	0.4746998
36	0x3ee10519	0.43949202
37	0x3ecfe4a1	0.40604118
38	0xbe1cfaec	-0.15330094
39	0xbf76ca69	-0.96402603
40	0xbf63c836	-0.8897737
41	0xbe20ae3a	-0.15691462
42	0xbd22a0c0	-0.039704084
43	0x3f1ac254	0.6045277
44	0xbee157ac	-0.440122
45	0x3e839cdd	0.25705615
46	0xbd6b2a60	-0.05741346
47	0xbf737c1c	-0.9511125
48	0x3f359ca9	0.7094217
49	0xbf35faca	-0.710858
50	0xbf31e648	-0.69492006
51	0xbf08feca	-0.5351378
52	0xbe51aa0b	-0.20475022
53	0x3f2d3006	0.676514
54	0xbf11e7e9	-0.5699449
55	0x3f598f58	0.8498435
56	0x3f65f699	0.89829403
57	0xbe7a1dce	-0.24425432
58	0x3f542572	0.82869637
59	0xbf02af5a	-0.51048815
60	0x3ecb5dec	0.39720094
61	0x3f217c0d	0.6307991
62	0xbf8a0b69	-1.0784732
63	0xbf28a478	-0.6587596
64	0xbddeafb5	-0.10873357
65	0xbdcce230	-0.10004079
66	0xbcf86763	-0.030322736
67	0x3f7e532b	0.99345654
68	0x3f3b4c44	0.7316325
69	0xbf2fa89e	-0.68616664
70	0xbd9e382d	-0.077255584
71	0x3dd8a023	0.10577419
72	0xbeec2c1e	-0.4612741
73	0xbf03823e	-0.5137061
74	0xbf4ae8f6	-0.7926172
75	0xbf2bf896	-0.6717619
76	0x3ed40e34	0.41417086
77	0xbf765f07	-0.9623875
78	0xbe55be6f	-0.20873426
79	0x3f37f916	0.7186445
80	0xbf2cec36	-0.6754793
81	0x3dc1a112	0.0945455
82	0x3e063051	0.13104369
83	0xbf3f6220	-0.747591
84	0xbf1b3e34	-0.6064179
85	0x3ec9426d	0.3930849
86	0x3e78db80	0.24302483
87	0x3e8ea85d	0.27862826
88	0x3f5d9d7d	0.86568433
89	0xbe12f82c	-0.14352483
90	0x3efb3403	0.4906312
91	0x3f25a354	0.64702344
92	0xbe6023b8	-0.21888626
93	0xbe0add0a	-0.13560882
94	0x3e7d2f8f	0.24725173
95	0x3f79eb44	0.9762461
96	0xbf34e0ef	-0.7065572
97	0x3f6c54d7	0.92316955
98	0x3dad4650	0.08460677
99	0x3f064c0c	0.5245979
100	0xbd470754	-0.048590973
101	0xbf11e19b	-0.5698487
102	0xbf46802c	-0.77539325
103	0x3eefbe2c	0.46824777
104	0x3ec23136	0.3792817
105	0x3f00d791	0.5032893
106	0xbe885ab8	-0.26631713
107	0x3c1cf30a	0.009579429
108	0xbeb0a6eb	-0.34502348
109	0x3e81342b	0.25235114
110	0xbd950112	-0.07275595
111	0xbedc2fd0	-0.43005228
112	0xbf2978ea	-0.66200125
113	0x3df06d0f	0.11739551
114	0xbef47492	-0.47745186
115	0xbef97f74	-0.48730052
116	0x3f4b2551	0.79353815
117	0x3cd15432	0.025552843
118	0x3f39ae8f	0.7253198
119	0x3f52f6ab	0.82407635
120	0xbf27a28d	-0.6548241
121	0xbe209fb0	-0.15685916
122	0x3f250225	0.644564
123	0x3ef18bfe	0.47177118
124	0x3f831734	1.0241456
125	0xbf281aa4	-0.6566565
126	0x3f4ecd6a	0.80782187
127	0x3d14c868	0.036323935
128	0xbe3dd7fe	-0.18539426
129	0xbe8cc7d4	-0.27496207
130	0xbe8aa424	-0.27078354
131	0x3e50362d	0.20333166
132	0xbe5f58c0	-0.21811199
133	0xbf745a2c	-0.9545009
134	0x3e067ad9	0.131328
135	0xbecc2989	-0.3987544
136	0xbe7f9ff8	-0.24963367
137	0x3f0223cc	0.5083587
138	0x3eb868bf	0.36017415
139	0x3e2a6ec9	0.16643824
140	0xbf2ccc07	-0.6749882
141	0x3c482bb3	0.01221745
142	0xbeb274d4	-0.34854758
143	0x3f5aa81f	0.8541278
144	0x3f1de0bd	0.6167105
145	0x3ef1d6cd	0.47234192
146	0x3f048217	0.51761
147	0x3dd8b684	0.10581687
148	0xbd884eb0	-0.066556334
149	0x3e15bcd5	0.14622815
150	0x3ea09df9	0.31370524
151	0x3efba73e	0.49151033
152	0x3eec7bfa	0.46188337
153	0x3f6c4b10	0.92302036
154	0xbf264f86	-0.64965093
155	0x3f07fa51	0.5311633
156	0xbefb7f9d	-0.491208
157	0xbe87857c	-0.26469028
158	0xbee2b78a	-0.44280654
159	0xbf518a7a	-0.81851923
160	0xbe1e1028	-0.1543585
161	0x3ed84ca0	0.4224596
162	0x3eb53282	0.35390097
163	0x3f4e93fc	0.80694556
164	0xbf7d1e38	-0.98874235
165	0x3f2babed	0.6705921
166	0x3f17841c	0.5918596
167	0x3eeee7a3	0.466611
168	0xbf1a0526	-0.60164106
169	0xbf477b60	-0.7792263
170	0x3f1db80c	0.6160896
171	0x3f1f0cbf	0.62128824
172	0x3ecbc58f	0.39799163
173	0xbf2275d8	-0.63461065
174	0x3e3de494	0.18544227
175	0x3eaf7a69	0.3427308
176	0xbf086f18	-0.53294516
177	0x3f5a2f0a	0.85228026
178	0x3eeab7dc	0.458434
179	0x3e57a0d9	0.21057452
180	0xbf22adb8	-0.63546324
181	0x3ef0317a	0.46912748
182	0xbe9b0c54	-0.30282843
183	0xbe28742f	-0.1645057
184	0xbe1656b8	-0.14681518
185	0xbf23f328	-0.640429
186	0x3ecfbc0c	0.40573156
187	0xbe97502c	-0.29553354
188	0x3ea0107f	0.31262586
189	0xbe250bb0	-0.1611774
190	0xbdf50910	-0.11964619
191	0x3f014480	0.5049515
192	0x3e4b29d7	0.1984018
193	0xbf14c2de	-0.58109844
194	0x3f1f0940	0.6212349
195	0xbf5fa4b8	-0.87360716
196	0xbf6acff6	-0.91723573
197	0x3f089f96	0.5336851
198	0xbecf7f54	-0.4052683
199	0x3e82eac7	0.25569746
200	0x3f394ba2	0.7238103
201	0x3f218262	0.63089573
202	0xb9c61d48	-0.0003778732
203	0x3f347b70	0.7050085
204	0x3f332ec0	0.6999321
205	0xbe2d11f9	-0.16901387
206	0xbeb5fdc8	-0.35545182
207	0xbe1ef5a3	-0.1552339
208	0xbe940c60	-0.2891569
209	0x3edffb2b	0.43746313
210	0xbe91cdaf	-0.28477237
211	0xbf583704	-0.8445895
212	0xbed3822c	-0.4131025
213	0xbe9b5ee0	-0.3034582
214	0x3f5c901b	0.8615739
215	0x3e610bbc	0.21977133
216	0xbed57f58	-0.41698718
217	0xbf399821	-0.72497755
218	0xbf4cddd8	-0.80026007
219	0xbe341860	-0.17587423
220	0x3ee31712	0.4435354
221	0xbe4f135f	-0.20222233
222	0xbf03726e	-0.5134648
223	0x3eca7851	0.3954492
224	0xbeefed33	-0.46860656
225	0xbf78fe1a	-0.9726273
226	0x3f4605db	0.77352685
227	0xbbfc0e3c	-0.0076921266
228	0x3f594525	0.8487113
229	0xbf79be68	-0.9755616
230	0x3f7cb2f3	0.98710555
231	0xbf7634e0	-0.9617443
232	0xbf75bc93	-0.95990866
233	0x3f23f483	0.6404497
234	0x3e5f61bd	0.21814628
235	0x3f3c3b96	0.7352842
236	0xbf7e991e	-0.9945239
237	0x3e37c1d9	0.17945041
238	0x3ec4f612	0.38468987
239	0xbee11e6a	-0.43968517
240	0xbead01c4	-0.3379041
241	0xbf101486	-0.56281316
242	0xbf35d9cc	-0.71035457
243	0xbf6f3752	-0.9344379
244	0x3f4a5f58	0.79051733
245	0x3f033ce0	0.5126476
246	0x3f173edb	0.59080285
247	0xbef5ff31	-0.48046258
248	0xbe968438	-0.2939775
249	0x3e88e661	0.26738265
250	0xbf5c9936	-0.8617128
251	0xbefca930	-0.4934783
252	0xbf5b5644	-0.85678506
253	0xbf6602ae	-0.8984784
254	0x3d414108	0.04718116
255	0x3f63c7c9	0.8897672

weight f4 [1, 256]
0	0xbd4f1323	-0.05055536
1	0x3c6b5605	0.01436377
2	0x3dc27aee	0.09496103
3	0x3dcf5cb5	0.10125104
4	0x3de4e24e	0.11175977
5	0x3d9009bc	0.07033107
6	0x3da08565	0.07837943
7	0x3d88d7eb	0.06681808
8	0x3d4fbbea	0.05071632
9	0x3d08638e	0.033298068
10	0xbd7988c7	-0.060921457
11	0x3d7e46f4	0.062079385
12	0x3d849888	0.064744055
13	0x3da1d46d	0.07901845
14	0x3da13079	0.078705736
15	0xbd7e3ef4	-0.062071756
16	0xbd9a113b	-0.07522818
17	0xbd0220cd	-0.031769563
18	0x3d9a9810	0.07548535
19	0xbca5fb4d	-0.020261431
20	0x3d771e80	0.06033182
21	0x3c2bae32	0.010478543
22	0xbdbe9b23	-0.09306934
23	0x3c462310	0.0120933205
24	0x3ddad496	0.10685079
25	0x3d6358bd	0.05550455
26	0x3cb0d097	0.021583838
27	0x3d9dbf11	0.07702459
28	0xbd2945c3	-0.041326296
29	0x3dbaa392	0.0911323
30	0x3d85a706	0.06525998
31	0x3cffe757	0.031238241
32	0x3bbf84a5	0.00584467
33	0xba8eea17	-0.0010903504
34	0x3cb1332d	0.021630848
35	0x3d8a4242	0.06750919
36	0xbb284625	-0.0025676575
37	0x3de1887d	0.11012361
38	0x3de41bf7	0.11138146
39	0xbca9364b	-0.020655772
40	0xbd39ab01	-0.045329098
41	0x3d51a0ee	0.051178865
42	0x3d50c559	0.050969455
43	0x3dd4e16c	0.10394558
44	0xbd25e746	-0.040503763
45	0xbcb5a369	-0.022172647
46	0x3d412527	0.04715457
47	0xbca0b9e3	-0.019619888
48	0xbe0b11b1	-0.13580967
49	0x3dd37d81	0.10326672
50	0x3ba0aa03	0.0049030795
51	0xbc93365b	-0.017970255
52	0x3d55986e	0.05214732
53	0x3d2db276	0.04240652
54	0x3dbf952a	0.09354623
55	0x3da5eaa2	0.08101393
56	0xbd936e6e	-0.07198797
57	0x3c40b06c	0.011760812
58	0x3df5adc5	0.119960345
59	0x3d4d713d	0.05015682
60	0xbd366ab5	-0.044535358
61	0x3dc51074	0.09622279
62	0x3c5dfcdd	0.013549057
63	0x3d9be7de	0.076125845
64	0x3ceccc1c	0.02890592
65	0xbda5aad7	-0.08089226
66	0x3c17f275	0.009274115
67	0xbd5e8b97	-0.054332342
68	0xbd786254	-0.060640648
69	0x3d81b037	0.063324384
70	0x3d85d1f6	0.065341875
71	0x3d7dcb11	0.061961237
72	0x3d318f6d	0.043349672
73	0xbcaf5897	-0.021404548
74	0x3e15f862	0.14645532
75	0xbcfac4c6	-0.030611407
76	0x3cca68f5	0.02470825
77	0x3c0e05b3	0.008668351
78	0xbb38733b	-0.0028144855
79	0x3da6f548	0.081522524
80	0xbd4e8c96	-0.050427042
81	0x3dc59ed7	0.09649437
82	0x3d26a698	0.04068622
83	0x3ceddb60	0.02903527
84	0x3d23456c	0.039861128
85	0xbc48d83c	-0.012258586
86	0x3d1bf227	0.03807273
87	0x3e0f63b8	0.14002883
88	0x3d79a492	0.060947962
89	0x3dd97853	0.10618653
90	0x3ca6b497	0.020349784
91	0xbd122a16	-0.035684668
92	0x3d9f9a39	0.077930875
93	0x3dc47eed	0.09594522
94	0x3db42098	0.08795279
95	0xbd670de6	-0.05640974
96	0x3d815e8d	0.06316862
97	0x3c30071d	0.010743883
98	0x3b77069b	0.0037693146
99	0x3d32a32f	0.043612655
100	0x3cfb7bb3	0.030698633
101	0x3d38a6d0	0.04508096
102	0x3d04bd44	0.03240706
103	0xbd43c06d	-0.047790933
104	0xbc44a0a9	-0.012001195
105	0x3c971bd2	0.018445883
106	0xbd8d24a8	-0.06891757
107	0x3d36cf30	0.044631183
108	0xbc70a736	-0.014688304
109	0xbcab56b0	-0.02091536
110	0x3d2824a0	0.041050553
111	0xbc8319a7	-0.016003443
112	0x3d8def2e	0.069303855
113	0x3cfb639e	0.03068715
114	0xbcbf0006	-0.02331544
115	0xbd89efc0	-0.06735182
116	0x3ca5ff83	0.020263439
117	0x3de5e77b	0.11225792
118	0x3d11d00e	0.035598807
119	0x3c6b6e16	0.014369508
120	0x3d8f005a	0.06982489
121	0x3dc886a6	0.09791307
122	0x3c8db24a	0.017296929
123	0x3d34d8cd	0.04415207
124	0xbd3fad33	-0.046796035
125	0x3d868043	0.06567433
126	0x3d1c4232	0.038149066
127	0xbce6fba6	-0.028196167
128	0x3d951bd8	0.072807014
129	0x3d42c04f	0.04754668
130	0xbda82b9e	-0.08211444
131	0xbd81232b	-0.06305536
132	0x3db22921	0.08699251
133	0x3db0e22b	0.08636888
134	0x3daf8b7a	0.08571525
135	0x3d66d85d	0.056358684
136	0xbda2ddad	-0.079524375
137	0x3d827e77	0.063717775
138	0xbb03c2dd	-0.0020105161
139	0xbd6aaf2f	-0.057295974
140	0x3c73df61	0.014884801
141	0x3d20f5be	0.039296858
142	0x3dbb3af4	0.09142104
143	0x3dcf58f5	0.10124389
144	0x3ca1d7aa	0.019756157
145	0x3c657382	0.01400459
146	0xbd26f352	-0.040759392
147	0x3d12ba0a	0.035821952
148	0x3c171f7e	0.009223817
149	0x3d3bfef5	0.045897443
150	0xbcdf838c	-0.027284406
151	0x3db4dc92	0.08831133
152	0x3d94b02b	0.07260164
153	0x3d12c951	0.03583652
154	0xbd0f5caf	-0.0350005
155	0x3d94753c	0.07248923
156	0xbd31f852	-0.043449707
157	0x3b61afb2	0.0034436998
158	0xbd547c41	-0.05187631
159	0x3cbceef2	0.023063157
160	0x3d6f6755	0.058448154
161	0x3d650813	0.055915903
162	0xbc638b95	-0.013888259
163	0xbd0cad88	-0.03434518
164	0xbcd0a1c0	-0.025467753
165	0x3d365cb9	0.04452202
166	0xbd9acc2a	-0.075584725
167	0x3dafd10c	0.085847944
168	0x3b986b07	0.0046514305
169	0x3c029a6e	0.007971389
170	0x3de076be	0.10960148
171	0x3c65b3d1	0.014019922
172	0x3d1871c7	0.03721788
173	0x3e10048c	0.14064234
174	0x3ded1a27	0.11577254
175	0x3ccca47b	0.024980774
176	0x3d9863af	0.07440888
177	0x3dd22829	0.10261566
178	0x3c2fc6c6	0.010728544
179	0xbbac18aa	-0.0052519636
180	0x3da2e5d6	0.07953994
181	0x3d5be086	0.05368092
182	0x3cb9fed7	0.022704525
183	0x3debedb1	0.115199454
184	0xbe107409	-0.14106764
185	0x3cceb250	0.02523151
186	0x3d964ab0	0.07338464
187	0x3d153cd1	0.036434952
188	0xbcbf5e2b	-0.023360332
189	0xbc24e5db	-0.010064567
190	0xbd5663aa	-0.05234114
191	0xbd3694b9	-0.044575427
192	0x3cd4d4b5	0.025980333
193	0x3d5cce75	0.05390783
194	0x3dd03287	0.10165887
195	0xbd12212f	-0.035676178
196	0xbd6e8136	-0.058228694
197	0x3d180dd3	0.03712256
198	0xbcafb0dd	-0.02144664
199	0x3d84b706	0.064802215
200	0x3d81b151	0.063326485
201	0xbcf5c311	-0.030000241
202	0x3d561929	0.05227009
203	0x3d43127b	0.047625046
204	0x3befe4da	0.0073209824
205	0x39d58b74	0.00040730427
206	0x3d50c4f0	0.050969064
207	0x3d1a7112	0.03770549
208	0xbd4ef32b	-0.05052487
209	0xbd868754	-0.065687805
210	0x3df6b6bd	0.12046573
211	0x3cff4ecd	0.031165505
212	0xbd2144d2	-0.039372273
213	0xbd13bb49	-0.03606728
214	0x3c4af643	0.012387815
215	0x3d837245	0.064182796
216	0xbd866ec3	-0.06564095
217	0x3d876bcb	0.06612357
218	0xbc459835	-0.012060215
219	0xbd5e6395	-0.054294188
220	0xba810947	-0.0009844684
221	0xba2beb78	-0.000655822
222	0x3c473732	0.012159156
223	0x3cdbfb73	0.026853299
224	0xbc0ce9cb	-0.008600662
225	0xb9502daa	-0.00019853437
226	0xbd1b3025	-0.03788771
227	0x3e0aa0b2	0.13537863
228	0x3db4305d	0.08798287
229	0x3cea1b0d	0.028577352
230	0xbd0a5164	-0.033769026
231	0xbd0df5ef	-0.03465837
232	0xbc28c30c	-0.010300409
233	0x3bab3961	0.005225346
234	0x3d982bf9	0.07430262
235	0x3d3f0f4b	0.046645444
236	0x3df33a68	0.118763745
237	0x3e24cdd7	0.16094147
238	0xbaa73d07	-0.0012759276
239	0xbc95c259	-0.018281149
240	0x3d85a6e5	0.06525973
241	0x3d25358d	0.040334273
242	0x3d1a3369	0.037646685
243	0xbd37088f	-0.044685896
244	0xbd9c28f7	-0.07625001
245	0x3ce9d4a9	0.028543787
246	0x3cdbed90	0.026846677
247	0x3d38b4b0	0.045094192
248	0x3d433083	0.047653686
249	0x3d53d11a	0.051713087
250	0x3994727c	0.00028314057
251	0xbd16156e	-0.03664153
252	0xbc09e765	-0.008416985
253	0x3e07be84	0.1325627
254	0x3d4d3322	0.050097592
255	0x3d1e07c8	0.03858164

weight f4 [256, 1]
0	0x3f1e50a5	0.61841804
1	0x3f849a10	1.0359516
2	0xbe683167	-0.22675095
3	0xbf52f1a4	-0.82399964
4	0x3e03318a	0.12811866
5	0xbf2a909a	-0.66626894
6	0xbe9806e4	-0.29692757
7	0xbf43b90e	-0.76454246
8	0x3ec6e253	0.38844547
9	0x3e327c24	0.17430168
10	0xbf6f3fcd	-0.9345673
11	0x3e09bff4	0.1345213
12	0x3f1aa18b	0.60402745
13	0xbf6ec7c6	-0.9327358
14	0x3e4a388a	0.1974813
15	0x3ea3a1c9	0.3195937
16	0xbe872240	-0.26393318
17	0x3f81884b	1.0119718
18	0x3f5a3a7e	0.852455
19	0x3f812ce4	1.0091825
20	0xbf556460	-0.83356285
21	0xbf610c40	-0.87909317
22	0xbf18f080	-0.59741974
23	0xbf25d6b0	-0.6478071
24	0xbeff909a	-0.4991501
25	0x3ec9cc62	0.39413744
26	0x3f5420d3	0.82862586
27	0x3f1befc4	0.6091273
28	0xbf1d555a	-0.6145836
29	0x3f03dc1a	0.51507723
30	0x3f4d6aff	0.8024139
31	0x3ecb2ae9	0.39681175
32	0xbf36b81f	-0.71374696
33	0xbd5612e0	-0.052264094
34	0xbf0b533e	-0.5442389
35	0xbf70de5e	-0.94089305
36	0xbebca2b4	-0.36842883
37	0x3f1d0b8f	0.6134576
38	0x3e83a1cc	0.2570938
39	0x3d53bef5	0.051695783
40	0x3f6dfa2f	0.92959875
41	0x3f66c9fa	0.9015194
42	0x3f6890eb	0.9084613
43	0x3f6f9906	0.9359287
44	0xbf661834	-0.8988068
45	0x3e43aae5	0.1910816
46	0x3f5c811e	0.8613452
47	0x3e82b713	0.255303
48	0x3f6ee22e	0.9331387
49	0x3f07a2e5	0.5298293
50	0xbe90753a	-0.28214437
51	0x3f7e8f8c	0.99437785
52	0x3dc212d3	0.09476247
53	0x3f2e3c0f	0.6806039
54	0xbf2af8ea	-0.6678606
55	0x3f73ae01	0.95187384
56	0xbe60d260	-0.21955252
57	0x3e45214c	0.19250983
58	0xbed397d0	-0.4132676
59	0x3f160a39	0.5860935
60	0xbeed9c63	-0.46408376
61	0xbf00e3ba	-0.50347483
62	0x3f79c263	0.97562236
63	0xbf48eed2	-0.7848941
64	0xbf7cddac	-0.98775744
65	0xbd43e180	-0.047822475
66	0xbf3b0178	-0.73049116
67	0xbf49e3d6	-0.78863275
68	0x3f81cf0b	1.014131
69	0xbe804e88	-0.25059915
70	0xbf33817c	-0.7011945
71	0x3f31759e	0.69320095
72	0xbf17cf64	-0.5930083
73	0x3eff9d3a	0.49924642
74	0xbe357058	-0.17718637
75	0x3f3960c9	0.7241331
76	0x3e7fc51b	0.24977534
77	0xbe8dd7bc	-0.27703655
78	0x3e2f375b	0.1711096
79	0x3f4efc6f	0.80853933
80	0xbe70b2e0	-0.23505735
81	0xbe8d03e8	-0.27542043
82	0x3eb71174	0.35755503
83	0x3f2bdb38	0.67131376
84	0xbf646453	-0.8921558
85	0xbda016d6	-0.078168556
86	0xbf5552a4	-0.83329225
87	0xbe776a00	-0.2416153
88	0xbd0db5e0	-0.034597278
89	0xbe299518	-0.16560781
90	0xbd491aa0	-0.049097657
91	0x3e0513b3	0.12995796
92	0xbf205fee	-0.6264638
93	0x3f67afe8	0.90502787
94	0x3d14cd92	0.03632886
95	0x3ec0a1e5	0.37623516
96	0x3f7bef26	0.98411787
97	0x3e135e48	0.14391434
98	0xbf4f9afc	-0.8109586
99	0xbe415a30	-0.1888206
100	0x3f037475	0.51349574
101	0x3f63a6d5	0.8892644
102	0xbe0a16da	-0.1348528
103	0x3efda531	0.49540094
104	0x3e642a7d	0.22281833
105	0xbf5bfe56	-0.8593496
106	0x3c9bd0a0	0.019020379
107	0x3d22f88a	0.039787807
108	0x3f1daaea	0.6158892
109	0x3e17b806	0.14816293
110	0xbdd284b0	-0.102792144
111	0x3e0f3be6	0.13987693
112	0xbf6d37dd	-0.92663366
113	0x3f2087b2	0.62707055
114	0xbf54f6aa	-0.8318888
115	0x3f5e6e73	0.8688728
116	0x3f7fdc71	0.9994574
117	0xbf645c74	-0.8920357
118	0x3f0be9e7	0.5465378
119	0x3f5b7561	0.8572598
120	0xbeeab9d7	-0.4584491
121	0x3f5b3e2c	0.8564174
122	0xbf7575ce	-0.9588288
123	0xbf17e9e4	-0.59341264
124	0xbf3beba2	-0.7340642
125	0xbebd7715	-0.37004915
126	0xbe26f140	-0.16302967
127	0x3f75a4ea	0.95954764
128	0xbf78bac8	-0.97160006
129	0xbf090c00	-0.53533936
130	0x3f642db2	0.89132226
131	0x3e8ad510	0.2711568
132	0xbef45e7d	-0.4772834
133	0x3f2faadf	0.68620104
134	0x3f87237b	1.0557703
135	0xbef0ed24	-0.47055924
136	0xbe1b8e30	-0.15190959
137	0xbf33e860	-0.7027645
138	0xbf802f29	-1.0014392
139	0xbe5ae506	-0.21376428
140	0xbedde6c4	-0.43340123
141	0xbe74cf88	-0.23907292
142	0x3f07e5cf	0.53085035
143	0x3f80567c	1.0026393
144	0xbef043c4	-0.469267
145	0x3e457c3c	0.19285673
146	0x3e73e7b8	0.23818862
147	0xbf02b62b	-0.51059216
148	0xbf4b4aa6	-0.7941078
149	0x3f726bbb	0.94695634
150	0x3f3392cb	0.70145863
151	0x3ef5f277	0.48036548
152	0xbf63c0e6	-0.88966215
153	0xbf20ff6e	-0.62889755
154	0xbf7a5c68	-0.9779725
155	0x3e1b42e6	0.15162238
156	0xbf33e4ad	-0.70270807
157	0xbcee6440	-0.029100537
158	0x3f6b542d	0.9192532
159	0xbf153e32	-0.5829803
160	0x3bb70800	0.0055856705
161	0x3f1d80dd	0.61524755
162	0xbec91bc4	-0.39278996
163	0xbdc3e7d6	-0.095657036
164	0x3f1db547	0.6160473
165	0xbf620698	-0.8829131
166	0xbf664692	-0.8995143
167	0xbf41f8c6	-0.75770223
168	0x3f2acd3b	0.66719407
169	0x3ed26e86	0.41099948
170	0xbdf52961	-0.11970783
171	0x3eb64753	0.3560129
172	0xbf80dd60	-1.0067558
173	0xbec8f1f1	-0.39247087
174	0xbf556d7a	-0.8337017
175	0x3ec64316	0.38723058
176	0x3e90efbf	0.28307912
177	0xbf6045ab	-0.87606305
178	0x3e813225	0.2523357
179	0xbf141cae	-0.5785626
180	0x3f1c5d0e	0.6107949
181	0xbf6e9deb	-0.93209714
182	0x3e425a6b	0.18979804
183	0xbd939280	-0.07205677
184	0xbf3eb49f	-0.74494356
185	0x3ef5d82c	0.4801649
186	0x3ea3aa6c	0.3196596
187	0x3f7a30a2	0.9773046
188	0x3e582f30	0.2111175
189	0x3f5d59aa	0.8646494
190	0x3dead45b	0.11466285
191	0xbf5892df	-0.8459911
192	0xbf3088e6	-0.6895889
193	0xbee96e00	-0.45591736
194	0xbea94e94	-0.33067763
195	0xbf6905a6	-0.91024244
196	0xbe96ff57	-0.29491684
197	0x3f5ff6b0	0.8748579
198	0xbf399a89	-0.72501427
199	0xbf723902	-0.94618237
200	0xbf7951f7	-0.97390693
201	0x3f38d41b	0.7219865
202	0x3b73e47f	0.0037215052
203	0xbe1396c0	-0.14412975
204	0xbf6fd64f	-0.93686384
205	0x3ec509ef	0.3848414
206	0xbca32165	-0.019913385
207	0x3ed600e7	0.41797563
208	0xbcfb4454	-0.03067223
209	0xbe9e91ac	-0.30970514
210	0xbb6f4d81	-0.0036514702
211	0x3d3b1a13	0.045679163
212	0x3f2d4cb6	0.67695177
213	0x3e0ab5d5	0.13545926
214	0xbe981134	-0.29700625
215	0x3f343a20	0.7040119
216	0xbe1e77fc	-0.15475458
217	0xbf7bb384	-0.98320794
218	0x3f2ff6f0	0.6873617
219	0x3ededdb2	0.43528515
220	0x3e2193ed	0.15779085
221	0xbe0e67d7	-0.139068
222	0x3ebe5049	0.37170628
223	0x3e5787a8	0.21047843
224	0x3ec27f1b	0.379876
225	0xbf3923b4	-0.72320104
226	0xbf5ea65e	-0.86972606
227	0xbf7672a6	-0.9626869
228	0xbf809c06	-1.0047615
229	0xbf5e6f8f	-0.86888975
230	0x3f5e6cda	0.86884844
231	0xbf4a1cc7	-0.7895016
232	0xbf3da5d4	-0.7408116
233	0x3f1e4b4c	0.61833644
234	0x3f4f79bf	0.81045145
235	0x3ea53b3d	0.32271758
236	0xbf70f50e	-0.94123924
237	0xbf512112	-0.81691086
238	0x3ee35e44	0.44407856
239	0x3f5442fc	0.8291471
240	0x3eb6398f	0.3559079
241	0xbe14d3e8	-0.14533961
242	0x3e31d700	0.17367172
243	0xbf39a89a	-0.7252289
244	0xbf6b9f7f	-0.92040247
245	0x3e562bd4	0.20915157
246	0xbd3ded80	-0.046369076
247	0x3f604f1a	0.876207
248	0x3f262524	0.6490042
249	0xbe874fd8	-0.26428103
250	0xbe771e98	-0.24132764
251	0xbf281888	-0.6566243
252	0x3f5ca45f	0.8618831
253	0xbc94d340	-0.018167138
254	0x3f1e1a5a	0.6175896
255	0xbf0b66e2	-0.5445386
