checkpoints/86301600.ckpt (torch, 122663 bytes, 33 tensors)

weight f4 [256, 18]
0	0x3e0ee4c4	0.13954455
1	0xbdfe2447	-0.12409263
2	0xbdf15459	-0.11783666
3	0xbe027f4c	-0.12743872
4	0x3e8ab9fd	0.27095023
5	0xbe0597a7	-0.13046132
6	0xbe641bc0	-0.22276211
7	0xbe20d21c	-0.1570515
8	0x3dea6aed	0.11446176
9	0x3ce91b9a	0.028455544
10	0x3dd9a2e6	0.106267735
11	0x3d2e1763	0.042502772
12	0x3e11e97b	0.14249222
13	0xbe252a17	-0.16129337
14	0x3e5d5552	0.21614578
15	0xbd9e8c5b	-0.077416144
16	0x3e564860	0.20926046
17	0x3e3148e2	0.17312959
18	0x3be9cc1f	0.007134929
19	0x3e075d9a	0.132193
20	0x3e187303	0.14887623
21	0x3d90c1f6	0.07068245
22	0x3e1e53c2	0.15461639
23	0xbd677375	-0.056506593
24	0xbe2e94d2	-0.17048958
25	0xbe0b07d7	-0.1357721
26	0x3bdbb7b2	0.006705248
27	0xbe2d6ea0	-0.16936731
28	0xbe34eaf6	-0.17667755
29	0xbb4fd2dc	-0.0031711375
30	0x3dd2ab81	0.10286618
31	0x3d94be6e	0.07262884
32	0x3db5e6c5	0.088819064
33	0x3d53c7c7	0.051704194
34	0x3e6bf596	0.23042902
35	0xbc6eec42	-0.014582695
36	0xbdada725	-0.08479146
37	0xbdefe68e	-0.11713897
38	0xbd4a8128	-0.04943958
39	0xbd3b9abc	-0.045801863
40	0xbe655217	-0.22394596
41	0x3d267478	0.040638417
42	0xbdc0d422	-0.09415461
43	0xbe9a659e	-0.30155653
44	0xbdb37a31	-0.087635405
45	0xbd7d80bb	-0.061890345
46	0x3ceb5136	0.028725248
47	0xbbf84b9a	-0.007577372
48	0xbcacbf13	-0.021087205
49	0xbdba8432	-0.091072455
50	0x3cffa88a	0.031208295
51	0x3d7f6671	0.062353555
52	0xbe2fbe61	-0.17162468
53	0x3df9475a	0.12171812
54	0xbdd732f5	-0.10507766
55	0x3dc91235	0.09817926
56	0x3de8c54a	0.11365755
57	0x3dd26bb5	0.1027445
58	0xbc790655	-0.015199264
59	0xbc8a138d	-0.016855026
60	0xbe346754	-0.17617542
61	0xbc901c97	-0.017591758
62	0xbae2e7c1	-0.00173115
63	0xbe3a8f08	-0.18218625
64	0xbe6f1fde	-0.23352
65	0xbe2294ae	-0.1587703
66	0x3e248ce5	0.16069372
67	0x3e60b05a	0.21942273
68	0x3dc219e2	0.09477593
69	0xbe62a013	-0.22131376
70	0xbdf0e5b3	-0.11762562
71	0xbd4a9380	-0.049457073
72	0xbe046bd3	-0.12931757
73	0xbe43410e	-0.19067785
74	0xbdc87b23	-0.097891115
75	0x3e3e8ad1	0.18607642
76	0xbe201572	-0.1563318
77	0xbdebc220	-0.11511636
78	0x3d963e38	0.07336086
79	0xbe5d5375	-0.21613868
80	0x3d4c965b	0.049948078
81	0x3e49184d	0.19638176
82	0x3dc23cff	0.0948429
83	0x3a8756d4	0.0010325559
84	0x3d4c017b	0.0498061
85	0xbe0779ce	-0.13230059
86	0x3e219d37	0.15782629
87	0x3daf9a2e	0.08574329
88	0x3dc2f475	0.09519283
89	0xbe6c065e	-0.23049304
90	0x3ca753bf	0.020425675
91	0x3d1caf4c	0.038253114
92	0xbbdbed99	-0.0067116735
93	0x3c1c66ea	0.009546021
94	0xbc6d043b	-0.014466341
95	0x3e71df87	0.23620425
96	0xbdaa3c30	-0.08312261
97	0xbe043945	-0.12912472
98	0xbe18828a	-0.14893547
99	0xbbe90090	-0.0071106628
100	0x3d41d229	0.047319565
101	0x3b721efc	0.0036944738
102	0x3a349ccc	0.00068898196
103	0xbe0bd4a6	-0.13655338
104	0xbd94eca8	-0.07271701
105	0xbc920e33	-0.017829036
106	0xbddf9314	-0.10916725
107	0xbe0d22e4	-0.13782841
108	0xbe048614	-0.12941772
109	0xbe62d9ae	-0.2215335
110	0xbe1071bc	-0.14105886
111	0xbd0955f6	-0.033529244
112	0xbe5b5e9c	-0.2142281
113	0xbd45ef2d	-0.0483238
114	0x3c96fc9a	0.018430997
115	0x3e0b5105	0.13605125
116	0xbd9cb249	-0.07651193
117	0xbe01858d	-0.12648602
118	0x3e1767b2	0.1478565
119	0xbd9077ca	-0.07054098
120	0x3cd7d4c6	0.026346575
121	0x3e0aa4fe	0.13539502
122	0x3d761554	0.060078934
123	0x3e14fd2f	0.14549707
124	0x3e3114ea	0.17293134
125	0x3ccc3348	0.024926797
126	0xbdbc8a65	-0.09206084
127	0x3d711edd	0.058867324
128	0x3d8503eb	0.06494888
129	0xbdc4ab29	-0.09602959
130	0xbe55646f	-0.20839094
131	0x3e07187a	0.13192931
132	0xbda061c8	-0.0783115
133	0x3bf2dd0b	0.0074116043
134	0x3d96cb20	0.07362962
135	0xbd9d23d9	-0.07672853
136	0x3a249a16	0.0006279064
137	0xbe05f014	-0.13079864
138	0xbca5612b	-0.020187935
139	0x3dd5e111	0.10443319
140	0xbbb467eb	-0.005505552
141	0xbd8ca2da	-0.06866999
142	0xbd1e1f29	-0.038603935
143	0x3d539d29	0.05166355
144	0xbd588b07	-0.05286696
145	0xbe102295	-0.14075692
146	0xbd93ae91	-0.0721103
147	0x3dd1ef5c	0.10250732
148	0x3d30ec2d	0.043193985
149	0x3e4dffa8	0.20117056
150	0xbde815ef	-0.113323085
151	0xbba49143	-0.0050221994
152	0xbe6ca03d	-0.23108001
153	0x3dafc17f	0.08581828
154	0xbe304023	-0.17211966
155	0xbb9ad230	-0.0047247633
156	0xbd8adbf3	-0.06780233
157	0xbd0a2440	-0.033725977
158	0x3bd3b9a0	0.006461337
159	0x3e0f0ef1	0.13970543
160	0xbe60cbab	-0.21952693
161	0xbceb6e65	-0.028739164
162	0xbe842b9d	-0.25814524
163	0x3dc59c40	0.09648943
164	0x3e04af1a	0.12957421
165	0xbda07414	-0.0783464
166	0x3cbf1f4f	0.023330359
167	0x3d285b9b	0.041102987
168	0xbdc6777e	-0.0969076
169	0x3e281ae3	0.16416506
170	0xbca3cc3e	-0.019994851
171	0x3dee0f9f	0.11624073
172	0x3d19605e	0.03744542
173	0xbe1c9227	-0.15290128
174	0xbddfcb96	-0.10927503
175	0x3d1edd74	0.038785413
176	0x3dbf340e	0.093361005
177	0x3d368591	0.044560973
178	0x3c0b3ffb	0.008499141
179	0xbbddd90b	-0.0067702583
180	0x3eaaff59	0.3339794
181	0xbd089c7a	-0.033352353
182	0x3d0f648f	0.03500801
183	0x3d8d9084	0.0691233
184	0x3e7ae90f	0.24502967
185	0x3e36cd5e	0.17851779
186	0xbdd66e9d	-0.104703166
187	0x3e5a91d0	0.21344686
188	0xbe7e12a9	-0.24811806
189	0xbdc359e3	-0.09538629
190	0xbe3ccf4f	-0.18438457
191	0x3d6b6069	0.05746499
192	0x3e00ac19	0.1256565
193	0x3d0c7fff	0.034301754
194	0x3db06bbd	0.086142994
195	0x3c9a4605	0.018832216
196	0x3e24ee1f	0.16106461
197	0xbd41c8cc	-0.047310635
198	0x3dffe833	0.1249546
199	0x3de42220	0.11139321
200	0xbcce314b	-0.02516999
201	0xbc5a7639	-0.013333851
202	0xbd0a2511	-0.033726756
203	0xbe1bd460	-0.15217733
204	0xbe1dc70b	-0.1540796
205	0x3cd39d99	0.025831984
206	0x3e1c097f	0.15237997
207	0xbe07a732	-0.13247374
208	0xbd0e42e7	-0.03473177
209	0xbce04556	-0.027376812
210	0x3d7bdf74	0.0614924
211	0x3c519028	0.012790717
212	0x3ccbafce	0.024864104
213	0xbe045839	-0.1292428
214	0x3d800b1e	0.062521204
215	0x3c8b0048	0.016967908
216	0x3d853aec	0.06505379
217	0x3e0395a5	0.12850054
218	0x3d94f647	0.07273536
219	0xbdd41bce	-0.10356866
220	0xbe7e6973	-0.24844913
221	0xbe1caaa1	-0.15299465
222	0xbda0d418	-0.07852954
223	0x3da5e6ef	0.08100688
224	0x3d5ba786	0.05362656
225	0xbc2d0909	-0.010561236
226	0xbde6f4f2	-0.11277188
227	0x3c1d2916	0.009592315
228	0x3c39c00c	0.011337291
229	0x3ac56285	0.0015059268
230	0x3dd07abd	0.101796605
231	0xbd01e91e	-0.03171646
232	0xbdc4369c	-0.095807284
233	0x3cfb76a7	0.030696226
234	0x3e261852	0.16220215
235	0xbded5f56	-0.115904495
236	0x3df5d516	0.120035335
237	0xbd240cfc	-0.040051445
238	0xbd797d1d	-0.060910333
239	0xbe438ace	-0.19095919
240	0x3e20fd72	0.15721682
241	0xbdfbb01d	-0.1228945
242	0x3e0cfc41	0.13768102
243	0x3e1ce1b0	0.15320468
244	0xbd1f75a8	-0.038930565
245	0x3e04a6ef	0.12954305
246	0xbdd39068	-0.10330278
247	0x3ddb3d1d	0.10705016
248	0xbe24dc8a	-0.16099754
249	0xbe4bf4b9	-0.19917573
250	0xbdfcc837	-0.123428755
251	0xbe417e58	-0.18895853
252	0x3d5eee85	0.05442669
253	0xbb599364	-0.0033199424
254	0x3af98a56	0.001903842
255	0x37eba38f	2.8090346e-05

bias f4 [256]
0	0x3e58c68c	0.2116949
1	0xbcc6df2f	-0.024276344
2	0xbcbeda53	-0.023297464
3	0x3d2e16f4	0.04250236
4	0xbe27d629	-0.1639029
5	0x3d80ddd5	0.06292311
6	0xbe4d2078	-0.20031917
7	0x3e290150	0.16504407
8	0x3e02c2fb	0.12769692
9	0x3d919733	0.07108917
10	0x3d418bb6	0.04725238
11	0x3e2ece43	0.1707087
12	0xbe80267c	-0.2502936
13	0xbe58d44b	-0.21174733
14	0xbd2c8682	-0.042120464
15	0xbd9218f4	-0.07133666
16	0x3dad4bb7	0.08461707
17	0x3e263228	0.1623007
18	0xbd229698	-0.0396944
19	0x3cf0e0ab	0.029404005
20	0xbd02fccc	-0.031979367
21	0x3b86ec75	0.0041175433
22	0x3dc9f3a6	0.098609254
23	0x3c6f6eaf	0.014613791
24	0xbdd25f67	-0.10272103
25	0xbe9b146d	-0.3028902
26	0xbc25d9de	-0.010122744
27	0x3d1b5f2c	0.03793256
28	0xbd1e5ded	-0.038663793
29	0x3e09db38	0.13462532
30	0x3e21b34a	0.1579105
31	0xbe17e259	-0.14832439
32	0xbe2f9bf7	-0.1714934
33	0xbe3489ec	-0.17630738
34	0xbe6b632b	-0.22987048
35	0xbc8dd0fb	-0.017311564
36	0xbe837ed0	-0.25682688
37	0xbd87956c	-0.06620297
38	0xbea3411c	-0.31885612
39	0xbdb8602d	-0.09002719
40	0xbe85d4bc	-0.26138866
41	0x3dddfa04	0.10838702
42	0xbdecb9f0	-0.11558902
43	0xbe5fa90c	-0.2184183
44	0x3d960483	0.07325079
45	0x3e3d76f1	0.18502404
46	0x3e2b0ec3	0.1670485
47	0xbe90e9aa	-0.28303272
48	0x3dbabcd0	0.091180444
49	0xbd54438a	-0.051822223
50	0xbe64595b	-0.22299711
51	0xbe07dbae	-0.13267395
52	0xbe0de35a	-0.13856259
53	0x3d8b54f6	0.068033144
54	0xbd941212	-0.07230009
55	0x3d14a9de	0.03629481
56	0xbe083bd5	-0.13304074
57	0xbd962500	-0.07331276
58	0x3d6fc944	0.05854155
59	0xbccff199	-0.025383757
60	0x3be12e67	0.0068719867
61	0xbe7b73a9	-0.2455584
62	0xbe75eb27	-0.24015485
63	0x3d9b5c91	0.07586015
64	0x3dea858a	0.11451252
65	0xbd1fdd6f	-0.039029535
66	0xbe23f980	-0.16013145
67	0x3c39e324	0.011345658
68	0xbdbf6fc8	-0.093474925
69	0x3e0e4e74	0.13897115
70	0xbe0dbaf2	-0.13840845
71	0x3ddb58f0	0.10710323
72	0x3dd9e2f5	0.10638992
73	0xbe47328a	-0.19452873
74	0x3d8dcc2e	0.0692371
75	0xbe1fe835	-0.15615924
76	0xbda78de2	-0.08181359
77	0x3b99da3d	0.0046952055
78	0x3c4bdeda	0.012443269
79	0x3e3e72e0	0.18598509
80	0xbd31f768	-0.043448836
81	0x3e10f0ef	0.14154409
82	0x3bf5e205	0.0075037503
83	0xbd5e96eb	-0.054343145
84	0xbdf6b268	-0.12045747
85	0x3df80bce	0.121116266
86	0x3d7e822d	0.062135864
87	0x3ddebbf5	0.10875694
88	0x3d2f7355	0.0428346
89	0xbe5dcdfe	-0.21660611
90	0xbd13fdee	-0.036130838
91	0xbd0f498c	-0.03498225
92	0xbd9dc76d	-0.07704053
93	0xbe62a3ff	-0.22132872
94	0xbe29f665	-0.16597898
95	0x3e1dbe64	0.1540466
96	0x3e52da38	0.20591056
97	0x3d146efe	0.036238663
98	0x3e492f34	0.19646913
99	0xbe327de3	-0.17430834
100	0xbe8252ea	-0.25453883
101	0x3e29b26f	0.16571973
102	0x3d76efaf	0.060287174
103	0xbe3b1683	-0.18270306
104	0x3d81ae68	0.063320935
105	0xbe06af8c	-0.13152903
106	0x3e57d6c6	0.21078023
107	0x3e1e1d5a	0.15440884
108	0xbbc8eb9c	-0.0061316025
109	0xbe136d94	-0.1439727
110	0x3e019eba	0.12658206
111	0xbe86350c	-0.26212347
112	0xbe282488	-0.16420186
113	0x3e0c2b87	0.1368848
114	0x3c436319	0.011925482
115	0xbdc185d2	-0.09449352
116	0x3e3d9640	0.18514347
117	0xbe15a24b	-0.14612691
118	0x3e0db2b2	0.13837698
119	0xbe298b83	-0.16557126
120	0xbccf644d	-0.025316382
121	0xbd755208	-0.059892684
122	0xbdfbddc2	-0.12298156
123	0x3d5ddaaa	0.054163612
124	0xbdf1016e	-0.11767851
125	0x3d09d879	0.03365371
126	0xbd9b032a	-0.07568963
127	0xbdf91281	-0.121617325
128	0x3df63cef	0.12023341
129	0xbdcb2b5d	-0.0992038
130	0x3e6d8ee0	0.23199034
131	0x3d84fb9e	0.06493305
132	0x3d1daa55	0.03849252
133	0xbdb10185	-0.08642868
134	0xbe5d9b89	-0.21641363
135	0x3b5ca367	0.0033666731
136	0xbd3cb71e	-0.04607307
137	0x3cce0f98	0.02515392
138	0x3ca0cb45	0.019628176
139	0xbd626fac	-0.05528228
140	0xbe834e7e	-0.25645822
141	0x3db70ee5	0.08938388
142	0xbe23ee3c	-0.16008848
143	0xbdb26251	-0.087101586
144	0xbe5c6e60	-0.2152648
145	0x3e0120b3	0.1261013
146	0xbe44fd4a	-0.19237247
147	0xbcf0df55	-0.029403368
148	0xbc0685c5	-0.008210604
149	0xbe55ee50	-0.2089169
150	0x3d91ca50	0.07118666
151	0xbdf52ae6	-0.11971073
152	0xbe084337	-0.1330689
153	0xbea0cbee	-0.31405586
154	0xbd3e4527	-0.046452668
155	0xbdfd0ef6	-0.12356369
156	0x3caa3ebf	0.020781873
157	0xbd96ee2e	-0.07369648
158	0x3e467c3e	0.19383332
159	0x3c56cbda	0.013110125
160	0xbc95ec90	-0.018301278
161	0xbe178f28	-0.14800704
162	0xbe042066	-0.12902984
163	0x3e35d4cb	0.17756955
164	0xbd806095	-0.062684216
165	0xbd592314	-0.05301197
166	0x3d1efe9f	0.038817044
167	0x3e144dea	0.14482847
168	0xbdc52399	-0.0962593
169	0x3e05e9a9	0.13077416
170	0xbc9903b4	-0.018678524
171	0xbe818e55	-0.25303903
172	0xbdf1b24f	-0.11801588
173	0xbe6031de	-0.21894023
174	0xbe8b747b	-0.27237305
175	0x3e2157aa	0.15756097
176	0xbe4b0946	-0.19827756
177	0x3e0eaa6a	0.13932195
178	0xbe393ad0	-0.18088841
179	0x3d4b8404	0.049686447
180	0x3e37f9d4	0.17966396
181	0xbea0e5f3	-0.31425437
182	0x3d4908e8	0.04908076
183	0xbe99b936	-0.30024117
184	0x3d951fb8	0.072814405
185	0xbe52d139	-0.20587625
186	0x3e4d9c12	0.20079067
187	0xbe25d8ed	-0.16196032
188	0x3e29bdf1	0.16576363
189	0xbe811b97	-0.25216362
190	0xbe6023ca	-0.21888652
191	0x3d3ed019	0.046585176
192	0x3d9d828e	0.07690917
193	0xbda026bd	-0.07819889
194	0x3e04d222	0.12970784
195	0xbdb26eec	-0.08712563
196	0x3dcad4a1	0.09903837
197	0xbe4d0b14	-0.20023757
198	0x3ddff032	0.109344855
199	0xbcb00937	-0.021488769
200	0xbdd67517	-0.10471552
201	0xbd666cc3	-0.056256067
202	0xbd9602f1	-0.0732478
203	0x3cf44832	0.029819582
204	0xbd439e14	-0.047758177
205	0x3d99432a	0.07483514
206	0xbe9cbdc7	-0.3061354
207	0x3b56392d	0.0032687888
208	0xbe056688	-0.13027394
209	0xbe19a22a	-0.15003267
210	0xbdc9ca17	-0.09852999
211	0x3d9830f8	0.07431215
212	0x3d45fcd2	0.04833681
213	0x3e25bbae	0.16184875
214	0xbd8d797f	-0.06907939
215	0xbdacfc7d	-0.08446596
216	0x3d9aea24	0.0756419
217	0x3d769894	0.060204104
218	0xbe3c6adb	-0.18400137
219	0xbe82fcda	-0.25583535
220	0x3e50052d	0.20314474
221	0x3dd65289	0.10464961
222	0x3e26de67	0.16295777
223	0xbdbaa1b0	-0.09112871
224	0xbda4e12f	-0.08050763
225	0xbdc5645c	-0.09638283
226	0x3dbd32ee	0.0923823
227	0xbd848d20	-0.0647223
228	0xbd277d11	-0.040890757
229	0x3cd6cbbd	0.026220197
230	0x3e1695ac	0.14705533
231	0x3da33b61	0.0797031
232	0x3c884cc1	0.016638162
233	0x3da72285	0.08160881
234	0x3e1a8ece	0.15093538
235	0x3dc5ff39	0.096678205
236	0x3dba8065	0.091065206
237	0x3e4854bd	0.19563575
238	0x3dbb9698	0.09159583
239	0xbdb0250d	-0.08600817
240	0x3d8fec12	0.07027449
241	0xbe542c27	-0.20719968
242	0xbdce0152	-0.100588456
243	0x3d22867e	0.039679043
244	0x3e3c108d	0.18365689
245	0xbe5b38b1	-0.21408345
246	0x3d1813a4	0.037128106
247	0xbd3e1a93	-0.046412062
248	0xbe0ef1c2	-0.13959411
249	0xbe09e25a	-0.13465253
250	0xbe227989	-0.15866674
251	0xbe7648de	-0.24051234
252	0xbe6be5c5	-0.23036869
253	0xbc61e170	-0.013786659
254	0xbcfe5cd1	-0.031050118
255	0xbe47079c	-0.19436496

weight f4 [1, 256]
0	0xbd32f313	-0.043688845
1	0xbcaf99e7	-0.021435691
2	0x3c85c42f	0.0163289
3	0x3d6225e0	0.0552119
4	0x3c85dd9a	0.01634102
5	0x3b8dd724	0.0043286253
6	0xbcc5af56	-0.024131458
7	0x3bc5c4c8	0.006035421
8	0xbcb38393	-0.021913325
9	0x3c34a9f0	0.011026844
10	0xbda9b39c	-0.08286211
11	0x3aa0eb2d	0.0012277119
12	0x3d1861e7	0.037202742
13	0xbcd85226	-0.026406359
14	0x3a9f777c	0.0012166346
15	0x3b6d7b2c	0.0036236746
16	0xbc709270	-0.014683351
17	0xbdae2aa9	-0.085042305
18	0xbcd8a6c3	-0.026446706
19	0xbc7b192d	-0.015325827
20	0xbc2240f2	-0.0099031795
21	0xbcef02a6	-0.029176068
22	0xbc2e7227	-0.010647333
23	0xbca1d57a	-0.019755114
24	0xbc8eaf29	-0.017417507
25	0x3d05a1a1	0.032624844
26	0x3ca44e8f	0.02005699
27	0x3b318547	0.0027087496
28	0x3d87e1b9	0.0663485
29	0x3d23a4b2	0.039951988
30	0x3d4ffcf1	0.050778333
31	0x3d3f600c	0.046722457
32	0x3d2bce1f	0.04194462
33	0xbcf1346d	-0.029443944
34	0xbb76160c	-0.0037549762
35	0x3cb80082	0.02246118
36	0xbd251982	-0.04030753
37	0x3c01c1a4	0.007919703
38	0x3bbe3475	0.005804593
39	0xbd2a17ae	-0.04152649
40	0x3c8723fc	0.01649665
41	0x3d8a07f3	0.067397974
42	0x3c0c9c0e	0.008582128
43	0x3ca098b3	0.019604063
44	0xbcad6984	-0.021168478
45	0xbc8fa57c	-0.017534964
46	0xbd00b431	-0.031421844
47	0x3da93c55	0.082634605
48	0x3ad20638	0.0016023582
49	0xbcb0a3cb	-0.021562478
50	0x3d4d4cee	0.050122194
51	0x3aa6bc5f	0.0012720934
52	0xbbfe59ff	-0.007762193
53	0x3cab8be8	0.020940736
54	0x3dbd6e7e	0.0924959
55	0xbc5af533	-0.013364124
56	0x3c449aee	0.011999829
57	0xb9693b00	-0.00022242591
58	0xbcb4b4a4	-0.022058792
59	0xbc2a6204	-0.010399345
60	0xbd272a6e	-0.04081195
61	0xbdaed86c	-0.08537373
62	0x3d97ae4a	0.0740629
63	0x3b212a73	0.0024591952
64	0x3c8e4bd9	0.017370151
65	0xbb43c460	-0.0029871687
66	0x3ab56177	0.0013838251
67	0x3c6e8580	0.014558196
68	0xbcb34db7	-0.021887643
69	0x3d36755e	0.044545524
70	0xbc6e5209	-0.014545926
71	0xbcb9887a	-0.022648085
72	0x3d956a09	0.07295615
73	0xbd0035e4	-0.031301394
74	0x3cec7c6c	0.028867923
75	0xbced5f60	-0.028976142
76	0xbd1568b3	-0.036476802
77	0xbb3b30a0	-0.0028562918
78	0xbd6633e5	-0.056201834
79	0x3c13c223	0.009018454
80	0x3c099eb1	0.008399651
81	0xbd862fa3	-0.06552055
82	0x3cd8424f	0.026398806
83	0xbcb2fbba	-0.021848548
84	0x3dad6458	0.08466405
85	0x3d8860ab	0.06659063
86	0xbd840c8c	-0.064477056
87	0xbde1808c	-0.110108465
88	0xbd4dd588	-0.050252467
89	0x3d9ea271	0.07745827
90	0x3d21a5da	0.03946481
91	0x3cc4d328	0.024026468
92	0xbdc31265	-0.09524993
93	0xbc33d8d3	-0.010976988
94	0x3d7de8d8	0.061989635
95	0xbc96aae5	-0.018392036
96	0x3aee33c6	0.0018173389
97	0x3da6cf8e	0.08145057
98	0x3c5dc497	0.01353564
99	0x3d4043e7	0.046939757
100	0x3d83dd01	0.064386375
101	0xbd51dc7f	-0.051235672
102	0x3d54ee65	0.051985163
103	0x3beb172c	0.007174393
104	0x3d4875ab	0.048940342
105	0xbc44a3d8	-0.012001954
106	0xbd1d5fb9	-0.038421366
107	0xbceae5fb	-0.028674116
108	0x3c9e2134	0.019302942
109	0xbd1e2b88	-0.038615733
110	0x3c2957f7	0.010335914
111	0x3da73558	0.081644714
112	0xbc0b91be	-0.008518634
113	0xbbbc3a53	-0.0057442575
114	0xbd25aac2	-0.04044605
115	0x3c7b083d	0.015321788
116	0x3c68c6ff	0.014207601
117	0xbd3cbf8f	-0.046081122
118	0xbda9c1f5	-0.082889475
119	0xbbbda143	-0.005787046
120	0xbd57eed7	-0.05271801
121	0x3d351baa	0.044215836
122	0x3bb190f5	0.0054188916
123	0xbd65b62a	-0.05608193
124	0x3d87eb66	0.066366956
125	0xbcafa7f3	-0.02144239
126	0xbc54028a	-0.0129400585
127	0x3dce07be	0.100600705
128	0xbdb020bf	-0.08599996
129	0xbc173cbb	-0.009230788
130	0xbdaaf679	-0.08347792
131	0x3daca828	0.08430511
132	0x3d13701b	0.035995584
133	0xbd418884	-0.047249332
134	0xbc1410d7	-0.009037218
135	0x3ca1acca	0.019735713
136	0xbb12f822	-0.002242573
137	0x3d6bebe5	0.057598013
138	0x3ca27ff0	0.019836396
139	0x3d859274	0.06522074
140	0x3cd3c708	0.025851741
141	0xbd3679d0	-0.044549763
142	0xbccffa82	-0.025388006
143	0x3bb30da6	0.0054642735
144	0x3b11a4cd	0.0022223473
145	0xbbaf7973	-0.005355054
146	0x3d034fcc	0.032058522
147	0x3b92c0ff	0.0044785733
148	0xbd34f2e5	-0.044176955
149	0x3c878110	0.016541034
150	0x3c8e38d0	0.017361075
151	0x3cf45ef6	0.029830437
152	0xbc59cd2d	-0.013293547
153	0x3c430d04	0.011904959
154	0xbd30b42e	-0.043140583
155	0x3d047224	0.032335415
156	0x3c4b4f1a	0.012408996
157	0x3cb73caf	0.022367803
158	0xbd06047d	-0.032719124
159	0xbd43c532	-0.047795482
160	0xbd77b4ba	-0.06047509
161	0xbd6880b6	-0.056763373
162	0x3d2e672b	0.042578857
163	0xbc11557d	-0.00887048
164	0x3b2d434e	0.0026437822
165	0xbb588064	-0.003303551
166	0x3c1fe633	0.009759474
167	0x3cbf73c4	0.023370631
168	0x3c4561cc	0.012047242
169	0x3b92e84a	0.0044832574
170	0x3c086ba0	0.008326441
171	0xbd3c4ca4	-0.045971528
172	0xbcc8d964	-0.024517722
173	0xbd0daa34	-0.034586146
174	0x3dc295cb	0.09501227
175	0x3c0764a5	0.008263742
176	0xbd2e3667	-0.04253235
177	0x3bb45162	0.0055028656
178	0x3c2f566e	0.010701759
179	0xbdda5d1b	-0.1066229
180	0x3cb80d08	0.022467151
181	0x3c0bb5b1	0.008527205
182	0x3dd0dd39	0.10198445
183	0x3d769953	0.060204815
184	0x3c45cc70	0.0120726675
185	0xbd3f1e88	-0.046659976
186	0x3c15bec5	0.009139721
187	0xbd0c7bb2	-0.034297653
188	0x3c7f2650	0.015573099
189	0x3bbcc0a1	0.005760268
190	0x3bf09d8a	0.007342999
191	0x3c07cf39	0.008289152
192	0x3d150083	0.03637744
193	0xbce87fa1	-0.02838117
194	0x3d5599a4	0.052148476
195	0xbb298b71	-0.0025870467
196	0x3a326614	0.0006805372
197	0xbd436462	-0.047703154
198	0x3d079304	0.03309919
199	0xbc905762	-0.017619792
200	0x3bfe8a24	0.0077679325
201	0x3b67dec1	0.0035380574
202	0x3c70a98e	0.0146888625
203	0xbce1802c	-0.027526937
204	0xbd59c91f	-0.05317032
205	0xbc02360a	-0.007947454
206	0x3d835b28	0.06413871
207	0x3c773f50	0.0150907785
208	0x3ca86ebd	0.020560617
209	0xbc4dd73d	-0.012563524
210	0x3c0d0bf6	0.008608809
211	0x3c3ae67e	0.011407493
212	0x3d5b4b48	0.05353859
213	0xbcde4685	-0.027133236
214	0x3da3a5a9	0.079905815
215	0xbd3d0db6	-0.046155654
216	0x3a8ea202	0.0010882022
217	0xbd860b8c	-0.06545171
218	0xbd05cfbd	-0.032668818
219	0x39815ce7	0.00024674015
220	0xbd714b7f	-0.05890989
221	0xbd2a16e4	-0.041525736
222	0xbd3e3c72	-0.046444364
223	0xbcc4a1bd	-0.024002904
224	0x3b7ec9cc	0.0038877605
225	0xbc3c9bb2	-0.01151173
226	0xbb7ab631	-0.0038255567
227	0xbbb36cc9	-0.0054756147
228	0xbcaea89e	-0.021320637
229	0x3c03c7de	0.0080432575
230	0xbe095e1c	-0.13414806
231	0x3b7026ed	0.0036644295
232	0x3d3234b5	0.043507297
233	0xbcaabcba	-0.020841945
234	0xbcb7f9bc	-0.02245795
235	0x3b1f03e1	0.0024263787
236	0xba517441	-0.00079900405
237	0xbd5afa26	-0.053461216
238	0x3c22419c	0.009903338
239	0xbdc68e04	-0.09695056
240	0xbb78f944	-0.003799037
241	0xbd8cd9eb	-0.06877502
242	0x3d61f67d	0.05516671
243	0x3d2fbde8	0.042905718
244	0xbc0ba4d7	-0.008523188
245	0x3aba1705	0.0014197534
246	0xbcb96587	-0.02263142
247	0x3dba4fd2	0.09097256
248	0xbd4c27db	-0.049842697
249	0xbc98133b	-0.018563857
250	0x3cb79893	0.02241162
251	0x3d11821b	0.03552447
252	0x3d5d2924	0.053994313
253	0xbbbcd8a7	-0.0057631317
254	0xbcc01123	-0.023445671
255	0xbd02066c	-0.031744406

weight f4 [256, 1]
0	0x3f105f8a	0.5639578
1	0xbc907492	-0.01763371
2	0x3f14138a	0.57842314
3	0x3f42cde5	0.7609542
4	0x3f64330d	0.891404
5	0x3d2f38d7	0.042778816
6	0x3f2b095a	0.66811144
7	0x3eb84857	0.3599269
8	0xbf768c4a	-0.96307814
9	0xbf06adc9	-0.52608925
10	0x3e4cf4e8	0.200153
11	0xbf6c8db4	-0.9240372
12	0xbd9a67cb	-0.07539328
13	0xbf72d2cf	-0.9485292
14	0xbf3415ea	-0.7034594
15	0x3f2b0d0c	0.6681678
16	0x3ebaffe0	0.36523342
17	0x3dd6e280	0.1049242
18	0xbf3fa32e	-0.7485837
19	0xbe9a6218	-0.30152965
20	0xbf66a364	-0.90093064
21	0xbee77c2c	-0.45211923
22	0x3f0f6920	0.56019783
23	0x3f0938b0	0.53602123
24	0x3f2d876b	0.67784756
25	0xbf51ce17	-0.81955093
26	0x3ecb0257	0.39650223
27	0xbe455307	-0.19269954
28	0xbf4a6123	-0.7905447
29	0x3f4d6e1f	0.80246156
30	0xbf053d46	-0.5204662
31	0xbeb5bf8c	-0.354977
32	0xbd4525c0	-0.048131704
33	0x3d28bf66	0.041198157
34	0xbe1c7d1c	-0.152821
35	0x3eba1e49	0.3635123
36	0xbf126764	-0.5718901
37	0x3f207111	0.62672526
38	0x3e83932d	0.25698224
39	0x3be43353	0.006964126
40	0x3f4c197d	0.7972639
41	0xbf394a4a	-0.7237898
42	0x3e28bf6a	0.16479269
43	0x3e7c532d	0.24641104
44	0xbf4927c4	-0.785763
45	0x3d9abb20	0.075552225
46	0x3e8b721e	0.27235502
47	0x3ee87e9f	0.45409104
48	0xbfbbbd6e	-1.4667184
49	0xbf2676ec	-0.6502521
50	0xbe9546e8	-0.2915566
51	0xbf28a02e	-0.65869415
52	0x3f298e95	0.6623319
53	0xbede0e68	-0.43370366
54	0xbdf91d60	-0.12163806
55	0x3ee02915	0.43781343
56	0x3ec10cb2	0.37704998
57	0xbefe0490	-0.49612856
58	0x3d89f890	0.06736863
59	0xbf2aa604	-0.6665957
60	0xbd0b54ca	-0.034016408
61	0xbdbf2d7d	-0.09334848
62	0xbe645787	-0.22299014
63	0x3f1730df	0.59058946
64	0xbeb935d0	-0.36173868
65	0x3ea4a876	0.32159775
66	0x3f25ae3f	0.64719003
67	0x3eaac0ee	0.3335032
68	0x3ed1e206	0.40992755
69	0x3f169f6d	0.58837014
70	0x3ea309ce	0.31843418
71	0xbf08848e	-0.5332726
72	0xbf2f707d	-0.6853102
73	0x3e81c77c	0.25347507
74	0x3f2ece42	0.68283474
75	0xbf54b1b0	-0.8308363
76	0xbe614159	-0.21997584
77	0x3e4d0d67	0.20024644
78	0x3d88ee38	0.066860616
79	0xbe808945	-0.25104728
80	0xbe16480c	-0.14675921
81	0x3c759d00	0.014991045
82	0x3f25d03e	0.6477088
83	0x3e79cb5b	0.2439398
84	0x3ed0c7c6	0.40777415
85	0x3f49df87	0.788567
86	0x3f5ec832	0.87024224
87	0xbf895960	-1.07304
88	0xbde62d2a	-0.11239083
89	0x3f13ec84	0.5778277
90	0x3d230b40	0.03980565
91	0x3f68a8ff	0.9088287
92	0xbf18b224	-0.5964682
93	0x3f75f21a	0.9607254
94	0xbe871b6e	-0.26388115
95	0xbe776953	-0.24161272
96	0xbf061f32	-0.5239135
97	0x3ecaab55	0.3958384
98	0x3e855883	0.26044092
99	0xbe121f69	-0.14269795
100	0xbf1ed5aa	-0.62044775
101	0x3f1f27b7	0.62169975
102	0x3f3140ff	0.692398
103	0xbf8e2389	-1.1104594
104	0x3f4b8038	0.7949252
105	0x3e07ecc3	0.13273911
106	0x3e778a54	0.24173862
107	0xbf5a57c4	-0.8529017
108	0x3e50841a	0.20362893
109	0x3ea4f0d1	0.32214978
110	0x3f35085d	0.70715886
111	0xbf97b710	-1.1852741
112	0x3ee6496d	0.44977894
113	0x3d5b739c	0.05357705
114	0xbf1adc3c	-0.604923
115	0xbf410b36	-0.7540773
116	0xbeeca092	-0.46216255
117	0x3f38a97e	0.72133625
118	0x3e9623d8	0.29324222
119	0x3f210a21	0.6290608
120	0x3f529f9a	0.8227478
121	0x3e3949b0	0.18094516
122	0xbc90ab6e	-0.017659869
123	0xbf5738a7	-0.8407082
124	0xbf5fda00	-0.87442017
125	0x3e1cbfda	0.1530756
126	0xbef6fa43	-0.4823781
127	0x3eff02fe	0.4980697
128	0x3de3e8db	0.11128398
129	0xbf10fd50	-0.56636524
130	0x3cd80200	0.026368141
131	0x3ebb5014	0.36584532
132	0xbdc1928a	-0.09451778
133	0xbe1893b0	-0.14900088
134	0xbd9866d2	-0.074414864
135	0xbe38e3c8	-0.18055642
136	0xbf7b690a	-0.9820715
137	0x3f671526	0.90266645
138	0xbf020614	-0.50790524
139	0x3e5c58ad	0.21518202
140	0x3e6e9c1f	0.23301743
141	0x3e958104	0.29199994
142	0xbc55aa00	-0.013041019
143	0x3f63c47a	0.88971674
144	0x3efb5030	0.49084616
145	0x3e9cfcd7	0.30661651
146	0xbceec4c0	-0.029146552
147	0x3ec1998f	0.37812468
148	0x3e6fc4fd	0.23414989
149	0x3f57522b	0.84109753
150	0x3e36c74b	0.17849462
151	0x3eb9469b	0.3618668
152	0x3f4dab41	0.8033944
153	0xbe0c2dd8	-0.13689363
154	0x3e855585	0.2604181
155	0xbf701f9a	-0.9379822
156	0x3ec0141d	0.37515345
157	0x3f091cb3	0.53559417
158	0x3f202b68	0.6256623
159	0x3f6b6676	0.9195322
160	0x3ef6a05b	0.48169217
161	0xbe8bccba	-0.2730463
162	0x3ec6e868	0.38849187
163	0xbd61f651	-0.055166546
164	0xbf536198	-0.8257079
165	0xbe56af38	-0.20965278
166	0x3f1887aa	0.59582007
167	0x3dfce92d	0.12349162
168	0x3f65bdc8	0.8974271
169	0xbdf32b10	-0.11873448
170	0x3dbbed8a	0.09176166
171	0x3f37e8ca	0.7183958
172	0x3e13eff0	0.14446998
173	0x3d3ec4b4	0.04657431
174	0x3f3c65e2	0.7359296
175	0xbe0eb48b	-0.13936059
176	0x3ecc4669	0.3989747
177	0x3c2d3380	0.010571361
178	0x3f6be324	0.92143464
179	0x3f39ac68	0.72528696
180	0xbf12b1dc	-0.5730264
181	0xbf1d78aa	-0.61512244
182	0xbe8b9760	-0.27263927
183	0xbe8e3a1d	-0.27778712
184	0xbf53f4aa	-0.827952
185	0xbe760609	-0.2402574
186	0xbf136814	-0.57580686
187	0x3ecc8faf	0.39953372
188	0xbe282d78	-0.16423595
189	0x3b13a8ae	0.002253096
190	0x3f08f9cd	0.53506166
191	0x3cf7a36a	0.03022929
192	0x3eda7f1e	0.42675108
193	0xbee70184	-0.45118344
194	0x3ed25bb1	0.4108558
195	0x3f01d788	0.507195
196	0xbeb15a84	-0.3463937
197	0xbec2a3e4	-0.38015664
198	0xbf730028	-0.94922113
199	0x3e71decc	0.23620147
200	0xbf641d58	-0.89107275
201	0xbf1c9c30	-0.61175823
202	0xbf014b38	-0.505054
203	0xbf3b52d2	-0.7317325
204	0xbe676240	-0.22596073
205	0x3f00ac09	0.50262505
206	0x3ddca693	0.10773959
207	0x3ea49150	0.32142115
208	0x3f5857e4	0.8450911
209	0x3e5e3086	0.21698198
210	0x3e5926fe	0.2120628
211	0xbf2ac246	-0.6670269
212	0x3e982fc2	0.29723936
213	0x3f24d36f	0.6438512
214	0x3f11121d	0.56668264
215	0x3f2592d0	0.64677143
216	0xbf77b331	-0.967578
217	0x3f235cc9	0.63813454
218	0x3f323d8e	0.69625175
219	0x3dc6a4de	0.09699415
220	0xbf58cc12	-0.84686387
221	0xbecd2a68	-0.40071416
222	0x3ea8ccc5	0.32968727
223	0x3f5b2c04	0.8561404
224	0x3f71f3f7	0.94512886
225	0x3f0c0920	0.54701424
226	0xbf761a24	-0.9613364
227	0xbf738c8b	-0.95136327
228	0xbd6a9b20	-0.057276845
229	0xbc0f7622	-0.008756192
230	0x3f0db327	0.5535149
231	0x3d7751c7	0.060380723
232	0x3dd31ff0	0.10308826
233	0xbeb43c6c	-0.35202348
234	0x3f75d57c	0.96028876
235	0xbeac05f4	-0.33598292
236	0xbebb72b9	-0.36610964
237	0xbf10e792	-0.5660335
238	0x3f543870	0.82898617
239	0x3f58884f	0.8458299
240	0x3cf6c077	0.030121071
241	0x3f35cdd4	0.71017194
242	0x3ee40737	0.44536754
243	0xbe8a6718	-0.2703178
244	0xbe19c5c8	-0.15016854
245	0xbf68fd38	-0.9101138
246	0x3f208056	0.62695825
247	0xbf73ab4e	-0.95183265
248	0x3f0d7dc4	0.5527003
249	0xbfa05387	-1.252549
250	0xbf56f740	-0.83971024
251	0x3f1f744c	0.6228683
252	0xbf3372f4	-0.7009728
253	0x3f511d9a	0.81685793
254	0x3e374b65	0.17899854
255	0xbd981870	-0.07426536

bias f4 [256]
0	0xbf7cef01	-0.9880219
1	0xba78389e	-0.0009468886
2	0xbec6a4d8	-0.3879764
3	0x3c055a72	0.00813924
4	0x3f0d9aa4	0.5531409
5	0x3e73a7bd	0.23794456
6	0x3f05eb64	0.523123
7	0x3f0a9cc4	0.54145455
8	0xbf4c8230	-0.7988615
9	0x3ec43d46	0.38327998
10	0x3d815e7c	0.063168496
11	0xbec3d8c4	-0.38251317
12	0x3ebef60e	0.372971
13	0x3ea094fc	0.31363666
14	0xbf0e0960	-0.55483055
15	0x3f5df329	0.8669916
16	0xbfa3a113	-1.2783531
17	0xbf776024	-0.96631074
18	0xbf44af82	-0.76830304
19	0xbf0f0f1a	-0.5588242
20	0xbf7e3076	-0.99292696
21	0xbe83dc5c	-0.25754058
22	0x3d266254	0.040621117
23	0xbec59960	-0.38593578
24	0xbf4f2bd8	-0.80926275
25	0x3e14c308	0.14527524
26	0x3e4274a2	0.18989804
27	0x3f30a74a	0.6900526
28	0x3ed2c646	0.41166896
29	0xbf1e7970	-0.6190405
30	0xbf5b878e	-0.85753715
31	0x3ecd7640	0.4012928
32	0xbf00de8c	-0.5033958
33	0x3eae2fdb	0.34020886
34	0x3f463224	0.7742026
35	0x3f51b0f1	0.81910616
36	0xbf0e50c2	-0.55591977
37	0x3ee85826	0.45379752
38	0x3e9dcac3	0.30818757
39	0x3ec8ec20	0.3924265
40	0x3f2a8378	0.66606855
41	0xbf53132e	-0.8245114
42	0x3e060f3a	0.13091746
43	0x3de2b834	0.1107029
44	0xbaa49d2a	-0.0012559046
45	0xbf77a20c	-0.9673164
46	0xbf79b503	-0.97541827
47	0x3ef41bf9	0.4767759
48	0x3e02e157	0.12781273
49	0xbf65db80	-0.89788055
50	0x3f805aba	1.0027688
51	0xba97f7b8	-0.0011594212
52	0x3efe66eb	0.49687895
53	0xbf4701d8	-0.7773719
54	0xbf0e0350	-0.55473804
55	0xbfc301f2	-1.5234969
56	0xbf39ddf0	-0.72604275
57	0xbf645412	-0.8919078
58	0xbf1a91a2	-0.6037847
59	0xbf01a750	-0.50645924
60	0x3e2ea0bd	0.17053504
61	0x3e9f8631	0.31157067
62	0x3f490769	0.7852693
63	0xbe2464b3	-0.16054039
64	0xbf20cab6	-0.6280931
65	0x3f5e4236	0.8681978
66	0xbf3c2397	-0.73491806
67	0x3f2006d8	0.6251044
68	0xbeaa984c	-0.33319318
69	0x3f686a88	0.90787554
70	0x3e6c136b	0.23054282
71	0xbe9eb110	-0.30994463
72	0x3ef80513	0.4844137
73	0x3ef3360d	0.47502175
74	0x3e1a716b	0.15082328
75	0xbf12d1e8	-0.5735154
76	0x3f3ffd7a	0.7499615
77	0xbf380eca	-0.71897566
78	0x3ef21692	0.47282845
79	0x3e933126	0.28748435
80	0x3f3da494	0.7407925
81	0xbe361970	-0.17783141
82	0xbf04ddc2	-0.51900876
83	0x3e204741	0.15652181
84	0x3ed19af4	0.40938532
85	0xbf7ca9f5	-0.98696834
86	0x3d5a97f2	0.053367563
87	0x3eff6245	0.4987966
88	0x3ec685f7	0.38774082
89	0xbf94ed15	-1.1634852
90	0xbf3b24a8	-0.7310281
91	0x3de4fa68	0.11180574
92	0x3e8d0f1e	0.27550596
93	0xbef7688a	-0.48321944
94	0x3f67a61e	0.9048785
95	0x3f534d48	0.82539797
96	0x3f27f03a	0.6560093
97	0xbfb4e35d	-1.4131886
98	0x3d36a6b4	0.044592574
99	0x3f3428f3	0.70374984
100	0xbf1de6f0	-0.6168051
101	0xbb5091ba	-0.003182514
102	0xbf9240dc	-1.1426044
103	0x3ee08fd1	0.43859723
104	0xbf301c02	-0.68792737
105	0x3c2580ee	0.01010154
106	0xbf9cbabc	-1.2244487
107	0xbf5d0b7e	-0.8634566
108	0x3d4e7354	0.050402954
109	0xbf9021d3	-1.1260322
110	0xbef5ab34	-0.4798218
111	0x3f4f2082	0.8090898
112	0xbea0b3b9	-0.31387118
113	0x3f6dc604	0.9288027
114	0xbf3ceb4a	-0.7379652
115	0xbea2a0e8	-0.31763387
116	0xba053ab3	-0.0005082294
117	0xbe361c16	-0.17784151
118	0x3ebfb108	0.37439752
119	0x3d8c4f6b	0.06851085
120	0xbdc36cff	-0.09542274
121	0x3f0b436b	0.54399747
122	0x3e7b3389	0.24531378
123	0x3f0232b7	0.50858635
124	0xbf05a4c6	-0.5220455
125	0x3f56f47b	0.839668
126	0x3e9a0d1e	0.30088133
127	0x3f6b9958	0.9203086
128	0xbf119366	-0.5686554
129	0xbf1f3f82	-0.6220628
130	0xbf31180a	-0.69177306
131	0xbfa5db1e	-1.2957494
132	0x3f31c733	0.6944458
133	0xbeec4410	-0.46145678
134	0x3e822ac5	0.25423256
135	0xbf043fc0	-0.51659775
136	0xbe8e6628	-0.27812314
137	0xbf6eac6c	-0.93231845
138	0x3eb54f4b	0.35412058
139	0x3f66f015	0.90210086
140	0x3ea3f2aa	0.32021075
141	0x3dea42f1	0.11438549
142	0xbe4ed210	-0.2019732
143	0xbf6445ba	-0.89168894
144	0xbd50310c	-0.050828025
145	0x3e266d6a	0.16252676
146	0xbe01b138	-0.1266526
147	0xbf233a51	-0.6376086
148	0xbf58b937	-0.84657615
149	0x3e1e9c59	0.1548933
150	0xbf23f4c3	-0.6404535
151	0xbe1144cb	-0.14186399
152	0xbe7e991c	-0.24863094
153	0xbe855ac0	-0.260458
154	0x3e86e883	0.26349267
155	0xbe7076d8	-0.23482835
156	0xbfab0f0c	-1.3363967
157	0xbf57d5a3	-0.8431036
158	0xbe255482	-0.16145518
159	0x3da83c2a	0.082146004
160	0xbfd3558e	-1.6510484
161	0x3ec6545d	0.3873624
162	0xbfadee1c	-1.358829
163	0x3e581cbe	0.21104714
164	0xbf0fe37c	-0.5620649
165	0xbf3d5974	-0.7396462
166	0xbf9f4dd9	-1.2445632
167	0x3f070861	0.5274716
168	0xbd999b6a	-0.07500346
169	0xbf09f13e	-0.5388373
170	0x3f1ff54b	0.6248366
171	0xbeae59ab	-0.34052786
172	0x3e313923	0.17306952
173	0x3f1dd104	0.6164706
174	0x3f7334d3	0.9500248
175	0x3ef42a02	0.476883
176	0xbf006e47	-0.5016827
177	0xbf2786e4	-0.654402
178	0xbf26ad64	-0.65108323
179	0xbf55e839	-0.8355747
180	0xbeb64158	-0.35596728
181	0x3f32f556	0.699056
182	0xbea16ff8	-0.31530738
183	0x3f7b379b	0.9813172
184	0xbef70938	-0.4824922
185	0xba4e31b3	-0.0007865682
186	0xbec095e8	-0.3761437
187	0xbedce9fd	-0.4314727
188	0xbf671b5c	-0.9027612
189	0x3ebc530a	0.36782104
190	0x3f4184cb	0.7559325
191	0x3da3aa95	0.0799152
192	0x3ef3e256	0.47633618
193	0xbf677be2	-0.90423405
194	0x3f6ad2d1	0.9172793
195	0xbf4a8213	-0.7910473
196	0xbf667ee8	-0.90037394
197	0xbf349a44	-0.7054789
198	0x3e653626	0.22383937
199	0xbf55bb59	-0.83488995
200	0xbe747030	-0.23870921
201	0xbd2a6980	-0.04160452
202	0x3eae7516	0.34073704
203	0xbf3ea402	-0.74469006
204	0xbf178bf0	-0.591979
205	0xbfdf33b1	-1.743765
206	0x3efbf4e0	0.49210262
207	0x3ebd5d6d	0.3698534
208	0x3d989c69	0.07451708
209	0x3cfceff6	0.030876141
210	0xbf442cc3	-0.766308
211	0xbf5c46f0	-0.8604574
212	0xbf899016	-1.0747097
213	0xbf43d70b	-0.76500005
214	0x3d7f3aff	0.062312122
215	0x3f4532e3	0.7703077
216	0x3ec725f0	0.38896132
217	0x3e91c09c	0.28467262
218	0xbfbcde02	-1.4755251
219	0x3f15db02	0.58537304
220	0xbf7fb9c8	-0.99892855
221	0x3f0b9e2b	0.5453822
222	0xbe98146e	-0.29703087
223	0xbebf2bbb	-0.3733805
224	0x3f49f74a	0.7889296
225	0x3f407326	0.751757
226	0xbe7f7f40	-0.24950886
227	0x3d113471	0.035450403
228	0xbf1172d6	-0.5681585
229	0x3dff4e64	0.12466124
230	0x3e10a456	0.14125189
231	0x3ea68e69	0.32530525
232	0x3ec8061d	0.39067164
233	0xbf118632	-0.5684539
234	0x3f4ec4d5	0.8076909
235	0xbf638b3e	-0.8888434
236	0xb9eb9caf	-0.0004493943
237	0xbf719a98	-0.94376516
238	0x3f4810ac	0.7815044
239	0xbedc4940	-0.43024635
240	0x3d8d8dbe	0.06911801
241	0xbf32f052	-0.6989795
242	0xbca9730a	-0.020684738
243	0xbebdbad8	-0.37056613
244	0xbe980b1c	-0.29695976
245	0xbf283ccc	-0.6571777
246	0xbb0413f4	-0.0020153495
247	0xbe022428	-0.12709105
248	0x3e2a7548	0.16646302
249	0x3f0a1f57	0.5395407
250	0xbd8f9730	-0.070112586
251	0xbf408a78	-0.75211287
252	0xbf744288	-0.9541402
253	0xbb0178c2	-0.0019755815
254	0xbf2009e7	-0.6251511
255	0xbe69c340	-0.22828388

weight f4 [1, 256]
0	0xbd1b6851	-0.03794128
1	0xbd3980e5	-0.04528894
2	0xbd3ba6a1	-0.045813207
3	0xbc05ce6c	-0.008166891
4	0xbbbadb26	-0.005702394
5	0x3c1164e8	0.008874156
6	0xbc8b5420	-0.017007887
7	0x3c2b8312	0.010468261
8	0xbc6e62a4	-0.014549885
9	0x3c45de5f	0.012076943
10	0x3d16afd5	0.03678878
11	0x3d867d11	0.06566823
12	0xbcca9a5f	-0.024731813
13	0xbd1ef5ee	-0.038808756
14	0x3bd67c6c	0.006545594
15	0xbc93f42d	-0.018060768
16	0xbcdcbc32	-0.026945207
17	0x3d051362	0.032489188
18	0xbb1455af	-0.002263408
19	0xbb5b3193	-0.0033446297
20	0xbcca929f	-0.024728118
21	0x3d8e936b	0.069617115
22	0xbce85e65	-0.028365323
23	0xbc6d4758	-0.014482342
24	0x3be97aca	0.0071252333
25	0xbc589b17	-0.01322057
26	0xbc65d41d	-0.0140276225
27	0x3da0d3de	0.078529105
28	0x3b554d5c	0.003254733
29	0xbcb784f5	-0.022402266
30	0x3b231d53	0.0024889305
31	0x3cebfa57	0.028805895
32	0xbd50eb6d	-0.05100577
33	0x3b16a970	0.0022989176
34	0xbd16daef	-0.036829885
35	0xbce489d5	-0.027897755
36	0x3d6c233e	0.057650797
37	0x3ccb8158	0.02484195
38	0x3ba7577e	0.0051068654
39	0x3c9bc332	0.019013975
40	0xbd01fcc8	-0.03173521
41	0x3d022c4b	0.031780522
42	0x3c8f8ad6	0.017522257
43	0xbc832ffe	-0.016014095
44	0xb910dd6c	-0.00013815396
45	0xbd7c50d1	-0.06160051
46	0x3ccbc1c3	0.024872666
47	0x3d288ef8	0.04115197
48	0xbc9ebb63	-0.019376462
49	0x3c90de7f	0.01768422
50	0xbb9c3543	-0.0047670915
51	0x3b65dce4	0.0035074288
52	0xbcdbd206	-0.026833545
53	0xbc85c7d8	-0.016330644
54	0xbd2926fa	-0.041296937
55	0x3ca20360	0.019777
56	0x3ccabc81	0.024748089
57	0xbbc885c0	-0.00611946
58	0xb9d3140d	-0.00040259995
59	0x3c8b62c4	0.017014869
60	0xbba04985	-0.0048915767
61	0xbd070c45	-0.032970686
62	0x3d30c163	0.043153178
63	0xbda69135	-0.08133165
64	0x3ca40ea7	0.020026518
65	0xbd0b4270	-0.033998907
66	0xbd291d21	-0.041287545
67	0x3a9315ad	0.001122167
68	0xbcfaf154	-0.030632652
69	0xbd91cfcf	-0.071197145
70	0xbd8f35be	-0.069926724
71	0xbb077b96	-0.0020673028
72	0x3a044a70	0.00050464924
73	0x3bc69f25	0.006061452
74	0xbcafab7f	-0.02144408
75	0xbd31996c	-0.043359205
76	0xbd4e7d53	-0.050412487
77	0xbc073295	-0.008251806
78	0xbcc74958	-0.024326965
79	0x3b1b8fa9	0.0023736751
80	0xbd21b685	-0.039480705
81	0xbcba4d91	-0.022742065
82	0x3bc8ac8e	0.0061240857
83	0xbc06cfdf	-0.008228271
84	0xbc88c756	-0.016696613
85	0xbc58535e	-0.01320347
86	0xbd5a3c29	-0.05328003
87	0xbc195723	-0.009359154
88	0x3d3ff1e9	0.046861563
89	0x3c3b611e	0.011436729
90	0xbd3cff62	-0.04614199
91	0x3d0b08f3	0.03394408
92	0x3c9a1de4	0.018813081
93	0xbd296950	-0.0413602
94	0xbcea06d9	-0.028567718
95	0xbd25e58c	-0.040502116
96	0x3d1edca8	0.038784653
97	0x3d9211cf	0.07132303
98	0x3d485141	0.048905615
99	0x3c8bb530	0.01705417
100	0x3d459eac	0.048247024
101	0xbcf3df44	-0.029769547
102	0x3d41799a	0.04723511
103	0xba5bf7f0	-0.00083911326
104	0x3d0ea4b9	0.03482506
105	0x3cf0ad41	0.029379489
106	0x3d275d8e	0.040860705
107	0xbc3dfbaa	-0.011595646
108	0x3c9b7fa4	0.018981762
109	0xbd15dcf0	-0.036587656
110	0xbcae00dc	-0.021240644
111	0x3d1d527c	0.03840874
112	0xbc83922f	-0.016060917
113	0x3bc01cd3	0.005862811
114	0xbc5cbd2f	-0.013472839
115	0xbd083dc2	-0.03326202
116	0xbcda0b66	-0.026616763
117	0xbc27ae6f	-0.010234459
118	0xbb869761	-0.0041074012
119	0xbcad9368	-0.021188453
120	0xbcf9ff09	-0.030517118
121	0x3d05fd07	0.03271201
122	0x3bc0fcbe	0.005889504
123	0xbd3660f1	-0.044526044
124	0xbd3649e2	-0.044504054
125	0x3d59408f	0.053040083
126	0x3ccd92b2	0.025094364
127	0xbd188658	-0.037237495
128	0x3ca10cdd	0.019659454
129	0x3c0d8b06	0.008639103
130	0xbd424ce0	-0.047436595
131	0xbbacec03	-0.005277158
132	0xbc84be4d	-0.016204024
133	0x3d3e608c	0.046478793
134	0x3c95158d	0.018198753
135	0x3c5ea9d8	0.013590299
136	0xbca4f93d	-0.020138377
137	0xbcdf56a7	-0.027262999
138	0x3ca81c05	0.020521173
139	0x3bc7e80a	0.0061006593
140	0x3c549b40	0.012976468
141	0xbb1447d1	-0.0022625814
142	0xbcc549f1	-0.02408311
143	0xbd27f6b5	-0.041006763
144	0x3b55525a	0.0032550306
145	0xbd340b45	-0.04395606
146	0xbce6347a	-0.028101195
147	0xbd24f649	-0.04027394
148	0x3d47de8f	0.048796233
149	0xbc33e0f7	-0.010978929
150	0xbcdc1784	-0.026866682
151	0x3c0244c5	0.007950966
152	0x3c09ae11	0.008403317
153	0x3c7a9b85	0.015295868
154	0xbc876bfe	-0.016530987
155	0xbd4a90b9	-0.049454425
156	0x3d0cd066	0.03437843
157	0x3b87c622	0.0041434923
158	0xbd6450b9	-0.055741046
159	0xbca80989	-0.02051236
160	0xbda12799	-0.07868881
161	0x3d0e10e2	0.03468407
162	0xbaee86ab	-0.0018198093
163	0xbbd8a6d5	-0.006611685
164	0x3d195464	0.037433997
165	0xbd598b25	-0.053111214
166	0x3c19c65c	0.0093856715
167	0xbd13945e	-0.036030166
168	0xbd1cec5d	-0.03831135
169	0x3ce63595	0.028101722
170	0x3d3f91fa	0.046770073
171	0xbd380177	-0.044923272
172	0xbc85884e	-0.016300347
173	0x3cbe5fa5	0.023238966
174	0xbcbba45d	-0.022905523
175	0xbd03b178	-0.03215167
176	0x3c1070d3	0.008815962
177	0x3c3cd6cc	0.011525821
178	0x3d5a609d	0.053314794
179	0xbd8b44b4	-0.068002135
180	0xbd37e191	-0.04489285
181	0xbcb8a5c6	-0.022539984
182	0xbb543149	-0.003237801
183	0x3d3ad0ba	0.045609213
184	0x3b1f992e	0.0024352777
185	0x3cb06f90	0.021537572
186	0x3c8c7966	0.017147731
187	0x3d00534d	0.03132944
188	0xbd10bf15	-0.03533848
189	0xbbb18627	-0.0054176035
190	0xbc17a083	-0.009254578
191	0x3d59d9cd	0.053186227
192	0xbce4dae6	-0.02793641
193	0x3d11b7cf	0.035575684
194	0xbc1805a7	-0.009278691
195	0xbc932007	-0.017959608
196	0x3c85eeda	0.016349245
197	0x3d010818	0.03150186
198	0xbc7966b7	-0.015222243
199	0xbc55dd03	-0.013053182
200	0x3b4fbd2f	0.0031698456
201	0xb9cda890	-0.00039226236
202	0xbc4705fc	-0.012147423
203	0x3cbc9b36	0.02302323
204	0x3d662e96	0.05619677
205	0x3b6ca262	0.003610753
206	0xbcf695d8	-0.030100748
207	0xbd1b2084	-0.037872806
208	0xbd3419d2	-0.043969937
209	0xbd652071	-0.05593914
210	0x3d60f6fa	0.054923035
211	0xbce7ccb8	-0.02829586
212	0x3c98324c	0.01857867
213	0xbcdea21e	-0.027176913
214	0x3d0c75bc	0.034291968
215	0xbd0afd38	-0.033932894
216	0x3d3ccb85	0.04609253
217	0x3d37c553	0.044865917
218	0xbd7edee3	-0.06222428
219	0xbc71c3e2	-0.014756175
220	0xbd3f1a2c	-0.04665582
221	0xbd5c8592	-0.05383832
222	0x3d3dde06	0.046354316
223	0x3b961cee	0.0045810854
224	0x3bb11ccc	0.005405044
225	0xbd0ed876	-0.034874402
226	0xbc317eb4	-0.010833431
227	0xbcd96188	-0.026535764
228	0xbd112b2e	-0.03544157
229	0xbbdd7680	-0.006758511
230	0x3d69e8f1	0.057106916
231	0x3d2f575b	0.042807918
232	0xbd152590	-0.036412776
233	0x3a8c2c45	0.0010694346
234	0xbd4201bb	-0.04736493
235	0x3d2d6bd8	0.042339176
236	0x3cbd2c09	0.023092287
237	0x3d04c620	0.03241551
238	0x3d21b98c	0.039483592
239	0x3a13c660	0.0005637165
240	0xbcfabca4	-0.030607529
241	0xbd7c1191	-0.06154019
242	0xbc8a40fe	-0.016876694
243	0x3c96cd04	0.018408306
244	0xbd35cbbf	-0.04438376
245	0xbd8c4a2c	-0.06850085
246	0xbb2dd584	-0.002652497
247	0x3c3582a4	0.01107851
248	0x3c12c886	0.008958941
249	0xbc866ac7	-0.016408337
250	0xbbd4095c	-0.0064708423
251	0xbd455c38	-0.04818365
252	0x3d536f5a	0.051619865
253	0xbda8b2c5	-0.082372226
254	0x3b90d2ae	0.004419646
255	0x3cbf8cb1	0.023382517

weight f4 [256, 1]
0	0xbf526860	-0.82190514
1	0x3f6417f6	0.8909906
2	0xbed418fe	-0.41425318
3	0xbf7e3ab2	-0.9930831
4	0xbf06d907	-0.5267491
5	0x3e2c709c	0.16839832
6	0x3efe7c9b	0.4970444
7	0xbeec3aa8	-0.461385
8	0x3f36dddd	0.71432287
9	0x3f0773af	0.52910894
10	0xbf178d84	-0.5920031
11	0xbf062fc6	-0.52416646
12	0x3e20e15a	0.15710965
13	0x3ed1d11b	0.40979847
14	0xbf7ca54c	-0.98689723
15	0xbef90265	-0.4863464
16	0xbe9b1e60	-0.30296612
17	0x3f31c27d	0.6943739
18	0xbfab6957	-1.3391522
19	0xbefa3b84	-0.48873532
20	0x3f20ff67	0.62889713
21	0xbffb00ce	-1.960962
22	0x3e1310f0	0.1436193
23	0xbf2c4f00	-0.67308044
24	0xbf08f80a	-0.5350348
25	0xbda44733	-0.08021393
26	0xbdc5d204	-0.09659198
27	0x3d53f980	0.051751614
28	0x3f517386	0.818169
29	0xbf69f314	-0.9138653
30	0xbe8a6ba8	-0.2703526
31	0x3ec30b76	0.38094682
32	0xbeedf0b6	-0.4647271
33	0x3f217838	0.63074064
34	0x3c76613f	0.015037834
35	0x3f14fe65	0.58200675
36	0xbf49e820	-0.7886982
37	0xbe8d2c94	-0.27573073
38	0xbd6955ec	-0.056966707
39	0x3f62a553	0.88533515
40	0xbd2ceb60	-0.04221666
41	0x3f170f9d	0.590082
42	0xbdfb86b5	-0.12281553
43	0xbe855f74	-0.26049387
44	0xbd86c330	-0.06580198
45	0x3f55d25a	0.83524096
46	0xbed4ed95	-0.4158751
47	0x3e527e43	0.20555978
48	0x3eabd66c	0.33562028
49	0xbd0b3228	-0.03398338
50	0x3f2048d7	0.62611145
51	0xbe42c8c0	-0.19021893
52	0x3f694338	0.9111819
53	0x3f2e9c8d	0.6820763
54	0xbedceee0	-0.43150997
55	0xbe44c244	-0.19214731
56	0xbf2786fc	-0.65440345
57	0x3e72495f	0.23660801
58	0xbedbb608	-0.42912316
59	0xbed83628	-0.42228818
60	0x3f4090e3	0.7522108
61	0xbf764b3d	-0.96208555
62	0xbe866a55	-0.26253
63	0xbf33e108	-0.70265245
64	0xbe793028	-0.24334776
65	0x3f11987d	0.56873304
66	0x3ee6ee19	0.4510353
67	0x3f27db29	0.65568787
68	0xbc82d900	-0.015972614
69	0x3f35c25b	0.7099969
70	0x3f3fca45	0.74918014
71	0xbf2d3ddf	-0.6767253
72	0x3e5f3bc8	0.21800148
73	0x3e3994c1	0.18123151
74	0xbf332e40	-0.69992447
75	0xbeff88f9	-0.4990919
76	0xbec20cb4	-0.37900317
77	0xbebbf410	-0.36709642
78	0x3eec84ea	0.46195155
79	0xbecf2c48	-0.4046347
80	0xbf6fae0a	-0.9362494
81	0x3f2d51f5	0.6770318
82	0x3f53c498	0.82721853
83	0x3bbc4e8b	0.0057466677
84	0x3f3a1a8b	0.7269675
85	0xbeee03c0	-0.46487236
86	0x3f0c1ef2	0.5473472
87	0x3f1df924	0.61708283
88	0x3f5a39a3	0.85244197
89	0xbec9c37d	-0.39406958
90	0xbf88103c	-1.0629954
91	0x3f44bc2e	0.7684964
92	0xbf663fe2	-0.8994123
93	0x3ea97dbe	0.33103746
94	0xc01fb29d	-2.4952767
95	0x3ca4f558	0.02013652
96	0x3e5906ca	0.21193996
97	0xbefd2170	-0.49439573
98	0x3d958490	0.07300675
99	0xbf533105	-0.8249667
100	0x3e96682a	0.29376346
101	0x3e9d804e	0.3076195
102	0x3e849e33	0.25901946
103	0xbef246d4	-0.47319663
104	0x3eccc830	0.3999648
105	0x3f0edec7	0.5580868
106	0xbf43ffd9	-0.7656227
107	0xbe1d7e10	-0.1538012
108	0xbf3051d4	-0.6887486
109	0xbe170000	-0.14746094
110	0xbf03ec96	-0.51532876
111	0x3f11355a	0.56722033
112	0xbeaca82c	-0.33722055
113	0x3ed052dc	0.40688217
114	0x3eb9cba3	0.36288175
115	0xbe7beeb5	-0.24602778
116	0xbdfd1b85	-0.123587646
117	0x3f3a79fa	0.7284237
118	0xbf5a79d0	-0.8534212
119	0xbecbc8a0	-0.39801502
120	0x3f648fbb	0.89281815
121	0xbe613922	-0.2199445
122	0xbf436b68	-0.76335764
123	0xbe66c1f0	-0.22534919
124	0xbfb2a17f	-1.3955535
125	0xbe758335	-0.23975833
126	0x3f00332d	0.5007809
127	0x3f696baa	0.9117991
128	0x3e4fe051	0.20300414
129	0xbf1d30a0	-0.6140232
130	0x3e68b573	0.22725467
131	0x3ea668bc	0.3250178
132	0xbd58dfa1	-0.052947644
133	0xbcfd6480	-0.030931711
134	0x3f0e2e6a	0.5553957
135	0x3d06d5e0	0.03291881
136	0xbd1d9060	-0.038467765
137	0xbf3bad2b	-0.7331111
138	0x3e8ec83f	0.2788715
139	0xbefd5b70	-0.49483824
140	0x3ef63983	0.48090753
141	0x3de046e6	0.10951023
142	0x3f64b4fb	0.89338654
143	0xbe8638f2	-0.2621532
144	0x3ee2ddfd	0.4430999
145	0x3f2eea65	0.6832641
146	0xbf019972	-0.50624764
147	0x3e5b1330	0.21394038
148	0x3ef3b1a6	0.47596473
149	0x3f51f847	0.82019466
150	0xc009e74c	-2.1547422
151	0x3eb82d50	0.3597207
152	0x3f23853f	0.6387519
153	0x3ddc0fa4	0.10745171
154	0x3ccd476e	0.025058474
155	0x3f65f6a0	0.89829445
156	0xc0484c87	-3.1296709
157	0x3e798686	0.24367723
158	0xbe529528	-0.20564711
159	0xbd724ba0	-0.059154153
160	0x3ee48c9f	0.44638535
161	0xbf7281a1	-0.9472905
162	0xbaca6800	-0.0015442371
163	0xbf5de4c0	-0.8667717
164	0xbea65116	-0.3248374
165	0x3f47a7e9	0.77990586
166	0x3e9f9cbb	0.31174263
167	0xbf2be285	-0.67142516
168	0x3e8eb14e	0.27869648
169	0x3e8a4ea1	0.27013114
170	0x3e600da4	0.21880203
171	0x3f0da06c	0.5532291
172	0xbebe5928	-0.37177396
173	0xbf732f9c	-0.9499452
174	0x3e96e5ec	0.2947229
175	0x3f495e41	0.78659445
176	0xbef74760	-0.48296642
177	0xbf4b08ec	-0.7931049
178	0x3e39388c	0.18087977
179	0x3f4d3f99	0.8017517
180	0xbf10e719	-0.5660263
181	0xbf53e97a	-0.8277813
182	0x3e48e111	0.19617106
183	0xbed49ded	-0.41526738
184	0xbe5e44c0	-0.21705914
185	0x3dfa09aa	0.122088745
186	0x3ecb912e	0.397592
187	0x3ec4fc99	0.38473967
188	0xbd8027bd	-0.062575795
189	0x3e28c52a	0.16481462
190	0xbf1fe45a	-0.6245781
191	0xbefc8f09	-0.49327877
192	0x3ee5f696	0.44914693
193	0x3e19ecd8	0.15031755
194	0x3ef4d8a4	0.47821534
195	0xbf56133c	-0.836231
196	0x3f06cb08	0.5265355
197	0xbd8dcef0	-0.06924236
198	0x3f2dcf16	0.67894113
199	0xbe2d45b8	-0.16921127
200	0x3f18058f	0.5938348
201	0xbf4fd6fc	-0.81187415
202	0x3f543653	0.8289539
203	0xbef837bf	-0.4848003
204	0xbe4e78f3	-0.20163326
205	0x3e5ef61b	0.2177357
206	0xbece467c	-0.4028815
207	0xbf1a182f	-0.6019315
208	0xbcdf5fc0	-0.027267337
209	0x3f121b48	0.5707288
210	0xbf1f341a	-0.62188876
211	0x3f2c81fd	0.67385846
212	0x3e271e78	0.16320217
213	0xbf08964a	-0.5335432
214	0x3f5c68ce	0.8609742
215	0xbf19fbae	-0.6014966
216	0xbef8f506	-0.48624438
217	0xbf01c5e2	-0.5069257
218	0xbedd2ec0	-0.4319973
219	0x3f245da3	0.6420538
220	0xbf0e9cc4	-0.55707955
221	0xbf402815	-0.7506116
222	0xbe07f45f	-0.13276814
223	0x3e623569	0.22090687
224	0x3c1b87f5	0.009492864
225	0x3e82a35c	0.25515258
226	0x3e1534e7	0.14570962
227	0x3dd13b4c	0.10216388
228	0x3f5389a2	0.82631886
229	0xbf7269e8	-0.9469285
230	0xbebbb215	-0.36659303
231	0xbf68245e	-0.9068049
232	0xbf088fb6	-0.53344285
233	0x3ebfebb2	0.3748451
234	0xbf2717f6	-0.65270936
235	0xbf45e211	-0.77298075
236	0x3e22d5dc	0.15901893
237	0xc024b134	-2.5733156
238	0xbf1aa56e	-0.60408676
239	0xbddb7ced	-0.10717187
240	0x3f28000c	0.6562507
241	0xbf28bae8	-0.65910196
242	0x3ec9ca0c	0.39411962
243	0x3ef869f0	0.48518324
244	0x3e48cf41	0.19610311
245	0xbf41c1f6	-0.75686586
246	0x3ad85800	0.0016505718
247	0xbe717ecd	-0.23583527
248	0x3da79030	0.081817985
249	0x3c91efea	0.017814595
250	0xbf308446	-0.68951833
251	0xbee91ee2	-0.45531374
252	0x3e695fec	0.22790498
253	0x3f5a9e55	0.85397846
254	0x3ea34cc3	0.31894502
255	0xbf679d22	-0.9047414
