checkpoints/90552000.ckpt (torch, 122663 bytes, 33 tensors)

weight f4 [256, 18]
0.14520797 -0.12388633 -0.11778825 -0.12614469 0.267408 -0.13307263 -0.22283778 -0.1580452
0.114151336 0.027705671 0.10568345 0.042378005 0.14136249 -0.16579911 0.2120866 -0.07635502
0.20826301 0.17108302 0.004019636 0.13483608 0.14568311 0.0689611 0.15314122 -0.059407257
-0.16891032 -0.1383712 0.004132886 -0.16966546 -0.17889088 -0.0039495546 0.09964086 0.07163729
0.08628404 0.049899884 0.2278476 -0.0146087725 -0.08242641 -0.11398903 -0.047985837 -0.038248755
-0.22396098 0.043620545 -0.09768772 -0.303403 -0.089774765 -0.060539395 0.030096764 -0.0071592303
-0.017888526 -0.095381744 0.03443397 0.05898123 -0.17347859 0.12070461 -0.108454324 0.098457605
0.113413885 0.10237111 -0.015396 -0.015931327 -0.17513485 -0.017466733 -0.00079974195 -0.17933843
-0.23550324 -0.15528367 0.16127998 0.2204453 0.09579648 -0.2195965 -0.11749398 -0.048913643
-0.12490637 -0.19196698 -0.097219 0.18536532 -0.15932328 -0.11902689 0.07483826 -0.21742848
0.049810994 0.19346166 0.09671685 0.00045052858 0.049157795 -0.12810422 0.15505096 0.085414775
0.093904935 -0.23122093 0.017852616 0.028521493 -0.0036621287 0.010642415 -0.015924273 0.24201345
-0.04810149 -0.13101096 -0.13649218 -0.004604681 0.03808506 0.0038555616 0.008423545 -0.12595041
-0.067024834 -0.010516173 -0.111076936 -0.13112544 -0.1346938 -0.22127673 -0.13708767 -0.03143814
-0.20833088 -0.044088848 0.019729342 0.13237382 -0.0815827 -0.13406095 0.15007214 -0.065456256
0.022724656 0.13807364 0.06710248 0.13930568 0.16928197 0.025598295 -0.087609686 0.056824945
0.06498694 -0.0919187 -0.22448465 0.11899444 -0.08187276 0.0034956727 0.06809841 -0.07605688
-0.0077624093 -0.12139938 -0.019028703 0.11481239 -0.020073656 -0.06499244 -0.042509746 0.04333317
-0.048983105 -0.13914238 -0.069250576 0.096812405 0.039721634 0.20157039 -0.114363775 -0.0077120536
-0.23610604 0.08354585 -0.17140487 -0.0030277483 -0.06541986 -0.03863134 0.0082536405 0.13138776
-0.22223295 -0.031262208 -0.26665315 0.09918678 0.1280585 -0.07685308 0.023523243 0.036972754
-0.09825005 0.15946068 -0.022981422 0.11531421 0.033333305 -0.14820875 -0.1083396 0.039805304
0.08879401 0.042091988 0.0037840079 -0.010471176 0.33658662 -0.028092498 0.03272969 0.0685815
0.24360752 0.17897405 -0.0974878 0.20738629 -0.25433892 -0.10075905 -0.18484758 0.05606914
0.12184687 0.02759796 0.086317115 0.021544449 0.15497896 -0.05659459 0.12239469 0.10256261
-0.016868034 -0.010806871 -0.042220037 -0.15768892 -0.15679108 0.025363376 0.14962001 -0.13694647
-0.033098448 -0.02365807 0.055156983 0.027268842 0.016449068 -0.118433505 0.06203975 0.006687389
0.056645494 0.12563768 0.06127768 -0.098303445 -0.25120598 -0.15430714 -0.082784116 0.07515316
0.056817833 -0.007970684 -0.11926719 0.005284318 0.011887578 -0.022887716 0.09906643 -0.037167523
-0.10165443 0.033633344 0.16612881 -0.11601758 0.11623032 -0.03912459 -0.05952005 -0.19002599
0.1580333 -0.12237236 0.13712825 0.15084329 -0.03685509 0.1253384 -0.102407284 0.1088749
-0.15820193 -0.19800866 -0.122907825 -0.18741055 0.044041675 0.008098785 0.002332753 0.0036347054
00000000: 66b1 143e 1eb8 fdbd f73a f1bd 132c 01be
00000010: b4e9 883e 3144 08be 962f 64be 9ad6 21be
00000020: 2dc8 e93d 01f7 e23c 9170 d83d 8f94 2d3d
00000030: 54c1 103e 3ec7 29be 3b2d 593e 0560 9cbd
00000040: e642 553e 6330 2f3e 27b7 833b 7812 0a3e
00000050: f42d 153e 7a3b 8d3d 0dd1 1c3e 0655 73bd
00000060: d4f6 2cbe 2eb1 0dbe 296d 873b c8bc 2dbe
00000070: 2c2f 37be 446b 81bb 8210 cc3d 92b6 923d
00000080: b0b5 b03d d263 4c3d e250 693e a259 6fbc
00000090: 2dcf a8bd 1573 e9bd cc8c 44bd baaa 1cbd
000000a0: 0756 65be 75ab 323d 8010 c8bd a357 9bbe
000000b0: d5db b7bd 28f8 77bd 7d8d f63c fa97 eabb
000000c0: f58a 92bc 8157 c3bd a20a 0d3d 4d96 713d
000000d0: 5fa4 31be fb33 f73d 4d1d debd 24a4 c93d
000000e0: 8a45 e83d f2a7 d13d 813f 7cbc 6a82 82bc
000000f0: 8d56 33be 6516 8fbc c6a5 51ba 7ea4 37be
00000100: c327 71be af02 1fbe 9426 253e 6abc 613e
00000110: f230 c43d e8dd 60be afa0 f0bd ac59 48bd
00000120: e9ce ffbd fe92 44be c11a c7bd 68d0 3d3e
00000130: a425 23be 5fc4 f3bd cd44 993d 92a5 5ebe
00000140: 9d06 4c3d d01a 463e 7c13 c63d ec34 ec39
00000150: af59 493d c12d 03be aec5 1e3e f1ed ae3d
00000160: 3b51 c03d 2ec5 6cbe a63f 923c e8a5 e93c
00000170: 5300 70bb 865d 2e3c 9f73 82bc 60d2 773e
00000180: 1106 45bd bd27 06be 9bc4 0bbe dde2 96bb
00000190: 14ff 1b3d 97ad 7c3b e902 0a3c 25f9 00be
000001a0: 5144 89bd 074c 2cbc 4e7c e3bd bf45 06be
000001b0: 2ced 09be 5e96 62be b660 0cbe 47c5 00bd
000001c0: b154 55be 8296 34bd 6e9f a13c 018d 073e
000001d0: d514 a7bd 4647 09be 83ac 193e ee0d 86bd
000001e0: 0f29 ba3c 2d63 0d3e 066d 893d 26a6 0e3e
000001f0: 4158 2d3e 84b3 d13c b56c b3bd 46c1 683d
00000200: df17 853d df3f bcbd 4edf 65be 5bb3 f33d
00000210: e8ac a7bd a817 653b 2e77 8b3d b6c3 9bbd
00000220: cf5b febb 3da0 f8bd 15e2 9bbc c222 eb3d
00000230: 8271 a4bc c21a 85bd b31e 2ebd 1f7e 313d
00000240: 82a2 48bd 577b 0ebe 3fd3 8dbd 9545 c63d
00000250: 27b3 223d 7868 4e3e 8e37 eabd 65b5 fcbb
00000260: c8c5 71be 161a ab3d c284 2fbe 306d 46bb
00000270: d9fa 85bd e53b 1ebd 473a 073c 838a 063e
00000280: 0991 63be cd0c 00bd c386 88be 7022 cb3d
00000290: c421 033e 2665 9dbd d1b3 c03c be70 173d
000002a0: 5237 c9bd a949 233e 8943 bcbc db29 ec3d
000002b0: 8188 083d 09c4 17be 27e1 ddbd e30a 233d
000002c0: a2d9 b53d a668 2c3d 1efd 773b 4c8f 2bbc
000002d0: 1555 ac3e 3d22 e6bc 910f 063d 7574 8c3d
000002e0: 4074 793e f944 373e afa7 c7bd 125d 543e
000002f0: b638 82be c35a cebd af48 3dbe c1a8 653d
00000300: da8a f93d 1e15 e23c 07c7 b03d fc7d b03c
00000310: ceb2 1e3e bbcf 67bd 11aa fa3d 580c d23d
00000320: d52e 8abc 4d0f 31bc ebee 2cbd 3479 21be
00000330: d78d 20be dbc6 cf3c fd35 193e b23b 0cbe
00000340: 3d92 07bd 92ce c1bc 4aec 613d e862 df3c
00000350: 32c0 863c 448d f2bd 651d 7e3d e321 db3b
00000360: 1b05 683d 2aa7 003e 4efe 7a3d 5153 c9bd
00000370: 129e 80be b102 1ebe b88a a9bd e6e9 993d
00000380: d1b9 683d 7997 02bc 5b42 f4bd 1228 ad3b
00000390: 1ec4 423c 057f bbbc 57e3 ca3d f93c 18bd
000003a0: 3330 d0bd 1ec3 093d ac1d 2a3e a09a edbd
000003b0: 290a ee3d 1b41 20bd 4ccb 73bd 2c96 42be
000003c0: 7bd3 213e 5c9e fabd 596b 0c3e aa76 1a3e
000003d0: 5df5 16bd b658 003e e9ba d1bd cef9 de3d
000003e0: b0ff 21be c8c2 4abe 19b7 fbbd 8de8 3fbe
000003f0: 0b65 343d c4b0 043c 1ae1 183b 3d34 6e3b

bias f4 [256]
0.21070118 -0.026875455 -0.025143921 0.04262738 -0.1651927 0.061036784 -0.20399663 0.1611282
0.12500694 0.06638445 0.04119167 0.17024003 -0.25614765 -0.21122535 -0.040983353 -0.07761322
0.08481844 0.16162053 -0.03791667 0.026415644 -0.02938818 0.0028365806 0.09241612 0.0029629255
-0.10977336 -0.30114546 -0.012136496 0.03980276 -0.03948864 0.13441016 0.15909898 -0.15211146
-0.17130093 -0.1765166 -0.23946662 -0.025600852 -0.25858837 -0.07277441 -0.31505263 -0.0965304
-0.263307 0.10671713 -0.11942978 -0.21786197 0.06528515 0.1796743 0.16734071 -0.28158534
0.08124648 -0.058907438 -0.22339784 -0.13537435 -0.14092259 0.06825192 -0.074071236 0.0362889
-0.12809703 -0.07262368 0.05273034 -0.026560336 0.0051456764 -0.24713275 -0.23992518 0.06605787
0.112537235 -0.043976035 -0.16535653 0.0069985334 -0.0987261 0.13497604 -0.1404782 0.09697153
0.1025611 -0.19713935 0.06682366 -0.15916295 -0.08166544 0.0054802657 0.007976568 0.17573585
-0.04814812 0.13808614 0.003390846 -0.05907573 -0.12400345 0.12142357 0.054817196 0.10773104
0.038940504 -0.21604416 -0.037714038 -0.035918098 -0.07719585 -0.22186418 -0.16572276 0.15274717
0.20421496 0.03855161 0.19809416 -0.17099068 -0.25185916 0.15969041 0.060838044 -0.18231554
0.06903151 -0.13087942 0.21007712 0.14700198 0.002848624 -0.14311193 0.11404097 -0.26065683
-0.16237442 0.1288078 0.011027689 -0.0990066 0.18410856 -0.15371005 0.1361829 -0.16620974
-0.029706717 -0.06116369 -0.11859818 0.0533204 -0.11662301 0.031782184 -0.08582778 -0.124105014
0.117474996 -0.09845983 0.22702762 0.066218644 0.038084924 -0.08680071 -0.22164243 0.009683495
-0.05402778 0.024918238 0.017365681 -0.05909852 -0.2510827 0.08384489 -0.16069445 -0.09034038
-0.22197038 0.12203753 -0.19545175 -0.03344766 -0.00771016 -0.21818598 0.07024537 -0.11434298
-0.13401046 -0.3137701 -0.053049814 -0.12758344 0.020973003 -0.07779381 0.1856236 0.00993837
-0.018891722 -0.15048286 -0.12840739 0.1715609 -0.064743996 -0.06045816 0.039588947 0.13534485
-0.097750716 0.1289458 -0.026714483 -0.26267865 -0.1229549 -0.22266476 -0.27493584 0.15539932
-0.20019364 0.13857836 -0.1797467 0.04192016 0.1766897 -0.32115477 0.045915052 -0.30119565
0.08054551 -0.2064957 0.19662055 -0.1609058 0.16307035 -0.25706273 -0.22592525 0.042988703
0.07395337 -0.07966747 0.12765747 -0.086840235 0.10533591 -0.19953649 0.10842462 -0.018478975
-0.09883591 -0.05254358 -0.079444796 0.022893187 -0.04498723 0.075282216 -0.30808666 -0.008687644
-0.1319046 -0.15968238 -0.09799764 0.07183334 0.048922323 0.1553315 -0.06212567 -0.10090932
0.07263363 0.056787133 -0.18342151 -0.26547292 0.20043479 0.100819245 0.15967695 -0.09116747
-0.08384262 -0.10888922 0.07278677 -0.07337659 -0.048956715 0.029817069 0.14365922 0.07751893
0.010892715 0.06984698 0.1476302 0.093474686 0.094617024 0.19597867 0.08877766 -0.09162776
0.060736682 -0.21355136 -0.10726555 0.043444924 0.17530972 -0.2163366 0.03361308 -0.047309432
-0.14151788 -0.14215443 -0.15464959 -0.24195331 -0.22485444 -0.019519888 -0.029180968 -0.19860284
00000000: 0dc2 573e ea29 dcbc a0fa cdbc 0c9a 2e3d
00000010: 4628 29be b501 7a3d 7ee4 50be cafe 243e
00000020: d201 003e 92f4 873d 99b8 283d 6753 2e3e
00000030: c925 83be 754b 58be 29de 27bd aef3 9ebd
00000040: 4ab5 ad3d da7f 253e 834e 1bbd 9f65 d83c
00000050: 7bbf f0bc ede5 393b aa44 bd3d a42d 423b
00000060: dbd0 e0bd bd2f 9abe 27d8 46bc 3808 233d
00000070: d7be 21bd d1a2 093e d8ea 223e 1bc3 1bbe
00000080: 8369 2fbe c5c0 34be bd36 75be e1b8 d1bc
00000090: b265 84be c00a 95bd 944e a1be bbb1 c5bd
000000a0: 2dd0 86be 838e da3d 9a97 f4bd 3517 5fbe
000000b0: 39b4 853d 8afc 373e 5d5b 2b3e f42b 90be
000000c0: 8e64 a63d ed48 71bd 67c2 64be 939f 0abe
000000d0: 034e 10be aac7 8b3d a9b2 97bd aba3 143d
000000e0: de2b 03be b9bb 94bd c5fb 573d 1095 d9bc
000000f0: 109d a83b 5e10 7dbe f2ae 75be 5949 873d
00000100: ec79 e63d 3720 34bd 3953 29be f453 e53b
00000110: e930 cabd 2937 0a3e 84d9 0fbe 0299 c63d
00000120: 8e0b d23d e6de 49be d8da 883d 9dfb 22be
00000130: 3640 a7bd cd93 b33b 27b0 023c 19f4 333e
00000140: f736 45bd 7466 0d3e f538 5e3b 65f9 71bd
00000150: 85f5 fdbd ecac f83d ff87 603d 17a2 dc3d
00000160: 1480 1f3d ae3a 5dbe 097a 1abd db1e 13bd
00000170: dc18 9ebd 5d30 63be 3ab3 29be c169 1c3e
00000180: ba1d 513e 4be8 1d3d 32d9 4a3e 2e18 2fbe
00000190: aff3 80be e285 233e 5031 793d edb0 3abe
000001a0: 6460 8d3d 4105 06be 751e 573e b087 163e
000001b0: fbaf 3a3b ef8b 12be 508e e93d d074 85be
000001c0: 7b45 26be 31e6 033e 7bad 343c f9c3 cabd
000001d0: f486 3c3e 2b66 1dbe 8873 0b3e e332 2abe
000001e0: 805b f3bc c786 7abd 9ae3 f2bd 7e66 5a3d
000001f0: 0bd8 eebd 092e 023d 7ac6 afbd c52a febd
00000200: bb96 f03d 4fa5 c9bd ee79 683e a49d 873d
00000210: f0fe 1b3d 92c4 b1bd 3cf6 62be 86a7 1e3c
00000220: 3c4c 5dbd 5521 cc3c 7942 8e3c 4a11 72bd
00000230: e98d 80be dfb6 ab3d 168d 24be 6104 b9bd
00000240: 344c 63be d0ee f93d 8124 48be 6a00 09bd
00000250: 83a5 fcbb 256c 5fbe cedc 8f3d a72c eabd
00000260: 0a3a 09be 79a6 a0be c34a 59bd 3ca5 02be
00000270: 93cf ab3c 5c52 9fbd 1d14 3e3e 8cd4 223c
00000280: d0c2 9abc 2e18 1abe 3a7d 03be a9ad 2f3e
00000290: 8098 84bd faa2 77bd 0528 223d d797 0a3e
000002a0: 8731 c8bd 5e0a 043e 55d8 dabc d17d 86be
000002b0: c7cf fbbd 3b02 64be 64c4 8cbe 0021 1f3e
000002c0: 90ff 4cbe 7ce7 0d3e 850f 38be 79b4 2b3d
000002d0: 25ee 343e 666e a4be 6c11 3c3d 5136 9abe
000002e0: 0bf5 a43d 9c73 53be e656 493e 7dc4 24be
000002f0: eafb 263e ba9d 83be f358 67be ec14 303d
00000300: dd74 973d b328 a3bd a4b8 023e 4bd9 b1bd
00000310: 5bba d73d 4b53 4cbe ba0d de3d 3861 97bc
00000320: 7b6a cabd f037 57bd f4b3 a2bd 7e8a bb3c
00000330: 8844 38bd 902d 9a3d 89bd 9dbe 9f56 0ebc
00000340: 0012 07be c783 23be fdb2 c8bd 5c1d 933d
00000350: c662 483d 390f 1f3e 7d77 7ebd 8ca9 cebd
00000360: f1c0 943d a099 683d d9d2 3bbe 11ec 87be
00000370: c73e 4d3e 527a ce3d 5b82 233e 03b6 babd
00000380: aeb5 abbd 5001 dfbd 3b11 953d 7746 96bd
00000390: d686 48bd ed42 f43c 671b 133e 3fc2 9e3d
000003a0: 5c77 323c ef0b 8f3d 5f2c 173e a86f bf3d
000003b0: 92c6 c13d a2ae 483e 10d1 b53d 56a7 bbbd
000003c0: 07c7 783d 35ad 5abe 0aae dbbd 4ef3 313d
000003d0: 6484 333e 5787 5dbe dead 093d 89c7 41bd
000003e0: 10ea 10be ee90 11be 765c 1ebe 9cc2 77be
000003f0: 3e40 66be 2ce8 9fbc ed0c efbc 8b5e 4bbe

weight f4 [1, 256]
-0.04132745 -0.022031162 0.013777756 0.057509996 0.016463738 -0.0014730475 -0.022638563 0.008173
-0.022795899 0.012736946 -0.08323639 0.004361994 0.034584247 -0.027125154 -0.0013903362 0.0011034287
-0.013649806 -0.087915495 -0.025806576 -0.017407006 -0.009783671 -0.03039023 -0.012035266 -0.019980807
-0.016556831 0.024100302 0.019776503 0.001160232 0.067203276 0.040492933 0.05073822 0.045178533
0.039709307 -0.027305083 -0.0028006614 0.022872988 -0.039562233 0.008043507 0.0023923693 -0.039749153
0.015994597 0.068302184 0.006008475 0.019998776 -0.018276686 -0.017629161 -0.032829873 0.08170013
-3.7774174e-05 -0.020317871 0.050223503 -0.0002204228 -0.007832457 0.021457968 0.093772076 -0.011701767
0.012248542 -0.00029227606 -0.018702863 -0.01096509 -0.042645194 -0.08992532 0.073126756 0.003234721
0.016956571 -0.0023860298 0.00155321 0.011008357 -0.02172525 0.047069002 -0.014832205 -0.023125298
0.06992239 -0.032157406 0.026733268 -0.030412361 -0.03578989 -0.0012116017 -0.058795653 0.0077457167
0.0075431513 -0.062201586 0.023115003 -0.021762433 0.08669501 0.06882968 -0.068074875 -0.109469265
-0.050629932 0.07663285 0.0379021 0.021655243 -0.09877614 -0.011567783 0.059770513 -0.016268298
-0.0001747276 0.08120283 0.014387323 0.042751297 0.064599305 -0.05099325 0.05187852 -0.0010664961
0.046906114 -0.0135174375 -0.036789127 -0.028465101 0.0145741 -0.041186746 0.013690331 0.08052194
-0.008423266 -0.005114955 -0.042599276 0.018001929 0.013291252 -0.046854336 -0.08125405 -0.006601231
-0.05537321 0.04291378 0.0017844319 -0.057518482 0.06473764 -0.019836994 -0.012255448 0.10285939
-0.08597865 -0.006244032 -0.083636075 0.084665395 0.033521462 -0.04359881 -0.009069953 0.02136447
-0.00066408375 0.058759768 0.018379785 0.06635118 0.022152849 -0.044262473 -0.025623318 0.0030698609
0.0039321757 -0.001757423 0.03237625 0.007707907 -0.046529766 0.014808937 0.01818789 0.024533251
-0.014035028 0.009270284 -0.041018594 0.031135982 0.015736576 0.019208264 -0.03485925 -0.048021745
-0.059336625 -0.05434341 0.04468978 -0.00987958 0.0023077098 -0.0075318227 0.010357791 0.019980157
0.01023271 0.0030828586 0.0077412874 -0.046792883 -0.02574762 -0.035221413 0.09804296 0.009202217
-0.042059068 0.0029786315 0.009415761 -0.10551715 0.024135178 0.005761226 0.10513544 0.05844731
0.008511317 -0.047884036 0.005442153 -0.035404097 0.013681392 0.0011758175 0.00373785 0.008907351
0.037910603 -0.026751852 0.051153187 -0.006541493 -0.0030312273 -0.04675524 0.03302072 -0.019475948
0.010553395 0.005855916 0.016635867 -0.026345545 -0.05579938 -0.0059635565 0.063141875 0.017278612
0.020649163 -0.014373224 0.008325007 0.011872775 0.054699484 -0.027998624 0.077604435 -0.043083224
0.0023656224 -0.06541465 -0.033650156 -0.0037637202 -0.061231885 -0.03874625 -0.04577903 -0.02567909
0.0032410764 -0.01004157 -0.004285936 -0.0054466594 -0.020310398 0.0064024962 -0.13485576 0.0024249717
0.045187227 -0.019153895 -0.019801829 0.0024543 0.000720493 -0.054932065 0.009403829 -0.099221654
-0.0060154437 -0.070793964 0.057646092 0.04413263 -0.0057259356 0.0003426823 -0.021609884 0.09156863
-0.053289063 -0.019551449 0.019108979 0.033181354 0.053967096 -0.004593928 -0.024122635 -0.029978078
00000000: f946 29bd b27a b4bc 19bc 613c 9a8f 6b3d
00000010: f6de 863c 4613 c1ba 8274 b9bc 0ce8 053c
00000020: 77be babc a0ae 503c d777 aabd 0fef 8e3b
00000030: 36a8 0d3d 9235 debc f13b b6ba eca0 903a
00000040: 70a3 5fbc 0a0d b4bd 5068 d3bc 2399 8ebc
00000050: b14b 20bc eef4 f8bc 902f 45bc caae a3bc
00000060: 31a2 87bc ff6d c53c 5502 a23c ed12 983a
00000070: dfa1 893d ebdb 253d e1d2 4f3d 200d 393d
00000080: 3aa6 223d e9ae dfbc 4d8b 37bb 2260 bb3c
00000090: 020c 22bd eac8 033c 4cc9 1c3b 02d0 22bd
000000a0: 1a07 833c 04e2 8b3d bee2 c43b 79d4 a33c
000000b0: fdb8 95bc 086b 90bc 9e78 06bd 6652 a73d
000000c0: b66f 1eb8 aa71 a6bc 29b7 4d3d 4b21 67b9
000000d0: b553 00bc 9fc8 af3c 930b c03d c5b8 3fbc
000000e0: 1cae 483c a13c 99b9 bf36 99bc eca6 33bc
000000f0: baac 2ebd c42a b8bd 7bc3 953d 9dfd 533b
00000100: 82e8 8a3c f05e 1cbb 1495 cb3a 655c 343c
00000110: 27f9 b1bc 6dcb 403d c702 73bc 4471 bdbc
00000120: 7833 8f3d 7cb7 03bd baff da3c 5823 f9bc
00000130: 6b98 12bd 9bce 9eba b6d3 70bd c8cf fd3b
00000140: 8a2c f73b 17c7 7ebd ad5b bd3c 2147 b2bc
00000150: 278d b13d 93f6 8c3d d76a 8bbd 6c31 e0bd
00000160: 5561 4fbd aff1 9c3d 3b3f 1b3d 5666 b13c
00000170: 254b cabd cc86 3dbc edd1 743d 1845 85bc
00000180: 1537 37b9 ab4d a63d ceb8 6b3c fc1b 2f3d
00000190: a44c 843d 4cde 50bd 927e 543d acc9 8bba
000001a0: a020 403d 3e78 5dbc 32b0 16bd a52f e9bc
000001b0: 35c8 6e3c 6fb3 28bd 694d 603c b0e8 a43d
000001c0: bd01 0abc 5a9b a7bb 947c 2ebd c878 933c
000001d0: 8dc3 593c 55ea 3fbd 8668 a6bd 244f d8bb
000001e0: 05cf 62bd 5cc6 2f3d 99e3 e93a 8098 6bbd
000001f0: 2b95 843d 3181 a2bc 13cb 48bc f2a7 d23d
00000200: 9315 b0bd bd9a ccbb 6449 abbd 0d65 ad3d
00000210: cd4d 093d aa94 32bd 249a 14bc 8a04 af3c
00000220: e815 2eba 15ae 703d 3491 963c 21e3 873d
00000230: e479 b53c 914c 35bd fee7 d1bc b82f 493b
00000240: 7bd9 803b 5559 e6ba f59c 043d 9c92 fc3b
00000250: ff95 3ebd 2fa1 723c c5fe 943c f5f9 c83c
00000260: 2df3 65bc 64e2 173c 1d03 28bd e310 ff3c
00000270: fee9 803c a65a 9d3c 93c8 0ebd 73b2 44bd
00000280: f60a 73bd 3297 5ebd a10c 373d f6dd 21bc
00000290: f23c 173b 82cd f6bb b9b3 293c 6dad a33c
000002a0: 19a7 273c c909 4a3b a0aa fd3b e5a9 3fbd
000002b0: acec d2bc 5444 10bd bfca c83d e5c4 163c
000002c0: 2146 2cbd 2535 433b 9044 1a3c 6019 d8bd
000002d0: 23b7 c53c abc8 bc3b 4051 d73d 7266 6f3d
000002e0: 0d73 0b3c 0d22 44bd 1754 b23b e303 11bd
000002f0: eb27 603c e31d 9a3a b8f6 743b 23f0 113c
00000300: 2648 1b3d b326 dbbc 0186 513d 055a d6bb
00000310: 8ea7 46bb 6c82 3fbd bc40 073d 068c 9fbc
00000320: 26e8 2c3c fce2 bf3b f147 883c 9dd2 d7bc
00000330: e48d 64bd f069 c3bb 8750 813d e08b 8d3c
00000340: 6f28 a93c ac7d 6bbc 9c65 083c 0786 423c
00000350: 910c 603d 5f5d e5bc 13ef 9e3d 0978 30bd
00000360: 8f08 1b3b 1ef8 85bd bfd4 09bd bfa8 76bb
00000370: 49ce 7abd 63b4 1ebd cb82 3bbd f45c d2bc
00000380: 3d68 543b 6685 24bc 0971 8cbb e479 b2bb
00000390: fe61 a6bc 08cc d13b a117 0abe 46ec 1e3b
000003a0: 3e16 393d a1e8 9cbc 7237 a2bc 52d8 203b
000003b0: 77df 3c3a 7200 61bd 8512 1a3c b934 cbbd
000003c0: 331d c5bb 6dfc 90bd 4f1e 6c3d 6bc4 343d
000003d0: a1a0 bbbb 0aaa b339 3607 b1bc 5588 bb3d
000003e0: a245 5abd 5c2a a0bc 6f8a 9c3c 2ce9 073d
000003f0: 9a0c 5d3d a988 96bb d59c c5bc 9694 f5bc

weight f4 [256, 1]
0.56082296 -0.01763371 0.56796193 0.76116556 0.88841075 0.038816627 0.66355497 0.35232797
-0.96307814 -0.50047594 0.20250489 -0.9240372 -0.07066761 -0.9689389 -0.7034594 0.6643555
0.36509266 0.1049242 -0.7485837 -0.30152965 -0.90093064 -0.45211923 0.5485086 0.5340436
0.6720584 -0.81657684 0.3960476 -0.18857509 -0.802015 0.8031655 -0.5204662 -0.3332159
-0.048131704 0.035866227 -0.14780752 0.35371673 -0.5718901 0.6161288 0.22793223 0.004786433
0.79189825 -0.7237898 0.16260654 0.24505915 -0.785763 0.075552225 0.27354833 0.44709283
-1.4790566 -0.6502521 -0.28882334 -0.65869415 0.6615749 -0.43370366 -0.12163806 0.4358894
0.37241364 -0.49612856 0.06736863 -0.6665957 -0.033437647 -0.089619346 -0.22225852 0.5899786
-0.36173868 0.31581423 0.6427106 0.33278424 0.40282643 0.5894697 0.3104243 -0.5332726
-0.7096148 0.252449 0.67168164 -0.8308363 -0.21820469 0.2006357 0.06918727 -0.24310753
-0.1402747 0.014991045 0.6463873 0.2377535 0.40883932 0.7909662 0.86417884 -1.0887818
-0.12147437 0.5715617 0.03980565 0.9072933 -0.5973962 0.9579563 -0.26221725 -0.23773505
-0.5037542 0.39363423 0.2509009 -0.16311182 -0.62044775 0.61988986 0.69093615 -1.1218435
0.7826926 0.13293462 0.23739135 -0.8529017 0.18553753 0.32354936 0.70112437 -1.2113023
0.45079866 0.057607744 -0.604923 -0.7540773 -0.46216255 0.72002465 0.28606057 0.61792195
0.82066494 0.1800124 -0.020486237 -0.85695046 -0.87442017 0.15204315 -0.49103627 0.49422365
0.11017588 -0.56636524 0.026368141 0.36588776 -0.09429268 -0.14900088 -0.08203347 -0.18055642
-0.9820715 0.90132743 -0.5194358 0.21424665 0.22516306 0.29249915 -0.013041019 0.8875396
0.4818486 0.30431783 -0.029146552 0.3708473 0.23551917 0.8331243 0.18165375 0.35082528
0.8003747 -0.13689363 0.2524225 -0.9379822 0.37414914 0.5260472 0.6180171 0.91470236
0.48119828 -0.26353475 0.3884911 -0.06049731 -0.8257079 -0.20965278 0.5900286 0.11906574
0.8942648 -0.11873448 0.08772606 0.7136869 0.13881174 0.039379172 0.7349783 -0.1360475
0.40026045 0.010571361 0.9226326 0.7236176 -0.5730264 -0.6194446 -0.27263927 -0.27958536
-0.827952 -0.2402574 -0.57580686 0.39242905 -0.16423595 -0.00047156293 0.5201265 0.024786616
0.4244858 -0.45118344 0.41022098 0.48925927 -0.3463937 -0.38015664 -0.92690206 0.23508203
-0.89107275 -0.61175823 -0.50068194 -0.7317325 -0.22596073 0.5010802 0.10553046 0.32029575
0.8428057 0.21603625 0.21323444 -0.6670269 0.2997208 0.63662064 0.55555993 0.642999
-0.9864694 0.63693416 0.68747085 0.08507709 -0.84686387 -0.38499594 0.3310173 0.85593075
0.9439043 0.5423398 -0.9613364 -0.95445096 -0.057276845 -0.011393474 0.55304325 0.06794935
0.102380745 -0.35202348 0.9599161 -0.33598292 -0.36610964 -0.5660335 0.8265189 0.84632623
0.028129712 0.7022131 0.44080624 -0.2703178 -0.15016854 -0.9101138 0.61843944 -0.95183265
0.5458144 -1.2542796 -0.83971024 0.61679816 -0.7009728 0.81619376 0.17760691 -0.07426536
00000000: 1892 0f3f 9274 90bc f465 113f bfdb 423f
00000010: e36e 633f 2ffe 1e3d bdde 293f 5564 b43e
00000020: 4a8c 76bf 311f 00bf 715d 4f3e b48d 6cbf
00000030: 2eba 90bd 610c 78bf ea15 34bf 3413 2a3f
00000040: 6ded ba3e 80e2 d63d 2ea3 3fbf 1862 9abe
00000050: 64a3 66bf 2c7c e7be 0f6b 0c3f 15b7 083f
00000060: 050c 2c3f 2e0b 51bf c0c6 ca3e d419 41be
00000070: db50 4dbf 419c 4d3f 463d 05bf 469b aabe
00000080: c025 45bd 77e8 123d db5a 17be 5c1a b53e
00000090: 6467 12bf 9eba 1d3f 1167 693e 83d7 9c3b
000000a0: d8b9 4a3f 4a4a 39bf 5482 263e c9f0 7a3e
000000b0: c427 49bf 20bb 9a3d 870e 8c3e 5ae9 e43e
000000c0: ba51 bdbf ec76 26bf a7e0 93be 2ea0 28bf
000000d0: f95c 293f 680e debe 601d f9bd e52c df3e
000000e0: 00ad be3e 9004 febe 90f8 893d 04a6 2abf
000000f0: eaf5 08bd 598a b7bd bd97 63be d608 173f
00000100: d035 b9be 67b2 a13e af88 243f b262 aa3e
00000110: 443f ce3e 7ce7 163f efef 9e3e 8e84 08bf
00000120: 51a9 35bf ff40 813e 54f3 2b3f b0b1 54bf
00000130: 0d71 5fbe 7273 4d3e 0eb2 8d3d 2ef1 78be
00000140: 2ca4 0fbe 009d 753c a379 253f a775 733e
00000150: 6353 d13e c37c 4a3f d33a 5d3f 345d 8bbf
00000160: 8ec7 f8bd de51 123f 400b 233d 6044 683f
00000170: f5ee 18bf a03c 753f 5741 86be d170 73be
00000180: 09f6 00bf 6d8a c93e 1576 803e c906 27be
00000190: aad5 1ebf 1ab1 1e3f 31e1 303f 9198 8fbf
000001a0: 8b5e 483f 0320 083e b816 733e c457 5abf
000001b0: 8dfd 3d3e 43a8 a53e e37c 333f f40b 9bbf
000001c0: 15cf e63e 19f6 6b3d 3cdc 1abf 360b 41bf
000001d0: 92a0 ecbe 8953 383f 8876 923e 2230 1e3f
000001e0: 1917 523f 2c55 383e c1d2 a7bc 1b61 5bbf
000001f0: 00da 5fbf 33b1 1b3e 1b69 fbbe e20a fd3e
00000200: e4a3 e13d 50fd 10bf 0002 d83c a455 bb3e
00000210: 851c c1bd b093 18be 2a01 a8bd c8e3 38be
00000220: 0a69 7bbf 65bd 663f bff9 04bf 7963 5b3e
00000230: 2591 663e 73c2 953e 00aa 55bc cc35 633f
00000240: dcb4 f63e 8ccf 9b3e c0c4 eebc b3df bd3e
00000250: f02b 713e a247 553f 7103 3a3e 5f9f b33e
00000260: 5be5 4c3f d82d 0cbe 863d 813e 9a1f 70bf
00000270: 7a90 bf3e 08ab 063f 5e36 1e3f ef29 6a3f
00000280: 9f5f f63e 07ee 86be 4ee8 c63e 07cc 77bd
00000290: 9861 53bf 38af 56be 1d0c 173f bdd8 f33d
000002a0: 8aee 643f 102b f3bd b8a9 b33d 2fb4 363f
000002b0: aa24 0e3e 0e4c 213d 8a27 3c3f 0950 0bbe
000002c0: f0ee cc3e 8033 2d3c a631 6c3f 013f 393f
000002d0: dcb1 12bf ec93 1ebf 6097 8bbe d025 8fbe
000002e0: aaf4 53bf 0906 76be 1468 13bf 76ec c83e
000002f0: 782d 28be 1b3c f7b9 0327 053f 4d0d cb3c
00000300: 3456 d93e 8401 e7be 7c08 d23e 3180 fa3e
00000310: 845a b1be e4a3 c2be 7449 6dbf 58b9 703e
00000320: 581d 64bf 309c 1cbf b12c 00bf d252 3bbf
00000330: 4062 67be cb46 003f 5b20 d83d cefd a33e
00000340: 1dc2 573f 9b38 5d3e 215a 5a3e 46c2 2abf
00000350: 0175 993e 92f9 223f 2d39 0e3f 959b 243f
00000360: 4289 7cbf 1e0e 233f 17fe 2f3f e63c ae3d
00000370: 12cc 58bf 301e c5be 197b a93e 471e 5b3f
00000380: b6a3 713f c8d6 0a3f 241a 76bf e656 74bf
00000390: 209b 6abd b2ab 3abc 3e94 0d3f 0729 8b3d
000003a0: ffac d13d 6c3c b4be 10bd 753f f405 acbe
000003b0: b972 bbbe 92e7 10bf be96 533f d6a8 583f
000003c0: 4870 e63c 3dc4 333f 5bb1 e13e 1867 8abe
000003d0: c8c5 19be 38fd 68bf 0c52 1e3f 4eab 73bf
000003e0: 7eba 0b3f 3c8c a0bf 40f7 56bf 7ce6 1d3f
000003f0: f472 33bf 13f2 503f 96de 353e 7018 98bd

bias f4 [256]
-1.0006194 -0.0009468886 -0.3962298 0.007960182 0.55166084 0.23146927 0.5198258 0.53762287
-0.7988615 0.37783605 0.056146707 -0.38251317 0.36618087 0.31730145 -0.55483055 0.860534
-1.29572 -0.96631074 -0.76830304 -0.5588242 -0.99292696 -0.25754058 0.033607315 -0.3780162
-0.8172193 0.15332967 0.18744795 0.6951014 0.41171673 -0.6238482 -0.85753715 0.39751574
-0.5033958 0.3408473 0.7651686 0.8080177 -0.55591977 0.44762242 0.30591825 0.38578388
0.6637602 -0.8245114 0.12498319 0.11101694 -0.0012559046 -0.9673164 -0.99092865 0.47580147
0.11512637 -0.89788055 1.0054009 -0.0011594212 0.4944804 -0.7773719 -0.55473804 -1.5436105
-0.73325694 -0.8919078 -0.6037847 -0.50645924 0.16992828 0.31357744 0.78784037 -0.1571148
-0.6280931 0.8629527 -0.7448617 0.6202614 -0.34498945 0.903549 0.2288685 -0.30994463
0.47269896 0.472371 0.14656049 -0.5735154 0.7527382 -0.73481375 0.46857727 0.2776776
0.7369425 -0.17783141 -0.51864034 0.15208523 0.4005068 -0.9842631 0.0450067 0.5009901
0.3842171 -1.1829534 -0.7310281 0.110735975 0.2788488 -0.4962654 0.90754724 0.8269104
0.65495205 -1.4323133 0.04633836 0.7021916 -0.6168051 0.00019236142 -1.1507448 0.4346603
-0.7042668 0.010670982 -1.2364528 -0.8634566 0.059872583 -1.1423019 -0.49113762 0.8109114
-0.3172071 0.9207432 -0.7379652 -0.31763387 -0.0005082294 -0.16733435 0.3733237 0.06664385
-0.084771775 0.54187804 0.24488223 0.5101525 -0.5220455 0.83802027 0.28825036 0.9159663
-0.5737792 -0.6220628 -0.69177306 -1.312195 0.69380265 -0.46145678 0.248621 -0.51659775
-0.27812314 -0.9292118 0.3554678 0.89470637 0.32358158 0.10776256 -0.2019732 -0.88955206
-0.06431356 0.15856156 -0.1266526 -0.6500801 -0.8609833 0.14303814 -0.6531374 -0.14859076
-0.2648326 -0.260458 0.25773373 -0.23482835 -1.3546362 -0.8500081 -0.16042499 0.07909826
-1.669796 0.38555965 -1.3759848 0.20645711 -0.5620649 -0.7396462 -1.2677516 0.51518375
-0.068808794 -0.5388373 0.61616963 -0.34995392 0.1686102 0.6125018 0.94670177 0.47788846
-0.4982426 -0.654402 -0.65577817 -0.8380591 -0.35596728 0.69102913 -0.31530738 0.98255306
-0.4824922 -0.0007865682 -0.3761437 -0.44256023 -0.9027612 0.35733536 0.7457659 0.076396815
0.47288907 -0.90423405 0.9148606 -0.8080253 -0.90037394 -0.7054789 0.21504365 -0.8524342
-0.23870921 -0.04160452 0.32986885 -0.74469006 -0.591979 -1.7633795 0.48675382 0.35571045
0.07245302 0.021057472 -0.7811352 -0.8604574 -1.0884289 -0.7656766 0.07074687 0.7505923
0.38882336 0.28201953 -1.5033797 0.5742028 -0.99892855 0.54227215 -0.29888916 -0.38240173
0.78529036 0.7401603 -0.24950886 0.025563778 -0.5681585 0.12959974 0.13823375 0.32257274
0.38281834 -0.5684539 0.80452013 -0.8888434 -0.0004493943 -0.94376516 0.7786598 -0.43781585
0.058567382 -0.70659214 -0.023519617 -0.37056613 -0.29695976 -0.6571777 -0.0043614153 -0.12709105
0.16463459 0.5324526 -0.070112586 -0.75976944 -0.9541402 -0.0009929738 -0.64206713 -0.22828388
00000000: 4c14 80bf 9e38 78ba a2de cabe 6c6b 023c
00000010: a539 0d3f 4806 6d3e 4e13 053f a7a1 093f
00000020: 3082 4cbf ba73 c13e 17fa 653d c4d8 c3be
00000030: 0f7c bb3e 5675 a23e 6009 0ebf f54b 5c3f
00000040: 27da a5bf 2460 77bf 82af 44bf 1a0f 0fbf
00000050: 7630 7ebf 5cdc 83be d3a7 093d 578b c1be
00000060: 4935 51bf 7402 1d3e 5bf2 3f3e 2af2 313f
00000070: 89cc d23e 84b4 1fbf 8e87 5bbf 2f87 cb3e
00000080: 8cde 00bf 8a83 ae3e 17e2 433f 3fda 4e3f
00000090: c250 0ebf c42e e53e 51a1 9c3e 7785 c53e
000000a0: 30ec 293f 2e13 53bf 30f7 ff3d d95c e33d
000000b0: 2a9d a4ba 0ca2 77bf 80ad 7dbf 409c f33e
000000c0: 60c7 eb3d 80db 65bf fab0 803f b8f7 97ba
000000d0: 892c fd3e d801 47bf 5003 0ebf 0795 c5bf
000000e0: bab6 3bbf 1254 64bf a291 1abf 50a7 01bf
000000f0: ae01 2e3e 398d a03e e8af 493f b4e2 20be
00000100: b6ca 20bf 78ea 5c3f 42af 3ebf 73c9 1e3f
00000110: 75a2 b0be fd4e 673f 815c 6a3e 10b1 9ebe
00000120: 9905 f23e 9dda f13e f413 163e e8d1 12bf
00000130: 73b3 403f c11c 3cbf 5ce9 ef3e c22b 8e3e
00000140: 44a8 3c3f 7019 36be 9dc5 04bf 3bbc 1b3e
00000150: 3a0f cd3e abf8 7bbf f258 383d e340 003f
00000160: 1bb8 c43e 046b 97bf a824 3bbf 8bc9 e23d
00000170: 45c5 8e3e 8016 febe 0455 683f 66b0 533f
00000180: f0aa 273f 0b56 b7bf 4bcd 3d3d d4c2 333f
00000190: f0e6 1dbf a0b4 4939 9b4b 93bf cb8b de3e
000001a0: d44a 34bf 58d5 2e3c 1644 9ebf 7e0b 5dbf
000001b0: f43c 753d f336 92bf 6476 fbbe e497 4f3f
000001c0: f868 a2be d4b5 6b3f 4aeb 3cbf e8a0 a2be
000001d0: b33a 05ba b259 2bbe 4924 bf3e 927c 883d
000001e0: d39c adbd 85b8 0a3f 68c2 7a3e 5b99 023f
000001f0: c6a4 05bf 7f88 563f 8d95 933e c47c 6a3f
00000200: 32e3 12bf 823f 1fbf 0a18 31bf 01f6 a7bf
00000210: 0d9d 313f 1044 ecbe 8196 7e3e c03f 04bf
00000220: 2866 8ebe d3e0 6dbf e0ff b53e 7a0b 653f
00000230: 7cac a53e 9eb2 dc3d 10d2 4ebe afb9 63bf
00000240: d4b6 83bd f65d 223e 38b1 01be a66b 26bf
00000250: 6769 5cbf 9778 123e 0334 27bf 2d28 18be
00000260: 2398 87be c05a 85be adf5 833e d876 70be
00000270: b864 adbf 219a 59bf 7346 24be 45fe a13d
00000280: e0bb d5bf 1368 c53e 4520 b0bf 7e69 533e
00000290: 7ce3 0fbf 7459 3dbf af45 a2bf 15e3 033f
000002a0: a0eb 8cbd 3ef1 09bf 4bbd 1d3f 292d b3be
000002b0: 27a8 2c3e ebcc 1c3f 0c5b 723f ccad f43e
000002c0: a719 ffbe e486 27bf 14e1 27bf 0b8b 56bf
000002d0: 5841 b6be 49e7 303f f86f a1be 9988 7b3f
000002e0: 3809 f7be b331 4eba e895 c0be 4197 e2be
000002f0: 5c1b 67bf a9f4 b63e 84ea 3e3f ef75 9c3d
00000300: 841e f23e e27b 67bf 4e34 6a3f bfda 4ebf
00000310: e87e 66bf 449a 34bf 6734 5c3e 2139 5abf
00000320: 3070 74be 8069 2abd 92e4 a83e 02a4 3ebf
00000330: f08b 17bf 6bb6 e1bf cc37 f93e ae1f b63e
00000340: 4062 943d b880 ac3c 7af8 47bf f046 5cbf
00000350: a351 8bbf 6203 44bf bce3 903d d126 403f
00000360: db13 c73e dd64 903e bf6e c0bf f4fe 123f
00000370: c8b9 7fbf 59d2 0a3f 0008 99be 29ca c3be
00000380: ca08 493f 257b 3d3f 407f 7fbe 216b d13c
00000390: d672 11bf cbb5 043e 268d 0d3e 4128 a53e
000003a0: c400 c43e 3286 11bf 08f5 4d3f 3e8b 63bf
000003b0: af9c ebb9 989a 71bf 4056 473f 6629 e0be
000003c0: 5ae4 6f3d 39e3 34bf 36ac c0bc d8ba bdbe
000003d0: 1c0b 98be cc3c 28bf 34ea 8ebb 2824 02be
000003e0: f895 283e d04e 083f 3097 8fbd 4080 42bf
000003f0: 8842 74bf ac26 82ba 835e 24bf 40c3 69be

weight f4 [1, 256]
-0.042729195 -0.042839687 -0.04679119 -0.0060394155 -0.0071456013 0.0053393105 -0.016751574 0.016837655
-0.015866803 0.01512079 0.037013974 0.065133885 -0.023299605 -0.03768315 -0.000104006314 -0.017850203
-0.025759319 0.032275937 0.0060333028 1.5876889e-05 -0.025701161 0.07213326 -0.02404474 -0.015954828
0.00614963 -0.013831846 -0.014557952 0.08425393 0.00929062 -0.016768234 0.0027243767 0.02524376
-0.051339682 0.011230995 -0.028836695 -0.028006034 0.05728503 0.019840427 -0.00024401487 0.02009236
-0.027178595 0.03054805 0.01979846 -0.017498702 0.001700404 -0.0696672 0.019766068 0.0378442
-0.021217361 0.013897959 -0.0078605125 -0.0018097843 -0.024785636 -0.016938735 -0.0454726 0.023491321
0.026945122 -0.007999786 0.0018630465 0.017605092 -0.008075531 -0.030538723 0.040990014 -0.079687186
0.019753471 -0.032303266 -0.041780706 0.0006469751 -0.035942405 -0.07166752 -0.07328183 0.0008756821
0.0001322794 0.00458837 -0.027489822 -0.041942693 -0.05062719 -0.006856273 -0.026215201 0.0062423437
-0.03775585 -0.0143784 0.0018324025 -0.011646977 -0.013754484 -0.011057433 -0.05577597 -0.006000082
0.045884952 0.008486326 -0.048422303 0.030248512 0.021629956 -0.04340234 -0.026159514 -0.036681816
0.04074041 0.07109332 0.051231608 0.01708427 0.04935313 -0.025097786 0.048362926 0.005720801
0.030095315 0.027831934 0.039792694 -0.008991532 0.01205768 -0.037301306 -0.01889337 0.040682495
-0.016933942 0.012032776 -0.014746357 -0.03439086 -0.028219536 -0.013069634 -0.0040615387 -0.022040674
-0.029700095 0.032508213 0.003073827 -0.045923904 -0.04674193 0.05621847 0.02297619 -0.035215575
0.021849422 0.009461706 -0.047099236 -0.004549766 -0.016418733 0.044155635 0.013783714 0.0032528478
-0.019889109 -0.025397755 0.028074428 0.006886318 0.009788494 0.00467736 -0.023013629 -0.04698947
-0.0023345689 -0.04506932 -0.027399924 -0.037338126 0.050362 -0.013176188 -0.021769881 0.006373182
0.006722202 0.011873726 -0.010871733 -0.053206682 0.035834406 0.0024704416 -0.055943757 -0.023035519
-0.08017738 0.037744116 0.00073147664 -0.005736964 0.03935947 -0.052618824 0.015916927 -0.03825342
-0.044851575 0.028770514 0.053508714 -0.04653728 -0.011473066 0.020543559 -0.020119607 -0.03205011
0.007420273 0.010090273 0.053527527 -0.07104984 -0.040822495 -0.02127677 -0.0004927933 0.048415475
0.0028182012 0.021425191 0.015157126 0.027731357 -0.035857495 -0.0076552583 -0.00678412 0.05222594
-0.027725235 0.036362838 -0.010182264 -0.017396772 0.017313385 0.03132527 -0.0121039655 -0.015132038
-0.0026833855 -0.0049963193 -0.009752583 0.020731177 0.05296023 0.0056786 -0.032056406 -0.036743082
-0.047723338 -0.057588715 0.055099793 -0.030305907 0.020402621 -0.022699717 0.03259852 -0.03215599
0.052012186 0.0460659 -0.061530057 -0.020986456 -0.045590002 -0.054575965 0.048787452 0.0036169363
0.0027209537 -0.03928637 -0.0031580187 -0.025238026 -0.03513729 -0.005695027 0.060419574 0.04428808
-0.03734958 0.005511151 -0.042229004 0.044997968 0.031507373 0.03254338 0.04025796 -0.0023256408
-0.033820868 -0.06113895 -0.017803647 0.01673418 -0.03907353 -0.073226206 -0.00076673523 0.0096068485
0.007075275 -0.02212479 -0.006914402 -0.048889853 0.050321393 -0.08675255 0.013001582 0.020889407
00000000: cf04 2fbd ab78 2fbd 1ea8 3fbd 4ae6 c5bb
00000010: a625 eabb 62f5 ae3b 993a 89bc 1fef 893c
00000020: 19fb 81bc 31bd 773c f79b 173d ea64 853d
00000030: d0de bebc a659 1abd f71d dab8 973a 92bc
00000040: 3505 d3bc c633 043d 03b3 c53b 5c2f 8537
00000050: 3e8b d2bc 9aba 933d 79f9 c4bc b3b3 82bc
00000060: d682 c93b f89e 62bc 7a84 6ebc 538d ac3d
00000070: af37 183c 895d 89bc 758b 323b 00cc ce3c
00000080: 8f49 52bd 3502 383c ef3a ecbc e96c e5bc
00000090: b5a3 6a3d 6488 a23c 3ede 7fb9 bc98 a43c
000000a0: a5a5 debc e73f fa3c 6130 a23c 7059 8fbc
000000b0: 17e0 de3a adad 8ebd 73ec a13c 8502 1b3d
000000c0: 08d0 adbc 44b4 633c 61c9 00bc 4936 edba
000000d0: 3f0b cbbc 1ac3 8abc 7a41 3abd df70 c03c
000000e0: 04bc dc3c 8911 03bc 7831 f43a 8e38 903c
000000f0: 3b4f 04bc 582c fabc 25e5 273d 0933 a3bd
00000100: 08d2 a13c 6e50 04bd 3f22 2bbd c499 293a
00000110: 5838 13bd 6cc6 92bd c914 96bd 088e 653a
00000120: 7bb4 0a39 0a5a 963b 5632 e1bc 1acc 2bbd
00000130: 755e 4fbd 96aa e0bb 43c1 d6bc 938c cc3b
00000140: e1a5 1abd 6193 6bbc 3a2d f03a f6d2 3ebc
00000150: 7d5a 61bc 3c2a 35bc 5875 64bd 569c c4bb
00000160: dcf1 3b3d 3b0a 0b3c 7756 46bd bacb f73c
00000170: 4e31 b13c a7c6 31bd 7a4c d6bc ac3f 16bd
00000180: 6bdf 263d 6099 913d 3cd8 513d 50f4 8b3c
00000190: 8226 4a3d df99 cdbc 3418 463d 8f75 bb3b
000001a0: 738a f63c ccff e33c aafd 223d 3851 13bc
000001b0: 938d 453c 41c9 18bd 45c6 9abc b0a2 263d
000001c0: 0db9 8abc 1f25 453c b49a 71bc 6edd 0cbd
000001d0: a82c e7bc 0522 56bc a816 85bb a58e b4bc
000001e0: 9d4d f3bc 5527 053d 4272 493b b41a 3cbd
000001f0: 7774 3fbd 5745 663d 9038 bc3c 353e 10bd
00000200: 8ffd b23c 4505 1b3c 21eb 40bd 3416 95bb
00000210: 9480 86bc 8adc 343d 16d5 613c bb2d 553b
00000220: 7cee a2bc f40e d0bc 58fc e53c 9fa6 e13b
00000230: eb5f 203c 8a44 993b 1487 bcbc 0878 40bd
00000240: 91ff 18bb 9b9a 38bd ce75 e0bc ddef 18bd
00000250: 6248 4e3d f0e0 57bc c056 b2bc 20d6 d03b
00000260: eb45 dc3b 048a 423c 5a1f 32bc 40ef 59bd
00000270: 19c7 123d 22e7 213b 4825 65bd fcb4 bcbc
00000280: 0a34 a4bd 9399 1a3d 91c0 3f3a 24fd bbbb
00000290: 6537 213d d686 57bd 3764 823c 9eaf 1cbd
000002a0: 49b6 37bd 24b0 eb3c f42b 5b3d e09d 3ebd
000002b0: 87f9 3bbc f74a a83c e0d1 a4bc fa46 03bd
000002c0: c325 f33b ac51 253c ae3f 5b3d 9482 91bd
000002d0: 7d35 27bd 9f4c aebc cc2e 01ba 4e4f 463d
000002e0: 92b1 383b e283 af3c 9855 783c df2c e33c
000002f0: 4fdf 12bd f6d8 fabb 534d debb deea 553d
00000300: 0820 e3bc 33f1 143d 83d3 26bc ad83 8ebc
00000310: cdd4 8d3c ed4e 003d b64f 46bc 5eec 77bc
00000320: bddb 2fbb 2ab8 a3bb 4cc9 1fbc 6ed4 a93c
00000330: d3ec 583d 8d13 ba3b 944d 03bd ea7f 16bd
00000340: 8c79 43bd 25e2 6bbd 52b0 613d 1844 f8bc
00000350: 6623 a73c c2f4 b9bc 0786 053d 00b6 03bd
00000360: bb0a 553d 99af 3c3d f106 7cbd caeb abbc
00000370: 95bc 3abd 0c8b 5fbd 5ad5 473d 1f0a 6d3b
00000380: 0752 323b bfea 20bd c3f6 4ebb fabf cebc
00000390: 1eec 0fbd 599d babb 847a 773d 6b67 353d
000003a0: e0fb 18bd e396 b43b 52f8 2cbd ca4f 383d
000003b0: e00d 013d 354c 053d 88e5 243d c769 18bb
000003c0: c087 0abd d66c 7abd f4d8 91bc 1e16 893c
000003d0: 910b 20bd 9ff7 95bd bbfe 48ba 0b66 1d3c
000003e0: b5d7 e73b 0c3f b5bc 3592 e2bb ba40 48bd
000003f0: ce1d 4e3d 52ab b1bd 9604 553c 4320 ab3c

weight f4 [256, 1]
-0.82190514 0.88948214 -0.40848657 -0.9930831 -0.5242866 0.17033151 0.4930515 -0.461385
0.70367163 0.53030676 -0.5920031 -0.52416646 0.16111067 0.40958935 -0.9838788 -0.49050003
-0.30296612 0.6903842 -1.3393027 -0.4894123 0.6301349 -2.0010462 0.15667026 -0.67308044
-0.5350348 -0.08169982 -0.09419143 0.051751614 0.8065981 -0.9138653 -0.2657412 0.38182005
-0.4538782 0.63595974 0.015037834 0.58065325 -0.7896051 -0.27573073 -0.05867668 0.88433087
-0.04221666 0.5920738 -0.13348521 -0.26049387 -0.06580198 0.8374161 -0.41666216 0.2122688
0.32494313 -0.028184813 0.6232076 -0.19021893 0.9123359 0.6797708 -0.42729837 -0.1946556
-0.65440345 0.2414356 -0.42912316 -0.42273274 0.75250494 -0.9670345 -0.2653042 -0.70659286
-0.24334776 0.564185 0.44831273 0.65069056 -0.015972614 0.7120165 0.7449377 -0.673021
0.21493503 0.17917888 -0.69992447 -0.48354712 -0.37900317 -0.36709642 0.45647117 -0.4046347
-0.9362494 0.6797046 0.816976 0.005880818 0.72000337 -0.46487236 0.54708785 0.61726135
0.8495326 -0.39490694 -1.0528872 0.7694127 -0.8994123 0.32897308 -2.5791144 0.016251966
0.21270193 -0.49439573 0.07300675 -0.8423358 0.29290354 0.30390245 0.2538727 -0.47319663
0.39860055 0.5581815 -0.7551605 -0.1538012 -0.6887486 -0.14746094 -0.51532876 0.5635603
-0.33722055 0.40498927 0.3592297 -0.24779584 -0.1273452 0.7227734 -0.8525531 -0.39801502
0.8914285 -0.22040166 -0.76335764 -0.22534919 -1.4092962 -0.23523249 0.48713192 0.9116077
0.21552874 -0.6140232 0.24059609 0.32441074 -0.055462945 -0.030931711 0.55058783 0.03291881
-0.038467765 -0.7353624 0.27343076 -0.5253191 0.46737325 0.10179021 0.88815814 -0.260594
0.43272528 0.6858019 -0.50624764 0.21237531 0.47165647 0.8169299 -2.2218015 0.3608484
0.63405293 0.099891685 0.020024702 0.8986451 -3.229681 0.24894498 -0.20564711 -0.059154153
0.44311965 -0.93444306 -0.0015442371 -0.8667717 -0.32824975 0.77389115 0.31224906 -0.67142516
0.27991268 0.26653028 0.20336363 0.5415505 -0.37177396 -0.9499452 0.29578975 0.78230685
-0.48296642 -0.7931049 0.17715836 0.79711944 -0.5576163 -0.8277813 0.1938083 -0.4196081
-0.21705914 0.12378053 0.39045438 0.38896066 -0.06000903 0.17046966 -0.6245781 -0.4910302
0.4525742 0.15412644 0.48008886 -0.836231 0.531715 -0.06924236 0.67842835 -0.16921127
0.5839471 -0.81187415 0.82070196 -0.485781 -0.19740686 0.21472773 -0.4028815 -0.599831
-0.027267337 0.56409144 -0.62188876 0.67649645 0.1651347 -0.5275158 0.85896266 -0.6014966
-0.48380616 -0.5069257 -0.4319973 0.66047406 -0.55707955 -0.73656857 -0.13834293 0.21729559
0.010943582 0.25326058 0.14207837 0.09329982 0.82109857 -0.9469285 -0.37047035 -0.9068049
-0.53344285 0.36295822 -0.65270936 -0.7693335 0.14435768 -2.6364424 -0.60408676 -0.1126249
0.64397 -0.6348833 0.38460547 0.47933155 0.19604567 -0.75351524 0.0016505718 -0.23446204
0.081817985 0.013412398 -0.68951833 -0.45300493 0.23276113 0.8547852 0.31664944 -0.9047414
00000000: 6068 52bf 1ab5 633f 2725 d1be b23a 7ebf
00000010: a637 06bf 626b 2e3e 3f71 fc3e a83a ecbe
00000020: d323 343f 2fc2 073f 848d 17bf c62f 06bf
00000030: 32fa 243e b2b5 d13e 7bdf 7bbf d222 fbbe
00000040: 601e 9bbe 05bd 303f 456e abbf 4094 fabe
00000050: 8550 213f 2411 00c0 2b6e 203e 004f 2cbf
00000060: 0af8 08bf 3c52 a7bd 70e7 c0bd 80f9 533d
00000070: 377d 4e3f 14f3 69bf 3b0f 88be eb7d c33e
00000080: b962 e8be 42ce 223f 3f61 763c b1a5 143f
00000090: 8f23 4abf 942c 8dbe f556 70bd 8263 623f
000000a0: 60eb 2cbd 2692 173f 59b0 08be 745f 85be
000000b0: 30c3 86bd e760 563f be54 d5be fe5c 593e
000000c0: f25e a63e d6e3 e6bc 898a 1f3f c0c8 42be
000000d0: d88e 693f 7605 2e3f dac6 dabe cc53 47be
000000e0: fc86 27bf e53a 773e 08b6 dbbe 6d70 d8be
000000f0: 2aa4 403f 938f 77bf f4d5 87be 45e3 34bf
00000100: 2830 79be 6e6e 103f 3f89 e53e a893 263f
00000110: 00d9 82bc b746 363f 3db4 3e3f 1b4b 2cbf
00000120: ee17 5c3e ab7a 373e 402e 33bf 7d93 f7be
00000130: b40c c2be 10f4 bbbe 97b6 e93e 482c cfbe
00000140: 0aae 6fbf 1f01 2e3f 5725 513f e0b3 c03b
00000150: 2452 383f c003 eebe f30d 0c3f d704 1e3f
00000160: f87a 593f 3e31 cabe 02c5 86bf 3bf8 443f
00000170: e23f 66bf 296f a83e 3610 25c0 d822 853c
00000180: 89ce 593e 7021 fdbe 9084 953d 52a3 57bf
00000190: 74f7 953e 1a99 9b3e 9afb 813e d446 f2be
000001a0: 5f15 cc3e fce4 0e3f 3352 41bf 107e 1dbe
000001b0: d451 30bf 0000 17be 96ec 03bf 7d45 103f
000001c0: 2ca8 acbe c15a cf3e f5ec b73e 31be 7dbe
000001d0: c866 02be ad07 393f ec40 5abf a0c8 cbbe
000001e0: a834 643f f9b0 61be 686b 43bf f0c1 66be
000001f0: d163 b4bf c9e0 70be 5b69 f93e 1f5f 693f
00000200: 91b3 5c3e a030 1dbf d25e 763e 2a19 a63e
00000210: 1d2d 63bd 8064 fdbc 53f3 0c3f e0d5 063d
00000220: 6090 1dbd b640 3cbf 1eff 8b3e 507b 06bf
00000230: 8c4b ef3e 6377 d03d 555e 633f 946c 85be
00000240: 2b8e dd3e b790 2f3f 7299 01bf ea78 593e
00000250: f57c f13e 5122 513f ff31 0ec0 1fc1 b83e
00000260: 4b51 223f 0394 cc3d d80a a43c 9b0d 663f
00000270: 18b3 4ec0 6feb 7e3e 2895 52be a04b 72bd
00000280: 94e0 e23e a937 6fbf 0068 caba c0e4 5dbf
00000290: 5a10 a8be bb1d 463f 1cdf 9f3e 85e2 2bbf
000002a0: b750 8f3e a876 883e 8e3e 503e 0ea3 0a3f
000002b0: 2859 bebe 9c2f 73bf c171 973e 4345 483f
000002c0: 6047 f7be ec08 4bbf 0069 353e 0510 4c3f
000002d0: f1bf 0ebf 7ae9 53bf af75 463e dfd6 d6be
000002e0: c044 5ebe a680 fd3d a3e9 c73e da25 c73e
000002f0: 07cc 75bd 998f 2e3e 5ae4 1fbf 4f68 fbbe
00000300: ceb7 e73e 52d3 1d3e 35ce f53e 3c13 56bf
00000310: 791e 083f f0ce 8dbd 7bad 2d3f b845 2dbe
00000320: 8f7d 153f fcd6 4fbf 8619 523f 4ab8 f8be
00000330: 0625 4abe 96e1 5b3e 7c46 cebe 868e 19bf
00000340: c05f dfbc 4c68 103f 1a34 1fbf df2e 2d3f
00000350: 1219 293e 470b 07bf fae4 5b3f aefb 19bf
00000360: 71b5 f7be e2c5 01bf c02e ddbe d414 293f
00000370: c49c 0ebf c28f 3cbf c5a9 0dbe bc82 5e3e
00000380: b64c 333c 5fab 813e fe7c 113e fa13 bf3d
00000390: 8433 523f e869 72bf 4aae bdbe 5e24 68bf
000003a0: b68f 08bf a9d5 b93e f617 27bf 0af3 44bf
000003b0: 80d2 133e 79bb 28c0 6ea5 1abf e2a7 e6bd
000003c0: 38db 243f b687 22bf 02eb c43e f26a f53e
000003d0: 32c0 483e 60e6 40bf 0058 d83a d116 70be
000003e0: 3090 a73d adbf 5b3c 4684 30bf 43f0 e7be
000003f0: ef58 6e3e 34d3 5a3f e01f a23e 229d 67bf

bias f4 [256]
-0.35073757 -0.49334028 0.74679357 -0.5543269 0.9639687 -0.31237993 -0.575315 -0.17125535
0.27804545 0.8033909 -0.083865404 -0.5720775 -0.6096121 -0.8214817 0.035564207 0.868344
-0.9645672 -0.4124225 0.055171758 0.8787196 -1.2366142 0.105574906 -0.5832648 -0.6898699
-0.31435788 0.67995435 0.77662694 -0.7146199 0.086440474 -0.01963985 0.51978517 0.607276
0.2834109 -1.2043165 -0.14624983 0.5335232 0.42408046 -0.20885289 0.17325577 0.404967
-0.18652153 0.8499415 0.23126128 -0.7489604 -0.76693785 -0.19801483 0.79564637 -0.44412822
-0.12479175 0.2637418 0.36924362 -0.41988647 0.9051588 -0.30249304 0.415006 0.3746225
-0.07814133 -0.94161844 -0.122505546 0.1946941 -0.6443461 0.1658966 0.5158254 0.37982392
-0.77110434 -0.0048858845 0.46684507 0.10382466 -0.97424126 -0.7485906 -1.2261353 0.7450472
0.31004795 0.48488602 -0.17506719 0.5756194 -0.15410757 -0.26700938 0.35001317 -0.6712251
-0.2091825 -0.74878764 0.6531073 0.45139197 0.6826029 -0.32477057 0.014082193 -1.2333531
0.0194788 0.7479183 0.1806307 -0.22638515 -0.2313075 0.21346632 0.067860544 0.27318755
0.42430526 -0.5747317 -0.6122058 0.016486589 0.71711886 0.1646745 0.5587028 -0.4404719
-0.06516948 -0.62291706 0.45794955 -0.79766107 -0.7658088 -0.5435178 -0.97468936 -0.23996188
-0.8295096 -0.044457875 0.06236688 0.9718973 0.49312168 0.13171491 0.20264141 -0.5947578
0.7974318 0.41888186 -0.5626768 -0.5824925 0.17203048 0.20428775 0.41332537 -0.0003432797
-0.82718515 -0.16947937 -0.9081864 -0.6635973 0.61554754 -0.5144377 -0.23269437 -0.64512634
-0.4328586 0.36180443 -0.023594385 0.039357737 -0.017640978 0.530338 -0.6266689 0.50800824
0.009402834 0.43910664 -0.2948476 0.35434476 0.2743679 0.6457221 0.092874624 0.481894
0.3718451 0.71518886 0.84991086 0.00017038708 0.05283779 0.74437594 -0.052482843 -0.03091693
-0.026112001 0.9029281 -0.63264585 -0.06507552 0.5961909 0.35307267 -0.6455208 -0.00022324755
-0.28936186 0.594153 0.37642497 0.6489929 -0.869035 -0.76916564 -0.06618 0.24942401
-0.69928503 -0.1454302 0.3425313 -0.44802216 0.3523497 -0.4309653 0.7873962 0.7780254
-0.61317456 -0.14193916 0.25739244 -0.3309266 0.59813535 -0.594383 -0.58941185 0.8586451
0.8693289 0.68504626 0.9720514 -0.49027693 -0.63596225 -0.48847926 -0.1868399 -0.45011103
-0.58058244 -0.035583496 -0.8972165 0.14228775 0.38428757 0.185352 -0.9863745 0.29774597
-0.4617411 0.40671688 -0.28156257 -0.732038 -0.33449924 0.92298263 0.08865754 -0.30172992
0.8895081 -0.8410107 -0.86811864 -0.81958884 -0.009847403 0.63264215 0.25417823 0.22625273
0.9485786 -0.2983273 -0.5728861 -0.024255348 0.041003976 -0.7640263 0.69472075 -0.237692
-0.98763883 0.717673 -0.52242506 0.44883347 -0.43463576 0.056468103 -0.86335075 0.8455259
0.5155896 0.6000683 0.63900346 -0.13798401 0.31910932 0.81319433 -0.49146628 0.4437675
-0.88578176 0.42550164 -0.2621374 0.48273972 -0.4634331 0.8013809 -0.688721 -0.27517688
00000000: e093 b3be 1997 fcbe dd2d 3f3f 5ee8 0dbf
00000010: a7c6 763f 43f0 9fbe d847 13bf 905d 2fbe
00000020: f95b 8e3e 07ab 4d3f a0c1 abbd ac73 12bf
00000030: 8a0f 1cbf a04c 52bf c6ab 113d cb4b 5e3f
00000040: e0ed 76bf 0b29 d3be c8fb 613d c5f3 603f
00000050: 6049 9ebf a837 d83d d850 15bf 509b 30bf
00000060: 84f3 a0be 7d11 2e3f 06d1 463f 54f1 36bf
00000070: b407 b13d c0e3 a0bc a410 053f 7176 1b3f
00000080: 3c1b 913e 0b27 9abf 84c2 15be fa94 083f
00000090: 1321 d93e 88dd 55be f669 313e d657 cf3e
000000a0: 80ff 3ebe c495 593f c2cf 6c3e debb 3fbf
000000b0: 0a56 44bf 66c4 4abe 7baf 4b3f c664 e3be
000000c0: d192 ffbd 2a09 873e 800d bd3e 5cfb d6be
000000d0: 7db8 673f 5ee0 9abe ab7b d43e 85ce bf3e
000000e0: 9008 a0bd e80d 71bf 30e4 fabd e45d 473e
000000f0: def3 24bf cce0 293e 220d 043f 4878 c23e
00000100: 1867 45bf c519 a0bb 5106 ef3e 06a2 d43d
00000110: e067 79bf a2a3 3fbf 00f2 9cbf 6abb 3e3f
00000120: 9bbe 9e3e fb42 f83e d044 33be cb5b 133f
00000130: 60ce 1dbe 74b5 88be ed34 b33e 68d5 2bbf
00000140: f033 56be 8cb0 3fbf 0a32 273f d91c e73e
00000150: 10bf 2e3f 5448 a6be 00b9 663c 84de 9dbf
00000160: 0192 9f3c 9377 3f3f 41f7 383e 82d1 67be
00000170: e0db 6cbe ea96 5a3e 78fa 8a3d 3ddf 8b3e
00000180: 8a3e d93e 9e21 13bf 85b9 1cbf e20e 873c
00000190: 1a95 373f 6fa0 283e 2607 0f3f 8885 e1be
000001a0: 9477 85bd 7e77 1fbf 5d78 ea3e 8433 4cbf
000001b0: 0c0c 44bf fc23 0bbf 3e85 79bf 91b8 75be
000001c0: be5a 54bf 7619 36bd 6a74 7f3d 43ce 783f
000001d0: 727a fc3e 46e0 063e 3b81 4f3e 0c42 18bf
000001e0: 7e24 4c3f af77 d63e 960b 10bf 3a1e 15bf
000001f0: c228 303e cf30 513e 629f d33e 39fa b3b9
00000200: 68c2 53bf 008c 2dbe e77e 68bf 83e1 29bf
00000210: 8694 1d3f 30b2 03bf 6f47 6ebe 0027 25bf
00000220: a49f ddbe 6e3e b93e 0349 c1bc 9435 213d
00000230: d083 90bc 3bc4 073f 5f6d 20bf d40c 023f
00000240: 580e 1a3c 96d2 e03e 44f6 96be ad6c b53e
00000250: f379 8c3e 0b4e 253f 0d35 be3d cfba f63e
00000260: 7b62 be3e 9e16 373f c293 593f efa9 3239
00000270: 706c 583d 6c8f 3e3f 40f8 56bd 8045 fdbc
00000280: d6e8 d5bc 4c26 673f 14f5 21bf 5046 85bd
00000290: f89f 183f f1c5 b43e da40 25bf 8f17 6ab9
000002a0: 3d27 94be 691a 183f c6ba c03e 6624 263f
000002b0: 1479 5ebf 0ae8 44bf 6189 87bd 0269 7f3e
000002c0: 5804 33bf a8eb 14be 4360 af3e 2963 e5be
000002d0: 2e67 b43e 7ca7 dcbe cc92 493f ac2c 473f
000002e0: 02f9 1cbf 8058 11be f1c8 833e 366f a9be
000002f0: 661f 193f 7c29 18bf b2e3 16bf 2ad0 5b3f
00000300: 578c 5e3f 315f 2f3f 5cd8 783f 9405 fbbe
00000310: 6cce 22bf f419 fabe f552 3fbe f474 e6be
00000320: 0da1 14bf 00c0 11bd fbaf 65bf e1b3 113e
00000330: 57c1 c43e eacc 3d3e 0a83 7cbf 2972 983e
00000340: 5469 ecbe 323d d03e f828 90be d866 3bbf
00000350: 7c43 abbe 9748 6c3f 1692 b53d 587c 9abe
00000360: ceb6 633f 7a4c 57bf 063d 5ebf 93d0 51bf
00000370: 0057 21bc d6f4 213f a623 823e ccae 673e
00000380: 0cd6 723f 5bbe 98be aaa8 12bf 27b3 c6bc
00000390: c9f3 273d 3a97 43bf 38d9 313f 8865 73be
000003a0: e6d5 7cbf 6bb9 373f a6bd 05bf 80cd e53e
000003b0: 9488 debe 194b 673d 8e04 5dbf 6374 583f
000003c0: aefd 033f 139e 193f bb95 233f ae4b 0dbe
000003d0: 4c62 a33e 812d 503f 78a1 fbbe 7e35 e33e
000003e0: 98c2 62bf 5adb d93e e036 86be a929 f73e
000003f0: 1a47 edbe 4c27 4d3f 0550 30bf fce3 8cbe
